models/maml/omniglot_order=1_n=1_k=5_metabatch=32_train_steps=1_val_steps=3.pth (torch, 912351 bytes, 26 tensors)

conv1.0.weight f8 [64, 1, 3, 3]
-0.21725380413276474 -0.34311050315972935 0.8620620763162598 -0.16980344489180726 -0.01817249844256781 0.4801757691804463 0.16070338291605704 -0.13799999568780025
0.7691945792689403 0.21945690723190742 -0.2558676327431608 -0.2650729714656458 0.5426581537388713 0.6319838633333072 -0.013587580962116994 -0.656334947101245
0.26312962066911266 0.37356782617992756 0.5699478130877701 -0.24663993531070622 -0.728692565772982 0.6930976486352808 0.2958146089492205 0.12190359230843867
0.39649706580167043 0.574134146481561 0.33496408799942595 -0.3673225757908524 -0.038619471436110366 -0.4524981026755065 0.027720749710250524 0.23157181146989397
-0.11079593958018828 -0.5507364092935803 0.1306256268637292 -0.46475684710103016 -0.19414344795896474 -0.023390326285381884 0.08002357299632151 -0.36265336807732584
-0.19368220870848255 -0.6963763882913506 0.48819486688912467 0.6192296248789567 0.202437623197239 0.5022549045711632 0.2760580442839493 -0.6663106555861282
0.07271377673915264 0.3083965569882344 0.2971014677078775 -0.4394403021317028 0.028839125705620746 0.5294200451970741 0.2750140093911674 0.09861747503466387
-0.14626566603129948 0.5822294331312883 0.49615259083723046 0.1776896480051083 -0.21516999587972052 -0.36027048023305314 -0.7130788821676076 0.19317634110613163
0.771351693681939 0.7064274518712857 -0.4093475347847561 0.09285734239705948 -0.16917607858725883 0.31690827543080036 -0.4808560519974549 -0.5057731259474981
0.6204772087289286 -0.42149359628520927 -0.14357924622781396 0.23238368394369738 -0.4824116444959025 0.3210624206678423 0.11565621631549496 -0.3294687460806178
0.5137136792074205 -0.2850394378272343 0.1540243972081382 -0.12162837267144035 -0.18147295108314632 -0.49829802868328077 -0.5399191809893158 0.4776516257386498
0.6681121994081793 0.44855247196982817 -0.10546447728748491 0.014643823809957058 -0.41373639015395564 -0.3069041768394662 -0.058953611133533916 -0.5214996580700293
0.5774186722173967 0.28748030178603096 0.8684237851516354 -0.2011018986629768 0.28314842212105357 -0.3754734044937422 0.2214652766487539 0.2927050642139563
-0.5733889969216751 -0.29084155347548807 -0.4072351227355388 0.1922030464393077 0.35563747133678597 0.7517944453288303 0.30652633265486795 -0.09222949656880454
0.3062139624615179 0.32967315555124077 -0.3817531743364428 -0.48285522268330666 -0.5804361163731222 0.03924454144318439 0.430891646527829 -0.4298073280262505
0.3254670278799676 0.7282160317320563 -0.5758074157377877 0.1467330257887598 0.08776803909961214 -0.41245647318052886 -0.024291224406961832 0.6509378286028165
-0.5890674138021481 -0.05727922391987099 0.9155779370636086 -0.38978554792752546 -0.10784280051137113 0.5046171114578462 -0.425816110814424 -0.07132433747043304
-0.053429796933385704 0.4665446920609109 -0.1177655834190547 0.1335490283169994 0.24123696980690956 0.2986190370705342 0.40660119864992755 -0.6602892515438349
-0.13257236837525885 0.07848394821586378 0.5395719747379533 -0.5533620032277611 0.17664058596396012 0.739202290394263 -0.4858217086444047 0.15981773734029792
0.7263509136210138 0.28337900263268373 0.6254127495200363 0.6308242523547314 -0.4343580081548376 0.02476084233899022 0.07838741003573829 -0.4647723175296793
0.03741568695740444 0.04320036585743559 -0.22129274963132983 0.03689305816763578 -0.3677264665880605 0.6125972867274211 0.7030096402204055 0.6790006037230837
-0.09017215495616698 -0.3570218742939836 -0.041743828865892396 -0.47043802105013477 0.40074393136169445 0.41581990789191337 -0.46605583500898834 0.5716667859570945
0.4627810526959639 -0.5557455099547282 -0.23282494929772254 0.7403439868741295 0.5172800532689206 0.12935335902965236 -0.6001924748350337 -0.005243611611921625
0.6861129901065839 0.3301513269707646 -0.4957879675345329 -0.06708458502470717 0.44326904713114057 0.26507104113378166 -0.10075627421830098 -0.2689593428038351
0.16430581496404592 -0.02370153403880404 0.44968064198280455 -0.41316276575086136 0.35913678787682274 0.019995857454590343 -0.0018301936666563702 0.03256689291829969
-0.2937631788052485 0.5834039980099109 0.5692878097859729 0.42929926046779016 0.6856040129164122 0.14606872186847733 1.037317088058233 0.6823252892533264
0.6335284057984139 -0.3046334362326967 0.2344259822309882 0.28406358009826244 0.4091764289129951 -0.5034164728729579 -0.43967269831217165 0.5929519099512968
0.16004823161722928 -0.018169448344807944 -0.36160823292352523 0.7498153735118719 0.20260861526967147 -0.19505277095211349 0.3117293551275792 -0.4286814037938282
-0.5264388433887839 -0.04275074092768329 -0.45007187660285874 -0.29666046672514923 -0.4362885323979645 -0.03700806818464834 -0.39126285408938344 0.46069005245666184
0.7242794363203258 0.704951899098481 -0.4219047567739713 0.36096459198973607 0.7142423936635707 -0.4282134460476934 0.18509140807334343 0.705709130143749
-0.2771780208851249 -0.11565207368200922 0.7828567988938625 -0.3445195337761931 0.24532047368545348 0.26876335854790984 -0.36839700492770533 -0.1583982187683901
0.039127639280209146 -0.26237185684243497 -0.26005166006948854 -0.6462083124170189 0.34044166495837586 0.06102817263407814 -0.5431986828501815 -0.0032173189900837258
00000000: b045 d7ff f8ce cbbf 920c 7fc1 85f5 d5bf
00000010: 5fce 1c35 0396 eb3f 4e7b 4789 1ebc c5bf
00000020: d460 fdb9 cf9b 92bf dd8b 3d26 33bb de3f
00000030: 6592 fdae ed91 c43f 1ae3 29de fba9 c1bf
00000040: fa0e 47f3 3d9d e83f de9e b8f7 2917 cc3f
00000050: f827 afa2 2260 d0bf 42e7 df9f f4f6 d0bf
00000060: 0ceb e6a1 745d e13f a2b8 1339 3639 e43f
00000070: 4590 e93e ced3 8bbf 12b2 a025 b200 e5bf
00000080: 8f7e d89e 1dd7 d03f 60f5 1107 89e8 d73f
00000090: 2d70 3432 033d e23f 5e05 06bc e591 cfbf
000000a0: 49aa 5a12 7351 e7bf 4356 ba1e db2d e63f
000000b0: 6a6b c765 a0ee d23f 14cb 3ae6 1235 bf3f
000000c0: 2800 a53a 3560 d93f 38f7 d492 4e5f e23f
000000d0: 23b0 d236 0d70 d53f 17ab 868c 3682 d7bf
000000e0: 0522 9d6d eec5 a3bf 0e93 1f9a baf5 dcbf
000000f0: c35a b405 d462 9c3f 6a26 7826 25a4 cd3f
00000100: bfc8 0669 1f5d bcbf 9a3c 54f6 a19f e1bf
00000110: 8219 b32d 57b8 c03f 1806 b980 93be ddbf
00000120: 07b4 db47 b1d9 c8bf 0b02 c139 a2f3 97bf
00000130: 14a3 edc4 6c7c b43f 9049 eb78 b635 d7bf
00000140: 4528 1c20 94ca c8bf d55f ad22 b748 e6bf
00000150: 8b49 d7ae 953e df3f 1339 72a5 bad0 e33f
00000160: b359 8edd 79e9 c93f 9d70 ace0 7812 e03f
00000170: 78d3 ff5b efaa d13f ecff 56b9 6a52 e5bf
00000180: d434 10bd 5e9d b23f 72a9 9de9 c4bc d33f
00000190: 2288 d9df b503 d33f 2ccd 8c37 ca1f dcbf
000001a0: 1fe5 00f7 0088 9d3f 1cfc 7e4e 02f1 e03f
000001b0: beb8 115c d499 d13f b685 16ae fe3e b93f
000001c0: 4ee8 1056 d5b8 c2bf fa28 c29e 9fa1 e23f
000001d0: 452e decb f6c0 df3f 4385 82cd 88be c63f
000001e0: 2422 b1bf b08a cbbf df2b 94ea ab0e d7bf
000001f0: 7f19 cccd 8ad1 e6bf 12b5 b499 00ba c83f
00000200: 1b80 42bf e9ae e83f c714 59be 0d9b e63f
00000210: eb51 a600 c032 dabf baf1 c9b0 7fc5 b73f
00000220: 651e 66ce 8fa7 c5bf aca6 b3a5 3948 d43f
00000230: 676a 5a76 58c6 debf 777c 641f 4b2f e0bf
00000240: 81ee ec04 f3da e33f 7b2d e146 c0f9 dabf
00000250: bd65 7703 ce60 c2bf 55c2 54a1 bfbe cd3f
00000260: 5b72 1417 d5df debf f08c 2f65 498c d43f
00000270: 8976 a752 a59b bd3f bc1a 5e14 0416 d5bf
00000280: c384 76ab 5770 e03f d071 e20d 163e d2bf
00000290: c4c4 654a 12b7 c33f a9b8 e37a 0923 bfbf
000002a0: 505f 0173 813a c7bf 10c8 366a 1de4 dfbf
000002b0: 84a1 1a97 0447 e1bf 5b70 db1f d891 de3f
000002c0: 4e89 d0d5 2c61 e53f a49f 696d 15b5 dc3f
000002d0: 53e8 d650 b8ff babf e734 d1c2 94fd 8d3f
000002e0: e315 3832 a87a dabf f300 a26a 51a4 d3bf
000002f0: 0f69 99ef 2a2f aebf 9226 090d 20b0 e0bf
00000300: 35c0 28b9 367a e23f db92 9ac7 1366 d23f
00000310: 0a6f 89ad 20ca eb3f 0de3 f5fe b4bd c9bf
00000320: a321 3b8f 1a1f d23f b460 349a c107 d8bf
00000330: 7ff7 3364 f958 cc3f 9b0a 8b05 aebb d23f
00000340: 5d46 b5e1 3359 e2bf 01af 1fe4 259d d2bf
00000350: bba0 7be7 2310 dabf a2fe 5203 1c9a c83f
00000360: 9be9 27ab c3c2 d63f a20e 8039 b30e e83f
00000370: f063 879f 209e d33f c953 7d2f 5a9c b7bf
00000380: 5c73 9672 0299 d33f 7e8c 5d6f 5d19 d53f
00000390: 4fd4 badd a46e d8bf 972a 8897 19e7 debf
000003a0: 86ac 27c3 ee92 e2bf 6709 174c dc17 a43f
000003b0: 3939 7d8e ba93 db3f 890c 5d98 f681 dbbf
000003c0: 14ee 2aa8 73d4 d43f 5cc9 16b5 8b4d e73f
000003d0: 1a6b 6cac 036d e2bf a0bf 80d5 25c8 c23f
000003e0: 461f 9159 f777 b63f 2b5e d5d5 af65 dabf
000003f0: 9a7b a179 ccdf 98bf d881 b291 7bd4 e43f
00000400: c06c ade7 a3d9 e2bf 46c4 f3d2 b353 adbf
00000410: 3613 141a 6a4c ed3f a156 3315 3ff2 d8bf
00000420: 1c2e 4ef5 959b bbbf 78d4 d6c8 d225 e03f
00000430: 07b4 8337 9240 dbbf 1c29 d8d0 4f42 b2bf
00000440: a4ef eb7c 265b abbf 4589 a144 dedb dd3f
00000450: 3d13 61a1 e225 bebf 135d 8472 2218 c13f
00000460: 8c12 f45f dae0 ce3f c994 8b05 931c d33f
00000470: 4bd0 ad08 c105 da3f adfe a8ec 1621 e5bf
00000480: 3f33 43a1 21f8 c0bf 971c d926 8617 b43f
00000490: 02ce 2a72 2c44 e13f 00cb 563b 24b5 e1bf
000004a0: 2745 eea1 289c c63f 98e4 cb8f 8ba7 e73f
000004b0: bb21 94ef b317 dfbf 0c41 9959 e874 c43f
000004c0: d280 6d45 443e e73f e58c 2baf e122 d23f
000004d0: 7214 3699 6103 e43f 2064 ac57 b62f e43f
000004e0: 76f7 f187 85cc dbbf fdfd 4400 e85a 993f
000004f0: 148a 8582 3211 b43f 0612 f863 d4be ddbf
00000500: 38c9 ad1f 2628 a33f 01db 10bd 5b1e a63f
00000510: cc15 4121 5253 ccbf 5110 8f9c a5e3 a23f
00000520: 8aa3 f796 d488 d7bf 7d9a 03a0 659a e33f
00000530: a99e b012 0e7f e63f 8b8e 5e79 5fba e53f
00000540: c4ec 8bb8 8515 b7bf 7227 8346 72d9 d6bf
00000550: 58e1 9377 725f a5bf 7223 cd12 a81b debf
00000560: 6b36 d1df c9a5 d93f dcf9 5a1a cb9c da3f
00000570: 154f 5eda dbd3 ddbf 18a5 bc24 184b e23f
00000580: 5468 a26b 349e dd3f d8f0 c4ce aac8 e1bf
00000590: 0f9a 763b 35cd cdbf ba44 6ddf e5b0 e73f
000005a0: 8a38 f5e5 8e8d e03f 437e 549f a68e c03f
000005b0: c318 57d9 c634 e3bf d695 2d46 537a 75bf
000005c0: 28cb bb3a a3f4 e53f 0982 0408 3321 d53f
000005d0: 88e9 9374 fdba dfbf 7931 bf92 742c b1bf
000005e0: 1e78 3023 855e dc3f 2252 3287 ecf6 d03f
000005f0: bd68 a2c6 29cb b9bf b5f3 523f a136 d1bf
00000600: 1717 e812 f907 c53f c02c 3f06 3745 98bf
00000610: b077 bd50 91c7 dc3f 7bca b43d 4271 dabf
00000620: 1f2c aedd 18fc d63f a8b1 4a47 cb79 943f
00000630: e285 647c 63fc 5dbf ab69 0898 9bac a03f
00000640: e633 6f13 04cd d2bf e9dc 79dc 3eab e23f
00000650: e359 a111 9b37 e23f 45fe f99a a379 db3f
00000660: 6d6f afd3 77f0 e53f 7962 b23f 61b2 c23f
00000670: 4aac 8ccd d998 f03f f574 52d8 9bd5 e53f
00000680: f2b7 ff5c dd45 e43f 5acd 783d 1d7f d3bf
00000690: 08e4 81ab ab01 ce3f ff6d a002 192e d23f
000006a0: ac6c 1e55 f22f da3f 8d39 e8dc fc1b e0bf
000006b0: 7378 0cf5 9823 dcbf 08ee aa48 76f9 e23f
000006c0: a510 4ae0 757c c43f 2291 b509 039b 92bf
000006d0: afbc 97db 9624 d7bf 3fb0 68cf 7cfe e73f
000006e0: 854c 3c40 14ef c93f 88e3 1d3c 7df7 c8bf
000006f0: cb78 5eae 5ff3 d33f c7a9 6c20 846f dbbf
00000700: 545d f645 96d8 e0bf e20d 54d4 6ce3 a5bf
00000710: baf3 b645 facd dcbf 6e70 a62e 7cfc d2bf
00000720: d638 91bc 26ec dbbf 8618 15b5 b8f2 a2bf
00000730: 8006 9d5a 730a d9bf 7235 3921 f27b dd3f
00000740: d827 8511 4c2d e73f b531 fc48 f78e e63f
00000750: 24bf 17cf 7c00 dbbf 9a08 673b 0b1a d73f
00000760: 1875 46dd 12db e63f 10de 9e5e d967 dbbf
00000770: 6f09 3944 13b1 c73f a297 4e50 2b95 e63f
00000780: 90c8 b7e1 48bd d1bf 9ec6 2dd2 5f9b bdbf
00000790: 9569 96b3 290d e93f 01b9 99a8 9b0c d6bf
000007a0: 0f56 c249 a966 cf3f a7e3 d43a 6b33 d13f
000007b0: 52f7 0608 d193 d7bf 006d ad90 6446 c4bf
000007c0: a307 28b6 8908 a43f fddb 2154 b3ca d0bf
000007d0: ae36 d1b7 afa4 d0bf 9780 070e bdad e4bf
000007e0: f349 4cd6 cbc9 d53f 142e 32ab 153f af3f
000007f0: 3b4c 4234 e261 e1bf 2d92 fbfa 345b 6abf

conv1.0.bias f8 [64]
0.23010936382950806 -0.0031400023345995965 -0.19655176997109008 0.03712657093858245 -0.18713311846107625 0.19149425649340276 0.2333230674584696 0.23700460801216683
-0.31551557774427563 -0.2548958657859177 -0.04761528958174202 0.1863066256671365 -0.1682380139354379 -0.17881450051279962 0.018890410747941917 -0.16996292754931558
-0.03253498671738492 -0.32650208469414566 -0.09297800063808402 0.039704471874416204 -0.060216873765670545 -0.007100671469885927 0.2885476649294833 0.20768818267326383
0.27555540210171064 -0.21384295811512363 0.21955063943389358 0.275263696959107 -0.1853910684457957 -0.11702215658580532 0.19474592803764085 -0.10343262549474323
-0.08442255856308946 -0.1714654415344003 0.2794190348243915 0.18564698112732264 0.1858870089352176 0.2739814222013197 -0.31983423223759094 -0.14943413432812785
0.006847739330846305 -0.24314896754044504 -0.28131711471840454 0.31033894437596504 0.13554787641750954 -0.010601848366021582 -0.2887821792550778 -0.0965332686586151
0.06123819955075182 -0.10874626028838581 -0.18109032505325903 -0.18571130926651597 -0.1523580551413338 -0.26273286333539825 -0.03142186991419197 0.15565553315948416
-0.15154767026160354 0.30780848881542316 0.22464874394044135 -0.05303850770706377 0.2656283080723173 -0.09220843010306747 -0.24405722311702924 -0.2773200272331809
00000000: 5357 1340 3974 cd3f 765a c4ea 0fb9 69bf
00000010: 6695 ffbf 9b28 c9bf 07d8 fcff 4002 a33f
00000020: eff7 e45f faf3 c7bf 7768 8140 e282 c83f
00000030: c679 11c0 87dd cd3f 68ef 34c0 2a56 ce3f
00000040: ca92 f23f 6831 d4bf 6ce9 dbbf 3650 d0bf
00000050: f417 16ff 0761 a8bf 135d 2240 e5d8 c73f
00000060: 34fa e5bf d288 c5bf ee63 e0bf 64e3 c6bf
00000070: b54e 7b01 0258 933f 42a9 ad5f 58c1 c5bf
00000080: d89a daff 6ca8 a0bf 5294 f5ff 68e5 d4bf
00000090: 0ff0 fcff 67cd b7bf 6540 6900 2554 a43f
000000a0: 4259 fbfe bed4 aebf 9382 e2fb 9715 7dbf
000000b0: 1f65 0da0 9077 d23f b475 2cc0 8695 ca3f
000000c0: 9dd4 1020 b3a2 d13f 1bcc cabf 345f cbbf
000000d0: 6a9c 1740 3c1a cc3f 6ec9 0da0 eb9d d13f
000000e0: fdfb f8ff e4ba c7bf 4b84 71ff 29f5 bdbf
000000f0: 06b5 f93f 6fed c83f dbde d67f 8f7a babf
00000100: 99b7 1280 b79c b5bf d668 e45f 94f2 c5bf
00000110: 65d7 1c60 00e2 d13f 5e80 45c0 47c3 c73f
00000120: f062 1040 25cb c73f 383d 0460 e988 d13f
00000130: 9d82 e6ff 2978 d4bf 6a35 ec5f a820 c3bf
00000140: b5e9 a307 600c 7c3f 6939 d25f 811f cfbf
00000150: f751 e17f 1901 d2bf 9546 31e0 97dc d33f
00000160: b0b2 2000 a259 c13f a6de 1200 6cb6 85bf
00000170: e15c e43f 687b d2bf 2f5f dd7f 67b6 b8bf
00000180: bf3c ac00 9d5a af3f 553c 807f cbd6 bbbf
00000190: 9be5 dcbf f72d c7bf 0205 e65f 63c5 c7bf
000001a0: e39d 0e00 7880 c3bf cc09 e77f 9dd0 d0bf
000001b0: e53c 52ff 8616 a0bf 4643 2e40 85ec c33f
000001c0: 847f c7ff e965 c3bf dd2d 3960 22b3 d33f
000001d0: ede4 2740 4ac1 cc3f 729b 0f00 dd27 abbf
000001e0: 9efe 03e0 0d00 d13f 114b b5bf f89a b7bf
000001f0: 97f2 d15f 443d cfbf 8582 df7f 9cbf d1bf

conv1.1.weight f8 [64]
1.4043424186396816 1.1598212162157375 1.7773034061905246 0.9014407535733386 0.9301663287177977 1.3081219356442693 0.8015082795485649 1.1678314772373377
1.03789809482799 0.9829542719447253 1.0995670640077815 0.6870091078652445 1.0294137841637199 0.9662039971611016 1.158424254301712 0.910391513485013
1.082346266831599 1.1448467971400045 0.9704425878199076 1.1673557300097457 1.1373977235848163 0.7702917912018526 1.585571723446874 1.3111240451716863
0.8797145734298827 1.179991483952266 1.1733331292014209 0.7905792532446948 0.980411628506143 0.9032332618288391 0.863870800269113 1.0097467748603126
0.8351088566364614 1.2666886835576987 1.09381717187244 0.8431849370723973 0.9425003233470212 0.9453254059694906 0.8265664265301611 1.1562902981354035
1.6913175836929282 0.8419685048861615 0.924343799280353 1.5246240781935039 1.103614992150236 0.9961543571832233 0.8946024320547734 1.021367806560236
1.7044980527551932 1.0991503187389156 1.0815738878880958 1.1140946986490392 1.6207549736766538 1.2118700035642833 1.094193607396664 1.0022344299238501
1.7574770186624338 1.801225457065922 1.0807741576981815 0.9463140115454256 0.8638852034022995 1.0949712333108932 0.995942743758336 1.3362068758078518
00000000: 6b16 87c1 2f78 f63f 17a8 0db1 a08e f23f
00000010: f885 4ab2 d56f fc3f 7621 7c47 9ad8 ec3f
00000020: d0dd 352d ecc3 ed3f 8f5b 4c44 11ee f43f
00000030: 484c 04b1 f4a5 e93f 6a94 1f0f 70af f23f
00000040: ebde 5d08 3b9b f03f 2cea 6e84 5c74 ef3f
00000050: 2bc1 3aa2 d397 f13f 48bb 4a86 fafb e53f
00000060: 758e 9096 7a78 f03f fa48 22a5 24eb ee3f
00000070: 97e7 f1de e788 f23f 9d2b 1f62 ed21 ed3f
00000080: 9dd4 af51 4a51 f13f be58 0ae0 4a51 f23f
00000090: a7a0 2a9d dd0d ef3f 800a b333 7dad f23f
000000a0: 5577 95f4 c732 f23f dfda 72f8 3aa6 e83f
000000b0: b9aa 9a74 805e f93f 982f f034 5dfa f43f
000000c0: 1d45 562d 9f26 ec3f c822 12c0 3ee1 f23f
000000d0: 31bc 93f5 f8c5 f23f 49a0 b2dc 6c4c e93f
000000e0: dea9 2135 885f ef3f 4bdb 0671 49e7 ec3f
000000f0: 8b01 6460 d4a4 eb3f a843 f43b ec27 f03f
00000100: 5150 7b35 36b9 ea3f 6c7f 615a 5b44 f43f
00000110: ebec 4f6f 4680 f13f 9f95 26fa 5efb ea3f
00000120: 11d6 2770 f628 ee3f b9f0 d610 1b40 ee3f
00000130: 6865 3d6f 3b73 ea3f 43c7 7241 2a80 f23f
00000140: 1fc6 d106 a30f fb3f 45f0 17ef 67f1 ea3f
00000150: 956c 8572 3994 ed3f 5e90 a837 dc64 f83f
00000160: a891 aa31 68a8 f13f c9d5 3b1a 7fe0 ef3f
00000170: 321d 9347 95a0 ec3f c4d0 e5c4 8557 f03f
00000180: 28de 0ac0 9f45 fb3f 26f2 05a5 1e96 f13f
00000190: b7fd ca6b 204e f13f 7a83 75f6 54d3 f13f
000001a0: 4054 6cc4 9cee f93f f4fd 04cd d163 f33f
000001b0: cb2c f427 d181 f13f 952b 37f8 2609 f03f
000001c0: 1b07 ea38 a01e fc3f f221 edc8 d1d1 fc3f
000001d0: 68cf dad7 d94a f13f 84b1 6a52 3448 ee3f
000001e0: d28e 0395 f2a4 eb3f df18 528e 0085 f13f
000001f0: 8f2d 2451 c3de ef3f 988f 0476 1a61 f53f

conv1.1.bias f8 [64]
0.47917427038831106 -0.12638415468900957 0.3068184631836608 -0.46302252278805867 -0.35354266239663873 -0.15047027984252953 -0.1237542349265402 -0.2737119696571654
-0.018888931658763257 -0.2603865926725305 -0.2751851115169865 -0.49002018135272796 -0.09167015509349288 -0.21024198249166862 -0.1073885235431716 -0.23087910923673355
0.21761563002227763 -0.3043035314965928 -0.036255413065684194 -0.16270896832318502 -0.3046267591854615 -0.24605753979616848 0.925032537529624 0.299448619052638
-0.07962691635186893 -0.21777316168184818 0.3053698675872894 -0.46724195549583525 -0.1819964310309832 -0.3110789810263378 -0.1163700183714711 -0.17366735506385458
-0.05611799343396198 0.4942207954646579 -0.18590032007938181 -0.6043325484597033 -0.30709696774237893 -0.17068190924072957 -0.6519596494636968 0.2508648365495182
0.2852150734118662 -0.5374244234952128 -0.6858318645110741 -0.022546133120940063 -0.19648365225307401 -0.26966073428721193 -0.36332716995620634 -0.43252069375233515
0.19550804563483204 -0.43673484301752286 -0.088436699539066 -0.3078770798456452 0.545331464069444 -0.08065774810997058 -0.3112763420795788 -0.5946756844051944
0.9520738794779535 1.0073289565394181 -0.16656956753351568 -0.2594805945124729 -0.2838267423993737 -0.12558144420700934 -0.11047940364988361 0.14903324957145642
00000000: dcc1 198f caaa de3f 759a 8f21 5b2d c0bf
00000010: 0cb3 4be8 e9a2 d33f 80e9 2b38 29a2 ddbf
00000020: 4dff 2e67 71a0 d6bf f2c8 7831 9c42 c3bf
00000030: f440 c087 5bae bfbf 9ae1 8c35 7f84 d1bf
00000040: 3e4e ecbe 9e57 93bf e61a f686 2caa d0bf
00000050: c3f0 9303 a29c d1bf a28e 529b 7d5c dfbf
00000060: 2253 25fe b177 b7bf 4922 8693 35e9 cabf
00000070: f669 9574 d07d bbbf 4a2d c057 728d cdbf
00000080: aaa5 0537 d4da cb3f 7573 f584 b579 d3bf
00000090: 5815 d7ca 1190 a2bf af63 dbc0 a5d3 c4bf
000000a0: 9908 0c3c 017f d3bf ebeb 2d3f d07e cfbf
000000b0: be9e 0dd6 dd99 ed3f d875 6a8a 2a2a d33f
000000c0: a9d3 9cf9 6d62 b4bf 125e afaf fddf cbbf
000000d0: 1929 9e0e 2e8b d33f e61d 8bcd 4ae7 ddbf
000000e0: 4126 a2b7 a84b c7bf c2ca 7ed0 b7e8 d3bf
000000f0: 70f0 23ef 6cca bdbf d9e7 305d bb3a c6bf
00000100: 6432 0865 7fbb acbf 1e86 6142 50a1 df3f
00000110: bf47 87e9 94cb c7bf 4c5e 7136 b156 e3bf
00000120: ccdf 490a 7aa7 d3bf 5498 1aa1 e7d8 c5bf
00000130: 3043 987b dadc e4bf 8a94 2c63 2b0e d03f
00000140: 4555 28b9 f640 d23f 9879 5fb4 9432 e1bf
00000150: 0c27 94aa 55f2 e5bf d16f 9f61 5516 97bf
00000160: 5213 5056 6026 c9bf d8d9 b118 1f42 d1bf
00000170: ef72 2d9a c040 d7bf d49b a046 6bae dbbf
00000180: 1ca1 0d5b 6806 c93f 502c f2b2 76f3 dbbf
00000190: e255 499c c9a3 b6bf 7100 4811 42b4 d3bf
000001a0: d60e 75f8 5a73 e13f ed23 4d76 fca5 b4bf
000001b0: e904 509b f3eb d3bf 30e5 074d 9507 e3bf
000001c0: 1c7a f7a3 6377 ee3f e268 caf7 041e f03f
000001d0: 2f5c 88ce 2652 c5bf 5f2c d87e 549b d0bf
000001e0: 4579 15a4 372a d2bf 4041 ed81 0d13 c0bf
000001f0: 27ce 8ed1 6048 bcbf 8a87 7682 8513 c33f

conv1.1.running_mean f8 [64]
0.23010936382977432 -0.0031400023341103056 -0.19655176997030688 0.03712657093806081 -0.18713311846011735 0.19149425649177673 0.23332306745852496 0.23700460801196974
-0.31551557774407907 -0.25489586578667967 -0.04761528958222465 0.18630662566608083 -0.16823801393607843 -0.17881450051362496 0.018890410747241997 -0.16996292754972966
-0.03253498671766775 -0.3265020846947074 -0.09297800063793739 0.039704471873966404 -0.060216873767839636 -0.007100671469984693 0.2885476649287851 0.20768818267228692
0.27555540210147617 -0.2138429581157689 0.2195506394341374 0.27526369695846326 -0.18539106844544062 -0.11702215658456062 0.1947459280376111 -0.10343262549419877
-0.08442255856307693 -0.1714654415349645 0.27941903482336344 0.18564698112652 0.18588700893449864 0.27398142220166244 -0.3198342322378284 -0.1494341343283772
0.006847739331149457 -0.24314896754126034 -0.2813171147199126 0.3103389443732424 0.13554787641877097 -0.010601848365916603 -0.2887821792558137 -0.09653326865861599
0.06123819955081812 -0.10874626028859881 -0.18109032505303566 -0.1857113092664699 -0.1523580551416754 -0.26273286333710166 -0.03142186991453135 0.1556555331586055
-0.1515476702632897 0.3078084888138986 0.224648743939336 -0.0530385077066146 0.26562830807262483 -0.09220843010264983 -0.2440572231177285 -0.2773200272332368
00000000: cc7c 1340 3974 cd3f 5223 b3ea 0fb9 69bf
00000010: 2c27 ffbf 9b28 c9bf 5eb2 fbff 4002 a33f
00000020: fb70 e45f faf3 c7bf 9f83 8040 e282 c83f
00000030: 9181 11c0 87dd cd3f abd3 34c0 2a56 ce3f
00000040: f584 f23f 6831 d4bf 0a1f dcbf 3650 d0bf
00000050: a627 17ff 0761 a8bf 81c8 2140 e5d8 c73f
00000060: 5954 e6bf d288 c5bf 16d8 e0bf 64e3 c6bf
00000070: ab3a 7801 0258 933f 89e3 ad5f 58c1 c5bf
00000080: 113a dbff 6ca8 a0bf d9bb f5ff 68e5 d4bf
00000090: c9c6 fcff 67cd b7bf 2e43 6800 2554 a43f
000000a0: 591e 00ff bed4 aebf 603f e4fb 9715 7dbf
000000b0: fd33 0da0 9077 d23f 37ec 2bc0 8695 ca3f
000000c0: 1dc4 1020 b3a2 d13f eb26 cbbf 345f cbbf
000000d0: bbbe 1740 3c1a cc3f 219c 0da0 eb9d d13f
000000e0: 04ca f8ff e4ba c7bf f125 70ff 29f5 bdbf
000000f0: d6b0 f93f 6fed c83f 9a45 d67f 8f7a babf
00000100: 12b4 1280 b79c b5bf 3eb8 e45f 94f2 c5bf
00000110: 0d8f 1c60 00e2 d13f 680f 45c0 47c3 c73f
00000120: c1fd 0f40 25cb c73f 5655 0460 e988 d13f
00000130: 5393 e6ff 2978 d4bf 8258 ec5f a820 c3bf
00000140: fc3e a907 600c 7c3f 27ac d25f 811f cfbf
00000150: 16bc e17f 1901 d2bf fe86 30e0 97dc d33f
00000160: 3864 2100 a259 c13f 42f2 1100 6cb6 85bf
00000170: a990 e43f 687b d2bf 6f5f dd7f 67b6 b8bf
00000180: 1262 ac00 9d5a af3f 4978 807f cbd6 bbbf
00000190: 2bc6 dcbf f72d c7bf 86fe e55f 63c5 c7bf
000001a0: f7cd 0e00 7880 c3bf aa81 e77f 9dd0 d0bf
000001b0: f3fb 52ff 8616 a0bf 9dc7 2d40 85ec c33f
000001c0: d26c c8ff e965 c3bf 95c2 3860 22b3 d33f
000001d0: 5d49 2740 4ac1 cc3f 969e 0e00 dd27 abbf
000001e0: 4214 04e0 0d00 d13f 83d5 b4bf f89a b7bf
000001f0: 0155 d25f 443d cfbf 7486 df7f 9cbf d1bf

conv1.1.running_var f8 [64]
6.5104284121313425e-34 1.8539860288777565e-37 5.215623524592675e-34 1.392037996319215e-35 6.493195709654056e-34 9.419635092279096e-34 9.276707621717618e-34 9.516273242154865e-34
2.214393979939975e-33 1.0821254219484287e-33 4.1129605115254434e-35 9.437700951542738e-34 4.059712798042291e-34 6.681233633850674e-34 6.32123758221179e-36 4.757944392770285e-34
2.2775918282436902e-35 2.0264991266437935e-33 1.855218319896295e-34 4.096942895824413e-35 4.242071574705596e-35 1.0416372966114998e-36 2.2134426745549594e-33 9.303639901787221e-34
3.0632727408046226e-33 9.576046637413673e-34 6.558518829796763e-34 1.7591334444204127e-33 5.008116358393303e-34 2.3200787373957286e-34 1.1234045456546257e-33 1.8191935366855525e-34
1.61586160397619e-34 3.721820550586562e-34 1.758558993504899e-33 6.608684072343338e-34 7.4283147635878e-34 1.5117778287412345e-33 1.6411417806106312e-33 3.6238299581147106e-34
7.880137447958836e-37 8.911536446410666e-34 2.9759598447144207e-33 2.0614009785842682e-33 3.4629030028379184e-34 3.010416887384782e-36 1.2145558696749643e-33 1.5287389937563066e-34
6.464401932467186e-35 1.2430435034313522e-34 5.300668688292137e-34 9.199092257563442e-34 4.446708167090993e-34 2.3540107543034052e-33 1.9510680088036577e-35 2.4883792914797184e-34
3.0529809923860055e-34 3.299767053523375e-33 8.74206025439043e-34 5.490664561309027e-35 1.565152186726241e-33 2.772289016565406e-34 9.108018025135529e-34 1.1632164210909617e-33
00000000: b6c5 1931 130b 0b39 49ac 6780 3f8b 4f38
00000010: 07b9 3ac6 33aa 0539 9f39 a01e dc80 b238
00000020: 5e26 0401 c0f8 0a39 e46b 364a 5690 1339
00000030: d246 bd02 5844 1339 fe27 45fe b7c3 1339
00000040: 609a 1773 defe 2639 bbe5 aecc 9079 1639
00000050: eb4e e5f5 d655 cb38 251d 8849 f199 1339
00000060: 18af a6f1 06dd 0039 0f49 c0cb b4c0 0b39
00000070: 5710 52e9 02ce a038 e08e e9a9 83c3 0339
00000080: 6178 474e 3e46 be38 faa7 b8d6 5b0b 2539
00000090: 06e4 fedb 39d3 ee38 f444 104e 963a cb38
000000a0: 8dd7 81c2 8231 cc38 476a 0e7f 3627 7638
000000b0: cc9b 5106 57fc 2639 aa74 bbd7 a952 1339
000000c0: ad93 c465 93cf 2f39 5415 1ced 7fe3 1339
000000d0: 4573 12a6 363e 0b39 6077 342f 9444 2239
000000e0: 697f 5af3 8acd 0439 f21a c503 4346 f338
000000f0: 3a0f fe07 0b55 1739 a300 1b58 fe39 ee38
00000100: c25b d479 1dd9 ea38 e541 95d9 6feb fe38
00000110: 7579 bd3b 0d43 2239 e6ee 3bed 8e73 0b39
00000120: c7cd bd9f 23db 0e39 3e2f ee59 fd65 1f39
00000130: fe1e 1838 e70a 2139 ebf2 5db2 081b fe38
00000140: 0b27 c5db 5ac2 7038 8287 677c 2f82 1239
00000150: f311 d451 75e7 2e39 a3d1 eece 2468 2539
00000160: bd9f 75ba c7c4 fc38 d6a5 c92f 9101 9038
00000170: 2c01 ccc8 af39 1939 7d6a af5a 8966 e938
00000180: 9d60 e412 4e7b d538 ca46 8283 52a7 e438
00000190: c68b 1f45 a304 0639 b17a 058e 131b 1339
000001a0: 9437 a51a 8d78 0239 69a4 d4b3 0872 2839
000001b0: e718 4bf1 23ef b938 018b 5a8d 32ac f438
000001c0: b373 0bf5 f85c f938 8621 138b 2422 3139
000001d0: 5958 0195 1328 1239 c481 61da f03e d238
000001e0: b935 a261 e340 2039 1f2d 98b5 0108 f738
000001f0: 5dde 302c a7ea 1239 26fc e525 b828 1839

conv2.0.weight f8 [64, 64, 3, 3]
0.007238698457747764 0.030344051094269717 0.046024784838463 -0.17080205914172483 -0.2192274057900046 -0.21690972562156324 -0.12236614356606611 -0.1661148338854356
-0.22696561221628928 0.04458152425351049 0.05903220864287074 0.03872203243169425 0.0020798553635991194 -0.008113145122554876 -0.055718332458737974 0.08686302648766397
0.03553221126268044 -4.048752565605069e-05 0.03748038932905929 0.11086147899467103 -0.021051571266064443 0.04255901493684973 -0.004637117211528565 -0.10371898227182844
0.06289172637665918 0.029224928021941522 -0.14197749875394136 0.036031063052546906 -0.03446066283795529 0.0987143798090975 0.011400193761029983 -0.05509931861324612
0.06130364252375697 0.06536365816765424 0.03625236818592401 0.17784330350847402 0.10877907026664436 0.11505858714162245 0.05448049330423952 0.22649425699288217
0.18335714834263692 0.22794768349613276 0.10725466654739765 0.0920636899731484 0.07606408151249948 0.04507643035163149 0.06139626214626216 -0.03718693758417616
-0.05223725818052359 -0.0750941656719551 -0.06958300901558745 -0.09518427229575394 -0.1410475291962914 -0.18602697127395015 0.1712163243590543 0.16498440438625073
0.2260673133092074 0.025948009837535094 0.03380277716334057 0.02293529393953974 0.010040684981054364 0.09281537715462047 0.13388207152804496 -0.026556184629183865
-0.04676493955447324 -0.008394052773001327 0.017572132414640666 0.05659290596552185 0.08422514126138911 0.12797486667024585 0.16652037716192108 0.10938609060216936
0.0650115752739938 0.07311785114788702 -0.023833832452837718 0.046539863345333936 0.023589035208080793 -0.0639825665039973 -0.08314842144171822 0.025625460315403862
-0.07366600071206354 0.13854456116941938 0.19343607037909127 0.06626198707284053 0.18699834538952545 0.2170492596188105 0.26010353630679756 0.08804916492845986
0.1388851158508751 0.15548506524244327 0.12567057304300225 0.1443067031606416 0.09615637627068051 0.21747128207765432 0.18593225741741626 0.25701671867459136
0.06810636849748146 0.13061065504503433 0.07385184174060623 0.0207296586442163 -0.06863814847950088 -0.03356783457052087 -0.09368633472717441 -0.06324315533204423
-0.014378592484893241 -0.06583607741669247 -0.0785167602061793 -0.049519010993364095 0.09920463660773053 0.11915456921265868 0.15226456341210723 0.1040085689998304
0.07866111710640691 0.09109556532380533 0.1211957121561786 0.12454539423711816 0.14329574108035723 0.08118784318242886 -0.03724015430502305 0.04066668573954938
-0.0872437193912985 -0.1511381244024486 -0.08811580088626562 -0.11021522482064572 -0.13106359503939974 -0.05942857037231658 0.1133399644854741 -0.0014396057879118578
0.09758789376147516 -0.1037548879867711 -0.09417224384423846 -0.002405414936875109 -0.10950078082977172 -0.18169800682402967 -0.01564135617911609 -0.0168907688316491
-0.14929381311932752 -0.06698094226391761 -0.11962493780622346 -0.1014880698158262 -0.09911655152700732 -0.056370607980034154 0.009504485343546643 -0.09023782415588626
0.06756861885984937 0.003829767962481204 -0.07452124680104162 -0.16876811872410205 -0.17142824938084647 -0.2833922638814893 -0.1265019259144288 -0.18360054027005424
-0.2536642680005404 -0.011915465376449106 -0.025510086540706255 -0.013667225595824693 0.09571759153666096 0.06450177828606617 0.1616406351655109 0.020866554552421954
0.11611709790132527 0.1374089652446537 0.09271529241883741 0.14423932112586327 0.20165246956173455 0.08705641033144497 0.10190538684329446 0.050220921689169536
0.19217479179069574 0.1777562421993725 0.13473097927127234 0.11384402133380787 0.04314454787189472 0.014167244897569561 -0.08323242326695555 -0.1277238925489029
-0.21416826061345945 -0.16659308024172412 -0.12760933907077454 -0.19420663701718802 0.0998119131902098 0.003693472265860185 -0.009146332902234567 -0.003093054462411827
-0.09327777202166579 -0.15395151874744747 0.00802814512922242 -0.01071830864741572 -0.016414283588348642 0.009168981817467965 0.09042703425943345 0.009601686088896466
-0.05395729273058142 0.015350235814315103 -0.023663132798430787 0.0009895341881011115 0.016123445889025523 -0.011121765839442488 -0.12220600611094724 -0.047215826522837824
0.0010936130763376135 -0.07563850725143165 -0.12594912526828403 -0.07753006175508606 0.05390290883623738 -0.06914125965713276 -0.050988790673380927 -0.014129740815706872
0.00380104397907793 0.0055421727318083385 -0.033392957509541694 -0.05281899865946643 -0.13266866306724193 -0.08868636493865312 -0.041578718039789034 -0.01500538003693431
0.08121862559852604 0.07031842414967066 0.11420034726702961 -0.07034952199721191 -0.0914356671040473 -0.027907464968565034 -0.041685891663110944 0.026070397937516185
0.1085995099438343 0.03668395339014014 0.07887185872030147 0.06144495471928706 0.19250531209536248 0.18721758873240954 0.22038712993792053 0.085703575055108
0.08723253081572696 0.07773441630638556 0.03457901585492261 0.056999647888674 -0.012563242912491604 -0.10838263690146765 -0.18872938334762127 -0.2301884614812227
-0.17224038506736186 -0.23749327862031044 -0.2999426006211854 0.0754893617256888 0.12935458984818818 0.11194565163191968 0.11508513521972102 0.06667679958690935
0.0950152041911152 0.10980572195995136 0.1150002286601144 0.10588912519446995 0.09394478286362806 -0.040676790695051535 -0.06363921838077267 -0.007580973648515275
00000000: 3720 4452 53a6 7d3f 19ea 4fcc 8212 9f3f
00000010: a78e 5f83 8f90 a73f 8b34 0d85 d7dc c5bf
00000020: 8aa3 20c5 a40f ccbf 264e dda8 b2c3 cbbf
00000030: 3fff c038 6353 bfbf bd8e 7539 4043 c5bf
00000040: e78d e48c 350d cdbf d26c 59b9 63d3 a63f
00000050: 4145 103b 7839 ae3f d088 dbcd 5fd3 a33f
00000060: 0bd3 8bd8 c509 613f 73aa c0e7 9f9d 80bf
00000070: b857 65ff 1c87 acbf 5000 ffc1 a73c b63f
00000080: 2cd2 a72a 4731 a23f 24df e8c9 243a 05bf
00000090: 91be d12c a130 a33f e815 abfa 6a61 bc3f
000000a0: d1f8 7708 8b8e 95bf 7a84 9b92 4bca a53f
000000b0: 5cf9 56ac 5efe 72bf daf7 d4c4 538d babf
000000c0: 180b fa13 ac19 b03f 5a2a 54b8 23ed 9d3f
000000d0: 6b41 f594 512c c2bf a3cf e6da a972 a23f
000000e0: 7866 c6f7 d3a4 a1bf 92cc ec78 5845 b93f
000000f0: 0b37 f91a fc58 873f ef98 f356 fa35 acbf
00000100: bfc9 87e7 3063 af3f c24f 2d36 acbb b03f
00000110: 2dae 859f ab8f a23f edd4 30c2 91c3 c63f
00000120: 89d6 48f5 f1d8 bb3f 2ab1 e5c4 7a74 bd3f
00000130: bdf7 0502 dee4 ab3f 6c14 4289 c3fd cc3f
00000140: 034a cf3d 3f78 c73f fa4c e8c2 632d cd3f
00000150: ee19 2ab5 0a75 bb3f 0071 9569 7c91 b73f
00000160: 3b18 7f86 ef78 b33f f681 5c04 4214 a73f
00000170: f298 07b4 546f af3f 355d 8691 2a0a a3bf
00000180: ce3e 0987 d7be aabf b473 ae09 5f39 b3bf
00000190: d847 142c 31d0 b1bf 1494 9a18 ff5d b8bf
000001a0: d932 8a6e d80d c2bf 7fd4 e556 bbcf c7bf
000001b0: 77ec d4a0 6aea c53f b030 987e 351e c53f
000001c0: ddc6 ad12 c6ef cc3f 4110 9876 1d92 9a3f
000001d0: 906d dcfc 984e a13f feef 9385 597c 973f
000001e0: 7c0a fcec 3590 843f 8deb 71a1 bfc2 b73f
000001f0: 6be9 5d37 0c23 c13f a39d f461 8b31 9bbf
00000200: 2ec5 f8fb 92f1 a7bf 87a4 20b1 e630 81bf
00000210: 2ede 2ad8 6dfe 913f 3773 9dd0 bef9 ac3f
00000220: 36f9 3763 c78f b53f 6182 87fd 7a61 c03f
00000230: b296 032b 8a50 c53f 540b c611 ba00 bc3f
00000240: 77ca a93d 99a4 b03f b618 6ffb d9b7 b23f
00000250: b270 b16b e567 98bf f799 0eae 12d4 a73f
00000260: 8b35 0d5b b927 983f a418 a656 2961 b0bf
00000270: 7263 ce06 3749 b5bf 9198 ff87 8f3d 9a3f
00000280: 41ab e267 c6db b2bf 3073 a103 d4bb c13f
00000290: c48d 125e 83c2 c83f 9421 72ab 8bf6 b03f
000002a0: f153 edd0 8fef c73f e886 d727 45c8 cb3f
000002b0: c7be 804d 89a5 d03f f3ce cedb 638a b63f
000002c0: ea86 3dcb fcc6 c13f c6c9 1d43 efe6 c33f
000002d0: ed06 a52c f915 c03f 9292 555d a478 c23f
000002e0: df6a 624b b49d b83f 20de 2b56 19d6 cb3f
000002f0: 788b 70d2 a0cc c73f f5e2 4e40 f672 d03f
00000300: f393 5841 6b6f b13f 48ba f695 d9b7 c03f
00000310: 3178 064d f4e7 b23f 8792 bcd7 273a 953f
00000320: 0f3a fa0a 4592 b1bf 0819 5b9f cd2f a1bf
00000330: 243e bcdf d3fb b7bf 8dd3 d813 b430 b0bf
00000340: b58a e103 8672 8dbf 75d0 6617 a2da b0bf
00000350: 7bfe 45a5 ac19 b4bf c157 7e49 8e5a a9bf
00000360: 0b7e d79d 7965 b93f 5af5 eff1 e980 be3f
00000370: 8bec 18bc 677d c33f eba7 5b3a 4ea0 ba3f
00000380: 1258 708d 2223 b43f 265a e0f9 0952 b73f
00000390: bd4f 20a4 ae06 bf3f 4ea8 1dfb 34e2 bf3f
000003a0: df50 cccc 8357 c23f 8e22 4dfb b9c8 b43f
000003b0: 3317 ad39 2411 a3bf 757e 938a 43d2 a43f
000003c0: c128 91b9 9a55 b6bf b95f be7a 7e58 c3bf
000003d0: 6b3e 11d3 c18e b6bf f83e 20a2 1037 bcbf
000003e0: f2f8 311f b1c6 c0bf c8ee 64ec 6b6d aebf
000003f0: 677f cb10 d903 bd3f 0241 cef1 2496 57bf
00000400: 31e9 302c 85fb b83f 1e0d b42a ae8f babf
00000410: 3d7f 8013 ac1b b8bf 550c 974f 85b4 63bf
00000420: a4e2 8c40 3e08 bcbf 2f5f 875a e141 c7bf
00000430: 1b7f 04a5 4904 90bf 05e6 f14e d04b 91bf
00000440: dfdb 6b46 0f1c c3bf 0192 7abc a925 b1bf
00000450: 6cec a96b bd9f bebf 1c0b cb44 1ffb b9bf
00000460: ec00 4dcb b35f b9bf 44b3 75bb 9bdc acbf
00000470: 800c ba6d 1677 833f 5b9a 9c77 d319 b7bf
00000480: 4b2b 3d50 2d4c b13f a1d3 cd04 9b5f 6f3f
00000490: 3d1c de0d d313 b3bf ed83 4397 319a c5bf
000004a0: 25c3 5962 5cf1 c5bf 92dd 534e 1923 d2bf
000004b0: 7d7c 5711 3731 c0bf b070 fef5 3880 c7bf
000004c0: 6e78 ce0d 093c d0bf 1f25 deb0 2267 88bf
000004d0: 7350 a4ed 501f 9abf 4c60 b0f7 8ffd 8bbf
000004e0: ba45 4db5 f280 b83f 5fc2 4544 3083 b03f
000004f0: e9c9 deec a3b0 c43f 690a 88c5 0a5e 953f
00000500: 7e1c fea1 d9b9 bd3f 1f95 f3f1 9d96 c13f
00000510: ec29 c77c 30bc b73f 9933 841f 6f76 c23f
00000520: c06f f684 bfcf c93f c9dc 4733 5449 b63f
00000530: b336 c7af 7816 ba3f 59bd 7580 8eb6 a93f
00000540: a0a6 edfe 2e99 c83f 0dfd 736f b7c0 c63f
00000550: a134 dd5e dd3e c13f ff4c 79bc e124 bd3f
00000560: b392 38cc 0a17 a63f 6b6c 136c b703 8d3f
00000570: c7fd e557 b84e b5bf 632a b5aa 4159 c0bf
00000580: 9a87 9695 dd69 cbbf df65 b00b ec52 c5bf
00000590: 3c90 fcb8 8055 c0bf e9d5 5359 c3db c8bf
000005a0: 5234 e706 468d b93f 62ce e5d2 c541 6e3f
000005b0: 0d23 8c05 50bb 82bf 1c85 58f8 9a56 69bf
000005c0: 42dc 4654 0de1 b7bf f34b 18f1 aeb4 c3bf
000005d0: 2d6d 3866 0f71 803f b367 df08 7bf3 85bf
000005e0: 2602 ccec e7ce 90bf ca61 59e8 2fc7 823f
000005f0: b98b d1e2 3926 b73f 4df9 e77d 0caa 833f
00000600: e82c 514f 4aa0 abbf 5f8b 77c6 f16f 8f3f
00000610: dded f5f5 253b 98bf 218a 793e 6836 503f
00000620: ed33 2b23 aa82 903f 8df3 6e24 02c7 86bf
00000630: 290d 9f8f e448 bfbf 4dd4 893d ac2c a8bf
00000640: 5026 6e19 f2ea 513f 8291 f692 0b5d b3bf
00000650: df58 fed6 191f c0bf 92e8 b197 02d9 b3bf
00000660: 0fc9 387d 2999 ab3f dd18 08d9 3db3 b1bf
00000670: d23c cfe8 331b aabf 94a5 a2b5 0df0 8cbf
00000680: 77e4 95f2 5d23 6f3f f542 1caa 63b3 763f
00000690: 5924 d7b8 e118 a1bf f822 b37f 170b abbf
000006a0: e5f6 8968 49fb c0bf 203c 034d 26b4 b6bf
000006b0: 1a89 6144 ce49 a5bf 0575 2e04 24bb 8ebf
000006c0: 9b90 c56c beca b43f 9472 0764 6300 b23f
000006d0: fd27 b4e4 3b3c bd3f 016b 4420 6d02 b2bf
000006e0: 025b e6ef 5368 b7bf 2ac1 6a45 c693 9cbf
000006f0: 2a9a cb6a da57 a5bf 9c2f 24ca 32b2 9a3f
00000700: 6a05 926f 2dcd bb3f f980 3238 3dc8 a23f
00000710: 0247 c735 f230 b43f 460d 0c8e b675 af3f
00000720: dcbf e099 03a4 c83f 13bc 6bf6 bef6 c73f
00000730: 4076 c53d a535 cc3f 7c10 0364 abf0 b53f
00000740: 5438 0003 df54 b63f 5040 cf17 67e6 b33f
00000750: 7e13 733c 57b4 a13f 3778 21cf 0e2f ad3f
00000760: 1bdf 86eb c1ba 89bf 1830 f2e8 f6be bbbf
00000770: 15da a2d0 4828 c8bf 733c fdc4 d076 cdbf
00000780: 0d17 7512 f90b c6bf 9cd6 5804 2e66 cebf
00000790: 7017 1673 4232 d3bf 8bc8 ce53 4553 b33f
000007a0: 9d23 7ef2 b08e c03f cd41 b060 78a8 bc3f
000007b0: ac41 062c 3876 bd3f 63b2 a011 bb11 b13f
000007c0: 60a4 9f9a ea52 b83f 144e bb50 3a1c bc3f
000007d0: d1b1 20ad a770 bd3f 2b59 b6b9 8c1b bb3f
000007e0: 5873 07ea c30c b83f b8a3 7b9b 96d3 a4bf
000007f0: 573c b0e9 a84a b0bf f17e 461e 3a0d 7fbf

conv2.0.bias f8 [64]
0.0027712695280795547 0.03961694613153156 0.0011694282302570213 0.02064255997627363 -0.02027700841499368 -0.018475439398289946 0.0020164810132175396 0.038489345459893735
0.022436011582766903 0.009446021166762903 -0.028004309160879797 0.029105711729676267 -0.01835970580748548 0.009778659791799161 -0.02995998784818441 0.006900001319387588
0.003442902118660642 -0.020578270778302096 -0.015905311328615543 0.028948511930657693 0.040564540774213245 0.03461791202311704 0.04057875648411061 -0.037185333670924435
0.014931306241808684 0.000578675419917644 0.01361853256954251 0.016215700654983817 0.03082096949763306 0.021737765523250425 -0.033563517035399955 -0.036154694854190074
-0.006925731897830629 -0.023980464786353066 -0.02566024660845851 -0.03882316872143998 0.02391694113359451 -0.02627562545314423 -0.02933384478761242 0.010521452873452982
-0.013847872616618982 -0.0004880018505015976 -0.003085803240491989 -0.002295356244273815 -0.028820227830421923 0.04163094237750878 -0.005118876694281169 -0.03186150640050706
0.008719969542511802 0.015358474102797646 0.01966619864286648 -0.01236425340077564 -0.0076170451932037675 0.006737258288296374 0.016127932815988122 0.009849045431429802
-0.001118883489935525 0.012007310988047021 0.006772387773702618 0.02129252627482451 0.014172669501529643 -0.008805241436317003 0.0391159169450754 -0.021117236464724944
00000000: 9664 baff c5b3 663f 5130 0120 ac48 a43f
00000010: 3d18 4100 f028 533f c2e7 03c0 5223 953f
00000020: 7d30 0300 7fc3 94bf 32c3 fabf 39eb 92bf
00000030: 621c 2700 de84 603f f747 fd1f e0b4 a33f
00000040: 4aad 0040 77f9 963f 9d97 e87f 6f58 833f
00000050: 9be2 f85f 29ad 9cbf c7e6 0540 e3cd 9d3f
00000060: e381 0700 e3cc 92bf c730 0980 d506 843f
00000070: f96c fcbf d4ad 9ebf df61 2500 2d43 7c3f
00000080: 5162 1800 4a34 6c3f 9f10 0160 7812 95bf
00000090: 2cd7 f45f 7b49 90bf 1648 0ac0 ada4 9d3f
000000a0: 4248 0120 e0c4 a43f d07c fd5f 70b9 a13f
000000b0: d5f0 0520 bdc6 a43f dbd2 03c0 f409 a3bf
000000c0: 2d06 f6ff 4d94 8e3f 892c 7400 48f6 423f
000000d0: 4eaa 0b80 08e4 8b3f 28c2 fa3f d99a 903f
000000e0: 6be8 1740 888f 9f3f 75ba 0ac0 6c42 963f
000000f0: d1f5 02c0 3c2f a1bf 0dc0 fd3f de82 a2bf
00000100: fb61 0800 285e 7cbf be45 00c0 558e 98bf
00000110: 3266 f6ff ad46 9abf 60aa f85f a1e0 a3bf
00000120: 95e2 f4bf ae7d 983f c546 0360 ffe7 9abf
00000130: d16c 1d00 b109 9ebf 8bab fb7f 458c 853f
00000140: ac77 0f00 465c 8cbf b8b1 00fd 4ffb 3fbf
00000150: c864 feff 6547 69bf 30f4 0e00 b6cd 62bf
00000160: 3ecf fabf 0c83 9dbf e4af 06a0 a650 a53f
00000170: 3038 e8ff 87f7 74bf 49a2 fbbf 2650 a0bf
00000180: 1dc1 0e80 c6db 813f 7261 e77f 4374 8f3f
00000190: e9ef 0740 6023 943f c85f f7ff 6d52 89bf
000001a0: b790 f3ff 0c33 7fbf 56fe 3400 8798 7b3f
000001b0: 20ad fc3f d783 903f 2ccf 3280 bc2b 843f
000001c0: 86e2 d3ff ef54 52bf 1d71 0d00 4a97 883f
000001d0: 9de7 0f00 5dbd 7b3f 0a95 ff3f b5cd 953f
000001e0: 0c77 0c80 8f06 8d3f 41d8 0480 7b08 82bf
000001f0: 1b76 1060 0007 a43f 7ad7 fdbf c19f 95bf

conv2.1.weight f8 [64]
1.1931236390278435 1.0037606728115493 1.369425491937957 1.0151818020994723 1.1082580894997718 0.9318114048117982 1.2722543501459942 1.1254457923957677
1.4012074376801904 1.4036599047514282 0.9888220257231638 1.304330248221553 1.2104105220182646 1.1027896383788347 1.3085232404874207 0.9340602030479378
0.8353335592960103 1.1509351315521137 1.5460117721383662 1.1455922483759113 1.2081161593263972 1.2353947115054007 1.567287018376484 1.337348425589624
1.046438330012831 0.9982483204858325 1.2265650651297177 1.0006897384651652 1.273725684817189 0.9170127569971799 1.4133906957720535 1.4292981249468213
1.2146927055611807 0.9891748690202639 0.8628790505703239 1.5064470908222436 1.2933280393610098 1.3016372628443609 1.3422106847707218 0.9030587286428327
1.3262251414838513 1.3613754746228344 1.286009473980526 1.2804901410497862 0.9005743132337237 0.9024973975993904 1.3268127882905225 1.029651347036354
0.8988285190725203 1.4407548612330614 1.0448345920430817 1.0970040847053186 0.9349968175544936 1.0746077832237853 1.0072534809366989 1.3811608088915495
0.8430927699385798 1.185506244661349 1.0189614954627284 1.368464017560342 1.292320945536554 1.0308337168048212 1.3450941644930987 0.8371305536984013
00000000: 7658 1bd0 0817 f33f f4c8 eb59 670f f03f
00000010: 71ea 62b4 2ae9 f53f 6c2f f845 2f3e f03f
00000020: 06dd 9ed5 6cbb f13f 929b b626 66d1 ed3f
00000030: e821 a160 275b f43f 882b 7c72 d301 f23f
00000040: 59f9 7b7d 586b f63f 5ed2 9916 6475 f63f
00000050: 6774 c116 6ea4 ef3f ddb8 f464 89de f43f
00000060: 00d8 6c6c d75d f33f b446 73bf 06a5 f13f
00000070: ce30 bf10 b6ef f43f 9dc0 1239 d2e3 ed3f
00000080: 3caf cd71 0dbb ea3f 3057 ddf4 3a6a f23f
00000090: 6a0b 09d7 76bc f83f db35 9589 5854 f23f
000000a0: 4d37 219c 7154 f33f a412 b93e 2dc4 f33f
000000b0: 25f5 758d 9b13 f93f 7e3b 7476 c765 f53f
000000c0: b6f9 4a1e 36be f03f 25c1 3876 a6f1 ef3f
000000d0: 395f 92b0 02a0 f33f 2d69 423e d302 f03f
000000e0: 2ad7 052f 2e61 f43f 752a 2a23 2b58 ed3f
000000f0: 8afc ec8f 3f9d f63f 6d17 eeb5 67de f63f
00000100: 5133 519e 616f f33f 9ff2 0e0e 52a7 ef3f
00000110: 5c4c d386 b49c eb3f 28c6 c343 681a f83f
00000120: aae2 00be 78b1 f43f 68be 3298 81d3 f43f
00000130: 89e9 36e9 b179 f53f fe6c 3c6b dbe5 ec3f
00000140: d8e5 9cda 3738 f53f 094e 51a6 31c8 f53f
00000150: f87a 91ab 7e93 f43f 538c ea3a e37c f43f
00000160: ad9b de38 81d1 ec3f 8243 ed38 42e1 ec3f
00000170: 36f5 d90b a03a f53f 15db dcb0 7379 f03f
00000180: 621d c406 34c3 ec3f c6c8 28f8 540d f73f
00000190: 63df 287a a4b7 f03f 4134 b627 548d f13f
000001a0: 1257 2872 7eeb ed3f 4a92 4fee 9731 f13f
000001b0: 087c 76d3 b51d f03f 3b4c 8b13 3c19 f63f
000001c0: 072b 4cb0 9dfa ea3f 6763 6065 d5f7 f23f
000001d0: ab54 ae91 aa4d f03f 80ca 9286 3ae5 f53f
000001e0: a83e 50ba 58ad f43f 40a7 d47e 4b7e f03f
000001f0: e49c 6875 8185 f53f 82be d303 c6c9 ea3f

conv2.1.bias f8 [64]
-0.582229283823379 -0.4141486198899252 -0.29480330796879106 -0.3631410654018519 -0.46002828432528514 -0.6827975318202947 -0.31993738112282016 -0.04659474291202607
0.020963619622036796 -0.19988806025050668 -0.6832796351633849 -0.3477783946849326 -0.4038933170312111 -0.4180896502628132 0.0087393057332284 -0.7281951230239372
-0.38196211502646416 -0.5191951078063266 -0.19063723973326518 -0.13043787856870465 -0.4461146109033406 -0.4598604358193942 0.10728061141442946 0.12416741048034194
-0.25864854625677314 -0.4431917151131283 -0.41269518202549227 -0.4071091078307009 -0.019529941660421064 -0.601286763999751 -0.026966180231683828 0.028769661684257302
-0.37572916870512113 -0.19390757225456753 -0.7096928418763299 -0.5135790168287819 -0.4074275839001561 -0.2368841947060418 0.10842939358704153 -0.471899662266945
-0.4370165831850351 -0.6014063120702082 -0.6138425211093901 -0.2705732359057741 -0.3194993978354827 -0.6848195120550664 -0.13626241609381395 -0.4800629708345642
-0.6755450279653328 0.0793694868432378 -0.46051065909831934 -0.4564554055466808 -0.40885218400951323 -0.5183449671255416 -0.5695325556350724 -0.42777367051146997
-0.5315912210086203 -0.16583167975560162 -0.43741466283715447 0.14059789419298183 -0.08383146020870258 -0.24454777055835134 -0.41574946406300506 -0.4299830638735668
00000000: f16f 994e 9fa1 e2bf c116 8736 6981 dabf
00000010: f4a0 9eb1 0ede d2bf 4513 ef05 b43d d7bf
00000020: ab5f 1a79 1a71 ddbf 5ba5 9e35 7ad9 e5bf
00000030: 852f 2ca3 da79 d4bf 1503 f221 44db a7bf
00000040: 6fcf bab2 7c77 953f c982 d194 ee95 c9bf
00000050: e995 e140 6ddd e5bf af56 db4f 0042 d6bf
00000060: 7035 ee5a 63d9 d9bf ea30 ab17 fbc1 dabf
00000070: 21fe 82c2 e9e5 813f 00d3 cfdb 5f4d e7bf
00000080: ba60 163a 1172 d8bf 0aaf 080f 3f9d e0bf
00000090: 48ec 0613 cd66 c8bf c25c 4e3b 30b2 c0bf
000000a0: 4a3f 064c 248d dcbf 0664 2477 5a6e ddbf
000000b0: 7815 85fd bd76 bb3f b6f8 3d77 6fc9 bf3f
000000c0: 902b d5a1 b28d d0bf df37 91c8 405d dcbf
000000d0: 580a 810d 9969 dabf 9f57 025c 130e dabf
000000e0: f5ad e532 a8ff 93bf f4b0 5cbd bd3d e3bf
000000f0: 3bc2 c5b8 059d 9bbf 1b17 3450 cb75 9d3f
00000100: 0779 ef5a f20b d8bf 1fdb a39c f6d1 c8bf
00000110: 670d 42c3 cdb5 e6bf 6020 2643 3d6f e0bf
00000120: d2b9 1525 4b13 dabf cfd2 99a6 3852 cebf
00000130: 11a7 615b 07c2 bb3f b284 1ba4 9a33 debf
00000140: 8eb8 2567 14f8 dbbf 6c62 3e73 b83e e3bf
00000150: 7ee3 2112 99a4 e3bf 26d8 d867 1251 d1bf
00000160: c7e2 329a ad72 d4bf d40d fe9b 0aea e5bf
00000170: 0000 66fe 0b71 c1bf d252 f009 5ab9 debf
00000180: b0c4 429b 109e e5bf 14c1 4a06 8f51 b43f
00000190: 1259 12b3 0179 ddbf 41f2 b9bb 9036 ddbf
000001a0: a504 ce59 a22a dabf 7236 3b2f 4896 e0bf
000001b0: cdb7 8e56 9c39 e2bf f6f1 3bd1 a460 dbbf
000001c0: d353 a297 cb02 e1bf 7774 98f4 f839 c5bf
000001d0: e04a eb11 9afe dbbf 6b00 b99e 1cff c13f
000001e0: d8e8 f883 fa75 b5bf 65cd 6d62 574d cfbf
000001f0: 84ba dea3 a39b dabf 2eef 4aaf d784 dbbf

conv2.1.running_mean f8 [64]
-6.791883056488533 4.097899935798717 -1.4096273940835686 1.3035212487011323 -1.8487984431558793 -1.448989594413483 3.210010814334136 -0.2447211027878802
1.8960178056579502 -0.34416173086067625 2.866864323333283 -1.3926222623465596 -5.1423771180755615 -3.6759965998288746 1.7660329469449023 2.549887503438581
-0.1208066955714706 -0.7605411801870278 3.0672370225958376 -5.602184384764059 -0.04901756448388903 -7.529968896350383 4.164556451579092 3.3340701916868416
-1.0686139805995059 -0.8162951995234768 -7.4382884521050725 -0.14444953610405012 5.667416361065565 4.29244964672337 2.563439672594321 2.3621631642780483
-0.8095431006910015 -3.996815908524113 0.39589359567861304 0.4448891701296583 -9.136403951687692 1.1151890593632414 1.5416277431501075 -1.7215281383809793
-4.709579948523706 2.6432459557799874 -6.1660130103588875 -4.154015005864511 -2.795562475558881 1.7550004592238522 1.5007242789545134 -3.0365206567125185
0.6373431939104283 0.4136414862483763 -2.840058237727593 2.252750808768614 1.6780001290631774 -0.7997131992448272 -1.2909683846705184 0.5880230395292635
-1.5926341486769622 1.1924207942060647 -0.28516067346181123 2.919529653407763 2.036339526580156 -0.240426602578714 -3.7879933578558793 0.13890165573942725
00000000: c47f 5764 e32a 1bc0 da24 7ae1 3f64 1040
00000010: 7327 5274 d58d f6bf c7ff cc18 39db f43f
00000020: e300 24ad ad94 fdbf e000 84b6 0f2f f7bf
00000030: b7f8 5a26 1aae 0940 51b8 8e66 0553 cfbf
00000040: 0af4 3ec4 1656 fe3f fa34 a5ec be06 d6bf
00000050: f348 f68f 56ef 0640 2f5c 0748 2e48 f6bf
00000060: 4455 a74e cb91 14c0 19c7 c3e7 7068 0dc0
00000070: f996 6cc3 ab41 fc3f 7bfb 5d6b 2b66 0440
00000080: ff06 9e06 30ed bebf cf43 0575 5a56 e8bf
00000090: 4a09 6990 b389 0840 e1e4 fa05 a368 16c0
000000a0: 7d97 c688 d418 a9bf 70e3 962a b01e 1ec0
000000b0: 1483 877c 81a8 1040 51e8 1efe 2cac 0a40
000000c0: 7592 2bf9 0a19 f1bf 5eb9 3a1c 171f eabf
000000d0: e305 20b0 cec0 1dc0 49a0 be88 527d c2bf
000000e0: 235e ce31 6fab 1640 519d 91eb 772b 1140
000000f0: 117e b8a8 ec81 0440 e91e 13cd b5e5 0240
00000100: fd72 c5ee c6e7 e9bf e1f2 799e 7af9 0fc0
00000110: deab 8817 5256 d93f 294b 036d 1079 dc3f
00000120: 6d16 1fbd d645 22c0 6c27 ad7b d0d7 f13f
00000130: dbf9 36da 81aa f83f 52d7 d716 618b fbbf
00000140: 0b3a 4320 9cd6 12c0 dddf ba22 5e25 0540
00000150: c7ce 8850 ffa9 18c0 1320 151c b69d 10c0
00000160: ff99 f3db 4f5d 06c0 864d 8d5c 7b14 fc3f
00000170: dbc3 2676 f702 f83f 70ab 9157 cb4a 08c0
00000180: 1d8d c58d 1d65 e43f b728 ed23 1a79 da3f
00000190: 0834 0e74 70b8 06c0 0997 4d37 a205 0240
000001a0: 7a29 d0a9 16d9 fa3f 3ef4 9d22 4097 e9bf
000001b0: f646 0577 cea7 f4bf 9353 82b1 15d1 e23f
000001c0: 36f7 f0f1 6d7b f9bf 60f7 a2d3 2714 f33f
000001d0: 93ec a78d 1240 d2bf 5db5 e85c 325b 0740
000001e0: 0db6 b160 6c4a 0040 d6fc 9485 4cc6 cebf
000001f0: 5aa6 2b76 cf4d 0ec0 6c6b 618a 87c7 c13f
