models/matching_nets/AWF_n=1_k=5_q=15_nv=1_kv=60_qv=1_dist=cosine_fce=None.pth (torch, 316367 bytes, 24 tensors)

encoder.0.0.weight f8 [64, 1, 3]
00000000: 4222 1ba3 3f45 df3f 2191 1486 44dc c93f
00000010: d1e3 2dd3 2f38 b7bf 3113 9bc3 3855 e0bf
00000020: a789 a250 1551 ddbf 5ca6 5a67 20a8 6cbf
00000030: d9cc 04e6 ea19 cf3f f3c8 de94 ca30 d63f
00000040: 034b db09 f939 d1bf 90c6 b246 7784 d4bf
00000050: 105d 6ad4 483c b7bf 82cc b25c 8f78 de3f
00000060: d064 d947 e75c aabf 6b1b 600f b7ac ddbf
00000070: 63ea eec1 2cea 80bf 50dd 70a6 edd6 e03f
00000080: d002 f9f1 3698 e0bf d90f 4e87 af86 e03f
00000090: c3ad f050 4204 dbbf 6421 92a0 b915 a7bf
000000a0: 6f96 2ecb 757b debf 3359 5e07 a321 dbbf
000000b0: 3600 1d2f 7058 c03f 31ad 3b82 5666 d4bf
000000c0: ec9b addb 7296 e23f a3a5 f45d 738c d33f
000000d0: 9965 b29a 456b aa3f faa8 a728 c68d d9bf
000000e0: db9c 588a 5956 73bf 5691 80e0 157f dbbf
000000f0: db41 10fc b923 e13f d79e a746 2c0d 7bbf
00000100: d9f6 0667 3f6f 983f eb4e e689 a1ab d73f
00000110: 92cd 0173 3a47 c3bf de81 2ebb 84d9 d3bf
00000120: a71c 9162 33d3 e0bf a48d 9510 0294 d8bf
00000130: 7bad 530a 3852 e1bf 489a 3b96 6789 a33f
00000140: 0b14 e4a8 c572 d13f 1855 f365 1852 d93f
00000150: 19c6 f4d7 5363 cb3f b080 fcf4 091e d13f
00000160: 09db 1950 8945 bbbf 996c 2540 c4c2 dfbf
00000170: e487 16f1 e4c8 debf 0518 f6a7 5db0 d0bf
00000180: c2e7 d9c0 e59e b43f de8d e63c ab17 e03f
00000190: 0476 a687 de64 c9bf 89f7 7e5e a890 9a3f
000001a0: 7e59 fc24 2d97 a93f 8c89 e5ca 71ea e23f
000001b0: 3a52 29f2 c170 d6bf 6e80 3811 0c6b c6bf
000001c0: 6958 680d 0c3f cdbf 3bb5 8ed2 5e80 e13f
000001d0: 3fc4 b624 febd 823f 709e 34ec 18de e13f
000001e0: 29bb f8ce 9417 d83f 500f cc52 4b68 ca3f
000001f0: 292c 6dfa 6385 da3f 8d41 ddeb c98c e2bf
00000200: 82ce 8f2a 19d9 c53f f7f4 0e62 1d58 ccbf
00000210: 6eb7 f937 986d d43f fe13 3c96 93ce dd3f
00000220: 0ff0 032d fa31 cdbf 1b60 b0ce 82fd c13f
00000230: e944 394e 4d2f e03f 8b20 ebaf 8997 dd3f
00000240: da64 3421 b6e3 c8bf 32d9 b498 0ca8 df3f
00000250: fedc 2c4d 930f d03f 5c37 8fab 3556 d33f
00000260: f089 9a9a 5d16 c6bf 73a6 90d5 3ff6 db3f
00000270: 0f49 1737 481e d63f 3aa8 a19a a0d3 d3bf
00000280: 91b5 b99d 7240 e23f d571 4c05 d5a2 7bbf
00000290: 64f0 e583 e89c e0bf 6112 b19c 49fc d43f
000002a0: a66a 6fa4 1a24 e1bf 504a e80d 924d e13f
000002b0: 3401 eb47 e8dc d0bf 1e3c 8d1f 9ead b63f
000002c0: 3fde d2ce 15c0 cb3f a5f6 e39b 0645 bb3f
000002d0: a86b dd5b b396 c9bf 1b4a 47a3 10e8 be3f
000002e0: 339d 5a51 8e33 e0bf 1eeb d98a ba00 cd3f
000002f0: 4086 681a 4c52 d73f b719 5576 1cf4 d83f
00000300: a8e8 a4d1 087e d6bf 0edf 5d59 5d91 c1bf
00000310: 828e a585 180b da3f 9c69 667d 14e2 6a3f
00000320: 188b 216d 450c ca3f 098e 1372 548a cb3f
00000330: bf1b 3b44 3ab3 d7bf b46c 6a56 aa5e debf
00000340: 8a4a 36e6 8ee5 b3bf 5b30 babd e455 a1bf
00000350: 2737 5ca6 4de2 da3f f516 7673 4bb7 d4bf
00000360: d1d7 b2c8 e98f c6bf ebf1 4a2c a4bb d9bf
00000370: eba1 4371 7fe5 cabf a843 42bd 9f83 c2bf
00000380: 2d0a e76e a623 ce3f ab28 8b33 3614 e2bf
00000390: acad 3b1e f402 d53f 2557 7949 9374 9bbf
000003a0: 91c4 3222 44ce c23f d35d 17b5 e8e9 d53f
000003b0: a4a3 47c6 5362 d83f 11ee 4f3a f02e dd3f
000003c0: 0a9f 4c54 a129 d7bf 51e9 a6f7 2c7f be3f
000003d0: 635d 1f54 f9cc c63f 6ecb 245f 1365 d7bf
000003e0: c7ec e964 64ae d7bf f3f8 2028 3de5 e13f
000003f0: 0886 8fe9 0cc1 87bf 0bc7 2f56 ee2b d43f
00000400: ac6c 84ce 2bcc ca3f 1b94 bf0c ca2f c13f
00000410: 0f03 fb58 365c dabf 608f 2047 e2e4 b1bf
00000420: 24df b3de 5bd8 c8bf 85e9 e4cb 2301 e03f
00000430: a472 1638 40ec 963f 196b 6c93 bc4e d23f
00000440: 9adc 9ff7 f969 e03f cc51 d4a6 4cd6 cdbf
00000450: 1452 c8f7 2236 82bf bf07 ba3f ab42 da3f
00000460: 4018 9729 936c d2bf 8493 607a 458a cdbf
00000470: 6c70 4cfd f765 c3bf 09a0 ff9b a0e1 ce3f
00000480: 4769 4e13 9aca d73f 820e c720 104b d2bf
00000490: 8d18 d668 9d1f d8bf 294a ba7a 4842 ca3f
000004a0: e42d 4b65 2e70 dd3f 1412 7fa0 7aff e0bf
000004b0: 1f9a 5d6f 126b cd3f dbf4 21f9 5529 da3f
000004c0: af2f 9791 516b d1bf c1d0 f909 115b d93f
000004d0: 7db8 0f04 f5ea c83f 26e3 fecc 4127 de3f
000004e0: 870b 4696 568e ab3f 8698 34b5 92ed e13f
000004f0: 3bed 3f00 b52b e2bf 66b5 6e18 1690 d7bf
00000500: 6f42 f86d 2028 90bf c76e 7f24 988f ddbf
00000510: b93c 0c58 9046 d23f ec08 6389 07e8 c5bf
00000520: 6c20 6460 8915 d03f 340c 0507 ad8a d13f
00000530: 44c6 f6a3 f7d3 c0bf eca6 e876 0376 b03f
00000540: 635c 789a bc2f c83f b5f2 894e 57c7 cabf
00000550: 4583 ffa6 879d c3bf f92e 9b8f 270c e1bf
00000560: 083b dcbb be46 cebf 86ab 1023 7c1a d63f
00000570: 7bf2 9def 99b4 afbf c17b c8d7 f963 dabf
00000580: 358c 5887 2f81 b03f 8be9 5f4a 975a d53f
00000590: 5448 f412 f117 cebf 1c6b ea3d eda9 debf
000005a0: 0cef 6776 1582 873f 450a b01f 39d9 df3f
000005b0: 356b 6f2f fd02 8d3f dd37 c2ef 806e bfbf
000005c0: 6e3f 5e3a 1ce6 e13f ea30 dd7f 71bc ac3f
000005d0: 6f65 27ee 94bb c33f 57d7 641a 502e b73f
000005e0: 8b92 eff4 8b31 c23f 2dc2 3801 64b9 b3bf
000005f0: 5164 0337 3b04 d03f 734d b72d afab c5bf
0.4886015980560253 0.20203453585521294 -0.09070109277480688 -0.5104030437874824 -0.4580739295435258 -0.003498137749222958 0.24297844153770745 0.3467279866992065
-0.2691633793121328 -0.3205850782788753 -0.09076361833500735 0.47610839893895485 -0.05149004699769366 -0.4636666917944498 -0.008259153049825224 0.5262363673017862
-0.5185808874158173 0.5164411204027558 -0.4221349516326109 -0.04508762440770189 -0.47628540842047234 -0.4239280292471392 0.12769892025426238 -0.3187462112243394
0.5808653154934951 0.3054474275146168 0.051599669584173564 -0.39927820177275886 -0.004721021430248852 -0.4296316807178945 0.5356111453166322 -0.0066043595820486
0.02386187616661215 0.3698505255390347 -0.15061121573999664 -0.3101512744852054 -0.5257813382276212 -0.3840336954073911 -0.541286487741146 0.03815768917938961
0.27263013356451954 0.3956356998072166 0.21396873516782547 0.26745842861601954 -0.10652979093161376 -0.49626261009479716 -0.4810116152167423 -0.26076451685401053
0.08054958303719587 0.502889269777764 -0.19839078544184485 0.02594245030171963 0.049981508984433085 0.5911187136483007 -0.3506321778161553 -0.17514181938986745
-0.22848654417674943 0.5469202148866893 0.009151444907589233 0.558361493433905 0.37643928730078585 0.2063078073771245 0.41439151244839195 -0.5796861273502586
0.17068781450472065 -0.22143904960640956 0.31918912378647846 0.46573342963557696 -0.2280876846124333 0.1405490407203168 0.5057741668516914 0.46237413577592495
-0.19444920178719977 0.4946319094919033 0.25095064674992773 0.3021368193993703 -0.17255754517562094 0.4369048677059261 0.34559827213264865 -0.30979170895318797
0.5703671532225362 -0.006747085678196337 -0.5191538406502443 0.3278984098617795 -0.5356572353005802 0.5407190581921189 -0.2634831144641965 0.0885866953878893
0.21679947470487268 0.10652200036926247 -0.19991151795951834 0.12072853075304872 -0.506293448347526 0.2265847375855054 0.36439802721915626 0.3898993640508723
-0.3514425322824857 -0.1372486769066587 0.4069272332328425 0.003281631488062332 0.2034994871965743 0.21515899248252904 -0.370314184791308 -0.4745279163268592
-0.07772153015529618 -0.033858440551825374 0.420062458478116 -0.32368742251888644 -0.17626688289391138 -0.40207771611656423 -0.2101287177131462 -0.1446418451419309
0.2354629556194409 -0.5649672514639595 0.3283052726025868 -0.026811887130256857 0.14691974325026938 0.3424016731709944 0.38100141871705717 0.45598989195397716
-0.3619159053073281 0.11912804647628163 0.1781303082231985 -0.36554416934375566 -0.3700190530286815 0.5592332633748626 -0.011598683240609212 0.31518133560813116
0.20935580810405463 0.13427091238477903 -0.4118781918478342 -0.06989874111655814 -0.19410274862433952 0.5001391393955578 0.02238560049373696 0.2860557021792132
0.5129365765013916 -0.2331023993107365 -0.00889231985733211 0.4103191492396227 -0.2878768831400329 -0.2307822082085772 -0.15154933803649173 0.24126060120693207
0.371740836004069 -0.28583148194250196 -0.37692961919709306 0.20514780037463368 0.45997199909171926 -0.5311864027685851 0.22983007848525092 0.4087729390083276
-0.27217520921544297 0.3961832616253212 0.1946703214484308 0.4711460592184714 0.05382032951731391 0.5602506198090544 -0.5678353314282626 -0.3681693304632375
-0.01577807112886592 -0.4618893009589837 0.28555687521379586 -0.17114347656576656 0.2513144913978127 0.2740891045143059 -0.13146873003056403 0.06430074360892107
0.18895680944908397 -0.2092084058275724 -0.15324493078426307 -0.5327337078865347 -0.23653396771302249 0.34536651062324386 -0.0619247536660383 -0.41235204765865424
0.06447121672003749 0.3336542345347417 -0.23510564256190725 -0.4791215042729833 0.011478583980526057 0.4976332482766888 0.014165857324703527 -0.12277990201457052
0.5593396320345911 0.056125208719636735 0.1541620409832762 0.09055042881376828 0.14213704547650638 -0.07704758672549224 0.2502582585562481 -0.1693018887732297

encoder.0.0.bias f8 [64]
00000000: c767 04c0 7f05 cebf 0e23 f83f ca2b cbbf
00000010: 62e8 fbbf 37df debf f87f 0200 2647 e13f
00000020: 0464 2580 c4af c4bf 35ee 0220 9677 e1bf
00000030: 284e e5ff 1427 bf3f e9d5 df7f 0174 bdbf
00000040: fa94 f93f 3ff4 c1bf 01a9 ffff 940a e03f
00000050: 48f6 e7bf 1ff0 c1bf d538 ebff 5d10 b2bf
00000060: dcf9 0140 b464 d03f 6f2f fbbf 0295 d5bf
00000070: 1a3a fedf 9f11 d2bf 13b0 0200 6a91 db3f
00000080: 9a74 ee5f c798 d9bf 880b e9ff b161 c13f
00000090: 6b8d ffbf 246f e0bf f24c 0780 6d69 df3f
000000a0: 7b54 0780 a81f c83f f11b f5ff c8c2 d93f
000000b0: 256a fb3f 4651 d6bf a4a8 0380 96e5 d7bf
000000c0: 980f 0e00 34f3 c93f bbfd fd1f 9231 d9bf
000000d0: f676 0000 370f e13f e828 0820 ff65 e2bf
000000e0: 6e67 1800 48e6 bb3f fbb7 0340 1189 cdbf
000000f0: 9857 d37f 1bf9 c53f 1ccf 0100 18ce db3f
00000100: d8ad e8ff 4887 c43f f7e0 02e0 2d7f e0bf
00000110: 65af ff3f 28a0 e03f 53e1 1880 2a57 babf
00000120: 2556 0f80 130b c0bf 1aa5 2280 5d27 c53f
00000130: 0cd9 1300 5c1a df3f f9d7 0600 7e9a dd3f
00000140: 1515 2800 f359 dc3f 7748 0340 cf41 d73f
00000150: ac35 b0fe 8fd6 ad3f 8dee 1000 de63 c63f
00000160: 394c 0860 be66 e1bf 9431 00c0 576f e13f
00000170: c4aa e7fe 67fc 853f 4253 0380 82d4 c9bf
00000180: 08fe 0a40 46cf d63f 388a 0ba0 e586 debf
00000190: 2db4 0080 98f5 e0bf 1e89 02c0 9e37 e03f
000001a0: a486 f1bf e1fc cabf e7db fbff 2aa4 d3bf
000001b0: 9d56 0840 3bdf c3bf 0436 ac3f 83ba c8bf
000001c0: de38 0800 d72e e1bf 9f7a b900 0c84 94bf
000001d0: b0ab 0100 161d d33f 2ea8 0920 b9a3 d2bf
000001e0: 672a 0940 4737 e2bf 92ec 0d00 7d3d cdbf
000001f0: 9916 eabf f966 c6bf 3413 bb7f 235d c7bf
-0.23454281688537845 -0.2122738659238838 -0.4823741316646474 0.5399351120177007 -0.161614000865285 -0.5458479523871974 0.12169009444669909 -0.1150513589089638
-0.1402663290383897 0.5012917518590997 -0.14014050360121844 -0.0705622434427114 0.25614649058107175 -0.3372198939148267 -0.2823257148201336 0.4307503700354129
-0.39994987839038176 0.13579392428991022 -0.5135673284498073 0.49080979826722093 0.1884661317004975 0.4025137424072787 -0.3487105965447504 -0.37338793279071525
0.2027344703930083 -0.393650561563813 0.5331072807345822 -0.5749507547018569 0.10898256304099416 -0.23074546457013398 0.17166465512735551 0.4344539642399796
0.1603785752825917 -0.5155248046130784 0.5195504426933267 -0.10289254786846884 -0.12533801796841817 0.16526383167846675 0.48598384864398336 0.4625544548283638
0.4429900647667904 0.3633916974187125 0.05827760681141156 0.1749227047274541 -0.543791949809367 0.5448416471495414 0.010735332933980664 -0.20179778338083493
0.3564010262889217 -0.47698345784570817 -0.5299799442342469 0.5067895651048138 -0.21084234115828793 -0.3068950176088365 -0.15524998308744822 -0.19319191559809223
-0.5369677544238376 -0.020034968895169866 0.29865026474606804 -0.29124286774333796 -0.5692478419017107 -0.22843897345214664 -0.1750175654489581 -0.18252986657003023

encoder.0.1.weight f8 [64]
00000000: 8771 31c1 6698 ef3f 1c7b 2b56 2d79 f03f
00000010: 5c32 4f65 149d ef3f e9b5 8387 8e5d f03f
00000020: 5a5c 28a9 703c f03f 4731 388b bd2e f03f
00000030: d1e9 953b c848 f03f b2d4 933d dcf6 ef3f
00000040: f50d 055d 36da ef3f cf81 6344 abc5 ef3f
00000050: 8263 6157 bb8d ef3f 4c64 06cf 6fe8 ef3f
00000060: c545 0ed3 1d6d f03f 57c5 3aa5 31c9 ef3f
00000070: 5eab 240d c991 ef3f bd22 b7e3 df50 f03f
00000080: cb98 d4b1 9aac ef3f 2be1 9df2 ed35 f03f
00000090: 3cf3 956b 5a73 ef3f e91f 524f fa03 f03f
000000a0: ebff bd3d 524a f03f f95a 0216 95d7 ef3f
000000b0: b1e7 771d acae ee3f 3684 3082 b9b5 ef3f
000000c0: c51b 86dc 951f f03f e428 cefd 58f0 ef3f
000000d0: 0d8d bf16 8f15 f03f de8c 9e72 0a2b f03f
000000e0: d4a6 0cd5 7645 ef3f dab6 bbb4 baba ef3f
000000f0: cc6c b626 74ef ef3f 0957 4f05 21f6 ef3f
00000100: cd25 c8ad 6b0f f03f 78aa 0f4f 8911 f03f
00000110: b1c4 0030 1281 f03f 6958 4078 ef4c ef3f
00000120: a19c 12e4 6474 f03f ddde e7b3 12a6 ef3f
00000130: ee7e 427d 994f f03f d4f5 de99 7510 f03f
00000140: b5cd 3a21 fa20 f03f f704 3852 c34b f03f
00000150: 3c0f 4dad c245 ef3f 08f0 5aed 1c08 f03f
00000160: c4c2 405d 1b41 ef3f c20d ae95 d3e3 ef3f
00000170: bbc1 9b31 fc92 ef3f 148b 2ad2 4f52 f03f
00000180: 5d1c d820 6056 f03f a426 f6f1 5510 ef3f
00000190: f843 9de4 ab5e ef3f a8b7 5dd3 a7c4 ef3f
000001a0: a3eb eee1 6b7f ef3f a2bb 09ab d10c f03f
000001b0: ed45 a356 cb24 f03f d19b 4bae 1137 f03f
000001c0: 45cd d9e0 e120 f03f 7027 913b 782d f03f
000001d0: b300 f084 2b1c ef3f 9056 6085 c61b f03f
000001e0: 4435 3608 f5ed ef3f 9066 f199 cb8d ef3f
000001f0: a0f7 f98d 29c1 ef3f 9acb 21f3 5f9e ef3f
0.9873536847403991 1.0295842519769343 0.9879247645090561 1.0228410047087613 1.0147558791848241 1.0114112318288606 1.0177690818369352 0.9988843157467697
0.9953872505943183 0.9928795181004321 0.986051245369808 0.9971236270386128 1.0266397709241215 0.9933098055973159 0.9865460640624908 1.0197447676784315
0.9898198579074003 1.0131663777556905 0.9828312016758001 1.000971135947106 1.0181448375515127 0.9950662069194031 0.9588223052553443 0.9909331839336406
1.0077112783635453 0.9980893094191541 1.0052634132960663 1.010508010608468 0.9772295151826378 0.9915441064783537 0.9979801899056837 0.9987950423917208
1.0037647999146089 1.00428133853225 1.0315114855878103 0.9781415318164025 1.0284165295686665 0.9890225900444097 1.019433488174339 1.004018403108934
1.0080510423693856 1.0184968196556932 0.977265680769484 1.0019807120979767 0.9766976186129672 0.9965608523784157 0.9866925209917591 1.0200956544510449
1.0210877688384905 0.970744106846912 0.9803065743564039 0.9927558067554303 0.9843043720969614 1.0031296425984029 1.0089829811371331 1.0134445961391416
1.008027914355652 1.0111009909473658 0.9721887203632121 1.0067811212551625 0.9977975044618366 0.9860589987467439 0.9923293850877037 0.9880828617736939

encoder.0.1.bias f8 [64]
00000000: eb60 d5c0 7266 473f 0d51 8c47 02da a33f
00000010: 0369 f828 63f0 92bf 2167 344d d6f9 8abf
00000020: 802c ece9 4074 983f 72c5 d999 622a 9ebf
00000030: e904 063a 11cb 943f 1804 1a5f 328b 843f
00000040: 1b23 443b 78ed 99bf 23f7 1e42 9f77 3cbf
00000050: 28c4 2973 bd29 85bf bfe1 d761 1518 81bf
00000060: 9930 4f31 8621 a03f 0918 3cab d19c 903f
00000070: 6702 0a55 eece a4bf 1cfc 47dd 5c67 9e3f
00000080: 5ff3 11ed cca0 89bf 8d59 0578 5e3a 9b3f
00000090: c13c 596b 95b7 95bf 202e fd98 e363 1cbf
000000a0: 9e0b 4f38 ecd9 8b3f 187d 2e82 554b 893f
000000b0: 505a 2e92 6073 88bf f668 204e 78d1 73bf
000000c0: aad3 a8af 57ae 913f 5c39 6a98 e4fa 5abf
000000d0: 8218 8b0d 3014 85bf 9c47 ba70 a0f7 923f
000000e0: ad27 0ce2 6861 7dbf ee3e 2e0b e9e6 a23f
000000f0: 0b86 498e 542e 913f 3b1b 2a8e 6742 54bf
00000100: 7b64 3206 293f 8b3f 7266 61ae c497 7e3f
00000110: 5c38 3ddb aa39 a43f 6c28 7583 f651 72bf
00000120: 8af4 1414 70be a23f 3923 132a f8e1 8e3f
00000130: 5400 4eaf 3c25 913f a1b8 3b34 bc2b 973f
00000140: fca4 d661 65eb 8e3f 4de8 864e f96d 8c3f
00000150: 402b 5ac5 da64 7cbf 74eb d9e4 c956 993f
00000160: 0879 24d7 59b7 99bf 69cf 207f 6e82 973f
00000170: 4558 8752 3d64 98bf 10bd 4956 6a6e 9f3f
00000180: 1850 9ffd c003 933f 7afc 8f12 9526 87bf
00000190: 2b20 2e32 1826 a2bf a4f9 9ccf a0d1 8cbf
000001a0: e005 7720 027e 73bf c3d0 fb53 9790 873f
000001b0: 9d6c 6e26 bcc7 9a3f feb3 051d a320 9dbf
000001c0: 95b0 e743 1ba2 973f 3b2e 3a11 0d3a 973f
000001d0: fe66 9ac7 68cc 7fbf 6697 b3c4 8658 6c3f
000001e0: d742 a28e 7477 51bf 32fb 21cb 81b0 7cbf
000001f0: 7758 5421 d3dc 4d3f 0ccd 2dee 5773 94bf
0.0007141170805580443 0.03877265094175373 -0.018495129943496568 -0.013171838980770513 0.02388097217321361 -0.02945856155424082 0.020305890242075107 0.010031121756812353
-0.02531993734104097 -0.0004343761266872739 -0.010333519055366905 -0.008346716926994511 0.03150576927109334 0.0162232170833008 -0.04064125812601987 0.02969117260544972
-0.012513733849340345 0.026589847636694187 -0.021208128621137193 -0.00010829998632038611 0.013599248379142111 0.012350719485594783 -0.01193881460293969 -0.004838437978856405
0.017266626449970048 -0.0016467316033047163 -0.010292411244688052 0.01852274597201352 -0.007172975253306219 0.03691795598490254 0.016778298553964215 -0.0012365351946372466
0.013304062368023608 0.007468956266245651 0.03950246740588234 -0.004472697204002878 0.036609175158880694 0.01507943991090742 0.016743610572575854 0.022627773941103716
0.015097419784825032 0.01388163348098117 -0.006932119916778501 0.024745134919139614 -0.025113490825895673 0.022958494672095684 -0.023819883501197365 0.030694638744930336
0.018569007377507857 -0.011304058674794105 -0.035446888089666416 -0.014071708999492234 -0.004758842761874743 0.011506254435041169 0.026152553411162505 -0.028444813391093497
0.02307932474097692 0.02268238465926074 -0.007763299270345801 0.003460181445563859 -0.0010660780194806008 -0.007004267698106402 0.0009113341244837554 -0.01997125045040797

encoder.0.1.running_mean f8 [64]
00000000: b0a0 5ef8 6a79 b9bf e7d0 b438 ab89 dbbf
00000010: 8f03 9d60 1758 dabf f909 686b dab7 e13f
00000020: bcf0 2113 68d9 d1bf 6754 6445 e375 dbbf
00000030: ef43 1d92 2efa b6bf c4e8 6973 ec2e d0bf
00000040: 6301 311c a506 b23f 7dc9 d006 651e d43f
00000050: 1bc9 5297 aba1 90bf deed 1ebd 6012 b7bf
00000060: de1e 02cd dcc5 b1bf 79b2 d2fc e3ef c6bf
00000070: 734d fa4b c05f c9bf faac 97b8 a6a0 c33f
00000080: cb31 0bdd 901b d4bf 48d0 39ee 803c d23f
00000090: e613 bf3a 8bdc e5bf 62f1 b219 43b3 e73f
000000a0: 3225 fda0 485e da3f 752c 690f 76c3 d03f
000000b0: c880 6817 12b0 ccbf 6c32 65df 49fa bfbf
000000c0: 6ae4 fe09 ecdc d43f 11b5 e688 4610 d1bf
000000d0: 9255 865c 8268 e53f 2f04 12e8 d9ca e3bf
000000e0: 23da 7c4c c452 aa3f 57de 2a85 1db5 c1bf
000000f0: 187f 8c51 d0d1 a43f bfe5 e9d3 2af0 e43f
00000100: 6bf4 101f 773b c23f d6f6 4fb4 d2f5 dabf
00000110: 80e3 fcf4 d506 d43f d87b 8fce 6cdb b6bf
00000120: cf6f fee8 1656 d3bf bc74 aec5 a489 ae3f
00000130: a599 e70f 43c7 e23f 3356 f7aa 0e43 e73f
00000140: 33f9 ff50 5d6e db3f 4275 f4e2 1dc4 d43f
00000150: d218 114b ab2d c63f b176 3d5c 7efa b83f
00000160: 2bc1 07b9 e616 debf cae2 39bf 6e79 e53f
00000170: ada0 b486 e86e a23f d5fd 3104 44c0 cdbf
00000180: b3bf f5bf 5fab d23f e041 7c94 3496 dcbf
00000190: d5f2 ee7a abb4 dcbf 0487 04d0 2ad6 e73f
000001a0: 18ae 5df7 b393 c9bf 6ad7 6f41 5ec5 dfbf
000001b0: 34dc c8c2 15dd b2bf fb91 eddc e4a9 c2bf
000001c0: 76b4 98ea 446e e2bf f5ba 83ea ab5f bdbf
000001d0: 7e99 e9a6 e677 ca3f 2b5b cf43 571c d8bf
000001e0: b23d 8627 04ee dcbf 5b24 5f47 7b6d bebf
000001f0: 45ad 2f15 cea3 b6bf 331a 1e83 0b38 c7bf
-0.0995089393969717 -0.4302776387951454 -0.41162666735549974 0.5536930177480023 -0.2788944422570798 -0.429070298924961 -0.08975497309917534 -0.2528639914595596
0.07041389406459113 0.3143551413114876 -0.01624172316650983 -0.090124174282145 -0.06942539219937369 -0.17919587941050333 -0.19823459348536296 0.15334018719963877
-0.314182487357155 0.2849428488182224 -0.6831718585386823 0.7406325818952093 0.41200462075774447 0.26193000321354215 -0.22412325041751147 -0.12491285041796524
0.3259840104688637 -0.2666183792997155 0.6690074736713305 -0.6185121090530908 0.05141271051109111 -0.13833970072095056 0.04066325183361935 0.6543172968805989
0.14243973748117197 -0.42125384911183283 0.31291722225756047 -0.08928566019993356 -0.30212948563871306 0.05964388764480463 0.5868239699018899 0.7269357051070017
0.42861111555238834 0.32447001613202897 0.1732687107598339 0.09757222892718677 -0.4701477820335806 0.6710733160863012 0.03600241321902451 -0.23242998318526867
0.2917098402604054 -0.44666780949139984 -0.4485272121926703 0.7448934614987768 -0.19982003763594558 -0.49642139807052976 -0.07368598943217891 -0.14580975329876353
-0.5759605962717973 -0.11474108195737272 0.20678408765816053 -0.3767297899443515 -0.4520273576717627 -0.11885805599662673 -0.08843696610681658 -0.18139785673356953

encoder.0.1.running_var f8 [64]
00000000: 6601 b9bf 74b3 a03f a59b 44bc 4190 b23f
00000010: c79c 386c 9298 903f ae35 2bc3 94ed 8f3f
00000020: e422 357f c96c 983f ba7a 5f96 7155 a33f
00000030: 8f70 22b7 82db af3f e5cb f677 ea45 9e3f
00000040: 978a 10ce 2c1b b13f 15b4 6ee9 402e a93f
00000050: 3232 c9d8 168a 9c3f dd56 7c01 edbc 883f
00000060: 6bcc cfd3 db60 c23f d8c8 8b3c 8319 a33f
00000070: 8d65 dfe4 af66 8b3f 8198 f5b4 135f bb3f
00000080: edd2 761c 77e2 933f 27df 3ac1 ca95 a33f
00000090: 56ff 20bb bb20 a43f c894 81d2 fd76 b63f
000000a0: 32ec e97a e159 b13f 8619 ae1e 81bf a13f
000000b0: 74e4 f806 3ae1 a03f 9100 b97c c4ab b63f
000000c0: d5dc 5621 2aee 9f3f 0dd1 ae7d 6f60 9b3f
000000d0: 637d 0a89 025e a23f d56f 7ef8 b465 8f3f
000000e0: 2a08 2b71 0691 973f 9d53 4cee c3ee 883f
000000f0: 4ba8 ed23 6654 9d3f 116c 770c a21a b13f
00000100: 55e6 55fa 8bab 8d3f 3aa2 ba4e c7c6 8b3f
00000110: cdf2 d1eb 0307 b03f 4d81 452c 42e7 833f
00000120: 2145 0245 efb3 a63f 528a 4d40 2285 993f
00000130: d10a 6a97 dc8b 8f3f 6056 49d5 2a69 b83f
00000140: 6305 b549 333b 803f 0bed d1b8 bf89 9b3f
00000150: b8f6 c253 0834 953f e05a 0072 619e 8c3f
00000160: 2b4d 91cd 3dea 903f 7d79 9e1e 4b8e a13f
00000170: 8841 2612 4139 833f 865b f3b2 d917 7d3f
00000180: ea29 6e3b 9b5e 953f 0978 35d7 39c9 963f
00000190: 8c1a 0bb8 f300 943f 4713 ea1f d4bd b33f
000001a0: 774f d950 3c8d 973f ae19 f497 85e4 a93f
000001b0: beae 7a18 90f2 883f 7847 5992 6ee9 763f
000001c0: b388 6065 6ad9 783f fc41 43fa 53ae 9f3f
000001d0: 98f1 32a0 5da7 903f 427f d5a4 b4de 9a3f
000001e0: fbf5 0ceb a97b 993f 6d6d 8192 b972 9a3f
000001f0: 2571 695b 1acd 843f a87a 8c63 1eff 683f
0.032619141009947936 0.07251368376147001 0.016207015853208852 0.015589868742064219 0.023852489842542193 0.03776125870330334 0.0622216080239194 0.029563582965874153
0.0668209078872145 0.0491810116721824 0.027870518666803963 0.012079097373809794 0.14358089296692653 0.037304021016 0.013379453823221943 0.1069195095820721
0.019418583977045257 0.03825219734920742 0.039312235443957164 0.08775316609679173 0.06777772188972689 0.034664187426687795 0.032968343115904825 0.08855846447932182
0.031181963238591976 0.026735059782098825 0.03587348864425157 0.015330709298545667 0.02301416459773279 0.012174158773214755 0.02864226908005944 0.06681263737066014
0.014487355782637193 0.013562733736152233 0.06260704524352008 0.009718434310969437 0.04434154240983391 0.02492192761872964 0.015403483744426268 0.09535472590627014
0.007925415694105714 0.026892657905119893 0.02070630084266753 0.013973962108179305 0.016518560096597284 0.03428873776214212 0.009386547438027262 0.007102823626346294
0.020868707182254122 0.022251991043383188 0.019534881694904402 0.07711530474814508 0.022999708590148295 0.05057160835172013 0.012181401965185908 0.005593711777310044
0.006066718682662553 0.03093844618780571 0.01626344957615941 0.026240179596583653 0.02488580224166091 0.025828265730849 0.010156827845258018 0.0030513375790087345

encoder.1.0.weight f8 [64, 64, 3]
00000000: 0eef bcd3 c821 973f 4a2f aa90 732f b23f
00000010: 7c37 a653 d424 a1bf d2b2 7845 e5b5 87bf
00000020: 8922 ff34 d6bf b4bf da78 f567 ef47 b3bf
00000030: 42db b924 2096 4dbf c62e 045b f53d 8ebf
00000040: 4c3f 13e4 074f 8bbf 46d9 f641 26ff a9bf
00000050: fc81 e936 730f abbf 0e54 ca06 ed1a ad3f
00000060: bd68 4b13 2f90 a5bf 7517 2255 629c 953f
00000070: 729a 67a2 3df7 973f 97bc 9421 05e6 ad3f
00000080: 1e03 5946 2552 9abf 401a c125 2e83 73bf
00000090: fcec 6fac b636 84bf 6b4b 3729 5557 a93f
000000a0: a43d 41d6 3f3b a03f 410e e824 13b0 a6bf
000000b0: 086a 8e1f 2e91 b33f 1e77 f096 8e71 abbf
000000c0: 642f 2e79 745c b03f 50ad 7f7d 1eaf aabf
000000d0: 7623 876c 9af1 983f e58e 9d9c 295a 90bf
000000e0: 192c cf32 4d3c b0bf caf9 fb7c 3ae9 a43f
000000f0: dce5 884e 0418 b33f 9788 2126 fa88 9abf
00000100: e5d4 f5f9 0b76 ab3f cec5 34ae f285 7b3f
00000110: 68b2 7641 3280 b13f 08a2 8d45 e1dd ae3f
00000120: 4f9b 4438 1488 653f 0ac8 7516 6a79 aabf
00000130: 0dc3 7381 9c3c a9bf 4332 2372 946e a4bf
00000140: c614 34ea 81be b0bf 19af 616a 8761 b43f
00000150: f0b2 4d7a 21d0 a9bf 3046 3716 d4a7 a0bf
00000160: 25eb f325 0110 9c3f 6a40 8429 ad84 b6bf
00000170: ea78 891a dc91 b0bf e39e c07f ecb6 97bf
00000180: bb92 fcd4 8670 943f 3a8d 597d 5d11 a93f
00000190: 0438 c4f3 31ab a83f cb77 43a7 99cd 68bf
000001a0: 89e6 236d 345e ab3f 6635 c9ff f92b ac3f
000001b0: 8817 e269 f08c a23f 2fd9 f0b7 9329 b6bf
000001c0: a0c5 3b9c e832 8cbf 878c fc51 ed2b a33f
000001d0: 1c25 44c7 5587 883f 5abb 488d 6531 a4bf
000001e0: 7353 233b f587 b03f f3d0 00c0 18d3 a6bf
000001f0: e73a ffaf 7a8a b03f da0c fadf 3a7b acbf
00000200: dc3d b2ae 9263 ac3f d67c 766f e0aa 97bf
00000210: 7cf7 96b9 9bed 94bf e24e 925d ea37 a0bf
00000220: bf69 b5a7 3470 83bf ac83 3d56 dfe8 b43f
00000230: 0ecc cc32 02a0 a5bf 8892 eac3 8e09 b13f
00000240: c460 2957 55b6 b43f 83d8 5007 791a 9e3f
00000250: bddb fba9 bfb9 80bf 5d28 5733 851a a6bf
00000260: c85d 5fcf 6ad8 b43f aa08 86cc d561 953f
00000270: 48a1 9876 76ca a5bf ec59 d3fa 5db6 9bbf
00000280: 19a6 e89f ca9b 79bf 31ae 38d2 c613 833f
00000290: ce35 0da9 41bd afbf 415c 1080 33d0 61bf
000002a0: aa86 0b1c c9a7 a6bf 9a0f d398 0af3 983f
000002b0: b265 fca0 323c 973f b2cb 200b d15e b53f
000002c0: 16a0 b52e 947b a8bf 54d7 7e50 0e36 9f3f
000002d0: 6129 7f5d 8fa5 8abf de70 d67c ffc5 9c3f
000002e0: 113b 3ef1 819e 9d3f b698 85af b2c2 a3bf
000002f0: c6ef 6566 f40f ad3f bee9 8a11 e360 8abf
00000300: ea23 72b8 3da1 ad3f 7f78 8e1f 687f 89bf
00000310: c7b0 2635 7467 a8bf 6be3 dafe 6e08 91bf
00000320: 36f8 3846 e367 a73f f038 a0ba 7d52 b13f
00000330: a63f 2a5a ce15 b6bf e3d1 0590 f1da abbf
00000340: b7d4 4678 ad82 a13f f99c 8f97 0ee0 b03f
00000350: f91d 7360 a9ec aa3f b2bf 5928 3a3a acbf
00000360: c51e 5e66 7d3d 68bf 580f f50a a43c b2bf
00000370: 6f60 580f 4184 a7bf a159 4449 8d7e 9d3f
00000380: 1568 b4b5 cc9a ac3f ca20 3690 c22b b0bf
00000390: b4f1 08e4 9b42 aa3f 94e8 5d22 6e62 a7bf
000003a0: 236d 8a62 eae5 97bf 6811 5c90 201a 9a3f
000003b0: ea6b afcf 89c5 993f 12c7 ddfe 3ec5 a93f
000003c0: be61 b346 2f2e 96bf 14d5 fef2 44ad abbf
000003d0: 596a 5f42 2145 a63f 1ff9 1e99 9f51 b1bf
000003e0: c478 6c21 ba57 83bf f51b 81ed e133 733f
000003f0: 627e cbde 3fcf 45bf c4f3 7af9 3c8a b13f
00000400: afcd 5b22 4597 a4bf c4f0 9a79 d385 a33f
00000410: 700c cc53 3795 933f 3e46 09ba 978a 9a3f
00000420: f549 2bb1 19f9 8dbf 6eed 6dee ed30 b33f
00000430: fc4e 0a88 ed1c 983f fadf 8487 7ff8 ae3f
00000440: f01e 4165 d8d6 aa3f da0a 8a26 f43e 9dbf
00000450: 7390 6a5f 9864 a13f 26f0 a9b3 0843 74bf
00000460: eccd 8fb5 43a5 90bf b3aa fe5b 4506 553f
00000470: ce2e ba04 6bf1 afbf dc46 b0fb 582c b23f
00000480: e74c 1696 0e36 a6bf 00ed 7a01 2563 9cbf
00000490: 5671 3cfa 96b2 873f 93eb 9a95 fd61 acbf
000004a0: 7e35 6529 daec abbf 8754 5a24 b2dd 873f
000004b0: c5ec ff4c c051 a2bf e0f9 aa7d 87e6 7abf
000004c0: 0feb 98e1 4dd5 a8bf fa8b b2c7 e53d ac3f
000004d0: 2e80 bbe1 3e3a 9bbf 1e68 5ee9 7a65 7bbf
000004e0: 4e70 1c5d d63e a4bf b4b3 7836 7fa4 a3bf
000004f0: f8c0 757c 99c2 b0bf 7db1 1a25 3f78 a8bf
00000500: 2041 489f e7e2 a2bf b8d3 766b 6f99 933f
00000510: ba80 58f9 b251 91bf 4bcf b187 99b3 723f
00000520: 8b22 609c 19f8 803f 36bb 50b6 1c5b b33f
00000530: aef0 a21f 3616 abbf ac71 2500 f832 73bf
00000540: aaa6 7ac4 edac 913f f35c 6b6b ee4a 9dbf
00000550: 1ccc cb1a 613f a6bf cfaa 3a04 8fb9 b2bf
00000560: 9186 f257 10a1 b1bf abec c09b 73ce a53f
00000570: eb76 b423 14e1 8bbf 1296 fa92 b859 92bf
00000580: a6b8 cf75 0fb6 ac3f 6e7a 9f8b 21aa 973f
00000590: 6325 bcc7 f827 ac3f 3c9f 9197 48fb b1bf
000005a0: 74ca 9783 c44a a9bf 4019 2ffd 5f69 a63f
000005b0: db84 c202 e48e 833f 77d2 eb8e 6768 78bf
000005c0: 016b cba3 a4e4 b13f 1392 c389 16ba 7a3f
000005d0: e626 b4fe c94b a83f 069e 481d 2ed9 b1bf
000005e0: f726 4758 c7ff 963f 66a6 fdb2 d1e1 96bf
000005f0: f35d cf5c 3592 ae3f 8b11 4d3e 78fd b4bf
00000600: 8ea3 6677 0229 82bf af8e 006a 9672 a6bf
00000610: 6648 c3b7 4e80 a7bf 32da a984 681e ae3f
00000620: 2a67 41e6 36e4 b33f e091 4011 30bc 3ebf
00000630: c68d 5701 32c9 a03f 9f33 86d3 bef6 6a3f
00000640: c933 8446 0bcc ab3f 2e2e 2e6e bf51 a03f
00000650: 994c 5aa3 a017 ac3f 6005 a800 a262 7d3f
00000660: 750c a872 69f9 a1bf fc86 2434 34df adbf
00000670: 94f6 6bc4 ec72 91bf 6945 521b 700d 993f
00000680: 2188 f299 f11d b2bf 45f3 9807 bc8e a43f
00000690: 837b 707e b255 a8bf 322c 44f7 ff7a 5dbf
000006a0: 6a09 6d4b bc92 64bf 9569 ecb8 7adc 8bbf
000006b0: 278f 7305 aca9 8e3f f311 ad8f 9913 b03f
000006c0: 2fe9 2369 1fce b3bf 2a39 8a45 cf58 9a3f
000006d0: 5d8c 2b38 cc48 77bf 8ede 81a9 5abf ac3f
000006e0: b0e8 1bd0 60a9 aabf 5dc6 4b2c 4886 a33f
000006f0: a071 43aa 5adc 933f 09ea e5d6 406c 553f
00000700: 303b 1954 77cc 81bf 447f 306c ffdd 8ebf
00000710: d7b2 63fc ea29 a9bf c74f 3be8 81a7 b2bf
00000720: 908c 1df1 cf67 a13f f62f c80e 57a0 a8bf
00000730: d64a a1f1 b7dc 7c3f 1d14 0317 c69c a2bf
00000740: f92a 5558 0834 933f c657 0fcd 41da a2bf
00000750: 94d1 6722 bfd6 8abf 417e 8bab 21b1 a7bf
00000760: 0530 e25c c3bb b3bf 2b63 e083 f01f a63f
00000770: 7e22 1eb6 eab7 a93f 7540 e0c9 4861 ad3f
00000780: a27a 55d3 4800 a43f 0a4c 5764 69d7 b2bf
00000790: 3396 6cff b811 99bf 543d dada b00d acbf
000007a0: 7de8 1836 684d a2bf 0b2b 016a 7320 6dbf
000007b0: e738 1fad d712 a53f 32dd e80a 914f ab3f
000007c0: 7593 06f3 65f3 a6bf 886e 4823 0727 a9bf
000007d0: 0843 15a4 d757 803f 904e 682e 4992 83bf
000007e0: 4054 6336 83e5 aa3f 9590 3333 3acd 9f3f
000007f0: 4a88 8685 e367 80bf a764 a828 a58b a3bf
0.02258981506677942 0.07103655130248146 -0.03348411103352952 -0.011577407057381892 -0.08105219644415675 -0.07531639373835067 -0.0009029061270230193 -0.0147666138077719
-0.01333433308391787 -0.050774760772969205 -0.052852249577657745 0.05684605319871859 -0.04211566076783544 0.021104370542637214 0.02340408614863993 0.05839553866314267
-0.025703985613520712 -0.00476377512320042 -0.009869982850423835 0.04949442031979497 0.03170203676620112 -0.04431209397810366 0.07643402357499707 -0.053600746083459536
0.06391075094705695 -0.05211730272261639 0.024359143136993798 -0.015968942817734883 -0.06342012873135196 0.04084189201056494 0.07458521764137721 -0.025913151337939224
0.05363500047944018 0.006719539614367288 0.06836237047418481 0.06028655981100789 0.002628364078322155 -0.05170756839915221 -0.04929055290438642 -0.03990615742950301
-0.06540691345078917 0.07961317393499846 -0.05041603677714146 -0.032530429565337804 0.0274048022665553 -0.08796198142613468 -0.06472564361454017 -0.0231587365125553
0.01996050524680258 0.04896061091565192 0.048181115156793936 -0.0030277253191419488 0.05345310051229741 0.055023014520524424 0.03623153011817154 -0.08657191506140259
-0.01376897551333195 0.03744451165973666 0.011976881164189872 -0.0394393668142274 0.06457455343054423 -0.044579289853944014 0.06461302563478065 -0.05562767013636867
0.055447181534983264 -0.023112780383255004 -0.020437653734681302 -0.03167660133581564 -0.009491359108030005 0.08167835097766724 -0.0422363936435418 0.06655208857643846
0.08090718629807997 0.029397860595246527 -0.008166787505144652 -0.043171083943506196 0.0814272648125246 0.02088102398693851 -0.042560293175770314 -0.02706286281030572
-0.006252089979662334 0.009315064707229844 -0.06199078739755813 -0.002174473368096425 -0.04424885241838912 0.024364629342712975 0.02269057376461143 0.08347803613359764
-0.04781783170875557 0.03047964445405367 -0.01301109317855226 0.028099052423940722 0.028924970959958666 -0.038594802785881496 0.05676234960534958 -0.012880109761103205
0.05787079693352111 -0.012450040305165054 -0.0476642908937222 -0.016633734040371644 0.04571447593888005 0.06766496473594308 -0.08627023412031906 -0.05440478213396085
0.03420011609288436 0.06591883850306947 0.0525868349300786 -0.05513173811493689 -0.002959008142116778 -0.07123780505668031 -0.045930894015499095 0.028803069683897346
0.05586852758479225 -0.06316772480761582 0.0512894359457933 -0.045672837920350734 -0.023337995781372755 0.025490292368901463 0.02516761140928373 0.050332993136988816
-0.021660555544117825 -0.054056315100220825 0.043496169426096194 -0.06765172470384016 -0.00944466986180393 0.0046881509115967905 -0.0006655752054846693 0.06851559725596618
-0.04021659893433182 0.03813038691939277 0.01912390183407492 0.0259193141267302 -0.014635277480384604 0.0749653536894834 0.023547851017226215 0.0604896405151862
0.05242038951888428 -0.02856046185707837 0.033970605514043316 -0.004946741095974294 -0.01625543399491207 0.001283233388657362 -0.06238874848085417 0.0709891905283046
-0.04338117200964025 -0.027721956458418795 0.01157110167655932 -0.055435108673427845 -0.054541413834708216 0.011653320059205064 -0.03577996196687531 -0.006567506085671998
-0.04850238207696666 0.05515974104607575 -0.026589376952756698 -0.006688575862336092 -0.039541910997485816 -0.038364386939384515 -0.06546935356687189 -0.047792409209566046
-0.03688739604342772 0.019139996465770998 -0.016913219899038913 0.004565810896668253 0.008285713276579251 0.07560901118334304 -0.052903834688068016 -0.004687279464942778
0.017261233441479597 -0.028606152826651642 -0.04345229580021501 -0.07314390042544548 -0.0688638891902207 0.042590725672618866 -0.013612897243145258 -0.017920383425595494
0.05607651055457667 0.023109935900601668 0.054992460614878856 -0.07024053287898097 -0.04939855676993413 0.04377269712090248 0.00954988606855738 -0.00595894291358389
0.06989506720439566 0.006525123633967417 0.04745322450805904 -0.06972015585835586 0.02246009327226425 -0.022345806646092113 0.059709231929158245 -0.08199264069577887
-0.008867282170131021 -0.043842983665198225 -0.04590078347395447 0.058825746721528197 0.07770102616759958 -0.00046898053665447685 0.032784998573130816 0.0032914855075376194
0.05429110751911243 0.03187368602729311 0.054867763462561565 0.007174141714587051 -0.03510598682989833 -0.05834353577144033 -0.017039966095572526 0.02446532408481997
-0.07076940544587319 0.04015147774450737 -0.047528818068022914 -0.0017993449847064744 -0.0025113752011815442 -0.01360412480203336 0.014972061077464694 0.06279906995502653
-0.07736393277074137 0.02572940694749907 -0.005684659702384823 0.056147416297730776 -0.05207350292580892 0.03813386479113199 0.019395271913582257 0.0013075478742324861
-0.008690769437774998 -0.015071864594630953 -0.04914793330121874 -0.07286846084326647 0.033995149786982926 -0.0480982976478969 0.007046431093913971 -0.036352339085660136
0.01875317610874114 -0.0368214190308858 -0.013104909169648939 -0.04627328127912423 -0.07708378808655432 0.04321242914028852 0.050231299143949734 0.05738284553820076
0.039064670369716184 -0.07359942149859947 -0.024481669034818587 -0.054791952815430506 -0.03574681911818887 -0.003555512827039369 0.04115938175492478 0.05334141977476249
-0.04482573119756853 -0.04912588411044988 0.007980045981328412 -0.009556361893408721 0.05253229178348606 0.031056317687117547 -0.0080106520770792 -0.03817478295622694

encoder.1.0.bias f8 [64]
00000000: e4d4 0120 0749 a9bf 5356 1600 c1e8 ad3f
00000010: 3eed ff7f fdc8 b13f 17b0 2ffa 5f06 3fbf
00000020: 4611 0e40 615f a9bf 311f 6000 662f 783f
00000030: 8a77 ffff 2d26 b0bf 2f5c fa9f 4298 a1bf
00000040: 5d49 0200 5f76 aa3f 171c e4ff f4ca af3f
00000050: f5bf 3700 ba46 793f be39 ffff 194d a03f
00000060: b4f2 f97f 8d57 a1bf 82c3 05c0 1efb 9fbf
00000070: def8 4300 22ee 79bf a59b e3ff f34b 88bf
00000080: 6e2f 2c00 66cf 813f 2396 0140 c09d a53f
00000090: 596a e7ff ef4b a6bf e63a ed7f 5fa7 a0bf
000000a0: 1bcc f9ff c3d8 9fbf 4f90 0680 5958 a03f
000000b0: 1707 0a00 942b 8e3f 4af5 f1ff 3d36 9c3f
000000c0: a8e8 fa7f f4db a8bf 3512 01c0 677e a43f
000000d0: 1471 1900 8c4d 73bf 24fe f2bf 0028 a83f
000000e0: 73f6 3480 07a3 af3f 665e ffbf d6b1 a53f
000000f0: b732 fb5f bf91 b1bf 8416 f57f d58a 9e3f
00000100: 0881 7cff 8d3e 733f 63f9 ed7f 348f a73f
00000110: 967a f9bf 28e9 a73f 8f5b 2d80 4058 88bf
00000120: ed66 1660 5c86 afbf e203 2e02 10b4 4abf
00000130: b0cf 0d00 b550 93bf 7e0f 1e80 c9af a1bf
00000140: d958 fbff 85a0 9cbf cc8c 7600 ecc0 783f
00000150: a183 0080 74c9 9f3f c351 f55f 0847 a4bf
00000160: 6f24 0200 7d0a a63f a25d f9ff 8d45 b13f
00000170: eff3 fdbf 75f8 b0bf 629d 0500 bf45 a03f
00000180: 9d6c 02c0 105a acbf d155 ebff 46da 8e3f
00000190: fde1 5400 0929 82bf 2291 e3ff 068f 963f
000001a0: e4b4 0a80 17ba b13f e205 c87f 3228 89bf
000001b0: 4654 f7bf 83fa a8bf c26d 1501 c0b9 28bf
000001c0: b9a9 febf 6fd4 97bf 0433 0b80 c365 8bbf
000001d0: 5eca c9ff 2f33 8dbf c7e3 f1df 9a9e a4bf
000001e0: 96ad 01c0 3193 a5bf 400d ff3f 2883 acbf
000001f0: 94ae ffff 65c1 b13f c4d7 0d80 a935 a33f
-0.04938528314316118 0.05841639638962861 0.06947311758988392 -0.0004734024352603962 -0.0495558157627181 0.005904577677945431 -0.06308257579754986 -0.03436477854591435
0.051684349776354145 0.06209531425161446 0.0061709657343129625 0.03183823823893615 -0.033871099350084505 -0.0312313847256891 -0.006330616776038604 -0.011863619085898789
0.008696362381236358 0.04221916943860673 -0.043548107136037024 -0.0325269549999712 -0.03110033273555866 0.031924054029588526 0.014731556178279299 0.027550667521145024
-0.04855312406785234 0.04002689570237231 -0.00471262633945126 0.04718019812707677 0.0617906898500963 0.042372427880476946 -0.06863018124858909 0.029826484618090024
0.0046983286663648885 0.046014443031696904 0.046700738367453073 -0.01188707724729257 -0.06157196686690534 -0.0008149221579146738 -0.018862560394566408 -0.03454427422459981
-0.02795609831704202 0.006043359643999224 0.031041927635786618 -0.039604436601311764 0.043048769236585176 0.0674675702988368 -0.06629119813256044 0.031782120468785605
-0.055374644697814925 0.015064768490826193 -0.008867330858820738 0.0220299810106478 0.06924578548451482 -0.012283701443268794 -0.04878627508484405 -0.00018864125062632685
-0.02327131852477191 -0.013377692551693972 -0.014257788651979183 -0.0402725599642007 -0.042138628662395636 -0.055688150226638644 0.06935727596254032 0.03751878441009596

encoder.1.1.weight f8 [64]
00000000: 66bb 43b4 b70b f03f 130f b2df 06a2 ef3f
00000010: 031c 3cd3 8baf ef3f 03eb f0d5 72d6 ee3f
00000020: 4b8b 3f52 4e1c f03f 1998 090a 4f3a f03f
00000030: 0826 9446 ad54 f03f 28bc 03a5 8847 ef3f
00000040: eab9 d337 b4ab ef3f 35d9 abb8 1d0c f03f
00000050: 186d b49b 883e f03f aa27 1509 74d1 ef3f
00000060: 2824 7a42 d1a5 ef3f 2e30 82bd c541 f03f
00000070: 7660 da4f 780b f03f 4d0c 48d7 ca86 ef3f
00000080: e32a c67a 2d15 f03f 2c58 67a4 cbd8 ef3f
00000090: 5b90 2148 7691 ef3f db70 d310 025a f03f
000000a0: bd15 8997 d54c f03f 226c bb85 bb57 f03f
000000b0: 5d59 065c 6ca0 ef3f 3752 7be3 d4a6 ef3f
000000c0: 5c98 f6e8 e7ba f03f 8192 57cc 707d f03f
000000d0: 1807 b0b0 0d71 f03f 6bb6 ea68 2859 f03f
000000e0: 7006 3fd3 251a ef3f 7b74 e5e6 369a ee3f
000000f0: a358 a42b ef64 ef3f a4e6 0f50 ec27 f03f
00000100: 8994 44e7 ecad ef3f 2a88 a096 b760 f03f
00000110: 1937 6021 3114 f03f 4cc7 475e bdc1 ee3f
00000120: aff8 ee04 2e57 f03f 86b0 5db9 895a f03f
00000130: c26d a893 b69c ef3f 2ffe b0c5 464f f03f
00000140: 2975 6db2 b449 f03f aef5 2489 3328 f03f
00000150: f3b0 183e abed ef3f b140 7fd7 de4a f03f
00000160: 2b1e 5e53 e439 f03f b84d 32ae 784d ef3f
00000170: c862 975d 7738 f03f bc84 1eab e559 f03f
00000180: f148 a115 8c44 f03f 183d 11af bcae ef3f
00000190: de60 f8b0 c396 f03f e4da 04cc 80d8 ee3f
000001a0: 2b8c a3c6 85f6 ef3f 187f f053 cf56 f03f
000001b0: 60ae afc0 db18 ef3f 3bbd 8280 e9ce ef3f
000001c0: af07 4f70 97d4 ef3f ad2b 7431 c775 ef3f
000001d0: e339 5233 3196 ef3f 2283 2f80 b00c f03f
000001e0: 7268 b3d6 28ba ef3f 98e8 1fa9 7075 ef3f
000001f0: 6579 8e16 cf73 ef3f e266 36cc 39ce ef3f
1.0028607408127868 0.9885286683133664 0.9901789785079703 0.9636778048073612 1.0069106304951727 1.014235533913512 1.0206730610829045 0.9774821494046408
0.9897099581119708 1.002958032009315 1.0152669985025735 0.9943180253405803 0.9889913843518388 1.0160577204396861 1.002800285268703 0.9852041439738827
1.0051703258383717 0.9952142916688493 0.9865065964518281 1.0219746262801468 1.0187583846430777 1.0214190696631325 0.9883329198226353 0.9891151850702674
1.0456313228728709 1.0306251508820028 1.0276009466037461 1.0217670534433647 0.9719418645765483 0.9563250074094322 0.9810710766203282 1.0097468497682849
0.9899811284018522 1.0236125835294936 1.0049296668761996 0.9611498681463018 1.0212841217722077 1.0221040001734152 0.9878800281471103 1.019354603034923
1.0179945916964448 1.0098147732927418 0.9977623188802042 1.0182789247374269 1.0141337639378303 0.9782069589877471 1.0137857108986044 1.0219475445122006
1.0167351574823977 0.990080205849071 1.036807719507173 0.9639286026711855 0.9988430862107455 1.021193817032275 0.9717844737437638 0.9940078268026932
0.9947011178521644 0.9831272092718472 0.9870840074889283 1.0030980117082398 0.991474551522755 0.9830859473434144 0.9828868332440776 0.9939240444684538

encoder.1.1.bias f8 [64]
00000000: c1e9 ad4c 9c73 973f 0faf 4ea4 40b8 943f
00000010: ed24 ac29 759e 773f 3297 44e0 dcfa 75bf
00000020: 43fb 995f 3b67 783f c817 25fb 314a 873f
00000030: 54b1 25c1 1534 903f 5978 aaef e926 a0bf
00000040: ed02 8131 9488 84bf be1e 35a9 a086 9bbf
00000050: 4fb9 5e86 1f38 a23f 45b0 9e29 009f 713f
00000060: 0cf7 28ed b010 863f d48e 2e2c 6798 7ebf
00000070: 9544 916d 835a 95bf 8406 931d 789d 5e3f
00000080: c5f2 1324 8c76 8dbf b8cd 82bb b3c0 74bf
00000090: c1e7 202d b6ae 993f 10a9 9cbf 46cc 9a3f
000000a0: a94f 490c fe81 9d3f 3ea9 8454 a7dc 9f3f
000000b0: 32d6 3b5e 8689 8e3f 512a 63f7 4df1 9b3f
000000c0: 0f70 31ce 7248 a43f a4f8 6c41 b9c8 a23f
000000d0: 5891 eb43 2e12 a43f fe7a 8ed3 0d62 793f
000000e0: 5672 c143 b702 98bf 545e b16e f976 a0bf
000000f0: 5cd2 2b2e c1f0 83bf 48a9 7992 cd44 80bf
00000100: af45 3274 99c6 993f ebba e51f 2256 9abf
00000110: 10e5 fa88 0020 953f 13a7 8a05 1279 403f
00000120: 607a 8db4 d40c a23f 5d3c abda 994c 91bf
00000130: f551 b5d0 c7b3 9dbf 670b 7927 aa15 9e3f
00000140: 20a0 5031 1e01 9a3f 5bb9 8b41 1bc8 9c3f
00000150: ef0c 8100 36f0 8e3f 30f2 89e5 066b 8f3f
00000160: dffe b648 40f4 9b3f f8ac 514b 1745 693f
00000170: be39 75ed 15ee 743f 09d5 076b b43a 9e3f
00000180: b9c8 70d3 e8d5 943f 45ff 2c5e c1e4 5dbf
00000190: 3a33 4a52 1606 963f 6544 d492 f5fd a4bf
000001a0: 111c 8bd2 1255 9d3f c38e ba70 db2a 623f
000001b0: bfcf 34a2 65b5 9dbf 1630 0292 21e1 943f
000001c0: 466c df99 bda3 743f 9820 ae67 dbcb a4bf
000001d0: 0176 db37 b7be a7bf c2fb cc25 9f19 73bf
000001e0: 43f0 dfc1 b63a 90bf ea35 f3c7 cd93 85bf
000001f0: 956d b7f0 e10e a6bf 892f cc80 19d4 71bf
0.022901956730018606 0.020234117535138426 0.005766351382370899 -0.00536619453149516 0.005957824637902234 0.011371984936555793 0.015823688424846452 -0.03154688883408658
-0.010026128540745438 -0.02688075096855757 0.03558443560847257 0.004302025446957518 0.010774023282575061 -0.007469561593925273 -0.02085309368368778 0.001868598270718642
-0.014386267519961202 -0.005066587524356896 0.025080534462382568 0.026169877476754755 0.028816194057369824 0.03111516431196403 0.014910745383058008 0.027287691330267375
0.03961523787504017 0.03668764995244203 0.039201207915342706 0.006197027215334881 -0.023447860250927675 -0.03215770221930528 -0.00973654672768836 -0.00794373133904415
0.02517165919977565 -0.025719197460996417 0.02062989078578875 0.0005027139660189493 0.03525414184581588 -0.01689377209805475 -0.02900612079004535 0.029379519137602197
0.02539488960260894 0.028107095599744763 0.01510660351789858 0.015340856437654343 0.027298931539688872 0.003084702965272631 0.005109868673868366 0.02952081588042169
0.02034724989443568 -0.0018245590551515128 0.02150759579903936 -0.041000055478556154 0.028644842243718275 0.0022177015251417533 -0.02901228716400772 0.02039005712190097
0.005038967732583782 -0.04061780586840874 -0.046376920288576436 -0.004663106604140434 -0.01584897573773981 -0.010535819687357912 -0.04308229506906539 -0.004352664586587348

encoder.1.1.running_mean f8 [64]
00000000: 0085 a34f a6bd 90bf 7e46 22d9 9335 c5bf
00000010: 2e24 91c7 ce21 c23f fb5a 4d53 97fc ec3f
00000020: 160e 1d7e df63 e43f 6439 2264 6970 e4bf
00000030: 16be 1820 f1fc dabf 0120 ffa6 8c7e e73f
00000040: 726c bd1a 0726 e9bf adfe db8e e166 d33f
00000050: f668 c481 8a5d e2bf f97d 81c9 cce5 e1bf
00000060: 22da 2318 1ff3 d2bf 1dff 844d f6b6 d83f
00000070: cc0e 55ca e906 e13f f300 b129 1db3 e4bf
00000080: b8c7 ed35 7eb4 f03f f108 cd14 51c8 dc3f
00000090: 8dec 0353 41c7 dbbf bb29 c450 6c38 d6bf
000000a0: a63a eb49 02f9 e4bf 8cba b1c7 0e9d e8bf
000000b0: 69d4 5d3d 6d38 e7bf b97f 686b cf59 d3bf
000000c0: 9bf4 e44a 4ff3 d1bf c00d 044f 5043 d9bf
000000d0: 553d 8c73 92e8 cbbf 0328 5614 1d0d eabf
000000e0: e591 2727 edd6 d03f 507d de74 07b1 ba3f
000000f0: 341c d156 fd7f d13f 811e 07dd c8a7 e83f
00000100: 8f39 7bcb dfe5 c7bf 1537 fce2 88a1 e63f
00000110: 72b9 d84d e9d2 f4bf 5732 b883 bf79 6f3f
00000120: cb37 28d3 8532 e0bf c386 4705 92f1 e63f
00000130: 5a9a 38ba fd47 f43f 82b5 460b 9f46 e4bf
00000140: d9d4 ef56 8ac4 f0bf 6aa7 6ba2 a883 e4bf
00000150: 82ee ea28 aab6 ecbf 4a01 efaa 4e89 c9bf
00000160: 9e77 e0b8 31e1 e1bf 443c cd21 2ccd e93f
00000170: b213 5aa5 2965 c5bf ff3f 676e a97b dfbf
00000180: 6ace e4cf 6edf e4bf b334 0a13 2754 d5bf
00000190: 3841 a138 9ca8 f6bf dba4 d068 13a0 e93f
000001a0: 8f92 4d30 3e73 e6bf fc04 cdcd 89ef d13f
000001b0: 3c51 9201 7c0c e03f 4960 99c3 9455 d7bf
000001c0: 0b68 4188 06e7 c33f 1b3f 1bc2 bdb2 e83f
000001d0: 02f5 dfbe bce2 e43f 46c5 917d b1dd ed3f
000001e0: 10ea d807 dce3 d93f c4bf 4df4 6d6f d43f
000001f0: 15c6 9ccf 6b75 f23f 62e8 aa43 11cc e73f
-0.016348456011546553 -0.16569755651703483 0.14165673012237917 0.9058338763232706 0.6371915305284712 -0.63872212941514 -0.42168834814489864 0.734197927632522
-0.7858920595421195 0.30315436316593997 -0.5739185843006271 -0.5593017516766273 -0.29608895642687305 0.3861671216036358 0.5320939018060584 -0.6468644918714105
1.0440656763644096 0.44972636252727144 -0.4340365706154408 -0.3471937931759858 -0.6553965991714292 -0.769172086742246 -0.7256380270542994 -0.30235658158380435
-0.28047544778730477 -0.39473350254430883 -0.21803503648741676 -0.8141007802198604 0.26311806510628194 0.10426375010728361 0.2734368655987425 0.7704815213155173
-0.18670270381558082 0.7072185929589262 -1.3014920273668307 0.003842233707251712 -0.5061673282777915 0.7169885733712466 1.2675759577047274 -0.6336207599867267
-1.0479834934206365 -0.641071622111878 -0.8972979354070534 -0.19950278612487643 -0.5587395296931736 0.806295457858035 -0.16714973996945798 -0.49192271977972263
-0.6522745190072332 -0.33326126918184257 -1.4161646091561817 0.800790505139186 -0.7015677398126899 0.2802452573560712 0.501523974484861 -0.36459845639683813
0.15548783925152096 0.7718189993993038 0.6526778915428226 0.9333121731307663 0.40453243986454 0.3193011174944298 1.1536672696933057 0.743660576022432

encoder.1.1.running_var f8 [64]
00000000: 6aaa 179f 6f2b e73f ffd8 32e3 c799 e03f
00000010: 1a27 7c28 a4ac e13f 8b35 26a0 5183 e03f
00000020: 4c69 3890 7ed2 e63f 70f9 7c28 c1c1 ee3f
00000030: 03b8 c262 7f16 e83f 71e9 6dc8 d3e8 e93f
00000040: e211 8a08 941d e23f 86b9 1603 47dd c63f
00000050: 976c 3e73 5f76 ee3f 4d6e 8048 558d e33f
00000060: df49 cf1c 2c06 e23f 1a34 e4cf eb9f d63f
00000070: e35f 76ff 2eb6 e23f 0e2f d7ba 730f e53f
00000080: bf20 b3ed e486 e23f c1b3 3159 7980 d23f
00000090: b1a8 4e21 17e0 e13f 19bf e57a 53c3 e63f
000000a0: 1519 cf32 2e1b ef3f eab2 90cd 2758 f93f
000000b0: 3db0 00ce 3000 d63f dabe 1dce 9219 eb3f
000000c0: 0b26 7ad9 6b7f d43f d245 b8d2 5498 0240
000000d0: 9948 ea91 ea8b f13f ebd9 11cf abab f23f
000000e0: c494 a650 4b2b bc3f c87d 9f67 2acd e23f
000000f0: d7e3 3321 6722 e13f eabe 08fe 01c9 e73f
00000100: ef0f b083 c24e d23f 3543 106a e37e da3f
00000110: 77a6 50d9 e8b5 e73f c496 727e b8ac e73f
00000120: c59c c545 b72e e63f ac5b 517a a835 d83f
00000130: 857a ae56 5159 ec3f 933e 5e26 f319 d83f
00000140: 7c9f 9e24 d623 e63f 91fc 7e33 531a de3f
00000150: c8c3 08eb 4a85 ed3f 1eaa 4c9c fbb7 e63f
00000160: 50e4 acfa fe79 f33f 8ca5 0432 ddde ee3f
00000170: cf67 6132 7ca1 ce3f 80f7 d3b4 4a46 f93f
00000180: 0bbd 3ebc a6fe e53f 9f14 4e53 2959 df3f
00000190: 4523 58b6 a119 e53f aa55 ff30 c593 e43f
000001a0: 2a3a a768 b85a e03f 40cb 1799 54d2 d63f
000001b0: 1c29 0f13 f981 e93f 9ef0 54dd 280a f13f
000001c0: 5e22 dfad 2654 e03f 0eae fa21 68fa ce3f
000001d0: b18a 6ac1 9d10 d03f 5d36 8c91 55ab ec3f
000001e0: e1aa c836 894b de3f a747 45e4 ffcb eb3f
000001f0: 0ea4 14b6 dd98 f63f 6030 f3eb f7c1 d93f
0.7240522486948298 0.5187720715973966 0.5523243704530814 0.5160301330485465 0.7131951157382814 0.9611516752991474 0.7527462891500821 0.8096712984691249
0.5661106268676657 0.17862785006350296 0.9519498110634171 0.6110025802658555 0.5632534563722479 0.3535108118238114 0.5847392072200787 0.6581362389783594
0.5789665834972978 0.28909143171659585 0.5586047792942478 0.7113435173359647 0.9720679275858709 1.584022334088497 0.34376163594675174 0.8468717599589255
0.3202771781730866 2.324380537270124 1.0966592502414072 1.166911896577967 0.11003561705600179 0.5875446342360471 0.5354495666971343 0.7432870828251599
0.2860571180356137 0.4139946494843117 0.7409557575640083 0.7398340673141424 0.6932026255352858 0.3782750315198722 0.8859030430792961 0.37658385035408876
0.691874572298715 0.47035675076399125 0.9225210752975892 0.7099588444446601 1.2172841827398493 0.9647050835530293 0.23930313549027324 1.5796610892861906
0.6873353649770321 0.48981698165182225 0.6593788682376746 0.6430383641224371 0.5110742610939429 0.3565875525520603 0.7971158382654582 1.0649803777478506
0.5102723499231379 0.24201680812016985 0.2510141743497725 0.8959148256996731 0.47336035108553004 0.8686522921000134 1.4123208153271238 0.4024638942908094
