models/matching_nets/AWF_n=1_k=5_q=15_nv=1_kv=50_qv=1_dist=cosine_fce=None.pth (torch, 316367 bytes, 24 tensors)

encoder.0.0.weight f8 [64, 1, 3]
00000000: 0668 999d 98fd c4bf 8066 1c02 9dfe df3f
00000010: a8e9 fec2 d8d6 e2bf 92c2 c262 567e cfbf
00000020: e65a b089 22de d43f 9b4f ca29 e2f2 c63f
00000030: 762b 27a0 a294 d4bf cffd 9e15 5b6a cabf
00000040: 3eb5 9834 36c7 9f3f 346c 18d3 0181 ddbf
00000050: eeb4 af69 c26e da3f 0ded a60a 7ea9 e23f
00000060: 8940 38f3 1e58 c73f 4e74 1ade 9688 dfbf
00000070: f87b 2872 d621 bdbf 37b0 669c 31a7 c33f
00000080: 9c0c a1f9 e6d3 dd3f baa5 e833 83ba d33f
00000090: 9844 6c2b 611f e03f 950b 9672 e35c bcbf
000000a0: 2537 62e5 b2af b33f 14f5 5f69 a2eb 9b3f
000000b0: 0f41 0db2 d344 ddbf 1f7e 6f44 87b4 c23f
000000c0: eea5 04db 2ba6 ac3f 4cbc 59f0 50b1 a13f
000000d0: a11f e3d7 9ab9 dbbf 63fa 5d29 3a6c e0bf
000000e0: 11c5 e555 06a0 d9bf 5912 e996 b111 e0bf
000000f0: bab7 0b1d 69a1 debf 0425 7dd0 7d62 bdbf
00000100: ecc2 08d7 1e40 d23f f54b d000 10dd bdbf
00000110: e91b b0d2 e33a d33f cce4 289a c711 e03f
00000120: 28d7 ebc4 6990 d63f d1fd 545e 93cf c6bf
00000130: 8994 34e0 aeec a0bf d3b9 dde2 0516 e2bf
00000140: 3857 ee0f 460a e1bf f0f8 5668 a7fe b13f
00000150: 8077 3f55 cff2 ddbf c271 30f7 e414 d43f
00000160: 4bd4 debd 2d04 d5bf 53c5 b85a 9b84 d3bf
00000170: f77c 723a 3375 b2bf c49a 96ae 84b9 ac3f
00000180: 5679 701a bf9e d4bf e7ee d34b 6422 c83f
00000190: e577 b8ed 56bd c1bf dc70 4f2f eb22 d4bf
000001a0: 411e cd5f c1da d9bf b69b 08d3 d891 d03f
000001b0: 36ef 2096 9efb b2bf caad 1c8c 8a2d e0bf
000001c0: 48e6 eae0 b20a d33f 0e60 d1ce 5524 d43f
000001d0: 7628 0453 7c2b cdbf de2c 50ee 35e3 c33f
000001e0: 11e4 5fe6 5a1e da3f 1014 99bf fe47 ae3f
000001f0: 6a06 19b6 6937 d8bf 03b3 0c03 e2c9 b33f
00000200: 51a8 70b5 4e3a d63f f6e5 29b7 816a b43f
00000210: 13f2 5f83 d924 c8bf da2f 960d 0575 debf
00000220: 1c17 9fd3 d6e9 d03f 93fe 0d3d 665b e1bf
00000230: 8eb2 bcae 0f4d debf df89 3577 ca3c c4bf
00000240: d7bf 6a72 9eb5 e1bf 1cc7 c396 4601 c4bf
00000250: cd74 8726 9937 d13f 4b63 38b0 5803 c8bf
00000260: 3660 e516 3908 d0bf b2a0 66b5 3768 a3bf
00000270: 07f2 1977 8d2f de3f 06ba f67b 878f d6bf
00000280: d750 d62d 568d d63f fe36 6d85 1811 c33f
00000290: f362 7c4c cc72 e1bf 3e58 a194 da86 d9bf
000002a0: d882 bc99 dd50 a4bf 81b0 22df 411b d8bf
000002b0: a22e 5755 4757 ddbf 3df6 f584 f459 d73f
000002c0: 8535 0bcc cb59 d43f 0d8f 1a0d cabc e23f
000002d0: 5054 6b65 0e60 d4bf 9e63 0462 7b08 e0bf
000002e0: 545d 56aa 26bf a03f e913 64a7 0f91 d7bf
000002f0: fee1 b6d0 725d dbbf 03d7 5f34 1484 e23f
00000300: 615f af1c d8b6 d93f fc57 d55a 6de4 dfbf
00000310: 7596 f1e9 a1d7 d2bf 490b 6c94 43ae dfbf
00000320: dfcd 3c60 8008 d83f b395 f207 6af1 b1bf
00000330: 60b5 75e1 8133 debf 34e1 42ae 3ab7 d73f
00000340: 9940 3610 8349 c93f 0c40 6752 ea38 df3f
00000350: 6c2e 74a2 cc36 c13f a3af e0c2 2359 c1bf
00000360: 1f80 b623 8765 d93f d57d a633 9c25 ce3f
00000370: 785f 711a 1afe c4bf e48c 0924 d328 e0bf
00000380: 3668 b5f6 daa8 d53f 6896 5922 7b4c bebf
00000390: 2aea 9831 99fe dabf 8f1e afbc b413 d5bf
000003a0: 21ff 930d 1920 d9bf 1f0f e7ec 39ec cbbf
000003b0: a6e8 f830 27c4 c7bf 6f64 1848 a617 c23f
000003c0: 4deb faa7 6707 c7bf ed51 dcaf 4ce2 afbf
000003d0: 2ddd a69c 6b1c ba3f ebf9 5ea6 4ff7 c4bf
000003e0: abe0 1139 7b30 c3bf 139c 0ae6 47fa d63f
000003f0: 18df 6c3e 4a2b ccbf 9c30 c05d 97ec cebf
00000400: 765e 9a71 681d d3bf e04f 2275 6bf9 d23f
00000410: 3619 ed16 e6fe e03f c831 fa81 aca0 de3f
00000420: 14e8 f938 6213 b53f 44c1 fe6b 9578 e1bf
00000430: 11a0 e390 8f61 893f 57c1 abae b3ad b6bf
00000440: 976e 252b 7028 e13f bec0 aef2 46f8 c33f
00000450: 5c93 2f42 80a0 bdbf 33bc 1f6c edde 9dbf
00000460: 4673 8fe7 ca60 b63f b632 ac42 67d1 e13f
00000470: cfcb fda0 2165 dabf 430d e576 e257 babf
00000480: a90e bbe6 5f9f c53f 487c bf79 61e8 9abf
00000490: 2c65 0c47 c067 d93f 5f63 1057 4052 e2bf
000004a0: aba4 cfb2 48fe ac3f 2577 1276 c242 ccbf
000004b0: a8ab c5ef 7186 c53f dec2 0e55 1066 c63f
000004c0: f82f 7982 3f6a e2bf 983f 36e8 c911 963f
000004d0: 1599 4acf c296 9a3f c6ef 1250 79bc bd3f
000004e0: ddbb ed0d 6e77 d0bf 2177 08f6 68eb d53f
000004f0: e430 1071 68bc ccbf 63e6 a82b 98fd d33f
00000500: 87bf 0791 a10a d4bf cf3f 858d 5df5 ce3f
00000510: 6390 bbd1 df59 b7bf a907 99d8 a120 c93f
00000520: 941e b424 525a d83f 699b bd5b aeee d5bf
00000530: acf6 a823 850a ce3f 66e9 50cb 2c01 983f
00000540: fd07 b44b 6ad2 c9bf 18bb 6b94 a37f e23f
00000550: 0634 0988 832d b33f 902a 4a03 4729 b5bf
00000560: 9643 fc64 a8ad e23f 1867 2700 bf26 b13f
00000570: 7154 eb21 e3f6 933f 1185 5296 4416 e03f
00000580: ceb1 287e 67ec c53f 48a9 1549 78d0 c43f
00000590: ea79 d98d 8cdf adbf fb76 fe10 9aa2 da3f
000005a0: 8596 bc3f f119 b73f fd29 0ad8 d64b c53f
000005b0: 3761 a079 b7c9 d3bf 4e2a 704f 2513 d33f
000005c0: 2ba1 3192 86af e1bf a838 17e8 d017 c9bf
000005d0: 95f4 f68d e071 e03f 2821 77b1 cd82 d9bf
000005e0: b514 f9e7 fcc0 dbbf f9a1 8d80 b949 7f3f
000005f0: eedf 38b5 dd70 cbbf cfe9 39da 1f73 ce3f
-0.16398914046550334 0.4999153633703841 -0.588726406909065 -0.24604301283172397 0.3260580391519582 0.17928721466580275 -0.3215719760889252 -0.2063707213946899
0.031033369980083984 -0.4609989701727415 0.4130102188199335 0.5831899841354314 0.1823767364117013 -0.49271175088671704 -0.11379757201255802 0.1535398496320128
0.4660584867271582 0.3082588202401798 0.5038305137733401 -0.11079236552727274 0.07689970112025131 0.027266061479157847 -0.457325862768827 0.14613428918436086
0.05595528648911939 0.0345559399983065 -0.43320342142805585 -0.5132113273574074 -0.4003921355097911 -0.5021598765820939 -0.478601721158039 -0.11478411045131415
0.2851636028236004 -0.11665439624657366 0.3004693562983776 0.5021703730518765 0.35256427984801286 -0.17820970636419856 -0.03305574881441326 -0.5651883536318628
-0.5325041113999083 0.07029196069104038 -0.4679449398516837 0.31377529277395066 -0.32838004629167433 -0.3049686799959847 -0.07210083176549974 0.056102892219589445
-0.32218911725967325 0.1885495538953059 -0.1385906849617974 -0.31463126773975403 -0.4039767680701268 0.2589017926097158 -0.07415190854311224 -0.5055592285693191
0.2975279995403963 0.3147177238183766 -0.2278895764687296 0.15537141929994552 0.4081027269126603 0.059143029106543676 -0.37838213713630486 0.07729923796132358
0.3473088046909015 0.07975016328591508 -0.1886245624044852 -0.4758923180277158 0.264272410070008 -0.5424071495508137 -0.47345344604654194 -0.15810519047506852
-0.553420279951747 -0.15628893243370434 0.26901844751939735 -0.18760212521081096 -0.2505018924325698 -0.037904492276824256 0.4716523802851786 -0.3525103293021917
0.35237650371824486 0.14895922198268602 -0.5452634328713358 -0.39885582461045377 -0.03967945577301685 -0.3766636542375253 -0.4584520657924519 0.3648654268689347
0.31798071790839116 0.5855455642635846 -0.31836280731414934 -0.5010353960416187 0.03270836667359825 -0.3682288298298873 -0.4275786436296868 0.5786229155480388
0.40178492356561973 -0.4983170878452936 -0.29441116186203625 -0.49501122946110293 0.3755188884562965 -0.07008993810685275 -0.4718937589412544 0.3705584241647728
0.19755590716932117 0.48784883544158286 0.13448484356227952 -0.13553282752525062 0.3968217705496517 0.2355227710913669 -0.16400457659869594 -0.5049834922650942
0.3384311112655526 -0.11835450733777864 -0.42178945392120915 -0.32932775903871286 -0.3925840981100795 -0.2181465536833622 -0.1856736172792967 0.14134672661092249
-0.17991347982555297 -0.06227340361343523 0.10199616026408327 -0.16379733680328398 -0.1499170330678273 0.3590259310244061 -0.2200711064158376 -0.24159519269631324
-0.2986699208645186 0.29647337378378147 0.5311155746246985 0.47855675404641973 0.08232702151318022 -0.5459696873931894 0.012393113717237754 -0.08858798040796977
0.5361862986278138 0.15601431703317375 -0.11573030105462351 -0.02917071316181481 0.08741443780259059 0.5568119337272808 -0.4124225685292772 -0.10290351298049409
0.1689262272467336 -0.02627708726492653 0.3969574636299338 -0.5725404453724926 0.05662753279450191 -0.22078734174004314 0.1681654377710775 0.1749897399254427
-0.5754697368915904 0.02155223350342758 0.02596573248106278 0.11615713314944207 -0.2572894226095153 0.34249328638712667 -0.22449975510278997 0.3123531748165986
-0.3131488720236963 0.2418629590051737 -0.09121512289454041 0.19630835605681554 0.38051274856886974 -0.34269293746040447 0.23469604722224824 0.023441982182910513
-0.20173386284301378 0.5780809305996142 0.07491323538961589 -0.0826610930472873 0.5836984608050553 0.06699746850736366 0.019496487565295376 0.5027182517989407
0.17127698574166889 0.16261199539742166 -0.05834616881906014 0.41617442760058027 0.09023959928580368 0.16637692974866516 -0.30918681027971523 0.29804356343871496
-0.5526764731739936 -0.19603930790475954 0.5139010212657406 -0.3986086113987022 -0.4336540475235993 0.007638668649498908 -0.21438189839113825 0.2378883185918554

encoder.0.0.bias f8 [64]
00000000: 8aeb e77f 4e58 cfbf 28b7 02c0 266a debf
00000010: bc4c 0b00 fc15 d8bf 45e3 eeff 4465 b93f
00000020: 9f20 e1ff fd08 c03f b163 5700 cab9 a9bf
00000030: c0f5 0240 85ee d43f bd27 f4ff 1c71 dc3f
00000040: 1fed 1580 2492 c13f 5e61 0040 26ad c1bf
00000050: d07f ed3f 8a17 dcbf 8532 0680 3dcd e13f
00000060: 0796 fa7f bc7b dd3f 6bc0 feff b79d e03f
00000070: c798 1c40 f2bd c7bf c7c1 3d00 3dba cdbf
00000080: 873a fa7f a55a d5bf 31f9 0100 7205 e13f
00000090: dff9 e901 d024 8f3f 2b53 b7ff a034 b33f
000000a0: 3b23 e2ff 2b01 b2bf 08ea f99f 20cc e1bf
000000b0: 6264 3700 700c 85bf 99fa f6ff 9baf ab3f
000000c0: 4395 fbdf 3c62 ddbf 253e 3e00 589b c83f
000000d0: 2313 0580 3e3e de3f 9ff6 0180 4797 c93f
000000e0: 08cc f57f cc85 cabf cd48 ff3f 119f d93f
000000f0: b91a f17f 94c7 d4bf c83f f5bf 4a61 c2bf
00000100: 9b72 0080 a331 dbbf 0582 fcff ef43 e23f
00000110: 310e 0980 2eca cabf 36cb 1880 d9a4 d5bf
00000120: d2f8 efff dfd6 d63f 78b3 dfff 8458 bf3f
00000130: 88a9 fd3f 2e7c dabf 6308 0260 c726 e2bf
00000140: 2924 c9ff 6137 ccbf fc10 e9ff 185d db3f
00000150: 8d7d 0020 f5f5 e1bf fc90 faff 0cd7 da3f
00000160: 70ab f43f d64f e13f 0ff8 f33f 7622 e23f
00000170: fff7 857f 122b d8bf c8be 0300 6c20 a7bf
00000180: b545 4aff 7d30 a0bf 313a f63f 0ba9 d03f
00000190: e4d7 dfbf 59f6 d63f 62e1 c97f a2de c03f
000001a0: 53b7 f53f 0a22 e1bf 283d ffff 5f96 9fbf
000001b0: dc18 0e80 d6ee de3f 4b6d f37f bb40 dc3f
000001c0: 5ac8 f6ff d590 b7bf ae12 0000 d8ed df3f
000001d0: 2ee9 fa3f 320e da3f 47d1 6b00 6c53 bfbf
000001e0: 5c57 5d02 384d 81bf b3ee da7f 1d39 bcbf
000001f0: 3965 f53f ef83 d63f 9d0e 0c00 f8a9 b2bf
-0.2448824047604286 -0.47522896529231895 -0.3763418198042918 0.09920150040023852 0.125274419728389 -0.05024558309714367 0.32705813647393356 0.4444038867519529
0.13727241758520223 -0.13809660077164215 -0.4389367698950055 0.5563037395928211 0.4606772661012148 0.5192527770905263 -0.18548420076803593 -0.23224604141024782
-0.33365762231634516 0.5319147110128936 0.015206933077249239 0.0750218033129612 -0.07033038136627294 -0.5561679005180062 -0.01027762890491796 0.05407416820115891
-0.45912095902743405 0.19224071514007438 0.4725490808671557 0.19992917776464922 -0.20720821617177898 0.4003337025616361 -0.32468140119855665 -0.14359411595296323
-0.42490470409556175 0.5707931518300603 -0.20929509402968585 -0.3381866217561539 0.35686492914090906 0.1224444508258794 -0.4138293862257787 -0.567233741298207
-0.2204401492074635 0.4275572299122954 -0.5612741112744729 0.4193756580155108 0.5409957169662061 0.5667067765314203 -0.3776289220185162 -0.04516923427752101
-0.031619965947480656 0.26031762357971205 0.35878604638798905 0.13179427375485903 -0.5354052781310464 -0.030847072601145303 0.48332750802400226 0.44145095343784096
-0.09205377101059878 0.4988918304446014 0.40711647270258566 -0.12236666689188268 -0.008448064396059322 -0.1102465092798706 0.35180264707522074 -0.07290601731443265

encoder.0.1.weight f8 [64]
00000000: ad2c bcd2 54c3 ef3f 6c17 0cda 8bf8 ee3f
00000010: 76a4 3c6f 4580 f03f dc01 97df e6d5 ef3f
00000020: 85fb 7c42 0231 f03f ceee 034b 724b ef3f
00000030: 7fdf 754a c55e f03f 33ae c308 48eb ef3f
00000040: 89fc 2fe4 6170 f03f 0e93 7e62 377f f03f
00000050: 9268 b68f 0fc7 ef3f 1465 3db1 30b2 ee3f
00000060: a8a3 ffef d585 ef3f 8ce4 07dd 0d7f f03f
00000070: 4f23 6eed 38d8 ef3f 0797 53a7 43ee ef3f
00000080: a266 382e 9873 ef3f 294b e94c 6a5b f03f
00000090: 0a27 306f 2284 ef3f d5fb 8bd6 e8e1 ef3f
000000a0: 74f5 5784 d8ab ef3f 594f 443b 2154 ef3f
000000b0: 8a39 ff3a a8e7 ef3f f461 1157 7966 f03f
000000c0: 2680 ca22 a19d f03f 4f5f 0df1 8220 f03f
000000d0: e552 b40a fbbc ef3f 1dad 821a 65d1 f03f
000000e0: 2585 3cf6 d761 f03f 9708 c2be f210 f03f
000000f0: e719 002a 5873 f03f b938 5533 5938 f03f
00000100: 2de5 2cd6 a5fc ef3f ed2a 73e8 7759 ef3f
00000110: 0069 b43c 3218 ef3f 3753 f0c7 0701 f03f
00000120: d7ce 2ed4 a37d ef3f 206a 7d94 d9ee ef3f
00000130: eaf8 dafe 3671 f03f ad6e f7c4 c763 f03f
00000140: 7d7d c6a4 4957 f03f 04a4 e002 8a0f f03f
00000150: e630 5334 1433 f03f 4c74 36c4 d728 f03f
00000160: 875d 88b8 2a0a f03f c34c 3cf3 b8c6 ef3f
00000170: 20de 9c68 367c f03f 7a1a fd3f c5d8 ee3f
00000180: d191 cd51 f379 f03f 5423 39f2 db4f f03f
00000190: 8c90 bac6 30ee ef3f 093d 212e 51ea ef3f
000001a0: 7f66 324a e6cb ef3f c755 71af aaac ef3f
000001b0: 81a3 bfa9 b159 ef3f 726e b6d5 5160 ef3f
000001c0: 599f 52d7 86d7 ee3f 7544 a5ec 5abf ef3f
000001d0: dec7 1689 b712 f03f 3264 9ad7 3d05 f03f
000001e0: 8dc3 16d1 1f43 ef3f 99e3 9a46 443a f03f
000001f0: 00e9 879c af1f f03f e183 7994 fde3 ef3f
0.9925941577834202 0.96784012400961 1.0313162179175186 0.9948610655774774 1.0119650456615272 0.9779597726005365 1.0231373699770925 0.9974708720378146
1.0274371064731744 1.031058678382752 0.9930494124303257 0.9592517339434914 0.9850873649094085 1.031019080545124 0.9951443326291186 0.9978349941345365
0.9828606512775944 1.0223181728694704 0.984879700817346 0.9963268461577807 0.9897272667728161 0.9790197522693048 0.9970284607205013 1.0250180626954917
1.0384837492965828 1.0079373756506873 0.9918189248151889 1.0511218104900941 1.023887597905124 1.0041377498132869 1.0281602516785087 1.0137569432441025
0.9995907958138212 0.9796714344059559 0.9717036424292758 1.000251561175174 0.9840869087406315 0.9979064846223231 1.0276403384482884 1.0243604368214776
1.021310466436119 1.0037937271501969 1.0124704402870122 1.00997139592734 1.0024821480090809 0.9930081129736198 1.030325325626002 0.9639612436083802
1.0297730632238322 1.0194968664020125 0.9978259927197697 0.9973531628583326 0.9936400841863388 0.9898274828544168 0.9796989741708871 0.9805077718805946
0.9638094144365638 0.9921087858184722 1.0045695643461765 1.0012796804424053 0.9769438823478694 1.014225269127769 1.0077358355034107 0.9965808772941466

encoder.0.1.bias f8 [64]
00000000: 8aa5 eeb5 3e0d a93f 65a4 f5d9 cb0f 803f
00000010: 340f b902 335e a53f 05ef a32e 18a8 98bf
00000020: 0287 cd0a 42e5 933f 3ddd 384c da27 9fbf
00000030: d952 7185 b418 a03f 84ed 5b3e 7131 a83f
00000040: 3cff edb0 9671 a23f 3d9b 1790 7fc4 a03f
00000050: eac4 1c28 8e5f 9c3f f72c 5753 8b99 91bf
00000060: 70e2 5df7 1f97 983f 761b effd 35c8 a13f
00000070: 9ec6 3214 bee1 8f3f a915 c539 68d6 843f
00000080: 3c38 4bcb 8685 a83f 3779 6b5c 465e a03f
00000090: 4957 f629 2e33 8c3f f5e3 7778 8ddc 88bf
000000a0: e7c2 affc c83e 9fbf 719c 1aab 1218 9bbf
000000b0: 3cc5 4302 25eb a43f 5f1c f5e2 b02e a13f
000000c0: 891f 1ec8 a564 a73f 5f74 9741 88b3 903f
000000d0: 0e5b 0b52 b4d2 553f 89a6 ee90 c607 aa3f
000000e0: 53cf 1e91 d1c1 a23f 1395 e611 40a7 8c3f
000000f0: a64e 13ca 3bc0 a13f 6a13 3ab0 5a0e 953f
00000100: b7a3 0911 c2d4 8e3f 4ab0 bdc6 5e26 8f3f
00000110: 3e32 590c 94b2 85bf 56ee 9d05 8540 733f
00000120: 18ce 19c9 f37b 623f d9d4 e9b1 8953 a03f
00000130: 6a97 118d 956e a23f 4ff3 cd18 c43a 983f
00000140: 36c4 4b3d 9791 a03f 8b90 61f4 8dd4 983f
00000150: 3a17 b561 4c98 913f 79c8 280d 3119 9c3f
00000160: 3e54 5fbd 7bad 943f 46e8 3505 6e2e 963f
00000170: d07d 0669 74ec 9c3f 8c4b 3eb0 bc0c 92bf
00000180: f485 4f56 0ab5 a9bf 9430 ddcf 612f a13f
00000190: e308 fae4 646e 963f 0814 abe4 af58 9f3f
000001a0: 3993 e14f ca77 963f 1922 3b25 c910 95bf
000001b0: 0c94 8a95 e6ac 83bf ac76 3e09 1cb6 973f
000001c0: 1269 dc50 3710 94bf 46a1 47a4 7bf8 9b3f
000001d0: 8b1a db09 fc35 993f 7933 f972 aad8 82bf
000001e0: e1fb 0c17 be73 763f 106e 888b 5339 a43f
000001f0: 9995 f9e5 ffa5 933f 7fbc f428 5765 9ebf
0.048929176052591464 0.007842629040810853 0.04173430832136518 -0.024078729483320255 0.019429237279275043 -0.030425463583211288 0.031438485421551206 0.047252215254014934
0.036022862527714555 0.03274916299760953 0.027708264539971696 -0.017187287294103872 0.0240139956217455 0.03473061299114637 0.015567288390545383 0.010174574149128217
0.047893726650372476 0.031969260007587534 0.01376949372824367 -0.012139420737172538 -0.03051294367100157 -0.02645901841483717 0.04085651066442117 0.033559348778503965
0.04568975513308177 0.01630986118640398 0.001331974119400395 0.05084057349388355 0.036634968724142646 0.013990879579817183 0.03466975061169579 0.020562569623979433
0.015054241318653057 0.015209904136746517 -0.010594517351955376 0.0047002025765966095 0.0022563706814311517 0.031887343376107054 0.035999940367033315 0.02366167451281181
0.032360769493501015 0.024248331108893722 0.017182534659944106 0.027439848354511718 0.020193036492703202 0.021661490505245483 0.028245753202666368 -0.01762671304420453
-0.05020935348126079 0.03356462156679743 0.021905495143536135 0.0306117518728293 0.02194133865886558 -0.02057184495677875 -0.00960712570060631 0.023155630172928696
-0.019593109426844064 0.027315074827045004 0.024619997121386333 -0.00920231974955653 0.005481474436975526 0.03949986532481031 0.01918792573123582 -0.02968345820880502

encoder.0.1.running_mean f8 [64]
00000000: 5d77 4cc8 951a d4bf 7517 8d5c c9d3 d9bf
00000010: 74bd 2b0e 5371 e0bf 9a26 e301 289c cf3f
00000020: 7454 0e6e 21b7 803f 9f54 b616 b970 ca3f
00000030: dfbb 3af0 4c36 dd3f c338 5866 0d6b d73f
00000040: 0f4d 4338 d2cc a53f 3046 5975 42ee e0bf
00000050: 0881 04f3 a6ca e0bf 5237 b433 06df e73f
00000060: 47e1 d9e6 e9f8 df3f f1bd f163 fe0e ce3f
00000070: e9e2 4277 1163 d4bf e9c9 07b8 a78b d4bf
00000080: b4fe 0964 351e dabf efd7 ef8e 2fe4 d93f
00000090: 7562 558c 4b5a b0bf 5d72 431e 0f0c c23f
000000a0: 87ad ece0 70aa a7bf f4ad 2798 d6a8 dabf
000000b0: 9da6 c674 1503 bfbf 588a 0ae2 5547 d1bf
000000c0: 7961 0af0 779c e2bf 0f06 55ac 0a41 af3f
000000d0: be70 0301 3849 e33f 64d7 df47 c47c 94bf
000000e0: 309b a58b 9bb4 dcbf 442e 9851 d105 e83f
000000f0: 989a 4239 3e59 e1bf 885a 808a dc2e cabf
00000100: 04e2 6379 7707 e1bf 724f 3801 339e e03f
00000110: 88aa 391c c76d c7bf 6c3a b871 1628 cabf
00000120: a4ed 1f06 bd1c df3f 50e3 d84d d689 a63f
00000130: 4469 0bd9 025a e7bf af8f 4aa3 4e7c e4bf
00000140: afd2 b33b eca0 d0bf 85c2 d79b b128 dc3f
00000150: 99d9 5228 96ae e8bf 734c 80ca e7f7 e83f
00000160: ba52 b4f0 56a0 da3f efb0 0f11 5e76 e73f
00000170: f7b4 aa06 3452 d9bf e545 2d48 f2c1 a1bf
00000180: bb76 c76e 3021 be3f c9db a396 7918 ad3f
00000190: 6ea3 dc14 77da d23f c42c 61b9 9ea0 c63f
000001a0: 9004 338c 555b e2bf 3d98 5973 753c a23f
000001b0: 70ad 7ad5 77c2 e33f 2941 fa15 13c4 da3f
000001c0: 80c5 6673 8397 a03f e819 83ef 8cf8 e43f
000001d0: a03a 948a de28 e33f 9a4c 8a64 2d01 963f
000001e0: c612 68fe c6ba 95bf 4951 32fb 4411 cebf
000001f0: e4b6 a980 98db d03f dce3 8d30 acc0 b0bf
-0.3141226249734837 -0.40355142629811463 -0.5138335491919137 0.2469530114379282 0.008161793872014857 0.20656503304477256 0.4564392419806022 0.3659089564761297
0.042578286521939394 -0.5290844242064789 -0.5247378107488041 0.7459746370165965 0.4995674852757656 0.2348325717934894 -0.3185466446553123 -0.32102387401314886
-0.4080937840408112 0.4045523544185689 -0.0638777940379301 0.14099301316936677 -0.04622223611508063 -0.41655506953131227 -0.12114080525375433 -0.26997897219022127
-0.5816001594821919 0.06104310372985477 0.6026878375810367 -0.020007197272171054 -0.44852341306107046 0.750710162510082 -0.5421439283716891 -0.20455509913218273
-0.5321614619161328 0.5193114303424251 -0.18303765180765574 -0.20434837868420475 0.48612905119054006 0.04402036381038121 -0.7297376860763412 -0.6401742162020038
-0.25982194738689207 0.4399837514784298 -0.7713118350573495 0.7802618937588605 0.41603635317123244 0.7331991513470068 -0.3956422867875768 -0.03468281870904003
0.11769392685479378 0.05682735408657142 0.2945840553025424 0.17677673389184723 -0.5736491907374717 0.035617513972099314 0.6174887818828392 0.4182174410461977
0.03240595611294861 0.6553406408282259 0.5987389284726596 0.021488866101731043 -0.02122031142973204 -0.2349020220323246 0.26340305866948044 -0.06543995080382053

encoder.0.1.running_var f8 [64]
00000000: 72b3 5d21 b2b5 923f 2fb7 e130 a61e 843f
00000010: 5039 514c 155a 923f 3506 8a6d 1b72 a43f
00000020: 0a6c 6a2e 3d80 923f 623c b746 39dd ac3f
00000030: 0b06 cbd5 fb43 933f 1db2 4fed 67a0 853f
00000040: 4313 5956 0cbe 883f 6233 934a c80b c03f
00000050: 45be 7058 58c9 903f 342c 048a edda a23f
00000060: e22d f768 8978 763f 7fd1 78c1 017d b33f
00000070: ebe2 4377 9007 963f 2606 7080 16f8 813f
00000080: 1a08 ba0f b592 7e3f b1fa 6f0f 8f93 963f
00000090: 3031 91c2 a526 8d3f 1b27 d345 7585 7c3f
000000a0: bea2 4186 f175 873f cccf 394a 751a 923f
000000b0: 6cfc 8b78 981d 933f 77ce 02d7 f6f9 b63f
000000c0: 5465 ea75 dbe9 983f 5e13 d0cf 3def 8e3f
000000d0: de05 140d 2c75 963f b9c7 7b09 9332 a93f
000000e0: 71e2 aa7e 3274 aa3f 505c e2cf acfa b93f
000000f0: 4bdb 8426 3aa2 a63f 20f2 1946 e25a 983f
00000100: de3c 613e 983b 983f 7ad8 4af1 bded 873f
00000110: bfa2 6662 3218 8a3f b49c 8b62 5314 963f
00000120: 9293 a04a 833c 943f cea3 6838 67dd 8b3f
00000130: 486e 6e91 daf5 b43f 4707 7dab 934b 7d3f
00000140: f9a3 6dce 7525 663f b1f0 ca4e 5107 783f
00000150: 3464 6b8f 9d9f a23f c8a2 d62a e2da bb3f
00000160: 91a0 8a86 7ef9 933f 32cc 812f bdb1 9d3f
00000170: 38e8 069a 6073 503f 3bc7 cd8d f8e8 8c3f
00000180: 0246 89d0 fb92 943f cfc9 999c e182 a33f
00000190: 0325 9455 dfd3 8e3f f116 c731 dcd0 5d3f
000001a0: 0ead 707c 0e8c 793f 80d0 04ce 76a5 813f
000001b0: 6da4 4b9c a054 933f 9ddc dfcb 04fe 743f
000001c0: 2ef9 84b7 5b2c 963f 7ad5 cda0 cef7 9b3f
000001d0: 76d1 2600 9d8f a13f b4db f652 1ccb 933f
000001e0: f8a1 2c9b 99bc 703f b995 f625 3878 983f
000001f0: e401 52e8 1a82 9a3f 8d82 37be e44f 663f
0.01827123955392857 0.009824083678008215 0.01792176512054172 0.03993306839130321 0.018067317922582794 0.0563753031561809 0.01881402485265053 0.01055985634771966
0.01208123816025764 0.12535956994397696 0.01639307060048469 0.036826537225430306 0.0054860465601893355 0.07612620328365514 0.021513230590218518 0.008773971361736587
0.007464129706592737 0.022047267262673646 0.014233870506494911 0.006963213059131747 0.011455428037338119 0.017679054885277698 0.018667585713953036 0.08975165128031813
0.024329594680783842 0.015104754356806967 0.02193135099242293 0.04921397677198009 0.051667764627784225 0.10148124766634337 0.04420644493295941 0.023784194496771716
0.023664835746157624 0.011683925558241482 0.012741464260061062 0.02156191147778648 0.01976208823193166 0.013605886849363726 0.08187643099375308 0.00715215381188889
0.002703409281299415 0.005866353615314222 0.0363740193913106 0.10880864663944145 0.01950643249679779 0.02899833300075389 0.001004070603910735 0.01411623175383491
0.02009194813064675 0.038107920042324765 0.015052552031664229 0.0018198156677597355 0.0062370839942034306 0.008616378938860914 0.018877515353697683 0.005125063644292241
0.02165358836759273 0.027312496723842263 0.034298807400236095 0.019329493106592557 0.004086112998983975 0.023896100346652214 0.025886936597545943 0.0027236430776017063

encoder.1.0.weight f8 [64, 64, 3]
00000000: ce23 d5d3 6251 8b3f 3aca 86ce fb9a 7ebf
00000010: 76ad 9890 5af3 abbf 573a ad7e a0bc 9c3f
00000020: 7b6e a906 25db a9bf 5a7f c1ef 5de2 a33f
00000030: 5430 55be 6b46 a53f 702d ac2d 431b 893f
00000040: f460 4b4b 40e5 b23f 5c66 bc35 f39f a93f
00000050: 1367 8495 6dd8 b0bf 3a4f c439 0baa b8bf
00000060: 82fe 3454 1f3f 923f f543 753d 54d8 74bf
00000070: 5af3 3958 1095 82bf b2db 114d e770 a83f
00000080: 812d 6f68 bd3b a2bf 3a17 9101 a2eb b0bf
00000090: d4d1 1405 1889 b03f 57d8 ce99 1049 7dbf
000000a0: e88b f986 9da5 56bf 2f09 f6fe b409 7ebf
000000b0: b49a 296a 3968 b4bf 6ad1 3bf1 afcf 84bf
000000c0: 6ca3 c02d abc9 a73f a3cc 48ce c725 8ebf
000000d0: 13c2 b7f9 7fcb b13f 98f0 aea2 f926 a23f
000000e0: 3686 9c83 9e15 9cbf 2911 fa18 ff88 b93f
000000f0: 8d3d 5e48 37df 91bf e420 f227 99cd 96bf
00000100: 8a7e 25ae a6a3 adbf b543 d153 f54b b03f
00000110: 0b7f 8063 2c9a aabf 4483 3bae 683f acbf
00000120: 85d0 66ea 8709 abbf 9626 1e5e 1571 a0bf
00000130: adac 5959 9931 903f fd44 d6e6 262a aa3f
00000140: 3c9e ddbc 5f2b a83f bf76 7176 732b b13f
00000150: 35ba cd86 1f7d 98bf b43b f890 427a b1bf
00000160: 480e 6a48 9a21 a0bf a85a 0c7e 890a 8d3f
00000170: 4b21 ebbd bcc2 a6bf d866 1978 725c b03f
00000180: 264d b469 bdfa abbf 9cc7 7c51 08fe a6bf
00000190: 6592 d184 2d00 81bf d425 b398 6a3a ab3f
000001a0: 9fb1 6e3f dc07 75bf 92e9 1128 cbf6 a13f
000001b0: 32a4 5a90 689a a13f cc2e ea0a d153 a8bf
000001c0: af8b 0e8b d1e9 a83f ba2b 6508 af8d afbf
000001d0: 5522 96e2 e185 6b3f 029b c350 7ee6 a6bf
000001e0: 8eb2 90d9 b357 ae3f 4182 3c21 7b19 7cbf
000001f0: 3d69 e9cb 2e47 b1bf c034 f102 358b 93bf
00000200: b2db dfae 02aa adbf 84d9 fb11 2e9e a53f
00000210: aea2 743a 2719 80bf a08d 03d4 a0db a73f
00000220: 7052 6257 2222 a83f 777b fadf d124 aabf
00000230: 54d1 597a 1299 a5bf 3b57 0170 ceb7 b33f
00000240: 4a97 e66c d00e 86bf 514c d9cc 7743 9dbf
00000250: cccd 4ac2 a226 ac3f 2c15 8e26 fb76 a8bf
00000260: 862e c53e 3a5f a23f 17bb 93a8 2ee4 7abf
00000270: 0fd5 9905 fe1a a3bf 2478 d3c7 5c3e 533f
00000280: 2995 bb6a f2c7 a33f d557 88ca 9bef b43f
00000290: ab4f 1536 ee87 a7bf 1459 438e 0b0f a1bf
000002a0: f08c 9c33 ae16 9bbf 2c93 0429 be77 b83f
000002b0: 6b08 90bb a572 983f 98ea d826 ac57 a1bf
000002c0: 8f62 516b c391 8b3f 1ba2 c31f e3f9 b5bf
000002d0: f7a3 f56e 8457 a6bf f70c 60a4 ee36 8ebf
000002e0: 9b97 8e73 4b69 ae3f c2ed c3a2 5aae 84bf
000002f0: d535 98f8 02b0 a23f c377 e930 0008 abbf
00000300: daf5 2c31 9908 963f deb1 be2e fa6b b43f
00000310: 4f7f 2603 8040 adbf 8808 be5b 833f a9bf
00000320: a85d 0bb0 b98e 793f e04b f456 995f 933f
00000330: e492 e27c 72a0 a1bf 151d 1e0d 611f a93f
00000340: b499 9028 6d0d aebf 48b6 1d99 97f5 b0bf
00000350: b911 e3ed 82e9 9abf 4fb1 745e 77d7 a23f
00000360: 3e1c ad82 76e4 a73f 2df6 a91f 3ce0 a9bf
00000370: 5f47 a4cb 07a5 94bf 79fe f4fc a912 893f
00000380: 16e5 a4c1 6492 9fbf 6a29 782b e811 b0bf
00000390: 01b6 c3d6 acdf a0bf dde7 ca51 075e aa3f
000003a0: 6732 2f51 5ab6 a33f 9c5d 6079 1353 b03f
000003b0: 0eeb 967a 2a33 ad3f 3584 2ca7 7a5e 9f3f
000003c0: f237 11bf 2782 93bf 9ad1 f479 fe89 a13f
000003d0: c294 c663 0c73 9cbf 26ff adfb 46ca 763f
000003e0: 5016 d725 33c1 24bf 7e93 3114 8f29 9dbf
000003f0: f954 8994 8fa5 b23f 5c82 1320 d06f 983f
00000400: 9b91 4f97 f5d7 9abf 98fe 042a d4a6 8fbf
00000410: 93c3 f830 754a 9fbf 95d9 df00 ac9a b5bf
00000420: 3034 47ec f80c a13f a5cb 4d08 8f57 afbf
00000430: 7cd5 7d25 eb81 a33f 2322 521c 1cf3 adbf
00000440: b8a3 e612 ec24 a73f 0c15 a42f a326 abbf
00000450: 2061 bd11 5979 973f 157b 0262 3dac a73f
00000460: 2a07 e537 4305 b5bf 4e51 33e2 f783 a53f
00000470: 95dd 32d3 1ac3 b1bf 6a79 534b 9031 803f
00000480: 80ec 7817 6035 a83f b4be a609 d65b b4bf
00000490: 6e32 e577 c31f a7bf 1f12 9944 893c ad3f
000004a0: 1f35 a648 c786 b33f 155c e9c3 acd9 b13f
000004b0: c563 c377 e795 7b3f 2907 d263 a9f2 3b3f
000004c0: 447a 0947 477a a5bf 5f6f 84a8 cc78 b4bf
000004d0: 1dc0 5896 fed8 633f 8cd9 aded 2432 b1bf
000004e0: a4a6 f044 34f2 a1bf 5578 62a0 c818 ac3f
000004f0: 6906 d4d4 e26a 623f d4c4 c4e9 32ad 963f
00000500: 6043 87b1 09ba 8c3f 2998 211e a430 8dbf
00000510: 3e63 0c7d 551a 9c3f ec47 e9a0 de5b b0bf
00000520: e516 9465 cc21 783f c533 f177 47a7 a0bf
00000530: 8629 c7d2 20fb 7bbf 7a8f 7d0d 0195 97bf
00000540: d013 1174 f808 99bf a807 e107 6e59 b7bf
00000550: c6fb 6bd1 f794 b6bf 446e 9814 f2d1 89bf
00000560: fe58 cffb 0e65 623f 14d9 675e 6d5a b5bf
00000570: d7c6 2089 e17f b03f 9095 8115 d4f5 b0bf
00000580: 8180 5023 9ba5 9ebf 34f7 2124 a917 aebf
00000590: 11ca 1e26 2977 b8bf ac1e 570a b86b 793f
000005a0: b416 6930 c549 553f 7e9a fd70 1d62 8e3f
000005b0: df36 6223 f1ba 89bf 2d92 eccf 7a44 9c3f
000005c0: 13d0 c8a7 a639 9d3f 2927 69ee 23c5 a3bf
000005d0: 2794 dabd 47cb a13f 30fb b636 4f16 b23f
000005e0: 9351 ee10 906a abbf bacf 8f88 f082 99bf
000005f0: f15e cc02 6413 91bf 3b7d 58ba 98d5 b3bf
00000600: af50 7bd7 3e26 663f bdab a7f0 5c0a a4bf
00000610: 11da d5e9 bea8 923f 232d a5ae 9faa 953f
00000620: 85db a95b f9b0 9f3f e820 200e 145d 9e3f
00000630: c73a 39d9 a4a2 98bf 57e2 c91d d92c b1bf
00000640: 3dde e241 7983 9c3f 99b8 e261 5663 a8bf
00000650: e123 c0fe 02ce a8bf 7bda adf2 d3f2 b43f
00000660: 3899 98ef 56b4 a53f 288b 8d7f 393e b1bf
00000670: c35e 0726 880e afbf 9d3e 345d def3 a5bf
00000680: 632c d07a 68d8 b23f 33f7 37b2 5ca4 a43f
00000690: 4ff6 8b07 7024 99bf 3203 96f6 3c69 a23f
000006a0: beef 61d4 6b63 b7bf 3225 d3ce c587 b2bf
000006b0: 8922 d674 6116 a9bf f84f d8eb 850b 8f3f
000006c0: a0f8 4549 4a29 a73f c6ba 6d6b 1479 b4bf
000006d0: 0af8 717b 06bd 93bf 16d6 1260 6e77 9e3f
000006e0: af74 ff53 3d7a a63f b313 6f46 6caa 84bf
000006f0: 11f5 4df4 e4f9 9d3f 44e5 0aa5 e263 9dbf
00000700: 5fd1 d837 1768 a83f cb78 0f92 6edf a73f
00000710: 3221 071c 6fb7 8cbf 404d f94d 298b b43f
00000720: 0a5c c47f dd8f aa3f d5dd 1648 9e92 833f
00000730: d0af d538 31c8 b7bf e85a ccd9 d672 ae3f
00000740: 8278 b043 913e adbf 41ee 71cc 023e b1bf
00000750: 205c a736 dbe6 b3bf 64bb dd05 15a4 b03f
00000760: f694 b616 205f 99bf 7145 ec02 4256 a8bf
00000770: 2352 61b7 eeed a03f d60b 60be a9fd 8abf
00000780: 375b 3c21 a9ad aa3f d17a de4a 0b70 823f
00000790: 4b4f a346 2200 81bf 1ec9 fc99 beff 91bf
000007a0: c549 1736 26ec 95bf eda4 a78f faef 963f
000007b0: 88f9 25ec eba4 703f 83c3 6e52 6458 aabf
000007c0: f4ce 382e d3da b43f f39b 2f0a bde5 ad3f
000007d0: ba2f 21b6 dcf3 93bf b48f a0cb 511d aabf
000007e0: 115a aae5 4d05 b3bf ec6d ceb5 22a7 5dbf
000007f0: 85d6 535f 0934 a23f d7d4 4c19 52a9 aebf
0.013338825311295734 -0.007472022647947935 -0.05459101691334471 0.028063304645281253 -0.05050006586381258 0.03883641769129893 0.0415528936233335 0.012259030181232616
0.07381059492343295 0.050048446950495346 -0.06580243015596592 -0.09634466324160665 0.01781891776522438 -0.005089119971061419 -0.009073379223303913 0.0477363854960723
-0.03561202907402628 -0.066095471746931 0.06459188579612568 -0.007149758192943243 -0.0013822592117314018 -0.007333476081273368 -0.07971533624513932 -0.010161757039420311
0.046460484824200815 -0.014720498068618254 0.06951141211153126 0.03545360670929759 -0.02742622068683983 0.09974665031228781 -0.017453063766479416 -0.0222686701422682
-0.057889183767426536 0.06365903183292583 -0.051957499643547754 -0.055171271580326336 -0.05280709015224353 -0.032112758387552606 0.01581420524454973 0.051102843931525734
0.04720591717233133 0.0670692600410474 -0.023914806940803685 -0.06827178992555966 -0.031506368007310714 0.014180254134357043 -0.04445447748509198 0.06391063148603437
-0.05464736857734413 -0.04490686411590092 -0.008301120391658043 0.053180056705581485 -0.005134449332143381 0.035086010590890684 0.034381168004366094 -0.047514469702120005
0.0486588937995046 -0.06162783601265383 0.0033597385233330814 -0.04472727523698518 0.05926286726785178 -0.006860238052269597 -0.06749241331400398 -0.019085720352724378
-0.05793770203302219 0.042222442336355775 -0.007860475989745676 0.04659750545558983 0.04713542286586836 -0.05106216296302695 -0.04218347304859785 0.07702341303351272
-0.010770443271052383 -0.02857768237874964 0.054982267587003614 -0.047782753426000774 0.03588277832258506 -0.0065652678106136375 -0.037315309699730397 0.0011745363292941036
0.0386348490990634 0.08178113646167103 -0.04595894251056561 -0.03331791030511702 -0.026453706646077657 0.09557713033116205 0.02387484509746011 -0.03387201284609381
0.013461615288336474 -0.08584422612660385 -0.04363645414816369 -0.014753212348301832 0.059397085052565766 -0.010098178951458151 0.03649911198236181 -0.05279541585035432
0.021517175318185845 0.07977260247452686 -0.057132721314018135 -0.049312691639912976 0.006239629118418057 0.01891936867930244 -0.034427240128285935 0.04906752858283362
-0.05869618530441603 -0.066247439271785 -0.026281400460691027 0.036800127296688794 0.046664908839880045 -0.05053890120050784 -0.02016079121046432 0.012242630035529377
-0.030831884688471943 -0.06277323781265456 -0.03295650598179734 0.05149863122410612 0.03850061646480612 0.06376764024059017 0.05703099008993294 0.030633846715435637
-0.019051190411396086 0.034255936038252346 -0.027782624807191743 0.005564000394656243 -0.0001583456932349619 -0.028478847129366873 0.0728387582433533 0.023864032705093727
-0.02621444450405051 -0.015454919369062112 -0.03055747138404603 -0.08439135571811669 0.033302096216722865 -0.061214895023020056 0.03810057480488191 -0.05849540563309954
0.045203568751567 -0.05302915531687277 0.022923843105077002 0.04623596021087032 -0.08211155047049759 0.042022463190422785 -0.06938331276147942 0.00790703515889098
0.04728222166564766 -0.07952630744579886 -0.04516421164098437 0.05710247957589253 0.07627530597365649 0.06972770483967879 0.006734756632988008 0.00042645106788806675
-0.04194853536749979 -0.07996825327103128 0.002422806969455861 -0.06717139055931493 -0.03505099622300392 0.054876584604458024 0.0022482328701023857 0.02214507629213787
0.014026714067684132 -0.014252931756527048 0.02744420600638197 -0.0639018195008984 0.00589160768982364 -0.032526238814717646 -0.006831291404930778 -0.023029343078988053
-0.02444828232207269 -0.0912083405719658 -0.08821057188832446 -0.012607470754168244 0.00224545408716914 -0.08341105990243519 0.0644513091836204 -0.06625104451230457
-0.029928611784385332 -0.05877426687309964 -0.09556824856444048 0.006206244380741726 0.001299326484187996 0.014835577021313325 -0.012563594715426727 0.027604979458503976
0.02854023360323772 -0.03861343655860445 0.034754030156627196 0.07065291486558745 -0.05354738432575625 -0.02491355737215859 -0.016675532027050136 -0.07747797536329852
0.002703783738846686 -0.03914156377489728 0.0182218389722611 0.021158690485475817 0.030948539943405535 0.02965194069113944 -0.024057937391541964 -0.06709057786236748
0.027845282217383128 -0.04763288445370612 -0.048446744534949245 0.08183026003630715 0.04239150690800603 -0.06735572208485208 -0.06065774406641602 -0.042876194837046834
0.07361462591522776 0.04031648326416217 -0.024553060970893544 0.03595915327151146 -0.09136079726334764 -0.07238422679360637 -0.04899887610651372 0.015158697376172356
0.04523689407777565 -0.07997253058213535 -0.01927576187562611 0.02975246869455902 0.04390136385311771 -0.010090680980178712 0.02927358380428752 -0.0287013447984681
0.04766914898610496 0.046626525239604165 -0.014021747629968748 0.08024843362482148 0.05187885460525628 0.009556995940200355 -0.09289844167295702 0.059469904028608245
-0.05711797667775988 -0.0673524617322352 -0.07774133762664848 0.06500369446960758 -0.02477693689947543 -0.04753309522323946 0.03306528080489481 -0.013179136392869422
0.05210617571554226 0.00900276968223804 -0.008301036625574595 -0.01757715048661012 -0.02140865044732167 0.022399821298596235 0.004063531467521371 -0.051455626547414667
0.08146400335754916 0.05839339017239089 -0.01948494779234953 -0.05100494013484483 -0.07429968697611168 -0.0018098677603352 0.035553257834107156 -0.059885564411538965

encoder.1.0.bias f8 [64]
00000000: 0967 fa9f baae a2bf eb25 0520 afe9 adbf
00000010: a791 03e0 f073 b1bf edf0 0140 0324 97bf
00000020: c62e a9ff afad 8b3f 6d1f a202 a0fb 39bf
00000030: 41e2 0400 03de 973f bd87 faff ca06 9cbf
00000040: 9770 e77f c8f5 913f 2336 f3ff 33ee 703f
00000050: 1421 f07f 5eb4 aebf 4948 f97f 9143 a8bf
00000060: 4a98 fbbf 8305 a23f 5369 01a0 0f8e a0bf
00000070: 4fcc 0d00 6e61 a33f 0fce 6fff 311f 7f3f
00000080: 510d 01c0 c705 a33f e549 a1fe 0bd9 6abf
00000090: bdc1 0ac0 bd97 a33f ef90 ffbf 565b a33f
000000a0: 8148 0540 98e4 a5bf 1daf 0200 add2 a73f
000000b0: 7a3b 09e0 17ed a1bf c1ee e8df 5742 a3bf
000000c0: d234 f9bf a2f9 9bbf be39 fc7f 3a5f b13f
000000d0: acd6 caff 61f1 9dbf fd34 4000 a64b 883f
000000e0: f16d fe3f a193 acbf 7143 16c0 3ad0 a9bf
000000f0: dea0 6800 94d7 763f 165f 04c0 9df4 a3bf
00000100: 2c16 f5ff f18a abbf 685a 1c80 d7ec a43f
00000110: c198 1a00 0695 76bf a059 01e0 9ca0 b0bf
00000120: 6934 f5ff 5f70 a0bf 2c1d ed1f 9b01 a8bf
00000130: 6f70 47ff c3c0 723f 0625 0460 972c b0bf
00000140: 51ff f5ff 9664 ac3f 1183 0aa0 e8aa a1bf
00000150: 2535 0200 b423 a73f 8b2c febf fa8b a53f
00000160: fcf5 0080 ee9a b13f 6bba 1ec0 f723 a9bf
00000170: 0f34 ff3f 9225 a93f c6bf fc7f 6359 933f
00000180: f6c6 fc9f 100c b1bf 2fa4 f7ff d010 a33f
00000190: bd0b 5500 407e 713f 0a36 1d00 5769 8bbf
000001a0: 6d89 f07f 4c99 a33f 15e7 f2bf 3669 a13f
000001b0: d69e 0a00 1729 8ebf 3f02 cf7f 0bc1 86bf
000001c0: e51d f2ff 7a9d af3f 104f f4ff 7b33 9d3f
000001d0: 71c9 0e40 c8d7 9cbf 38af 0460 e37d a0bf
000001e0: 6378 eaff b145 883f 6926 fbbf ed25 98bf
000001f0: 8bd5 f17f 8362 ab3f 966f ffdf d5c2 abbf
-0.03648932650430765 -0.05842349305983049 -0.06817536801424372 -0.02259831503077774 0.013514876355791638 -0.0003964677476990728 0.02330784499756278 -0.02736966311807242
0.01753915100731315 0.004133418201673264 -0.05996985732787344 -0.04739050566844633 0.03519832342662761 -0.03233383968536665 0.03785270453126854 0.007598109535126975
0.037153474987031594 -0.003277324130104053 0.03826706856978344 0.03780623525361359 -0.042759664359111056 0.04652920365455613 -0.035012003038551634 -0.037615533907652494
-0.027319472281580222 0.06785932182922402 -0.02924111484272511 0.011863037951139516 -0.055813826619864566 -0.05041678995906452 0.005576685076938951 -0.038975648583969555
-0.05379444360236749 0.04086945952274307 -0.005513213576398169 -0.06495075672987705 -0.0321073532055401 -0.04688725247120326 0.004578366865157431 -0.06318040937562239
0.055454939599256854 -0.03450705484033823 0.045194268227627434 0.042083583771352094 0.06877031922427784 -0.04910253734793887 0.04911477118694318 0.018895678221440247
-0.06659034639303826 0.03723767399407795 0.004270792012280586 -0.013384513560278161 0.03827895223391207 0.034005843096976 -0.014726810158506447 -0.01111039146224002
0.06174835562074658 0.02851670980187665 -0.02816689387300059 -0.03221045062158939 0.011851683256562667 -0.02358218654879921 0.0534859746630146 -0.05422085151050664

encoder.1.1.weight f8 [64]
00000000: ca8d ec60 6e61 f03f 7b74 3fc4 0817 ef3f
00000010: 29da fae7 5909 f03f 5b7d 493c 79ca ef3f
00000020: 5403 8c23 9988 f03f 2431 03f6 b650 f03f
00000030: a2bf 0f39 5aa2 f03f 081d 7b17 8889 ef3f
00000040: 1e49 ab22 155a f03f ba80 e75a 2ab8 ef3f
00000050: 7c9c 31ac df41 ef3f e294 2215 5b5e ef3f
00000060: 43e1 fee5 2239 ef3f cb5a 6d25 e80d f03f
00000070: aa22 20ed 870e ef3f 76cf 4cd9 2d68 f03f
00000080: f3a8 462a 310a f03f e025 dc6e 1e1f f03f
00000090: 06d4 c3ba 6aff ef3f b436 e274 1b69 f03f
000000a0: 324a 1ff4 e87f ef3f f438 8783 c481 ef3f
000000b0: 184e 845e 306c f03f 70d8 ff1f 991e f03f
000000c0: 6c80 d5df 1c57 f03f 669b 023e 246c f03f
000000d0: 5ecb 1920 6ea7 ef3f 6e17 915f 559d ef3f
000000e0: 1dcc 4523 bba5 ef3f b1b8 d1b5 2a06 f03f
000000f0: 38f3 03b1 9c07 ef3f 7107 b8a5 5f64 f03f
00000100: 3c20 a13d ddbb ef3f ad45 e82d bb41 f03f
00000110: f31c 7a24 5eb6 ef3f 1a41 be6c 3656 ef3f
00000120: 631f 3eef 3383 f03f 6eb1 1844 d16a f03f
00000130: 9c4a a728 a242 f03f 9f27 81f3 51a2 ef3f
00000140: 97af 0086 7e2d ef3f 066c 64a0 42b9 ef3f
00000150: 73f3 cd4d a7e0 ee3f 10fe 1d95 5837 f03f
00000160: 9e80 28d4 c9d1 ef3f e065 196c c57e ef3f
00000170: c690 8582 b05d f03f 40d1 9655 949b ef3f
00000180: 72b1 17ea 4309 ef3f cb26 d98b 271d f03f
00000190: 9490 6b5e 9700 f03f 3176 7306 bd25 f03f
000001a0: 3ad2 3698 c725 f03f bfd4 4167 9f78 f03f
000001b0: b951 fb01 9196 f03f 1b7e 03a8 6941 ef3f
000001c0: 7d53 5960 d16a f03f 77bd ad15 92c2 ef3f
000001d0: f097 71e0 cdc1 f03f f5ca 8498 16a7 ef3f
000001e0: 9f77 ac17 6f54 f03f 75c4 e082 5b13 f03f
000001f0: ab5c 0199 2923 ef3f 7222 51da 4f66 ef3f
1.023786905869985 0.9715617974249108 1.0022830068315989 0.9934660127145593 1.033349169593028 1.0197057351934484 1.0396368245091954 0.985538526402622
1.0219928125630484 0.9912311339831128 0.9767912257347144 0.9802680409235587 0.9757246486761136 1.003395219993467 0.9705237990720736 1.0254343498499714
1.0024882937819342 1.0075973825899993 0.9999288223031051 1.02566095025706 0.984364010621283 0.9845907753858953 1.0264133159697675 1.0074702501274508
1.0212677711024538 1.0264017507813263 0.9891882540672261 0.9879557482279162 0.9889808358115065 1.0015055754006819 0.9696792085011117 1.0245052789109332
0.9916826442431623 1.0160476487402363 0.9910116875115861 0.9792739986315013 1.032031950513521 1.0260784778612009 1.0162679279352806 0.9885644679973103
0.9743034951438742 0.9913647778188313 0.964923526727587 1.0135122132195455 0.9943589347567643 0.9842249976456365 1.0228734110360604 0.9877416297590926
0.9698810169334549 1.007117792398662 1.0001443565643386 1.0092134716027312 1.0092235513558436 1.029448893879177 1.0367593839083453 0.9767349511639084
1.0260785831098638 0.9925012992297714 1.0473154799778932 0.9891465166932379 1.020613758540527 1.004725943796328 0.9730422962556039 0.9812392486574721

encoder.1.1.bias f8 [64]
00000000: 3bf3 af99 a04c a43f 8cfe e541 d54e 89bf
00000010: 51f7 5362 1a33 8b3f c9b2 4717 8f26 713f
00000020: a285 c2ff ddd5 693f 6aef 817a eca9 88bf
00000030: 11e0 3470 c05f a03f 654f 27b9 7d3a a0bf
00000040: 7d07 35b1 d637 61bf 8e8c def4 5884 45bf
00000050: 66d5 762e e236 583f 73f6 5801 5fec 753f
00000060: 8e52 bbc9 2ace 94bf cfe4 c9bd 693e 70bf
00000070: 8043 532d fa57 99bf b08c 8876 f300 9f3f
00000080: 3440 f268 fc23 793f 88c6 1786 c7f5 953f
00000090: acd1 fd3e cfd1 6b3f 69fd 0c41 1fe8 8ebf
000000a0: 9966 327e 4811 a8bf b513 66d5 4314 9d3f
000000b0: eb69 6ece 3bd5 613f ec87 8539 e8a2 903f
000000c0: 79f6 e731 9ee0 7a3f ac62 8d23 bfce 30bf
000000d0: 3e9b b101 20c7 a0bf 289f 32cc d31a 9abf
000000e0: b196 6b5b 7b97 8ebf 0799 302c 1df9 883f
000000f0: b881 67f2 8cfb a6bf ff10 4feb a959 4abf
00000100: 03e2 a732 1f2e 58bf 7a62 0822 c5f3 a3bf
00000110: ce10 0772 c4b3 903f aa86 23f1 79ba 983f
00000120: 6f88 be91 8abc 813f 5b04 66ce 0a30 69bf
00000130: d73b 12ff 970f 983f 639c 8aa2 6b38 843f
00000140: cb66 4b26 b806 a3bf 9daa 3094 fde5 30bf
00000150: 1d17 a2c4 7e9c a7bf 40f3 0635 04f7 913f
00000160: 5c08 5244 f0b6 9bbf 32b6 556d b798 8ebf
00000170: ef19 413d aeae 9e3f a8ad c5e6 cb68 53bf
00000180: 8be0 6eac 9c5a 97bf b262 1a32 3c99 7cbf
00000190: e661 6081 e798 903f ab15 78f6 0641 923f
000001a0: 6220 674f e783 9abf 915b 6ff0 6ea4 743f
000001b0: 8714 aff2 e857 6e3f 2e7f ba99 075f 9bbf
000001c0: 0fc4 5c58 1730 7e3f befe 98ee cf3b a2bf
000001d0: 2a29 562c 9bec 803f 5752 5887 8327 8f3f
000001e0: 49c4 835a 6b78 903f 8fd2 1636 deba 893f
000001f0: f3dd f856 f52f 97bf ecfd dc4e 20ef 99bf
0.03964712024751412 -0.012357393334922827 0.01328106510709018 0.004187163304305749 0.003153737632673085 -0.012042853821405426 0.031980527588928116 -0.03169625172782168
-0.002101821251614787 -0.0006566461904537067 0.0014779290012090994 0.005352374185859088 -0.020317715227820936 -0.003965771724886837 -0.024749669090684545 0.030277065381721868
0.006137834526398978 0.02144538646638819 0.0033959434294336868 -0.015091175244036763 -0.04700686016549333 0.02839761724455388 0.002176873025246486 0.016246441374626316
0.006561868618971561 -0.0002564636848112849 -0.032769203383216525 -0.02549296315979102 -0.014937366225648093 0.01219389716250109 -0.04488792857205531 -0.0008041457828018849
-0.0014758400599231842 -0.038969192890537976 0.016310758075420755 0.02414885076803467 0.00866039521480763 -0.0030746661242920087 0.023496985381424054 0.009873238466140138
-0.037160639452577714 -0.00025784912958452274 -0.046115838530609056 0.01754385541584047 -0.02706504265780328 -0.014939721130498549 0.029963228691736118 -0.0011846533990035133
-0.022806594871980706 -0.006982073916923669 0.01620828368331386 0.01782618407562146 -0.025893797131886116 0.005039628368613062 0.0037040281071961142 -0.026729696996539314
0.007370082084706033 -0.03561258113449871 0.008263790407700162 0.015212085311796004 0.01608436336477251 0.012563453698797104 -0.022643884118421508 -0.025326256574087866

encoder.1.1.running_mean f8 [64]
00000000: 0320 6535 e523 ddbf be11 ce67 7aaf efbf
00000010: e722 5e47 2b7b e3bf 333e 4a22 d708 e2bf
00000020: a934 52a4 db4c f5bf 46fd b8e9 1ffe ee3f
00000030: 90c2 21dc c0d1 bbbf eec2 2ff0 38cf e13f
00000040: 02ba 88dc 8edb efbf 0ce4 ca08 d626 e5bf
00000050: e115 4191 d83b f33f 3f06 0356 4604 e23f
00000060: 88a3 a212 3463 dd3f 4194 9e2d 85f6 d5bf
00000070: ad32 f339 90ca e7bf 41fe f1b5 5cb7 d1bf
00000080: bd5a 5399 ec9e e6bf 979a b396 ff62 d5bf
00000090: a940 2915 7d39 edbf 97d8 e0d4 e06e f2bf
000000a0: 8af2 3457 de7d ee3f e8e9 d086 cc03 e8bf
000000b0: d712 7443 f470 f0bf 3e04 1b37 c7fd e4bf
000000c0: 653d fa24 95cf e6bf dee8 a9a8 bc72 e7bf
000000d0: 0b05 4004 3621 d33f ca2e c93e b32e dc3f
000000e0: 8a56 49d3 2980 f8bf cb93 c3f9 cfeb d0bf
000000f0: b294 2861 8fbe ec3f c9a3 a7b3 d00f f4bf
00000100: bf8c 3864 677d e7bf b5c2 293c 0ea8 eb3f
00000110: 69dd c35a b868 e8bf d1a6 1625 9415 cc3f
00000120: f4fc de11 6a17 f0bf 27be 0057 7f40 f0bf
00000130: 0096 90c7 e65a d1bf ffcb 8455 7e5a cdbf
00000140: 34a8 1ff6 30e2 dc3f 58a0 cfa8 6abb d63f
00000150: d868 df46 f36d eb3f ad25 c227 fdd2 dcbf
00000160: 54b5 0cc7 19e5 ee3f a4e3 d60a e5c5 e23f
00000170: 79df 9fa5 5c87 dabf c117 fef6 6371 e5bf
00000180: 4b35 5e94 3642 e43f 3470 f651 1df5 e83f
00000190: e6a1 7d61 a510 dbbf 563a 83d2 6e61 d5bf
000001a0: 9cea 3482 f3a0 e53f 7e1d cedb e11a fdbf
000001b0: fdcc 5c1d 2c73 f0bf 5e10 491d 6663 d53f
000001c0: 96d5 84a3 48de a0bf e52b 76d2 d04e eb3f
000001d0: c547 69de 3c2c fcbf 4877 ee56 2d6b d1bf
000001e0: 8857 869f 924b d9bf a252 8432 3269 cd3f
000001f0: ac0f 4619 8ea8 b9bf 7995 d6dc ad5e e33f
-0.4553158780513515 -0.9901706721726027 -0.6087852853680403 -0.5635791463591374 -1.3312641543191523 0.9685210766691987 -0.10866933225930553 0.5565457049507054
-0.9955515200907146 -0.6609907314042416 1.2021108316415552 0.5630218200605625 0.4591798955903461 -0.34317140059494383 -0.7434769756160527 -0.2768165375527794
-0.7068999285355272 -0.33416738240195215 -0.9132676518729755 -1.152069884830359 0.9528648093469922 -0.7504637368322706 -1.0275766978167462 -0.655978782299037
-0.712839672300032 -0.7327559751713826 0.2989020387177141 0.44035035258705746 -1.5312898877504346 -0.26439284697545123 0.898261728060467 -1.2538611428992559
-0.7340580899657637 0.864264600282772 -0.7627832196002774 0.21940852938614921 -1.005716390427378 -1.0157464407492485 -0.2711731861948863 -0.2293241422244989
0.4513056186248179 0.35518900380566754 0.8571716675026222 -0.4503777397408964 0.9654663932503049 0.5866570674617049 -0.4145118348528665 -0.6700916122506372
0.6330826661884797 0.7799212075074196 -0.42289099236088956 -0.33407183225509607 0.6758973639583306 -1.8190630518091377 -1.028118242928769 0.33419182643797807
-0.03294589038925293 0.8533710585191981 -1.7608002365054614 -0.27216657151608503 -0.39523759440032125 0.22977282969136065 -0.1002281963065445 0.6053075135466052

encoder.1.1.running_var f8 [64]
00000000: 2efc ef16 3bdc f53f 55cc f212 0c0a eb3f
00000010: a466 a18c f381 dd3f c0b5 5cf1 af33 da3f
00000020: 4e26 f0fe 745a 0240 7717 78a3 a82f e43f
00000030: cfac dfd9 3456 da3f eb0a 730c a2e1 d13f
00000040: aca8 e76c d94d fd3f 2f1f 44b3 14dd e03f
00000050: 682d efc3 c7fa e33f 7b4b 54c6 aa18 e63f
00000060: d62c 7eb8 4607 db3f c1ca 0522 5973 df3f
00000070: 84d0 a266 032b eb3f ae34 edc4 2512 df3f
00000080: 31fe c846 e140 dd3f f8fa 2cc0 95fb ea3f
00000090: 8c60 7ecf ba1a fb3f 6813 250f 431d fc3f
000000a0: 9fe7 0f2c b004 e63f 5cb6 f39e 7ab3 e03f
000000b0: 5535 5782 1abe f93f c4f4 0152 4b9a e73f
000000c0: 9669 f413 2be6 f73f 0ff0 1ffe 9f4d fc3f
000000d0: bd55 18cb f446 d33f d408 0404 bc8c e13f
000000e0: 5a02 3a4b 9701 0340 f4cf 4d9f b720 ef3f
000000f0: eb3e 642d 69e8 dc3f 31b5 9d9f ea1b 0140
00000100: 22a1 c3c3 7c40 de3f 6141 ac83 dec3 d03f
00000110: e632 eb78 33bb f43f 59f8 3e76 165b f73f
00000120: 7914 0e54 cb25 f83f e3c2 8e41 25b7 0040
00000130: 6999 c22a 960b e33f d64d 3100 8b1e e13f
00000140: d942 dc3c 80a5 d93f bcc4 a467 a8be d43f
00000150: 8693 7949 ff9f d43f 8f61 d461 e161 dc3f
00000160: f852 9799 902f d03f 4d81 47dc 52fb de3f
00000170: 7fc8 7fdd bd42 f23f 0663 dec9 16f9 ea3f
00000180: cdbf 1f80 1030 e33f 4bdf a0c6 d8de d73f
00000190: 6286 05a6 7068 ef3f de37 7994 7268 eb3f
000001a0: d541 7d75 90ed d83f 6e98 62a7 eef0 0640
000001b0: 5fca e524 5eb7 fb3f da02 e192 d138 d33f
000001c0: 6056 25d6 b89d ee3f abc7 9d29 6310 e03f
000001d0: 5a14 eb91 3e0d 0a40 b871 fd75 73d3 e73f
000001e0: c517 1201 5ea4 f03f 796b 17b5 d871 e93f
000001f0: 6a2e 48fb 40a6 ea3f 34ba 5c31 ce9f cd3f
1.366267289733297 0.8449764604651003 0.4610566018433053 0.40940474100611013 2.294168464378152 0.6308177178150193 0.411511624114337 0.27939654556045806
1.8315061811540927 0.5269874097147972 0.6243628336755309 0.6905111192339598 0.4223191072166633 0.4914152939083288 0.8490006451234113 0.485482637702101
0.4570849601040861 0.843211055129216 1.6940258126469727 1.7571440307230777 0.6880722866619527 0.521909056141975 1.6089119998390136 0.7375847436630001
1.4936934260827903 1.7689514090297995 0.30120582421781333 0.5484294966156775 2.375776851375389 0.972743807926689 0.4516852324750135 2.1386311025622935
0.47268599622340635 0.26195490702322927 1.2957033847225659 1.4597382182105518 1.509227112140506 2.089426529092053 0.5951643786582227 0.5349783900987244
0.4007263750400348 0.32413683053443854 0.3222654550102607 0.4434741454474755 0.2529031276620084 0.4840895796933367 1.1412943508444469 0.8429063742397325
0.5996172430441163 0.3729764880877055 0.9814990275010127 0.856499948489496 0.38949977372706474 2.8676426960910737 1.732267517215085 0.3003429350247139
0.9567531759773367 0.5020004093951135 3.256466999041135 0.7445618919842252 1.040128711874318 0.7951472794478455 0.8327946575022456 0.23143937502159562
