models/matching_nets/AWF_n=1_k=5_q=15_nv=3_kv=10_qv=1_dist=cosine_fce=None.pth (torch, 316367 bytes, 24 tensors)

encoder.0.0.weight f8 [64, 1, 3]
0	0xbfd411c8c3035cb6	-0.3135854629922038
1	0xbfd244792f019c9d	-0.2854292830510959
2	0x3fc3ab1d1ec81b36	0.15365947726260182
3	0xbfd008371805ce48	-0.2505014166447137
4	0x3fde892142fe68ac	0.47711974661218437
5	0xbfd5d56b8c7b1840	-0.3411511299021903
6	0xbfdd14138a830927	-0.4543503620772235
7	0x3fb46efc32b7179b	0.07981849897541198
8	0xbfe133c28445c6e9	-0.5375683387230455
9	0xbfcebcdc0b3233ec	-0.24013853594479373
10	0xbfb7e2307e98f2ec	-0.09329512682684155
11	0x3fdc9c7cfdfede87	0.4470512848306289
12	0xbfd8cc97e41259d3	-0.38748738548875145
13	0x3fd725a6f5583725	0.3616731067603374
14	0xbfe0e50a85157182	-0.5279591178219081
15	0xbfc897104c31252a	-0.1921100971251602
16	0x3fc800a10a5de2db	0.18751919752300847
17	0x3fd49a4a8de667b1	0.3219171891920452
18	0xbfc5a7b92b38f670	-0.1691810093924917
19	0xbfc7b955932583b2	-0.1853434532631844
20	0xbfba7c81cde04ac5	-0.10346232677720042
21	0x3fc8a2372dd8be20	0.19245042551618585
22	0xbfb7e50279afdcc5	-0.09333816023705584
23	0xbfc2058f8019f4ff	-0.14079469447089107
24	0xbfbf692d261fa713	-0.12269861393692975
25	0x3fdd4d0e84c226df	0.45782816853225755
26	0x3fe1e2e7f3e8c14c	0.5589484943248322
27	0xbfd64fba880d3c12	-0.3486162499074804
28	0xbfd8122d3db0827f	-0.37610941910137535
29	0xbfd267ab5f3a292f	-0.287577479358009
30	0x3fe0da09346b143a	0.5266157172960739
31	0x3fd760160e65a13a	0.3652396336169833
32	0x3fde2b88e760b001	0.4714071521327697
33	0x3fd08def46ee2edd	0.2586630051307404
34	0xbfd1a783f24af3b0	-0.2758493295803488
35	0xbfdaaa87b9357d8c	-0.416658335559952
36	0x3fd32e0bc8aff80d	0.29968542669655635
37	0x3fdc338ae171da5e	0.4406459046944401
38	0x3f997142d5e0b52d	0.024846119216978813
39	0x3fd300cf04c8e3bc	0.2969243571019964
40	0xbfc87b66bcdf9373	-0.19126590940791352
41	0x3fd9993500ed74a2	0.3999760159548008
42	0x3f9ea37859dadf45	0.029920464023887722
43	0x3fc4e4fdfec41c96	0.16323828639744836
44	0xbfd18b1eeec88046	-0.27411626166031444
45	0x3f9f3c7038029666	0.03050399152620855
46	0xbfc081e6513f88e6	-0.128964223548855
47	0xbfd0c0bf506c185e	-0.26176436284766236
48	0xbfe2225041ff2c89	-0.5666886605262259
49	0xbfd440c903c45038	-0.31645417564255096
50	0x3fdc035c92013d93	0.43770517595563624
51	0x3fac9ebaef385b37	0.05589851541679141
52	0x3fc53544487a2e8b	0.16568807162217455
53	0x3fd79d5819bc5ecf	0.36897852433456263
54	0xbfd23128a9c6acb7	-0.2842504175157034
55	0xbfcbce80be0e7334	-0.2172394683847415
56	0xbfd7c2fb0e3c52ff	-0.3712756766338287
57	0xbfd446c708a6047a	-0.3168199142892899
58	0xbfce8aa03d662752	-0.23860552785873296
59	0xbfd52fa8f3f0a3b6	-0.3310339338518661
60	0xbfd06a2627eecd36	-0.25647882365884145
61	0x3fc7009dfa5f7bfc	0.17970633244746625
62	0x3fa5326923332664	0.04140022806820978
63	0x3fc03bea5f4c5922	0.1268284764598287
64	0xbfd40279c5e5134a	-0.31265110326448975
65	0x3fdeea3c223a86a7	0.4830465635551299
66	0xbfc63d3850ca3bb4	-0.1737432856066029
67	0xbfe208c5126e3fdb	-0.5635705337499489
68	0x3fd79152e82792a1	0.36824486419053853
69	0xbfddacd7755e01c2	-0.46367441617624305
70	0xbfd7aeff139f38f6	-0.3700559321995479
71	0xbfd96df756888342	-0.3973368020106599
72	0x3fde9921ab375fab	0.47809640617696897
73	0xbfa61580d5064883	-0.043132806781742715
74	0x3fca790d38170cfc	0.20681920279285027
75	0xbf97e840990b3c24	-0.023346909848268052
76	0xbfd63d941ef5a592	-0.347508459314292
77	0xbfd74edf3c8cb8ff	-0.3641889659219401
78	0xbfd11cae7cebf1e4	-0.2673755855501254
79	0x3fb59e054d6296ac	0.08444245471272421
80	0xbfd039cb95b2b3db	-0.25352754229498736
81	0x3fd6feed3c8c8330	0.35930949128128287
82	0xbfb53acb8ebd507f	-0.08292839274264628
83	0xbf993a7ebc3c0ac9	-0.024637203444408926
84	0x3fd5dd3225d389a3	0.3416257256887098
85	0x3fc8251b88cb98a8	0.18863243274171748
86	0x3fb8625ee6fd4ca0	0.09525101794615631
87	0x3fd1b3a888bd4742	0.27659047463849984
88	0x3fa1e0a928d5e327	0.03491715072136108
89	0x3fdaee50c633f6c0	0.42079562526474135
90	0xbfb4bf28254e807e	-0.08104182158285941
91	0x3fba85483482b021	0.10359622270578984
92	0xbfe39e71924afac9	-0.6130912644656173
93	0xbfcb4d85bf1bd6c9	-0.21330329734307998
94	0xbfd53fae4357af55	-0.33201176239412195
95	0xbfbaaeac4b671ee9	-0.10422779885186241
96	0x3fd0830fa0e9caf4	0.25799933160958166
97	0x3fa5608f8119d012	0.04175232363641625
98	0x3f9081fffc39c32a	0.016120910424834246
99	0x3fbd256179b4a30e	0.11385163518265193
100	0x3fdb0d162b822556	0.42267374276032876
101	0x3fd2003f24bbdc50	0.28126505458152895
102	0x3fc8abf0bccd0201	0.19274720400609627
103	0x3fd779f4be067eda	0.3668186050144705
104	0x3fadc6fbca3f90e1	0.05815874904490826
105	0xbfd18526e6537429	-0.273751950195051
106	0x3fd6f2e92a51c96e	0.35857609875451757
107	0xbfe1cdc1ba562bc3	-0.5563667907130071
108	0xbfd78475c3d075b5	-0.36745971796502924
109	0xbfcc68238254dc0d	-0.2219280611404603
110	0x3fd0f402caea2cce	0.26489324394124203
111	0xbfe0aa88ee7fe55a	-0.5208172472186263
112	0xbfd41a2e6d15825d	-0.31409798290954943
113	0xbfd6338e1c4121d2	-0.34689667472096375
114	0x3fe1ba463a464669	0.5539885652708111
115	0xbfd44a6f99a7cfac	-0.31704320912762785
116	0x3fcc4a2fe64381a8	0.22101401084274852
117	0x3fdb1cf87e602426	0.42364322987902125
118	0xbfd95a0b02e42b12	-0.3961207893595865
119	0x3fd91da050ad8c38	0.3924332416410752
120	0x3fa60fa8c167bcfb	0.04308822022346167
121	0xbfe0e63138b3a63e	-0.5280996425110016
122	0xbfdd4d80f63c3903	-0.45785545393381727
123	0x3fd3d16e9eea5c35	0.30965772170151534
124	0x3fd614c088115e0f	0.34501660621523994
125	0xbfd915fddf868a4c	-0.3919672663561513
126	0xbfa849032de7c416	-0.04743204055183285
127	0x3fc05dde197964f3	0.12786461109025246
128	0x3fc0298d2502e4ca	0.1262680464476829
129	0xbfc8f92bda475438	-0.19510410459648297
130	0x3fca609cc374efde	0.20607337516582808
131	0x3fd986cc53ae0bcc	0.39885242626058637
132	0x3fcc666339b6c3e1	0.22187462156355678
133	0xbfd46f334e129636	-0.31928713440206324
134	0x3fd3e6a7f42c3e7b	0.31095312924387714
135	0xbfe0e238fff1e1a3	-0.5276150702402912
136	0x3fdde051100cf09d	0.4668162018531435
137	0xbfe154ee538870f2	-0.5416175490859401
138	0x3fdb574f97ecd13f	0.42720403515274435
139	0xbfc4b86fc8bc5beb	-0.16187856008102072
140	0xbfc1dd0338454e14	-0.1395572685965908
141	0xbfe1523121d37034	-0.5412831936514579
142	0x3fa8975582e09c61	0.04802958700775473
143	0x3fdbc8817a973a02	0.43411290141821735
144	0x3fd0678dd7d36aaa	0.2563204391168862
145	0xbfd832bb4a135180	-0.3780964110749423
146	0xbfb057f4863eea25	-0.06384208943828946
147	0xbfbb56ba4cb80b1c	-0.10679211018581863
148	0x3fcaec53dcc1177c	0.21033714560524774
149	0x3fd18f1b248a1f65	0.27435949867548565
150	0xbfe10c17959b53be	-0.5327260896689194
151	0x3fdce82cca5b19f9	0.4516708351260657
152	0x3fd177b302dad720	0.2729308631781908
153	0xbfd24c4904238831	-0.28590608028582937
154	0xbfd17c5452cba4f2	-0.27321346364494936
155	0x3fcb46010161dab3	0.21307385032169676
156	0xbfd382943371cfa2	-0.3048449041737006
157	0x3fc5db198f031535	0.1707488964367855
158	0x3fdef10a633fe552	0.4834619492754274
159	0x3fe4718e76d0adde	0.6388618774994332
160	0x3fda60737d9629cf	0.41213691009820946
161	0xbfc91019971aa4d1	-0.19580383184555797
162	0xbfd71a69b99589bc	-0.36098712085199813
163	0xbfe08d09f04537b6	-0.5172166531353841
164	0xbfd5b96d3359bf3e	-0.3394425393553212
165	0xbfdb072ecd5733f1	-0.42231340458675876
166	0xbfd15e700b3f526d	-0.2713890180432717
167	0xbfe0c413c10e7d2d	-0.5239352007519408
168	0x3fcfae54f8b562a7	0.24750768798800957
169	0x3fd7dba3a09f877f	0.37278071103911964
170	0x3fe06ba29e0199f8	0.5131390653667145
171	0xbfb70e72741a9f7b	-0.09006419500894751
172	0x3fceca9e9ced95cf	0.2405584589243248
173	0x3fdc9b8d381b77c7	0.44699411849239507
174	0x3f523fe4c7c9a369	0.0011138662513536463
175	0x3fd0ca5ac564b737	0.26235074307156786
176	0xbf85c5ff8161ff26	-0.010631557594251339
177	0xbfc3218e1ea67e29	-0.1494615220699285
178	0x3fb8e582488d7844	0.09725202819160567
179	0x3fd52cedbb9aeeeb	0.3308672267992125
180	0x3fd3948732e6885b	0.3059404370379803
181	0x3faba67c59832b0b	0.05400456040077558
182	0x3fd4a52732960c03	0.3225801462178312
183	0x3fd82e64f07333b0	0.37783168298193015
184	0xbf8988594d2c96c3	-0.012467096011799744
185	0x3fd6d69af7bfa307	0.3568484706325283
186	0x3fd9a028e7df42d5	0.4004003776908978
187	0x3fe1e7b8761c48e3	0.5595362002225354
188	0x3fe0454424bbac20	0.5084553449099793
189	0xbfb2b5bb60d01e2b	-0.07308550942990936
190	0xbfd53a3fc471628a	-0.33168024238469995
191	0x3fde6362ccd6a2f5	0.4748160362601504

encoder.0.0.bias f8 [64]
0	0xbfe013d45fff52f6	-0.5024206042240553
1	0xbfd650ddc015a697	-0.3486856818986807
2	0x3fad82be0023e3f2	0.05763810874663723
3	0x3fced7977fe5cf96	0.24095433945660422
4	0xbfd7ed38fff15c62	-0.37385392183700195
5	0xbfbd9b3dffe7b394	-0.1156500577705642
6	0x3fd452af4001735b	0.3175466656737648
7	0xbfe21f2d3fe19b5e	-0.5663057563477698
8	0x3fc7f2d3800aeca6	0.18709796669086137
9	0x3fd8a8c40000ba79	0.38530063629415384
10	0x3f850bdfffd6a172	0.010276556010311497
11	0x3fa4b36000429370	0.040431022674318196
12	0x3f838defff536f78	0.009548068026951503
13	0x3fc70c0cffdd52f4	0.18005526059518895
14	0x3fbffc32ffb660dd	0.12494200461367506
15	0x3fcd80f48035d110	0.23049789676918708
16	0xbfba7b1900af7b79	-0.10344082133040712
17	0x3fd9e879ffdf88d5	0.4048142431985416
18	0x3fd6b3d680132150	0.3547264338235623
19	0xbfd988fda000a81d	-0.39898625016451367
20	0x3f9ecc2c038dc81d	0.030075729100140437
21	0xbfc72f17402832c4	-0.18112459786097734
22	0x3fa79ee5ffab6d12	0.04613417383162689
23	0x3fcaf7607ff0210f	0.21067434546444772
24	0xbfd7e3c47ff0147e	-0.373276829661627
25	0xbfd04486dfee3322	-0.25418254726609935
26	0xbfd4264da0258b0b	-0.3148378433162839
27	0x3fe25700ffed1ebd	0.5731205938872886
28	0xbfd0ddc85ffa9854	-0.2635365426343743
29	0x3fd66ab840022e0b	0.35026365519362973
30	0xbfd85dfee003e74c	-0.3807370364807994
31	0x3fd41e9d3fdad664	0.3143685458738672
32	0x3fd08d7efff86888	0.25863623616317755
33	0x3fcdefed00187529	0.23388445381798675
34	0xbfdeb4ea201fee1e	-0.47979214799099335
35	0xbfe1f3c800038858	-0.5610084533948436
36	0xbfddb747a0209d7f	-0.4643115104431316
37	0x3fd567f0c0005de3	0.3344690203680029
38	0x3fc96f3b8001e37d	0.19870704412803866
39	0xbfe1f642a010fa02	-0.5613110662741863
40	0x3fd0b0bcc000ee49	0.26078718901019166
41	0x3fd593f5ffee3749	0.337155818874511
42	0xbfcb97fec003ddf2	-0.21557602287042205
43	0x3fde9b8f801fbe68	0.47824466240033425
44	0x3fa055f9ff651096	0.0319059490452968
45	0x3fb0f71dffb44b9c	0.06627070896892778
46	0xbfb4c641fff14ce6	-0.08115017412756095
47	0x3fbcb883ffb09467	0.112190484928378
48	0xbfdb76427fe7bbe2	-0.42909300318473076
49	0xbfd4a8f1c0003411	-0.3228115439422377
50	0x3fd04337fff13d1a	0.2541027068554783
51	0xbfaf8ef3ffb52b50	-0.061637520756070985
52	0xbfc64faf7fd7ca6a	-0.17430680982905083
53	0xbfdfdeab2008b941	-0.4979656040985852
54	0xbfd68ea2bffde7ac	-0.3524557948036271
55	0x3fc85ad48000c3c6	0.1902719140066706
56	0x3fc4418d7feb94c8	0.1582505106554548
57	0x3fe073f180007fca	0.514153242114838
58	0xbf85eeb8015b3a94	-0.010709226170914556
59	0x3fdabec000098401	0.4178924560893052
60	0xbfe031ac000f4ae7	-0.5060634614149792
61	0xbfc3c13fffc396e4	-0.15433502186277004
62	0xbfd4570e3ffcea46	-0.3178134560472795
63	0xbfe1e3e1e014e915	-0.5590676666827529

encoder.0.1.weight f8 [64]
0	0x3ff042ab744542cd	1.0162767926996594
1	0x3fef6971ec34aae8	0.9816217053788394
2	0x3feff3a93f23e860	0.9984937890251437
3	0x3fef83472c30c149	0.9847751486868584
4	0x3fef48d309f6ed7b	0.9776396937008224
5	0x3fee4c720808dd31	0.9468317181516906
6	0x3ff0786eef51e24d	1.0294026707107549
7	0x3ff012034917c7fe	1.0043976645652033
8	0x3feec82333884b8c	0.9619308477871171
9	0x3fefcb02d2ba0a4b	0.9935316196209184
10	0x3fef91caae84edae	0.9865468414858947
11	0x3ff03ffc1900886e	1.015621278442747
12	0x3fefae02d834ea0b	0.9899915907656703
13	0x3ff0ad740405b08d	1.0423469693296596
14	0x3fefaadc9fb08ef1	0.9896071547450146
15	0x3fefd42bd0d60b95	0.9946497992353779
16	0x3ff071f511bf0826	1.0278216069423336
17	0x3fefc42f7c29dc0d	0.9926984238690025
18	0x3ff06966ab30fc04	1.0257326781427318
19	0x3fefce44d3ee5aa7	0.9939293040541387
20	0x3feff03c906533be	0.998075754186736
21	0x3ff06b2410178b08	1.0261574390976325
22	0x3feffefd98514096	0.9998767828892763
23	0x3ff07959ca1b0532	1.0296266455409975
24	0x3ff02845d24acd7c	1.0098322119273169
25	0x3ff08a01a16d6785	1.0336929612880976
26	0x3ff038bee87d11e5	1.013853939207473
27	0x3ff08b6438704a8f	1.03403112455695
28	0x3fefb5f2df47ee1c	0.9909605370480139
29	0x3ff09a2aff2f0161	1.0376386612043336
30	0x3ff0431c34f6c832	1.0163843220621058
31	0x3ff0243a1d81db43	1.0088444855334309
32	0x3fefcc0d8b3a6597	0.9936588019656253
33	0x3fef3c00a90455c5	0.9760745335685718
34	0x3feee84bd013d882	0.965856462861453
35	0x3fef26c05e3faa09	0.973480400161237
36	0x3fefefea970bdef2	0.9980366659283091
37	0x3fefe566c19d613c	0.9967530995882394
38	0x3ff066076577f501	1.0249093974701398
39	0x3fefe3198fb09492	0.9964721495095026
40	0x3ff05dae2c4593e1	1.022871182381316
41	0x3fefc00d3cca5fa1	0.992193812114227
42	0x3fef7a164fef4b44	0.9836532174325403
43	0x3fefac0e296ec0ef	0.9897528466445048
44	0x3fefda74bd3f0f24	0.9954169937341004
45	0x3fefdb70b96e71bf	0.9955371495921596
46	0x3fef65973b9eee94	0.9811512150258346
47	0x3ff00d844c0d35f0	1.0032999964490692
48	0x3fefbf53589bf78c	0.9921051722192131
49	0x3fef26645d7f4ecb	0.9734365297431052
50	0x3fefb6699a58bad9	0.9910171522695591
51	0x3ff009042b0a278b	1.0022012406575154
52	0x3ff021e36cd83f01	1.0082735301729715
53	0x3ff002f65edfeced	1.0007232385676688
54	0x3ff0460be8b99cb7	1.0171012011358422
55	0x3ff04fb7e92268c0	1.0194625002682614
56	0x3feff0689d51d4b5	0.9980967590951396
57	0x3fef9aba4528a8a6	0.9876376486547727
58	0x3fef80077de80b83	0.9843785723791004
59	0x3ff02ef18fd53e8e	1.0114608400798804
60	0x3ff06665358f9663	1.0249988643858152
61	0x3ff0793b33d68de4	1.0295974755216486
62	0x3ff02dc12f0015dc	1.011170562357953
63	0x3fefebd82f30b5b6	0.9975396081624044

encoder.0.1.bias f8 [64]
0	0x3f9b1720f8691c42	0.02645541683366682
1	0xbf93ab147bc6d812	-0.01920730596039994
2	0xbf47dea803a9dc20	-0.0007284469969154363
3	0xbfb00b7d164f60d4	-0.06267530245475267
4	0x3fa4225b907eb9a0	0.039324628246834026
5	0x3f982c2499ef930f	0.02360589208173552
6	0x3facea310c06d4d2	0.05647424003419989
7	0x3f9daad52405ed40	0.02897198707931392
8	0xbf8efb5c36662d1e	-0.015127869043473793
9	0x3f8ee5eb180e5222	0.01508697192347436
10	0xbfa21633462e9e3e	-0.03532562476840127
11	0x3f9eb6eff9a17310	0.029994725810286005
12	0x3f7a942e4386cc49	0.006488972394822553
13	0xbfa261e42f16f93b	-0.035903101681002934
14	0x3fa15892c18e188a	0.03387888539059343
15	0x3f9257abeaca09ca	0.017912565427204354
16	0x3fa8e437907a6a04	0.048616157900330165
17	0x3faa553dc4e462ec	0.051431589398083094
18	0x3fa85d8497996580	0.04758848524643167
19	0x3f56110847a9e67e	0.0013468342646362481
20	0xbf9e0a56211282dd	-0.029336305397580687
21	0xbfa1baacbdff82e1	-0.03462734050095207
22	0x3f9d8a7fd8587b5b	0.02884864576310107
23	0x3fa9fd030a61b65e	0.050758452431961074
24	0xbf84bd2629a68fef	-0.010126398225857229
25	0x3faf27a38883794e	0.060849295057539096
26	0x3fb0824b57895212	0.0644881333076415
27	0xbf98ede3bbe546d7	-0.02434497675250821
28	0x3f857f27610cbf1f	0.010496432923531139
29	0xbf73f6ca630a7d2c	-0.004874029706712062
30	0x3fad2837deae1827	0.05694746583235171
31	0x3f874b697ba879b7	0.011374305807348202
32	0xbfaa975d61d1327d	-0.051936071577618904
33	0xbfa5fab2933f33de	-0.042928295587991036
34	0xbf96a97ed98b8f60	-0.02213094904699575
35	0x3f8ee72d967e57cd	0.01508937469024465
36	0x3f9933257153207f	0.024609169999877608
37	0x3f7660ee32ce978c	0.00546353384280519
38	0xbf9b9c301d3a8171	-0.02696299723049961
39	0x3f9016cdf7883609	0.015711992486151547
40	0x3fa4a1c469337c78	0.040296686021741246
41	0xbfa5fee3015ec549	-0.04296025649763153
42	0xbfa00bee6a691bf6	-0.031341028680394276
43	0xbf8eee2a3430ade7	-0.015102700917927826
44	0x3f58890b7f976142	0.0014975178040597813
45	0x3fab6a89d82be768	0.053547198904154325
46	0xbfb172c48fd6e163	-0.06815746795371562
47	0x3fa541f084799eed	0.041518703624033516
48	0x3f82d7b6215ba426	0.009200499432568131
49	0x3f82e9f59c08c485	0.009235304664885877
50	0xbfb3120c8f055851	-0.07449415675850558
51	0x3f8f553a20b2d8b2	0.015299276469118748
52	0x3f8c4ae4faace840	0.013814724826819114
53	0x3f8f4c187ac0f1bf	0.015281859632630622
54	0x3fa3690d6abf8d33	0.03791086128310397
55	0x3f9600ffbe769131	0.021488185882519054
56	0x3f9ad7f90ef46f16	0.026214496171731737
57	0x3f60bee15576ddb2	0.0020441437770519428
58	0xbfb16bb108ba4574	-0.06804949248387065
59	0xbf913192190471fc	-0.016790659691752183
60	0xbf8993d7883779a8	-0.01248901733827952
61	0x3fa16d3934e20069	0.034036433892652714
62	0x3f22d698c077ddb0	0.0001437245812068006
63	0xbf918943808a5678	-0.017125181885225577

encoder.0.1.running_mean f8 [64]
0	0xbfe358e78b5af046	-0.6046025964528858
1	0xbfd7fca8500af123	-0.3747959882419016
2	0xbfc358b6c3484028	-0.15114483390107236
3	0x3fd118d5bab5836e	0.2671408007936894
4	0xbfe003c2f7dffcae	-0.5004591790492634
5	0xbfa5e1c158bcbcd1	-0.0427380009481283
6	0x3fcb2dc2bf014dc0	0.21233400656147516
7	0xbfe267c36317ddd2	-0.5751664100088709
8	0x3fd91a58e9079ddc	0.39223311192333
9	0x3fc3867e6e4ea0f4	0.15254192720499982
10	0x3fd4b8f6d3aa1496	0.32378931684827117
11	0xbfae3cd10581d991	-0.05905774299837952
12	0x3fc7b9373040717b	0.18533983093301373
13	0x3fd2e9012e919ec9	0.29547147319543093
14	0x3fbb52500ba44fe9	0.10672474178528514
15	0x3fc2f0836ae0df45	0.14796488493606766
16	0xbfca45d70e597094	-0.2052563495698264
17	0x3fe14bb6d348cbeb	0.5404924513480841
18	0x3fc3bf0c61b4a36e	0.1542678334310738
19	0xbfe34abcc93f1080	-0.6028732233612715
20	0x3f97110fa5dd1eb0	0.02252602052547442
21	0xbfbcfedebc7bdd80	-0.11326400853783092
22	0xbfa40d2ac0a4655a	-0.039162956252946926
23	0xbfb27e12d5dfd02e	-0.07223623010196498
24	0xbfccee752b77a0ff	-0.22602715132166648
25	0xbfdb15d913f6469e	-0.4232084937039903
26	0xbfda8e959f87b67b	-0.41495266512979584
27	0x3fe4297fb889c486	0.630065784860691
28	0xbfbea7767f9fb1f4	-0.11974278083625461
29	0x3fe096b3551db2f8	0.5183960592672454
30	0xbfe080e82e251f36	-0.5157357121724775
31	0x3fc51d196a496872	0.16495053949148858
32	0x3fd530142f62bc1e	0.33105950000293827
33	0x3fdafdf5920b5b6d	0.4217504430975428
34	0xbfd59b2166bad203	-0.33759341270641147
35	0xbfe564987c8bb2c3	-0.6685297424824842
36	0xbfe13d60b0331055	-0.5387423936267718
37	0x3fb012bc3c2f7843	0.0627858778893549
38	0x3fd35f0148cdc9f7	0.3026736460662102
39	0xbfddc53786ddb805	-0.465162164406934
40	0x3fa6a0c48b810521	0.04419531062058924
41	0x3fd978db7ba40600	0.3980015475682137
42	0xbfc595505e040c45	-0.1686191996633132
43	0x3fe2553b3cb0e4a0	0.5729042230006094
44	0x3fb486a9927dd772	0.08017978502706827
45	0xbfb217306999ff13	-0.0706663377586632
46	0xbfaab6d3e6fdefe8	-0.05217611498571256
47	0x3fb93c3ca35d4bdb	0.09857539165868394
48	0xbfde2bbb31f27dff	-0.47141914251002953
49	0xbfce4567e8336885	-0.2364930995743785
50	0x3fd314e061398f13	0.2981491994344065
51	0xbfc20acd00a5a879	-0.14095461398693823
52	0xbfb82c97a02cee84	-0.09443042431387921
53	0xbfd34e1cfa8db2e1	-0.30164265125385553
54	0xbfe43cf9462ea35c	-0.63244308192689
55	0xbfb6f2bbe35a1310	-0.08964132595617635
56	0x3fdacf06d97fdb0d	0.4188859104173595
57	0x3fe4d98a0c70bef3	0.6515550845124082
58	0x3fa7b9ebbcc8f16f	0.046340338511501204
59	0x3fdece01f475964a	0.48132370827656656
60	0xbfd65b0f024f42ea	-0.3493077776484329
61	0x3f870346b10ea504	0.01123671748958311
62	0x3f944b0323472de0	0.019817399051857865
63	0xbfe160c83045cbe6	-0.543064207346444

encoder.0.1.running_var f8 [64]
0	0x3f93d512a6a88a85	0.019367495939273133
1	0x3f89d452302ca91f	0.012612001509826385
2	0x3fae2a0c6fd1231c	0.05891455521538644
3	0x3f8910def5f72d5a	0.012239210015556768
4	0x3fa0478a24116ea3	0.03179580393108707
5	0x3f8af55688450a12	0.013163257630940204
6	0x3f8cfcc0aec7c357	0.014153962453720288
7	0x3f680e9431e9be26	0.002936639254862222
8	0x3fb0d0732c6eaa01	0.06568069300434588
9	0x3fb1875246b3eafd	0.06847109056608854
10	0x3fbf7770d1767a21	0.12291627038801113
11	0x3f9896852d9e9d55	0.024011689099692052
12	0x3fa61b5ef3da2b69	0.04317757345878343
13	0x3f95fa3f9b67106d	0.02146243463518298
14	0x3f70853a0ea6203f	0.004033304964089323
15	0x3f858eb9b4f7f1bd	0.01052613338014729
16	0x3fa35526b2f439bd	0.037759026856395185
17	0x3f99dcc3155ca1d9	0.025256202868293307
18	0x3fa9caa6d4ddd9c0	0.05037423466176305
19	0x3faa9a9ee64aafb8	0.05196091233423722
20	0x3f6e53443318bc1a	0.00370181389077785
21	0x3f8f84bb2d0850a7	0.015389883338720557
22	0x3f9a6b2f10d88a33	0.02579949894255602
23	0x3fb9ad3cc55479d3	0.10029964273096618
24	0x3f9f654b5e1bab82	0.030659844988729208
25	0x3fa443f3f5ebaf13	0.03958094002686443
26	0x3f8d2153b08b2b90	0.014223722291168334
27	0x3f8122aa18699e26	0.008366898412716383
28	0x3f9beb45efc5cf25	0.027264683494151804
29	0x3fa2d40d2cb93436	0.036774074277311206
30	0x3fa0687a4353916c	0.03204710075241021
31	0x3f9e3179d167c1d7	0.029485610395512864
32	0x3f80522fb7deda65	0.007969258116515119
33	0x3fa80705f289c462	0.046928583008487804
34	0x3f9c5dcbeee65f38	0.02770155568722929
35	0x3f9b2fcd1d888236	0.02654953472858975
36	0x3f914ebda0800174	0.016901934548515254
37	0x3fb7cab10cf8df21	0.09293657843306537
38	0x3f99110358819740	0.024478962208738908
39	0x3f977dc0d1fc1315	0.02294064790386859
40	0x3fb175df1496390d	0.06820482494933718
41	0x3f93c878f5761e39	0.019319429380202122
42	0x3f6e6786f9d78178	0.003711475014583406
43	0x3f9434193b6c1378	0.01972999024566799
44	0x3f83383b2056663f	0.009384595798837768
45	0x3fa4d9e41fbcb033	0.040724877237466116
46	0x3f848f0178afd54f	0.010038386817522364
47	0x3f968996c40c3135	0.02200923511104343
48	0x3f83914aa2c649c3	0.00955446538208527
49	0x3f8b1b4190fcf549	0.013235580670534335
50	0x3f9927996bc56f62	0.024565121844133293
51	0x3f8ee70a2e4708ce	0.015089110886837533
52	0x3f96f429304dd98e	0.022415774892090172
53	0x3fb0d7569d3a3054	0.06578580225522163
54	0x3fb99c4d09fb2b15	0.10004121297530973
55	0x3fb922dd6274b27c	0.09818824437815893
56	0x3fb63b251179b588	0.08683997799535892
57	0x3f9f3ee8ca87b18d	0.03051341758866637
58	0x3f77f5a2b4d5b087	0.005849490711039468
59	0x3f851c706e9674cc	0.01030814969527185
60	0x3fa00a7257a6d92a	0.03132970161407152
61	0x3fa26acf78af2751	0.035971148950536
62	0x3fc27ba1fe1d639a	0.14439797313641806
63	0x3f89e246b7a214de	0.012638618926084918

encoder.1.0.weight f8 [64, 64, 3]
0	0x3f4abe5377c6d922	0.0008161456640241353
1	0xbf98f3b062716cc0	-0.024367099770057576
2	0xbfae2c570b755b46	-0.058932037495358844
3	0xbfa1de1d0265e922	-0.034897715132460996
4	0xbfacbdb8440fd4f4	-0.05613494711716696
5	0xbfacfbdb3365e08d	-0.05660901071945643
6	0x3f82ca3dc933b210	0.009174807264991564
7	0xbfa62ec0ee5c1643	-0.04332545194305883
8	0x3fa7e0bb88eb4be2	0.04663644834877069
9	0x3f9864f145e2d0b7	0.023822564974310647
10	0xbfa82ee8f6f57113	-0.047232895037014576
11	0x3fa66eabf8590c43	0.043813108507059904
12	0xbfaadfc0fa51df1d	-0.05248835616742851
13	0x3fa836df56f4341b	0.047293643345348545
14	0x3f9bd86d84dc5e00	0.027192794069462067
15	0xbfb002b16b33abe3	-0.06254109256012401
16	0x3f97e0876856e3a0	0.023317447417614212
17	0xbfb3681ca365ec09	-0.07580737103664616
18	0xbfa5c04a9d44a27f	-0.04248269243027369
19	0xbfab42be8fc5062f	-0.053243594217303396
20	0xbfa4725d0ddb93fa	-0.03993502420579627
21	0xbfb475f6d3eb9eba	-0.07992499040448822
22	0x3f5714d7f6a59049	0.0014087780969811606
23	0x3f94234bb13e86f5	0.01966589230835943
24	0x3f80c538698b245c	0.008188667984898305
25	0xbfa7db6b47297ec7	-0.046595909535196926
26	0x3faa0ac7c54d041c	0.0508634975763089
27	0xbfb14c9f34b85210	-0.06757540738210133
28	0x3f93414017a04984	0.018803597871803315
29	0xbf9fbf18f123160d	-0.03100241634162697
30	0xbfb041877085c7f2	-0.06349989411481241
31	0x3f9a6825f3fefb60	0.025787919061026954
32	0xbf79487d6133a8a4	-0.006172647251540795
33	0xbfa7c0c07a4e2fe1	-0.046392455034123044
34	0x3fa17e371a95b081	0.03416607093353808
35	0x3f99c49ba4de5442	0.025164062440655728
36	0xbfafde70b923e0fb	-0.06224395999919526
37	0x3f8f46a3281464e8	0.01527144876540594
38	0x3fae1f4ade489d43	0.05883249247954805
39	0x3f96f2abaea75ed3	0.02241009000303402
40	0xbfb2ef1f9745559f	-0.07396123355041205
41	0xbfa226ac5bd88bac	-0.035451303683906005
42	0xbfa26731c0286ba1	-0.03594356032063862
43	0x3f7c3ec5d1456878	0.00689580223510166
44	0x3f9a950b321e0bf2	0.025959181722566123
45	0x3faddf006df13af4	0.05834199277943766
46	0xbf9e060dd580401c	-0.029319969326081816
47	0xbf8ae5101e41f10c	-0.013132215426815218
48	0xbfa7c2ac2530fa6b	-0.046407107868152796
49	0xbfb3c6611fdfa631	-0.07724577930607592
50	0x3f9b6d8b25b91076	0.026785062959121274
51	0xbfb749fad30c4af5	-0.0909725919012024
52	0x3f95a4a052ef8be6	0.021135811864848274
53	0x3fac7aa6b3daa462	0.05562325425609839
54	0xbfb0952822ab8207	-0.06477595182833094
55	0xbfada206b6d2f3ac	-0.05787678701151519
56	0x3f52a278da8913b2	0.0011373691760507673
57	0x3f93a0e640a2c8b0	0.019168470091877665
58	0xbf9372dcfbf21239	-0.0189928559089074
59	0x3fac0d740363cd0d	0.05479013959293342
60	0x3fa2871aaf5da127	0.03618701353735992
61	0x3fb41855b45835dc	0.07849631932204865
62	0x3f999c410e8c56ab	0.025010124695731644
63	0xbfb6192750029c35	-0.08632131293653418
64	0xbf7d65c2b2716332	-0.007177124533961176
65	0xbfb2be7d5ead9665	-0.07321914254642932
66	0xbf930e174f85a27f	-0.018608440617216445
67	0x3fa7cc2c80cff4d3	0.04647959778228885
68	0x3fa377eb4ef607ee	0.038024285687256895
69	0x3fa08970b5debf29	0.0322985860833554
70	0xbf999ab620bdb49e	-0.025004239796022724
71	0x3fa9b793c3466eb1	0.05022870787362644
72	0xbf9ae833720df557	-0.026276401363692994
73	0x3fad92924abdc13b	0.057758876441655414
74	0xbfb019fbd53f0c78	-0.06289648014267069
75	0xbf924c26216798a7	-0.017868610180720747
76	0xbfb04b80f5107061	-0.06365209563267761
77	0x3fa6a330145ccd4c	0.04421377419057623
78	0xbfb15be8335f388d	-0.06780864004324112
79	0x3fa0c327c11add87	0.032738916704540925
80	0x3f9b850c241b7872	0.02687472315198431
81	0xbfb6dbdad1863c3a	-0.08929221740093932
82	0x3fb499aef01a879c	0.08047002183823654
83	0xbfa9a4163c7238c9	-0.05008000839107891
84	0xbf67bbdebc3c2f1b	-0.0028972006128976774
85	0x3fb41cdf9796ee91	0.07856557322423387
86	0xbfa27db88ae9efac	-0.036115424115421874
87	0xbfb3a2715d6baefb	-0.07669743090417207
88	0xbf96d47dcc08140e	-0.02229496534166136
89	0xbfa4237f431d9338	-0.039333321516812736
90	0xbfaa8da36f93f4c9	-0.051861865396838853
91	0xbfab750aefc05050	-0.0536273400940962
92	0x3f9bcbb6a408fa61	0.027144292604356916
93	0xbfabe163bbb8ded4	-0.05445396105318215
94	0xbf944b2e551bdb17	-0.01981804270232165
95	0xbfaa8ebe272b1dc1	-0.0518702910244957
96	0xbf9615ecaa4271f4	-0.0215680102270301
97	0x3f9268c0b905c538	0.01797772530830352
98	0x3fa8254fc8f72451	0.04715966537657635
99	0x3f8a6529e502e8c7	0.012888266850826459
100	0xbf9b2d8d4090879c	-0.02654095369883401
101	0xbfac5fb07c94af38	-0.05541755219232275
102	0xbf9ad0e68708fdeb	-0.026187517158403322
103	0x3fb0fcee693fd3c1	0.0663594252544746
104	0x3f9145b05bb6691a	0.016867404554070743
105	0xbfaf4ddc3947392b	-0.0611409015578935
106	0xbfa4d2aaf23b279b	-0.04066976744577674
107	0x3f98131134609c6e	0.023510235616552348
108	0x3f9b038c364e9020	0.02638072091544086
109	0xbf7eae7865f1d831	-0.007490606599381209
110	0x3f8062ba0cb243b1	0.008000806343518936
111	0xbf7f2e70e0055047	-0.007612648885999169
112	0x3fa83f3a4d6b625f	0.047357389402979726
113	0xbfa4f5c230ced157	-0.04093748899268473
114	0xbfb899097082a29a	-0.09608515736420956
115	0xbf983e6f0cf0033f	-0.023675666012425763
116	0xbf8930e7996f0c2e	-0.012300309534003597
117	0xbfbe18cc80c653dc	-0.11756590026773445
118	0x3fa90e08c26f7a0e	0.048935197577282805
119	0x3fa4e8c4f5c87737	0.040838389399353074
120	0x3f9ae93dd8699d90	0.026280371030592387
121	0xbf84b01c889bdfa3	-0.01010153095147343
122	0x3f8903ef37282e93	0.012214535589939934
123	0x3f9149ac5d5eca92	0.016882603834981476
124	0xbf94c4dfbacebff4	-0.020282264496643124
125	0xbfb27c353113b4cf	-0.0722077603165474
126	0xbfa303bd89cc36c2	-0.037137911864289844
127	0xbfad772c49caa475	-0.0575498428418734
128	0xbfb3571fcebeef09	-0.07554816052919135
129	0x3f62ab605b7adc15	0.002278984258591086
130	0x3fa5954e1321e066	0.04215473159359888
131	0x3f30ce10e10a5a3f	0.0002564231117871164
132	0xbfb699bf7d3d0c7c	-0.08828350837306859
133	0x3f9a940f18657cc8	0.02595542513278984
134	0x3f8782f6c301dadc	0.011480262590550287
135	0x3fae035aef27ac91	0.058619348233912245
136	0xbf5d3b3c597c2c80	-0.0017841424323161992
137	0xbfb052b0f1aaf4b2	-0.06376176738827402
138	0x3faa5a5a9b0c4c15	0.05147059576679439
139	0x3fb3e48c546809fc	0.07770611820891554
140	0x3fa221de2427d22b	0.035414640344161384
141	0xbfb6fb4b6369a208	-0.08977194954935197
142	0xbf9b19659d9c3493	-0.026464069123040956
143	0xbfb3e3d85326ac9b	-0.07769538908057642
144	0x3f645476cfc06f57	0.0024816818750092273
145	0xbf74e45ff0778137	-0.005100607645971692
146	0x3faf1d423a40ee7a	0.060770101176299954
147	0xbf8623217219374e	-0.01080919389201154
148	0x3fb1c112e9b3ef43	0.06935232358585801
149	0xbfb0007f2cce852b	-0.06250758022226381
150	0x3f94294833c30a95	0.019688728484434554
151	0xbf4492a51fc9c6cd	-0.0006278330107092001
152	0xbfb5276fa971d72c	-0.08263299834092369
153	0xbfb84a6590291b4a	-0.09488520402474623
154	0xbfa68f81b6779b73	-0.0440636191595364
155	0xbfa709f5e2060737	-0.04499786743237027
156	0xbfa63a729d6b7185	-0.04341467067362984
157	0xbf95b8dc795827f2	-0.02121300211550898
158	0x3faacce5d442a1e6	0.052344495926550924
159	0xbfab20de7d4798a7	-0.052985146325043524
160	0xbfa049daefe3625e	-0.03181347063372607
161	0xbfb3bb931c051a7a	-0.07708091196136904
162	0x3fa7cb3d13704d99	0.04647246229447006
163	0xbfb0cb28662b8009	-0.06559994215376731
164	0x3fa643ec3ecb5391	0.043486960091889355
165	0xbfad9b59e82cfba3	-0.0578258605878468
166	0x3f91f7374759011e	0.01754461644145621
167	0xbfa0cbf63cabc2c3	-0.032806105524178196
168	0xbfb6eed06b45f702	-0.08958151453949983
169	0xbf9dbb1eb89a7f77	-0.029034118668846056
170	0xbfb266083d8786b4	-0.07186938764746281
171	0xbfb9eba8c01cdc11	-0.10125212373974103
172	0xbf74e09b8d0a9cd0	-0.005097015019294562
173	0x3fa23a552f798d38	0.035601293607010864
174	0xbfb39584d183ee3b	-0.07650022616501755
175	0xbfaf7d1d1de52062	-0.06150141706399449
176	0xbfa388c7819ac307	-0.0381529184063592
177	0xbfba1eb54e921f13	-0.10203107040626617
178	0x3fb2421dbb3643ee	0.0713213522015079
179	0xbfb166dfcd48768a	-0.06797598611634662
180	0x3fa3893b094cb962	0.038156361470430125
181	0x3fa695d09ce3203d	0.04411174693228801
182	0x3f6fd7f61fccf0d4	0.0038871581185998347
183	0xbfa37e8824daf5c4	-0.0380747361173053
184	0x3f7f6e33bcc545ca	0.007673456286583622
185	0xbf8def6be06e9744	-0.014616816317196808
186	0xbfa9a41c058300e0	-0.05008018080980192
187	0x3fac6abe9a425eaa	0.055501896219707206
188	0xbf940b2c903d5939	-0.019573875716866616
189	0xbfa029765b1384b2	-0.0315663324524932
190	0xbfaf66cc286a0780	-0.061331157620784005
191	0xbf97fde4522e5445	-0.023429458156517553
192	0xbf7385b33558908b	-0.004766178162331279
193	0xbf83ce534322213f	-0.009670877920385677
194	0x3fabbbd12dfa998b	0.054167305815371845
195	0x3f78a73d1b4d0156	0.006018866250827001
196	0x3f96217439ba64b7	0.02161199190468174
197	0x3fa89704d55ab026	0.048027182621212014
198	0xbfaf1afa0e5904b6	-0.06075269150870481
199	0xbfad0431625bd221	-0.05667261434237881
200	0x3f926d0ae6233d8e	0.017994089409339824
201	0xbf93a37efd47c121	-0.019178375443460575
202	0x3f94afd6d9c21d2c	0.02020202354517868
203	0x3fa13e77d1895859	0.03367971833056122
204	0xbfa525665ec73bbd	-0.041300963468180886
205	0x3fa713e2d8a8f4b6	0.04507359404349513
206	0xbfa70bc69b5d2296	-0.04501171728640434
207	0x3f94ccecd5f24c2f	0.020312977369553117
208	0xbf94f9dcacdcb7b1	-0.020484397936506308
209	0xbfb17e7e42c27262	-0.06833638315078752
210	0x3fabd6697f90916e	0.054370209524026034
211	0x3fa534f5a35c589d	0.04141967410230161
212	0x3fb1cba96df7172e	0.06951388296792224
213	0xbfada0ff8c35e085	-0.057868944039854354
214	0xbf8d34d062bc2a21	-0.01426089097323763
215	0xbface276c4410741	-0.05641528268507879
216	0xbfa47cbbcfb4b3cb	-0.04001414213630702
217	0x3f8566bccdc2105e	0.010449862508046855
218	0xbfb256f29742b6bb	-0.07163921540151368
219	0xbf9872402dafd489	-0.02387333182192156
220	0x3f918e07bc067cd3	0.017143364764362467
221	0x3fb308a74df5811c	0.07435079243942194
222	0x3f917577c6c70615	0.017049666888629817
223	0xbf7d9fe33b0cb72b	-0.0072325588414921356
224	0xbfab1bbabe1f33f8	-0.05294593401740849
225	0x3f5c3d20e14575c3	0.0017235585301799007
226	0x3fa3c87e1de51bcb	0.038639012479101696
227	0xbfa3a625b55de3d2	-0.03837697829198529
228	0x3fac2183a5a6371a	0.05494319340787808
229	0xbfa53e2da1ff9720	-0.04149000742454079
230	0x3f9ae2bc98204297	0.026255556855235253
231	0xbfb9162c9d58a749	-0.09799460259878602
232	0x3f9cfab06b17d81b	0.02830005315441762
233	0x3f9df92a6f82eadf	0.029270804458728313
234	0x3fabadafc52a8e4c	0.054059498613494655
235	0x3f92ed7a953e6103	0.018484034880743582
236	0x3fa61b021ebcc325	0.04317480683528733
237	0xbfa6438da679fd74	-0.04348414094146849
238	0xbfa4b1ccd5dbc094	-0.040419007402193646
239	0x3f816c38107b987a	0.00850719261456966
240	0xbf73636622d45e5f	-0.004733466118771539
241	0xbfa9cd1d89f4593e	-0.05039303120627146
242	0xbf9932a959cc5b6a	-0.024607320886470253
243	0x3fa2bf9887052b0b	0.03661801002689032
244	0x3fa3dded276d05e3	0.0388025389315876
245	0xbf6c2411920f9906	-0.0034351676153959758
246	0xbfa9f725309e3fef	-0.05071369379504619
247	0x3f99636141bee895	0.02479316676883821
248	0xbfaa143ac840f9d4	-0.050935589737935466
249	0x3fa45a4cae323213	0.03975143076340628
250	0x3fab88d52b06b8d6	0.053778325559834236
251	0xbf9f314fe266a53a	-0.03046154803602017
252	0x3f9bc0e90d862850	0.027103082132761636
253	0xbfb4f3fb7fd790e1	-0.08184787627357394
254	0xbfa2110a4f8cee11	-0.03528625699115307
255	0x3fa7dd2e6d3762e6	0.046609354812692946

encoder.1.0.bias f8 [64]
0	0xbfb1b9c0200322e7	-0.06924057752179245
1	0xbfacdfeddfe84928	-0.05639594419712274
2	0xbfaedb07600c6f5b	-0.060264807200126135
3	0x3fa1cd12bff8eef8	0.034767709669237534
4	0xbf7639c800208a72	-0.005426198245944579
5	0xbf9e4f3c40040b26	-0.0295991338798657
6	0xbf6d7d1c00317eb3	-0.0035996958627462993
7	0xbfae8f93dff32397	-0.059689160430543335
8	0xbfa139c5a01ccd0d	-0.03364389018534029
9	0xbf91eec740236105	-0.017512429513630873
10	0x3f81d3a3ffd5784e	0.008704453701906225
11	0x3f9fcffaffebd8e4	0.03106682002086182
12	0x3f91f7557ff0703e	0.01754506677035316
13	0xbfb235a40003e32f	-0.07113099098559127
14	0x3f9b1e0c7ffcc29d	0.02648181468174703
15	0x3f9935bfffafee5e	0.02461910245982179
16	0xbf9b9464bfe2d207	-0.02693326398066811
17	0x3f9d49c2ffba48c1	0.028601691110971886
18	0x3f90f4ad80039bcf	0.01655837148510014
19	0x3f5d142ffea2a30f	0.0017748326013508652
20	0xbf9f86be4006344f	-0.03078744188092158
21	0x3fa455a87fe60351	0.03971602021466104
22	0xbfb225e79ff84c06	-0.07089088111415273
23	0x3faf5b8effe1370a	0.06124541162044579
24	0xbfa722a93ff8fee9	-0.04518631845394145
25	0xbfa99eee5ffefe7c	-0.05004067346407923
26	0x3fa00cec7ff48eb7	0.031348600978416234
27	0xbf9acf07c010e982	-0.026180382821829003
28	0xbfafa5dd601acd8b	-0.061812322598963375
29	0xbfb0b2579ff65806	-0.06522128730134122
30	0xbface605dff1309f	-0.056442435824096686
31	0xbf858e5d007f6f10	-0.010525442674342439
32	0x3fa87ac0ffef2a79	0.04781153797337807
33	0xbfa610f92020cc82	-0.04309824483098003
34	0xbf8fcf947fe7016f	-0.015532646325369296
35	0xbfa115fbfff18cde	-0.03337085246382697
36	0xbfad1580e00ea983	-0.05680468306612154
37	0xbf9369f1000a2dce	-0.018958821895052762
38	0xbf849602ffcb462f	-0.010051749640669431
39	0x3fac413180065670	0.05518488586237147
40	0x3fab68117fe2c5c7	0.05352835355860069
41	0xbf9d5b6efff983e6	-0.028669103978589926
42	0xbf6f157400e9a4c6	-0.0037944093413001282
43	0xbf96d1f04017b5ab	-0.022285226737883395
44	0x3fa2a6cd3ffb56aa	0.036428846416737784
45	0x3fb238fdbffab4d3	0.0711821168612972
46	0x3f6c995000248824	0.003491073847855313
47	0xbf5ff22800a0bf16	-0.001949824395079907
48	0x3f981cf400021cf7	0.023547947407249272
49	0xbf94c8daffe28d02	-0.020297452800730482
50	0x3f9e3b380012112b	0.029522776607806705
51	0xbfa30046c00b0359	-0.0371114835193171
52	0x3f9e1045803be5bf	0.029358945800572075
53	0x3f94dd347fd58310	0.02037508039700514
54	0x3fadf3a5fffde361	0.05849951505564977
55	0xbfaf877500054fae	-0.06158033013585339
56	0xbfaac7c3bffc6c61	-0.05230533331469967
57	0xbf707f49fedd2bfd	-0.004027642293134012
58	0xbf9aa533800a74c2	-0.026020817461007047
59	0x3faa55dac00d9163	0.05143626779934853
60	0xbfa368417ffb6f64	-0.03790478408129053
61	0x3f6634e0002e6a8b	0.0027107596410592175
62	0xbf991df3c00bfc17	-0.024528320881469137
63	0x3fa45b71400a58c7	0.03976015002005933

encoder.1.1.weight f8 [64]
0	0x3ff054b415e10161	1.0206795553823087
1	0x3ff01605354a597e	1.0053760606438966
2	0x3ff0254c418f58d9	1.0091059266028906
3	0x3fef075a9622d9fa	0.9696476871820885
4	0x3fefe89f7b0b8355	0.9971463587972759
5	0x3fefc52281e1a9d3	0.9928143059490203
6	0x3fef26f9113d67b1	0.9735074364391406
7	0x3ff024f72e6378dd	1.009024792867016
8	0x3fefc3ccdb8240c0	0.9926513945847759
9	0x3fefcd42bff28ad4	0.9938062428448924
10	0x3ff02d87041f903d	1.0111150895181844
11	0x3ff0149e63cd6311	1.0050338648345056
12	0x3ff08059c051e4ab	1.0313355934616009
13	0x3fef837a55fc6afc	0.9847995452322205
14	0x3ff04be49c5753a4	1.0185285670351982
15	0x3ff00f5fb02ccd0d	1.0037533647380912
16	0x3fef64b78197c9a5	0.9810445338355761
17	0x3ff07e3ece6589f7	1.0308216154450045
18	0x3ff055561d709976	1.0208340787881673
19	0x3fef0f25ace51821	0.9705990197041993
20	0x3fefd34f3290dd6a	0.9945446002592864
21	0x3ff06d5f832177fd	1.0267024156851214
22	0x3fef1a9898f69786	0.9719965922893017
23	0x3ff015a51800b850	1.0052843988046511
24	0x3fefd605594001da	0.9948755973019232
25	0x3fef5bcaf4fe3b93	0.9799551758786599
26	0x3fee7554011e39ae	0.9518222829663523
27	0x3fef31048999ed55	0.9747336089634852
28	0x3feeb289ad34e97d	0.9592941649382706
29	0x3fef0b59a0974938	0.9701355110685546
30	0x3ff00642311553a4	1.001527969104452
31	0x3ff046a1ebe70efc	1.0172442641205057
32	0x3fefd05c51c5a743	0.9941846463309293
33	0x3ff04b4b7f83c1ed	1.0183825474779227
34	0x3ff001038be0aaab	1.000247522732631
35	0x3feee11aa933ed5e	0.9649785332434637
36	0x3ff00495dec13ff4	1.0011194897997457
37	0x3ff00859ce9367e4	1.0020387715689987
38	0x3fefe3d638030c10	0.9965621084196545
39	0x3ff00d98229b11b9	1.0033189155375182
40	0x3fefe323b4372ce5	0.9964769859156176
41	0x3fef97a2dfdf6909	0.987260281802521
42	0x3fef5e506cfe76ad	0.9802629593647986
43	0x3fef5de3c95486d3	0.9802111561040995
44	0x3ff0380c8f23de59	1.0136838523302656
45	0x3ff01a598ead564b	1.006433064777769
46	0x3fef6321712aaafe	0.9808509073530727
47	0x3ff06a80bc6ac1d9	1.026001678470598
48	0x3ff05aabac546cd8	1.0221363765365847
49	0x3ff0389d7e228b74	1.0138220717569455
50	0x3fef87c418717702	0.985322997799557
51	0x3fef3fee609a3adc	0.976554096867257
52	0x3ff049698d22db9b	1.017922927201403
53	0x3ff03e4b048bde5d	1.0152082612602478
54	0x3ff04d7cb6c14683	1.0189177645555965
55	0x3fee44ae22b03e53	0.9458838155278023
56	0x3ff02857ebc581dd	1.0098494729828567
57	0x3ff077c529419621	1.0292407619066426
58	0x3ff026b71895185b	1.0094519577264893
59	0x3fef95e558976c4e	0.9870478372862495
60	0x3fef9b030f00eac5	0.9876723568953244
61	0x3fefe4ace06c0c06	0.9966644652598695
62	0x3ff00459899ce020	1.0010619521617699
63	0x3ff048fb1d08e15a	1.0178176054160617

encoder.1.1.bias f8 [64]
0	0x3f9c898f5dbcef21	0.02786849984771245
1	0x3f8f482c5923d4bc	0.015274378271423188
2	0x3fa569b520f0692c	0.04182210948074991
3	0xbf93d81701dafad9	-0.019379004944080378
4	0xbfa94fd85e2396e9	-0.04943729542882897
5	0x3f80417622207b4f	0.007937357822866224
6	0xbfa9cfe40c03edde	-0.050414205996243786
7	0x3fa2d511f26ded89	0.03678184589713413
8	0xbfafa8bf4f142069	-0.06183431473078899
9	0xbfa327f9c073b870	-0.03741436456935865
10	0x3f9db6aad7c69a37	0.02901713315955076
11	0xbf90c97f2c96941d	-0.016393649193236926
12	0x3f95d27e9cb0ec58	0.02131078559271446
13	0xbf78a6ec906b790f	-0.006018566206618794
14	0x3f9d07e3bbbafb78	0.028350408871797822
15	0xbf80b0166f59e1c0	-0.008148360512891695
16	0xbf874158880e361c	-0.011355106021961929
17	0xbf8f56825d2cf024	-0.015301722019664572
18	0x3fa5dae9b6a7db64	0.04268579821284993
19	0x3f5945a713e3187e	0.0015424853914267895
20	0xbf792003bfb13aa6	-0.006134047168486012
21	0xbf999f654759db5d	-0.02502210853568997
22	0x3f6b2d342f419221	0.003317453311000543
23	0xbfa882e84ae174e0	-0.047873744145116026
24	0x3f9e884a2ec68f7f	0.029816779236753185
25	0xbfa9427e3df80254	-0.04933542734579946
26	0xbf9c33e080d13c67	-0.02754164491880964
27	0x3f71f156f1510e17	0.0043805500218385895
28	0xbf7fdbc42d354cef	-0.0077779448650574365
29	0xbf8c35a863b1ad6e	-0.01377421907655815
30	0xbf9bdb61221fe73a	-0.027204053600122104
31	0x3fa400b24a9a39ec	0.03906781349825281
32	0x3fa3adc8e55b8cc8	0.038435247419124574
33	0x3f9fa7b886ee97b2	0.030913241611095273
34	0xbf9ed34ef8e3db0f	-0.03010295290092829
35	0xbf97f91dd517aa57	-0.023411241656427908
36	0xbfa5483b5f51371a	-0.04156671083965886
37	0x3fa03d1f8d4e0fbd	0.031716333388458896
38	0xbfa0c7d2d4aa9bd1	-0.03277453275705223
39	0x3fa834e8997729b2	0.047278660520152185
40	0x3f9b1cc96a62661f	0.026477000349222842
41	0xbf899ab447a8ede1	-0.012502106129537562
42	0x3f5bed7e01885af2	0.0017045717742171754
43	0xbf8b326dc2292af4	-0.013279778945749034
44	0x3f972a3e533d65c2	0.022622083502346298
45	0x3f9f200d33b22e54	0.03039570453669989
46	0x3f68b6bdd4f28bba	0.003016825452122754
47	0x3f9f9a01e0150f55	0.030860928823371953
48	0x3fa82c2897d51802	0.047211903127887936
49	0xbf972948fe3f29ff	-0.022618427770604296
50	0xbf7ce45472d5f5d7	-0.0070536898396062675
51	0xbfa5432ceaa1268a	-0.0415281330502469
52	0xbf827e7a01783a2f	-0.00903029744133929
53	0x3f947e9592080c0f	0.020014130628634826
54	0xbf88e6ecdb1985cb	-0.012159204899208206
55	0xbfa25b520c517819	-0.035852970126811275
56	0x3f9b399f0a3a8c8d	0.026586995124159563
57	0xbfa4d8b4d4da654b	-0.04071583841614287
58	0xbf9f9e62db9cd0c9	-0.03087763276489922
59	0x3f8cb393be27aa30	0.014014391174858337
60	0xbf93d9e9d4976d9f	-0.019385961151653693
61	0xbf94defb90791864	-0.020381861393865455
62	0xbf98eaacaae791fd	-0.02433271210783693
63	0xbf983df1ea62af8a	-0.023673801356082026

encoder.1.1.running_mean f8 [64]
0	0xbff610b785d7bfea	-1.3790812710030829
1	0xbff111a313c59198	-1.0668059131940932
2	0xbfef6288b512e8c1	-0.9807780777548701
3	0x3fefe9da22455c47	0.9972963971475871
4	0x3fed7466ea06fead	0.9204592295499957
5	0xbfd5f3fa01d6edbe	-0.34301614932675395
6	0x3ff06ce9c4655d9b	1.0265901252476854
7	0xbff7bcea4d1032e9	-1.4836218843731166
8	0x3ff80eee4bf32a88	1.50364522617261
9	0xbfe98bbe3c69cb84	-0.7983084850260274
10	0xbff8d677314ec0a5	-1.552359764678877
11	0x3fe7c8c986617a19	0.7432601570724869
12	0xbffd788220cd5af6	-1.8419209748587355
13	0x3fdfa97c804f82bc	0.4947196248086063
14	0xbff1271b886522b9	-1.0720477416927408
15	0xbfc96e53a7203348	-0.19867940578878973
16	0xbfe5b4ba80529b8d	-0.6783115869810544
17	0xbff343ecf1773166	-1.2040833885431197
18	0xbff540ad28f02a7e	-1.3282901381632253
19	0x3fdf19975a3a384e	0.48593696414252896
20	0xbfe88c8c76da8d63	-0.7671568223344533
21	0x3fe7f8aef7b622bf	0.749106868564091
22	0xbfeca5d20fca108b	-0.8952417667756135
23	0x3fe3cd3f87f45359	0.6188047080382645
24	0xbfe0a454d3322666	-0.5200599789543048
25	0x3ff6e181ec0b9cb3	1.4300555439493052
26	0xbff042612968584d	-1.0162059419140121
27	0xbfd57bb2fd7f8f23	-0.33567499881449886
28	0xbfdc175b9616920f	-0.4389256444649456
29	0xbfec6629fe2f2507	-0.8874711956533766
30	0x3fd5935cacda0a60	0.337119263458737
31	0xbfed9e554264ff1b	-0.9255777642028734
32	0xbfe748641d63559a	-0.7275868009552824
33	0xbfecf5620077f396	-0.904953957476766
34	0xbfc576bfab273b7e	-0.16768642289249763
35	0x3fe15d59a977e084	0.5426452932288304
36	0x3fef762a47f32c5e	0.9831744580527688
37	0xbff043fc2f2d1e1f	-1.0165979235479268
38	0x3fec402776487a5b	0.882831316968644
39	0xbfb60988b78f7277	-0.08608297807172414
40	0xbfce86b11f2c2299	-0.23848547002878176
41	0xbff0e677dd650eab	-1.0562666557533855
42	0xbfe2761ae909a0f7	-0.5769171287074916
43	0xbff051130831e835	-1.0197935409655774
44	0xbfe57877d79d81cb	-0.6709555827365475
45	0xbff7073995821ddb	-1.4392639007727357
46	0xbfd58d337a82e607	-0.3367432304763444
47	0xbfe2665e3c37e507	-0.5749961067332671
48	0xbfdb4f4a8d61ba48	-0.4267145519906177
49	0x3fed7cc1cd09807e	0.9214791302329244
50	0xbfdf32ad20e18f01	-0.4874680348495844
51	0x3fe280adeee26772	0.5782079377852212
52	0xbfe0824e211d2de2	-0.5159063956029366
53	0xbfe85ea49813d9cb	-0.7615530939354412
54	0xbfef88e69aed29f8	-0.9854615236193345
55	0xbff4a581813e8b46	-1.2904067085844004
56	0xbffacb9c2c35acf3	-1.674709484762215
57	0x3fe0515284a3f597	0.5099270430215935
58	0x3ff514e9c704552a	1.3176057600115407
59	0xbfe2649f7b2d8ddc	-0.5747830777949576
60	0xbfb3133628c18594	-0.07451189513223816
61	0x3ff8052772921f73	1.5012583232328012
62	0x3fda868becf54e81	0.41446207180454314
63	0x3fdd954ea012195c	0.46223798400787586

encoder.1.1.running_var f8 [64]
0	0x3fea6b34a8ffb92f	0.8255866337547441
1	0x3ff40356d88f15a7	1.25081524461107
2	0x400fffa75d6c7c29	3.9998309420330043
3	0x3ff6f44d1eb99f3f	1.4346438598822286
4	0x3fe095944bc2ad9d	0.5182591895767704
5	0x3ff0e2ff67c35b4a	1.055419354748397
6	0x3febb399407a1caf	0.8656736621204767
7	0x4000f86ddb5dc98f	2.121303285407698
8	0x3ff0b39a1eaa5e44	1.0438481519576195
9	0x4002af6acbbeb0e8	2.335652915722779
10	0x3ff2ea711809fd3f	1.1822367610000837
11	0x3fdac392efc82eec	0.4181868878956567
12	0x4001bb5c34d51509	2.216484463455917
13	0x3ff15a2cc3aa34c8	1.084515346828356
14	0x3ffebffe4bf3fe84	1.9218733755987225
15	0x3fd54e3f653dbd76	0.33290085684617254
16	0x3ff5b7c408a542cc	1.357364686748201
17	0x400c7b3c43659720	3.5601735368135365
18	0x3feba9a157082e48	0.8644568157046217
19	0x3fecf2be8dac0fc9	0.904631878569938
20	0x3fdff1d39cf3b58d	0.4991349251493709
21	0x3fe54381ce318396	0.6644906069960708
22	0x3fe4b8234059f50d	0.6474777466643516
23	0x3fd3ace5abab58bc	0.3074278046091299
24	0x4004d548c27f31b4	2.6041426844660354
25	0x3ff249436138d67d	1.1428865239844577
26	0x3ff290154224df41	1.1601765235663637
27	0x3ff797e4fbc69016	1.474583610056475
28	0x3fe42b4986102dd4	0.6302840822622167
29	0x3ff00ad4b3603e16	1.0026442534325546
30	0x3fd398a74b082cd6	0.30619222953164404
31	0x3ffe16b911f3f895	1.8805475903787159
32	0x3ff97ea0b43080fd	1.5934149778987028
33	0x3ff6bf530223b38a	1.421710022313365
34	0x3fe163c48bec0b33	0.5434286816456279
35	0x3fe6c9c7a3c6bc80	0.7121313284641388
36	0x3fe335e7149ebb0b	0.6003299143538653
37	0x40023e137d4a734c	2.2803106106133892
38	0x3fe2d10b287d293c	0.5880180159377129
39	0x3fe9267610edee4f	0.7859449701931654
40	0x3fff7f00dce87fc5	1.9685066823221729
41	0x3fe14a200b3029a3	0.5402984827535885
42	0x3ff1b42fcab734f4	1.106490890367522
43	0x3fec999adc41662b	0.8937506009926371
44	0x3febb05fbd23c5ea	0.8652800268302461
45	0x3ff386be3568b9e6	1.2203962408344693
46	0x3fe39db3379b137f	0.6130004964876291
47	0x3ffdd46a574a3a88	1.8643592271579639
48	0x3ff2fe2b94f3d3a7	1.187053281636716
49	0x3fde0422f64b5636	0.46900247623611635
50	0x3fe90983ed1ede46	0.7824115401517211
51	0x3fdc86065698eb68	0.44568022209903413
52	0x3fe4d153bdacb6f4	0.6505526260932286
53	0x3fe335e745465082	0.6003300049801654
54	0x4003e630fe0ca8fc	2.487398133050304
55	0x3ff049fd4899728b	1.0180638156809063
56	0x3ff8afdfd169c078	1.5429380588721227
57	0x3fda1429cf4f9e41	0.40748067136016536
58	0x3ff3aa6dfa688349	1.2291087895939248
59	0x3ff345465d71aea4	1.2044128084334398
60	0x3fdf08c9cea02e70	0.4849113958195863
61	0x3fdd32f9ff78052a	0.45623636196258366
62	0x3fe08fa672539997	0.5175354226055785
63	0x3fe13680a23fc267	0.5379031342436748
