models/matching_nets/AWF_n=1_k=5_q=15_nv=3_kv=3_qv=1_dist=cosine_fce=None.pth (torch, 316367 bytes, 24 tensors)

encoder.0.0.weight f8 [64, 1, 3]
000000 36 37 83 71 ea 52 b8 3f 1c 69 ff 84 16 2e e0 bf
       0.09501519461920513 -0.5056259725199967
000010 f6 6e 41 54 96 e7 c0 3f 73 94 97 bb c2 9e ae bf
       0.1320674811748785 -0.05980499782507644
000020 e6 c9 73 1e d9 cc aa bf 06 3a cd b5 60 11 df bf
       -0.052344117133447374 -0.48543565515584
000030 9f 9b 33 da bc c8 e0 bf 1e 68 fb 61 f7 6a d4 3f
       -0.5245041143178816 0.3190287072044401
000040 6d 98 6f 15 87 f4 d4 3f 6c 57 8c 5c 34 b2 ca 3f
       0.3274247845969345 0.20856337088542476
000050 fe d4 22 e1 9a cf 8e bf 61 64 58 7e 82 55 de 3f
       -0.015044412608725907 0.4739691003647462
000060 e0 7e be d1 49 c1 e1 bf 21 d7 49 a2 59 06 e1 bf
       -0.554844770103923 -0.5320251626678535
000070 9f a3 cb a9 f8 40 d0 3f 4e 64 65 34 48 1a a6 bf
       0.2539655359419672 -0.04316926612472881
000080 9d 04 57 b0 f9 6a ac 3f 94 20 82 42 98 30 d1 bf
       0.05550365712725489 -0.26859098906471357
000090 6d b4 64 81 49 c9 de 3f 91 aa 48 44 60 6d d0 3f
       0.4810355914694984 0.2566757838091372
0000a0 b7 4f 03 32 4c c7 e0 3f 68 73 09 99 99 e4 d6 3f
       0.5243283249678744 0.3577026361943383
0000b0 cf f2 73 b2 a4 08 e1 bf 30 ca ad 87 7d 61 d8 bf
       -0.532305096188418 -0.38095033883942886
0000c0 ae 4c 0d 21 08 72 df 3f 1c 7d af 8c 45 75 c6 3f
       0.4913349459431612 0.17545384759339633
0000d0 a7 3d 4b dd 04 e9 ba 3f a6 fb 05 5b d6 39 8a bf
       0.10511808779414498 -0.012805628445446814
0000e0 79 fc 15 e4 5a 91 b0 bf 58 f5 e8 26 ee 5d dc 3f
       -0.06471794193747539 0.44323304939083163
0000f0 97 90 24 b5 30 e6 d7 3f 3f e7 13 bd 21 01 c3 3f
       0.37342469873170486 0.14847203953086738
000100 8a 1f aa f3 3a d7 dc bf c0 3d 83 9f 1f 1a cd bf
       -0.4506366138016281 -0.22735972679809713
000110 fb 0c 87 77 cd d6 d4 bf 1c c5 57 b3 68 fb c0 3f
       -0.3256105105649138 0.13267239338851133
000120 08 be ca 3b 93 af cc 3f 6c be 94 4a 96 42 d4 3f
       0.22410812778024103 0.3165641525583627
000130 f7 6e 01 43 da c6 b5 3f 6a b0 19 66 85 0b c0 bf
       0.08506549964789288 -0.1253515957390648
000140 ff 9d 0e f1 43 ab e0 3f 7f f0 2d a9 b5 16 b9 3f
       0.5209064205309345 0.0980027711902398
000150 a8 28 6e 4a 7a f2 dd 3f b5 0f ef b8 c2 f8 e0 bf
       0.46792466419777634 -0.5303662883747992
000160 16 23 a2 bb 87 87 df bf 10 21 64 9a 82 24 cc 3f
       -0.49264710734910133 0.2198642019141137
000170 f2 e5 34 4e 0f 32 e1 3f eb 3b de b8 fc 67 a9 bf
       0.5373608138535799 -0.04962148434344001
000180 4c 27 2c b9 fa 60 b7 3f 3e a4 2e af 00 35 d2 bf
       0.0913235380250203 -0.2844850264323816
000190 06 e4 ed 7b d4 46 d5 3f ef d7 51 4a 59 a4 c1 3f
       0.3324481210943876 0.13782802704707772
0001a0 60 35 ff 03 4c 43 95 3f 62 21 b9 6e 45 90 7a bf
       0.020764529937698284 -0.006485244007827214
0001b0 5f ee fe d5 63 45 da 3f e5 30 6e 69 be 3b c7 bf
       0.4104852285197235 -0.18151073596926107
0001c0 13 35 dc 21 03 73 af 3f 3d 8c 92 f5 6e 54 cc 3f
       0.06142434871990523 0.22132670393793488
0001d0 1b ab 6f f6 77 49 c8 3f 8b 96 cb a0 21 a1 d3 bf
       0.18974208386438182 -0.30670967772162133
0001e0 07 d0 6a 82 26 27 d8 3f c3 89 12 2d 17 0a a9 3f
       0.37738955246027256 0.048905109645847065
0001f0 73 53 5d 24 18 fa a3 bf df d4 67 41 9f 58 e1 3f
       -0.03901744312194113 0.5420681264355628
000200 7a 02 59 8b 4d 84 d2 3f 77 46 22 15 ec 80 dc 3f
       0.289325128633244 0.4453687864671347
000210 84 b4 f6 7b 63 81 c1 bf 72 80 19 84 4a 5b d1 3f
       -0.1367611270228829 0.27119696522095815
000220 b6 ca 49 7a cf 49 d1 bf 35 c5 bd 99 11 b3 d7 bf
       -0.2701300329419313 -0.3703044892673291
000230 b5 ca 95 45 0f 75 e1 3f 87 b3 04 e8 3f 47 c2 bf
       0.5455395087322673 -0.14279936627408693
000240 8c 5a e6 54 71 8b d7 bf 90 c7 75 21 ae 71 c3 3f
       -0.3678859070873066 0.15190674432556905
000250 08 f2 b2 01 f4 7a cc 3f 41 7e 4e b2 e9 57 c8 3f
       0.22250223238906153 0.19018288809182773
000260 32 f3 cc 2a b2 92 de 3f e1 37 9a 5b 41 5a c8 3f
       0.4777036111807319 0.19025437329076936
000270 04 39 00 b1 4b fa cf bf 44 0a e0 22 f0 b2 d3 bf
       -0.24982591765041928 -0.30779651075150505
000280 9b 08 d2 26 18 1f d3 bf 99 8d 9a 97 a5 f1 d9 bf
       -0.2987728480440041 -0.4053739529137715
000290 15 8b 6b a9 ba 1a c8 bf 21 8f 05 cd d7 45 d0 bf
       -0.1883157088514841 -0.2542628767171085
0002a0 30 ff b2 ea b8 e3 e3 3f 00 77 bb 41 52 b0 df 3f
       0.6215481361359476 0.4951367990414468
0002b0 51 ea d4 06 6f 31 b2 bf d3 4f a0 2a 0e 57 b3 bf
       -0.07106679837026177 -0.07554710903815413
0002c0 5d 4f d2 12 8f 29 e1 3f 83 9e eb ad d5 35 dd bf
       0.5363231055839425 -0.45641080841458165
0002d0 91 f7 8f 68 bd db cf 3f 15 1f fc ae 7c 98 db bf
       0.24889342885574853 -0.43118207062114894
0002e0 e1 b0 ae 8f 61 7c c0 bf 25 59 5d 56 95 ac 94 3f
       -0.12879580989591147 0.02018960322978915
0002f0 ae 35 01 44 d6 43 bc bf d7 fa d2 93 d8 fc e2 bf
       -0.1104101100947534 -0.5933649909200892
000300 63 a4 5f b0 fc 25 dc bf c7 96 8b ce f4 38 b0 3f
       -0.4398185465239008 0.06336908381089322
000310 c6 db 9a 48 6d a4 c8 bf df c5 f8 3b ce f7 43 3f
       -0.19251791043435967 0.0006093747142072412
000320 28 1c 24 15 c3 e1 cc 3f 63 cd 65 a6 37 66 c4 3f
       0.22563971073415812 0.15936942696462628
000330 01 1f f4 87 44 0b dd bf 7b 9e 4b 12 f7 ec de 3f
       -0.4538127257987839 0.483213203302945
000340 6b 15 df d2 18 ed de 3f f5 4f 4d f6 e8 27 c4 3f
       0.48322125046646275 0.15746795679535777
000350 3a a9 58 b1 ed 5a d0 bf 63 e7 8e 89 3a 66 df 3f
       -0.25554983443238977 0.4906145423261618
000360 2b 3b 0d 34 fc c6 e2 3f 8b 43 f7 48 66 7f c2 3f
       0.586790181792684 0.14451292574679217
000370 83 ff 38 5f eb 97 df bf 63 a3 28 b9 a5 30 dd 3f
       -0.4936474256428413 0.4560941990080691
000380 21 53 2c c7 e3 2f df bf f9 1f 86 57 5c 25 df bf
       -0.4872979588556508 -0.48665531680353485
000390 25 1f 29 f1 72 3e d4 bf 24 c5 5e 1e e2 47 e0 3f
       -0.3163115840038578 0.5087748139541515
0003a0 84 f4 a3 90 e5 09 ce 3f 97 79 31 9d cc 4a d4 bf
       0.23467702448389016 -0.3170653853502698
0003b0 01 cf 81 89 85 aa d7 3f b7 c9 4b 27 af 94 e1 bf
       0.3697828142969542 -0.5493999259472763
0003c0 d6 3c 18 f1 96 f6 c3 3f 8e ef 75 bc 1b 1a b1 3f
       0.15596281788064087 0.06680463172045689
0003d0 fd e6 7f 1c 85 7b e1 bf c9 d0 cc ab 0b 2b dd 3f
       -0.5463281208642169 0.45575229432439507
0003e0 42 8e 53 bc 9f 1b ca 3f 0a cd 9d 9c ef 36 e1 3f
       0.2039680165827225 0.5379560526766067
0003f0 2d 99 52 70 0a 9d d3 3f 6c 7d c6 51 ad 3b c0 bf
       0.3064600083256604 -0.12682119839608264
000400 82 4a e2 ab 6a c2 d5 3f 84 41 cc 4f 3a 19 d3 3f
       0.33999125276128705 0.2984147815014
000410 95 c9 57 09 6e 08 c6 bf 44 de f9 26 77 dd d9 bf
       -0.17213225799748658 -0.40414217764143623
000420 28 43 d2 4e 2c 77 dd bf 08 39 c1 d0 b1 3f b8 bf
       -0.4603987474193212 -0.09472190233757172
000430 fb 8b 0e 87 a9 40 b2 bf ab 9e bd 04 cb 2e d6 3f
       -0.07129916713033417 0.3466060205741807
000440 6d a4 78 1b 3b 6d d0 3f 97 d4 8f 08 16 5e e2 3f
       0.2566669243120206 0.5739851157401458
000450 60 32 58 9d 80 91 d2 bf c3 7e 9e 38 6d c9 d0 3f
       -0.2901307617728772 0.2622941067620383
000460 2a 8e 5e d1 f4 c3 e3 bf 9d c8 ec ec 1a 6b dd bf
       -0.6176704491849183 -0.45966218125534813
000470 2a 88 92 d2 bd f2 e0 bf ad 8b 1a 30 2a 24 e1 bf
       -0.5296315300695416 -0.5356646480107564
000480 e7 89 7c 3f 29 54 a7 bf d6 39 bd 8e a7 10 c2 bf
       -0.045563973426641806 -0.14113325566945772
000490 2c f8 35 e6 98 89 93 3f 57 40 dc 7b dd 64 db bf
       0.019079579401925326 -0.4280313214849278
0004a0 bc ab 97 72 3f d9 9b 3f ab 04 d7 e5 c8 2d db 3f
       0.027195922249955137 0.4246694798021717
0004b0 4e e4 98 7d 66 44 de bf 40 99 df f4 f3 ad dd bf
       -0.47292482629160737 -0.463742245802127
0004c0 b5 77 5d 30 58 40 c7 3f 26 ea 30 b1 5c 27 d9 bf
       0.18165113793923884 -0.3930274706250735
0004d0 43 0e 73 14 5b 8b d5 bf 17 1b 44 c9 76 89 d6 bf
       -0.33663060185446997 -0.352140137242189
0004e0 d0 a0 82 f2 f9 8f e0 bf 01 f3 d8 03 e4 35 e0 bf
       -0.5175752388504637 -0.5065784526010192
0004f0 75 bd 07 23 03 3c d6 3f bb e7 1b 52 9f e0 c1 bf
       0.3474128572551856 -0.1396674300120234
000500 52 65 98 a1 11 d0 e1 bf 86 05 94 6e 07 20 c1 bf
       -0.5566490322263837 -0.13378994845701814
000510 2d 4d 53 ef 96 85 b0 3f 95 1f e4 80 5f ce d2 3f
       0.06453841536431489 0.2938460119917122
000520 a1 88 7a 75 e7 43 93 bf 60 1e 20 92 73 5a d4 bf
       -0.01881372122318992 -0.31802071828903955
000530 a7 6b 3d fd c0 62 d8 3f 3e 3c 05 89 99 5d bd bf
       0.3810274575277454 -0.11470946879602281
000540 de 2c d9 92 c3 c2 dd 3f 57 7c a8 24 2f 57 d6 bf
       0.4650124486985997 -0.3490712984075279
000550 7c e2 ec c1 f1 1c b1 3f d1 6a 6d 1c 34 79 db bf
       0.06684790596490048 -0.429272678147453
000560 fe 90 d1 e3 27 62 c5 bf de 39 16 e9 72 9a e1 3f
       -0.16705797790485372 0.5501036217190707
000570 cc 48 a2 c8 fa 21 e1 3f ba 32 80 5a 86 1b c6 3f
       0.5353979033118548 0.17271499079688174
000580 61 98 e2 12 f6 c0 de bf aa c3 98 40 4a f5 d7 3f
       -0.480527418558614 0.3743463164165016
000590 77 95 d0 c8 e9 9c 80 bf a2 64 91 dc 5c 4e d8 bf
       -0.008111788216477163 -0.37978288211668076
0005a0 88 95 70 96 36 46 d3 3f 3c 44 43 c4 1e 4f d3 bf
       0.30116047564873627 -0.3017041126850619
0005b0 0a d8 db 98 63 c6 b8 3f a6 93 4f ee db 4f ce 3f
       0.09677717668441246 0.23681210647842227
0005c0 45 84 9b c4 9c 44 db 3f a2 6c f6 8e 85 2e e3 3f
       0.42606276702833085 0.5994289200056253
0005d0 7a 0b 60 e8 5c b7 ba bf 28 9c 00 09 60 22 b5 bf
       -0.10436039612981843 -0.08255577297005401
0005e0 12 d6 71 09 7d 87 d7 3f 27 dc 3a 17 a7 8c e1 3f
       0.3676445572121746 0.548419518824521
0005f0 c5 91 7c 0f a4 49 dd bf 88 4b 03 f2 12 99 e0 bf
       -0.45761968147624216 -0.5186857916654484

encoder.0.0.bias f8 [64]
000000 75 48 1f 00 3e 5a cd 3f 7d 79 6f 00 98 21 9d 3f
       0.22931647306410566 0.02844846251161347
000010 05 6c d9 7f cf 8b c3 3f c9 77 f2 ff b6 d1 cf 3f
       0.15270417921678373 0.24858748910349807
000020 43 cc 03 00 3a 40 bd 3f 07 8d 66 40 0f b8 c3 bf
       0.11426126957285114 -0.15405455250320463
000030 ba 11 09 c0 70 a8 d5 3f 82 44 21 40 97 1c cd bf
       0.3384057879777874 -0.22743502265305798
000040 20 21 06 80 52 e7 d5 3f b9 17 c3 3f b7 fa ce bf
       0.3422437906488245 -0.2420262395227704
000050 75 58 04 40 e8 61 dd bf 50 97 ec fe fb 0f aa 3f
       -0.4591007828870553 0.050903200977968965
000060 b7 7c 0a 80 87 d4 c7 3f 24 02 80 00 d0 71 88 bf
       0.18617337944031018 -0.011935830130824839
000070 88 26 12 e0 5a b7 d0 bf f0 c8 e6 ff 19 ef cf 3f
       -0.26119109994815704 0.24948430056753734
000080 76 42 be 7f f0 be e0 bf 43 95 b8 04 24 55 94 3f
       -0.5233080382332236 0.019856035984181074
000090 8b f4 c4 fa df dd 7a bf 60 37 00 80 ad 09 d7 3f
       -0.006559252662836755 0.35996568203051105
0000a0 af 72 ff 3f 28 4a df bf 90 5a f6 bf aa be d0 3f
       -0.4889011979083006 0.2616373896247888
0000b0 b7 e1 cf 7f 29 b3 c6 3f 77 e9 44 00 f6 8b c5 3f
       0.17734259358236468 0.16833376896995464
0000c0 97 61 fa 5f 6f 53 e0 bf ed ff f4 ff 23 ff cb bf
       -0.5101849436351128 -0.21872377393628942
0000d0 46 96 10 c0 af 18 d7 3f f9 6f ca fe bf c1 77 3f
       0.3608817458756203 0.005800008756207114
0000e0 fe 50 ee ff 9b 6b bb 3f ae 2e 01 00 d7 5c c9 3f
       0.1071107387381893 0.1981457471869041
0000f0 d5 c5 27 08 20 fb 68 bf 25 54 02 80 38 5c e2 3f
       -0.003049433290691831 0.5737574100663819
000100 ce 0c e0 7f 1a 8d cc 3f 8d 3c 07 c0 2d de e1 bf
       0.22305613750368142 -0.5583714247276405
000110 93 61 02 60 6f be e0 bf f7 51 06 80 95 3d de 3f
       -0.52324646713082 0.47250878813181835
000120 d9 2a 2d 00 3c d9 b8 3f ef f4 f0 7f d8 23 e1 bf
       0.09706473354632851 -0.5356256960727971
000130 2c e1 d3 3f fe f1 cc bf 4c 65 22 00 00 f4 9e 3f
       -0.2261350452097387 0.030227661140633175
000140 b8 b3 e6 3f cb d2 ca bf 3f 88 fe 7f 76 0f e1 bf
       -0.20955792064833445 -0.5331375598800675
000150 31 81 32 20 44 ca d1 bf 0a f2 1b 60 7c f9 da bf
       -0.27797034401193615 -0.42147740731869077
000160 4d b5 3b 01 28 02 82 bf 20 25 03 c0 fc ce e1 3f
       -0.00879317525638137 0.5565170049896189
000170 23 ef fd 3f bf 33 d9 bf 99 32 07 80 59 02 c0 3f
       -0.3937833905144876 0.12507170440075724
000180 c7 6f 8a 00 88 d5 a4 bf bd f3 3a 00 b0 ea ba 3f
       -0.04069161421395467 0.1051435471117221
000190 63 b4 f8 df 0d 75 de bf 17 c0 04 00 10 00 dd bf
       -0.47589442131249465 -0.4531288147145473
0001a0 fd a4 fc 5f a1 f8 e1 bf e0 e0 fa 7f 98 3e d7 3f
       -0.5616003870719904 0.3631955385021808
0001b0 83 7b ce 7f 2a fc d5 bf 4e 84 06 e0 bd 3b e0 bf
       -0.3435159919844681 -0.5072926879403299
0001c0 d7 f4 df 7f e4 04 ce 3f 61 a5 05 80 d6 2e d2 bf
       0.2345243095768754 -0.28410875799325735
0001d0 ac 30 f0 ff 69 bc b3 3f f7 06 d3 ff f2 a8 c6 bf
       0.0770937204217172 -0.1770309209005558
0001e0 87 ed 17 40 d3 43 e1 3f fd 51 00 80 ef 0f e0 3f
       0.5395294429612684 0.5019452571892199
0001f0 e6 9c fd 7f 54 e0 c0 3f e9 94 18 00 27 05 b3 bf
       0.1318460106806249 -0.07429736854881565

encoder.0.1.weight f8 [64]
000000 eb 76 e3 01 fb 8c ef 3f f9 78 c3 5a 79 e2 ee 3f
       0.9859595333943764 0.965145756981456
000010 e4 d5 ad 4d 3f 12 f0 3f 3f 12 2c d3 ce 76 f0 3f
       1.0044549021089262 1.029005837336754
000020 e1 bf 9d 48 7a 49 f0 3f 80 a8 7a 11 dd fe ef 3f
       1.0179388844080608 0.9998612729443863
000030 d7 79 90 16 2c 24 f0 3f 5d 4d 5d b9 3a 2c f0 3f
       1.00883110822871 1.0107981911467825
000040 41 54 37 2c 83 96 ef 3f 79 0c 64 30 67 54 f0 3f
       0.9871230949016835 1.0206062212244247
000050 c1 04 92 42 50 d2 ee 3f 8f c8 7d cd 17 a5 f0 3f
       0.963173036594661 1.0403059031491784
000060 ef 36 4b 91 d6 65 ef 3f 21 81 c9 3e 45 f4 ee 3f
       0.9811814153451602 0.9673181749640528
000070 99 99 ac ff fa c0 ef 3f 0a cc cd c3 5b 0c f0 3f
       0.992307185519894 1.003017201289142
000080 85 66 18 18 6e ed f0 3f 2d 37 9b e1 a6 a2 ef 3f
       1.0579663220618454 0.9886049658177619
000090 d5 66 58 4a f6 ac f0 3f b6 55 3e 65 52 a9 ee 3f
       1.0422270683397319 0.9581691720401782
0000a0 01 42 2e 25 cd 1e f0 3f 83 d0 0a be 33 8a ef 3f
       1.0075198604937443 0.9856203758013325
0000b0 28 d9 bb f0 f7 60 ef 3f 14 fb 74 65 cb 0e ef 3f
       0.980586977179688 0.9705559712964225
0000c0 e7 85 64 53 09 69 f0 3f fc 78 b8 91 7d 1a f0 3f
       1.0256436593557454 1.0064674083910736
0000d0 8f 7c d7 e6 e0 0e f0 3f 68 07 2a 25 3e fc ef 3f
       1.0036324517493858 0.9995413518774798
0000e0 97 58 1d 41 2b 16 ef 3f 2d 8a d3 a3 3e f0 ee 3f
       0.9714561721582581 0.9668267440541222
0000f0 6b 42 39 e9 39 9d ef 3f 64 a8 81 06 fa 14 f0 3f
       0.9879426531934546 1.0051212553176123
000100 7c 78 72 8f 92 63 ef 3f 81 82 9c 0c 78 b3 ef 3f
       0.9809048463537375 0.9906578298869847
000110 a3 3b 73 27 fa 6b ef 3f 14 b2 83 b8 12 9c f0 3f
       0.9819308062086417 1.0381037910075337
000120 04 cd 52 ed d9 7a ef 3f 0a 97 90 2c d8 4f f0 3f
       0.9837464938376859 1.0194932690441783
000130 87 68 e0 e0 cd 1a ef 3f 4b d4 ba 65 ca 90 ef 3f
       0.9720219986077304 0.986424635592479
000140 da 51 af de b7 8c ee 3f d3 09 64 a2 fc 35 f0 3f
       0.9546775197327932 1.0131803840055127
000150 77 4c 72 ec a3 28 f1 3f 1f 9e 65 53 fe 36 f0 3f
       1.0724219547453495 1.0134261377041935
000160 30 4c 6e 07 ad 04 f0 3f 13 3f 4e 47 32 cf ef 3f
       1.0011415758388118 0.9940425293625331
000170 73 d8 dd d7 3f 81 ef 3f a5 f4 4e 05 e2 68 f0 3f
       0.9845275131363124 1.0256061751709151
000180 82 fc e3 e3 9d 62 f0 3f a6 a4 f3 9f 63 09 f0 3f
       1.0240763570762117 1.0022922752489563
000190 ae b4 72 ad 67 b2 ef 3f 23 c9 85 4e aa 24 f0 3f
       0.9905279529245001 1.0089514796532704
0001a0 14 d2 89 a2 6c 54 f0 3f 0e 5a e9 09 48 18 f0 3f
       1.0206114148287542 1.0059280764741092
0001b0 c6 62 23 2d 9f 80 ef 3f dc 0c d5 21 95 67 ef 3f
       0.9844509011846518 0.9813943539415066
0001c0 33 ab b1 d8 a2 f9 ef 3f 41 79 bf b2 b2 73 f0 3f
       0.9992231590561914 1.0282465917913017
0001d0 24 16 e1 d3 c6 4d ef 3f 30 cf cf 66 ce 0d ef 3f
       0.9782442224756704 0.9704353340189069
0001e0 1b 67 f0 6d e4 0d f0 3f 42 20 09 b2 de 12 f0 3f
       1.0033916754241037 1.0046069101827162
0001f0 a4 19 b0 8f 21 2a f0 3f fc 11 2f b0 cb 1e f0 3f
       1.0102859127815487 1.0075184709722853

encoder.0.1.bias f8 [64]
000000 52 ac 8b e1 8d fd 8d 3f 9b 88 af 68 f5 52 95 bf
       0.014643772550206578 -0.0208242745537822
000010 60 76 01 18 32 07 89 bf 4b f4 29 93 82 d2 6c 3f
       -0.01222075591811772 0.0035183477678502376
000020 56 28 06 7d 9e 32 93 3f 02 6c a9 4b 33 5b 86 3f
       0.01874778402410756 0.010916138407244706
000030 15 e0 d5 93 45 16 76 bf dd e5 68 bc d1 50 a3 3f
       -0.005392333781280474 0.037725977181661575
000040 75 af 7e 57 aa 61 8c bf 9b 47 9e 76 ff ca 84 3f
       -0.01385815696252 0.010152812774126654
000050 98 5c 3f 1e 29 b0 79 bf b8 3f 1d 4b 9d 52 9a 3f
       -0.006271515481748889 0.025705774030313683
000060 0d d9 17 60 38 2d 8f bf 52 df c5 63 aa d1 a0 bf
       -0.015222969467668901 -0.032849621466935944
000070 a2 50 dd 82 04 7d 7b bf c0 c1 39 fe bf bf 84 3f
       -0.0067110229700412544 0.010131359048700328
000080 41 86 5e 4d fa 37 91 3f cb 92 54 f9 29 5d 7a bf
       0.016815100643390094 -0.006436504326562352
000090 90 bb ba 0e 41 0e 97 bf 0b c1 d6 6b bb a4 9a bf
       -0.022515312694561695 -0.02601902814575489
0000a0 32 c0 25 eb 63 e1 81 bf 8b b9 e3 4b dd bb 97 3f
       -0.00873067914355383 0.023177583462648903
0000b0 82 9a ba 2a 23 9f 85 bf 3b 2a 15 89 55 c3 90 bf
       -0.010557436696513326 -0.016370140544760253
0000c0 b1 3d ca aa 92 b8 a0 bf c5 44 c1 bc 6e 10 70 bf
       -0.032658179615391865 -0.0039219213177414435
0000d0 57 8e 29 fd ba a0 61 3f 07 79 74 8b 9d c7 68 bf
       0.0021518375518086263 -0.0030248715444393145
0000e0 92 07 18 3e a3 63 86 bf 56 0e 5f 6e ab e6 9b 3f
       -0.01093223126645507 0.02724712239411383
0000f0 95 0f df 77 ac b2 99 3f 62 8c d1 46 ad 8c 9f 3f
       0.02509564859043641 0.030810077140256083
000100 99 3e 54 a6 94 cb 7b bf f7 b8 c7 2c 6e 80 5f 3f
       -0.006785946524601316 0.001922710030267503
000110 d0 e4 7c 6d e1 7c 92 bf 46 be 70 8b 4c 5f 7f 3f
       -0.018054506595238717 0.007659243586246206
000120 7b ca c3 66 de b3 8f bf 4d e6 55 13 c0 8e 92 3f
       -0.015479791175015514 0.018122674160144837
000130 19 3c 97 43 95 5f a0 bf 12 8c 8e f7 97 8a 55 bf
       -0.031979240895104684 -0.0013147815754812647
000140 55 bc f6 4e ef ed 8c bf cf 34 03 d8 40 95 4c bf
       -0.014125699612888601 -0.0008722845668899473
000150 ae 27 4f 3f ad 7d 6a bf 90 09 c4 39 d5 b7 a1 3f
       -0.0032337554680212576 0.03460565881870814
000160 46 56 03 bc 72 82 83 3f 27 b7 7c 97 f1 6d a0 3f
       0.009526153910353174 0.032088803999029296
000170 bc 90 f9 9c af 46 a0 3f 85 15 f0 f5 e8 26 91 3f
       0.03178929129788474 0.016749992380956442
000180 ee 11 22 f8 17 18 a6 3f 14 50 38 c6 ff 6c 95 bf
       0.04315256980865799 -0.02092361113871284
000190 d7 f3 4f a5 42 86 83 3f 78 59 8f 03 b8 93 92 3f
       0.009533425016337844 0.018141627518923426
0001a0 7c d7 92 b8 42 65 8f bf 12 14 5e 08 5f 86 92 3f
       -0.015329858072032236 0.018090710530959404
0001b0 ee 8b 9a e9 b7 30 80 3f f8 48 0d 65 ec 2e 69 3f
       0.007905422989386648 0.0030741326412818647
0001c0 fe c6 c2 d2 ec a7 78 3f 48 0a 5a 28 81 59 91 bf
       0.006019520846324287 -0.01694299515521383
0001d0 05 fe 5a e7 cb f5 7f bf 6a 98 84 6c 09 08 87 bf
       -0.007802769183114848 -0.01124579775257591
0001e0 0e 7d cd 1c fc 38 56 3f 97 78 d5 0f fd 09 96 3f
       0.0013563596760020643 0.02152247819082528
0001f0 73 dc b0 06 67 08 80 bf 95 84 91 5e e0 12 9f 3f
       -0.007828526393593748 0.030345445415495737

encoder.0.1.running_mean f8 [64]
000000 31 52 d8 b1 17 d7 c3 3f f2 a6 45 4e 31 13 c1 bf
       0.15500160392606824 -0.13339821168783988
000010 45 e1 36 b3 c1 c5 c7 3f 22 28 f7 ef 9b 81 db 3f
       0.1857225537367048 0.42978571352125716
000020 a7 ca b6 99 2f 9a bc bf 87 41 c2 47 a8 ca cc bf
       -0.11172769072326592 -0.22493461135719547
000030 bf ac 7a 3f 93 c7 e5 3f 0d 7a f6 c3 4c 29 d8 bf
       0.6806122054889768 -0.377520743722841
000040 a2 e7 82 60 3d a4 e1 3f d0 94 86 50 99 44 c2 bf
       0.5512987980830426 -0.1427184718315062
000050 3a 41 58 8f 73 24 dc bf 4f 85 ca 13 d9 0e b0 bf
       -0.4397248172617939 -0.06272656186276503
000060 77 6b 93 0d b2 c0 d6 3f d8 ac 1f 78 06 63 bf 3f
       0.3555112011505836 0.12260475571354179
000070 5b c8 69 ba e4 55 da bf 51 b1 b5 65 3b 3d dc 3f
       -0.41149252132811903 0.441237305951991
000080 a5 22 cb 9f 37 1c df bf 68 59 21 0c 31 7b ae 3f
       -0.486097246216142 0.05953362725329009
000090 1a 26 cc f3 95 8b b2 3f 43 30 73 fe dd d6 d8 3f
       0.07244240953527772 0.3881144509184688
0000a0 16 5a 36 38 df a3 d8 bf 72 72 a2 fc e1 71 e3 3f
       -0.3850019501636849 0.6076517042416312
0000b0 d5 64 94 51 dc 0e c2 3f 6b 40 b2 93 d3 aa c6 3f
       0.14107851012594233 0.17708821021779228
0000c0 c6 07 4b 3a d6 4a e0 bf 1e 73 a3 c6 3d 5a 8c 3f
       -0.5091353548561919 0.013843996643510045
0000d0 cd bc 3d ab 50 73 c0 3f 80 5c 77 25 62 a8 cc bf
       0.12851913796791906 -0.2238886530819606
0000e0 c6 a5 8d 40 c1 f3 d8 3f 5d 1d 1b fc 9e 68 c9 3f
       0.38987761787447217 0.19850528058871478
0000f0 0e 0a bd 6c e2 37 b6 bf af 69 f9 10 1c da d8 3f
       -0.08679022936579647 0.3883123555912346
000100 9c 21 fa 18 80 cb b1 3f a7 08 e5 d1 e5 06 dd bf
       0.06951141938964728 -0.45354600427175246
000110 20 45 14 e7 56 9c d8 bf 0d 3f 67 9f 8e 8a e2 3f
       -0.38454220358205937 0.5794137109132592
000120 81 e8 8b 10 ce 92 c4 3f 4b 89 da f6 4b a7 e5 bf
       0.16073013122496962 -0.6766719647751328
000130 c3 17 98 4c cf 3c bc bf 72 7f d4 7e 53 7f ba bf
       -0.11030288333867504 -0.10350534292638061
000140 82 f8 44 eb cf 0a d3 bf a7 c9 1e 41 86 b1 ca bf
       -0.2975349233200931 -0.208542615696911
000150 1c 99 31 d7 83 76 c1 bf 68 11 fc a7 fa a7 df bf
       -0.1364292908430763 -0.49462763218641337
000160 58 e9 a2 f9 db d7 c6 bf 54 1b 17 15 c6 04 ec 3f
       -0.17846250237728145 0.8755827342909961
000170 01 d7 ed af 71 36 e2 bf 08 61 22 1f 41 6f d2 bf
       -0.5691460071672908 -0.2880404285474616
000180 cb 08 96 0f cd ea b5 bf 22 08 cf 39 f4 46 bc 3f
       -0.08561402922171905 0.11045767222734118
000190 ec 80 6b 14 1c c4 e5 bf 70 6b cd f3 19 de e7 bf
       -0.6801891707255243 -0.7458619844213512
0001a0 53 66 07 fc ce c9 e7 bf f8 fb b3 c6 05 b6 c1 3f
       -0.7433848307075074 0.1383673877935221
0001b0 40 65 dc 67 a5 17 d0 bf cd e1 40 54 7b ac e0 bf
       -0.25144324438732113 -0.5210549016547305
0001c0 62 c9 55 d9 69 2b d2 3f 6d b8 a0 9c 90 ed d2 bf
       0.2838997480786444 -0.2957498101776597
0001d0 bf 9f 98 2c a9 bc c1 3f 27 b0 74 3d 47 1d c7 bf
       0.13856997182415218 -0.18058100224277604
0001e0 ef 5f 18 bf 78 15 e2 3f ea 47 e4 22 46 01 eb 3f
       0.5651210529640575 0.8439055139044715
0001f0 bd 36 96 c4 24 15 c7 3f 49 f7 4c 86 94 49 c8 bf
       0.1803327522178985 -0.18974548871659128

encoder.0.1.running_var f8 [64]
000000 c0 01 53 b8 63 3c 89 3f 3b 21 7a 52 f6 a9 9b 3f
       0.012322215139989434 0.02701554182434161
000010 76 25 0c b7 bf d9 92 3f 2e e4 9b c9 22 35 a0 3f
       0.018408771083192353 0.03165539465948829
000020 0e dd 46 ca ae ac af 3f 6b 61 4e d2 47 69 78 3f
       0.061864340011590455 0.005959778359191463
000030 12 dc 9c 7b 26 7a ba 3f b7 31 61 c1 f1 bb a2 3f
       0.10342636602295865 0.0365901516493951
000040 f2 7c 1d 1f 22 3c a5 3f f2 64 48 df 6f 19 8c 3f
       0.04147440557312078 0.013720392228651044
000050 32 65 bd dd 46 31 8d 3f ad 49 37 6a 2f 31 90 3f
       0.01425414432712788 0.015812626703174782
000060 78 1a 56 d9 9f 4f 9b 3f df 3a 7a 09 23 ae 97 3f
       0.02667093051925426 0.02312521691652136
000070 27 17 c7 8d ea 81 a6 3f 7a 03 ca c0 27 ed a3 3f
       0.0439599321430662 0.0389187262380863
000080 16 e7 ad ca 08 1f 7a 3f 2d 49 87 f1 23 ef 5d 3f
       0.00637725290550308 0.001827035046620805
000090 4c f3 c8 10 98 61 85 3f 73 0e 0b b5 bf 7b 7d 3f
       0.010440052044140245 0.007198094230890117
0000a0 e8 2b c5 8a f8 a7 8a 3f 2f 14 35 64 f0 15 bb 3f
       0.013015691504412133 0.10580351301639788
0000b0 80 74 1b a6 a5 2a 75 3f f5 5e 49 d1 b4 6f 89 3f
       0.005167624536366877 0.012420094143791508
0000c0 c6 31 ae 42 3a 8a 7f 3f ee 1a f8 26 41 cb a9 3f
       0.007700183467829585 0.05037883377740636
0000d0 e1 dc 90 1e 5f 95 a8 3f f1 32 fc ca ee 10 a8 3f
       0.048014614564118714 0.0470041868958101
0000e0 1e 08 5e 27 c7 ff b4 3f 3d 0d 12 8e 53 c1 8c 3f
       0.08202786170116425 0.014040615819118524
0000f0 d4 06 f3 10 ab 69 8c 3f 02 13 c9 26 1b 54 a3 3f
       0.013873421149017608 0.03775105331854968
000100 d9 57 ab 76 d7 45 98 3f 3d 3e f4 55 46 2a 86 3f
       0.023703924768447713 0.010822820184812726
000110 19 3e 1c 49 03 00 a4 3f d3 9b 28 30 42 95 91 3f
       0.03906259791812889 0.01717093867241799
000120 de 29 5e 1a a0 49 9b 3f fd 96 fe c8 89 70 a4 3f
       0.026648046120991135 0.039921098504505516
000130 68 97 a7 c0 02 ac 98 3f 06 d6 25 48 80 0c 9b 3f
       0.024093668945986663 0.026414875415374815
000140 86 01 72 72 c5 b8 91 3f 6f 45 bc 2f 99 e9 b7 3f
       0.017306408987225484 0.09340817847648507
000150 ac 65 31 c9 48 c6 94 3f 60 a2 9c be 90 4a 8e 3f
       0.020287644653171164 0.014790659729969124
000160 60 a8 78 8a 8b 33 9d 3f c8 ba d4 3a 40 40 b7 3f
       0.028516941382044414 0.09082414089491941
000170 a1 5b 32 6a 49 90 a2 3f 3e 82 a0 70 5a 62 c3 3f
       0.03625707074495855 0.15143900393833748
000180 3e ee 9b f3 61 64 62 3f 91 95 2a 34 8d 2a 8d 3f
       0.0022451317898893033 0.014241316942682743
000190 33 c5 a0 9d 7b a0 a8 3f ba 8a 34 5f 66 66 b3 3f
       0.048099387160969086 0.07578124832483982
0001a0 6a 06 9c 3c 7d ae a8 3f 9e ea 33 50 ea 45 a9 3f
       0.04820624699460725 0.049361536302929596
0001b0 74 f2 70 98 f4 0d 83 3f 0c f5 d9 db ea f5 7c 3f
       0.009303961660515038 0.00707046262470824
0001c0 95 61 c1 c5 63 5e 87 3f 45 c5 8d 59 53 43 94 3f
       0.011410502884402965 0.019788076725892684
0001d0 1a 3d af db 97 94 98 3f e8 df 75 4b f7 c3 86 3f
       0.024004338057975173 0.011115962972993956
0001e0 e1 80 a5 f1 1f c9 76 3f ca 46 6b c4 64 2c bb 3f
       0.00556290128801626 0.10614614291560112
0001f0 1c ca 06 39 b2 ef 7c 3f 54 ea d8 d4 8a e2 a3 3f
       0.007064529593139326 0.03883775566324191

encoder.1.0.weight f8 [64, 64, 3]
000000 34 c9 bf 07 68 87 b1 bf 8a e8 c0 68 8c 5b b2 3f
       -0.06847238721073695 0.07170941884479212
000010 1f 4e 30 aa 50 ce 9b 3f 6e 05 fe 6f e1 bb b5 3f
       0.027154217135899935 0.08489808067499435
000020 2f d1 e5 08 37 ad 6a bf 4c 91 68 31 31 16 a0 3f
       -0.0032564234635918047 0.03141931274538709
000030 9d dc db 32 44 d1 90 bf 0b 02 21 ee 2a 64 ae bf
       -0.01642328796785063 -0.05935796887252217
000040 d4 54 26 67 37 db 8d 3f c1 8f 6b 03 ac ab 94 bf
       0.014578278384571076 -0.020186126431226862
000050 8f 9d 0f c2 49 0b b0 3f 8a ec 01 53 54 09 a0 3f
       0.06267224300210315 0.03132117760920845
000060 bc 0d a4 ea 9d 1f a2 3f 9c 2e 43 66 18 9b b1 3f
       0.03539746751087189 0.0687728166259895
000070 d8 cd ba 93 a8 90 ad 3f 28 93 47 4e 29 fd af 3f
       0.0577442818006621 0.06247834282456771
000080 2b 73 cd b9 60 85 a4 bf 40 84 99 7c 7b 7c bc bf
       -0.04008009212586779 -0.11127445022567972
000090 22 63 c4 52 1f 1b 91 3f 32 0a a7 56 0a 63 92 bf
       0.016705026079850367 -0.01795593408474811
0000a0 a1 58 ef 67 67 0f 7b bf 02 ea 28 89 77 a6 9d 3f
       -0.0066064872070993605 0.02895533346802815
0000b0 18 eb b4 1e fa 03 af 3f 22 49 15 89 bb 95 a1 3f
       0.06057721733892246 0.034345493778021444
0000c0 b0 1a d3 b6 88 58 9f 3f 05 ac 22 cd 0f 04 b5 3f
       0.0306111680590912 0.08209322698773754
0000d0 1a a6 1d c9 7a f3 a1 bf 3d 46 66 2d ec 2b a6 bf
       -0.035060727167387465 -0.043303852598125726
0000e0 8b 09 6d 92 25 82 95 3f 06 e8 e4 00 88 cd c0 3f
       0.021004283010606122 0.13127231639538212
0000f0 bb 5f 83 43 4e da 9f bf 4f 45 09 8b 76 dc 91 bf
       -0.03110620772426363 -0.017442562328431162
000100 fa 3d 4c 09 5a 6e a9 3f a5 1d dd 03 ec 85 bc 3f
       0.04967004168986118 0.11141848654107507
000110 ed 73 a7 33 44 69 9b 3f 5f cd da 34 c6 e0 b7 3f
       0.02676874699851688 0.09327353277585847
000120 23 5a 8e 60 04 85 92 bf 27 6d fc 56 67 1a b4 3f
       -0.018085544961275467 0.07852788804705267
000130 a8 d1 32 bc ef 33 a1 bf 29 02 33 5a 34 1b 63 bf
       -0.033599368785334705 -0.0023323080546051767
000140 c0 60 c0 da f6 04 96 bf 06 61 d4 d9 11 a6 6c bf
       -0.021503312207727943 -0.003497156968148232
000150 7f 44 27 12 5f 10 a9 3f 0d b7 40 2b d4 bd 96 bf
       0.048953028646459444 -0.022208514347020137
000160 79 fd 11 9e d9 a6 9d bf bb a4 b4 82 68 71 88 3f
       -0.02895679499897372 0.011935059059924638
000170 7e 73 97 16 19 52 a4 3f 72 8b 99 db dc e6 a6 3f
       0.03968885803963128 0.04473009281789232
000180 5c 08 f5 21 83 a7 9c bf 13 53 ee 05 b9 2b b6 3f
       -0.027982758472042554 0.08660465616987904
000190 b2 bc a5 df 56 46 ad 3f 4c 4a 23 e0 45 00 aa 3f
       0.05717727165289811 0.050783332453324975
0001a0 dd 72 cb 0e 21 66 a0 3f 98 5f 2a 55 bf 6b 9a 3f
       0.03202918344115855 0.025801648686495676
0001b0 44 d9 8c df 53 f4 7f 3f 5f 1d 92 5a 23 31 ad bf
       0.0078013683603813146 -0.05701551895713907
0001c0 fc c4 b3 66 6c 73 92 3f 5b cb 1f 9a 2b fc 8e bf
       0.01801843048901207 -0.015129414216038908
0001d0 e1 a4 30 7b d5 1d af bf ba a2 7b 1c d4 56 ab 3f
       -0.06077448967728017 0.05339682433788569
0001e0 23 99 12 8e 43 d7 a2 3f 68 8f 9d c7 6a a4 83 bf
       0.0367985831192519 -0.009590944496899304
0001f0 b1 a0 87 07 82 65 55 3f f0 19 a7 ff eb 31 ab bf
       0.001305939657067195 -0.053115248639688306
000200 1b db 05 c7 f1 c1 a9 3f 0b 7a e0 ee c7 94 b3 3f
       0.050307803673538674 0.07648896772341389
000210 4a c9 09 72 49 9e 80 bf 83 56 a4 4d 47 18 9d 3f
       -0.008114408295317194 0.028412927736175774
000220 10 93 85 77 98 93 70 bf 23 e0 b3 fa 73 2a 91 3f
       -0.004047008107907826 0.016763508011507732
000230 67 1f 39 6f cb 83 b6 3f 10 d7 35 4c 61 20 8f bf
       0.08794852700623111 -0.015198478830579926
000240 f7 57 77 d6 fe 95 90 bf 82 4c ab 26 15 10 a9 bf
       -0.016197187271096394 -0.04895082566295007
000250 8a 1b 3b ae 48 1a 9a bf 0f 35 b5 a4 c0 b5 a6 3f
       -0.025490890154084712 0.04435541163057099
000260 73 cb 63 9e 26 41 9e bf 4e aa f4 2d 4f ff 94 3f
       -0.02954540578589211 0.020505177669443868
000270 e3 ed 57 a4 f7 a5 84 bf 78 ca 9c 68 22 3e ac 3f
       -0.010082182600846095 0.055161547918392395
000280 1a 49 a8 75 cb 39 ae bf d8 32 44 8c 21 e4 a4 bf
       -0.059034689056846015 -0.040803001758921986
000290 93 16 19 17 15 11 72 3f dd 17 c0 18 1a 99 97 bf
       0.004410822280595322 -0.023044975052492467
0002a0 7d 6a 55 9d 65 65 95 bf 03 df 78 47 b4 83 a5 bf
       -0.02089461109913281 -0.042020448422077215
0002b0 1a 2b 96 ef 5a 95 9f bf 6c a9 01 98 21 64 8a 3f
       -0.030843182442860863 0.012886297656412103
0002c0 4e 0c fe 81 65 67 74 3f 74 d6 f3 4f 53 eb 97 bf
       0.0049814191005480134 -0.023358632807648452
0002d0 c6 9f ae fe 8c a2 91 3f 8d 91 22 8c a0 0e 93 3f
       0.017221644444049188 0.018610485604442274
0002e0 45 11 a7 30 45 55 93 3f 0d b3 27 29 d6 de b4 3f
       0.018879967779654967 0.08152521614801973
0002f0 4c a6 65 19 1b a8 60 3f ac 05 10 5c 6b 15 b2 bf
       0.00203328411878515 -0.07063933370229475
000300 db 19 91 3a 65 e7 8e bf e6 23 7e 32 5d b7 ae bf
       -0.015089789247338217 -0.05999270669332883
000310 a9 a7 ea c9 da cf 90 3f 62 eb 0a ed e8 5a a9 3f
       0.01641790254021883 0.049521712242003316
000320 16 b5 e9 e3 3f f3 9d 3f 87 05 1e 42 52 2b 5d 3f
       0.029248235974980018 0.0017803481391357194
000330 b3 47 af c7 9c 4d 77 bf 0b 24 be c2 53 98 b2 3f
       -0.0056892513484444905 0.07263682846509327
000340 f9 61 e0 72 de be 85 3f 72 96 05 01 16 17 a3 bf
       0.010617959862472924 -0.03728550684426758
000350 fc 0a 93 10 31 d7 71 3f 0b ea 43 81 02 a9 bd 3f
       0.004355613383441034 0.11586013465777271
000360 2b 92 63 91 c0 00 8c bf ee 6a 39 96 53 ed 93 3f
       -0.013673309742849934 0.019460016292536624
000370 bf 42 af 78 d9 f5 a9 bf d0 f1 cb 8b 5b 15 b0 bf
       -0.05070380781365235 -0.06282589114193304
000380 16 b7 dd 2a 68 92 a0 3f 63 ad 70 79 08 58 92 bf
       0.03236699603335873 -0.01791394463741137
000390 04 9c 5a f8 4c b0 73 3f c8 56 32 51 d3 6f 96 bf
       0.00480680529077571 -0.021910955267762572
0003a0 65 4e fc 40 cc 64 af 3f 89 a6 bf 8e 7a d9 6d bf
       0.061315901692208276 -0.003643741007171301
0003b0 d2 1c bf c8 2e 2a aa bf 04 df 69 a0 79 c3 a5 bf
       -0.05110307884711464 -0.04250698168919878
0003c0 fb 86 c4 37 e8 ea ae 3f c8 cd aa 57 22 8c 90 3f
       0.0603859489513194 0.016159569359570886
0003d0 a8 16 0c 76 04 c4 79 3f 84 c9 91 ec ca d1 93 bf
       0.0062904524099899675 -0.019354983033232923
0003e0 4d 7c 66 a0 01 4f ab 3f 74 e2 31 62 04 e6 85 3f
       0.05333714564334766 0.010692629095715868
0003f0 e8 f4 78 e2 d0 7f a5 3f 8e 33 ca 4e 93 4e 91 bf
       0.041990783353392847 -0.01690130394358707
000400 13 0a 87 59 5d 0d b9 3f 72 04 c6 16 ce 5f a3 bf
       0.09786017833452147 -0.03784030941006557
000410 8c d6 86 e1 fa 4e a4 3f 54 a9 67 49 47 72 9c bf
       0.03966506960879909 -0.027779687743455142
000420 e4 5e 21 6b 17 10 b6 3f 94 3b c2 aa 5c cf a1 bf
       0.08618303647505915 -0.03478517136055995
000430 c8 98 43 2f 94 63 85 bf 23 27 98 81 ea 7f 84 3f
       -0.01044383782614168 0.010009605483918776
000440 5e f8 92 80 31 25 a7 3f 27 de 12 ee 2d a0 92 bf
       0.04520563787944874 -0.018189160972467058
000450 27 76 71 59 95 06 b7 3f 93 52 87 ad 88 99 a8 3f
       0.08994420465156648 0.048046370680514226
000460 9b e1 d0 98 9a 68 ba bf ec 92 39 58 55 03 b1 3f
       -0.10315862875802966 0.06645711330345322
000470 1a 4a bd c7 af f4 af bf ac 2c 20 b9 8d b2 98 bf
       -0.06241368592477077 -0.024118627952742486
000480 01 19 5d 6b ef bd 9d bf 26 00 c1 6a e3 e7 a6 3f
       -0.029044857910116132 0.04473791769169137
000490 93 6f 61 40 c4 91 90 bf f4 8f 7c f3 df 3d ad 3f
       -0.016181055478554262 0.057112692329866294
0004a0 00 03 b8 ba 16 39 b3 3f 15 20 56 c5 ef 3e 90 3f
       0.07508985575260496 0.01586508409448591
0004b0 f2 87 90 f8 89 47 ae 3f e3 8c c9 49 ec ad a4 bf
       0.05913954886661078 -0.04038942719196272
0004c0 7c 82 05 04 35 7c 6f 3f f4 f9 58 f5 c0 da b0 3f
       0.0038434062445705224 0.06583791723185312
0004d0 22 92 39 6e 43 0d ad 3f 37 aa 8c e5 0c 67 8a bf
       0.05674181671637181 -0.012891865496915773
0004e0 02 17 c6 9e b2 0e a5 3f 24 b4 95 8c 88 41 81 3f
       0.041127759820524204 0.008425776281649595
0004f0 d1 47 ee cf 8c 04 ab 3f f5 23 0d 78 77 68 9a 3f
       0.05276908910958834 0.02578913374171417
000500 c7 3b 34 88 f2 83 ac 3f 1d 86 58 12 32 23 6f 3f
       0.05569417870184839 0.003800962253777808
000510 32 8f de f1 c9 5e 82 3f ab 6e 96 d5 b1 7e 99 bf
       0.008969857877509566 -0.02489736429343618
000520 4c c5 14 6d 24 fe 97 3f 41 00 40 3b 27 37 b0 bf
       0.023430413396629476 -0.06334157177480028
000530 2d 27 0b fa 99 d5 58 3f 35 94 6d db 5d be 9a 3f
       0.0015157703093557448 0.026116816060852883
000540 d8 97 7f 74 67 40 88 3f e2 4d 18 1c 8d a7 81 bf
       0.011841591112851477 -0.008620359821214178
000550 a4 0f 0c e6 f0 e2 a1 bf ea 76 76 71 8a d5 94 bf
       -0.03493454750244432 -0.02034584348222427
000560 56 79 fb 19 ae 34 92 3f 5c 65 65 00 9d 24 a3 3f
       0.017779083572230313 0.0373887122138494
000570 f5 c4 5d 0b 3b b3 a8 3f 6a bd 60 02 2d 8c 77 3f
       0.048242421281324534 0.005748916451963163
000580 8e fb 33 fe 57 20 8a bf 53 e9 bd 24 f3 6e 89 bf
       -0.01275700325504461 -0.012418651160022753
000590 a8 b3 fd a2 51 9d a5 bf 9e f8 30 29 4d 44 a2 bf
       -0.042215872904172 -0.03567734840224655
0005a0 88 27 90 82 92 33 b7 bf 7e 01 7b dc 8c d7 9e bf
       -0.09063068091941606 -0.030119133908330202
0005b0 b0 13 bb f3 f1 7d 51 bf 8b 71 3d 19 c1 a4 a1 3f
       -0.0010676253140655505 0.03446010048967015
0005c0 97 d6 59 1d d7 ef 81 bf 5d 87 7c 87 d1 b1 88 bf
       -0.008758240302295035 -0.012057911822526962
0005d0 dd 1a 6d c1 bd 7d a7 3f a6 5c 18 40 9a b3 a3 3f
       0.04588120447310982 0.038479633640400565
0005e0 bc 90 7b a0 89 03 b6 3f 57 9c b9 39 22 9a b3 bf
       0.08599147956880676 -0.076570643513706
0005f0 2c 98 f8 45 a2 1d 9e 3f 21 f0 61 27 16 aa 7d bf
       0.02940991928166896 -0.0072422852882674535
000600 eb 22 66 ae 18 4f 9d 3f 54 46 7f 08 9c 63 86 3f
       0.028622041363209155 0.010932177552521662
000610 7d d1 92 a0 90 28 9f 3f 02 a8 31 6e 53 83 b0 bf
       0.03042818050444528 -0.06450387420923678
000620 20 a2 84 88 d4 5f 66 bf 68 9d 9f f6 20 c9 a8 bf
       -0.0027312422791008345 -0.048409490685851264
000630 1e d1 c1 7d e3 f4 94 3f 99 88 dc 3d 0d 1d 97 bf
       0.02046542601642997 -0.022571761036609492
000640 9f 11 d3 15 12 94 a6 3f 11 3c c6 85 97 a8 6e bf
       0.04409843937313273 -0.0037425002503321887
000650 97 62 ae db 14 aa aa 3f 79 44 49 b1 17 03 ad 3f
       0.052078868691016904 0.05666421927583882
000660 90 47 13 32 f4 65 95 bf 4c 6c 8c 25 98 7d a7 3f
       -0.02089673572192613 0.04588008364063309
000670 5d eb 13 e1 0b b4 70 bf bd 2e 96 e1 0b 95 a4 3f
       -0.004077955630459621 0.04019963387244505
000680 c7 49 c2 d0 1c d9 a5 3f ea 0d 05 ac bd 3b a1 3f
       0.042672062381047086 0.03365891194200883
000690 96 33 a1 aa 4f 76 8d 3f b8 49 be 3f 9a 45 98 bf
       0.0143858169505167 -0.02370301260050109
0006a0 06 3f 50 17 76 ee 64 bf 5b c5 2c ce 92 74 98 bf
       -0.002555113455407712 -0.02388219245330468
0006b0 c4 24 cb 0d 24 9d 9b bf a2 b5 1f ba 7f 37 97 bf
       -0.026966632215395206 -0.02267264913091583
0006c0 f7 65 5c 26 a1 4a 93 bf 6a 56 55 6c 8c cc 93 3f
       -0.018839376417508515 0.01933497821058553
0006d0 6b aa f4 fd e2 67 94 3f 6d cb 6c 95 c9 18 b4 bf
       0.019927546262957934 -0.0785032262618139
0006e0 8f 2c 01 ae d0 84 ad 3f 05 4b ab e0 40 9b 81 bf
       0.05765392421798154 -0.008596903663975928
0006f0 a7 bc 87 4d 96 52 ab bf 53 15 6e 9e 0a 6a a5 bf
       -0.05336446472562644 -0.041824657287217314
000700 fd 4a 44 3f df 16 a3 bf d3 86 bc 02 14 37 b0 bf
       -0.03728387496280126 -0.06334042612845829
000710 99 f9 85 f3 2a 99 b3 3f da 7f ce 69 3f 81 a0 bf
       0.07655590482133902 -0.03223608175835553
000720 a7 81 10 a4 7b bc ac bf 72 bb 8c f8 d7 3c a8 3f
       -0.05612551095714773 0.047339200106185766
000730 6e a4 cb eb 52 2d 9c bf 01 58 9d 47 61 51 8d 3f
       -0.027516646997274234 0.014315376279835592
000740 02 f6 7a 08 33 a0 a8 bf d6 c2 a5 10 33 43 b2 3f
       -0.04809722403068052 0.07133788258012017
000750 63 f5 1f 15 f8 3b b2 3f 01 04 fc 85 e5 98 b2 bf
       0.07122755542510144 -0.07264551659683606
000760 e2 82 40 a3 c7 bd a4 3f a0 94 d3 ae a8 af 82 bf
       0.040510405233595184 -0.009124105296402896
000770 cc 8d d3 90 54 ea a5 3f 7b f3 35 13 f2 46 6d 3f
       0.04280342357540298 0.0035738685634769097
000780 15 0c 9a 59 6c 0e a5 bf 10 ce 9f c7 22 fe a6 bf
       -0.04112566560527157 -0.044907652729218595
000790 0f 9c 9a e9 57 1a a2 bf 1a a9 05 41 0c 52 5b 3f
       -0.03535723425493852 0.0016675109546562873
0007a0 9d 86 c7 af 3b c4 85 3f c9 78 61 ce 38 34 a1 3f
       0.01062819128214026 0.03360154647156006
0007b0 a2 7c 77 d3 78 d4 8c 3f f1 4f 65 f3 ea 0a b6 bf
       0.014077133134320189 -0.08610409204749182
0007c0 fd cd 9c 76 7e 7b a9 bf 4b 5e 38 d3 b8 73 a4 3f
       -0.04977030942827907 0.03994538858767934
0007d0 10 2a 8a ed 3e e3 b8 bf c5 8e e3 62 cd 89 b1 bf
       -0.09721749591168583 -0.06850894607810705
0007e0 35 03 50 eb 32 6f b0 3f 8e 60 84 7c 95 ea 97 3f
       0.0641967606061485 0.02335580418102317
0007f0 2e 6c df 60 07 36 82 3f 7c 10 68 ff 77 ce 71 bf
       0.008892114299603984 -0.0043472945603789635

encoder.1.0.bias f8 [64]
000000 78 75 1a 00 0d a4 94 3f a9 66 06 c0 c3 50 b0 3f
       0.02015705407267407 0.06373237074003647
000010 36 ab 6b 00 00 18 53 bf b4 2d f0 ff 0a bf b1 bf
       -0.001165390016178503 -0.06932133434764048
000020 e7 2b cc ff 8e 94 81 3f 1a 74 ff 3f f9 07 a5 bf
       0.008584134274789391 -0.041076458990325374
000030 fa a0 03 40 b8 3d a3 3f e1 c7 f1 9f 6b d7 b0 bf
       0.03758025914595638 -0.06578705458539914
000040 28 8a f6 bf cb df b0 3f 21 4b f6 3f 4a 7c ac bf
       0.06591485439870637 -0.05563575773989827
000050 a6 05 02 c0 f4 fd af bf b8 c7 fe 3f 0b e7 ae bf
       -0.06248440593573017 -0.06035647541229089
000060 86 b3 1f 00 e0 2a 63 3f 5e 83 11 c0 05 a0 a8 3f
       0.002339780331558963 0.04809587449631779
000070 ed 8d 0f 80 e0 5b 93 3f 7f 4d 1f a0 47 60 b2 bf
       0.018905170265396554 -0.0717816129611517
000080 4b 36 f7 bf f0 b8 a9 3f cc ca 63 ff 43 b2 78 3f
       0.050239108498868555 0.006029382339181221
000090 27 5b 00 00 47 e3 af 3f 81 1c 07 e0 f1 30 ac bf
       0.062280863523645195 -0.05506091937746139
0000a0 f4 39 2e 80 bf 8a 89 bf d1 46 0f 00 c6 ba 91 3f
       -0.012471672152767767 0.017314046624796135
0000b0 f0 e7 01 40 d4 a3 98 bf 1f 4e 6e ff 3e ef 8d 3f
       -0.024062458426193645 0.014616481943256208
0000c0 1c ae f9 bf a1 2d a4 3f ca ea c7 ff 54 9e 97 bf
       0.03941064327667851 -0.023064926253918462
0000d0 3b e1 fa ff fb dc a6 bf bd e3 e8 3f 5c 5a ad bf
       -0.044654726979788305 -0.05733001976154337
0000e0 aa 5b f3 7f 34 f8 ae 3f 1c a9 06 e0 5f 00 ae bf
       0.060487404459926467 -0.0585966073006878
0000f0 b6 29 15 00 83 a1 a0 3f aa dd 0b 40 d2 50 95 bf
       0.032482236633387826 -0.020816121253088994
000100 82 4c f1 ff a9 8b 9f bf 09 1c ec ff 73 dd ac 3f
       -0.030806213613982177 0.056377053251758076
000110 ce 88 01 80 58 51 b0 3f 96 d1 11 00 e1 d1 af bf
       0.06374123692652064 -0.062148123987671486
000120 a9 f7 ee ff 94 0d 80 3f 00 be ee 7f 1f 6e 86 bf
       0.007838405666799124 -0.010952230540936192
000130 f7 14 22 40 95 b0 92 bf aa 66 f9 ff 06 a6 ab 3f
       -0.018251735724807507 0.05400106310544335
000140 54 d5 03 00 8f da 84 3f 20 27 0b 40 94 a3 a4 bf
       0.010182492435414282 -0.04031050950795945
000150 e6 fb 13 80 92 76 94 3f da 14 b0 ff 4f ad 75 bf
       0.01998356730200248 -0.005292236800419315
000160 11 5d e5 7f 92 2b ac 3f 31 da 18 80 e1 95 ac 3f
       0.05501992999296069 0.0558310002201562
000170 2a 66 01 00 77 26 b2 bf 2b 9f cd fc 3f d1 36 bf
       -0.07089942693837573 -0.0003481656283867869
000180 96 fb ef 7f 15 89 ac bf 30 db e6 ff d8 a3 9c bf
       -0.05573336779342879 -0.027968779200558902
000190 84 da 25 00 04 0f 97 3f 4f 5a 1e c0 99 e4 a3 3f
       0.022518217572236057 0.03885345907399495
0001a0 fb f3 7c 80 4d 2c 93 3f a7 99 f5 9f 07 dc ac bf
       0.018723689048091057 -0.05636619403485393
0001b0 df 52 f8 3f 07 98 b1 bf 4b 11 01 80 78 e2 ae 3f
       -0.06872601806419308 0.06032158434439568
0001c0 69 10 ff 7f fd 55 b0 3f 90 7c fe bf a1 4b b2 bf
       0.06381210684691187 -0.07146655022960346
0001d0 cd e8 0b 80 15 9c b0 3f 0d 5f 1f fe ff bc 5f 3f
       0.06488165260444419 0.0019371509483700506
0001e0 f6 ab fd bf 58 c8 a2 3f 2c 1c ff 5f cc 95 b1 bf
       0.03668477386130313 -0.06869199126877906
0001f0 fe f9 04 80 ff 28 ab 3f c1 5f f5 bf 85 1d 91 bf
       0.05304716527688312 -0.016714181748596738

encoder.1.1.weight f8 [64]
000000 54 6a c1 e9 4d 8b ef 3f 1e cf e5 b1 f7 36 ef 3f
       0.9857549253022833 0.9754599070133485
000010 b2 5c 54 c0 36 20 f0 3f a3 c7 ed 23 91 25 f0 3f
       1.0078647148964532 1.0091716197461913
000020 0e 56 f7 c7 68 fa ef 3f 07 aa be f9 a2 49 ef 3f
       0.9993175416554452 0.9777388456180355
000030 72 0b 83 6d fc 1c f0 3f 56 2c c7 c2 f1 08 f0 3f
       1.0070766713913284 1.0021836861149231
000040 1e 26 4a c3 77 cb ee 3f 15 ba 69 1d fd da ef 3f
       0.9623373808146345 0.995482022711999
000050 5e d1 95 38 03 19 ef 3f 87 8e 8e a0 72 33 f0 3f
       0.9718032937221712 1.0125604888679918
000060 5b 9c e6 5d b0 b3 ef 3f 50 36 eb 45 b4 62 ef 3f
       0.9906846841812568 0.9807988515473856
000070 1e c7 b0 2d ce 38 f0 3f 69 4c c9 2b c3 07 f0 3f
       1.0138685021196987 1.0018951139834604
000080 e1 1f c0 ad 7e e9 ef 3f 8b 02 7e 5d 94 78 f0 3f
       0.9972527879299343 1.0294383670845118
000090 94 54 26 52 5c 21 ef 3f a4 54 8e 83 4a 33 f0 3f
       0.9728223423468472 1.0125222338586264
0000a0 05 98 6b a8 77 2c f0 3f 3c 77 2d a2 74 d9 ef 3f
       1.0108563021581187 0.9952948730021727
0000b0 96 d5 5f bb 50 d6 ef 3f 9a 66 8a 9c c6 44 ef 3f
       0.9949115428595856 0.9771454865869658
0000c0 c4 fb 5a a1 1d 21 f0 3f b8 9b 0f ed 9e 07 f0 3f
       1.0080848982758974 1.0018605480379232
0000d0 70 da 29 b7 69 ff ef 3f 3c 92 89 d7 90 9a f0 3f
       0.9999283387576963 1.0377357882909015
0000e0 b3 fb 94 39 34 74 ef 3f 76 c2 5c 48 30 ab ef 3f
       0.9829350590369955 0.9896470464064595
0000f0 66 13 af f5 97 16 f0 3f 19 85 c1 62 0f a3 ef 3f
       1.0055160138155883 0.9886547974421404
000100 7b 7f 97 e8 8a 1f f0 3f 16 ba 65 28 c6 79 f0 3f
       1.007700832902599 1.0297299936315816
000110 d0 0c 87 21 f6 ba f0 3f da eb 6c 9a 28 43 ef 3f
       1.0456448850316526 0.9769480720636878
000120 12 c1 d0 f7 39 f3 ef 3f ac 0e c6 ae 46 9a ef 3f
       0.998440727247756 0.9875825322673868
000130 e4 c3 25 ec 2e 48 f0 3f 75 8c 20 4e 4b e7 ef 3f
       1.017622873736621 0.9969841504975095
000140 11 d7 aa 5e 81 50 f1 3f 98 e3 06 4f 4f 38 f0 3f
       1.0821546266501552 1.0137475096691784
000150 81 d1 5b 56 a0 3d ef 3f 1e ad 32 5e 32 23 ef 3f
       0.9762727438633619 0.9730464782527724
000160 ec 23 79 09 e6 7f f0 3f 78 3c 3d b8 1b 9a ef 3f
       1.0312252397582098 0.987562045900531
000170 3d 9a 10 08 26 52 ef 3f 7f 78 a4 50 f0 44 f0 3f
       0.978777900458972 1.0168307447525249
000180 07 1d ef f4 62 4e f0 3f 04 3f af fb 29 32 f0 3f
       1.0191373412833984 1.0122470694950048
000190 dc b0 82 ff 37 0d f1 3f 6b 5d 33 f6 c4 72 ee 3f
       1.0657272320632307 0.9515099342924435
0001a0 6a 1c 08 43 6d fa ef 3f c6 c5 ac 1b 76 b0 ef 3f
       0.9993196782314844 0.9902906933331728
0001b0 97 a0 e6 57 a6 8d ef 3f d7 d8 9f d8 10 7c ef 3f
       0.9860412327589242 0.9838947516389237
0001c0 b0 eb 7a 18 80 f6 ef 3f c6 92 32 e1 c6 cd ef 3f
       0.998840377629099 0.9938692472829522
0001d0 68 f6 e5 11 c3 aa ef 3f 5c 48 8d cf fb e9 ef 3f
       0.9895949697090147 0.9973124555347215
0001e0 9a ab 60 38 66 1c f0 3f 5a 0d a8 cb d0 da f0 3f
       1.0069334223032684 1.0534217791872238
0001f0 3b 1b 73 8d 79 84 ef 3f 6d 82 36 7b 6a 5e f0 3f
       0.9849212420166177 1.023050767231463

encoder.1.1.bias f8 [64]
000000 e4 3f 6c 8e af 5e a6 bf fa 2e 58 df 3e ce 99 bf
       -0.04369114507255725 -0.02520082700907176
000010 94 a8 56 a3 75 9c 8f bf 3b b8 df 31 85 5f a8 3f
       -0.015435141608424886 0.047603761995433
000020 d3 6a 51 95 b3 4a a4 bf e9 4e 81 e4 19 86 87 bf
       -0.03963242719392714 -0.011486246381685787
000030 59 9d 3b 69 8b 32 7a 3f 1f 96 b2 2b 4d 0f 43 bf
       0.006395859312511598 -0.0005816580591228615
000040 98 97 94 39 f6 41 80 bf 5a f7 5e e0 44 7b 90 3f
       -0.007938312179770965 0.01609523410274192
000050 ec d8 61 06 33 7b b1 bf 97 29 da 43 6c a5 93 3f
       -0.06828612237754655 0.019185725823754742
000060 46 ad 6f 52 7f 7f a6 3f dd 04 ca db e4 52 a0 bf
       0.04394147759725313 -0.03188243086788998
000070 f1 05 76 1e a8 65 99 3f 14 f5 f8 e1 c8 d9 97 3f
       0.02480185209197389 0.023291720192209445
000080 5c 3b 19 76 67 32 6c bf 89 6b 47 e7 78 f9 93 3f
       -0.0034420033196406585 0.0195063487206926
000090 bc 2c c1 e3 4f ca 87 3f 52 13 31 f4 b1 52 80 3f
       0.011616348398226221 0.007970228447570147
0000a0 b3 46 21 56 00 3e 9d 3f 36 31 87 f6 4b 33 8b 3f
       0.028556828743893713 0.013281434498730076
0000b0 3c 6f 7f 15 70 db 82 bf 6d d4 46 f1 5d b1 a5 bf
       -0.009207606941280859 -0.042368827536315525
0000c0 51 27 77 6d 66 78 96 3f 07 d0 40 17 ec 09 6e bf
       0.0219436649620442 -0.003666840662868157
0000d0 db 67 55 ab c9 51 a3 bf e0 54 d6 ce ac e4 9f bf
       -0.03773336616968922 -0.03114576351579934
0000e0 fd 1d 6e 05 96 9e 99 3f ab 1a f7 31 bf d4 9c 3f
       0.02501902015822387 0.028155314850460893
0000f0 35 1e 4d 2d 77 4e 9f bf b4 83 2f 53 2b da 91 3f
       -0.03057275976178016 0.01743381209587698
000100 1a 34 34 f5 b2 cf 86 bf 7a 9d ea 14 d4 4c 82 3f
       -0.011138342006711755 0.00893560112792956
000110 39 aa ef 44 8a 88 92 3f a4 57 6e 8c c4 7c 3f 3f
       0.01809898420098419 0.0004804591994170776
000120 53 97 1f 24 87 16 8c bf b6 b3 77 c8 d6 bd 89 bf
       -0.01371484354963185 -0.012569120400223937
000130 33 54 a0 eb 80 ee 84 3f e8 e4 47 28 4d 3b 92 3f
       0.010220534506553225 0.01780434187273708
000140 9f 75 15 40 b5 05 a1 3f 58 39 ea 77 be 0f 80 bf
       0.03324667365334765 -0.007842529329789613
000150 7e b7 a2 6e 31 1d 9d bf b9 fb 68 c4 0b 35 72 3f
       -0.028431675317441833 0.004445119825105808
000160 72 b6 bd 45 3c 9a 80 3f c8 e3 2f b1 ae 87 85 bf
       0.008106680754021076 -0.01051269987327598
000170 2e 8d 2f ef c1 1f 87 bf 24 7c e1 23 6e f0 89 bf
       -0.01129104148089385 -0.012665615530009396
000180 4a 68 75 1e d7 8f a5 3f ea 38 2a 5e 66 f0 97 3f
       0.042113039463132454 0.023377990243312143
000190 c4 a8 b6 6c 72 39 9c bf 48 56 95 8f 4c 68 a6 bf
       -0.027562892804476005 -0.04376448872305311
0001a0 66 bf 06 cd 35 48 74 bf 84 94 ab ce 10 6e a7 bf
       -0.00495167747469325 -0.04576160929517761
0001b0 54 87 00 c9 a3 d8 9c 3f 90 66 7d b4 f2 ef 87 3f
       0.028170165198509636 0.011688133366692527
0001c0 4b cd 4b 56 e7 3b 84 3f 86 5a 37 74 db df 76 3f
       0.009879882165000927 0.005584580652302612
0001d0 6e ae 19 70 36 92 a9 bf d3 a3 84 b5 c9 56 64 3f
       -0.04994363897716601 0.002482789957998646
0001e0 8c 79 43 ea 74 ca 94 3f c8 ee 5a 0d e9 fa 7b bf
       0.02030356101828938 -0.00683108364108493
0001f0 34 c0 d8 97 42 01 a9 bf c4 84 fc 3e 17 5c a4 3f
       -0.04883773902508928 0.03976509708287204
