models/matching_nets/AWF_n=1_k=5_q=15_nv=10_kv=3_qv=1_dist=cosine_fce=None.pth (torch, 316367 bytes, 24 tensors)

encoder.0.0.weight f8 [64, 1, 3]
00000000: 933a 3c7c 3eae d8bf f0b3 f97b 3b96 c03f
00000010: 9ec0 aa35 bc97 b63f bdef 2084 e42b d8bf
00000020: b17a 6d73 f889 e1bf 7c8a 37dd a635 bc3f
00000030: 1343 a639 8427 d8bf 9903 a30b fca0 bdbf
00000040: 1fa9 3c0f 0045 a43f 4c60 dec9 ad6a dc3f
00000050: b1a2 4364 5043 cd3f 85b6 ce92 b3d9 c9bf
00000060: 46fc db44 eb1c d83f 7d69 0e71 94e6 bc3f
00000070: c3e5 1c00 ac61 ce3f 4eee 9fce 44f0 d3bf
00000080: 7d7d f9eb 86c7 cbbf 0f1b 3efc e062 d7bf
00000090: 4103 1550 06c3 c83f 121c 60ec 65f7 d8bf
000000a0: 8f7c 752c e692 d33f 9563 a9e1 c52c b23f
000000b0: 77c7 5c76 0d8e 113f 15f2 630a 4d32 e03f
000000c0: 6242 52b9 1645 bd3f b02a 72e5 cfa1 c2bf
000000d0: 70c6 6c3c aaa6 d53f b879 12f3 5e8e cd3f
000000e0: 9655 7ced ef71 c1bf 1529 ea8e e06c c7bf
000000f0: cc65 70cd 62b4 d2bf 756b 1934 2476 c9bf
00000100: d70f d3f5 6a8f b33f c7eb e762 bf28 debf
00000110: 57d2 826e ddbe debf fe3d d8b3 c3db d33f
00000120: eee3 228b 3aac c8bf 0039 f638 d8c4 cd3f
00000130: 5965 f431 1912 e3bf 7d95 cffe 5950 d2bf
00000140: c324 a19c c304 d93f 5fe1 577d ea9b d2bf
00000150: df66 4a18 caa2 e0bf 0dff ab22 4451 c6bf
00000160: 2e24 bd07 33d1 d33f 361a 53f1 8aa5 d4bf
00000170: 6b75 ab50 e329 dfbf 7c01 b8f0 2be4 e0bf
00000180: 10e2 e78a 067a e13f 01a2 7c77 d7fd cb3f
00000190: 64c6 b369 5676 d23f 9257 7809 33b8 e03f
000001a0: 9ba4 1122 69bd d43f 5abf 4119 26ad c8bf
000001b0: 05bd 1082 fb68 d4bf 288b ccae 9ff4 d33f
000001c0: c0dd c8c6 b609 d0bf 0dc7 196e ad82 bbbf
000001d0: ebce b62b eb6d c2bf 31d7 aa0e 2eaa d8bf
000001e0: 3f7f 4270 61f0 e1bf 4fe2 50f9 70c5 cfbf
000001f0: 3d28 e532 b9cf b4bf 6300 b929 c9a9 dbbf
00000200: 4d83 abfb 6126 dabf 00c0 0d02 3482 d73f
00000210: 0cbf 74fb 0fce bb3f 80de 9eae f9cc dbbf
00000220: 3d53 a945 834a d03f e804 c472 1975 c2bf
00000230: 90df ff01 a3c0 b43f c26e 6ecd 04ee c13f
00000240: 7ae7 757a 0ee5 dabf dfee e597 c61f d83f
00000250: 84cd 9e4e 7f66 cfbf 980c 0920 a13a e23f
00000260: 72b0 3880 6daa d93f 0587 ed1a 17fc c5bf
00000270: 68e7 5dc9 71dc d4bf 94c9 55d9 10ef d73f
00000280: ef12 6cca 8c3d d53f 9588 1aa6 a103 c33f
00000290: 177e db35 b645 adbf ab93 52f8 4336 adbf
000002a0: b91d 88a2 abac 9b3f 09b6 c4c6 3358 d83f
000002b0: 1d34 b818 8a16 b1bf fd72 42e5 7f9f cb3f
000002c0: 6631 5882 7e4e dcbf 695c f832 f3b2 ca3f
000002d0: 82f3 dc90 ec5d d5bf b350 677a 3cdb c9bf
000002e0: 9a29 cbd0 2b26 d5bf 78ec 1d8e 302c e03f
000002f0: 4481 8586 3f20 a7bf c439 15bf ff3b 83bf
00000300: 7df0 adb7 3f92 d73f 3afd e9a5 5c96 bd3f
00000310: ba8c 0634 a7a2 df3f 7134 183f 97ec d7bf
00000320: 0020 d193 0811 bcbf 91c6 1b2b 5e54 c73f
00000330: 29dd 938d c9b7 b13f e496 778e 5855 cc3f
00000340: 2234 2e11 899e debf 7f39 1ae2 0008 a43f
00000350: c0c0 8608 c085 d13f a989 69e6 c0ae 98bf
00000360: 40c9 dbaa 1193 c6bf cbd0 23f9 3513 c0bf
00000370: 29c8 a42f 73f1 c33f 69a1 8d39 ef21 ddbf
00000380: 7a3d b09b 00ae df3f 7d18 f10e 44cf d5bf
00000390: f124 9be8 c259 c2bf 4b3a 50bc 00a4 c73f
000003a0: ebaf bb09 6f4d d0bf 929a 1dcb d1f5 adbf
000003b0: 2560 284a cf5c cebf 3975 a67d 2259 e2bf
000003c0: c0d4 3647 2e75 903f 95ba 0fe3 a5e1 da3f
000003d0: a0a1 56aa 2fb9 dd3f d3e2 6a70 08a6 d53f
000003e0: 7090 7919 1a98 b43f cfed 7114 333b e23f
000003f0: 2c8b 29c1 96e9 d2bf b845 bcd9 44e4 b93f
00000400: 843e 203c 135f b2bf 1ada 4803 32eb cebf
00000410: 6114 a580 c76e b4bf 6c20 ad2c d724 d2bf
00000420: 6ff1 0bce 9439 ccbf cfa5 fee9 8c07 d83f
00000430: 1ba4 b5b1 74bc abbf 41f2 22b4 d217 e0bf
00000440: a94f 4620 8057 9c3f e3e2 b78f 271c e13f
00000450: d927 74db 9dff dcbf a9dc fb52 67ed d33f
00000460: b963 26c2 3736 a93f 59ed e6f2 b78b d03f
00000470: 705c 3311 3ffa d0bf d76f 3138 0359 b6bf
00000480: 1049 998a 83c1 c1bf 10ec 1591 163b dfbf
00000490: 6da6 d20a 96ae e03f 4440 aaa3 eee9 883f
000004a0: 51dc b691 df85 d63f 89f0 2001 7f26 b5bf
000004b0: 458d c3b2 0629 df3f 4396 473d 1acf da3f
000004c0: c58b ab19 e98d c9bf 1f8b 243f 6da5 cbbf
000004d0: 9e17 cd79 3fe8 d9bf e53a 602a 2d04 ddbf
000004e0: bb1c bc32 ad25 dabf 8c9f 5260 bdf7 dbbf
000004f0: 3ec1 baca fb88 c7bf 7ac5 e2ab 0389 de3f
00000500: cf8e 6d66 caee d33f 3c54 519c e840 d53f
00000510: 288f 2eba 4c07 dd3f 7a09 41a4 f9cb d53f
00000520: 7a18 6f26 01bd d3bf fc88 1700 5df5 d9bf
00000530: 823d f636 19ca e13f 5fcf de23 f0cb e1bf
00000540: e74d 49ac c7e4 d2bf a768 c060 02a8 dabf
00000550: e94f 618c 4869 d13f c551 2949 ff67 e13f
00000560: b130 df23 ea2b d73f 9c0a 60b4 cb2d d9bf
00000570: e17c 25ff 5031 d43f c249 1f50 1a50 97bf
00000580: 9c62 1ff9 5f9e b5bf 54e8 f6c2 8a8a c13f
00000590: 75de 3aac 04ca e23f e0d6 7b8b 793a d1bf
000005a0: 946f bfc9 612c dc3f 1c7a be8c 5eb2 dfbf
000005b0: 1318 4323 155a d5bf ebdb 8b33 2cae 963f
000005c0: 38db db17 08b1 d13f c23d a0c9 8935 d8bf
000005d0: 230a 0f50 bc2b e2bf 93bd abe1 3db5 d33f
000005e0: 7db2 dc9b e911 c7bf e969 e7e9 a54c c6bf
000005f0: ba5e 156a 6760 b23f 9705 0e56 fe75 c83f
-0.38563501484251467 0.12958472779737873 0.0882527953169778 -0.3776789942091872 -0.548092103428493 0.11019366169743167 -0.3774118960364358 -0.1157376793298809
0.03958892999647134 0.4440111609815218 0.22861676116669608 -0.20195622127851123 0.3767650768713263 0.11289336929477219 0.237355709128492 -0.3115398423976544
-0.21702658197589733 -0.36541008599344676 0.1934516802812372 -0.39009998401201174 0.30584101049130025 0.07099568137472397 6.696660201724139e-05 0.5061402514398333
0.11433546089598104 -0.1455631132451649 0.3382974233710234 0.23090731495626726 -0.13628958793621554 -0.1830101678681976 -0.29225988447578 -0.19891789001379903
0.07640713216375104 -0.4712370363119444 -0.480399473114891 0.31028835833510005 -0.19275600236667806 0.23256972104395146 -0.5959592796017815 -0.28615426906465996
0.39091577812048345 -0.29076635590128846 -0.5198717569757852 -0.17435504620515765 0.30964351421113434 -0.3226039272962312 -0.486931637553275 -0.5278529836214569
0.5461456978801511 0.2186841329032774 0.2884727508781906 0.5224852738344785 0.324060710211208 -0.19278408272975406 -0.318907620446183 0.31180564947333034
-0.2505928937202633 -0.10746272981648648 -0.1439794505546311 -0.38538695747716917 -0.5605933373044322 -0.2482129304278424 -0.08129460804517037 -0.43223790239790655
-0.40859269692559935 0.36732196999128064 0.10861301316321831 -0.43438570072928684 0.25454789927362126 -0.1441985903148073 0.08106440352264443 0.14007625609234792
-0.4202305026916445 0.3769394381886126 -0.24531546915896396 0.569656908577957 0.4010270836031459 -0.171755684040413 -0.3259548632118965 0.3739664194501071
0.33188171165265506 0.14854832277803057 -0.05717248351515652 -0.05705463796883888 0.027025872988841935 0.3803834382150347 -0.06675017455582162 0.21580504125895308
-0.4422909043212456 0.2085861204984412 -0.3338576712301845 -0.2020030591653544 -0.3304547823905978 0.5053942466469286 -0.04516790883167457 -0.009391782778632847
0.36830132424780243 0.11557559061656245 0.49430255966781156 -0.37381535684182327 -0.1096349106675234 0.18226220230967674 0.06921062189563955 0.22135455089954015
-0.47842623403340856 0.0391235614780383 0.2737884600892464 -0.02410413175892648 -0.17636319010450485 -0.12558626809152992 0.15580596758224033 -0.4551961957972908
0.49499526218365697 -0.34077550372274584 -0.14336429937092235 0.18469247050275536 -0.2547261805582354 -0.058516078991307854 -0.237207328042815 -0.5733807043176632
0.016072009178704105 0.42002246068924737 0.46442786821946846 0.3382588479831103 0.08044589158959226 0.5697265052144135 -0.295507134089507 0.1011393577175771
-0.07176323144835278 -0.24155259285335334 -0.07981535807364672 -0.2834985672275312 -0.22050724087592807 0.375460842619387 -0.054172178929384716 -0.5029080885211173
0.027677537889374246 0.534686833095375 -0.4531016009428846 0.31136496642961703 0.0492417740344488 0.2585277435388967 -0.2652738254523177 -0.08729572412397545
-0.13871807353513832 -0.48798145454901576 0.5213117801078632 0.012164940232907047 0.351920978831406 -0.0826186540370505 0.4868790384045563 0.41889053329791553
-0.19964326623366282 -0.21598592360631927 -0.4048002900566362 -0.4533799089266906 -0.4085495944459116 -0.4369958344127489 -0.18386790655996238 0.4771126917431371
0.31144962313395025 0.33208670869254653 0.453570539301142 0.3405746559184518 -0.3084109187442504 -0.4056007862947266 0.5559202264284269 -0.5561447811692054
-0.29521362137640356 -0.4165044731941045 0.2720509882831253 0.543944971936576 0.3620553350745111 -0.3934201489902678 0.3155100337662145 -0.022766505375168007
-0.0844478591165036 0.13704046745061993 0.5871604312769266 -0.2691940176149341 0.4402088613694499 -0.49526180023704724 -0.33362320369303794 0.022148790975702253
0.2764301522251347 -0.37826771440537865 -0.5678388179442816 0.30793711698694287 -0.18023414717153577 -0.1742141143902949 0.07178350772789602 0.19110087587254718

encoder.0.0.bias f8 [64]
00000000: c98a f87f d353 e03f 0f91 0540 90b9 d5bf
00000010: f40f 0200 2f8d e03f db1e 0b00 a4cd dc3f
00000020: 9a1d fb7f a7c4 ce3f c81a 0480 2f97 e03f
00000030: a1b4 0100 259d e03f 2d30 07a0 cd25 e1bf
00000040: 3088 6200 c230 a33f 9f92 3600 187e ce3f
00000050: 72fe e4ff f2e5 d0bf 5c2b fe7f c57a dd3f
00000060: 37d4 fe7f bec4 d1bf 09f6 34c0 8ce0 c5bf
00000070: 5f7d edbf 0344 c9bf df6c 1500 0053 aebf
00000080: 6e80 f97f bc7b db3f 897e 0780 78ce de3f
00000090: a1a8 0f00 9f09 bc3f 38b3 e47f 6669 dbbf
000000a0: 9583 df7f 12db c63f 7f6d 7b00 de85 ab3f
000000b0: 07da f53f 0709 d13f 7f0e e4ff a7a1 aabf
000000c0: 4d98 d2ff 7627 b23f e85c 0000 4528 cf3f
000000d0: 7abc f4bf 2628 d73f 69c2 fabf 805e e1bf
000000e0: aebf fbdf 618c e1bf 2427 2080 0efa d9bf
000000f0: b795 0a40 307a d53f 0e52 faff 1386 dc3f
00000100: f5f2 e97f 8dc3 b5bf df1c b1ff a72d 9dbf
00000110: 733e f8df 3e10 d9bf 999d 1b40 6367 cebf
00000120: 01a9 df7f f5d3 df3f 43fa 2e40 a8af c4bf
00000130: 59ab f79f cc38 d8bf e40e ec7f 2765 b9bf
00000140: 5062 f93f 2074 e13f 5f75 3000 8b0f b23f
00000150: 5852 0880 1efb d63f 623c 2f00 ce10 c63f
00000160: f860 f17f fd38 c83f 3194 04a0 3905 dcbf
00000170: 4713 1700 01af cfbf 39e0 0e01 e6bf adbf
00000180: 70f9 3000 2ea0 b73f afff 0340 0f77 d0bf
00000190: 9437 feff c824 ce3f c8bf f53f a01a d2bf
000001a0: 1606 eaff cce3 c23f 475f 0580 b0a8 d9bf
000001b0: 22b9 fbdf 5714 e1bf cb9c 1680 e52a c73f
000001c0: eae2 b3fd 7f3b 733f 5aa5 0960 1b2a d4bf
000001d0: 846b 21c0 6d32 d6bf 9021 fe3f bf10 e0bf
000001e0: 465b fdff 6341 e2bf 4ff7 8a01 84bd 91bf
000001f0: 5bdd 12c0 6b9b d6bf 9fd8 07c0 52ef d63f
0.5102326869421968 -0.3394508958065367 0.5172343254239409 0.4500513077186789 0.24037641285961514 0.5184552669823796 0.5191826820497633 -0.5358646512554565
0.03748136763285037 0.23822307596596645 -0.26403498639772416 0.4606183767252128 -0.27763330936005864 -0.1709152163038399 -0.19738814231366583 -0.05922698975583684
0.4294272660972699 0.48135197165354576 0.1095218062543233 -0.42830812921129136 0.17856055492213999 0.05375570064435475 0.2661760449040291 -0.05201458929698521
0.0709146856848701 0.24341642856663914 0.36182564492896285 -0.5427860021209884 -0.5483865141559272 -0.4058872462488685 0.335582792797449 0.4456834792884202
-0.085015147904368 -0.028494477254096814 -0.39161655303994464 -0.23753014211909543 0.4973119496122678 -0.16161063322029365 -0.37846675512144184 -0.09919974206064414
0.5454255342002146 0.07054966692563401 0.3590770960156866 0.172387838449569 0.1892392039033053 -0.43781891466852857 -0.24752819542313828 -0.058104694012798004
0.0922878981082016 -0.2572668194916287 0.23549759387645663 -0.28287512060250863 0.1475769280987584 -0.4009209871487553 -0.5337333082841591 0.18099659685433375
0.004695415463395783 -0.3150700033061945 -0.3468279243731376 -0.5020443200929083 -0.5704822540090866 -0.017324507326285595 -0.35323613888927746 0.3583571315097149

encoder.0.1.weight f8 [64]
00000000: 6f7d 984b 32b6 ef3f c50f 6d1f 9e1e f03f
00000010: 1d56 1238 962c f03f 5b3e cefe 4d1a f03f
00000020: 3447 f0a3 9e0d f03f 9db4 17eb 7707 f03f
00000030: 3a05 33d4 22c4 ef3f c251 a623 de3f f03f
00000040: 969b c254 0934 f03f 22d8 f08a f032 f03f
00000050: 1a78 23d4 21bb ef3f e714 f0e6 252b f03f
00000060: bd42 3353 a305 f03f 8dc1 f27c 2670 ef3f
00000070: 7110 dd39 1cc7 ef3f 6e32 b0d5 712a f03f
00000080: 6bf9 d9fd 8825 f03f 31fa 6357 9a01 f03f
00000090: 7a3f ec85 8856 ef3f d920 01af 5606 f03f
000000a0: cb9e 515f 070f f03f ea9f ced6 84c2 ef3f
000000b0: 914e ce02 8e98 ef3f fe14 c4d9 6606 f03f
000000c0: 88d0 bae3 42dd ef3f d9fb 1233 5903 f03f
000000d0: 6899 5439 3ff1 ef3f d564 e0dd d0bb ef3f
000000e0: 02b7 f054 d008 f03f f8e4 bfc8 5fc7 ef3f
000000f0: 2a8f f14a fbcf ef3f 73df 7b8c da97 ef3f
00000100: 334b ea2d 4663 f03f fe6b 8634 dcfa ef3f
00000110: 1d92 928a d81e f03f afb6 82fb 69cb ef3f
00000120: 553e 9f27 2e64 f03f e805 0661 5fcb ef3f
00000130: 7d2d 6743 2513 f03f 18a7 59b8 fbbf ef3f
00000140: 3961 c9d6 4e1f f03f c8c5 bb2f 9455 f03f
00000150: bd2d 344d 7181 ef3f 11f8 9861 3f4b f03f
00000160: 2c38 bffb fcdf ef3f d28f 9964 c727 f03f
00000170: aa9a e730 569c ef3f 83be d994 bb75 ef3f
00000180: e5aa 704c 791d f03f d37d 9b8b ce49 ef3f
00000190: 4cdb 0392 23cc ef3f be1b d803 459c ef3f
000001a0: 5ef0 703d 6527 f03f 1af3 a050 1b2d f03f
000001b0: 1439 9762 7201 f03f 35ea 4b56 82cf ef3f
000001c0: 5cbe 99df 2127 f03f 65f0 f668 6d25 f03f
000001d0: cda8 6e7f 5502 f03f 0ce3 0ede c231 ef3f
000001e0: c4e3 689e f33e f03f a056 dd65 7221 f03f
000001f0: 8c92 f907 9bd4 ef3f e87f ddc3 3924 f03f
0.9909907795408069 1.0074750163630466 1.010885447530547 1.0064220383973381 1.003325119385818 1.0018233474068332 0.9926923889653729 1.015592707878668
1.0127042113251483 1.012436430680744 0.9915932792025643 1.0105341931351235 1.0013764619836103 0.982440227546293 0.9930554514071571 1.0103624674985912
1.0091638485024201 1.0003913320248439 0.9793131461792506 1.0015475116834323 1.0036691401855247 0.992494983239337 0.9873724036028354 1.0015629297716369
0.9957594344946452 1.0008174891552157 0.9981990928397808 0.9916767438436646 1.00215180568506 0.9930876656427747 0.9941383804075248 0.9872868293596028
1.0242368501246346 0.9993725801354001 1.0075307286252901 0.9935808098141105 1.024458079122174 0.9935757536879324 1.00467420892059 0.9921854591932258
1.007643546114265 1.0208932747449229 0.9845510967147032 1.0183709919360846 0.996092311566604 1.009711640327613 0.9878340678377147 0.9831216723668635
1.0071957574788766 0.9777596213061152 0.9936693050247896 0.9878258776742468 1.009618034367143 1.011012377696892 1.0003532267761033 0.9940807042579026
1.0095537886044417 1.0091375446491153 1.0005698182890683 0.974824365336731 1.0153690517311 1.0081657389722878 0.9947028308639161 1.0088441515908873

encoder.0.1.bias f8 [64]
00000000: 05ef 30dd ab3a 75bf 6941 5f6a 877e 813f
00000010: b38a 969f b549 863f ec05 b4ad f047 833f
00000020: f397 1c32 14a0 653f 75d5 e05a ed07 6d3f
00000030: f8ba b6cb 241a 6e3f 398f d3b1 1c91 7e3f
00000040: 36c2 86af 40c1 653f 13ca e413 4385 793f
00000050: 0d1c 28fe 6e5d 7cbf 87ed 6b9c 2fab 8f3f
00000060: bc6f 095d 2043 903f a035 059b dadd 5abf
00000070: 0bdd 076e 698c 81bf f342 71fb 8292 883f
00000080: 4384 4861 f126 8a3f a374 e05d bffe 683f
00000090: 7a2f f7e8 3ef7 8abf e70f 2a1e 6ebe 4dbf
000000a0: 0b7e 1e21 5e76 633f 7546 e0b5 ccdd 6c3f
000000b0: 91be 97ee 8e2b 86bf 1104 877d 670e 71bf
000000c0: 53f8 053a 6cb8 773f 4889 1b6c 080b 203f
000000d0: 8823 b2b6 c9a4 83bf 923d 2019 f74c 863f
000000e0: 2ce6 6920 16b3 903f a03c 1219 43bd 88bf
000000f0: e696 dc2c e103 73bf 1ff7 f7ec e259 8dbf
00000100: e4c9 7a8c 1bc6 7c3f 94af 343e 2831 7dbf
00000110: aa6a 1483 02a9 913f ebd7 509b c06d 863f
00000120: 881a bfeb 3a17 923f b1cc c9c7 297c 693f
00000130: b347 31ca 4e43 753f 8212 883e 9821 81bf
00000140: c620 d1a5 23d5 863f 3350 aecd 3740 8b3f
00000150: ac06 e546 2b5d 713f a5ea 4ccc fd6a 903f
00000160: b1c7 8bcc 41ff 0e3f e880 3332 be35 6f3f
00000170: 14f2 ebac 798c 79bf 1fef ee67 faa4 823f
00000180: 9722 291e 04fd 8c3f 98fe 703e d5ed 8abf
00000190: 716c 61af 4567 703f 8df5 ee90 683e 84bf
000001a0: c73f fa5a 565c 873f 741f 1c67 2ea1 6d3f
000001b0: 94e2 56e8 f5fd 8b3f aad2 e556 37a4 5b3f
000001c0: 41f3 6be8 e2de 863f d5fc f230 fd1e 7c3f
000001d0: 11e9 84f7 afae 8a3f fa79 69ed fedb 37bf
000001e0: 2e0d e119 8e29 913f 7451 7631 cfcb 843f
000001f0: 2541 6111 e26c 953f f5c0 19d3 b2c7 3d3f
-0.005182906478747422 0.008542116101950286 0.010882777149907019 0.009414558697701879 0.002639808125326043 0.0035438190307341363 0.003674575678551558 0.007462608421722022
0.002655626620445407 0.0062306041930235865 -0.006925042691825045 0.01546323009596652 0.015881066969413146 -0.0016398081607634576 -0.008568595571871748 0.011998198793806014
0.012769590169286476 0.003051160586450567 -0.013166896328492095 -0.0009077108082498037 0.0023757780517852426 0.003523731064895947 -0.01082526841761869 -0.004164127596994597
0.005791113624921423 0.00012239911853046737 -0.009591651809630411 0.010888987020762273 0.01630816052281696 -0.012079738810170604 -0.004642371741089701 -0.014331601006229598
0.007024867641734354 -0.007126958083329433 0.017246283770058803 0.010951523532735727 0.01766674102671087 0.00311096344221936 0.005191142819130623 -0.008364858063040662
0.011148718355017084 0.0133060798305352 0.0042392435555613055 0.016033139795789925 5.912227203975997e-05 0.003809806324724819 -0.006237483305764364 0.009103733345788676
0.014154464884215385 -0.013148942916927184 0.004004738051743493 -0.009884659693734555 0.011406588221944859 0.003616896276870502 0.013667985108314164 0.0016871014045964174
0.011167309492060464 0.006865490940241877 0.013028502217470124 -0.00036406492055177065 0.016760082559142457 0.010154360482183412 0.02092316847876065 0.00045440784297225086

encoder.0.1.running_mean f8 [64]
00000000: e149 8c1c 3f09 de3f 1d80 b003 c217 e1bf
00000010: 9358 6890 f71d da3f bf40 d8d0 d3fe e13f
00000020: 2297 f15a ed8b da3f 1323 2639 6679 d33f
00000030: a8cd 278d e667 e13f 5e37 113b cd6c d9bf
00000040: be8c dcea 5d3e bc3f 4b7e 1fe2 12d8 cb3f
00000050: 7c01 3c53 c33c d7bf f75a bf25 dbac d33f
00000060: 6d84 0cd0 9b52 dabf 1d5d be45 cc78 cbbf
00000070: 9d6e 72ea 2492 d2bf 6bcf c4a4 7d50 d8bf
00000080: 3a34 e992 1cd4 e53f 3188 0dc1 566c e43f
00000090: 3003 2739 c198 a83f 9481 da26 9297 e2bf
000000a0: d36f 8ac9 28d6 a1bf 0e98 4857 f887 aebf
000000b0: 23a6 1d94 a7f7 cf3f 1b36 4142 aa8b a0bf
000000c0: 993e 0144 4337 523f a678 c818 1fda db3f
000000d0: b4ca 7410 8cfd dc3f dab4 f65f 3b1c e1bf
000000e0: 626a 2378 b1db ddbf 0b38 f0da 9944 dabf
000000f0: b954 53d1 7b62 c03f fece 64ab 6cb7 e13f
00000100: e342 be08 0330 c33f 21bd abfd 9ecf b9bf
00000110: e972 6060 2bd8 dbbf 8748 6a95 d499 c5bf
00000120: feea a9ea 938d dd3f 8ed5 31b9 cedb cdbf
00000130: 63ac 6605 ab82 dbbf 281d 03ff 81b0 d3bf
00000140: e399 8344 685c e83f 5cee 9604 05b2 d33f
00000150: 11ba bbab dbed d23f 7cea af11 0ff6 9b3f
00000160: 134b 29e9 bf35 cb3f fbf8 98b5 cf21 dbbf
00000170: 9c82 d233 933d d1bf 68fb 237c 1fab b4bf
00000180: 5210 9f5a 9631 b13f 2b27 cf42 0b54 c8bf
00000190: f680 5d77 e3dd d93f 7323 aff4 2748 e1bf
000001a0: 5ebf fef1 f66f b9bf 0d9f 8da9 1be8 c0bf
000001b0: 3738 0f7a 5ca4 dabf dd59 71f4 7abd b53f
000001c0: 7915 e7c9 05ae b9bf 9583 c489 70a2 c8bf
000001d0: 909b 9db5 85f4 d2bf 5c72 6648 f235 d9bf
000001e0: 5f44 5340 cf3d e5bf a482 32cc 4942 a2bf
000001f0: ba5c 0d8b fc5e ddbf ed7f 5ef6 d541 d83f
0.4693143633641324 -0.5341501304683366 0.40807904341034734 0.5623568610190189 0.4147904766199294 0.30428462582544674 0.5439331776564602 -0.3972657276943802
0.11032664283679858 0.21753154793894888 -0.3630836785159983 0.30742529569890514 -0.4112920314528939 -0.21462396054696678 -0.2901699342271316 -0.37991276827528137
0.682142531333404 0.6382249613345775 0.04804042647038498 -0.5810023077829549 -0.03483703098501647 -0.05963111939881581 0.24974531872003167 -0.03231555994771559
0.0011118084803633298 0.4351880781195042 0.45297528845837154 -0.5346962808886488 -0.466534011194801 -0.41043707256983514 0.1280054828736519 0.5536406848463853
0.1499027054492422 -0.10082429593216037 -0.43506893550674747 -0.1687570313993698 0.46176622311001825 -0.2332704929610085 -0.42985034491966284 -0.3076481809952889
0.7612801874318474 0.3077404541797699 0.2957677056391797 0.02730582757429055 0.21257780918912114 -0.42393868192802103 -0.26938324032566086 -0.08073612957740084
0.06716289246020438 -0.19006481897513913 0.4041680017162571 -0.5400581149088864 -0.0993646946724289 -0.13208337573018306 -0.416281813811 0.08492248981324431
-0.10031162432922781 -0.19245726324973292 -0.29617445693877986 -0.39391762800531693 -0.6637951141693853 -0.035661989380291886 -0.4589225156718829 0.37901829776273993

encoder.0.1.running_var f8 [64]
00000000: 61fb 5967 9690 803f c9e1 80a5 99ac ab3f
00000010: d0bd 853e 16f7 913f 1e0f b14d e8b3 983f
00000020: 47b7 521c c34d a23f c0c3 a734 2926 ab3f
00000030: 7ab9 91a0 3089 813f 1a86 2721 ffe1 9b3f
00000040: 03fe 5679 2b42 833f 42d0 487c 1ea7 733f
00000050: 9c36 6ebb 290c 8e3f d686 348d f9e4 a63f
00000060: 975f 2597 e9cb 9e3f a28e 3b3b ef8b 853f
00000070: 023c df82 35b3 993f 151e 8bde 2bdf be3f
00000080: f926 0d31 0544 b33f 9e00 6ce3 00c5 a43f
00000090: 0fb6 469b c0bd 853f bfe0 4379 8549 9d3f
000000a0: 7af7 615f d576 ad3f 1e38 b5eb 128b a03f
000000b0: b766 de1b 10f6 803f 6991 63cd b688 633f
000000c0: c9c0 f961 8ec6 8e3f ae51 80ba 03b9 ac3f
000000d0: afcf 5bf0 11e4 963f 4482 c7a9 f6c2 533f
000000e0: 2af0 f066 65fd 873f 1e63 ca6c f915 813f
000000f0: 1c3f f67e cc79 a93f 1870 8844 75c7 943f
00000100: f211 cb98 5a93 b03f a3f9 cb05 d933 8a3f
00000110: 87d0 afef 4b33 883f 5acc 9b4a c202 7e3f
00000120: 7b3a bd72 7d3a 713f 5a13 9457 e0cb 943f
00000130: 5b42 0631 01a8 773f 719b 3d52 359f ac3f
00000140: 47de 6a07 cd9d ae3f 05ba 5649 093a b13f
00000150: 310c 186c 5d7d 7c3f bde2 0e57 332a 993f
00000160: d447 df52 e3dc 7a3f cd1a b7f5 341d 983f
00000170: 75bb 08e6 f34e 863f 16e6 d3cf e380 773f
00000180: a02c 22b2 3cd0 933f 7f03 e8af f621 823f
00000190: a9de 76f7 345c a73f 10e4 d941 230e b43f
000001a0: de37 4232 93a9 b23f 7e91 acc0 be7d b53f
000001b0: 177c 6be4 ab45 9f3f ca88 951b bf9d 9e3f
000001c0: 667a c143 7253 983f 8463 3e80 8ed3 a33f
000001d0: 0c4d b950 dc61 7b3f e9e5 9f65 7c63 9b3f
000001e0: 3280 1db7 759f 9e3f be2d 8f84 1076 7f3f
000001f0: 46fe 7023 8648 983f 0eef 9245 d9c4 6c3f
0.008088278798138839 0.054051209881837155 0.017544124189439902 0.024123792402192305 0.03574952812901571 0.05302552001729266 0.008562450313743798 0.027229296110709546
0.00940355266618465 0.004798049053125255 0.014671636612344323 0.04471568916984629 0.030074739313334566 0.010520810122620464 0.025097690689843695 0.12059282477559237
0.0752566571001373 0.040565517198048115 0.010615830172208822 0.028600774313390028 0.05754725255336175 0.03231104972165631 0.00828182778404894 0.002384526286833989
0.015027153363206829 0.056099049106851026 0.02235439328701688 0.0012061508961026682 0.011713783458724054 0.008342693932080144 0.04975737619235884 0.020292122180862376
0.0647484419851663 0.012794204224971411 0.011816590549621487 0.007326849890648546 0.004206171066313598 0.020308976502764288 0.005775456098846189 0.055902162827627395
0.05979767528100104 0.06729181328294238 0.006955494814522332 0.02457504481182825 0.006558311446456206 0.023548915383595315 0.010892777879318175 0.005738153352689254
0.019349048969655613 0.008853842967256885 0.04562535782627936 0.07834072454160457 0.0729000089361018 0.08394996837575339 0.03053921300567816 0.029898630198098165
0.023755822549328086 0.03872342410540511 0.0066851240222434265 0.02674669618861528 0.0299051659598037 0.007680954477972289 0.0237141570216848 0.003511833533222381

encoder.1.0.weight f8 [64, 64, 3]
00000000: 8a81 4b57 7bd3 a1bf cf5b 7714 aab7 8bbf
00000010: 3d15 87eb 2bd8 97bf a108 4be7 1a71 b23f
00000020: 5757 3789 e1fc a3bf 6728 f6ba fb9c 86bf
00000030: 33f2 d3ba 8991 8a3f 2066 d072 1f30 ad3f
00000040: ee5c 1162 8e60 9abf ba0e 410b 9941 b5bf
00000050: eb8e 4167 8bf8 973f b111 a6e5 2935 9d3f
00000060: be73 31d2 129b aabf 4ebb 515f 286d 823f
00000070: e243 bcee d93e b0bf 4740 87b1 2549 86bf
00000080: 48fe 85d2 45a4 aebf 92fc a88a f66f 84bf
00000090: d6b5 70ef 2f03 ad3f c7af a245 a667 8c3f
000000a0: 40e4 4613 a8f6 af3f 2cb8 f2a1 5e61 a03f
000000b0: 8c6b 0e0c c424 b5bf cbb1 05fc d096 abbf
000000c0: cfa8 1957 b64b 7dbf 3292 4e60 99c9 9dbf
000000d0: 7d17 60ac 5b21 9bbf 80fb cfb4 a2ea ae3f
000000e0: 0c44 8ea9 e0c2 a93f cc0f 6501 70ea b1bf
000000f0: 4f57 09e7 8267 a5bf 82a4 959b 6723 b1bf
00000100: a586 5f6a 44f2 a43f 4ba1 4875 1812 9a3f
00000110: f91d 2f2b f912 acbf bf87 c4c5 edf3 b33f
00000120: 2d53 277b fdd7 8d3f e1be 0bb4 791d 993f
00000130: d98b 4145 baae 7dbf fa30 62ba e00e 5cbf
00000140: 5f74 8f3c bd93 ae3f 39a8 4e03 741c ab3f
00000150: 8024 32a9 5f6d 9a3f 0a96 0aa3 3a51 993f
00000160: 5b3f 1699 2932 a33f cd7b 7e11 375b a6bf
00000170: 8d9b d924 96d3 89bf b658 ba30 abb9 ab3f
00000180: 4e00 563e 75dc acbf d32f e6a2 1f6e b0bf
00000190: 6a33 ceff e96e a8bf e7ef 1869 d370 9c3f
000001a0: 0eb3 97e0 828d a0bf 5f03 0a9a 4717 86bf
000001b0: 9a71 49aa 0614 adbf 1e96 6b05 0eaa 9d3f
000001c0: f7fc bc60 55bb aa3f 7601 8943 fd5b 8a3f
000001d0: e535 be1f a117 b43f 954d 5cc6 ac4a b33f
000001e0: b68e 3c24 b081 a13f e1f2 07ac cc2a a03f
000001f0: 29e1 0a17 5946 b13f 0128 4c28 877f a83f
00000200: 6a69 ca9a a803 9ebf 28df 9282 c8e0 adbf
00000210: b053 6c92 752e aebf c802 4cc1 6755 a43f
00000220: a55e a1c7 21c2 8cbf 4357 5aef 29e8 a3bf
00000230: a2db 00a4 4133 8abf f5d1 6a18 899e 603f
00000240: 8ecc c2c7 2f9e adbf 91ca 05e0 bbdc a8bf
00000250: 19b0 9e39 0491 a3bf 022e eda5 55b8 97bf
00000260: 7a95 7038 0b20 933f 259f db3e e02e 8abf
00000270: 4fe3 e556 6a0c b0bf b311 e5bd f72e b5bf
00000280: 308f c491 718c 683f cad0 8cbe 2f96 a4bf
00000290: b030 9d06 b762 a0bf 1177 808b 289e a43f
000002a0: 148a a45d c879 a6bf 544f 20fa b6f8 84bf
000002b0: 6ce2 a4e3 f5cc a1bf 24c0 45ff 55f1 403f
000002c0: 4995 f0cb f994 993f 5357 2d91 9600 7fbf
000002d0: 93e3 7e28 1319 b33f a4c2 150e 33a3 b43f
000002e0: 8b67 57bb 5865 b43f 4cdb e9ea c064 b0bf
000002f0: 2bc9 d939 f2e2 90bf 3c7c e796 98d6 9e3f
00000300: 3843 53c7 8c06 a73f e5ca 00c4 94b0 b3bf
00000310: 9af5 bff7 a894 aebf b238 2890 51da 8d3f
00000320: 8b51 5b62 a4ee a33f 9ca0 fb09 cae6 afbf
00000330: bdfc 1f78 1fd0 9c3f b2f9 273c 9884 983f
00000340: 75a7 458f ee9e b6bf 32e0 88c9 9830 a2bf
00000350: ffa1 fd0d 80cd 80bf 7d97 ec4e ec9c a23f
00000360: ae15 b9ce 2781 b0bf 66d4 d04d 18bb 76bf
00000370: 283b e130 fa3c 83bf 4044 bf0a 503a 893f
00000380: e401 fa2a 7507 b3bf f4a8 d1c2 12b5 943f
00000390: 953f 3fb3 b3b9 9ebf 21d9 72df 3af2 a33f
000003a0: 252c 4749 2320 803f 2804 f2de 7e1e a53f
000003b0: 5ca0 b797 b51b 733f 2f07 ae76 022d a7bf
000003c0: b89f 5dfe ab04 aebf c2e5 b944 22ed ab3f
000003d0: d7fa b2a4 9d9f ab3f d76a 2c9b a637 a4bf
000003e0: 4520 3efe 080c a2bf 08c1 8fdc 1751 8abf
000003f0: 51f2 433f f4b4 aa3f 1fb6 237e a42c a43f
00000400: 5f7d 0043 22bb a83f 354c cd65 da92 90bf
00000410: 1143 244d dd40 afbf 839e 07d2 ab8f 99bf
00000420: 793c a520 a00d b5bf 402b 91ea 7a42 a43f
00000430: 6ecb 085a abd8 8b3f 8787 cb5e d236 80bf
00000440: b1cd 5b19 2ce8 b5bf 2dc3 f8af c88c a63f
00000450: 7296 ff86 fa24 aa3f c6f8 07d5 5896 a8bf
00000460: 4dec c698 5804 953f 9e10 1f99 ab42 a93f
00000470: db85 fe31 326b a9bf 1c51 000d c629 adbf
00000480: 79d5 18c3 6040 a6bf 11a1 10f9 0bcc 8fbf
00000490: 0af7 1f40 0499 64bf 02e5 b5bb 49d5 5fbf
000004a0: e953 5ff8 354d a13f 3a61 c2dc 9cfa 80bf
000004b0: f839 b91c b69a a43f 5988 0058 9c8e a3bf
000004c0: 7276 7c77 0bd8 a8bf 1e4d cc05 259f b13f
000004d0: a898 c3f4 132b ad3f f51e 403b d418 9d3f
000004e0: b5da 0bd4 d4ee 4a3f ba9a 5cb6 8957 b33f
000004f0: 5ea9 a1b5 f7a5 8abf f5b3 e3a0 1d5d 6dbf
00000500: 980f 33e8 7d72 9a3f 71a9 f254 d737 a2bf
00000510: 20b3 2f8c a726 a53f 5027 23bd b0de b2bf
00000520: 8943 bb39 c780 97bf b589 781d 37c0 a73f
00000530: 9479 4b9a dd6e 92bf e1fa 70f6 3074 a6bf
00000540: 2678 a04c 0d72 8c3f 7616 4481 8971 4f3f
00000550: 86e7 1027 4f7b 973f cca4 556b 8590 a73f
00000560: f113 1878 ef01 b5bf fa78 011b 4ee0 afbf
00000570: 6099 30f2 8207 8fbf 29a9 2a2e 2006 a0bf
00000580: fcf6 a4de 3243 88bf 4962 c344 c0cf ab3f
00000590: f65f 8f6a 6590 a1bf 3d32 7640 f323 9f3f
000005a0: 1212 a6e5 7ca6 983f 8cc4 92e1 12cf 803f
000005b0: 0121 da18 67a2 99bf 3bcf 7d82 5d6b ab3f
000005c0: 354e d6d2 032e a5bf b35d 6854 d067 a33f
000005d0: 6978 a43d 5b62 a63f ef01 4158 86af 823f
000005e0: aab9 0303 b8c5 a23f cd43 0eb4 a553 aabf
000005f0: 3d28 ae82 9097 85bf df0d 1c29 c571 aabf
00000600: d8d0 1b8c c2e0 a0bf 386d 63de 6884 70bf
00000610: 174b f117 22ae b03f e047 3ec9 b187 7ebf
00000620: 40ea b24c 4012 a0bf 5d2e 2332 f827 96bf
00000630: c716 d8fe cdb9 a23f 0e37 ccf4 5d19 733f
00000640: bc0a a569 ad41 a33f 9e8a 63a3 744d a33f
00000650: 3800 dbc8 05ee a33f adb9 48df f0d0 ac3f
00000660: 3964 90f0 0820 8f3f d7d3 58f2 00e1 7a3f
00000670: d8e4 b9ab a877 9fbf 6cbc 8cf0 2a03 993f
00000680: 72e6 0269 50aa a63f 41dc f63f f6de a73f
00000690: e71a a7d1 8b66 adbf 03ca 8728 c83f b2bf
000006a0: 000c 2455 81b5 9cbf 0202 13ef 5310 a03f
000006b0: fb8a de29 adb0 763f 9ad2 b489 a04c a5bf
000006c0: 17f5 0554 07be afbf aeff f41e 2d2d 923f
000006d0: 3cac e8bc ba11 77bf cad9 77ba 2cc3 a7bf
000006e0: 61a4 20d1 78d9 9f3f db07 acd5 6d4e ae3f
000006f0: 4aa7 d2e2 4e50 8bbf 3845 c308 86be af3f
00000700: 1c40 2a8b 8a31 a4bf fe04 2b9e 0db0 883f
00000710: 5c65 45db 1833 adbf 49ff 8777 c670 adbf
00000720: e2aa 6948 709f 953f 819b 9572 a483 83bf
00000730: 1283 cc9b 277c 90bf cd8c 3591 500c ad3f
00000740: d609 9e22 e830 543f 68a9 37ca 6dcf 7c3f
00000750: 07e7 9349 2279 92bf 485f 32a3 d877 533f
00000760: 31e1 19c0 a0f4 78bf f9c1 8747 773d 72bf
00000770: 81c0 3190 0014 b33f ce5b 7885 ada1 613f
00000780: f6d5 499c c7f6 a03f 3b4d 18cc 3261 b1bf
00000790: 1d61 0858 f261 a13f 9336 997d 2fb3 7ebf
000007a0: 94ad 5bd0 2586 aa3f d07b a117 9139 a4bf
000007b0: 438d a23f c7a5 abbf e6a5 d482 8f52 97bf
000007c0: 354b d8e3 f621 b1bf f743 5955 7f02 a53f
000007d0: fbd5 2e14 ba5d 8c3f 8e76 7c73 b89a 9f3f
000007e0: 6a43 ddef 3627 9fbf 1f9e 3948 732c a53f
000007f0: 405f c8bb 7d87 9bbf caa5 a997 91ed aabf
-0.034816603094216594 -0.013533905744152279 -0.02328556656882096 0.0720383467369481 -0.03903870391847757 -0.011041609423745947 0.012972904218707537 0.057007773175609566
-0.025758957610688187 -0.08303219342001969 0.023409059693576244 0.028523115770001165 -0.05196436706385253 0.008997264298356147 -0.06345903471471062 -0.010881704788431657
-0.05984705157152043 -0.009979177576609186 0.0566649417672626 0.013869570732218407 0.062428715088977516 0.03199287154107852 -0.08259225172370871 -0.0538850124019948
-0.007152282969039982 -0.029089352133853726 -0.026494438549000677 0.06038387734587669 0.05031492299816173 -0.06998348268558557 -0.04180535383481631 -0.06694648312044829
0.04091085241794915 0.02545965400546039 -0.05483225490712224 0.0779408080893793 0.01457212478718758 0.02452650224125719 -0.007246711367858227 -0.0017125315294235764
0.05972091068517992 0.052951455501287055 0.025807852460762337 0.024723926736120595 0.03749208444344162 -0.043664666066653625 -0.012610600471089995 0.05415091485808558
-0.05636946092545313 -0.064180352468781 -0.04772120711923018 0.027774146356236342 -0.032329645076833655 -0.010786589992905325 -0.05679341152856239 0.028969019966913583
0.05221049123655946 0.012870768188009345 0.07848555588699176 0.07535819857394295 0.03419256632176142 0.031576534271129615 0.06747967541275969 0.04784796111023582
-0.02931083149688033 -0.058355585040258895 -0.05894820606605522 0.039714090677085034 -0.014042152313933196 -0.03888064429081208 -0.012793076341137969 0.0020287206310405322
-0.05784749330032311 -0.048559065910827155 -0.03821576312415704 -0.023164118053768952 0.018676925010500757 -0.012784721296568666 -0.0626894437936134 -0.08274792085746334
0.0029966562416507067 -0.04020833207178638 -0.0320031352590332 0.04026915266898191 -0.04389787810420756 -0.010240010746236962 -0.03476684955461881 0.0005170507343290648
0.024982359955307207 -0.007568920281149821 0.07460136164344382 0.08061522573349095 0.079671426522877 -0.06403737769310885 -0.016490731030395594 0.030115493975128013
0.044971846896834256 -0.07691316399795374 -0.059727936022663644 0.014576565944505713 0.03893006992953748 -0.062307656973474596 0.02813767595943938 0.023943308517112967
-0.08836260793546365 -0.03552701435222651 -0.008204460551227475 0.03635347808294307 -0.06447075650165487 -0.0055495213865031975 -0.009393648735707652 0.012318253829933679
-0.07433254527314365 0.02022198976593699 -0.03000527173554664 0.03895744302410465 0.007873798059241885 0.04124828788281604 0.004665097566864142 -0.0452652711746978
-0.05862939338732026 0.05454356278364571 0.05395214686858701 -0.03948708194930866 -0.035248070750697504 -0.012849985521797183 0.052161820147351386 0.0394030956248168
0.0483027178563542 -0.01618520017957455 -0.0610417515437175 -0.024962124532889717 -0.08223915860183863 0.0395697032295943 0.01359685772431415 -0.007917064206995906
-0.08557391757113099 0.044042846184657904 0.05106337449960287 -0.04802205658414631 0.020524391484041882 0.04933677906186172 -0.049645966151057506 -0.05695933254915728
-0.043459914985230115 -0.015525907076224617 -0.002514370252355462 -0.0019429416705334939 0.033792196816342664 -0.00829050587371737 0.040242854124347305 -0.0381974084305205
-0.048523290954318635 0.0688346041827583 0.05696928370325455 0.0284150277293795 0.0008219279480659788 0.07555447294417209 -0.01301187060399361 -0.003584440105547144
0.02582737664921772 -0.035582284087768985 0.041310535299862616 -0.0737104856263191 -0.02295218744149311 0.046388361308589955 -0.01800104383698338 -0.04385521896664613
0.01388941183182275 0.000959579602324025 0.022931324729348578 0.04602448401676326 -0.08206078226073978 -0.062258187100029574 -0.015151045814559339 -0.03129673541600859
-0.01184692136723297 0.054319389718959395 -0.0343047802522846 0.030410576638631993 0.024072600857396216 0.008207461842490348 -0.025033579723214853 0.05355350702202918
-0.0413666911000771 0.03790141134612259 0.04371914985152687 0.009123849457069759 0.0366647247009156 -0.05141942809053255 -0.010542992580457983 -0.05164924742532739
-0.03296478233633743 -0.004032525676133596 0.06515706142935716 -0.007453627087572884 -0.03138924537912091 -0.021636846599717752 0.03657382713212836 0.004662863747183511
0.037610453744965494 0.0377003144692669 0.03892534329270386 0.05628159261356145 0.015197820512229497 0.00656223649780415 -0.03072989986546734 0.024426146442405303
0.044268143481031155 0.046622939403669246 -0.05742299017179225 -0.0712857340766178 -0.02803613741071942 0.03137457173716386 0.005539585514187757 -0.04160024338708475
-0.06199667835879035 0.01775045873114294 -0.0056321424913604 -0.046410939943530474 0.031103027118806973 0.059192116101271806 -0.01333676938732577 0.062000454492258716
-0.039440469253463756 0.012054544820218723 -0.05703046490334415 -0.05750103196260043 0.021116022510265682 -0.009528431650961402 -0.016098612674912145 0.0567345788247394
0.0012323634095713263 0.007033757082789506 -0.018040214291409586 0.0011882415390455803 -0.006092670375089691 -0.0044531497337492116 0.07452395935411184 0.0021522893037046803
0.033132779911209484 -0.06788938029085483 0.03395039867990788 -0.007495103368979311 0.05180471580919313 -0.039501699576014127 -0.05399916316789668 -0.022775881157178456
-0.0669245058309514 0.04103467861990134 0.01385064481824382 0.030863649414746556 -0.03042302931800426 0.041354754034554235 -0.02688404520640053 -0.052593755496512865

encoder.1.0.bias f8 [64]
00000000: b130 0100 f4dc a53f 4872 1b40 e9da a73f
00000010: 058b e7df cf9d adbf 341e 1300 bd5e a13f
00000020: d66a a1ff 4874 8f3f 668a f1ff 4d50 75bf
00000030: a823 fabf 92ad a5bf 1d09 0880 69bb 943f
00000040: fe68 46fe 83df 6d3f 0be1 f2df a03a a8bf
00000050: e724 faff 167f 91bf 4c26 e8bf 2dea 90bf
00000060: 6b01 0a40 55b1 91bf 06b7 0700 0007 a33f
00000070: 1555 e300 ecf1 61bf 511a 6900 083f 52bf
00000080: cf76 01c0 7034 a6bf 5ac2 fcff b5cf aa3f
00000090: 66bf ebff 02b5 9c3f 1102 dfff fb6d 873f
000000a0: 4695 0200 5c3a a43f d38c 9fff 677a 6fbf
000000b0: 0de7 3b00 ca12 7b3f cca6 2300 98a5 7bbf
000000c0: 16e5 f6ff ffb3 963f b2fe 0080 2471 a9bf
000000d0: dfbd 4aff 4bcb 613f e728 f9ff d6ea b13f
000000e0: 2b16 fbff c381 9fbf 17da 0de0 24e0 a0bf
000000f0: 123e faff d190 a63f 5710 fc7f 0463 af3f
00000100: fd43 f2ff db23 adbf aeb0 fe7f 0d03 ac3f
00000110: a417 e93f 818d a3bf 9574 7fff 5f24 533f
00000120: a4e1 93ff 8f6d 64bf c279 0980 4cf0 99bf
00000130: a267 f3df ce67 b1bf 192a eaff 51ec a7bf
00000140: 3e4b f3df b991 a5bf 9a96 c5bf d444 99bf
00000150: d013 1100 82f9 873f b9e9 f43f c9da b03f
00000160: b240 01a0 5493 a2bf 30a7 0700 fe98 af3f
00000170: 86e3 e87f e38a 9b3f aa4d f5ff f52e 70bf
00000180: 961c 00e0 89d2 a9bf 2af9 f0ff 027a 92bf
00000190: fded 1880 f352 ad3f 8df3 1d00 bce4 733f
000001a0: bac3 e3ff 7eb2 8a3f 9b95 00c0 a2b2 a03f
000001b0: 0fab eabf 793d a83f c00c 3100 6c0c 7c3f
000001c0: 5d69 0040 4ba8 a4bf 532b efff 30a4 ab3f
000001d0: c8e1 eeff 78e6 ae3f 6e5b 1f00 2a00 74bf
000001e0: 73ad 1600 b404 98bf c77a 4800 1659 8e3f
000001f0: 1ea3 0720 9095 a1bf 2078 ecff 7aa8 82bf
0.04270136356407884 0.04659203441199061 -0.05784463508805086 0.033925920733562626 0.01535851507303702 -0.005203537642133859 -0.0423398837420515 0.02024617046300491
0.0036466196053882563 -0.047322299325459914 -0.017086371778110367 -0.016518320882857915 -0.017278034242282397 0.037162780765227096 -0.0021905526583433457 -0.001113660635057596
-0.043368838728140006 0.05236595868916956 0.028034254903956855 0.01144024729353624 0.039507746697646826 -0.00384254753315503 0.006609715524740667 -0.0067497193833589535
0.022171020505742232 -0.04969133436725083 0.0021721348114949047 0.06998962163303056 -0.03076845407374244 -0.03296008334193717 0.04407364129758319 0.06130231916725453
-0.05691421031327335 0.054710790514350335 -0.038188971568657665 0.0011683404427380907 -0.0024936497180727147 -0.025330729784735835 -0.06799023597287016 -0.04672485588988113
-0.042127426707927004 -0.024676632122825205 0.011706367136989387 0.06583841144030246 -0.03628029301819548 0.06171411276211669 0.026897005731572964 -0.003951035439360076
-0.05043440684681248 -0.018043562766473155 0.05727349222840059 0.004856809975419274 0.013035766777166436 0.03261288255479685 0.04734402148945637 0.0068477839259372675
-0.04034648090619684 0.05398705600926825 0.06035211681541203 -0.004882968963974983 -0.023455441003233667 0.014818355449333421 -0.03434420004834336 -0.009110413489505531

encoder.1.1.weight f8 [64]
00000000: 168a 3c05 9171 f03f fc22 37f8 9c44 f03f
00000010: 0af0 a806 39f4 ef3f 6985 bafb 07d9 ef3f
00000020: a064 f3bd ac4f f03f 30a5 7424 2049 ef3f
00000030: 2faf cf72 2b79 ef3f e51d e369 f71b f03f
00000040: 089c 2b90 dcd6 ef3f ac7e 58be ea19 f03f
00000050: 80a9 c7e9 82aa ef3f 92a4 6f11 2bf6 ef3f
00000060: e7c3 d19c 2093 ef3f 9977 192b bf17 f03f
00000070: 7b1b 8bef ee62 ef3f c160 df29 ae89 ef3f
00000080: c4a4 eb5d fce5 ef3f d2c1 ad56 601c ef3f
00000090: 89c6 3c77 5418 f03f 36a0 e0be e31d f03f
000000a0: f07a 956c 4cc2 ef3f 0a70 ed37 c9cf ef3f
000000b0: d833 d93f ba1d f03f 1fc0 c00c ce0c f03f
000000c0: 9a70 fd6f 3320 f03f 10c0 f13e ae46 f03f
000000d0: eef7 fd56 088d ef3f a823 3b02 ee43 f03f
000000e0: a6b2 34cd 22fa ef3f 9b0e 98d0 d85c f03f
000000f0: 0436 4bd5 2723 f03f fcf4 9469 eb58 f03f
00000100: bd80 bb96 43c7 ef3f 06c6 3f89 912e f03f
00000110: f8c2 0f05 be9e ef3f 6b14 cf00 5612 f03f
00000120: 585a 6ca1 44df ef3f 45d7 cb7e c9c1 ef3f
00000130: a362 1680 a20d f03f e3b6 7484 8cf6 ef3f
00000140: ba3a 35b4 089c ef3f 5ce3 4ed1 c11a f03f
00000150: c944 c444 c2af ef3f 4304 d14f 9810 f03f
00000160: 61aa fd84 5784 ef3f aee2 eef5 f594 ef3f
00000170: 71ca d234 1e0f f03f e037 6216 6817 f03f
00000180: 004e c732 0136 f03f e2b9 fd8e f1cc ef3f
00000190: 551b 9fab df19 f03f 007b 2645 22d0 ef3f
000001a0: 08ef 61b2 4bc5 ef3f 09df ed62 bbdc ef3f
000001b0: 8ffb 09b9 41fa ef3f 37a3 6088 de55 f03f
000001c0: 23d3 cc12 3621 f03f 39a4 8030 41a4 ef3f
000001d0: 40bc 4aee 6e95 ef3f 5eb0 38bb bdfa ef3f
000001e0: cc5f e5a7 ed6c f03f 0db8 8441 fe26 f03f
000001f0: ae2d 8a72 09cc ef3f dd66 70f3 ae68 ef3f
1.0277261929082946 1.0167512603676974 0.9985623483730717 0.9952430645536597 1.0194518489791236 0.9776764595054939 0.983541225662952 1.0068277488916177
0.994978219588007 1.0063273845079648 0.9895643774046192 0.9987998333500789 0.9867098868254488 1.0057975467275126 0.9808268240529822 0.9855566804717669
0.996824439466899 0.9722139065689197 1.005939927836524 1.0072972732687169 0.9924680825023113 0.9941145031293683 1.007257699401853 1.0031261919175518
1.007861554585395 1.0172560175669823 0.9859658907951123 1.016584404673475 0.9992841728140618 1.0226677082254472 1.0085829097546375 1.021708881787446
0.993074221038135 1.0113692628186768 0.988127717862965 1.004476550254618 0.996004405288498 0.9924056507577254 1.003328800527165 0.9988463007955172
0.9877971191106873 1.006532495126712 0.9902049391841042 1.0040515058356199 0.9849050137975831 0.9869336894399419 1.0036909163869974 1.0057144998895566
1.0131847365890962 0.9937675278468385 1.0063168243375078 0.9941569662658765 0.9928339466127634 0.9956948215685496 0.9992989172022692 1.0209641768689843
1.0081082090739037 0.9888006160082404 0.9869913725032191 0.9993580490750096 1.0265938337743021 1.0095198211015515 0.9936568486313513 0.9815287356061294

encoder.1.1.bias f8 [64]
00000000: fa5f 6e5e d875 9e3f f758 1428 a72a 913f
00000010: 53d4 62ec a9cf 93bf 3623 6b4b 400e 223f
00000020: e9ee 31c4 2e90 933f 86c0 a112 3258 503f
00000030: 74e3 1a55 3a94 83bf 1ef2 9971 4416 8a3f
00000040: 50a2 198f 7e3a 743f 2f5e 6c3e 8b3c 823f
00000050: 20ea 2778 5fc3 98bf e753 0002 3ebf 863f
00000060: cb2e ad54 e2b5 8dbf ae2d ae63 ab6f 933f
00000070: 530f c596 8c1d 78bf 4037 b0a2 639f 64bf
00000080: dd20 6e6f cdd4 53bf d6ef 49a6 d5ec 84bf
00000090: 8d3d e024 be6d 8d3f 297b 5dbd 59d9 7f3f
000000a0: 8b8e d06c 6ed5 84bf 3f8c b9f3 02ff 843f
000000b0: fb85 4afc f84f 863f 1845 b554 2568 903f
000000c0: d9b3 6f9b 5917 7e3f 5919 300f b288 893f
000000d0: 19db df94 7278 8cbf fa2a 6ece 1324 923f
000000e0: 95eb 7861 6232 4fbf 7697 4a88 4d89 983f
000000f0: c540 64d3 99cc 7dbf 9204 dddc 7622 553f
00000100: f41f ce53 cc87 273f 2636 7bbb 0da0 923f
00000110: e03e 63a8 61c8 86bf 733d d933 c7dd 7c3f
00000120: 6edd 5daa db9d 813f 52d9 6555 656c 7fbf
00000130: 4a7d 9834 6a10 853f 5816 2fb5 be8b 793f
00000140: 445f d44c 201e 89bf 90db 2edb 3b24 59bf
00000150: 92fa b883 d4c3 813f 7946 7f1f ec48 64bf
00000160: 8b07 21c5 6824 7cbf 73e1 aeff a97f 6fbf
00000170: 5525 0ad8 caa7 88bf 4a11 56a0 f5b0 43bf
00000180: 0285 88db f93f 8a3f c38d 64fe 534c 8b3f
00000190: 3ea8 05d4 651b 993f 64f7 8386 dd74 783f
000001a0: b5bb 8bd2 f322 8f3f 84fa 5aeb 01f9 843f
000001b0: 08dc 13c4 65bc 95bf 364c 9c8c 1969 943f
000001c0: db44 2278 2381 913f ce52 19dc 4471 86bf
000001d0: 2567 573b 21d5 8ebf 6582 3d07 8a91 813f
000001e0: 0586 a62e b11f 673f 3c44 aab5 fc77 843f
000001f0: 5cf6 ec63 276e 663f 442b 3459 8c9d 6f3f
0.02974641872751247 0.01676427061200855 -0.019346861889705313 0.00013775381895289048 0.01910470077971996 0.0009975899688719216 -0.009560065958213328 0.012737784115636915
0.0049385970793101724 0.008904540865429215 -0.024182788571105118 0.011106953083109118 -0.014507072648164329 0.018980672797210545 -0.005887555289806406 -0.002517408943737559
-0.0012104040340279933 -0.010217351090652398 0.01436947393452106 0.0077756410081224825 -0.010172712989578577 0.010252020895853529 0.010894723128617825 0.016022284789248692
0.007346487072010321 0.012467757309434434 -0.01390161053494192 0.017715749239452606 -0.0009520511984598574 0.023961268848004612 -0.0072752007311153765 0.001289955212499448
0.00017952317457692291 0.018188681190443166 -0.011124384833606837 0.007047441611191518 0.008601871620824677 -0.007671733698194254 0.010285215120403497 0.006236786796710435
-0.012264492363598507 -0.0015345177205128048 0.008674297590116429 -0.0024761783388179107 -0.006870660074186473 -0.003845054653961616 -0.012038788526541092 -0.0006009291980011791
0.012817337047695169 0.01332917804808787 0.024518576684762865 0.005970826467317145 0.015203385222290903 0.010240569109894133 -0.021226492016435144 0.01993217392653098
0.01709418698061858 -0.010958230940710047 -0.015054950355011318 0.008578375192599805 0.002822729167022644 0.00999448232076549 0.0027380723326178424 0.003859304540701743

encoder.1.1.running_mean f8 [64]
00000000: 17c3 2702 e93e cfbf 1969 b926 9b68 823f
00000010: 6813 6128 8db3 d93f 3481 5a42 90af ed3f
00000020: 4185 140f 52d4 e8bf 7306 1ce8 b563 aabf
00000030: 8909 8e90 6aa9 953f fff6 06fe 77bb c2bf
00000040: 33e8 b367 9dfd ab3f c5c3 6551 ab5c e7bf
00000050: 3750 6cf5 7eaf d53f 220b 4333 982d be3f
00000060: 2f11 bcff b808 cc3f 70f3 5eb6 b2e2 d63f
00000070: fa17 8047 1bce cfbf ce1c 6af3 8e03 d83f
00000080: a23a 4962 5d01 e5bf fa78 549b a937 babf
00000090: b8c9 1108 c810 c4bf ed92 7d5d 05c1 c8bf
000000a0: 7bcc 2c5f c425 e73f 733e b90d 173c c5bf
000000b0: 85f3 43b1 bab6 d7bf c12e d210 a604 c3bf
000000c0: 5379 f833 6cf6 a33f b64c 94e0 3b71 d3bf
000000d0: 4712 12a2 8787 bfbf 0f15 6d44 7aba d6bf
000000e0: 8e14 2f51 5776 c5bf 7edf ed9d 1414 e1bf
000000f0: 2900 d613 65fd e53f 5024 15dc 6b93 d93f
00000100: f8c1 9cde 2e49 e63f 3883 7556 f334 abbf
00000110: 7a81 6663 604f b8bf 7db9 b8f6 c9a6 d6bf
00000120: 68dc c637 c33d d1bf 1d9a 9acf d6d3 d4bf
00000130: 14ef c17e 57d9 c83f 81d1 8151 434a d63f
00000140: 747f 47c4 fa91 c93f fd2f 1c58 2725 e03f
00000150: 5ea5 cb3a 02c2 bb3f f308 713a 471a e13f
00000160: 27fd 209a ee21 c9bf 32a3 4b63 140b d8bf
00000170: dbe2 e11e c601 ec3f 801a 5428 a971 f2bf
00000180: 8118 138b 4cee edbf 19a6 1650 d993 b1bf
00000190: ace9 54da c8e9 d33f 3e2b 9b44 095e d7bf
000001a0: 0f93 62e0 4a8a d53f e8bb 40bf 7aee cfbf
000001b0: fd72 367f 2b64 e53f 8ae6 bae3 96dd 483f
000001c0: 0792 de74 d5ce a9bf d732 fa35 56ab d03f
000001d0: bd0a c144 ff2a f03f 17f1 3eef 95c1 bf3f
000001e0: 4a3a 2e45 6ca2 e1bf a00b bb57 8319 c13f
000001f0: 7ac5 620c dc81 e4bf 672b 3efd 64a7 cabf
-0.2441073666118647 0.008988582724829318 0.40158394759446603 0.9276810928313695 -0.7759180349859564 -0.05154198130004497 0.021154084275175875 -0.14634609130546747
0.05466930285361151 -0.7300621595187456 0.3388364216527892 0.11788321734915688 0.2190161942199977 0.3575865536657181 -0.24847737303952028 0.37521718760440315
-0.6564165992402489 -0.10241184274898166 -0.15676212686555657 -0.19339053215949012 0.7233602389227508 -0.16589630289171317 -0.3705279093845138 -0.148579366887466
0.03898943075567964 -0.3037862485081847 -0.12316177088548229 -0.3551316898559244 -0.16767398323114374 -0.5337012371592065 0.6871819865627958 0.39962288372459387
0.6964334819695628 -0.05313835554512142 -0.09496118952529811 -0.3539299878492768 -0.2693946881003684 -0.3254296328908895 0.19413274468740183 0.34828265151670484
0.19976744255017886 0.5045353623295338 0.10842908797680681 0.5344577924190886 -0.19634802366088275 -0.3756762475664345 0.8752165415927168 -1.1527492118199518
-0.9353392330456388 -0.06866224484715423 0.3111440784593025 -0.3651145143491482 0.336565703512222 -0.24946531618613155 0.6684777721999066 0.0007588373914224217
-0.05040614177349672 0.26045756598686637 1.010497349329554 0.12404763308490306 -0.551077017896952 0.13359109672282177 -0.640851997557703 -0.2082334744012215

encoder.1.1.running_var f8 [64]
00000000: 4e17 2310 a05b ef3f c152 efba a6a5 db3f
00000010: 90c7 b43c 8f26 ca3f e33b a5ff 9d2f d63f
00000020: b032 1e78 201a d73f f1b9 b423 7fff e03f
00000030: 79c4 599a d242 c23f 0fbc 103f f5dc de3f
00000040: 4a87 f403 2ce1 c13f 1eb9 1b94 cdb7 d83f
00000050: fc9d dbeb d568 c33f a121 3b6c 140a de3f
00000060: 9414 5b0a f983 d23f 6588 af21 849c d73f
00000070: db73 ba08 1a26 d53f 25b2 d9bc eb0b dd3f
00000080: c423 c1ce d0c7 eb3f c85d f68e fa76 c63f
00000090: 7ff8 457c a747 e23f e7c8 95b4 2533 e73f
000000a0: 4e12 1779 ea9f df3f f0e0 87f6 88ce cf3f
000000b0: b087 7ce7 3734 df3f bcaa fd83 a0e1 d93f
000000c0: 72d0 a03e 2c35 e33f a9ae 6855 aeec db3f
000000d0: 6710 f34d 2d12 d03f a0ed 9efc 89eb e33f
000000e0: e301 2b19 a179 d63f 1544 1ad8 1711 e53f
000000f0: a204 3b54 bd6d d23f bfde c7c7 3d7d d53f
00000100: 145e 06da 0079 e53f 310e 35d6 5d59 e23f
00000110: ce2c 3504 0e02 c23f 7fcf 9ea0 c20f f53f
00000120: e7f6 92fb c264 e83f 98ce 1870 cea9 d63f
00000130: 15d6 8ec4 1c27 c83f 9006 7cbc fa62 bb3f
00000140: 8c1f 0c5f c100 d33f 6e66 b6fd 8954 c93f
00000150: 83a7 2e9a b7aa d03f b009 03e0 9d6b d73f
00000160: a0b7 790a 523f d13f ad77 746b a7b1 d23f
00000170: 4a43 6476 f833 e23f 4898 dd2c 68c3 e73f
00000180: 590c 376f f770 ea3f 98ba 16a9 33a5 eb3f
00000190: c003 5073 f130 dd3f 3b96 af85 7a7b d53f
000001a0: 926d ea8a 5ba8 d73f 22a6 0749 37d2 e13f
000001b0: 4d15 d041 ee15 b63f 25a6 b884 6b7c ea3f
000001c0: 7981 35b1 3dc9 e63f 966f 9922 2079 cd3f
000001d0: 41f8 abf2 57e8 d13f 9396 1757 c9eb e73f
000001e0: 2afd 3d45 c2ae cb3f c4d2 8cbc 4199 d73f
000001f0: d54a c6c9 0766 eb3f 0f3f 9241 b5c6 e43f
0.9799347224404558 0.4319855523620327 0.20430174316566907 0.346656322149043 0.3609696553255999 0.5311885545141292 0.14266426598218 0.4822362056610822
0.1396842021286438 0.38621844733906296 0.15163682953355806 0.46936522073203873 0.28930498133952054 0.36892798699967094 0.3304505429494477 0.4538525909654559
0.8681415594265833 0.17550594311317824 0.5712468554700222 0.724993565278308 0.49413549256522493 0.24849044835696743 0.48756215673540293 0.40439618005499844
0.6002408240515378 0.4363208612510144 0.25110943424465976 0.6225023206711064 0.3511736627370096 0.6583365650896008 0.28794797158850305 0.33576912412489074
0.6710209139154721 0.5734090026603039 0.14068770604567366 1.316347720549828 0.7623000062519311 0.35411416003192064 0.18869361493641237 0.10697905637428051
0.29692110330551524 0.19789242637925802 0.2604197507558796 0.36594340206297726 0.269489774923267 0.2920931386341817 0.5688440620743702 0.7426033855706544
0.8262898609322163 0.863916235209973 0.45611225377075115 0.335661535790084 0.36965073171605767 0.5569111276974505 0.08627213579901145 0.8276879875385857
0.7120655499566474 0.23025895776197264 0.27980612467206717 0.7475325299280534 0.21627071743930887 0.3687290517148478 0.8562048855695489 0.6492563515366515
