models/matching_nets/AWF_n=1_k=5_q=15_nv=1_kv=10_qv=1_dist=cosine_fce=None.pth (torch, 316367 bytes, 24 tensors)

encoder.0.0.weight f8 [64, 1, 3]
00000000: fc45 91a2 1ecf e0bf e91c 9d61 cf36 de3f
00000010: 374a c015 8ef1 d13f 3405 4cc3 ac24 d63f
00000020: a66e 4821 43fa c33f aaa6 54a7 9128 cbbf
00000030: 811e 7c1f 9db1 ac3f ad69 ca8c 5cf5 d33f
00000040: 9d41 ebb1 39b4 e2bf d7cc b769 afd0 ddbf
00000050: b02e 9df0 37c2 c0bf 9943 f884 c1e5 dcbf
00000060: e962 86de 8f7f b8bf f14b e511 891c b53f
00000070: ca12 db82 2008 d13f 0578 d337 d459 d0bf
00000080: 74b8 131c 8868 df3f 33f4 a953 d05f d93f
00000090: 944b 9a42 98f1 db3f c4e6 4dee 9344 76bf
000000a0: b47a 830a d297 c33f 7bab 07ea 576b ccbf
000000b0: 13fc 3435 18dd ddbf b97a 6e99 231f e0bf
000000c0: 9c46 5648 3eb2 cb3f 5e30 941e 30ed be3f
000000d0: 490a fb3f 9769 d23f 5472 cdc5 094e b5bf
000000e0: 1526 63ff 27e6 d13f 417d 3c56 248d b2bf
000000f0: 8ea5 9aea 774c d83f e7ed a96a 2404 e0bf
00000100: ae8a 3e42 42aa d6bf 1311 d7d8 a04f b3bf
00000110: 27ba 167b 64d3 88bf 8dbf b7ac 351e a6bf
00000120: b6af ce6b c065 e13f 3316 25dc 1ba0 cc3f
00000130: 28d6 6faa 3195 de3f e752 ad0f c870 d33f
00000140: 7c8b 3332 46f8 c63f 6222 a202 c1b4 d23f
00000150: 1433 887e 770b bfbf 52f2 b4db adf0 e0bf
00000160: 31ad 01ce 8565 e2bf 8e6d dba7 c040 d33f
00000170: 1841 47e7 3109 dfbf 55d9 7dd6 1e3d dc3f
00000180: 8e83 0900 d37d ca3f 5c9d 7d55 a099 d1bf
00000190: 601d 85ae f98a e03f 75e6 78c0 4e34 bf3f
000001a0: 865a 3d05 2605 db3f 31e2 6aba 1e06 d13f
000001b0: 5c8f d627 4cba ca3f 1b93 ef3e f702 c2bf
000001c0: 5033 82af 776e cf3f 44bc 4388 712b cebf
000001d0: 3e29 6fa5 3f2d dd3f e201 c9ac b274 e43f
000001e0: 8bc3 a100 e216 c9bf be9c 162e 4647 d43f
000001f0: 60b2 a6e0 61b1 d9bf ca68 3cce 33e4 dfbf
00000200: 6593 6d4b eb72 c9bf 14e6 2b3f 048a d63f
00000210: 9a7f 78fd c62f da3f cff2 cf66 252e e1bf
00000220: 3336 b228 7aae dd3f 27a5 a5e5 f096 cabf
00000230: f78a 0141 e21d cf3f 3def 270b 0155 dd3f
00000240: 612f c1fe a912 9dbf 7d1f b284 fee0 cc3f
00000250: 9756 e100 93c1 e2bf a9a1 f7ee 41f1 c13f
00000260: 654a 3669 2bae d5bf 8c60 af8b 6799 d6bf
00000270: 42f7 c1d6 60aa bebf 466f e5ca 42e3 d53f
00000280: 5049 f51d adfc e1bf c914 6f2e 02f7 d3bf
00000290: 166b f183 a781 dfbf 7649 02c3 2f42 d2bf
000002a0: 07c9 1420 b002 be3f 8a79 69a0 3de3 e0bf
000002b0: b548 dd5a 91c6 dabf d60d 111a f852 d4bf
000002c0: ad3a dd67 ebf2 c53f dc5c 168c f75b d7bf
000002d0: f2e0 fc0a 34c8 d3bf 7f86 7950 2373 e13f
000002e0: 5b07 775b 7cb5 adbf 338d 1be8 7c87 ac3f
000002f0: 6da5 d503 7c14 d4bf bb0e 7fa0 09b8 dabf
00000300: 9898 2414 65f6 cdbf 43e2 7ae9 e7ec d83f
00000310: bc46 b976 da51 d93f 170f eca0 0b89 e13f
00000320: 39e0 e994 7f31 de3f fff3 afb7 c08f d63f
00000330: 830f 1b9a 2377 d5bf c7da 959e 6488 d9bf
00000340: 8614 b794 9579 b1bf 08a7 baca 5c6d d8bf
00000350: bad2 ffc9 4905 d43f 692b fe28 14a6 dbbf
00000360: 4356 c45a c7c5 c1bf b61a a506 6f42 94bf
00000370: 4948 331f 6fe1 d03f 26de 1845 a61f c0bf
00000380: d653 1140 eda1 c4bf 67e3 b68a bd42 c03f
00000390: 68be aab3 1bdb d33f f9f5 e29a 739e d6bf
000003a0: 8397 e04b 4633 ddbf 1126 67fe 5f31 e0bf
000003b0: 7fe8 4934 a69f d63f 7b6b 6490 fcc9 d43f
000003c0: 0f44 e349 48ad debf 002e f1a1 c81a b23f
000003d0: 09e1 31cc ced6 d9bf accb 929e f56c c23f
000003e0: e1df 3104 6762 d7bf 214b d010 6d31 d6bf
000003f0: 2aa6 2b3a 2e65 b4bf a5e9 cb8e f63a d5bf
00000400: 4b27 4e5e c424 ddbf f198 d7b8 7d7f d9bf
00000410: 9e69 1ebd 41d2 b83f d325 42a9 fe27 debf
00000420: 78a6 d378 3688 d43f 6a92 613c 7f39 d83f
00000430: ea26 4c08 9529 d13f a1ab 8302 6321 d2bf
00000440: 4fa8 c19a 2e17 c3bf c912 cc82 c398 de3f
00000450: 124e c7ec 228d db3f 4b9b b4d9 66d8 c7bf
00000460: c7f4 153d 2fa0 e1bf 0d95 60bc ec5e d63f
00000470: 27e4 623c e27d dc3f f5fd 163e a070 d6bf
00000480: 2b37 9fdd 93a1 70bf a9a3 c76f 63d3 c63f
00000490: 64e4 1174 bee2 dabf 27b3 9f37 c9d1 96bf
000004a0: a66b 1c0a a1e9 db3f a5e5 dfe0 3ed2 debf
000004b0: 7bf8 ce4b b9e5 c2bf 4b83 59bd e4a9 b23f
000004c0: 7ff9 26b8 23ff a9bf f060 d7ef c347 923f
000004d0: 3635 0989 c056 e1bf d383 9213 d892 b53f
000004e0: 4e10 d841 bcea cdbf 709f 518c dabe e0bf
000004f0: 3b00 b17e 4113 d5bf 3b11 3db3 9240 c23f
00000500: 69a9 681e d72e cb3f 7557 7084 96a8 a3bf
00000510: af48 7ed2 e9b9 dc3f d0f3 8d39 18e3 9fbf
00000520: 7963 99a9 7118 df3f d61b a0de 9379 cc3f
00000530: 0b7b 728f 9d01 e13f e914 dd75 52b2 a5bf
00000540: 6082 4678 74f0 e13f 271c f408 0aac bbbf
00000550: 9523 adfa f378 e03f acd4 db6a 5a08 c9bf
00000560: 17f1 dc8f c2f7 c8bf 59dc 94bf e837 da3f
00000570: 1402 cce3 b285 a13f 0c34 9510 e619 e1bf
00000580: 7d70 d271 a83d d7bf a9cd 721d 8686 c23f
00000590: 3f5b 6130 c934 e13f 47c4 017b e59b c13f
000005a0: a89a 338e a74e e0bf 512e 3f7f 93e6 d63f
000005b0: 2a14 bbcc 6557 bc3f 9c52 b785 0fbc cfbf
000005c0: 83df 5e8e 7fef c6bf 4569 225d 1989 d93f
000005d0: 8276 dd9d 19df ccbf 631e 5ec3 46ef d93f
000005e0: 6c0c b120 b248 d7bf 1288 cd57 ec51 d43f
000005f0: f029 4c67 932c ba3f aace d81e 4f97 70bf
-0.5252831626077632 0.47209534199323727 0.2803683483518031 0.34598845550506785 0.15607489705222582 -0.21217556639139917 0.05604258546196395 0.31185067891206125
-0.5845001673679239 -0.4658621342088742 -0.13092707871179732 -0.4515231894047758 -0.09569644148576696 0.08246666609674926 0.2661210325134503 -0.25548272563708024
0.49075510732553274 0.3964730088262655 0.43662077430888613 -0.005436494688973507 0.153070693143453 -0.22202586104625852 -0.466619541130002 -0.5038011547765883
0.21637705356674963 0.12080670115045808 0.2876947521982954 -0.08322201804316737 0.27967262211004257 -0.07246615510347444 0.37966726217799696 -0.5005056460644796
-0.35414177388353607 -0.07543378156612261 -0.012121949201938055 -0.04319923146601843 0.5436708551037472 0.22363613366376142 0.47785607952332265 0.3037586358162074
0.17945172740209248 0.2922823453632529 -0.12126871909294962 -0.5293797770642164 -0.5748929046216401 0.3008271826963317 -0.48493621431136225 0.44123049684948984
0.20696485044302587 -0.27500160549830865 0.5169647606461858 0.12189190100698417 0.42218924056707186 0.26599853710971205 0.20881034798832843 -0.14071550915755257
0.24555870122676504 -0.2357007899622393 0.45588675647435994 0.6392453551016468 -0.1960108283124352 0.3168502283173885 -0.4014515584811189 -0.4983033670447524
-0.19881955321320813 0.3521738640698413 0.40916609528539427 -0.536883068852683 0.4637742421553838 -0.2077313538859837 0.24309948133585355 0.4583132370896584
-0.028391510175694083 0.22561627845083967 -0.5861296670143074 0.14017509620977123 -0.33875546717277977 -0.35311306611175364 -0.1197872661886921 0.3419959050568092
-0.5620942673797718 -0.31195120367585766 -0.4922884739404919 -0.2852897076019397 0.11722851546509015 -0.5277393467948042 -0.418369616255528 -0.3175640348965464
0.1714758164548206 -0.3649882190743037 -0.30909443924930635 0.5453049251338625 -0.05802525154605461 0.05572119077057849 -0.31375027060001665 -0.4174827639910565
-0.23408187373678824 0.38945958901198113 0.3956209334765892 0.547979177762019 0.4717711405023724 0.35252397478308234 -0.3353966717661409 -0.3989497708020448
-0.06826147919407974 -0.38167495534672513 0.3128227684640411 -0.43201164248664853 -0.1388482278058963 -0.019784674435210113 0.26375940367609424 -0.12596586583980346
-0.16119161251358943 0.1270367553059046 0.31024830384828883 -0.35342111707345186 -0.45625455293554057 -0.5060272187049027 0.35349421602553116 0.3248282823639596
-0.4793263169822816 0.07072118714966535 -0.40373582783605905 0.14395017855494296 -0.36538100633288023 -0.3467667259403005 -0.0796688930528481 -0.33172382302259457
-0.45536908349514665 -0.3984064393138303 0.09695826403768712 -0.471191087047001 0.32081376838195963 0.378509339300115 0.2681629735021561 -0.2832877659372404
-0.14914495998829344 0.47807395718727413 0.4304892837801343 -0.18629155759955504 -0.5508037751275418 0.3495437469121761 0.4451833333692456 -0.35062414229830036
-0.004060342407638899 0.17832606275558519 -0.4200893529410392 -0.022284645099648472 0.4361345862141043 -0.48158237419519373 -0.14763561441026582 0.07290486929697441
-0.05077468512489513 0.01785188819289457 -0.5418398548587564 0.08427191236343327 -0.23372605528868678 -0.5232975712396932 -0.3293002831669615 0.14259561302072563
0.21236695275122067 -0.038395599047517694 0.44884725147233956 -0.031139734757278437 0.48586694300097794 0.22246025438673084 0.5314472009375505 -0.04237611473812725
0.560602412140792 -0.10809385984985963 0.5147647758504826 -0.19556741922102583 -0.19506103539050265 0.4096624251282655 0.034223165805091466 -0.534411461246806
-0.3631383048575641 0.14473034322655323 0.5376935906341272 0.1375700808162341 -0.5096013810515005 0.35782325197644577 0.11070858238515827 -0.2479266550932565
-0.1791839070481239 0.39899286360891423 -0.22555847366577458 0.405229273594591 -0.36381200020350124 0.3175001962137013 0.10224267265235887 -0.004050549568592446

encoder.0.0.bias f8 [64]
00000000: 14f0 00c0 b2f8 d63f 175d 1000 ebd8 d63f
00000010: c35a 2400 0aac b43f 4ac5 e7ff acec bc3f
00000020: a4ce f2ff 75e7 df3f 0f61 2000 2094 dc3f
00000030: 59fe fe7f ac17 dc3f 3970 02a0 3fd9 ddbf
00000040: 2797 0f40 3a1c cabf e969 0040 4bde e03f
00000050: 06b0 f77f 2908 bebf b25d f200 862e aebf
00000060: 3f79 00e0 2628 e1bf 7c10 f73f d56d dbbf
00000070: 8b35 0380 4b65 e13f 8015 febf cbdf e13f
00000080: aa32 e6ff 9724 de3f 263a 2640 5a73 c3bf
00000090: 5859 c2bf 25ae d73f eecc 14c0 97e9 d03f
000000a0: 0b56 d73f a2ce c1bf 6764 e97f 1594 d5bf
000000b0: 4cf2 9f7f e1d7 cfbf 44a3 0800 99a0 cd3f
000000c0: 0da6 f7ff 322d d13f b63a 0780 041f d9bf
000000d0: 0dc2 0340 1e1d d83f 311c 0180 ff9c d83f
000000e0: 87ab 0580 d47f d5bf ba77 ff3f 7540 cfbf
000000f0: e5c2 f8bf b88d d83f 9e9e 9cff 416f a53f
00000100: bc03 ff7f 568c df3f c145 0400 d26d d83f
00000110: 043c f69f 6423 d0bf 8058 ffbf dde7 e1bf
00000120: c70d 0cc0 edce d43f 68a0 bb9f d385 d3bf
00000130: 54c3 0800 6bce c63f e981 f83f 0036 dabf
00000140: 0e30 fe3f 920b e0bf e1f1 0980 2270 c93f
00000150: b3c1 08e0 20a8 e0bf 6a6e 0be0 3e15 d9bf
00000160: cc3a 85ff 3858 b83f e92b a3ff bb31 ce3f
00000170: acef 1380 3c3f d43f 6c09 d3ff 1ffb b43f
00000180: 2199 1f00 426c c3bf 2ea1 f61f 9219 e2bf
00000190: 9ce3 c29f d0a1 dbbf ea14 e2ff 9769 a23f
000001a0: c7c3 0900 e619 dd3f e94f fbfe 47f0 a73f
000001b0: dd65 0c40 fcf5 d73f 9415 2600 5081 9a3f
000001c0: e294 e67f 1682 cbbf 98ae 1e60 60e3 d4bf
000001d0: ddea f8ff 9a38 c43f e0ae f67f e227 cd3f
000001e0: 2d5e 1640 9137 d53f 68b0 f9ff 444a e23f
000001f0: fe21 4500 2708 bbbf 4d30 0400 7825 ba3f
0.3589293360744261 0.3569896221756194 0.08075010779826201 0.11298638580025969 0.4985022544380888 0.44654083263732586 0.43894493579498356 -0.4663847982972161
-0.20398643615697518 0.5271354913741649 -0.11731204389769809 -0.058948695769852746 -0.5361513495479712 -0.42857867476073586 0.543615102791294 0.558568835244543
0.47098350515515597 -0.15195778019229172 0.37000411726457605 0.26425737150130046 -0.13911846272701242 -0.337163329042204 -0.24877566081694835 0.23146355153701326
0.2683837413484021 -0.39251816275365614 0.3767772317069394 0.38458240032599905 -0.3359271288124365 -0.24415460228823155 0.3836500048374048 0.041864454701053364
0.4929405450785074 0.3817028999484045 -0.2521602213027452 -0.5595539808225709 0.32512992624853293 -0.30504313086431134 0.17817437650367174 -0.4095459580148871
-0.5014125108587011 0.19873458148857906 -0.5205234885852889 -0.39192172889099786 0.09509617079059324 0.23589277250570653 0.3163596392403132 0.08195686336242652
-0.15174126630808707 -0.5656214355740639 -0.4317514000099949 0.03596186636517891 0.45470571521496733 0.046755075336164804 0.3743887544129317 0.025883913048820498
-0.21490746731902904 -0.3263779581709314 0.15797746180199726 0.22777968643401092 0.33151656397373835 0.5715661048429981 -0.10559314495652214 0.10213422775649512

encoder.0.1.weight f8 [64]
00000000: 3d8a d9c5 ea71 ef3f a1e4 9432 180a ef3f
00000010: 0a83 0ea3 966b ef3f 96ba fa88 05b6 f03f
00000020: 3907 c5c9 f06f ef3f aeae 3b0c a403 ef3f
00000030: 630a f07c 3299 f03f ce1c 491c a70f f13f
00000040: 9d85 93f8 09d5 ef3f a85a 14b7 4d69 ef3f
00000050: cbc8 0303 c82e f03f 752a 7498 6178 f03f
00000060: 026e 432b abf4 ee3f dcc9 585d 88e1 ef3f
00000070: cf9e 6778 4c59 f03f 1067 e1ce e304 f03f
00000080: d83b e25d ad19 f03f a7a8 f553 0985 ef3f
00000090: 95c2 eb19 6d4e f13f f598 f5a2 6928 f03f
000000a0: dd60 34df bf0e ef3f 2a6f 3206 391b f03f
000000b0: f608 85a1 da58 f03f 4a0b ffb8 5b05 f03f
000000c0: 0960 a10c 0b9f ef3f 5e78 76bc ac2c f03f
000000d0: 53b3 b216 7627 ef3f 68d7 7219 42b4 f03f
000000e0: 5bf4 1f59 7a87 f03f 86cf 6885 2055 ef3f
000000f0: 56d6 9744 0ccf ee3f ab87 3bee 4597 f03f
00000100: 022a d813 ae68 ef3f 5ca4 9488 41c9 ef3f
00000110: 92ab 8d39 ca6a f03f cdb5 639b 77b6 ef3f
00000120: 259f 2bdd 4895 ef3f 5736 eb5b 1d3e f03f
00000130: 6ac7 cf5e fb43 f03f bf9b 2cbe 9aed ee3f
00000140: 3d92 a9ac d6f3 ef3f 33da c5e6 1d1f f03f
00000150: 93be 33bf 8e84 f03f a79e 2610 88ae f03f
00000160: 6235 291c 2c3b ef3f 0aa1 e458 a515 f03f
00000170: 1c86 eb6c d7e1 ef3f 8b76 0de7 874d ef3f
00000180: 9055 fccc 41af ee3f b9f0 45f8 164c ef3f
00000190: 3c61 2990 c8a0 ef3f 9c67 ed02 0e13 f03f
000001a0: f21a 9b0a 163d f03f bb51 0e7a 30ee ef3f
000001b0: 9c67 b2f3 653a f03f beb5 ade4 e3bc ee3f
000001c0: 3bfb 1b08 afa4 f03f 2dce 94a2 924a f03f
000001d0: 8f1e 110e e515 f13f 2267 2a05 a081 ef3f
000001e0: 3fa2 71ad 595b ef3f 1912 5d23 d940 ef3f
000001f0: 899a 0739 36a1 ef3f 0628 7404 de48 ef3f
0.9826558937314257 0.9699822414323941 0.9818833527279776 1.0444388724096476 0.9824146214307127 0.9691944350174333 1.0374016647698674 1.0663214783578954
0.9947557311062841 0.9816044402858397 1.0114212148442216 1.0293899493432523 0.9673667759884099 0.996280844038036 1.0218014434157572 1.001193817259665
1.0062688510258706 0.9849897994838742 1.0816470158135065 1.0098663678741648 0.9705504760231879 1.0066461793966917 1.0216928777086287 1.001308176652588
0.9881644484221407 1.010906921560966 0.9735670512505784 1.044008349808303 1.0330756646574375 0.9791414838459651 0.96277440449803 1.036931925388198
0.981528319128586 0.9933173816290366 1.0260717628650338 0.9910238299323112 0.9869732207998579 1.0151647177293819 1.0165971473292879 0.9665044512120103
0.9985154506981143 1.007596875626075 1.0323626965363573 1.0426102286236671 0.9759731817263566 1.005284640539744 0.9963185431808514 0.9782142174478435
0.9588936809183668 0.9780382966123603 0.9883768859536199 1.0046520342207037 1.0149135984699424 0.9978258499054883 1.01425738519763 0.9605578867319122
1.040205985714876 1.0182062483626269 1.0678453969466408 0.9845733738795597 0.9799011600089854 0.9766660395330887 0.9884291757451403 0.9776449286448503

encoder.0.1.bias f8 [64]
00000000: c73c d6fb 8b5f 99bf 34b5 1414 0f04 743f
00000010: 5f4d e2d7 42b2 b03f 9a00 52bf cb0f ab3f
00000020: 75e9 6b75 6e9a 923f 7076 4bd0 2741 85bf
00000030: 162d 499b acf2 a5bf 250e 7511 0980 b23f
00000040: f717 bfa4 8b9a a03f f14c a851 17cc 70bf
00000050: c75a 240a 6a77 65bf ef24 b380 7818 ae3f
00000060: 5f8c 2046 095f b1bf fdde 94e6 ae60 94bf
00000070: 0509 468d 85c7 a73f 796f 6051 f1a3 7dbf
00000080: 65d1 f375 4f80 9bbf 6a9b f6e9 0b7d a0bf
00000090: 0b4c 5be0 6b65 803f ba33 8916 571e 82bf
000000a0: 52a3 5949 c8df a83f 5b01 596b ecd5 a43f
000000b0: c0ce 877a 921c a33f da37 9760 0cec 65bf
000000c0: a13a 0555 2d60 993f f16a 83e6 611b af3f
000000d0: 2614 06f8 9d5a 9f3f 4283 1877 bf57 a93f
000000e0: 96ac 526f 0892 aa3f f2a2 ea1a 5c8e 9fbf
000000f0: 4e2a 1478 59e0 aebf fa6b 6ad5 ac0e b03f
00000100: 562d 122f 7028 aebf 13f8 46b6 14dd 90bf
00000110: d44f 1a04 13ea aa3f 8447 5ad8 c2df ab3f
00000120: 12a2 40ad 9149 abbf 1aff 8e49 9b32 9b3f
00000130: d0f6 4e0b ba30 973f d2db ba13 51f8 a7bf
00000140: c52e f167 3ff9 973f 3feb 1037 af9d a13f
00000150: cd3b e6bb ccf8 a73f cfb7 e5c2 ed74 b03f
00000160: 4415 b33e 9c99 953f cf7d 9295 6a12 53bf
00000170: c99f 2be3 40c8 ad3f 2020 621d 41ed 6a3f
00000180: 813a 8187 71f7 903f 970e 657c bbe4 af3f
00000190: d0ed 6df8 13b2 9b3f 298f c6af 19bd ab3f
000001a0: 7b1f d307 4199 923f 34d6 b4e7 1c8e 7abf
000001b0: 7061 7566 236d 9fbf cb94 c6ea fc98 8cbf
000001c0: 7668 5f16 d466 97bf 188e 7708 c123 81bf
000001d0: 2681 2fbf b132 b43f 594b cb62 1e14 a6bf
000001e0: 5916 618a bcd9 a1bf a6e4 1a7a 7ec9 5fbf
000001f0: 223f 388b 7687 9d3f 32fb 2e00 088b a3bf
-0.024778544660475157 0.00488668336883551 0.06522004862408924 0.05285488806203027 0.018167234341470235 -0.010378180545951937 -0.04286708255366471 0.07226616550638505
0.03242908845963648 -0.004100886430495652 -0.0026204176985048263 0.0587804467300631 -0.06785638773048806 -0.019900067161159097 0.04644410466700503 -0.007236426017723002
-0.026856652807468424 -0.03220402937886642 0.008005945953675228 -0.008846931815378645 0.04858232398402741 0.040694606880154104 0.03732736345037102 -0.002676033186367538
0.024780948938593842 0.060755786312901246 0.030619114173095728 0.049497588432365194 0.05189539297983818 -0.030816496985297932 -0.06030540076070122 0.06272392473549351
-0.05890226912114353 -0.01646835672885778 0.05256709504206439 0.054441536817775776 -0.05329566230676987 0.02656023632493918 0.022646815242970686 -0.046816381128728005
0.023411741942523507 0.034406161758360636 0.04682006639188039 0.06428419121013394 0.021093789412380617 -0.0011640587675073482 0.05816843770099884 0.0032869598172205056
0.01656892194324167 0.062291964468866805 0.02704650119583879 0.05417709608744154 0.018162742712575657 -0.00648318568282984 -0.030689767006465585 -0.013963676371370323
-0.022853196969528665 -0.008368976660626123 0.07889853398910826 -0.043122243461445726 -0.03486432255935474 -0.0019401297690094048 0.028837063071534115 -0.03817009927978744

encoder.0.1.running_mean f8 [64]
00000000: 6e11 23a6 2578 da3f fe2a a2b5 075e db3f
00000010: 582a 8007 d643 9c3f fe32 4ee4 a40f c2bf
00000020: 501c cd74 8be7 e13f 985d 08cb bb33 e33f
00000030: 5e36 9538 f78f e23f 02cf 8b7c 2e32 e8bf
00000040: b40f e5b7 6fba aabf c19d afa9 14cd e13f
00000050: 031c b490 30d9 cdbf 5e7f 3f19 d336 b7bf
00000060: 25c6 6c3e 8def cdbf 0f25 d2e6 fdbc cebf
00000070: 688b 8be2 d487 cf3f 48bc d75a 53d9 e33f
00000080: de70 1d75 f184 e23f 004a 8b5f 36ef a63f
00000090: 34e8 57f7 a578 dc3f 8c4c d7d8 623c de3f
000000a0: f5c2 ab4c b563 cabf e5cf 465e a9f4 dabf
000000b0: fda7 fac4 c385 c5bf 5d45 7afd 1a6b d63f
000000c0: c90f 3ba9 c446 c63f 9f55 ae35 f7dc e0bf
000000d0: 64fc 5434 63da d23f 0ada 0fad 10b3 be3f
000000e0: a26b 502f 9a3c e1bf 3d8f 96b8 0a7c d7bf
000000f0: 6939 cad1 094a db3f 23b7 d270 ff60 bfbf
00000100: 6d73 2896 0c0a e43f fcf2 4da4 bfe0 e63f
00000110: 50aa a1cf 3e97 dcbf 5ff1 b4e4 dbc8 e5bf
00000120: ca95 7ef2 9257 d63f d6ad fced 57f9 d5bf
00000130: 7e9a 1527 8b70 ac3f 1642 e553 df87 d7bf
00000140: d320 5853 3858 e6bf 43fc 1f46 0deb ae3f
00000150: 1546 ca73 a366 e7bf 6b1f df38 3f8d e2bf
00000160: 9c7e 837e 7c22 d53f afe0 8888 eb7d cf3f
00000170: 13ef 6f3d b1ee ce3f 24de 6382 f33a c83f
00000180: 72b7 740a e6ff cabf 4269 6c3e 0d96 e2bf
00000190: 269b 0e36 7a8f ddbf 91ce cd10 f625 b2bf
000001a0: d120 1d18 4c68 c83f fee5 7502 2c95 bf3f
000001b0: 4751 4b00 33fa e23f 8595 5cbf fc6a c93f
000001c0: 83bb 5005 fc90 933f e053 f917 a8ad d4bf
000001d0: aec2 9dbf 52a7 aabf 7918 2c06 0954 db3f
000001e0: c8fb 1f7a 5abe d43f cfc1 8873 750d e23f
000001f0: 4166 20ea 3b3b c3bf 0c13 16f0 39e6 c93f
0.4135831949645511 0.42761414277690324 0.027602524001887424 -0.14110242030837833 0.5595147401117035 0.600065132663917 0.5800739388593674 -0.7561256821195175
-0.052203646848766466 0.5562842668704705 -0.23319060388186594 -0.09068030706793936 -0.23387303875056023 -0.24014257212210352 0.24633275090954077 0.6202790045043765
0.5787284171488201 0.04479379574117459 0.44486378817203165 0.4724356763446813 -0.20616785281847397 -0.42118295866680305 -0.1681446754276407 0.35028719667123714
0.17403467429369204 -0.5269733475167192 0.29457931623978184 0.11991981721062231 -0.538647739801821 -0.3669459154718771 0.4263939427118176 -0.12257381920309433
0.6262267048619897 0.714935131938176 -0.4467312839175621 -0.6807689158372731 0.34909509354687585 -0.34334371796532304 0.05554613926033357 -0.3676679915706996
-0.698269045621624 0.06038705330865259 -0.7312791120077146 -0.5797420607350267 0.33022987704132745 0.24603027502758354 0.24165931224694556 0.18929904810623654
-0.21093440542739078 -0.5808168620308509 -0.4618821647549559 -0.07089174185039783 0.19068289925986062 0.12336993274757188 0.5930418973680752 0.1985774931319321
0.019107759308265592 -0.32309915868000694 -0.052057824984222165 0.4270041046405662 0.3241182510973286 0.5641429192092405 -0.15024517948113394 0.20233844969711645

encoder.0.1.running_var f8 [64]
00000000: fc88 0182 71fc 993f a4d2 5ad6 e12f 8a3f
00000010: fabd 1b12 cda2 923f 61a4 c42f 22ea b23f
00000020: a5b7 f2a5 ef21 7d3f 0a3f e74c cff7 a43f
00000030: 15b0 2a76 e807 9a3f 8b10 79c8 7e19 b93f
00000040: 795f 131e 97e3 9a3f 8853 b184 2e58 6e3f
00000050: 9ee6 d4ff 252c a13f 994d 5386 8e5a 533f
00000060: 8768 a171 5f9c ba3f df62 d513 7098 a43f
00000070: 7b67 fe13 644c bb3f 7a05 944d 2bac 923f
00000080: 8f69 a522 5384 963f 43f3 a10f ddc3 a73f
00000090: 5a7b cb10 bf80 813f c1c8 c4ed fd8a b13f
000000a0: 8698 58c9 fc10 8a3f 04f2 b5d6 7c13 993f
000000b0: dadc d5ef d343 993f a0a8 675e 340d 9b3f
000000c0: 8319 dfe1 681e 963f ee79 5746 ba46 9c3f
000000d0: fe24 d7f9 a396 943f 859c ee26 76d9 b43f
000000e0: 9145 b5ae b663 ad3f 2dc5 b4ae c7ad 953f
000000f0: bd75 f6c5 e9e8 8d3f f4d0 9cf4 cbac a23f
00000100: 7f18 c689 4d37 a03f 97c9 bfea e34a c03f
00000110: be2a d72f 2b9a a73f a88b 9b7a 94ea 993f
00000120: 2baf 00ce feab 713f 6786 b5ea 366f 6e3f
00000130: 66aa 1815 7f89 a03f f24d 0ab6 e702 963f
00000140: 0797 f68f be46 a83f cd90 732e 29e2 9d3f
00000150: 02a1 e993 fca6 ab3f 946c c235 5e76 a63f
00000160: bf2f d5e3 923e b03f 057d 5d51 d8bf 8c3f
00000170: 2202 d21b 6ac0 9c3f 3b32 9e98 d576 9d3f
00000180: 93f3 5f71 6933 853f 1dab 1d96 2dd1 8c3f
00000190: 79a1 516f 6b39 5c3f eab9 92b4 c8ca 953f
000001a0: 5768 c727 e1f8 b43f 5c16 dd23 76bf 803f
000001b0: 4777 db46 624a ad3f b90a ffb4 a6e5 a43f
000001c0: 9061 8ea4 f550 b13f 5847 fab2 b02f 843f
000001d0: 634f ead6 2aa5 ad3f f8de b93b cc80 a93f
000001e0: 20cc a6ed b1e6 8d3f 5517 7eb3 e5b2 853f
000001f0: 6af8 6acb 2c1a 883f 88c3 a8aa 600b 8c3f
0.025377057609497364 0.012786640504921572 0.018199161749121708 0.07388509432043257 0.007112442136685636 0.04095313848267608 0.025420791828466422 0.09804527658804056
0.02625881310527187 0.003704157692065061 0.03353995082802651 0.0011812583773477046 0.1039485599916664 0.04022550813778535 0.10663438308838906 0.018234898195264894
0.02198915385211247 0.0464161950667177 0.008546345424688507 0.0685270982255899 0.012727713484377522 0.024488401989843936 0.024672805322066484 0.02641755891992459
0.021600378786183604 0.027613554519001875 0.02010589802174411 0.08144319963922626 0.057401379419967154 0.02117073062726609 0.014604402879565432 0.03647458420746999
0.03167192751702518 0.12728547060357862 0.0460980888270419 0.02530891416871453 0.00431441815457471 0.003715140590131938 0.03229901440166287 0.02149545715890428
0.04741473681796831 0.02918304773346918 0.05400838189672365 0.04387182623141786 0.06345480024646032 0.014037790282314786 0.02807775301744376 0.028773629608212153
0.010351966640877374 0.01407085050933215 0.0017226742904999633 0.021281372090635665 0.0819225999943297 0.008177683801146411 0.05720812907178057 0.04081459960391016
0.06764159457669039 0.00985658689686246 0.0579007518146273 0.04981077412679541 0.014600172104883014 0.010595125713517875 0.011768674810238095 0.013693576057535642

encoder.1.0.weight f8 [64, 64, 3]
00000000: 0554 47d2 2628 aabf 4436 ea53 faef 8fbf
00000010: aa5a 48a0 3cd4 a1bf 2485 3478 e5cf 9b3f
00000020: c70b 7e9f aedb b5bf 75f5 de92 a6fe 533f
00000030: 7fd5 bab0 45fd 82bf aa7f a53e d988 92bf
00000040: 9ffb 97a3 0369 a4bf 87d3 c1fd f0c7 7a3f
00000050: 799f 9bc5 12f2 ae3f df04 ad85 e110 a4bf
00000060: c4bb 6690 414b 98bf fb23 cdcf 5621 5fbf
00000070: dd9c 6b34 0cdd bdbf d711 4bd4 5e01 903f
00000080: 5fa5 5e1a 0c86 8abf 89f6 66db 516a b8bf
00000090: 94d9 1b55 392b a4bf 4738 b092 f05f b8bf
000000a0: 9cd9 a44d fb50 7fbf 9035 7fee ad8f 9d3f
000000b0: 2aba 58a6 f0bd b5bf a014 b46a b26a a43f
000000c0: 3c97 e4e9 e4ea 9a3f 2558 a84f 5a1c a3bf
000000d0: 31b1 c760 786c b0bf aaca a90b 46ec a3bf
000000e0: 8e66 fb46 5fbb a8bf eb90 8ce0 6075 413f
000000f0: 5d59 2d43 29b9 9cbf bbf3 7e45 af87 8d3f
00000100: e509 363c bff9 b1bf 4e31 a049 faea a7bf
00000110: 5638 44fd bcbc a33f f08d ce08 1fec a43f
00000120: d8f9 f0e1 a1ad 99bf 1480 bc03 617f a23f
00000130: 7a04 0561 5aeb b3bf b775 24e4 241a adbf
00000140: 5329 a083 2140 a03f 4ed9 3410 514e a4bf
00000150: 650b 4e35 8b42 a6bf a8ac 6882 d097 7dbf
00000160: d5f9 0cc9 1b6b a43f 19b2 19c4 c3c4 a2bf
00000170: 85ef ef76 5917 a13f 9345 9b7a de79 a8bf
00000180: 4987 5c6c eba7 a5bf 4447 0ffa 258e 62bf
00000190: 67c4 4fc7 eea1 b3bf 7ff6 a16f 594d 9d3f
000001a0: f7c8 f0ef f55e fa3e 3f29 57b3 1b64 b5bf
000001b0: 4c51 5aa6 19ba a5bf caaf addc a30a 7ebf
000001c0: 052a 5d47 f903 86bf ff2f a59a 2675 9cbf
000001d0: cfdb b26e d348 983f 4ecf 1be9 39f7 82bf
000001e0: 7f87 a26b edb2 843f 8902 4702 794c af3f
000001f0: 7be0 1278 f8f9 b4bf 2fcf 4a59 a923 96bf
00000200: 38fb 02d1 e990 b03f 0c0f 1e10 0f7b b5bf
00000210: 2e11 1248 244d b4bf 5d7c 4dac 2221 8ebf
00000220: f593 4ff3 1a9e 523f 3118 2e18 3545 abbf
00000230: 814b 8473 1c32 b5bf 6821 e7e6 f284 a13f
00000240: 4dd4 0ea2 8ce1 a53f 1817 cf9e 1b04 943f
00000250: 553d 0342 0924 ab3f 4d34 b68c f8b9 aabf
00000260: 193f 57fe e702 b5bf 3ad0 dd55 7354 acbf
00000270: d971 7f61 de07 afbf 16d6 2c4c 11be 953f
00000280: f3fb a198 e5a3 acbf 015f c2df 5f9c b0bf
00000290: 6d31 57e4 afd3 823f c436 eaa1 34bf a1bf
000002a0: 524f 0e99 a159 8f3f 295b 0d94 eba2 9fbf
000002b0: 2259 8dee 9d4a 9dbf 1127 4995 8425 acbf
000002c0: 9c94 7589 a67a afbf 48d6 91b1 c134 6dbf
000002d0: 033b 2af4 5caf 94bf 3dca 6d06 2bed 8a3f
000002e0: 1496 84a8 ab1e 5e3f ebf0 27f0 cc17 99bf
000002f0: ceb5 e840 51b4 a03f bca1 c27e b1b3 aa3f
00000300: 0c9d 0b48 fd38 b5bf 1557 36fe ea11 9a3f
00000310: 3f16 422e 7a42 a13f 071c 8f5b 961e adbf
00000320: 92f8 43f7 d1c8 a53f 7f16 dd75 1a93 abbf
00000330: 13f6 00f6 078e a3bf ec65 b78d e866 99bf
00000340: 562e 4245 7edd 8cbf 4c99 e855 dcbb 9bbf
00000350: 7499 e3ad c0e0 a1bf d8b1 724b d6fb adbf
00000360: 98cb 77ef ffff b4bf dcbb 199e 8132 b2bf
00000370: 8731 3970 558a b5bf da11 a494 adcc a2bf
00000380: f2ed b901 a713 b03f d494 115e 26e7 7d3f
00000390: cf3c 91fe ac34 86bf 571c 0b0d 8e97 9ebf
000003a0: 54af ec44 1202 8b3f e979 0250 16a6 b0bf
000003b0: c143 f028 97da 943f e349 37e2 aa9d a33f
000003c0: c44d 38ba 7dd6 a5bf bb33 69b8 ddda 84bf
000003d0: b208 2046 0d2e ab3f bebf eb72 e3a5 a0bf
000003e0: 61ab aec2 a302 9f3f 7b95 e186 be61 783f
000003f0: 7606 89af c9ff 80bf ef35 3045 bfb7 b0bf
00000400: 91a6 599e 31ed a63f b3d6 5a2c f420 963f
00000410: 4ffc c6c0 6152 a3bf de47 8d34 c17d 9abf
00000420: 1e00 c619 46b2 b5bf 1eb2 b469 1836 9bbf
00000430: ecc8 1b58 90ea b0bf 8cd8 1471 e064 9d3f
00000440: 2b15 67e3 ce9e 973f 4697 7569 759a babf
00000450: ba73 641a 66cd 9a3f cf08 9630 1b9f 963f
00000460: fe1b 195a d8cb ad3f 7b47 5bde e7a8 693f
00000470: a904 71ff f8fe a1bf 58b7 4a01 f9db 65bf
00000480: d410 20bc 36bc a23f fa98 d9c9 4962 a63f
00000490: fd97 4787 fa97 abbf 2144 50f7 21ed 783f
000004a0: 55f3 28cc a4d4 a83f 6075 f052 f2b6 9a3f
000004b0: e028 81bf 0c57 abbf 049d 0f03 7918 71bf
000004c0: 122e 7e91 f62a a03f 9c8d dc97 1a26 833f
000004d0: c3c6 492c de43 a13f 8e07 347b 6591 a13f
000004e0: f63c e1f1 9328 543f df4f f8db cafc 7ebf
000004f0: f1b4 16c3 8c1d b03f a60b 13fc a456 a13f
00000500: b237 2189 f305 b0bf 80a9 fecf aff1 94bf
00000510: 69e7 75fd 99da b4bf bbb1 29bf be97 a0bf
00000520: 6bbb eb93 291d 85bf 836b 0458 b6f0 81bf
00000530: 069f ec9f 9a4a 85bf 81ab 2d7a 7628 b5bf
00000540: 2bba af53 2e59 aabf 4af9 b0bc 57fa 70bf
00000550: ba1d 69fb b947 a5bf 07cb 26e0 1bca b2bf
00000560: 5f52 45ac df97 a73f 99c1 fdcc 3326 acbf
00000570: d2d7 8050 f05a a4bf 6aaa f946 8378 b5bf
00000580: ed6b e14f b9bf b0bf 1037 f27b 90e8 a8bf
00000590: d080 1792 84b7 b1bf c0d3 d0ff f8cc 703f
000005a0: e826 47f6 1843 7d3f f462 81de 0b42 a5bf
000005b0: d7fc 0933 e733 a6bf 2c60 673f 144f aabf
000005c0: 1084 c7d5 2831 b1bf 632e 0d63 acd9 bbbf
000005d0: b224 a77d 0f7a 613f fdd5 cf36 8a82 513f
000005e0: e88b 2074 ae3e 753f 5ac5 8744 ff43 a63f
000005f0: 3043 0eeb cbb0 8b3f ea12 1049 86e8 afbf
00000600: c113 d4be 945b af3f d94e 2ee3 851d 9e3f
00000610: 7ad1 c412 b062 b13f 058f c942 2c26 a6bf
00000620: e66c 3d0e ab74 aa3f bc32 9a09 9166 a4bf
00000630: 1666 d3c1 e73c a03f 981c 285d cfda b23f
00000640: 7e4c 310e 2d91 a4bf cd20 928f 200c b23f
00000650: 1b15 ae1d 075c 9fbf 1f7c d474 514c 893f
00000660: a296 f86c efc9 8abf 87e0 48cf eba0 8cbf
00000670: f2d8 c61b 5861 b4bf 4be4 6d18 3a0d b3bf
00000680: d1c2 2129 2ce8 b1bf a696 78e4 282d 7abf
00000690: 9b4c 91bd bfb3 a23f 7aec 1f33 4f22 833f
000006a0: 6699 311d 21c2 6cbf 5c28 7387 d398 9c3f
000006b0: b325 1a51 7b9d 703f 2322 9d31 24f4 83bf
000006c0: 8bd4 2f59 5f43 8abf c3a8 dbae 7677 a13f
000006d0: 9380 2b31 1398 a23f 420b 610c f72c b4bf
000006e0: a2a0 715c 78dd 9abf 68e9 d41a 8247 b03f
000006f0: 0ced 7d3c d1e1 943f 381b 19a0 7afd ae3f
00000700: 18fd 0261 34fd a9bf 76a8 b983 435f ab3f
00000710: d41c 2e37 d31e ac3f 58f6 7327 85cb 8dbf
00000720: 2dfb 4789 2edc 77bf d07b 1550 ada4 a8bf
00000730: 2738 5589 c5c3 a03f e5ba aa9b 4d62 6e3f
00000740: 40b3 f360 b04d 913f faba 541d 5d73 a43f
00000750: adba f06a e0d4 a9bf 4b03 7da5 f01d b63f
00000760: 864a db59 0c4a ab3f 787c 0d2d 75ea 82bf
00000770: bf3c 5de8 8422 863f 4684 3b53 b93f 743f
00000780: 52f2 0864 9ab9 a13f cba7 2637 d21d b5bf
00000790: 5898 301b 3583 b2bf 8a6d bcc7 022a 82bf
000007a0: bfe6 1325 b24c 67bf d5eb 7ff2 e1ab acbf
000007b0: 957c d5ce 5187 81bf 9881 099a 0924 a9bf
000007c0: 7d10 dd21 50ef a63f ad9b 0006 fb34 a6bf
000007d0: 35cc 7b32 c6c1 b9bf eec5 0ad0 c02b a33f
000007e0: 4fb7 c9c8 1441 733f 24db 3653 74a0 a5bf
000007f0: a0f9 24e7 faf0 813f df45 8b4a 08c8 82bf
-0.05108758274915463 -0.015594440160636165 -0.034822363439322615 0.02716024919675876 -0.08538333314758893 0.0012203814217025242 -0.009272140937677474 -0.018100161026609086
-0.03986369487755969 0.006538335201288776 0.060440622922953 -0.03919129139695498 -0.02372457927566153 -0.001900038506578604 -0.1166541698436165 0.01563022776351083
-0.012950987391223632 -0.0953723107004071 -0.03939227260518688 -0.09521392422922857 -0.007645589498045526 0.028868405992218238 -0.08492950497814236 0.039876533055612784
0.02628667523926896 -0.03732568952925445 -0.0641551243094838 -0.038911999629722985 -0.04830453626136687 0.0005327914269384315 -0.02805008385197404 0.01441895418963123
-0.07021708698270109 -0.046714612472075076 0.0385493334925832 0.04086396200662168 -0.025076417365420628 0.036128074365706336 -0.0778099524368531 -0.05684008870069184
0.031739280049878936 -0.039660008648228925 -0.04347643876737698 -0.0072248597048584565 0.039879673282928664 -0.03665744561007873 0.03338126732702932 -0.04780478712713001
-0.04229675004741169 -0.0022650472387590066 -0.07668964735036497 0.028615376890675833 2.5149288372890992e-05 -0.08355877998761672 -0.04243545680688729 -0.0073343659267770065
-0.01074976681743057 -0.027790644825742557 0.023715308791647346 -0.009260609079752815 0.010106901976829395 0.06113031533050612 -0.08193924838531245 -0.021620412898030125
0.06471120217154869 -0.08390897887698773 -0.0793020893052627 -0.014711638339291061 0.0011363280475447078 -0.05326238556067187 -0.08279588527902428 0.03421744412077282
0.04273642996069125 0.01954692036431202 0.05300930910891092 -0.05220009534523538 -0.08207559546940181 -0.05533180640387099 -0.06060690822753018 0.021232862734185863
-0.055937933809211325 -0.06488608563301669 0.009192823558713948 -0.03466190792560789 0.015307676776309318 -0.030894928847682444 -0.028604953465525836 -0.05497373888336033
-0.06148262432069737 -0.0035651953772297997 -0.02020020714058558 0.01314767468804689 0.0018383671140979095 -0.02450485435291309 0.032625712560143336 0.052152201388995206
-0.0829008389369969 0.02545897652233638 0.033710306307551445 -0.0568739878431686 0.04254776137712314 -0.05385668457760761 -0.0381929862783005 -0.02480662693947082
-0.014094339836694985 -0.027083819144672547 -0.03491785166424935 -0.058561989507640966 -0.08203124615083224 -0.0710831652629475 -0.08414205541448015 -0.03671781959022598
0.0627998713697975 0.007300519822000601 -0.010842658537653453 -0.029875011011224775 0.013187544563684796 -0.06503428891526365 0.020365106462182817 0.038312282671217245
-0.04265206239883981 -0.01018307894732994 0.05308572274226843 -0.032515628603391175 0.0302835071158073 0.005952591176627715 -0.008300376576815465 -0.06530375899475137
0.04477839525209249 0.0216100837776227 -0.03773789861906406 -0.025870341141235424 -0.08475149277910574 -0.02657354493310226 -0.06607916022383947 0.02870512666887541
0.023066742543752 -0.10391935181322962 0.026174159394134235 0.022091317024668208 0.058195839880276864 0.003132298343964499 -0.03514841192419144 -0.0026683677081881622
0.03659220739794625 0.043718629732028405 -0.05389387990344117 0.006085522346453793 0.04849734298884437 0.026088510811054788 -0.05339851224614889 -0.004173729613263125
0.03157778287922154 0.009350021132894785 0.03372091570498761 0.034312411584337274 0.0012303776525362498 -0.007565300387359002 0.06295089495570828 0.033864169855881074
-0.0625908098020023 -0.020453211851113817 -0.0814605945396615 -0.032407723269759235 -0.01030952913921875 -0.008759903489183212 -0.010396202092649808 -0.08264866335745859
-0.05146164676249428 -0.004144995425177387 -0.04156285470940753 -0.07339643690538021 0.04608057954707045 -0.0549789607747499 -0.03975630743700233 -0.08387012942118025
-0.06542547416886153 -0.04864932549490508 -0.06920651022619784 0.004101727155149726 0.00714406729498205 -0.041519518767648395 -0.04336473939928858 -0.05138457559559159
-0.06715636462423924 -0.10879018228768582 0.002133398299723221 0.0010687207934528813 0.005186730823001341 0.043487527003785956 0.013520806418257786 -0.062320896548078
0.061245582861409804 0.029409496298810154 0.06791210611556223 -0.04325998606944207 0.05167135762050083 -0.03984502069679283 0.0317146705726367 0.07365127586682474
-0.0401701049637717 0.07049754624506761 -0.03062449568416979 0.012352596643323164 -0.013080473435432897 -0.013978807700468344 -0.07961035421508081 -0.0744205770150909
-0.06994892124363196 -0.006390723930541553 0.03652762593324007 0.009342783687307444 -0.003510536838393796 0.027926736013604944 0.004056436258573925 -0.009743006481259425
-0.012823815259233725 0.03411455997941595 0.036316489937008666 -0.07881111194823823 -0.026235466615987087 0.06359112887449714 0.020392674748547043 0.060527641337606075
-0.05075992283081571 0.05346117957090339 0.05492267654977359 -0.014548340097913101 -0.0058252160856671455 -0.04813138582789345 0.03274361897875649 0.0037089839728062673
0.0168979224371697 0.03994265540165105 -0.050452244810334924 0.08639434852831333 0.053299318283866845 -0.00923625510921354 0.010808027592842938 0.0049435843718309055
0.034619164191529564 -0.08248628469905765 -0.07231456674398495 -0.00886919185682335 -0.0028441886321360628 -0.0559988602180607 -0.008558882832117734 -0.04910306935630898
0.04479456342099384 -0.04337295959731278 -0.10061300976285355 0.037443185230028195 0.004700738133221651 -0.04223979488181431 0.008760414294212648 -0.009170594000724229

encoder.1.0.bias f8 [64]
00000000: afc8 1700 9847 563f 15b6 ff9f 1e7b a1bf
00000010: 854d 6101 305e 56bf 865d f43f 6d64 9fbf
00000020: c4d3 0480 2d99 a9bf 22d9 17a0 614e a5bf
00000030: 6c89 1b40 32fe a73f 37a5 48e0 7ffe a4bf
00000040: 1bb3 0dc0 0eaa a33f d5b3 1140 7e76 a8bf
00000050: 1f1b ffbf ed6c a0bf 55b4 0a80 6e14 953f
00000060: 59a5 faff 1d47 ab3f 70d0 f5ff f5dd aebf
00000070: ce8f 1fa0 1b7f afbf af79 ed7f 44a0 973f
00000080: cbbf fc5f 9982 b1bf 66c8 f43f f9e4 99bf
00000090: a946 ed9f 87ec aebf 07ea 1f00 6402 7e3f
000000a0: 3a34 cf7f b659 933f db81 f33f d0a8 b03f
000000b0: e7f2 d7ff c2ff a3bf 7c34 1080 05e5 9abf
000000c0: 19f9 1840 8b05 a5bf 3e7a 0140 3844 b23f
000000d0: 85d0 fa7f 3c7e a33f 99f5 f27f 5c1e 943f
000000e0: 0533 1bc0 6ca6 adbf 5591 feff ecd4 a43f
000000f0: e196 0000 feed a53f 57b8 ffff 1c0b b03f
00000100: 3b8b ff7f 7894 a43f b0e7 0060 5612 b2bf
00000110: 3fdd 0460 94fc abbf 244c e7ff b662 863f
00000120: 93e1 1060 8c9a abbf 1d72 1180 4dee 92bf
00000130: 225e e6ff 0ed3 9d3f 1a1f f13f e0a6 a7bf
00000140: f89d e53f b9f5 9dbf 0988 f67f 8b15 86bf
00000150: f87c 0780 39bc ae3f cf5d f37f e3dd af3f
00000160: 75ba 01c0 4431 b13f 732f ef7f ce3f a53f
00000170: d500 00c0 bcf4 afbf 9017 ddff 6628 8bbf
00000180: f072 f7df bfa9 afbf dade 0280 8cd5 a43f
00000190: a38e f77f 5f2e aebf 8fa9 a2ff 96d3 9cbf
000001a0: 0fe6 ff3f 1221 b1bf 749a 1a00 d873 a23f
000001b0: 5f38 0880 137f afbf f2b6 e7ff af02 703f
000001c0: 2049 f53f e797 9bbf 0d03 0d00 1dac 923f
000001d0: 93cc e305 002d 133f 41f8 03c0 c92c b23f
000001e0: d440 7302 20a2 3c3f 9207 fcff ac7b 91bf
000001f0: 6afc 09c0 d6a5 95bf 2b9d 15c0 11e7 a6bf
0.0013598427179855423 -0.03414245322333557 -0.0013652294924398633 -0.03065653517577751 -0.04999677837114505 -0.04161362723600549 0.04686123879015977 -0.041004177215948116
0.03840681166079759 -0.0477790311059391 -0.032081060111116104 0.020585753026058324 0.05327695607895561 -0.06028717755808166 -0.061516631408977326 0.023072309787829755
-0.06839903443756083 -0.025287527588439572 -0.06039832904083415 0.007326498629476769 0.01889691500746358 0.06507588921841238 -0.03906068204012119 -0.026264272633899285
-0.04105792195740516 0.0713534504188624 0.03807248174908388 0.019647069272414084 -0.05791034550711597 0.04068699479037955 0.04283136129406074 0.0626695752141314
0.04019524157026529 -0.0705923065551406 -0.054661404343671276 0.010930471119456504 -0.05391348526649433 -0.01848717779317798 0.029125437134636674 -0.04619503765621698
-0.0292576737641905 -0.010783281176205877 0.06002978980881751 0.06223975121400437 0.06715802848496273 0.04150243102739539 -0.062414072453977155 -0.013260655101145408
-0.06184196099250083 0.04069174826275708 -0.05894754826638617 -0.02815090117716462 -0.06691087782373749 0.03604006768482729 -0.061516389254493424 0.003908812998344878
-0.02694665267819929 0.01823468506632069 7.314980163979278e-05 0.0709959119594439 0.00043690949901266135 -0.01707334816365564 -0.021140437575465056 -0.04473166913777001

encoder.1.1.weight f8 [64]
00000000: 1de9 5122 24e7 ef3f 4cd8 49b6 e3c3 ef3f
00000010: 0efc 86dd cc49 f03f 84a4 77f9 6508 f03f
00000020: 544c 0967 3797 f03f ae3b 8215 93a9 ef3f
00000030: 941d ee03 834a ef3f db74 39e1 6b80 f03f
00000040: 1f1a e8c6 4243 f03f acbf 0b1b 3740 f03f
00000050: 62df 9afe 16b9 f03f 20c8 29e6 08d5 ef3f
00000060: 9381 af82 db31 ef3f 56e0 2697 23e1 ef3f
00000070: c999 2f46 9a41 f03f 0ac7 9cfa c7c5 ee3f
00000080: 6b05 cc3f 0ef8 ef3f 2071 cb82 079d ee3f
00000090: 877b 769c 2d9b ee3f 5773 4204 ba44 ef3f
000000a0: 988b 66e1 8ff2 ef3f 3d37 4822 4d56 f03f
000000b0: 8a93 d836 fea8 ee3f 44eb 2923 8602 f03f
000000c0: c1f8 cee9 eb2c ef3f 0b7e b71d 4356 f03f
000000d0: a57a 4769 0b46 ef3f 96b3 d6d2 9c72 f03f
000000e0: 5145 e7cc 8fec ef3f 1501 bb8c f540 f03f
000000f0: f1b4 d036 086c f03f a087 e95c 32ad ef3f
00000100: a29c d66f 8f72 f03f 0f1b 5e85 26e3 ee3f
00000110: a331 693c 89c5 f03f 5303 da4d 8353 f03f
00000120: e635 b94e c3a1 ef3f 6f79 110d af1a f03f
00000130: 1c0f e9ec f938 ef3f 384f e68b f78f ee3f
00000140: 3c07 7076 cca3 f03f c343 6c33 d0b1 ee3f
00000150: 4d4f b3cc e679 ee3f 257f a3c8 b1aa f03f
00000160: a94d 97dd d862 ef3f 585b 9c62 0c6a ef3f
00000170: 3e64 d61c 7962 f03f abca 5198 734f f03f
00000180: fbe8 9d1e bea5 ee3f c405 a454 ed11 f03f
00000190: b1a1 cbad e438 f03f 5758 85a1 ed09 f03f
000001a0: aa79 06b8 9895 ee3f 6ae3 8550 ac5f f03f
000001b0: 8a31 2111 b613 ef3f 15d2 af8a 4357 f03f
000001c0: f872 a59a fe08 ef3f 6558 53e8 5cea ef3f
000001d0: 0a06 7a7f 1711 f03f 7f86 3645 3296 f03f
000001e0: 93b3 31a9 b4d4 ef3f f044 904a a151 f03f
000001f0: 214b fbeb 5450 f03f 75ac 2fbf 44a3 ef3f
0.9969654722511084 0.9926622925111217 1.0180176404389871 1.002050375444271 1.036918070302609 0.9894500179378747 0.9778456761131786 1.0313528821782743
1.016421105364891 1.0156775528412068 1.0451879449373895 0.9947552199721521 0.9748361160709912 0.996232791155317 1.0160162679327291 0.9616432089589761
0.9990302320513086 0.9566686205467114 0.9564426475443363 0.9771394808954977 0.9983596231798968 1.0210696543831113 0.9581290312968218 1.0006162046035607
0.9742335859844148 1.021060100632783 0.9773003631815597 1.0279815898786402 0.9976271631259498 1.015859174469431 1.026375021097291 0.9898921789829167
1.0279688233074826 0.9652283291660256 1.0482265815545382 1.0203888932303087 0.9884964501922553 1.0065145979384302 0.9757051112323754 0.9550740940489737
1.0399899126500278 0.9592057232240382 0.9523805616431474 1.041673454041253 0.9808163001966267 0.9816953588477686 1.0240412832702215 1.0193973493557376
0.9577322576508601 1.0043767267492152 1.0138899601825921 1.0024238881501526 0.955761298584368 1.0233576913289775 0.9711561522067751 1.0213046472027874
0.9698479671893372 0.9973587548836461 1.0041728000218222 1.0366690353042995 0.9947150520871325 1.019929209960818 1.0196122377425996 0.9886802419763528

encoder.1.1.bias f8 [64]
00000000: 2960 8265 6515 973f f54c a79d 7c53 a93f
00000010: d43f 677f e171 a13f bab0 12bc ea6b 8fbf
00000020: a337 61f5 b64f 9bbf aaab e363 992c a33f
00000030: 0f0f a45b 8424 80bf 7b6e 2e80 9c67 9fbf
00000040: 775d 97fe 6f22 973f 9cd0 af47 3344 92bf
00000050: 1344 09b0 9ca6 8bbf 8c80 0b3a 2c77 a73f
00000060: 9364 a5ee d540 8cbf a0e3 c522 c24f a5bf
00000070: cc18 95e4 1b99 7ebf 6066 6a64 b218 acbf
00000080: e005 c73b 59d8 a4bf 1cb4 1b7e 0e91 89bf
00000090: 3440 5906 f534 8fbf aa2a c9da 1364 abbf
000000a0: 8e11 3285 0b34 9b3f 4481 0421 f67b a0bf
000000b0: 601f 13f3 0572 a9bf 4286 a9fd 929a 8c3f
000000c0: 2847 0cb3 60fa 92bf 5421 ef39 61d0 a33f
000000d0: c44d 2a5a 5ca6 b1bf d375 a844 3e4a 87bf
000000e0: efd3 44fd 1c00 aebf bfc2 d545 b0c0 57bf
000000f0: 531b 5c34 9dee 9a3f bd40 fb99 fdfc 76bf
00000100: 5970 c336 734c 74bf f0e6 7003 33f1 91bf
00000110: fe33 7ef6 0989 8abf f388 ef47 a9b5 a9bf
00000120: ddb4 482e cb82 8e3f b69b 3753 d6f0 a0bf
00000130: 8bd4 fd97 bdef abbf 9ccf d8b3 191e a4bf
00000140: 85ea 94fa 6413 9abf 5a2a 5015 e003 afbf
00000150: f409 486b b363 9cbf b88a 2cc4 aac9 973f
00000160: 665b d7b1 1361 9f3f 67be a83e 7c7f ab3f
00000170: 5251 ce36 eb02 953f bcf4 76da d87b aabf
00000180: 1aa0 b187 162a aabf 77fe eeda 6724 933f
00000190: 5c62 08b7 7a85 a43f c2ef 9afd 3ee3 a3bf
000001a0: f086 9e8c e8f8 a7bf 329e 7f3a 9912 963f
000001b0: afb9 3797 752f a4bf 1e7b 8e25 6055 943f
000001c0: 39ac d1ad 56ef a3bf be1a 322a 187a 973f
000001d0: a41f 6c03 4f0e a33f 9675 2179 c74b 67bf
000001e0: 92fb de5c 0299 b0bf 476f cace 9895 943f
000001f0: cdf2 dce6 3b16 94bf d2b1 c386 5d98 b2bf
0.02254255706847644 0.04946507858735486 0.03407196693626671 -0.015342553963215589 -0.02667127487830324 0.037449639743349764 -0.007882150694519944 -0.030668683360643528
0.022592306055086078 -0.017838288546002987 -0.013501381036947568 0.04583109100872304 -0.013795539231681786 -0.041624132866622476 -0.007470234829560062 -0.054875921972052266
-0.04071310858445165 -0.012483704780118336 -0.01523772645592212 -0.05349790616727053 0.02656572342358881 -0.032195750742405355 -0.049698053285793575 0.01396670185676208
-0.018533240249843846 0.03869918663218877 -0.06894471360492732 -0.011372076483037319 -0.05859461394940257 -0.0014497491277688926 0.0263008654792672 -0.005612364416904989
-0.004955720953344033 -0.01752166470053046 -0.012956693491810608 -0.05021409037705551 0.014897906637168773 -0.03308744207225038 -0.05456345062604225 -0.039292147830934016
-0.025464608949941087 -0.06057644138498537 -0.027724078581750036 0.023230236266622767 0.030643756608550808 0.053707010887930555 0.020518946857536698 -0.05172612826161457
-0.051102356018248155 0.01869356416477649 0.04008086666380414 -0.0388431248261152 -0.04682089535277878 0.021555322833505204 -0.03942458601874265 0.0198569319651326
-0.03893538352789289 0.022926690650389096 0.03721854130532101 -0.0028437515220917737 -0.06483473555907285 0.020101916905886055 -0.019616065946354056 -0.07263741054675357

encoder.1.1.running_mean f8 [64]
00000000: adb9 69fc 8fce f9bf 9c6d 1c7a 90ec d2bf
00000010: 5fd3 0b76 5d37 d9bf 8312 2a81 351a d6bf
00000020: 894d 8d2e 9296 ffbf 1c23 515a 635b ecbf
00000030: 2548 c726 5be1 f3bf f144 bf68 d251 d7bf
00000040: e963 1eca f5b1 d0bf d9ee eeff ecc4 e43f
00000050: d402 dccc f638 f7bf 9501 8aaa 2143 d3bf
00000060: a137 05f9 c9f4 89bf cba2 18ba 0250 f13f
00000070: ee08 2699 ac92 dcbf 9bf6 df8c 9444 e53f
00000080: 94ad 3edb a45b e83f 4630 1d54 36c7 d53f
00000090: facf 029c 21f7 e4bf 21b3 8cc6 9f21 f73f
000000a0: 53df 5cfa d383 efbf c72d 4107 3358 f63f
000000b0: ac33 0fe0 6e7c e33f 4ad2 81cc fa2e c7bf
000000c0: a324 8929 aa20 f53f ff85 f5d2 94f3 f4bf
000000d0: 1c4f 99f5 a0ba f33f 12b7 dca6 c913 fabf
000000e0: 4594 4f02 2923 e93f 6478 7f88 e9a7 e53f
000000f0: abe2 e84a 82bf f3bf 6ac9 ae31 30c5 d43f
00000100: 7526 0916 1a8d 02c0 ac64 3fd1 3739 d73f
00000110: 353a f22a 2854 d2bf d438 957d 40ba ec3f
00000120: 4d1d 1f1a b58b e0bf aed6 21a3 7297 f5bf
00000130: abed e05e 4195 dd3f c42a 415c 0dc3 e13f
00000140: 8ba2 f4e9 ab5c 01c0 1c4b 927a 5fa3 e53f
00000150: d97f c948 4c61 e1bf 6a04 9415 878f e1bf
00000160: 79ea 4320 3bdd b43f 48e1 8080 aa60 c0bf
00000170: ba84 4b68 a1e5 00c0 1c35 6f33 96f3 f9bf
00000180: efca 7d22 a29a e23f 7c7c f4a6 dc24 f8bf
00000190: 4e00 6440 1d7e f1bf 5cd8 7f9f f10a f13f
000001a0: c8b4 0963 8a98 fabf 078a 46ab bd3c f0bf
000001b0: 5c35 8fd3 8565 f0bf e7f3 4e00 9384 f5bf
000001c0: 64ab aa44 fe85 f3bf d2bc f279 45e3 d5bf
000001d0: cb73 ec72 4e7b e5bf a2bb fe23 b515 02c0
000001e0: fc37 d67b 87aa c9bf 1f25 4fb9 afae e8bf
000001f0: e4f4 1f14 e0ff fbbf 6416 e2cd 4dcd f53f
-1.6129302844889069 -0.2956887428751658 -0.3940042164606918 -0.3453496705408627 -1.9742605036197765 -0.886155773544576 -1.2425185694487564 -0.36436901311124276
-0.26086182344584913 0.6490387915323154 -1.451407242042639 -0.3009723821087616 -0.012673929130553154 1.082033850611128 -0.4464522834388295 0.6646216155492825
0.7611870081067758 0.34028394903430514 -0.655167393406827 1.4457090144962381 -0.9848422899149035 1.3965330394156454 0.6089395881805237 -0.18112120614718413
1.3204747793663862 -1.3094681015576268 1.233063659067688 -1.629830982022615 0.7855420155652914 0.67674709949257 -1.2342551160965438 0.3245354161437236
-2.318897411493533 0.362867311805142 -0.28638652986493024 0.8977358296195015 -0.5170541296182961 -1.3494745609618053 0.46223482385149833 0.5550600816580631
-2.1702497747213036 0.676192988774662 -0.5431271955130753 -0.5487704678963727 0.081500716569204 -0.12795001291829977 -2.1121242664381414 -1.6219694146305477
0.5813761399898264 -1.5089994928055424 -1.0932896151789637 1.0651718359418032 -1.662241351000647 -1.0148293199969218 -1.024785829929292 -1.3448667537734253
-1.2202131922046755 -0.3419965449238137 -0.6713020557978039 -2.2605994045365643 -0.20051663920133922 -0.7713240260428939 -1.7499695573927108 1.36262302802188

encoder.1.1.running_var f8 [64]
00000000: 1d24 bc36 27da fb3f 25d2 3a6a 100e ec3f
00000010: 6d30 4385 9ccb f13f 57e2 2bdf b331 d23f
00000020: c5e9 54a0 46dd 0340 4c28 fa5e 2926 f33f
00000030: 9cbf e4c5 7d9f f83f a835 8195 2761 d43f
00000040: 9ce4 cac4 ed04 fd3f 4471 2fc0 9cd4 db3f
00000050: 6006 4aa0 cc2d 0f40 4c6e aca3 fe3d fd3f
00000060: df7b 95de 5eaa e33f c675 5fc3 c3b6 ee3f
00000070: 4651 f8fd 7bfe d33f 8cb9 ba5e f5c1 e63f
00000080: 23a2 41a4 97f1 de3f 8bba 9fad 4357 f03f
00000090: 258b cbad bc97 ea3f d79d c188 56ac ec3f
000000a0: 7b02 0215 e047 e23f 4644 edfc 0e09 db3f
000000b0: a475 b3ff 193b e33f 9269 bb14 7b3d f83f
000000c0: bb1f 603d 76e8 e83f ead5 7151 67d7 f33f
000000d0: 13e9 9fb6 4a83 0240 3381 42d1 cdc9 0b40
000000e0: 08ec 7f9d ead8 dc3f 8175 8d5a 9192 f23f
000000f0: 3530 cfed 6cc9 f33f 93f8 6510 00dc f53f
00000100: be80 b390 662d 0940 a10e e4de 6064 e83f
00000110: 6fde d102 59e4 d73f 1a4a e30a ab83 d93f
00000120: e665 6583 a0fb f23f e5cc 2b7c 380c 0640
00000130: 5a7d d353 b6cc e03f f74d 2f55 1f1d e73f
00000140: c549 fe05 a834 0840 b74d e83a 38f3 f03f
00000150: 19b1 b256 eb4b e33f 90c7 b6c4 017c eb3f
00000160: 0576 fb4a d739 dd3f e70e d225 ca92 f73f
00000170: 8b52 da95 9148 fa3f 8a8e c8ca 6f57 0240
00000180: 537b dfd7 5766 e63f 59bd 4e75 6e32 f33f
00000190: 83fc ac03 653a f73f 7d9c c118 2c5c e33f
000001a0: e49e 5e6e dd50 fc3f e17f 700c 75e4 e83f
000001b0: ec6b e56d 698f fd3f 36c1 c5c3 2caa f43f
000001c0: ae57 2f10 99f8 0a40 0a8e 4a63 f970 eb3f
000001d0: 1271 af43 3973 f13f 11cc 6b0a 9beb 0740
000001e0: 88e2 3aac a1f1 d23f be02 f9ee 9151 e63f
000001f0: 2a11 8c61 838a f73f 1fa2 9fe5 dcfb d73f
1.7407600534518288 0.8767168116378953 1.1122098165097 0.2842836074264929 2.4830448652184907 1.1968167982145301 1.538938305875468 0.31842984771796035
1.8137033164223686 0.4348518254098688 3.8973629496183975 1.827635421132885 0.6145471904127325 0.959810144031217 0.3124074917007146 0.7111765718635055
0.4834956268373693 1.0213047773537791 0.8310225862918271 0.8960373564740917 0.571273842841108 0.4224278898228174 0.6009645456467081 1.515009957298933
0.7783766936054158 1.24008876623463 2.3141073482085033 3.4735370968266124 0.4507395303805315 1.1607831513605051 1.2366761483599593 1.366210998588518
3.1471682839183748 0.7622532227837447 0.37331223750468373 0.39866138518587635 1.1864323742541898 2.75596711167019 0.5249892842511301 0.7223049796834279
3.025711104223975 1.059379797084018 0.6030174916573144 0.8588875619955036 0.4566553337334372 1.4733373143544044 1.642716966021143 2.2926936953024937
0.6999930588025144 1.1998123724295822 1.451756491049111 0.605001495697152 1.7697424231827705 0.7778878443677933 1.8475126545733884 1.2915465972292401
3.371385694927958 0.8575407923967202 1.0906307834584976 2.9900418104312014 0.29599801844919016 0.6974572818217764 1.471316700976852 0.37474749015976444
