models/matching_nets/AWF_n=1_k=5_q=15_nv=3_kv=5_qv=1_dist=cosine_fce=None.pth (torch, 316367 bytes, 24 tensors)

encoder.0.0.weight f8 [64, 1, 3]
000000 73 06 6d b8 32 98 d6 3f 93 74 d0 a0 02 a4 d1 3f
       0.35303943643894015 0.27563539223212635
000010 3e fa 30 cd 28 50 ca bf ea 2a cb 97 33 cb c7 3f
       -0.2055712701712355 0.18588871871755624
000020 6c 61 48 a4 20 e6 e0 3f 10 6d 2a fb b8 0c 9c bf
       0.5280917366645048 -0.02739228280061662
000030 6b ac aa c6 b6 7d b4 bf 8f 52 74 8d 3e d3 92 bf
       -0.08004324293385572 -0.018383958228769755
000040 7d 34 aa d4 fb b2 ce 3f c0 f7 0b f0 8e bb c9 bf
       0.2398371494677213 -0.20103632660896942
000050 80 aa e2 b0 a5 f9 db bf bc c1 0c 4f 83 9c c2 bf
       -0.43711225770918105 -0.1454013954148773
000060 e7 48 97 c5 da 80 c9 bf d7 0a b6 e1 3f ee de bf
       -0.19924482963558107 -0.4832915977678289
000070 74 1b 6e 92 80 a2 e0 3f 1c 7b 94 67 c1 c8 e0 3f
       0.5198366985285774 0.5245062850043243
000080 1f 32 b5 8e c7 d7 b3 bf d8 ab 71 57 5c a7 c1 bf
       -0.07751128419949581 -0.1379199435208125
000090 8b a3 25 90 79 d7 c3 bf c0 1b db 30 ae 21 d1 bf
       -0.15501327074460067 -0.26768069048960896
0000a0 d6 2b fc 24 98 a8 c2 3f bb 80 b2 8e 38 5d b1 bf
       0.14577009015951486 -0.06782868846721872
0000b0 39 11 38 e5 db 43 e3 3f aa 0b 91 03 5b 21 d9 bf
       0.6020335652288288 -0.39266085956858865
0000c0 01 98 b5 43 7c d6 d5 3f ed cb fd b4 01 b5 bf bf
       0.34121615040055536 -0.12385569256529978
0000d0 5a 70 8b 1b 79 c3 9c 3f f2 ba 05 8c 31 49 d8 bf
       0.028089420610612904 -0.37946737932263297
0000e0 01 df b7 2a f8 de c7 3f c2 5a f6 6a 9c eb cb bf
       0.18649198613979226 -0.21812777731675764
0000f0 57 53 f8 0c 0e 6f dc 3f 37 df 15 32 40 ee c7 3f
       0.4442782522831314 0.18695833631113043
000100 95 56 b2 21 89 2d c0 3f f1 2c ac 90 cd 82 2b bf
       0.12638963837951125 -0.00020989188518458866
000110 71 49 cd 4d 90 f4 91 3f b5 a0 08 7d 56 dd e0 bf
       0.017534498928691137 -0.5270187799515244
000120 7b 9d be e4 be 64 d2 bf f0 b9 86 db d0 fa d6 bf
       -0.2873990281900302 -0.35905858457672846
000130 c4 c5 ae bc 61 12 d7 3f ce 3c 71 c4 7e 71 98 3f
       0.3604969351391356 0.02387044977177482
000140 40 73 0a e9 48 18 c4 3f 8f 56 40 ad 85 28 d1 bf
       0.1569911134619364 -0.26809827727388663
000150 74 6f 2e d1 a4 b6 dd bf e3 79 14 ed 2d ec c3 bf
       -0.4642726938998216 -0.15564512325450072
000160 ed 9a 67 59 12 ca e0 bf 97 c3 7f b2 07 f6 b2 3f
       -0.5246669527230928 0.0740666209019437
000170 4e 50 44 ab 11 d1 cd bf c5 9c f6 8a e5 f1 e0 bf
       -0.23294278013838937 -0.5295283998611003
000180 ea 16 96 f4 ae 95 d4 3f dc 0a 25 2f 8f ab dc 3f
       0.3216359509027443 0.44797114948248207
000190 48 fb b2 06 39 0d c8 3f 75 d4 f4 81 e4 83 e0 bf
       0.1879035265646627 -0.5161001718721666
0001a0 cc 79 6e e3 2e d2 db bf 02 13 2f 3a 34 0a cc bf
       -0.4347035618792716 -0.21906140175828887
0001b0 f0 cc 7b 5a 99 c3 9d bf e0 b8 72 ab 41 53 dd bf
       -0.029066463611298 -0.4582065748499087
0001c0 af 7c aa ad b1 0e b5 3f aa cf 4a e2 17 41 e0 3f
       0.08225546350375866 0.5079459590692654
0001d0 8c 7e 90 e0 07 93 e0 bf 51 93 2e a0 76 bb dd 3f
       -0.5179480920814554 0.46456685679213644
0001e0 59 31 43 3d 91 8d 84 3f 46 42 6f 6e c9 47 77 3f
       0.010035643274385707 0.005683695641849845
0001f0 53 8b d3 67 34 d9 c7 bf 16 f5 bc b9 5f 54 cf 3f
       -0.18631606168409096 0.24476238793605692
000200 c9 17 10 e1 0e 15 cf bf 23 e5 92 92 06 e1 d4 bf
       -0.2428301428737412 -0.32623447717522164
000210 29 51 a2 c1 ab a1 8f bf 57 e1 10 02 66 f6 a3 bf
       -0.015445081564657475 -0.03898924613207793
000220 43 0e a1 06 b5 f6 bc bf 81 9a ad 0f 5e 59 d0 3f
       -0.11313945209354252 0.25545455485409013
000230 19 9c 70 a6 01 aa e2 3f 3e 68 0d fa 25 14 cb bf
       0.5832527399805968 -0.21155237874592275
000240 81 d5 cc a7 b3 02 d1 3f 10 90 06 e8 b7 46 dc bf
       0.2657899035142109 -0.441816307628188
000250 e1 bf e2 7f 62 71 df bf d0 72 ba 1b c1 11 d3 3f
       -0.4912954567798789 0.29795863826602176
000260 2c aa 83 6b 1c 19 dd bf b8 56 1c c6 84 8c db bf
       -0.45465765475697384 -0.43045157763240693
000270 f0 91 c2 67 5c 99 da bf 41 d8 2b f2 53 33 d4 3f
       -0.4156104100495943 0.31563280725038473
000280 65 86 f1 14 8b b8 d4 3f fd 6a c1 a5 d9 2c d5 3f
       0.32376362843760936 0.33086243807854016
000290 ce cd 3f 67 d1 79 d2 bf a4 96 e9 0d 98 64 92 3f
       -0.28868517954762474 0.01796186051287542
0002a0 cb 83 70 54 6e 7f dc bf 76 99 4e 5d f9 45 d2 bf
       -0.44527776952787396 -0.2855208789063889
0002b0 96 9a 5d da 7b 87 df bf 66 d2 eb 14 7b 3f 95 3f
       -0.4926442749478296 0.02074997248833412
0002c0 2c ff 4d ef 37 20 cb 3f 56 07 8b a8 30 e5 c6 3f
       0.21192073044584825 0.17886932592051136
0002d0 b3 f6 dc e9 3a 4a c5 bf 1f dc de 38 2b 13 d2 3f
       -0.16632782382105446 0.28241997293247495
0002e0 84 73 5c a2 d3 64 dc bf a5 0c c1 ec 25 cd dc 3f
       -0.44365397315578314 0.45002124901311397
0002f0 79 1b 55 77 01 26 cf 3f 65 ae 65 f6 5e b4 d8 3f
       0.24334734274654204 0.38600896894670306
000300 ee 9f c8 13 c4 1e d0 bf 59 1d 29 84 49 a7 e1 bf
       -0.2518778031540013 -0.5516707974683569
000310 e9 04 fd 26 98 dc cb 3f 2a 68 f6 75 c6 44 e0 bf
       0.21766950515487984 -0.5083954147296528
000320 65 68 7f 67 59 34 d8 bf 61 4f f6 b7 74 ca c3 3f
       -0.37819514376827207 0.15461596472288888
000330 91 90 78 d6 02 da b0 3f 9f 59 0d 81 0e 74 91 bf
       0.06582658516032526 -0.01704428351089293
000340 04 ee 66 6e a8 b7 e0 3f d4 de c4 16 d2 6c ca 3f
       0.522419181469957 0.2064459429909592
000350 7e 04 e4 09 63 8c d2 3f 7a 19 5d f5 4c be ce bf
       0.28981853452575723 -0.2401825140061183
000360 0d 85 4c b0 55 83 de bf 89 5e 50 db b7 0a a2 bf
       -0.4767660352391239 -0.035238023301812645
000370 1b 47 5b 8b 41 fb d4 bf 65 93 28 13 43 db b7 3f
       -0.327835451212296 0.09318942277657312
000380 20 59 25 0f ec b5 ca bf ac c5 aa b4 93 23 dc bf
       -0.20867682208581417 -0.43967144625920684
000390 3c da f1 60 25 cb d1 bf 87 45 94 c7 3e 28 d4 bf
       -0.2780240484929981 -0.31495637407450555
0003a0 25 0c d0 ab db e0 cd 3f 69 c5 af 55 69 82 d7 3f
       0.23342462434092784 0.36733468406517616
0003b0 46 02 31 87 f0 b1 dc bf 9d 2e 64 36 55 f8 df bf
       -0.4483605690220752 -0.49953203498510296
0003c0 72 c7 06 a4 86 32 e0 bf fe d8 6c c0 fa 4b d7 bf
       -0.506167717327328 -0.3640124205734451
0003d0 65 59 32 d0 0b a1 d9 bf f6 52 60 28 a1 f6 e3 bf
       -0.40045447665888495 -0.6238561428641265
0003e0 a5 a2 c6 16 7f 2e d9 bf f4 2b 76 85 0a d0 84 3f
       -0.39346291755877366 0.010162431905674986
0003f0 04 63 6d 8c fc ab dc bf 72 26 19 6e 83 8d b1 bf
       -0.4479972239837908 -0.06856557310052283
000400 36 6e 4c c5 70 45 da 3f 2d b5 2c 49 e0 8b dc 3f
       0.41048831241070916 0.4460373606296624
000410 4e ea 31 2f c9 2c c7 3f 9e 28 15 13 ce ed a4 bf
       0.18105425648157553 -0.040876808003831075
000420 85 a1 9a 28 11 d1 e1 3f bb 2c 18 8a 1b ac e0 3f
       0.5567708771750836 0.5210092255741964
000430 34 c1 6b 19 de c4 dc bf e2 ed 27 d8 07 cd e0 3f
       -0.4495158432246342 0.525028154544483
000440 90 ad 9f 55 89 58 da bf 73 d2 bc aa 87 44 dc 3f
       -0.41165383683866086 0.4416827361449471
000450 d0 b0 a8 7b 27 37 da 3f 2e 11 bb ec 8a c2 e2 3f
       0.40961634708470473 0.5862478850981796
000460 75 bb 0a d8 5a a0 e0 3f 10 e2 43 52 54 38 b2 bf
       0.5195745677536779 -0.07117201813151319
000470 46 43 ec cb eb e9 af bf 4b 93 82 67 9e 6c bd bf
       -0.062331551211292566 -0.11493864085293841
000480 84 04 07 47 6f 3d 98 3f f7 23 9b 29 60 fb e1 bf
       0.023671854696435193 -0.5619355023019342
000490 77 43 e9 53 25 6a e2 3f 9f 3c c9 a3 cb 5e c4 3f
       0.5754572523966165 0.15914292809836625
0004a0 0a e0 22 fe f3 8e ad bf 42 de 4f cf ac 29 c7 bf
       -0.05773127057312884 -0.1809593212380936
0004b0 ab da 8e d3 7d 1b dc bf 00 47 bc 43 dc 21 a4 bf
       -0.4391779485699014 -0.03932083441590173
0004c0 52 5b c2 da 1f c9 9e bf 31 b4 f9 23 33 24 ce bf
       -0.030064103819849315 -0.23547972923862084
0004d0 f8 51 a6 8b 8c 05 bd bf d0 b5 63 52 0a 20 d7 3f
       -0.11336592111030785 0.36133058591698575
0004e0 ce f1 8c ef 16 13 c9 3f 8e ac 23 38 0d a6 e0 3f
       0.19589506813816943 0.5202699753257478
0004f0 82 d9 3f 63 b7 2d c2 3f 2b 59 e7 32 96 c0 8a bf
       0.14202015253222205 -0.01306264250608232
000500 65 5e d8 f2 18 27 de 3f 68 73 36 76 95 cd ba 3f
       0.47113631930685634 0.1046994603734227
000510 fd 6b 44 02 31 c2 d9 bf 8b 9c 90 62 9a 6e d4 bf
       -0.4024775049344383 -0.3192506754443875
000520 24 c1 00 c4 a2 3d c1 3f 5d ac ee 3e 4d 2d c3 3f
       0.13469347544151689 0.14981999943606442
000530 48 c4 84 91 1f 56 d6 bf 77 a1 43 28 da d2 e0 bf
       -0.349006549938228 -0.5257387911233725
000540 ff 74 e9 98 14 fb d7 3f e8 3e 12 2d c9 e3 c8 bf
       0.37469973500067505 -0.19445147228952142
000550 1f cb cb 11 6a 8c d9 3f 83 43 a9 f1 b3 74 c4 bf
       0.39919521081826476 -0.15981149005758874
000560 d5 e5 6d ae 89 04 dd 3f dc 07 c7 f5 7d cf c5 bf
       0.4534019664202707 -0.17039465428211897
000570 73 03 0a 93 a8 a2 bd 3f 5b d4 78 f4 4e 72 d5 3f
       0.11576322164365908 0.33510183214395334
000580 1e 29 c9 94 05 48 e0 3f 62 b8 ce 7d 0e a8 c9 bf
       0.5087917238209092 -0.20044118063873656
000590 da 04 03 20 e3 68 e2 3f 8a 9d 33 8b e2 88 b9 bf
       0.5753036141615226 -0.09974494837262263
0005a0 29 d0 23 d5 88 5a d9 3f 59 32 1f c0 db 39 da bf
       0.3961507874912536 -0.4097813965025004
0005b0 79 da 8c a8 01 c0 cb bf ad 7f 6e b5 c4 2c bd bf
       -0.21679707269659668 -0.11396436147197049
0005c0 15 1a d2 a2 c5 67 db 3f bd 31 04 38 3e 44 d0 bf
       0.4282087411924363 -0.2541652247462272
0005d0 53 0e f4 13 35 36 bd 3f 98 2a 33 a7 93 2a e2 3f
       0.11410838830129792 0.5676973596212802
0005e0 7e 92 ec df 3b cc e0 bf 3e 96 7e ce 63 7d de bf
       -0.5249308942334918 -0.4764031902835518
0005f0 42 df 6a fa 82 e8 cf bf db 9c 73 ce 3b 86 de 3f
       -0.24928319194236265 0.476942969906714

encoder.0.0.bias f8 [64]
000000 55 39 ea ff 73 8a d4 3f 00 56 d0 ff 61 fb c0 3f
       0.320950508038455 0.13267159453305055
000010 ab 33 50 c0 c5 b9 d3 bf 8b 5f 17 00 9b 5b b8 3f
       -0.3082136514720399 0.0951477885458855
000020 49 8f d8 ff 9d cf d8 3f 83 8c 0b c0 3f 9c e0 bf
       0.3876719473357651 -0.5190733672028646
000030 0b 57 0e 00 7e 23 bc 3f da 3c ed 7f e8 6e d5 3f
       0.10991656781547136 0.33489429943888427
000040 9e 81 cf 08 10 25 8f bf f8 8e f6 ff 5c ba e1 3f
       -0.015207410115124994 0.5539994239120167
000050 90 e7 f7 df 82 19 df bf 1f 43 17 80 cf fc d5 3f
       -0.4859320819083388 0.34355533131479093
000060 fd a9 4b ff 81 cb cb bf a2 91 42 00 21 fb b1 3f
       -0.21714806523898736 0.07023817306850913
000070 19 d2 f8 ff 21 3d d8 bf 03 17 ef 3f 70 9e d6 3f
       -0.3787312507368213 0.3534203171114855
000080 bb 3f 28 c0 f0 54 cd bf 92 77 01 00 a1 95 e1 bf
       -0.22915467627217176 -0.549515247355645
000090 b7 42 19 00 c6 d5 db 3f ab 0c f4 ff b5 af de 3f
       0.43492269525180965 0.47947454448167076
0000a0 d4 f9 1f c0 a0 62 d7 3f 97 5f fa ff 11 98 a3 3f
       0.3653947712154182 0.038269579407994296
0000b0 cf 22 b3 7f 58 9c d0 3f c7 b4 0c 80 68 df c4 bf
       0.2595425841396208 -0.16306787731574543
0000c0 42 08 f3 7f 8d 70 de bf 29 c8 02 00 a3 bf b6 bf
       -0.4756196736817665 -0.08886164427056599
0000d0 f7 65 f5 7f 78 69 e2 3f f7 ed 49 c0 c1 c1 df bf
       0.575374841612926 -0.49620097902490506
0000e0 bc c2 fb 9f fb 42 e0 bf b3 15 f7 bf 79 a3 d7 bf
       -0.5081766247440878 -0.36935275789832217
0000f0 0a 95 01 80 98 34 e0 bf 81 9f 0c 20 2c 7a dc bf
       -0.5064203739281379 -0.4449568093282253
000100 c3 74 06 80 51 7a d6 bf 50 52 1c 40 c7 33 df bf
       -0.35121572020018393 -0.4875352979736691
000110 62 fa f3 ff 8b 44 d9 3f 66 6f 2e 00 c9 d8 d0 3f
       0.39480876918233865 0.2632315160533295
000120 fe 81 f2 7f 61 72 cd 3f 35 d2 e6 df 52 9d dd bf
       0.230053126787439 -0.4627272783793928
000130 ba 4b 0a 80 7a 91 e0 bf 19 68 fd bf e8 28 e2 bf
       -0.5177586079392917 -0.5674937963297025
000140 8d 9d d4 ff d3 5b a4 3f b4 2f fd bf 94 83 d8 bf
       0.039763092974960924 -0.3830310702221553
000150 6e fb 1b 00 08 71 d2 bf 6c 29 02 c0 bd 5e d0 3f
       -0.28814888010668127 0.2557825446207491
000160 f0 cf f6 9f 4b 6a d4 bf f2 e7 dd df 03 39 d2 bf
       -0.31898775693411974 -0.2847299276542109
000170 bf 1d fc ff c3 83 e0 3f cf bd 11 c0 6d fe e1 3f
       0.5160846709922494 0.5623081923821988
000180 30 f5 e2 00 4a b8 b5 3f 5c b1 40 40 c4 fe d2 3f
       0.08484327813763026 0.29679971956899975
000190 8c 51 b1 03 70 94 8e bf 03 d9 8c ff f1 66 c5 3f
       -0.014931559670153381 0.16720414140736048
0001a0 6d 97 ac 01 8c ea 99 3f 08 71 73 00 91 92 bb bf
       0.025308787920173815 -0.10770517598161089
0001b0 1a 93 ff 1f 17 1f e1 bf 53 c7 02 20 ef 4f e1 bf
       -0.5350452065436884 -0.5410075783931724
0001c0 8f 88 17 40 6d 5b d8 3f 9e 55 96 7f 7b 05 c2 3f
       0.380580246534131 0.14079231004568
0001d0 9b ca 3a 00 fd b6 c0 bf 2d 9a fd 7f 6a 7d bf bf
       -0.13058435927594733 -0.12300744652530034
0001e0 c7 e5 77 00 20 c8 9f bf ee 9e 3b c0 1a b3 cc bf
       -0.031036853817544754 -0.22421583544132012
0001f0 35 4f 0f 00 f0 dd ca 3f 6c 27 15 00 8a c7 da bf
       0.20989799502296483 -0.4184288979346238

encoder.0.1.weight f8 [64]
000000 32 97 99 ba 39 d4 ee 3f e4 eb 1f 6a a2 8a ef 3f
       0.9634064335375341 0.9856731484172738
000010 a6 58 17 44 10 36 f0 3f fd 91 2a 26 bd d8 ef 3f
       1.013199106198536 0.9952073808131555
000020 51 61 02 e9 fb 06 f0 3f bc 21 01 94 c3 3e f0 3f
       1.0017050840306931 1.0153232366011329
000030 3a 86 aa 6b d6 6b ef 3f 02 47 be ad df 1b ef 3f
       0.9819137671331142 0.9721525567458402
000040 ec be d2 9d f1 2d f0 3f c1 fa 35 20 6e 46 ef 3f
       1.0112167515725856 0.9773474339597997
000050 ab e5 a5 4e 5a 26 f0 3f a5 fb 1f e8 68 0a f0 3f
       1.009363467425241 1.0025414531116692
000060 87 f7 ae 14 6b 6f f0 3f 0a 30 06 84 df c0 ee 3f
       1.027201729578765 0.9610440806004601
000070 1f 2b 52 82 4a 8f ef 3f 4e 64 f5 2f d4 76 ef 3f
       0.9862415833789305 0.9832554756823215
000080 48 ab 3a 38 4b a0 ef 3f b0 0f c3 90 59 50 ef 3f
       0.9883171175218672 0.9785583331472392
000090 09 2c 3a 52 70 2d f0 3f 69 85 b1 77 8b 40 f0 3f
       1.0110934459687562 1.0157580066227985
0000a0 ae 74 ed eb cc 2b ef 3f 6f db 9a 93 1c e0 ee 3f
       0.9740967376671017 0.9648573763760008
0000b0 50 88 9f 7a 40 f4 ef 3f 8e 12 98 b3 ca 9c ef 3f
       0.9985659022315847 0.9878896243759117
0000c0 79 58 cd 33 34 ca ee 3f dd 4e 41 e7 2d 19 f0 3f
       0.962183095146215 1.0061472924616546
0000d0 cf bf aa 3a f1 10 f0 3f 54 b1 75 57 c9 ee ef 3f
       1.0041363040618199 0.9978987415502538
0000e0 eb 5e e3 3a 80 21 f0 3f ec 24 21 b1 80 cb ee 3f
       1.0081789303130175 0.9623416385230974
0000f0 64 db 1c 76 75 85 ef 3f 42 33 40 59 bb 42 f0 3f
       0.9850413615120996 1.0162919508322408
000100 8c 4b 16 cf 7c c3 ef 3f a6 0d 53 04 8e aa ef 3f
       0.9926132244748813 0.9895696720563378
000110 d3 dd 6f 2e 9c 17 f0 3f a2 42 d3 ee cd 3b f0 3f
       1.005764180559585 1.014600689803196
000120 9f 5c 7e 44 fa c6 ef 3f b2 8b 79 5b dd 20 f0 3f
       0.993039258743824 1.0080236027940654
000130 5a 44 49 91 32 fc ef 3f a4 be 73 6c d5 16 f0 3f
       0.9995358312245444 1.0055746303950537
000140 ce 12 34 d3 7c 6a ef 3f f9 20 08 9d 62 fc ef 3f
       0.9817489743296279 0.9995587412859371
000150 95 d6 13 0f 9e 58 f0 3f 67 ca 26 3c 34 09 f0 3f
       1.0216351117100306 1.002247080771349
000160 9f d3 35 09 3d d3 ef 3f bb 36 70 32 8b 08 f1 3f
       0.9945359401595971 1.064585873627421
000170 9c cd 2e c0 8b ad ef 3f 10 3e 1a b2 67 00 f0 3f
       0.9899348023958967 1.0000988919381406
000180 13 f9 03 c6 b2 ba f0 3f a2 09 2f 34 6f 64 ef 3f
       1.0455806479436134 0.9810100573743521
000190 29 bb f9 8b 67 37 f0 3f ef 91 ec d1 f3 25 f0 3f
       1.013526484279007 1.0092657280121065
0001a0 43 ed 08 6a cb 2b f0 3f 87 80 99 56 96 d9 ef 3f
       1.0106920377719042 0.9953109446905878
0001b0 a8 98 c9 8a f7 0b f0 3f d9 02 ed 97 b5 8f ef 3f
       1.002921621454826 0.9862926451970352
0001c0 8f b0 00 18 91 1e f1 3f 8c 4a 9c dd 2f 73 ef 3f
       1.0699625909428823 0.9828109100656817
0001d0 44 e3 74 87 e8 0b f0 3f d8 40 7e 5c 1f b0 ef 3f
       1.0029073039315373 0.9902493292338717
0001e0 10 1e ff 27 31 01 ef 3f a0 f4 28 cc 1a c7 ef 3f
       0.9688955098326364 0.9930547702312147
0001f0 5c 44 66 b9 b7 21 ee 3f 6a 11 09 c0 9f 7b ef 3f
       0.9416159268458943 0.9838408232395015

encoder.0.1.bias f8 [64]
000000 0f 47 d6 74 cb 70 a8 bf 9d 26 a0 5a b0 be 91 bf
       -0.04773555566056419 -0.017328982859942433
000010 b2 cd b7 b1 41 16 92 3f 97 73 34 f9 ad 52 94 bf
       0.01766302725986941 -0.01984664758230145
000020 4a 40 20 93 ef 01 a3 3f d7 1e 30 9c 3c b7 90 3f
       0.03712414427730033 0.016323992760617436
000030 5a 7e d8 22 ba bb 7f bf 3e 8c 28 bd 5b 0f 6e bf
       -0.007747389883234835 -0.0036694328093900544
000040 99 3f f9 df 0e 5c 72 bf f7 1c 4f 26 3c a9 96 bf
       -0.004482324700418782 -0.022129955137441617
000050 cf b7 d4 b5 70 27 68 3f 65 4d 45 30 7b 4d 98 3f
       0.002948494088420773 0.023733067342005216
000060 0b 72 9c 7e 05 a6 7f 3f 9f 76 f5 4a c8 f9 92 bf
       0.0077266897804091446 -0.01853096921455821
000070 74 41 c6 d7 f9 0d 94 bf 02 59 07 b2 56 56 84 bf
       -0.01958456401331561 -0.009930302913670367
000080 3c 3d 42 be aa 8a 82 3f c3 88 ff b0 87 18 81 bf
       0.009053548747287914 -0.008347568596893123
000090 1c c5 b1 e1 30 aa a0 3f 92 14 43 4b 03 9d 90 3f
       0.03254845385607494 0.01622395655501358
0000a0 cc ad e7 d1 47 9e 8a bf ff 31 d2 99 42 ed a7 bf
       -0.012997208684246163 -0.04673202636431383
0000b0 55 fd a0 58 e1 2d 90 3f 81 e8 89 a5 78 0d 86 bf
       0.015800019297100693 -0.010767881919708568
0000c0 94 81 0e 58 6e 06 90 bf 82 e3 5c ad 66 6f 95 bf
       -0.015649532436897554 -0.02093277390597193
0000d0 9c 0e b5 64 ac 25 9e 3f 9c 1a 72 5f 41 19 60 bf
       0.02944058766048717 -0.0019651676953487806
0000e0 8c 3a 79 a9 95 9f 6e 3f aa c5 6a f7 a3 0b 9a bf
       0.003738205250363896 -0.02543502996076589
0000f0 7d e0 c9 45 a9 fb 95 3f 51 6f 1c 2d 51 8c 92 3f
       0.021467823872143733 0.018113392237054275
000100 15 8b 4a 58 20 cb 78 3f f1 b9 90 51 1c 40 94 3f
       0.006053091380325855 0.01977581260524092
000110 51 63 e4 7f 40 19 77 3f 82 d7 9c 5a c9 07 98 3f
       0.005639316512564844 0.023467203288610523
000120 23 6c 68 bb 87 dd 64 3f 85 2f 2d 64 3f c9 a3 3f
       0.002547040082629974 0.0386447725091719
000130 3a 0b 94 06 79 ac 86 bf 03 b2 ee 41 03 54 8a bf
       -0.011071153176549598 -0.012855554055783541
000140 c4 9d 40 ef 31 4d 7f 3f 09 c8 73 ca 39 c7 8c 3f
       0.007641978318168655 0.014051867953160284
000150 2d 5e 1d af b8 7c 80 3f dd 05 df 19 43 fe 86 bf
       0.008050387233807655 -0.011227153994584899
000160 15 b7 31 78 e0 3e 95 bf 3d e5 9b 74 f2 28 a6 3f
       -0.0207476685867994 0.0432811515183382
000170 f0 e4 9a 6a a3 e0 a4 3f c5 2a 49 b0 8d 1e 82 3f
       0.040776354564011075 0.008847338621440834
000180 f5 ae cd 0a e6 6a 6d 3f fc ee c3 66 4d 27 8e bf
       0.003591012288259305 -0.014723400782251421
000190 d5 a8 52 18 85 af 96 3f ca a9 f8 4d c3 83 92 3f
       0.022153930291701613 0.01808076060675904
0001a0 56 e1 f7 63 a0 fa 70 3f 77 b3 9f ac b6 00 90 bf
       0.004145266080279283 -0.01562772205936677
0001b0 cc a5 96 a0 c6 01 95 3f d0 f8 f3 13 a9 5a 67 3f
       0.02051458697466106 0.002850847463945795
0001c0 cc 5b be d2 95 81 87 3f c2 8d 2d 3e 1a a1 91 bf
       0.011477632993587415 -0.017216119809189363
0001d0 cc 2a 75 62 6e 81 7e bf 80 14 7c 9a 8d 4d 95 bf
       -0.007447653951497112 -0.02080365424537378
0001e0 b3 40 f5 7c a8 40 80 bf 31 a0 61 ac 69 fa 91 3f
       -0.007935825646797267 0.017556811472246806
0001f0 0b 9d 6d fa d5 ae a1 bf 89 c9 f9 b0 90 0b 91 3f
       -0.03453701669678296 0.016645680238477154

encoder.0.1.running_mean f8 [64]
000000 63 2b 98 76 3d 37 dc 3f 85 77 7e e7 09 e6 d4 3f
       0.44087158757672834 0.32654044730031045
000010 6c 8f 98 78 86 2b d1 bf 23 a4 1c 18 a0 26 c0 bf
       -0.2682815721220695 -0.12617875268304699
000020 e8 43 49 46 52 e3 d5 3f 15 a8 28 04 0e a2 db bf
       0.341999596251354 -0.43176603704580546
000030 15 91 a4 2c 88 26 a0 3f 61 01 d5 e1 b1 ee d7 3f
       0.03154397530514267 0.37394377759848935
000040 70 22 bb fc 3d f3 ab 3f 6e 75 e2 27 21 fc db 3f
       0.05459016523451943 0.43726376433354275
000050 3d 23 29 33 b7 64 d1 bf 1c 9a 0c 45 89 83 c9 3f
       -0.2717721938720848 0.19932666656059517
000060 44 d3 9b 67 8b 14 d3 bf 64 9f 5f a1 b9 8e a7 3f
       -0.2981289398006093 0.04601078123943017
000070 73 48 06 5a 94 77 e6 bf a6 0f 5b 25 ef 50 c4 3f
       -0.7020971067706924 0.1587199146653095
000080 65 f6 11 2c 14 44 a5 3f d5 41 9c 94 6c 2d ec bf
       0.041535025005015304 -0.8805449392839885
000090 af b8 e4 a6 5d 77 d4 3f aa 15 c6 6a e6 72 e3 3f
       0.3197855119532375 0.6077758870530279
0000a0 75 b3 19 a7 e2 53 d4 3f 94 99 71 39 8b 34 ab bf
       0.3176199561919966 -0.053135252725769494
0000b0 fe d5 48 ff 35 2b cb 3f cf 5f 2d 86 3f 23 8e 3f
       0.2122561928278372 0.01471566799379778
0000c0 b1 cd 11 e1 13 46 e5 bf e5 33 40 c3 df 53 d0 bf
       -0.6648044010057018 -0.2551192671533598
0000d0 88 86 92 ac 69 70 e4 3f 71 a2 45 07 e4 a9 de bf
       0.6387222643426904 -0.47911930761487215
0000e0 12 48 9e c6 b9 51 eb bf 99 a2 a7 ba 5e 35 d0 bf
       -0.8537262801421568 -0.25325744846353754
0000f0 72 5b 28 dc 89 29 e3 bf 54 e9 37 bc b1 e4 c1 bf
       -0.598820619578744 -0.13979169550277482
000100 e8 ad d5 ed 75 8a e0 bf 6c 09 d7 ea 6a 39 e6 bf
       -0.5169019360741318 -0.6945089899748331
000110 8d c2 25 39 8e cd e1 3f 7e 47 24 0e d0 7f d5 3f
       0.5563422313844782 0.33592606907870237
000120 2d 73 d3 2b 6e 8b 7d bf f4 a0 71 42 fb d7 e3 bf
       -0.00721304927466519 -0.6201149270755466
000130 64 7b 8c 96 f8 d3 e3 bf a1 67 7f 42 d2 6e e7 bf
       -0.6196253719716478 -0.7322779940397944
000140 c3 0e ef 32 b9 70 d4 bf 2f a0 c6 a2 3d 60 e5 bf
       -0.31938009237294923 -0.6679981402603569
000150 e7 ae 53 f5 50 6e d4 bf bf 01 b5 94 55 fa da 3f
       -0.31923316915229666 0.42152919313596365
000160 38 f9 a6 10 8f 15 c2 bf e7 a1 02 90 ff 68 c0 bf
       -0.1412829238233344 -0.12820429355384919
000170 e3 3a 23 03 48 39 ee 3f 11 da fa 6f c7 7d df 3f
       0.9444923459321583 0.4920519441178906
000180 b3 e4 06 78 4d f5 b7 3f 49 f3 52 68 05 84 d1 3f
       0.09358677082390691 0.2736829298772148
000190 e0 23 1a 5e 2f 4f c4 bf 8f 66 72 34 c0 9f c5 3f
       -0.15866653532819353 0.1689377075279492
0001a0 74 04 af 95 8d 26 d1 3f fe 52 7b 0d af 7d aa 3f
       0.2679780923609265 0.05174014129230463
0001b0 66 ac 83 f8 ed 6d e6 bf 16 b3 ec ac f4 dd e7 bf
       -0.7009191373630415 -0.7458442094262832
0001c0 58 1c df 18 6c 6a e1 3f 0a 7c c1 af 92 72 c6 3f
       0.5442409978649136 0.175371490305196
0001d0 dd 8c 02 13 88 00 c2 3f 33 cb 4e 67 64 da a6 bf
       0.14064122131558224 -0.044634950266660665
0001e0 53 0c c6 4a 57 96 b8 bf 60 e3 06 60 87 75 ca bf
       -0.09604402137306182 -0.20671169461072747
0001f0 ae 51 7c d4 93 55 d0 3f bd a0 5c 93 08 55 df bf
       0.25522323370503386 -0.48956503287127956

encoder.0.1.running_var f8 [64]
000000 4e 75 fd ee 38 9d 92 3f d8 98 47 83 8b d1 a1 3f
       0.018177880846783005 0.034801826262808866
000010 9e cd b6 12 fe f5 6a 3f 5d 4c 51 48 ed a2 a4 3f
       0.0032911264767904866 0.04030553348334174
000020 0d 81 86 af 10 5b 93 3f d7 14 76 cb d0 1b 8f 3f
       0.01890207358667433 0.015189772805351982
000030 18 ab 1f 22 bf 58 80 3f d2 25 bd 80 4e 91 8f 3f
       0.00798177073371202 0.015413869193838279
000040 76 e3 01 55 b7 92 7c 3f 71 c6 ae 76 03 3f 8d 3f
       0.006975856915340075 0.014280345019730608
000050 f1 9a 5d ac 8a 34 a3 3f d7 08 e0 26 19 c0 96 3f
       0.03751023630211659 0.022217171666860516
000060 38 b6 d2 d1 41 98 90 3f 5d ae 63 da 64 04 6b 3f
       0.016205814773164046 0.003297993639639603
000070 83 1a 47 8e 7a f5 b4 3f c8 d3 ba 27 9e ac a2 3f
       0.08187070821359481 0.03647321925146901
000080 84 ed a0 87 19 1e ae 3f 11 61 71 b4 3c 67 b6 3f
       0.05882339268324713 0.08751277356475763
000090 93 d3 44 92 1b 79 8f 3f dd 36 38 ce 25 c7 9c 3f
       0.015367713357230339 0.02810343810238335
0000a0 b1 c7 fc 12 b4 36 65 3f 6f c6 c1 d6 ee 04 8c 3f
       0.0025895611833215084 0.013681283882962718
0000b0 e2 bf ef a8 10 58 5f 3f 6d 8a 9e c5 81 33 a2 3f
       0.0019130861944596169 0.03554921662659614
0000c0 5e 18 fc 90 ba 46 a5 3f 0d 4c 7d d1 ff fc a1 3f
       0.04155524272759757 0.035133356401864636
0000d0 9d d0 d2 ce f1 79 90 3f a3 30 09 99 c0 0b 77 3f
       0.016090181587700248 0.005626442275183194
0000e0 e1 2b ff ee 4c bb b7 3f 80 a3 ae 70 91 52 87 3f
       0.09270172915346066 0.011387954951560308
0000f0 52 90 b5 11 dd f9 8a 3f 08 8e 52 70 9a 86 b2 3f
       0.01317188940328876 0.07236638300178566
000100 85 b5 e7 87 50 3f a0 3f f8 d9 da 1a d8 06 a6 3f
       0.031733051862697294 0.04302096679514372
000110 c5 61 b8 ef 52 d4 99 3f ad d8 cb 81 1e 1f 84 3f
       0.025224014169084947 0.009824980102603876
000120 58 24 ee 52 1c 32 a7 3f 96 82 7c dc 88 62 99 3f
       0.045304188845940174 0.024789942223949334
000130 32 42 99 fb a9 98 8e 3f 34 88 21 de 92 e7 a3 3f
       0.014939620962793308 0.03887614213523741
000140 94 04 c1 c7 e3 b0 b9 3f f6 00 03 0d 08 40 b2 3f
       0.10035537363821084 0.07128954236668847
000150 de 70 dd 22 4f 5d 8e 3f 6f fa 5f 8b e2 73 9a 3f
       0.01482641053342387 0.02583269096066448
000160 49 7e 3e f2 17 f4 a8 3f 41 30 5c bb 8e 83 9f 3f
       0.04873728591996646 0.03077528971248023
000170 54 de 16 32 9c 75 c2 3f 4d 98 cf c7 20 b6 6f 3f
       0.1442141766144568 0.003871025108753512
000180 31 36 53 fa 11 c2 92 3f 6e a9 26 70 61 e0 65 3f
       0.01831844416010692 0.0026704695785230636
000190 09 92 4d 38 60 fb 93 3f d0 17 57 9f f6 d9 7d 3f
       0.019513610302412974 0.007287944191778764
0001a0 0c 53 bf 4d 3b 3a a9 3f bf 68 3c 56 08 be 98 3f
       0.04927239727081742 0.024162416709352593
0001b0 98 db 6e ab 1b 9f 9c 3f cf aa 81 13 bd a7 a5 3f
       0.027950699175302768 0.042295368796506964
0001c0 e5 a5 cf 68 3f d6 99 3f 1e b4 50 20 16 bb 7f 3f
       0.025231352588809392 0.00774677889880329
0001d0 43 0d 38 47 05 e6 ae 3f ab ab 41 2c 04 43 8e 3f
       0.0603486680447767 0.014776260948755246
0001e0 31 ff 9e 71 cf 0e 8f 3f 62 bd c8 54 12 3a 7d 3f
       0.015164967207851628 0.007135459524348549
0001f0 db 3e 66 4d b5 7a 94 3f 18 44 71 b7 3e 10 97 3f
       0.01999934468182017 0.02252290720599967

encoder.1.0.weight f8 [64, 64, 3]
000000 ca ea 03 58 db 7f b3 3f 91 ce e1 bd 90 8a 9d bf
       0.07616969012080257 -0.02884889754245862
000010 5c f2 24 df a4 cc 94 bf bc 26 8b 98 d4 72 b0 3f
       -0.020311905021332385 0.0642521736546326
000020 af d4 ea 8e a8 c4 b2 3f 7f 5f 30 0b 5a 7f 99 3f
       0.07331326951210103 0.024899870808524845
000030 b3 82 a9 a3 36 ee b0 3f 52 49 93 e5 65 44 a6 3f
       0.06613484855325673 0.04349058558877296
000040 3c 32 b6 2b 13 06 61 bf 9b 6b 32 20 40 50 9f 3f
       -0.00207809204375156 0.030579568829675812
000050 20 6c ab e8 ee e9 b0 bf d3 82 d7 93 9b ad a8 bf
       -0.0660695379296361 -0.04819952182493172
000060 eb 6c 1f b3 d1 f6 63 bf bb a8 e4 28 9b e7 7d 3f
       -0.0024370284745437363 0.00730095490716048
000070 90 65 00 07 b5 41 91 3f 86 bc 69 ad 7d 79 b1 3f
       0.016852215339985543 0.06826005443302749
000080 3f 8d 10 14 53 58 a3 bf 35 56 bf 9e 27 dd 55 bf
       -0.037783237647341476 -0.0013344656863315655
000090 a1 6f c8 4c 3c 19 ae 3f fc fb b9 ae 90 e2 a2 bf
       0.058786281941336734 -0.0368848050393282
0000a0 c2 44 80 80 e3 53 ab 3f 53 27 7a 9e f9 63 6e bf
       0.05337439483276675 -0.0037097812053773853
0000b0 40 41 9e 30 ee 85 a0 bf 38 68 90 15 53 4d a3 bf
       -0.03227180808528596 -0.037699314482054935
0000c0 39 16 b1 1f 08 77 a5 3f a5 9e 64 aa 3a f5 ac 3f
       0.041923765057202585 0.05655845003121599
0000d0 b8 d1 88 45 03 c4 9d bf 02 51 b5 57 77 b4 7c bf
       -0.029068041914983772 -0.007008043462821913
0000e0 e4 1d 0f 1c 77 16 90 3f b4 3d 61 56 7f 91 9e bf
       0.015710698211277477 -0.029851903578956132
0000f0 4e c7 46 d7 59 ba b1 3f fb b1 6c e5 56 1f a7 bf
       0.0692497397019711 -0.04516097593873166
000100 ff b6 b3 02 6e 0d 92 3f f3 c9 f3 ea d0 f6 b1 3f
       0.01762935534946219 0.07017236457958358
000110 2a 09 f8 fa 26 f4 9f 3f 13 a9 3c 5c 91 82 af 3f
       0.031204804485249905 0.0615430283636035
000120 f6 d1 05 b6 e6 42 ae bf 15 1b 72 a0 d3 2c 9b bf
       -0.059104165763446945 -0.0265381876638698
000130 a5 cd 4a 9c 62 85 7d 3f f3 eb b7 92 e7 2c 92 bf
       0.007207284161882131 -0.01774942238806072
000140 53 17 96 e2 72 a2 70 bf 2a df 77 ac 1c 18 92 3f
       -0.004061173219616371 0.01767010500586178
000150 a1 a8 53 3e 5e 06 a3 3f 5d 47 80 a6 01 b8 70 3f
       0.03715796004128547 0.00408173222241878
000160 2f 37 88 e2 4e be a2 bf 44 5e 0b 5e 8d f2 a5 bf
       -0.03660818591389014 -0.04286615155222909
000170 22 0e 61 64 e3 73 7a 3f 25 93 ad fe 1a 38 ab bf
       0.006458175897992942 -0.0531624256025565
000180 4d d5 30 b7 ed bb a2 bf cc fb 82 aa ad cb a6 3f
       -0.0365900312539603 0.04452269274178597
000190 4c ab 14 d5 b6 93 9d 3f b8 81 e8 53 b6 d9 a6 bf
       0.028883797412315546 -0.044629762404159334
0001a0 ba 65 3e 2e 15 0c 65 bf f7 84 f8 0f 04 14 6f 3f
       -0.0025692380604140615 0.0037937239974473696
0001b0 ae d4 c0 bf f8 75 73 3f 9e 0e e5 9c d0 d6 94 3f
       0.004751178432390519 0.020350703788848727
0001c0 39 a9 e4 08 de 9d 58 bf fc 43 48 34 44 af b9 3f
       -0.001502482252883809 0.10033060337470084
0001d0 b1 e4 b8 0e 6c 92 a4 3f 21 15 ed e8 3b 31 88 bf
       0.04017961196627463 -0.01181265644630486
0001e0 af 92 4e f9 ec 79 86 3f c8 22 fb 57 22 bf a2 bf
       0.010974742277377684 -0.0366144878767663
0001f0 df 19 66 6f ac 82 a8 bf 32 a7 b7 32 e6 46 78 3f
       -0.04787196025704409 0.005926989756952316
000200 48 db 69 ad ff 56 97 3f 30 f5 4f 70 8a 5c a0 3f
       0.022792811354942516 0.03195603009224113
000210 c7 06 64 c9 7c 1e 82 bf e1 9f 4a b5 32 78 92 3f
       -0.008847212692220009 0.01803664428248897
000220 54 ba 41 64 2e 99 b4 bf bf d7 fb ca ae f3 9a bf
       -0.08046235988306566 -0.026320201052804523
000230 51 3e 94 71 aa 1d 94 bf 3a 2b a0 be a8 3a a7 3f
       -0.019644416029278414 0.04536940886472114
000240 50 4f 2c bf fc 34 9d 3f e2 ec 62 d9 4e cc a8 3f
       0.02852244297817147 0.048433746372632105
000250 6b 5a dc 8e c5 08 aa 3f ea 1a db 32 d7 ab 8f 3f
       0.05084817284494111 0.015464478721140169
000260 b2 45 83 4a 6e 1a 8e bf 8c d7 a0 79 c4 1e a8 3f
       -0.014698850296926167 0.047109737250521894
000270 5f b6 19 6b 19 4b 72 3f e4 08 ce 8a 94 ec 74 3f
       0.00446615151450444 0.005108433001512067
000280 a4 36 58 36 fa 81 a1 3f 21 84 a0 60 16 50 b2 3f
       0.03419477380167038 0.07153453692491542
000290 28 88 6f f4 ea f3 9a bf 37 6a 4d 06 25 07 7c 3f
       -0.026321097535294907 0.006842751147667906
0002a0 d9 5b 55 1a 1f e2 a5 bf c1 d0 7a 63 18 61 a3 bf
       -0.042740795101671565 -0.037850153106235414
0002b0 22 d3 e4 dc 4c cc 91 bf be 3f b1 19 2d 9f a1 3f
       -0.017380906088152355 0.03441754282596275
0002c0 5c 9d 2a 91 30 bc a9 bf 0a 9d 8a 94 08 fc a4 bf
       -0.05026389858295019 -0.040985363132955824
0002d0 28 71 ef cf 4a 35 7b bf c0 63 46 0e 4e a5 b1 3f
       -0.0066426203111087725 0.068928602681253
0002e0 1f b6 33 bc 25 db a7 3f a6 15 47 00 09 3c ad 3f
       0.046593836997868225 0.057098656925102007
0002f0 f2 99 a5 ed 8f b7 66 bf 3e 97 19 a2 47 eb a0 3f
       -0.00277307616231614 0.033045042550652756
000300 03 ce 36 5b d8 0c b2 bf 55 6e b0 09 31 c7 80 3f
       -0.07050850130945467 0.008192427738371292
000310 d0 b6 7f 34 2b c7 aa bf 8e 5a cb 9b 36 f6 b0 3f
       -0.05230078712325581 0.06625691703389178
000320 2d 9f 55 e9 d3 f5 a1 3f 81 bd ca 91 81 a2 a5 bf
       0.03507864211388632 -0.04225544838606777
000330 76 fe a7 2b 35 96 a6 bf 48 60 3b f6 f2 fa a1 3f
       -0.04411474378502771 0.035117714460000615
000340 50 14 d4 0d 79 e2 ba 3f 42 82 2d c8 3f ef a0 3f
       0.10501820170982623 0.033075326143038555
000350 9f a6 ec 7e 69 37 b2 3f 9a c6 ba 95 b5 7b ad bf
       0.07115802143803272 -0.05758445217851467
000360 eb 46 9f 88 1f eb a1 bf 01 8f 25 ad d3 0d ad 3f
       -0.03499697249175234 0.05674611557586041
000370 b2 2e 72 25 d6 6a 9c bf 89 3f 9b ad b2 5f a8 bf
       -0.02775129893829726 -0.047605117504303136
000380 76 97 20 79 9d 94 a6 3f 1b a0 39 15 10 8b 8a bf
       0.04410259345631477 -0.012960553786982179
000390 9e fe 00 a2 6c dd 87 3f c7 35 85 b0 ab 05 84 3f
       0.011652802175489637 0.009776440929864528
0003a0 fa 83 f9 bb ac c3 8d bf eb c9 b0 56 87 fc 97 bf
       -0.014533376204044036 -0.023424257913754614
0003b0 e5 7c 4b 5e b0 dd aa bf d8 b7 bc f7 98 49 9c 3f
       -0.052472602377514645 0.027624502297093873
0003c0 20 36 5f 0a 50 ca 9d bf 65 80 b0 2c de 29 b1 3f
       -0.02909207404427694 0.06704510298777817
0003d0 cf 75 94 62 35 87 ae bf b5 04 fd 1e 6b 39 b0 3f
       -0.059625309261018715 0.06337613588859166
0003e0 6c f8 8c 83 08 68 a1 bf a0 a0 20 78 7b 9a 99 3f
       -0.033996835764342176 0.025003365714071024
0003f0 a3 bb 7b 10 c8 b6 76 bf 0c ec 31 86 d9 ef ac 3f
       -0.005545407773509678 0.05651740801928193
000400 95 d0 60 07 54 60 b4 3f 16 74 17 60 55 eb a8 3f
       0.07959485225802816 0.048670452098783
000410 1f 20 43 c1 c1 7e 5c bf 26 99 ec 7b 0e b5 9e 3f
       -0.0017392055643075178 0.029987551034673342
000420 34 ee 8b 6c 07 1c a0 bf 56 be 3d c4 8a 5f b4 3f
       -0.03146384429961949 0.07958285609287805
000430 7b f2 be 0b 7d 1b 96 bf 9b d3 a8 de 2e 70 bc 3f
       -0.02158923515502174 0.11108677803060944
000440 bd a5 d1 74 f7 08 9d bf 10 e3 4c c7 93 ad 94 3f
       -0.02835451746469685 0.020193394698455214
000450 97 0b 15 3a 99 13 6a bf de 1f 87 67 24 49 b0 bf
       -0.003183173438317376 -0.06361606147322571
000460 6f ec 1a 3f 3b 70 7e bf 07 40 e2 74 83 a5 32 bf
       -0.007431250983866196 -0.00028452357663244537
000470 16 2e e8 f4 ce 44 90 bf b3 17 e0 2b 0a b4 b4 bf
       -0.01588748330872932 -0.08087218829322644
000480 40 d9 b6 2d 9a 1b a1 3f 58 62 cd d4 37 59 6e 3f
       0.03341371353183087 0.003704651875903669
000490 96 d6 d4 7c 6a d7 ab 3f 15 44 c1 e5 d3 59 ae bf
       0.05437786840267937 -0.05927908115030093
0004a0 82 60 7e 99 cf c5 b5 3f dc 6a 35 4d d4 89 b0 bf
       0.08504960534480868 -0.0646031082627973
0004b0 4c 83 e0 d7 f3 10 a7 3f fa 30 77 d7 4b 80 91 bf
       0.04505121240823104 -0.017090973878837602
0004c0 fa 95 ef b8 cf c1 a3 bf 59 93 14 a7 59 28 b5 bf
       -0.03858803875463575 -0.08264694527731588
0004d0 e8 3a e7 68 57 15 9e 3f 32 fe e9 45 72 dd aa 3f
       0.029378286149774363 0.05247075179522333
0004e0 b5 aa 71 ba e5 15 a8 3f 35 75 f1 f3 ee f1 9d 3f
       0.04704206372192258 0.02924321521674252
0004f0 fa 4b dc ed 6b eb b1 3f 03 7f d8 47 ab b5 b5 3f
       0.06999849850789977 0.08480329994244688
000500 26 bd 44 76 7f 33 9c bf 9d 20 e6 a6 ac 49 98 bf
       -0.02754019889215189 -0.02371854561491259
000510 97 0b ed 10 54 35 9a bf 19 22 6e c8 ca eb b5 3f
       -0.025594056637838838 0.08562915223422642
000520 9b ac 34 49 e9 6d a0 bf cd 80 41 2a 14 d0 ad bf
       -0.03208855646729455 -0.058228140028178645
000530 55 61 bd 79 b0 a1 66 3f c4 53 91 ff 71 ca 82 bf
       0.002762646368790348 -0.009175196277434135
000540 55 69 54 e7 76 4b ba 3f 02 46 9f 2c b0 7c a1 3f
       0.10271399638842145 0.03415442032531858
000550 61 7d 5e 38 0f 14 b7 3f 25 17 bb 23 7f d2 b1 3f
       0.09014983297537561 0.06961817381224174
000560 67 4d b4 88 b0 67 9d bf c0 6f ed f7 2f 62 a2 bf
       -0.028715856879967385 -0.03590536023577284
000570 75 f2 5c 66 a3 24 b1 3f 0f 2e 18 aa 26 d3 93 3f
       0.06696530579660893 0.019360164767972473
000580 de eb 07 c9 d9 71 ae 3f e1 8f a1 5b 79 cc a3 bf
       0.05946236208907128 -0.0386693882326481
000590 00 77 16 b3 de 1a 98 3f 9c 2b 56 3a c6 00 81 bf
       0.023540000610970502 -0.008302258162776792
0005a0 f6 bf 17 45 df 03 95 3f ae 2c da eb d1 57 af 3f
       0.020522583572471796 0.0612168884664127
0005b0 c3 c6 44 bd 69 2d 72 bf 2b 85 4e 8d 40 26 a4 bf
       -0.004437840503941084 -0.03935434079108754
0005c0 58 5d 78 06 3d d9 a4 3f 2c a1 80 ca 90 2f a3 bf
       0.040719897308174324 -0.03747227165178155
0005d0 33 0b 39 f2 5b 65 a5 bf fe 4f 44 bf e2 40 93 bf
       -0.041788934057441905 -0.0188022069206255
0005e0 8b 21 3a 80 06 cb 9c bf 9b 91 65 94 e4 27 a8 bf
       -0.0281182304156871 -0.047179358591878905
0005f0 25 66 86 70 a5 ff b0 3f ec 3c a2 30 d9 de a0 3f
       0.06640085217659271 0.03295019835160837
000600 c3 db 68 28 2a 6f 96 3f c4 38 e6 ce 43 71 a2 3f
       0.021908434597403003 0.03602039242388025
000610 a3 44 a2 f2 9e 07 af 3f 70 09 96 2e af 64 9f bf
       0.06060501777495488 -0.03065751764143826
000620 c2 95 20 7b 5c f8 54 bf b5 4e 7d 54 1d 5c ad bf
       -0.001279917062228506 -0.05734340340009451
000630 de b7 ee 5d 17 8e 93 bf 98 28 f7 7e ab 3e 97 bf
       -0.019096722706016915 -0.022700004219395525
000640 8e 17 d8 33 88 f0 aa 3f 1a 53 d5 be 98 f6 9d bf
       0.05261636383879341 -0.02926100411180519
000650 e1 9b 13 8c 87 2c 93 bf 3c 87 25 7d 8a 18 a1 bf
       -0.018724553989979745 -0.03339035775822061
000660 67 bc fd 66 eb 0f a2 3f 7e 90 17 df c1 dc a9 3f
       0.035277706453478434 0.05051236961642845
000670 bc db d7 6b 0c b3 aa bf b2 21 fa 85 4d e2 8c 3f
       -0.052147281803562845 0.014103513384967712
000680 42 a6 65 ca 82 45 a4 bf dd f6 0f 4f 36 b0 a4 bf
       -0.039592826086686475 -0.04040689196697909
000690 94 46 62 f7 d1 e7 96 bf f9 e4 e7 a0 95 a5 b0 3f
       -0.02236869881068644 0.06502661875119377
0006a0 f5 28 24 bb 5f 3b 98 3f 9a 3d b9 58 34 27 83 3f
       0.02366399364203971 0.00935212035906723
0006b0 63 97 e2 84 e2 3e 6f bf 08 b9 e0 a1 e6 d9 b5 3f
       -0.0038141655159788387 0.08535615398497864
0006c0 19 17 1d b5 11 f7 99 3f 15 d4 35 2d d3 d2 97 bf
       0.025356556586550647 -0.023265170702377064
0006d0 92 8c 01 67 8d b6 b4 3f 8b 77 bc 68 be 3c 89 bf
       0.08091052784725353 -0.012322890826506746
0006e0 61 86 62 19 46 be 81 bf b0 08 68 50 3b 9e b2 3f
       -0.008663699769672907 0.07272692406698655
0006f0 85 0f d4 43 5f a5 90 bf 66 9a 16 36 b5 ee a7 3f
       -0.016255844607271825 0.04674307141549576
000700 30 ae 6a 8b 1f b2 9b 3f a7 63 9e 5f f8 7b 7a 3f
       0.027046673664399445 0.0064658834543473214
000710 f5 33 8a f9 70 3b b1 bf 41 ab 66 5d 9a 27 b1 bf
       -0.06731325237542747 -0.06701054363535965
000720 67 45 c5 d1 c6 a9 8a 3f a1 b4 9c 45 93 71 a5 3f
       0.013019135739031197 0.041882135627340895
000730 50 17 6d ce 7c 4c 83 bf cf d8 6b f2 e1 a5 83 3f
       -0.00942323212587906 0.009593739710436115
000740 b2 a3 ea 15 42 c9 a9 bf ec 63 8d 68 85 f0 99 3f
       -0.05036360280548226 0.025331577783933953
000750 29 fe d2 eb 24 c1 a3 bf 99 64 e0 c7 d7 ca a8 3f
       -0.03858294848168626 0.048422568463317
000760 4f e1 57 0c 5f 43 a2 bf 46 80 07 a5 36 4b a2 bf
       -0.03567025209116769 -0.03573008312719188
000770 f6 ca 22 33 4e 0b ac 3f 4d 14 9c 65 8e 60 a6 3f
       0.054773753873993344 0.043705415633703205
000780 5f f5 d1 61 16 8e 8a 3f 8c 21 86 02 8a 22 91 3f
       0.012966322765573577 0.01673331871418919
000790 c2 ed 38 8d 33 f4 a5 bf 86 f9 c0 6e 20 5e 99 3f
       -0.042878733624515344 0.02477312732684702
0007a0 c6 0a 01 25 cc d5 a6 3f f5 30 fc ec 5f ab 99 3f
       0.04459989501676413 0.025067805137084915
0007b0 df a3 fc aa 2e 9d 90 bf 48 de 58 b7 87 ed 93 bf
       -0.01622460287686411 -0.01946079308092255
0007c0 67 01 b7 58 b2 86 a9 3f 60 80 de b3 d3 28 8b 3f
       0.04985577900834209 0.01326146500269959
0007d0 36 3d 33 12 4e a7 86 3f c8 d1 17 66 d4 0d af 3f
       0.011061296396660408 0.0606523871064471
0007e0 b3 27 be 34 92 6c a8 bf 00 50 b5 0d 41 7d a2 bf
       -0.047703331888512855 -0.03611186306321201
0007f0 6e 7d 6e d5 3b ad b2 bf c0 5d 4d 7b 04 d8 97 bf
       -0.07295583687527138 -0.023284978891153107

encoder.1.0.bias f8 [64]
000000 72 12 01 40 b7 6b a5 bf 79 e3 31 c0 2f 3c 9f bf
       -0.04183743149090881 -0.030503030877727853
000010 dc 53 06 40 70 89 a1 3f c3 37 34 00 e9 24 8a bf
       0.03425169736434672 -0.012765713041996812
000020 20 1e ff bf 6a 85 96 bf 34 5e e5 ff 7f 9f 72 3f
       -0.02199332043508495 0.004546642301952942
000030 9b c5 0b 00 bd d7 b0 3f 20 73 e7 9f b0 4b a7 bf
       0.06579190493700653 -0.045499343413871296
000040 46 22 ef 1f b7 47 a1 bf 35 69 f1 7f 48 83 89 bf
       -0.033750269554336174 -0.012457434086333133
000050 79 75 01 00 fb 2c 94 3f 21 bd f9 9f 61 a7 aa bf
       0.019702836871478866 -0.05205826833559458
000060 76 a2 00 80 37 45 ae 3f 81 f9 07 ff b1 6d 70 3f
       0.059121832251837356 0.004010863588062797
000070 27 bc 76 00 36 63 80 3f f2 da 6c 7f 15 99 84 bf
       0.008001729859499275 -0.010057609511574726
000080 50 ea 58 03 40 93 46 3f 94 b5 ad ff f7 d1 7d bf
       0.0006889402927251018 -0.0072803199244452395
000090 a0 0d 62 00 e6 3f 93 3f 29 8b f5 7f a1 81 af 3f
       0.01879844071710368 0.06153587996484184
0000a0 28 43 ff ff 65 c2 ab 3f 90 41 fb bf 21 30 b0 3f
       0.05421751737561059 0.06323443352744662
0000b0 59 bc f9 ff fe 57 a6 bf ed 25 fc 7f fc 9b b1 bf
       -0.043640106913578953 -0.06878641247399005
0000c0 cc f2 fd 5f 91 1e b2 bf 41 d4 0a a0 b4 66 a5 bf
       -0.07077892869524333 -0.04179920629159329
0000d0 97 81 15 80 0f 1f ad 3f 4c dd f5 ff cd 56 ae 3f
       0.05687759817624565 0.05925601720349025
0000e0 6b d6 d0 7f 21 34 96 3f d6 f6 17 00 8b f1 88 bf
       0.021683238435989 -0.0121794566539352
0000f0 37 7c 14 00 93 fc 8a 3f 2a 35 e9 9f 14 ff a0 bf
       0.013177059593145397 -0.033196110268003245
000100 1d 41 ff 7f 8a 00 97 3f 33 1d 11 20 88 c5 a8 bf
       0.022463001310655806 -0.04838204757157385
000110 f7 62 0d 00 36 2b 92 3f 78 7b f1 ff 34 a8 9b 3f
       0.0177429616481701 0.02700884639886733
000120 4a 2b d6 7f 9c e4 a3 bf f4 4e 0a 40 d6 c7 aa 3f
       -0.03885354099755618 0.052305884663978036
000130 09 f1 eb 3f a3 00 95 bf cb 71 24 80 12 a8 ac 3f
       -0.02051024511000413 0.055969789640787214
000140 72 46 d3 ff 05 60 7e bf 78 40 01 c0 ad 0a ac bf
       -0.007415793833574479 -0.05476897209939663
000150 f6 2c 0f 00 72 dd 98 3f 4f f4 47 00 58 f0 60 3f
       0.024282246831529762 0.0020677298327869474
000160 36 2f ea 3f 2b ff 9d bf 41 6d f5 3f 60 06 b2 bf
       -0.02929370477299572 -0.07040978967181834
000170 0a 05 14 80 06 7e 93 3f a5 2b ee ff f9 f8 73 3f
       0.01903543621756846 0.004876114427029875
000180 4f 2a 13 80 1a df a5 bf 69 eb 25 00 b2 2d 7d bf
       -0.04271776975072738 -0.0071236565730668855
000190 d7 e2 01 40 8c a3 b0 3f 9a 43 ed 7f f6 ee b0 bf
       0.06499554217033264 -0.0661462843247719
0001a0 40 e0 0e c0 89 2c a4 bf 7e d5 03 80 23 2f 95 3f
       -0.039402298636048716 0.020687632263578497
0001b0 2d f6 22 40 0d 08 ab 3f c2 a4 66 00 40 c6 23 3f
       0.05279580505292034 0.00015086680668944223
0001c0 f4 2f da 7f 5b b9 9e 3f 66 ce 14 00 98 e5 99 bf
       0.030003957441792253 -0.025289893155060382
0001d0 30 98 00 40 01 ee b0 3f e1 b7 04 00 92 ec 92 3f
       0.06613166630322165 0.018480569125294614
0001e0 23 e1 08 80 f2 2e 99 3f 27 ea fd ff 46 f3 a4 bf
       0.02459315210782721 -0.04091855883503497
0001f0 18 ad ff ff 18 7b ab bf fa e3 ea 7f 05 2d 96 bf
       -0.05367353558525617 -0.021656118328539954

encoder.1.1.weight f8 [64]
000000 cb e5 31 ce 74 94 f0 3f cb 33 8d 52 86 2b ef 3f
       1.0362442068566107 0.9740630733809835
000010 69 73 37 98 28 85 ef 3f 11 fe 7d 66 31 47 f0 3f
       0.9850047085743486 1.0173810962295458
000020 d4 cd eb 22 da d6 ef 3f f4 6e c7 4a 7a 0c ef 3f
       0.9949770624211234 0.9702731571701109
000030 48 a9 1e 61 96 b3 ef 3f 7f 34 f1 06 03 ac ef 3f
       0.9906722924108999 0.9897475371923433
000040 d0 ae e9 7e 0b 47 ef 3f 54 1e 5b cb 4a 18 f0 3f
       0.9774224737897956 1.005930704459293
000050 84 a2 9d 9c f2 49 f0 3f 57 03 02 d9 4b 91 ef 3f
       1.0180536382487455 0.9864863623080095
000060 4f f8 45 08 f7 30 f0 3f 88 16 66 b7 bf 08 f1 3f
       1.0119543383766716 1.0646359600081343
000070 09 08 73 30 40 26 f0 3f 9f 66 b7 af 69 f8 ef 3f
       1.0093385593941113 0.9990738326989294
000080 2f 54 8a 96 71 bf ef 3f 05 35 1d 0a f1 1a f0 3f
       0.9921195926896241 1.0065775294381762
000090 7c f5 39 fe 52 4d f0 3f b7 80 6a 12 d3 5f ef 3f
       1.0188779764860945 0.9804473266304033
0000a0 64 64 0b a9 56 2f f0 3f 64 87 c1 d2 eb 25 ef 3f
       1.011557255106049 0.9733790508582669
0000b0 86 f2 61 a1 7f d8 ef 3f e8 a3 91 2e 45 e2 ef 3f
       0.9951780464176216 0.9963708791302652
0000c0 f9 e2 ed 23 70 20 f0 3f f5 63 a1 3e ed 60 f0 3f
       1.0079194453703038 1.023663754129527
0000d0 3f c7 7b 04 be 6b ee 3f 61 bc 39 fa 2f 81 ef 3f
       0.9506521308487449 0.9845199477403065
0000e0 13 06 26 2a c6 ad f0 3f 8c 9b 6e 49 c2 0a f0 3f
       1.042425312655159 1.002626692623127
0000f0 f7 a4 b8 e2 41 3e f0 3f f3 3a 0a db 1b b8 ef 3f
       1.0151995521831034 0.9912242200969942
000100 b9 ce 7c af c6 4d f0 3f a2 b8 31 22 42 f5 ee 3f
       1.018988309381639 0.967438761506646
000110 a3 3e 85 0d 3d 92 f0 3f e4 cd 00 bb 44 49 f0 3f
       1.0357027557510399 1.017887812119505
000120 c6 ea 88 9b d8 63 f0 3f 46 f9 81 f5 1f 4d ef 3f
       1.0243764949397458 0.9781646533081492
000130 44 35 a3 15 89 2d ef 3f 07 6d 0a a7 00 15 f0 3f
       0.974308531056217 1.0051275754001965
000140 3e cd 95 59 0c 2b ef 3f d7 a5 44 64 53 bf ee 3f
       0.9740049123487677 0.9608551939356244
000150 1a 68 61 e0 35 25 f0 3f f2 1c ea 47 23 7b ef 3f
       1.0090845837462497 0.9837814716892395
000160 6f 8d 81 da 21 0e ee 3f 0d ca 8d b5 14 2b f0 3f
       0.9392251270004816 1.0105177967021775
000170 58 f2 cc 54 ae 7d f0 3f 47 a5 29 0c 3a 5b f0 3f
       1.0306838333628061 1.0222721552948586
000180 43 34 5d 47 77 77 ef 3f e6 8f a5 fe bd 18 f0 3f
       0.9833332437352812 1.0060405680787823
000190 42 6a a1 1d 9c 2a f0 3f da b0 36 37 d8 de ef 3f
       1.0104027898256764 0.9959527090445832
0001a0 24 a1 45 87 63 27 f0 3f 25 77 ca 75 04 9a ef 3f
       1.0096164020597564 0.987550954876245
0001b0 3a 91 11 a8 40 37 f0 3f a0 55 44 52 ac cc ef 3f
       1.0134893956356579 0.9937345129753119
0001c0 53 fc f0 a4 ca 06 f0 3f fc cc 7a 77 71 1e ef 3f
       1.0016581004163256 0.9724662145221425
0001d0 e0 dd 8c c5 83 3a ef 3f b9 46 39 7b a6 3d ef 3f
       0.9758929117587591 0.9762756735528547
0001e0 9b 4d cc cb 21 ec ef 3f 70 56 40 a1 4b ea ef 3f
       0.997574708979687 0.9973505162658522
0001f0 4e 97 9c a9 23 fb ef 3f 74 c1 f4 b8 bb be ee 3f
       0.999406653664417 0.9607828724311234

encoder.1.1.bias f8 [64]
000000 3c 76 81 c3 2d 4e 95 3f e0 46 18 7f da 18 a6 bf
       0.02080604081890257 -0.043158367170816225
000010 f3 58 85 12 c6 17 86 bf 9f cc 7a f1 cc b3 88 3f
       -0.010787532272541677 0.012061692351699014
000020 b6 b2 b1 ae 9c 8d a7 bf b2 a1 cd 20 59 92 93 bf
       -0.046002289128272464 -0.01911296141352787
000030 94 39 de 57 db 58 80 bf 5f 57 66 62 e1 f3 90 bf
       -0.007981980914135524 -0.016555329924435976
000040 5e ee b1 90 59 5d 99 3f 44 1f 5b d2 ca a6 9f 3f
       0.024770163971409402 0.030909699524982473
000050 fe c4 e8 2e ac 4c 9e 3f 01 0b 30 b6 2c 65 a3 3f
       0.0295893577223909 0.0378812763592773
000060 5f ea 4c ad 46 b5 a7 bf 80 dd d2 68 c1 b9 8c 3f
       -0.04630490174755119 0.014026175509896488
000070 d4 a8 77 2e 58 bb 95 3f 13 aa ec a8 aa 62 80 bf
       0.021222474895616752 -0.00800069168106624
000080 08 d9 aa 6b c3 50 a7 3f 94 82 e2 1b 7d 90 a2 bf
       0.04553805054949761 -0.036258611349017006
000090 91 49 29 fa c8 97 96 bf f4 1a c0 57 72 0d 81 3f
       -0.022063389080651034 0.008326428702287704
0000a0 b5 a7 b2 b0 41 4d 73 3f b2 bf cb 3f 2a 73 a4 3f
       0.0047123495125251285 0.03994113949545354
0000b0 fe 66 b0 5e 9a 7d 9a 3f 20 d7 ba 6b fc 8e 97 bf
       0.025869762448656346 -0.02300638587504189
0000c0 a4 74 cf 43 6b 91 93 3f f4 4f ff 41 56 15 91 3f
       0.019109416974846596 0.016682956483990055
0000d0 83 0b 00 05 a0 3c ab bf 12 10 d9 d2 3b c5 7a 3f
       -0.05319690762555409 0.006535752950700429
0000e0 29 da 5d 5f 45 fd aa 3f 00 ab 5d 98 b7 4a a0 3f
       0.05271355427878561 0.03182004675803363
0000f0 34 0a e1 86 b6 bf 9b 3f 85 29 26 df 23 b5 a3 bf
       0.027098514540066357 -0.03849136446941074
000100 4e 24 d8 99 1a 81 9e 3f a7 df 02 cf 7c 3e 74 bf
       0.029789367332373744 -0.004942405256023997
000110 1a e0 51 95 fc 37 a0 bf 11 45 86 c6 de b8 a4 3f
       -0.03167714426757602 0.04047294782061262
000120 3b 13 ae e9 78 a0 97 3f d3 c2 9e c1 fb 7c 74 bf
       0.023073090803808354 -0.005002005980643448
000130 33 1e c0 97 17 f0 84 bf da b9 3c f5 55 d9 9b bf
       -0.010223564451748412 -0.027196257680026516
000140 da 7e 11 44 95 7b 9c bf 49 11 18 f3 ec 77 a0 bf
       -0.02781518199878872 -0.03216495959717009
000150 f6 9e 8d 5a 41 26 99 3f 40 0b fb a1 8b 50 37 bf
       0.024559994842461706 -0.0003557530307995334
000160 f9 58 10 1b 9a b1 97 bf 3e d3 dd 61 06 44 9b 3f
       -0.023138435270163325 0.026626682017609975
000170 04 ee e3 ab 04 19 91 bf cc 36 cb b0 38 16 a1 3f
       -0.01669699954162064 0.033372661191248904
000180 34 ce ee b1 f2 0a 9b 3f d7 ab 59 1e 94 b6 a4 bf
       0.026408950910719223 -0.0404554640816383
000190 1f 74 b9 6e b1 69 97 3f 93 d9 c9 fe ae fd 94 3f
       0.022864124663431903 0.02049897604089208
0001a0 e5 8d 26 55 43 d9 9e bf a9 52 05 4e 18 8c 49 bf
       -0.030125667640858018 -0.0007796400714519997
0001b0 58 dd 59 99 f3 12 9c 3f d5 0c af be 51 3e 9f bf
       0.027416044459156325 -0.030511166823782816
0001c0 dd 51 88 fb ca c5 90 3f a7 f7 16 f9 ef 13 82 bf
       0.0163795200370077 -0.008827090062250976
0001d0 51 c6 20 cf ae db b2 bf d0 31 5f 14 d9 49 68 bf
       -0.07366459423863005 -0.0029649009547709562
0001e0 45 46 1b b0 97 db 70 3f 64 31 58 00 cd bd 80 bf
       0.004115669756815492 -0.008174516270650307
0001f0 f6 cf 25 9a e8 25 97 bf c2 f4 4e 12 aa 76 9d bf
       -0.02260554734080241 -0.028772981040437136
