models/matching_nets/AWF_n=1_k=5_q=15_nv=5_kv=5_qv=1_dist=cosine_fce=None.pth (torch, 316367 bytes, 24 tensors)

encoder.0.0.weight f8 [64, 1, 3]
00000000: b256 81d6 6a2b e13f b45e d7b5 f19f d5bf
00000010: 2467 c550 ffe6 bbbf 6830 26b8 6372 d2bf
00000020: 773a c2fe 78e5 c3bf 9311 71d1 b833 d23f
00000030: d0f8 b1ba 358b b63f 2378 b9c1 35b5 af3f
00000040: 8c90 37a2 e4b8 d03f c100 03b3 2442 d1bf
00000050: 3fc4 c2ae 8192 d6bf 282d 4caa 09c5 bbbf
00000060: b273 f431 f5f4 e13f 0319 6f4a 6a43 d73f
00000070: 026c 5468 c4ca d0bf bd89 ffb6 444a e0bf
00000080: 6c09 e3f5 897d cebf 8767 8150 bc55 d33f
00000090: 9b60 567c b622 bbbf 01c7 6b14 498a e1bf
000000a0: 1e9a b6d5 6d32 e03f e336 c538 3498 ce3f
000000b0: f3e1 14d8 4f7e d83f a46e e9bf 715a dd3f
000000c0: 0734 1cec 4fcc b3bf 0e1c b597 e94a a23f
000000d0: 80b4 19d7 be7f d43f 9fb1 de49 22a8 d33f
000000e0: dd6e 0413 e00e c6bf 9abb 0e8c 09d9 9e3f
000000f0: 4e6a 4e00 d678 dd3f cc69 bc3e 91bd d83f
00000100: c127 41df 4542 be3f 335f cae8 9c2b a13f
00000110: e519 2076 519a e0bf 5b2f cab9 643c 98bf
00000120: 1093 531c c0e4 c3bf 0b1a b427 4ff6 ccbf
00000130: b81a e821 fe47 e0bf c86f eec1 b2d3 dcbf
00000140: 6a47 a784 f0b4 a8bf 8980 ab9b 7a2b df3f
00000150: d826 98a1 5a8b c33f 7d31 1705 5546 9c3f
00000160: 945e 7bf3 329f a73f 7ba5 bd88 1c83 943f
00000170: fa0c f08d 19af debf c462 e5d9 68fa c23f
00000180: ecf1 a77e 5259 d1bf 00b7 990f 607e d6bf
00000190: 070c a086 0c61 ce3f e29c 61b3 7970 ae3f
000001a0: 0956 9bd3 ac9e d13f 77f9 ea2b b838 d53f
000001b0: 7546 b5e6 a618 d63f 6023 31e3 8458 c7bf
000001c0: c2d0 972a 0650 d13f 6a5c f7a9 f14f cc3f
000001d0: 6c8b 9f0b f48b db3f 9cdc f918 5487 cc3f
000001e0: d4ea 726d 8253 dfbf 7591 448b 7e15 df3f
000001f0: 512a fbed f597 d9bf 7308 d24b 4701 e23f
00000200: 9264 1433 70c4 a3bf 200e ddb3 2545 c5bf
00000210: f464 104d f0d1 de3f e36c 1385 544d d9bf
00000220: cc69 6257 2585 ce3f 57e1 1732 57c2 cabf
00000230: 6a53 8212 e7e3 e03f 81a2 fb6f 989c dbbf
00000240: 1a6b 04aa 9562 e13f 7151 4b9f f76e e03f
00000250: 1118 3753 1d23 c33f e6b9 64f0 8d23 803f
00000260: 339d 6067 0d70 d9bf cbe0 a0ae 0e36 d53f
00000270: 6017 9fc2 a7ea d4bf 01ed 1170 7c38 a03f
00000280: 6449 b05c 5aa9 d83f cf1c ae9b 5271 dd3f
00000290: e686 f260 fd7c e03f aaf3 475b 0e22 de3f
000002a0: fe20 fe48 0dc5 d0bf 0ef1 9007 dd53 d8bf
000002b0: cd11 9a0f 6e2f d9bf 6fec 8f79 1fca ccbf
000002c0: 1774 172d 222d dabf 35ac a067 64a4 993f
000002d0: 156c 7dd3 2b7f b93f d287 034e ec3f d1bf
000002e0: 28a1 7615 f573 e23f 00a0 b599 0bd2 a3bf
000002f0: a259 34c0 ba5f cdbf 48fb db46 4b37 a9bf
00000300: 383e ebc4 0aed d53f 8032 a70d 24f1 d2bf
00000310: 4224 35ce 14d2 df3f c6ef 964d 69c3 c3bf
00000320: 30c9 2d3d d6b9 dd3f ef63 1e7e 933c e2bf
00000330: fd0e 3313 f445 df3f 0fd2 f8c4 1e5e d6bf
00000340: c5ac d3e2 48ce d5bf ce51 e215 e4e7 d23f
00000350: 02e4 8291 6b74 bf3f 9d6d 86b1 00fa d43f
00000360: 80e2 84c7 0748 e13f 1d97 4295 b5d4 d73f
00000370: 94c8 3dde e53e bc3f d34e be70 a368 df3f
00000380: b060 a56f 9300 afbf 284e bba6 48fd e2bf
00000390: 0826 3375 434b c9bf 12e4 1cae 6a3d c23f
000003a0: 2bdf 9310 812b c1bf c3c4 d9a0 2a9e d5bf
000003b0: 07e5 ecaf e52e e13f 2884 cf55 eccd c33f
000003c0: 0699 0c18 801e a83f ed6b bae8 c2e0 d93f
000003d0: 3e75 de4a 9a82 a3bf 3b13 cb01 d302 d1bf
000003e0: a7ce 1cd4 e124 bdbf e4fb c232 ffc7 ddbf
000003f0: 6362 6f25 1d47 e1bf d3f6 f7cd 94db d43f
00000400: 29d9 ccdc a18f dbbf be7f 75f4 acf1 9b3f
00000410: c968 d3af 8e1a d3bf 856c 3c6d cbe4 ddbf
00000420: 94e7 b5df c3f3 ac3f 6034 f958 dfe0 d43f
00000430: 6a02 c6ca 28d7 dd3f e564 414d 1f8e d8bf
00000440: 6b01 bfa9 5d71 dfbf f224 2bf7 d5d2 d6bf
00000450: 2a65 567b 8f05 d03f f3a4 841f 151b cebf
00000460: 2129 d550 503d d0bf b448 16af b971 d8bf
00000470: 0a2b 26f9 e1a2 debf 1de7 748f 63c5 d5bf
00000480: 0fa6 93d7 3289 c0bf a357 81d1 40fa e0bf
00000490: a22f 0f49 3209 7abf ea36 6e63 e8ad 9dbf
000004a0: 206d 457e 4814 e13f ff9e 265e 667b b4bf
000004b0: 5f95 aa60 2338 dabf 5da1 a765 7de2 e03f
000004c0: eb79 8179 348d 923f 87b8 8e65 88c7 df3f
000004d0: 5cbb c798 1b74 cdbf 59a9 db69 d320 e03f
000004e0: b16b e4bf 7196 d93f 724e 9318 3d38 bdbf
000004f0: 0b6c d5ae 004f e1bf 0e4d 3b3a 6d80 e03f
00000500: 80ea 3687 f5d7 c03f 4c77 8255 e35d dcbf
00000510: 3f2b 3d6a 8cdf de3f fcee f644 e2cc e23f
00000520: eb5c c519 29d5 c03f 2211 5b28 50db dc3f
00000530: 2296 6705 37b8 bf3f a377 03e9 eb2f d2bf
00000540: dd1c 5f46 d7ca d4bf c805 4505 5763 c3bf
00000550: 43dd 239c 0103 d4bf 88ea 65b1 2cbd c6bf
00000560: d569 aed2 0ae5 c7bf 53fa b314 d209 c63f
00000570: 5637 acac a1c6 acbf 31d4 a382 b159 98bf
00000580: fe31 3832 dc7a abbf 11fb c9f6 bf9f be3f
00000590: 34ff 124b 174b e13f cf0b 4781 382a debf
000005a0: f195 a3b9 c6ef c53f 43a3 4d11 aa2e e0bf
000005b0: 3d55 da91 e757 c2bf ed6b 2988 cbdb cbbf
000005c0: fb0d e407 b913 ae3f d19a b679 527a d8bf
000005d0: e795 972e 2134 e03f b62a f518 7fb1 c63f
000005e0: 644d 86c0 539f d9bf 73c6 5f2f fd95 ca3f
000005f0: 0d9c 28f7 537f babf 5d6c 1b46 bd7c cb3f
0.536549967723394 -0.33788721807421074 -0.1089934894747811 -0.2882317827541159 -0.15544044913663743 0.28440685704506413 0.08806167419422484 0.061929397485741576
0.2612849792624352 -0.26966207009901316 -0.3526920515678888 -0.10847530753760692 0.561152074401994 0.3634896971601764 -0.26237592876867677 -0.5090659689124589
-0.2382061434382864 0.30210788595069754 -0.10599842582303369 -0.5481305502746353 0.5061558889472655 0.23901989719381964 0.38270946599689565 0.4586452840937716
-0.07733630670936985 0.035727786797501535 0.32029696470164737 0.30713708127839284 -0.17232895783023752 0.030124806569513753 0.46050024061120076 0.38657027365266283
0.11819874477910643 0.03353586522751897 -0.5188376719605087 -0.023667882766445696 -0.15541840918663086 -0.22626676024101786 -0.5087881719817551 -0.45042103708851444
-0.04825545901589019 0.4870287437643204 0.15269024744366422 0.02761204570360708 0.04613646719161327 0.020031400533672788 -0.4794372449980099 0.14826689376311297
-0.2710767971873611 -0.3514633324001437 0.23733669827933587 0.05945186915124069 0.27530975975727806 0.33158687867025755 0.34525463609779844 -0.18238888829571476
0.27050928267932417 0.22118969725736132 0.43041707167701904 0.22287989825756405 -0.48947201431626053 0.4856869087255043 -0.3998999427828141 0.5626560669773099
-0.03860808013468743 -0.16617270738980583 0.4815636398867149 -0.3953448581284659 0.23843828932588307 -0.20905580469094318 0.5278201447969029 -0.4314328282912712
0.5432842560433955 0.5135458098616664 0.14950911105387424 0.007880314730383153 -0.3974641332192334 0.3314243989330065 -0.32682222372056025 0.03168095462839383
0.3853364854013732 0.4600416679681531 0.5152575391295755 0.4708286181847209 -0.26202709320251916 -0.380118615521284 -0.3935198929177915 -0.22491830287603728
-0.40900473025777856 0.025041168999603697 0.09959672845199947 -0.26952655428442285 0.5766549510199512 -0.03871189357124649 -0.22948393235192294 -0.04924998512250639
0.34259289961207484 -0.29596806844055124 0.49719734322986053 -0.15440098084024906 0.4644675824594229 -0.5698945487266637 0.4886446177954296 -0.34949464068930153
-0.3407156195741659 0.29540350091090495 0.12287018110772865 0.32775895439564257 0.540042771993356 0.37235774589713505 0.11033474613012323 0.49076162347885804
-0.06055126893869678 -0.5934184318998108 -0.1976093599571842 0.14249928952793361 -0.1341401415772848 -0.33777871807167176 0.536974757770765 0.15472177686663824
0.04710769933289964 0.4043433449493808 -0.038105794562606196 -0.265797378302796 -0.11384402683762095 -0.4653318401068971 -0.539930890193386 0.3259021769916732
-0.4306416183711855 0.027289106770126408 -0.2984959332512856 -0.46708951633053913 0.056547280367296754 0.32622512520612723 0.46625728418442824 -0.3836744551131928
-0.49129430367249566 -0.3566183961634827 0.250339384505042 -0.2352014926812341 -0.25374229329885806 -0.38194124315590305 -0.47869157153097375 -0.3401726628249991
-0.12918696905335067 -0.5305484859370505 -0.006356426646515619 -0.028983717983968406 0.533725973723822 -0.08000793264966076 -0.4096764034278148 0.5276476846166066
0.018116779247401665 0.49655351560330313 -0.2301058288571437 0.5040070598163694 0.3998073934505398 -0.11413938379274116 -0.5408938803406057 0.5156770837151343
0.13159054853698038 -0.44323047018575745 0.4823943173875484 0.587510237404302 0.1315051437220299 0.45088581028928065 0.1239046467013272 -0.28417489772061283
-0.3248804270956052 -0.1514691138964237 -0.3126834893041243 -0.17764815008179746 -0.18667731558964698 0.17217470179453417 -0.056202938392842114 -0.023779653166418228
-0.05367172349005854 0.11962508940812834 0.5404163805287454 -0.4713269484020061 0.17137989105610488 -0.505696328921751 -0.14330763456079323 -0.2176451125004343
0.05874422284434996 -0.3824659527403301 0.5063634786608276 0.17729176252972473 -0.4003495578883387 0.2077023011511759 -0.10350537094255703 0.2147442428893979

encoder.0.0.bias f8 [64]
00000000: 8eca 0140 e0cf d8bf 52aa 0980 759c c83f
00000010: 2cf0 2ac0 349f c5bf 07f9 deff e5bd a33f
00000020: be0f 03a0 3282 dcbf fa21 fa7f c287 de3f
00000030: e8a1 b900 aef1 a03f 4b35 f8ff a883 d83f
00000040: a754 b3ff 928a b63f 75d5 2c00 ec9d b8bf
00000050: dcd6 fcbf 0aee d6bf c063 e8df ebbf d3bf
00000060: ca94 f27f 5d9e d83f 13f2 01c0 9dd0 d1bf
00000070: 0dad 53fe f7ab 813f aa2a 1500 acdb d03f
00000080: b89b faff 6f2b e1bf 480d e83f f31a ccbf
00000090: 710a f7ff 9c06 d33f ef44 2e00 e4ee c4bf
000000a0: 8b7f fe7f cbe5 c0bf d18e 0e80 1486 db3f
000000b0: 1362 f9fd ef21 83bf 59ed a4eb 1f22 61bf
000000c0: 9077 f9ff 8a77 dcbf 5097 1fff 5f45 a4bf
000000d0: f9dc 39fe 571d 8cbf d802 fc7f 3a57 c5bf
000000e0: 2320 0980 8306 c43f 69cf 3900 2c17 a3bf
000000f0: 3fc8 8400 b784 bc3f 711a 0bc0 7c89 d3bf
00000100: 1b3c fa7f 0bbd b8bf da97 af00 88b4 a63f
00000110: 5be2 0480 2f72 e03f f01c 1180 171a c03f
00000120: 316e ffdf 7f98 e0bf c6b2 07a0 fa10 e1bf
00000130: 5dec 7501 dc1e 933f 6b7f 0280 caca d33f
00000140: 4c9f 06e0 2d98 e0bf 10f1 0800 66ef d3bf
00000150: c545 cdff 8bd9 a0bf 6e79 fe5f de12 e1bf
00000160: e122 0000 ea3c e1bf 197c 3100 98ac a3bf
00000170: bb8b f83f 8177 d73f a17a 2d00 90aa a13f
00000180: 6e3e ef7f 4e4f debf a945 0100 2200 e03f
00000190: fbbd f37f c055 c23f 41e8 f2bf 32de d6bf
000001a0: 77a8 cdff 6d6a aabf 594c 0780 67a8 e03f
000001b0: 4cae f6ff b2b2 c6bf c870 07c0 3d79 e03f
000001c0: 5005 0900 10a4 b83f 4a8f e9bf 939e e03f
000001d0: 6556 f03f e001 d33f 3281 0d00 2a6c df3f
000001e0: 3733 ecff 6caa dabf a76e d43f 4ae1 cfbf
000001f0: b478 f73f 162f d6bf 6027 04c0 0c3a dbbf
-0.38768774271663 0.19227474929660332 -0.16892108329000288 0.03855818508553637 -0.44544664026420466 0.4770361184860402 0.03309386977054257 0.38303589818027167
0.08805197470367664 -0.09615969661975561 -0.35827893017572676 -0.3085889517402016 0.3846658467758287 -0.27835792303793133 0.008628785561504171 0.2634077072913593
-0.5365524291599888 -0.21957245464737185 0.2972786426218255 -0.1635403633959309 -0.13201278447831685 0.43005859857133283 -0.00934207433526616 -0.002091467232416083
-0.44479632375247835 -0.0395917891435561 -0.013727843709814712 -0.16672450303305797 0.15644878150692518 -0.03728616240269284 0.11140006792700861 -0.30526655916438644
-0.09663459658098399 0.044346094211320256 0.5139386654255519 0.12579625848068288 -0.5186156630474611 -0.5333226323687874 0.01867240675845171 0.30925238133385474
-0.5185765624528158 -0.3114867210713479 -0.03290975091534735 -0.5335533022769547 -0.5386857986460108 -0.03842616083488099 0.36666899916798074 0.03450441362541779
-0.473590493141251 0.5000162124726347 0.14324194190656656 -0.3573119043827582 -0.051593244052882285 0.5205571651989757 -0.17732846735212815 0.5147999525611562
0.09625339508877073 0.51935756190185 0.2969895004656336 0.49097681050445197 -0.4166519641155903 -0.24906280628862484 -0.3466239571261085 -0.425418078914495

encoder.0.1.weight f8 [64]
00000000: e12d 91f5 5a4c ef3f 5f07 e1ed 2685 f03f
00000010: 34fa aadd c4a4 ef3f 88fe 3ef6 4359 f03f
00000020: 6e83 45a2 832f ef3f b2d1 635f 0034 f03f
00000030: ca49 843c dd3b f03f 8774 49cd 11a9 ef3f
00000040: 1c88 4471 aa4e f03f 8166 d50f 200d f03f
00000050: 70d2 ea28 2eab ef3f 2862 0b7c c9a5 ef3f
00000060: 7e33 d030 4c94 ef3f 4ef7 a41c b83a f03f
00000070: c81f 6c30 933d ef3f 6203 dfa8 c247 f03f
00000080: 572f 1e82 f973 f03f 4940 fda7 03e4 ef3f
00000090: e9a1 1cad d372 f03f 251a 98b3 3596 ef3f
000000a0: 3ba6 1b06 08fc ef3f 7018 7cd5 21c8 ef3f
000000b0: f796 1ef1 a348 f03f 0aed 4057 be39 ef3f
000000c0: b9fb 9907 a40c ef3f b545 e4c1 8272 ef3f
000000d0: f8fd eaee 171e f03f e2f0 2512 6354 ef3f
000000e0: a60d c3ac 5d6d f03f 47cd 638f d5a0 f03f
000000f0: 13a4 d6b0 788d ef3f 07e6 700e 5568 f03f
00000100: a43d 7648 dff2 f03f 2e03 69b1 a9d8 ef3f
00000110: a4fd 817a 82ae ef3f e7cc b427 cec2 ef3f
00000120: 9755 491b 2667 ef3f 0ed7 e3de 791f ef3f
00000130: 24e3 d485 ec50 ef3f a62c 5fe8 909f ee3f
00000140: e6b0 20e7 4fe8 ee3f 2de7 fcd2 bf8c f03f
00000150: be9e 1eb0 7f0f f03f 2744 7436 7371 f03f
00000160: 74e3 e92c d330 f03f 7896 ff47 bf05 f03f
00000170: c56b a3ec 6b06 f03f 1b51 1bf9 56a5 f03f
00000180: e802 7d20 d038 f03f 7a9e 4396 9d48 ef3f
00000190: 489e cb67 5c21 ef3f 965b 565f a45f f03f
000001a0: 64b6 8491 2dfd ee3f ed2f 9132 2e8d ef3f
000001b0: 1634 8417 3ed4 ee3f aac7 250f 7e60 ef3f
000001c0: d1ec 319a 179d f03f a180 06fb 567c f03f
000001d0: c5d3 d889 a98a f03f f4c0 552e 4378 ef3f
000001e0: 116b 169b 587a f03f ce87 0d9b 5c30 f03f
000001f0: 7508 0b9d 3eac ef3f f0bb 85a6 7fd9 ef3f
0.9780707164986177 1.032507828917424 0.9888634042216098 1.0217933291422998 0.9745500726095153 1.0126956678551378 1.014615284341391 0.9893883714209019
1.01920551533886 1.003204404687864 0.9896460341611384 0.9889876768821226 0.9868527367958533 1.0143357390329188 0.9762664743184297 1.0175196262864223
1.0283141215067724 0.9965837746658589 1.0280339014226405 0.9870861537645551 0.9995155448243119 0.9931801957725508 1.017734472153675 0.9757987693950849
0.9702930592028373 0.9827283656069797 1.007347043297953 0.9790511469323315 1.0267006634247564 1.0392661667982155 0.9860194639087488 1.0254717411138488
1.05929497056409 0.9951981034319937 0.990052451394082 0.9925299430382467 0.9813414128245083 0.9725922921486203 0.9786284078500995 0.9569782770644408
0.9658584131443859 1.0343626252856197 1.003783882109857 1.027697766028959 1.0119201425970603 1.0014031231343363 1.001567768448454 1.0403661471110073
1.0138703602862567 0.9776142058226036 0.9728223826650231 1.0233501171221397 0.968405517783776 0.9859839427604108 0.9634085139565538 0.9805288596964961
1.0383525870554886 1.030356388633699 1.033853090729495 0.9834304718952169 1.0298696573360682 1.0118070656540001 0.9897759501693729 0.9953001263037304

encoder.0.1.bias f8 [64]
00000000: ec1a c18f 49e6 a0bf 99d0 fcb1 2027 a73f
00000010: 5203 e053 23e9 66bf fa55 5ff3 f33a a33f
00000020: 08a5 505c df87 a0bf 3f7f 5042 6edf 963f
00000030: 8c23 f6f0 7fec 913f 7fbc efd9 a065 9f3f
00000040: ed92 14fd 213b 653f 3322 6d5d 1b17 a2bf
00000050: 28b4 afda c2ed 76bf c571 5fdd 1e55 8a3f
00000060: a4b4 e46a 59d1 81bf 4ff5 227c c5d6 80bf
00000070: 8f5e feaf 82f8 82bf 8f7c ad0a d4b1 a83f
00000080: 3644 0461 66d9 a23f 17d2 5404 4420 8d3f
00000090: c990 c987 28b0 5fbf cd49 99f9 4deb a1bf
000000a0: 0c73 6e08 b1d3 a73f 395a 454b 9c1c ab3f
000000b0: 98d4 7927 a0bf 743f c115 25c1 6d71 a63f
000000c0: f5a4 d8dd c19e a0bf d12a 6493 4dda 863f
000000d0: c7aa 60aa 2003 94bf e08c c1b9 0fd7 7abf
000000e0: 2af3 d2fa d825 a73f c81a 028a 3a2d a83f
000000f0: 2aa1 70e5 b845 a1bf 3a48 f92c fd40 a43f
00000100: ee4c 8d89 fcfa 7dbf 161b 6c42 0eb7 68bf
00000110: f42f bc28 3ccb a13f 9ef2 9a62 f552 98bf
00000120: d78e 7fc0 050e a8bf 28fb 9c77 78d5 a13f
00000130: 37cb afca f700 9c3f 7f98 6bb9 007d 833f
00000140: 903b e5b9 4737 90bf 562c 7acb 746d a63f
00000150: 9969 6e55 f37e a93f b6c4 a3ae 982a a33f
00000160: 6ba1 9639 cf6a 913f 2070 2974 8ee3 61bf
00000170: a098 c8f2 d131 963f 8664 347f b1a8 ad3f
00000180: c65e 63ae e021 9c3f 3e21 4e14 f121 62bf
00000190: 08f0 1f9c c5a8 98bf df5f d07e b0fe 943f
000001a0: 1aa0 e66c 65c3 563f 7291 8cee b957 98bf
000001b0: ddd5 32ed 9a11 a0bf bf45 a8f5 212a a2bf
000001c0: 359c f2c7 7104 a43f f0c7 c1aa 41a3 ac3f
000001d0: 9b42 9674 f039 a43f dcf1 6663 e1cf 7fbf
000001e0: a112 771b 98fe aa3f 3971 1b97 370c 9e3f
000001f0: f039 0a81 8642 9ebf 14f0 69f6 a586 a1bf
-0.033006953046926885 0.045220395781513996 -0.0027967157357128647 0.03755915017942964 -0.03228662492649376 0.02233669547797423 0.017503737527963234 0.030661118795191285
0.0025916732635259316 -0.03533254161317636 -0.005597840451611304 0.012857667094004275 -0.008700083326937787 -0.008222143984648737 -0.00926305865850388 0.04823172216742321
0.03681487974439117 0.014221698171788906 -0.0019340892605664176 -0.03499835655079018 0.04653695323870552 0.05295265597185445 0.0050655609153313005 0.043834142520192916
-0.0324612220104629 0.011158567486309863 -0.019543180846236987 -0.006552754810488198 0.04521062909905134 0.047220067354876216 -0.03373506356030227 0.03955832647319864
-0.007319437478901165 -0.0030169752602690154 0.03475368497137757 -0.023753961699855546 -0.04698198294479788 0.0348317762386528 0.02734744238473327 0.00951576772554241
-0.01583587715259288 0.04380383476117149 0.04979668062078985 0.037434359854054675 0.017009008302609468 -0.002183702688212122 0.021674423640569374 0.05792765310088392
0.027472983020600215 -0.002213450296441404 -0.024081313757037065 0.020502813091383017 0.001389359520183936 -0.02377214926231503 -0.03138431687822749 -0.03547769664522659
0.03909640851753019 0.05593304833827506 0.039504541618162047 -0.007766609595304588 0.052723649361302145 0.02934347972664961 -0.02955064928624468 -0.034230409936725575

encoder.0.1.running_mean f8 [64]
00000000: e879 a526 435b d7bf 38b1 99a2 fe7a c33f
00000010: 955e 523f 5c8c b0bf 99a9 717f 15a5 c2bf
00000020: 7131 3f99 bed2 d1bf 29ec 9e09 f157 d73f
00000030: 7e4b db10 1b66 6ebf 00a2 da9b 21fb e43f
00000040: a261 717d c24a c43f 0329 d061 f8c4 abbf
00000050: 0932 ba88 9f63 bdbf 3f39 5724 b9ed dbbf
00000060: 4e69 9f0c 837b c43f 504c 6d9f 75fb d1bf
00000070: 9641 dbb9 cce2 b03f cd6e 1186 54a0 c73f
00000080: a7b9 fc4f c748 e4bf 4d28 3db8 b044 aabf
00000090: 2c85 6c2c b30f da3f e883 cad8 a656 ad3f
000000a0: 1262 79d2 a9fa cdbf 007e 310b 7da4 e03f
000000b0: 8120 0f9a d8cb b23f de99 6c43 902f a0bf
000000c0: f821 3920 b1fc c1bf 3443 0ba7 edbc abbf
000000d0: 2ea3 28b3 7042 813f 8f07 4196 5757 c93f
000000e0: 0d0f 2825 19cc babf 3db7 3596 ce78 c8bf
000000f0: 859b 1a5e 6668 cb3f a265 3f18 22a8 d8bf
00000100: bb04 545a ba06 a53f 5592 0011 8efc 95bf
00000110: 4c11 e247 a0b9 dd3f 2401 3c27 7c17 d43f
00000120: 49e9 7b32 bdac d0bf 347c 8489 ee58 e2bf
00000130: d672 43f7 aa5e 9ebf 026a e44d 1371 d93f
00000140: 555e a9c7 0e8d dabf 56e0 e985 16c9 e0bf
00000150: 4f45 fde0 df05 c9bf 1e23 68ff 5106 e7bf
00000160: 8e7c 948c d1c0 d4bf 327b 515b 9e56 d6bf
00000170: 4b81 f5f3 aca0 d33f 5016 6617 502c d1bf
00000180: 353b e1b4 5f87 e4bf c2de a874 156f e33f
00000190: 2e21 a2c3 3bc8 c63f e41e 3ed6 eedb c4bf
000001a0: 582e 2ad8 84bc bdbf a13f 0fde 374d e23f
000001b0: e31c 7b5a f019 c03f cdcc 7971 3ccf e23f
000001c0: 8124 3b0d 246a babf 45c5 a1e8 9c1a de3f
000001d0: 8b34 49fe 05d3 d03f d9f0 f3c1 a33a e13f
000001e0: a447 91e5 0028 e1bf 532d 4522 e0a9 d8bf
000001f0: e173 d09f 949b d1bf ea4f 3d47 f00b d6bf
-0.36494520925580654 0.15219099940748904 -0.06464172883931447 -0.14566296313143992 -0.2784878250647785 0.36474252643137334 -0.0037107971792038055 0.6556556743644819
0.1585314857973233 -0.054237138691023666 -0.1148013790900181 -0.43638447331331415 0.16001928440420915 -0.2809728676704184 0.0659606889487406 0.18458038851064487
-0.6338841020822671 -0.05130531548509563 0.40720824564239666 0.05730172535300665 -0.23421213891084897 0.5200791567439751 0.073422944652636 -0.03161288092660518
-0.14052404473683544 -0.054175783768761226 0.008427505938998072 0.19797797047254703 -0.10467679173603646 -0.19118673643554898 0.21412353129309394 -0.3852620350640682
0.041066955114737756 -0.02147123316548723 0.46445471782523806 0.31393340903743394 -0.2605431550033655 -0.5733559308899943 -0.02965800413299998 0.3975265751520568
-0.4148594808407087 -0.5245468726634595 -0.19549177633101997 -0.7195215214170252 -0.32426871040838356 -0.34903677861977933 0.30668186020013327 -0.26832964215313826
-0.6415251286324294 0.6073100355633516 0.17798564007194656 -0.1629618211848004 -0.1161578204866428 0.5719260537243721 0.125791591816074 0.5877973762821057
-0.10318208048842516 0.4703743240161951 0.2628798468838986 0.5384081638472039 -0.5361332401027892 -0.3853683790846009 -0.2751208840070927 -0.3444786735246895

encoder.0.1.running_var f8 [64]
00000000: 81d1 244b 9fa3 8d3f 9b7c 392c a759 823f
00000010: 5894 e969 3619 883f 9e47 74e9 9ca9 a23f
00000020: e49d eee9 3198 a63f c537 dcc3 53cf 9b3f
00000030: d56d 7353 5549 943f b3dd 082e dfdc b33f
00000040: c09d 2076 9f28 813f 1d55 1c8a 1d80 753f
00000050: ba0e 755d df5f b03f d641 d15e b0a6 973f
00000060: 7ef3 1bdd e1ca ab3f cef8 0cb2 2bac 923f
00000070: 92da 7ce4 bdb7 6d3f 4e35 cbce 184d 8b3f
00000080: 6e6a b90d ef20 923f 711a 26a6 f8b8 9f3f
00000090: f26b 87eb bb4c 903f 50e1 62c8 be7d aa3f
000000a0: b0ef 3b55 9c82 993f 97f5 affd 256a 943f
000000b0: a858 5677 57ed 913f 1fef 861a 64c6 8d3f
000000c0: e35b b2dd 8d8d b93f a6fb ef6e 372a 813f
000000d0: 0a29 4d68 3379 863f 8810 941c 728d c13f
000000e0: ba8c 9cc2 dd1c b23f 54e7 5a3a 02ef 9c3f
000000f0: 130b 56a4 5799 953f d04d 549a e5ad 7e3f
00000100: 725f 5b4a 3626 9c3f 60a1 bd93 86e7 933f
00000110: 4261 7645 eee8 943f db40 db71 89a1 a23f
00000120: e2d4 915e ac90 b23f a9d8 e0e5 c88e 9a3f
00000130: 4014 6753 c321 703f 7bf0 2b99 93c9 953f
00000140: ad18 cf9c b76f 8e3f 3feb 2a20 7d66 a83f
00000150: f1ce 1569 b1ed a23f 7c01 2f76 29fe a43f
00000160: 1799 c33f 6d1f aa3f 8dde 13a9 24a4 b93f
00000170: 570c 6843 0ee8 843f 963d af40 0760 b83f
00000180: a3ff 50ac 34be a13f 22dd 4bd2 56cf 933f
00000190: 777e b402 54c8 8e3f 945a d794 a981 a73f
000001a0: da60 c60d 3331 973f e433 a955 ab76 963f
000001b0: c78f d6d3 0e98 b93f da67 1f06 4320 913f
000001c0: 84b6 2d53 7fe2 a43f a3e9 2348 f3a0 773f
000001d0: 4498 0c7e 1a95 533f bd15 dcf7 90f1 933f
000001e0: 3816 5047 015a 973f aa18 edbe d09c 953f
000001f0: 7e87 e5b4 6531 973f a42c 5a07 9584 803f
0.014472240906436397 0.008960062062384025 0.011766839129629655 0.036450294015721627 0.04412990551582732 0.027158078030929084 0.01981099435657348 0.07758898614780811
0.008378263275587439 0.005249133480693472 0.06396289855643547 0.023096805369563565 0.05428224395834656 0.018234904043531945 0.0036276539648512707 0.013330644427152063
0.01770375748888358 0.03097904695598647 0.015917717218922385 0.05174061008568975 0.0249123026869566 0.019936174019667154 0.017506949099321517 0.014538557109396387
0.09981619513051458 0.008381302903215215 0.010973359699751235 0.13712908168247773 0.07075296403177136 0.028255495845520187 0.02109276714828485 0.007490059744003699
0.027489517486940902 0.01943788792360246 0.020419810285234215 0.03638867869233461 0.07252003964261491 0.025935305624636005 0.003938448897717939 0.021276766036848898
0.01486152121823311 0.04765692727729353 0.03696970374849496 0.04100160186453913 0.05102101710672196 0.10016087653991175 0.010208236152726409 0.09521527604305499
0.034654279741970904 0.01934562357470527 0.015030533154060095 0.04591112081441398 0.022648618427042112 0.021937062362031315 0.09997646972493533 0.016724631546686776
0.04079053774226529 0.00576872856094682 0.0011952170099873852 0.0194761897355613 0.022804279306020997 0.02110601582833086 0.02264937321286408 0.008065380370018645

encoder.1.0.weight f8 [64, 64, 3]
00000000: d074 37f0 987a 67bf 2b1d 1084 284a acbf
00000010: 12d7 4126 2fa0 a03f a2fb dcf3 f2df afbf
00000020: 2132 d647 7b5f a53f d727 14b1 cd28 833f
00000030: c4c8 2a2c 9610 b3bf 9129 5b7a 243e aabf
00000040: 7f3f 946c 4b50 8a3f 6eaa 2204 8945 a43f
00000050: c72e 1cc5 3da1 a8bf 3996 8dcf f837 a63f
00000060: 48a1 fa2a 02d1 603f 9d77 67b4 89be a3bf
00000070: f6b9 15a5 f738 82bf 2a66 8589 843f a13f
00000080: 3d5d 22d8 f728 73bf dcc9 383a 722d 843f
00000090: 6d7d 1cbc d93b a83f 1033 fcc8 3104 a23f
000000a0: b56a 6cb4 4e71 adbf 4e95 11a2 b6fb 9c3f
000000b0: b1a5 5053 2308 b1bf 9b28 5c14 f9be b1bf
000000c0: 794c fd3e 1d68 a0bf e6e5 d652 f289 a9bf
000000d0: 47d0 d4b6 621a ac3f 747c f390 aafe b2bf
000000e0: 2888 9033 6370 933f 689f ddad 35bb 7bbf
000000f0: 8f1f 8e12 cba1 b5bf 9b3b c558 88fe 973f
00000100: afc1 1a77 30be 57bf ba10 c5fb d53f 84bf
00000110: 8f72 5965 8e5c a93f 71fc 1ace 00be 78bf
00000120: 5227 f12e 1fb1 50bf 4db1 5a00 3996 9bbf
00000130: df8e d7d7 b88e a43f 6ee6 817a 285e b5bf
00000140: c3bd d03d a459 ab3f bd6e 219e 2b33 9d3f
00000150: 3cdb e635 01fc 96bf dd14 18fc 1ff7 a2bf
00000160: bb59 e272 886e 6ebf 5335 fc0b 6625 a53f
00000170: e41b 3636 3f28 96bf 297a 2bab e8c1 9e3f
00000180: c673 835c bc59 a83f e679 59a5 6036 a13f
00000190: 691d cc08 1558 a9bf b548 ce94 ad2c acbf
000001a0: fbc5 3c3b 116d 83bf b70b 5d8b ecc6 b2bf
000001b0: 35c4 0185 48bf b1bf 2462 6f1d e6e2 abbf
000001c0: 15f7 d315 6ee2 74bf d40c e4a1 5c44 b9bf
000001d0: 22b8 5a29 9cf9 863f d5f8 ba96 bcce 8a3f
000001e0: fee1 207d cfe4 aebf f489 f9d1 5305 b8bf
000001f0: 962f abe4 cb45 b03f a85a c9e9 eaf0 a53f
00000200: 0f26 4eeb 0bc0 9c3f ba17 f6ec b249 83bf
00000210: 91e8 578e 4ce0 7bbf 5b02 273f b170 86bf
00000220: 10d4 1823 61c9 96bf b4a4 b33f 5efb b0bf
00000230: 696c e93e c7a1 a1bf cc07 0738 5da3 743f
00000240: 172c f71b 0f77 783f 275a 3cf0 1d73 afbf
00000250: d9c1 05d9 3614 833f d6e4 6597 dd39 813f
00000260: 7688 4981 c2fd 7d3f 8954 e5be d3b7 86bf
00000270: 7e40 8d85 33b2 a5bf 0031 d237 c2b0 aa3f
00000280: d84b f61a 3ccd a43f f833 f128 fbaf 603f
00000290: a412 e5aa 4873 9bbf 4beb 156a 078f 43bf
000002a0: 3da6 eb1a a37d b13f ac1c 14c3 aa13 8ebf
000002b0: 0589 0f3e a83b 93bf dd8d ab76 d876 b13f
000002c0: bf81 bb47 ba8e a23f c2bc 33b0 7a21 8fbf
000002d0: bc20 0b72 a551 b7bf 1492 7f0e dfb2 9bbf
000002e0: d574 80bc 9d8d 67bf 22b8 9f33 94d3 7fbf
000002f0: a484 3c06 dedb 953f 8009 475c 9e93 b53f
00000300: 4d40 8774 e275 b0bf 9c95 eaa3 4fbd 713f
00000310: 3d1b fb62 c5b6 b4bf f640 f2d2 a9e6 afbf
00000320: 4c16 f16e ca35 a5bf 72e7 9e60 0b33 733f
00000330: b22e 2663 782a ae3f 6f66 be54 b424 8f3f
00000340: a779 f30f ad58 a5bf f8c5 118f bb60 b1bf
00000350: 3931 202d 264e a73f 1928 0451 a722 a43f
00000360: 90ad 8d97 06b0 a6bf 19d0 6e51 a8f2 8abf
00000370: 0a6b bd76 3c97 b1bf 86a9 16a7 7fdb a73f
00000380: c92f 652c a14b 9e3f ad3f 6345 508c a03f
00000390: 41e3 f061 c681 af3f 961b 1025 7ce9 acbf
000003a0: 9ed3 8710 72a8 a8bf 6348 3437 bca9 b4bf
000003b0: 0ef5 f2cd 26fd 943f d9f3 2ff8 29ba acbf
000003c0: 808b caa1 d003 b3bf 92e5 0b5b 49f4 a23f
000003d0: 59b7 e3a3 cbc5 a03f 3eda 9ac3 cda5 adbf
000003e0: 5644 b8ca d87d b53f 59e2 7f84 3765 b03f
000003f0: 281e 3317 40f6 94bf e973 2ab7 1c9f a83f
00000400: a6cf 7e06 cf0d a2bf 8c65 b2ed 76eb 8ebf
00000410: d625 d9a4 63d1 933f e254 4e3c a691 ac3f
00000420: ad85 2f51 67fd 94bf 3b76 766c 6996 a83f
00000430: 5638 4977 84fc a3bf 552b 0578 11ae af3f
00000440: 3cd3 b48e 914e b03f e1cc d694 8216 b03f
00000450: 07a6 bbe7 2059 a63f a5a1 f641 1254 aabf
00000460: 88be 2ad3 0a74 a33f 1e4e 1a7f 97fb b53f
00000470: b880 2a91 8d22 a43f 0e4a 1c3c 6752 ab3f
00000480: 4111 e64b ba51 a3bf 884e b7d2 614e abbf
00000490: 1c5c 1151 ff78 993f 19be cfe4 3e8c b4bf
000004a0: 6a82 d327 3d9f 98bf f43a 2460 c9f5 3ebf
000004b0: bb2f fcb4 2566 9c3f 1256 0fff a9f3 65bf
000004c0: b2d6 e262 c17c a8bf 0539 cbd1 1519 7c3f
000004d0: f3ee 5523 d9e8 4e3f 3a83 6bfe 3288 b6bf
000004e0: e8c5 fe0b 6fd2 9bbf 12a9 86c7 4ea2 70bf
000004f0: 3c58 e7a2 c168 a03f 10a2 c64a 3e90 91bf
00000500: 5fd7 5af7 7c6d b0bf 0dfb 69f5 ccad 923f
00000510: d38a 09bf 8ddf 81bf c329 ee7a 99cc 2d3f
00000520: aea5 daec cdde a3bf 7a44 2604 840d a13f
00000530: e683 5a7e fc06 abbf cc55 d190 724e 953f
00000540: 25bb 5f11 6ea5 8f3f f090 cbe8 4fa3 213f
00000550: 74b1 3af1 7622 9a3f b5c4 8744 ca79 80bf
00000560: 9266 3252 d404 b0bf cccb 5c53 0483 a6bf
00000570: e91f 6488 71df ad3f e30f 5e04 1d7c b73f
00000580: 1975 1d00 920c ae3f 857d 81c7 8272 a6bf
00000590: 972e 7825 0abf 9cbf 4bb7 2e02 c2f5 743f
000005a0: f4e3 828e bb41 97bf 1d80 ec67 c55f 9a3f
000005b0: db79 ffdf a817 89bf 1b41 021b 1471 a2bf
000005c0: 94cf d561 d431 5abf ad40 371d d8aa a4bf
000005d0: 889c 7be5 1cef b5bf 521d 275b 37bf a43f
000005e0: 9047 393e e747 70bf 2787 923e 25c9 a53f
000005f0: 8072 32d4 859b 97bf b0ab 8556 c981 90bf
00000600: 4192 3db4 eb36 b73f ef23 887c c5ae adbf
00000610: ab52 8277 b57b b0bf 55e2 89f7 0e7f 8dbf
00000620: 3a29 4ae5 98f3 ac3f ad0d da89 e1d1 663f
00000630: d3ca 4116 886f b7bf 0644 d83a 7fed 743f
00000640: 55bf 7f86 61b5 9bbf 6ecf ba07 d860 95bf
00000650: fa83 02a2 54f4 a73f 5278 b7be 6b99 aabf
00000660: 17bd 26f3 f503 a83f 6ac0 7f57 a466 663f
00000670: 0f79 ffef 536f 9ebf 9100 070c 2bca a53f
00000680: cdfc a5db d900 b63f 9af8 82e1 dce3 77bf
00000690: 23ca d9a5 3fa7 91bf 2176 da92 3ff1 ab3f
000006a0: 7568 8911 3188 a63f e703 e1d9 ca56 a43f
000006b0: 85e1 cc04 7177 893f cecc 8234 18a8 a53f
000006c0: 7bb1 3983 71c0 a2bf 0fe7 80ca 4343 a1bf
000006d0: 1c1e ce28 ae87 523f 6f87 0b1b 9a51 ac3f
000006e0: bd43 b306 e020 bebf 5679 d08f b882 b13f
000006f0: 7a90 1adf 78e9 acbf 0548 a933 efcd abbf
00000700: 8657 5f93 8522 a33f 0975 b285 a983 b73f
00000710: 8db8 0fc5 4caf a6bf fa44 dde4 fd50 88bf
00000720: 5ef0 a8dd 29ae a53f 208a 3a1f 8b13 adbf
00000730: fe6a a0b5 ee43 93bf 1bbc 7731 b116 51bf
00000740: 704b 8be0 62d1 813f 16eb 6fdf 431d 81bf
00000750: b2f0 5126 9a3c b1bf 1c3d d621 8596 b5bf
00000760: 3fbb bc51 0905 b03f c0ea f5fa db46 a8bf
00000770: 2a18 3a08 8b85 95bf ba00 56a3 ffed 8f3f
00000780: 0b1e d841 e7c4 b2bf 79b4 e0c8 5fc5 b13f
00000790: 927a 541b abf2 83bf feb5 db65 df2e a2bf
000007a0: bb21 fa7c c0b7 b2bf 0ead 461c b9db a03f
000007b0: 9964 83d6 cc63 afbf 203a 3ab3 6a9b b0bf
000007c0: 92e8 0250 73cd 93bf cc54 f7bf a112 a13f
000007d0: 2573 69d9 30a5 903f d5dd 0dac 6715 813f
000007e0: d5df 55f5 5185 663f 413f c027 2df1 a73f
000007f0: 993c 2336 9146 96bf 6408 1bce 689d b53f
-0.0028660761906694546 -0.05525328266235826 0.03247210828787507 -0.06225547053190118 0.041744091529015266 0.00935517021800429 -0.07447184160517667 -0.051255359588668566
0.012848462344237309 0.039593011622248805 -0.04810517340783132 0.04339578183752874 0.0020527880040683046 -0.038563063880913996 -0.008897719121446972 0.033687726771585894
-0.004677742139527039 0.009852306749142885 0.04733162328033811 0.0351882512896734 -0.05750509216723768 0.028303960458648185 -0.06653042587335879 -0.06932026621885472
-0.03204432863153612 -0.04988057385657978 0.05488880616977148 -0.07419839896054886 0.018983411810161638 -0.006770333942632913 -0.08450001910216386 0.023431902330510828
-0.0014491532605625903 -0.009887382264999512 0.04953427302527757 -0.006040576119345707 -0.0010187916302748135 -0.026940241476652905 0.0401513827780755 -0.08346798888114801
0.053418285890412 0.02851551201489032 -0.022445696749595387 -0.037041663668824866 -0.0037148156180350756 0.04130095382979939 -0.021637904819296852 0.030036578605058182
0.0475596297198773 0.03361799257685387 -0.04950013859166342 -0.05502836648442281 -0.009485373134881838 -0.07334783937862609 -0.0693250012134435 -0.05446547612490729
-0.005098752995079688 -0.09869936897671333 0.011218280803714068 0.01308963141434242 -0.06033943560072784 -0.09383129001938767 0.06356500942928131 0.04285368064727396
0.028076349484342396 -0.009417913300023052 -0.006805705115306663 -0.010957131137616807 -0.022252576605939878 -0.06633557372301163 -0.03443739550558506 0.005038608680878864
0.005972918529958646 -0.061425147605565215 0.009315899370194213 0.008411151106644626 0.007322082314745617 -0.011092809928110252 -0.04237519269247601 0.0521298115864699
0.04062831715705045 0.00203703932451171 -0.026806960516540315 -0.0005968843653783943 0.06832332045782948 -0.014685949400258323 -0.01878226164615972 0.06821968934269003
0.03624517560615769 -0.015200575353871652 -0.09108957323326455 -0.02704952741614093 -0.002875145033626051 -0.007770136749952557 0.021346539621963104 0.0842837310110891
-0.06429877610139663 0.004330931754031122 -0.08091386477017877 -0.06230669689205286 -0.041426015894597684 0.004687351649346515 0.05891777239147923 0.015206726871656443
-0.0416921693774726 -0.06788227312951978 0.04551810551501707 0.03932688583343253 -0.04431171989457561 -0.013158144936689141 -0.06871393107341475 0.04659651674895131
0.029585378966018348 0.03232050749795632 0.06153697915619328 -0.05646884872844919 -0.048160137670414147 -0.08071495387801657 0.02049694664014106 -0.056107818170836495
-0.07427696180324794 0.03702000843436361 0.03275905967335175 -0.05790560734515225 0.0839515204354638 0.06404444680073008 -0.0204706205520592 0.048088929518804786
-0.03526160196579946 -0.015097550515110546 0.0193534440389039 0.05579871641308799 -0.020497907953431916 0.04802255105026317 -0.0390359302151501 0.06187491026010742
0.06369886144677833 0.0628434766174908 0.04364874676486968 -0.051422663261578884 0.03799470737191962 0.08587023594946472 0.03932611844106887 0.053363061988552216
-0.03773290802476704 -0.053332383129284955 0.024875630686747127 -0.0802649792310536 -0.024044948154257652 -0.00047241369624455233 0.027733410998777446 -0.0026796646347786524
-0.04782680828195164 0.006859860641908582 0.0009432850117003497 -0.0880157347815044 -0.027169928652886727 -0.004061038715386782 0.032049227843956335 -0.017151807130774854
-0.0641706565755533 0.018241121748810808 -0.008727176086897803 0.00022734998261981888 -0.03880923763547216 0.03330624151852475 -0.05278767626192131 0.02080706604859532
0.0154522513439282 0.00013456678825386021 0.025522097085443687 -0.00804479619634644 -0.0625736904788943 -0.043968329597553785 0.05834536352091375 0.09173756939532
0.058689653886839284 -0.04384239850400732 -0.02807250837035599 0.00511718544559676 -0.022711687634657765 0.025755962818152612 -0.012252158485293421 -0.03601897077271784
-0.0015987943691841743 -0.04036593777311857 -0.08567982294663257 0.04052136409478159 -0.0039748223239984976 0.04255024327109274 -0.02305420978210515 -0.016120096116917615
0.09068177366641185 -0.05797402520335725 -0.06438764732076645 -0.014402501038817276 0.056545999516929915 0.002785625939226674 -0.09154558699973885 0.005109307281160552
-0.027059100946586884 -0.020877242538247236 0.046785969521131635 -0.05195175841412038 0.04690521805911823 0.0027344903755804244 -0.02972155716258223 0.04255804559534327
0.08595048534879197 -0.005832541290315652 -0.01723956537029826 0.05457495372432342 0.04400781001159341 0.03972467336325974 0.012434847792619727 0.042298084650065
-0.03662447668907284 -0.03371631476370684 0.0011309815192549538 0.055310073663135444 -0.11768913425045376 0.06840089331715168 -0.056468751177164614 -0.05430552964811856
0.03737275527934884 0.091852755680936 -0.04430618196043765 -0.011873229548344789 0.04234438734826605 -0.05678972965440132 -0.018813829265222452 -0.0010430078890484365
0.008700153806250305 -0.008356600052129386 -0.06733096538113406 -0.08432800365539034 0.06257684941804785 -0.04741561354145096 -0.021017238976604492 0.015590665027730533
-0.07331700665974254 0.06941794065706287 -0.009740196963830248 -0.035513859924190413 -0.0731163315887277 0.032926354123754206 -0.06130828970499031 -0.0648714721266761
-0.019338418730264602 0.03334527462326661 0.016255152959604353 0.008341607988525826 0.0027491188763484145 0.0467619048141601 -0.021753567628192447 0.0844331267535679

encoder.1.0.bias f8 [64]
00000000: 16a5 fc7f 1b5c 9e3f 4488 0e00 4c15 ae3f
00000010: be9f 3f40 e5fe a13f 50a1 d2ff b115 81bf
00000020: fbce 0000 3a63 aa3f e09e 0080 5e27 ac3f
00000030: ba44 f53f 278f aebf 932e 1620 bdb1 aabf
00000040: 43a3 0600 7749 b0bf d15b fa7f 09c3 b03f
00000050: 3b2c fcff 621c 8e3f 95de 0200 9020 9dbf
00000060: b182 7100 4669 833f 61e9 0800 bb5e a53f
00000070: 951c 0180 7113 a83f 0390 0e00 0cc3 873f
00000080: b0aa 0300 9e65 b0bf a04e 0840 0e15 b03f
00000090: 6c60 fe3f a46c b13f b26c f23f 582f a63f
000000a0: 25ef 1a00 d84f 603f a6b3 3280 0a0d 913f
000000b0: 75a8 fd7f 9ae8 adbf f915 12c0 fb42 a63f
000000c0: 33c9 fb7f e07f ae3f 0efd 2c00 4a6e 7abf
000000d0: 64c6 3800 b32f 8c3f ee79 e0ff 071c 7b3f
000000e0: 4884 14c0 d629 a63f 65c3 0aa0 8440 adbf
000000f0: 28a7 3d80 94f4 933f cea1 ef1f 9c46 a7bf
00000100: 0c50 0040 7846 a63f 828c 90ff 4ada 84bf
00000110: 05d3 9f00 a824 753f 64e9 0400 423f b23f
00000120: 7431 fe7f 266e adbf dbda d1ff a7a0 7d3f
00000130: 1c9f 0540 13d4 9dbf 7e2a fd7f 123c 97bf
00000140: d50a ec5f 4ec4 a8bf df38 03c0 4736 b0bf
00000150: 23db 0140 f850 abbf 51dd 0700 fa90 aabf
00000160: becb d5bf bb35 aa3f fbe1 2800 c4eb 95bf
00000170: 3567 faff 4717 99bf f098 10c0 8c8d 93bf
00000180: df4d f9df f49c afbf 8413 e9ff 86c3 813f
00000190: e41b 1380 aab7 933f 8f78 e13f adac adbf
000001a0: e0e7 0b80 e561 b03f 9c4e e97f df8d 9abf
000001b0: efb7 e97f 3663 89bf 0e35 d77f 16b9 9c3f
000001c0: 6e2b 0000 c807 acbf 1036 1e80 1b35 9e3f
000001d0: 3445 1cc0 402c 9dbf 07f8 fc7f af2c b13f
000001e0: fb22 fe3f ca6e 90bf b5f3 0e00 2c65 943f
000001f0: dbdc f9ff 42fa 893f b831 0c00 f34e ab3f
0.029648236929607462 0.058756232268266234 0.03514782342227772 -0.008342161769477358 0.05153828859365991 0.054987862706466606 -0.05968592315424233 -0.05213728920634
-0.06362098456032776 0.0654760301061821 0.01470258086876274 -0.028444528580364354 0.009478136909991748 0.04173836112427654 0.04702334106019027 0.01160249114202117
-0.0640505552325219 0.06282128394405584 0.06806398928017793 0.04332996159174608 0.0019911974676157956 0.016651310038173904 -0.0584152489889939 0.043479792781948086
0.05956937372492845 -0.0064528360988440735 0.013762854046123603 0.006618529556389847 0.04328795523384393 -0.05713285878790123 0.019487686469268045 -0.045460585497327
0.04350639134659681 -0.010181985782827366 0.005161911258245726 0.07127773762195982 -0.05748100578702778 0.007233291861772097 -0.029129315168943667 -0.022690095006775206
-0.04837269707606643 -0.06332825124556817 -0.05335212498987676 -0.05188733339667329 0.05119120327699232 -0.021407186994311527 -0.024502873419442756 -0.019094657156664974
-0.06174435838752478 0.008673720059172892 0.019255317751937798 -0.057958044097845655 0.06399378181586668 -0.025931827718820175 -0.012396264818757856 0.028049804260992288
-0.054746866226273436 0.029499463743880183 -0.02848912403630273 0.06708809733115127 -0.016047630458646527 0.01991719007832034 0.01268436759640539 0.053336709743322996

encoder.1.1.weight f8 [64]
00000000: 4dd9 d744 8dbe ef3f 29f0 6c9f e754 ef3f
00000010: 7bea b52d 2b11 ef3f a8c1 2467 f53e ef3f
00000020: e57e ff81 b1ae ef3f df1f 72c6 5100 f03f
00000030: 6e8f d82c a057 ef3f 0ab3 bcfe 7486 f03f
00000040: def9 8fdc f2e3 ef3f 083d 893b 6322 f03f
00000050: 000a 756c 86f6 ef3f 7a7b abc1 7e2b ee3f
00000060: 994d abdf ab9c ef3f 8b29 9ab2 ea7e ee3f
00000070: a7fd 8770 09be ee3f 1d5d 6adf e87d ee3f
00000080: dc7e b08c 23f6 ee3f de95 1e39 b51f f03f
00000090: 13c1 4fee ea29 f03f e58a 84cb 7c2f f03f
000000a0: 376e 0b45 ff7f ef3f 7c10 a7d8 c63f f03f
000000b0: 5cd7 2be6 98cd ef3f 24be 907c 9584 ef3f
000000c0: f64b 630f 6e87 f03f c32a 87ed 262e f03f
000000d0: 0c52 fa57 5116 f03f b126 6e52 c4db f03f
000000e0: dadd c9c7 33ea ee3f df22 eedf de56 ef3f
000000f0: 4b0c 533b a530 f03f e1b6 c6ef 0955 f03f
00000100: 2136 d5ea 730e ef3f 5dbd 93f6 862c ef3f
00000110: d166 b1a7 fdeb ef3f 8021 8ecc 5a13 f03f
00000120: 9088 d88a 76e6 ef3f a46e 0dd5 a32b f03f
00000130: 734d c720 7d0c f03f bf48 1ce5 a615 f03f
00000140: 332b 3175 60b9 ef3f 746c 8229 715b ef3f
00000150: dd7a b951 d271 f03f 905a 7cd7 3cce ef3f
00000160: ef33 8415 945c f03f 69f1 be4f c06e f03f
00000170: 8fc5 5f43 7e8b f03f b9bb af55 35b5 f03f
00000180: 1503 b3a2 3d10 f13f a9da 9636 1d46 f03f
00000190: 234d c419 635f ef3f dcbd 4446 0d8d ef3f
000001a0: d550 40fc f65b f03f 50b2 f252 db56 ef3f
000001b0: b803 d5c7 ee61 f03f 0c94 3ec5 ace7 f03f
000001c0: 0dbe f198 d5ea ef3f d29f 49ac 6201 f03f
000001d0: f6c5 32d2 3ed9 ef3f 09ee 47a6 d7a7 ef3f
000001e0: 1250 d088 e3a6 f03f fc96 5229 db34 f03f
000001f0: 4c44 b81c 483b ef3f d0a4 ed94 5d67 f03f
0.9920107216446837 0.9791143525867528 0.9708457844529471 0.9764353765986487 0.990074876692202 1.000077986887838 0.9794464946648824 1.0328264189403762
0.9965757663592816 1.0083954167965334 0.9988433950714466 0.9428094656576456 0.9878749245203152 0.9529927719425343 0.960697860515144 0.9528698314269693
0.9675462482300321 1.007741187212893 1.0102338131947064 1.011593623152913 0.9843746517685251 1.0155704939834598 0.9938473220379183 0.9849345620077128
1.0330639458741167 1.0112675932347635 1.0054486691125275 1.0536540241177301 0.9660891439552259 0.9793543218266584 1.0118763272628424 1.0207614294299037
0.9705142580584757 0.9741854492148537 0.997557475591032 1.0047252645909737 0.9968826972801867 1.0106542894708719 1.003049018899074 1.0052861165645905
0.9913790024669197 0.979912358353785 1.0277884666790478 0.993925495977992 1.0226021614537293 1.02703887129527 1.034055960826979 1.0442403170707009
1.0664650302352972 1.0171177036660686 0.9803939345605709 0.9859682438308783 1.0224523404659085 0.9793526287153984 1.0239093595448434 1.056561251150245
0.9974163043206673 1.0003382425293137 0.9952692132412142 0.9892385718989668 1.0407443374906546 1.0129043211140347 0.9759865342076721 1.0252357308875624

encoder.1.1.bias f8 [64]
00000000: 1af6 7c97 db9e 963f a711 505b 04e0 933f
00000010: e9ee bb57 25cf 5e3f b990 e130 bdbe 96bf
00000020: a9c4 040a e819 93bf 138c cf99 a58b a23f
00000030: e9b7 033e f714 983f 5235 a887 bbd3 a53f
00000040: 87dc fc21 dc28 873f ea7c ed85 e704 9ebf
00000050: 0158 037e ee73 993f e277 0dca 7258 80bf
00000060: bcde 3aa8 9b61 9ebf b5bb c290 c817 9abf
00000070: a0b0 491a 2ada a5bf c3e2 a905 a6e4 9abf
00000080: 6e25 3347 3994 86bf bcd8 625f ff82 a83f
00000090: 537b 588f 1418 93bf 181b ce8b 001d 9c3f
000000a0: 57fe c4c7 13bf 903f 41fe 2659 67dd a9bf
000000b0: 234e befc b432 a33f 4d5d fda8 8c07 98bf
000000c0: 1e57 be28 5dab aabf 3ba8 6068 fa4e a7bf
000000d0: f777 8f01 7cca a43f b9c2 2ad3 4067 9e3f
000000e0: a789 8e8b 93de 9bbf 9152 b12c 5698 97bf
000000f0: 7ac6 ac91 ba80 9f3f fa55 92ca 1af6 70bf
00000100: 4d40 c7b0 6f64 93bf 15dd 0de8 6562 a3bf
00000110: c3eb 2f23 5d4c 813f dcd1 ff23 75e9 91bf
00000120: 1eed dd87 7fd2 a8bf 44aa ba43 9c46 a33f
00000130: 4ba1 ce2a a1b3 973f 7d45 9f4f cc8c a73f
00000140: 7b4a 4c0d f9eb a9bf b42f 6281 edc5 433f
00000150: dfd7 a6ab 3a22 a93f a85c 78c3 2d0d 7b3f
00000160: 0743 1936 a028 a43f d232 6732 ed60 94bf
00000170: 3a10 7303 2810 a33f ea6c db83 4305 733f
00000180: c506 155c 5bda 84bf 6c08 ed6b f10d a23f
00000190: 97ea 73a0 f831 82bf f9d6 b2a8 b139 aabf
000001a0: e3b8 8370 32de a03f f5a9 07ff 2d6e a9bf
000001b0: 70cd 7a8b e53d 9bbf 08e7 40eb 407a 993f
000001c0: f1a1 b371 7c8e 803f 3af6 dd58 5419 983f
000001d0: 4f23 2dc0 e4d5 a1bf 34a8 dd7c 0d3e a9bf
000001e0: 88ee 4d8a 377f a13f 5d99 5093 caf5 993f
000001f0: 9933 d2f2 3dc4 92bf a6ba e22c d5a4 953f
0.02209036934003992 0.01940924460724749 0.0018804421114841324 -0.022211986645189728 -0.01865351258419837 0.03622167112896348 0.023517478141847823 0.042631016072940967
0.011308402812217245 -0.029315583752915687 0.02485630649683657 -0.007981201926380469 -0.029669220107023206 -0.025481351695528526 -0.042680087765661456 -0.02626284989898654
-0.011024901852936888 0.047874431985677174 -0.018646546601412805 0.027454384358431033 0.01635390192791272 -0.05051730120930787 0.03749623856779418 -0.023466298879921955
-0.05208865282399543 -0.04552443050518248 0.04060733336494587 0.029690754784214877 -0.027216248886938434 -0.023042055585693225 0.030764498845377443 -0.004140953687188803
-0.01893782154530781 -0.03786009271328276 0.00844643367417131 -0.017492132494185117 -0.04848097356349455 0.037648089664192 0.023146169889203077 0.04599607917738078
-0.05062845504121057 0.0006034288114888848 0.04908927293165254 0.006604365123641966 0.03937245045074716 -0.019900995446550614 0.03723263780696624 0.004643691759805816
-0.010182107684730277 0.0352626270528312 -0.008884374996786888 -0.051221420138444836 0.03294522880047326 -0.04966872919233715 -0.026603304517903437 0.024880422934280083
0.008084270687008096 0.023534124301923344 -0.03483500333692879 -0.0493015494274264 0.03417371333395375 0.025351681939491544 -0.018326728768943566 0.021136599411586098

encoder.1.1.running_mean f8 [64]
00000000: d825 6c7f 0530 dcbf 91d3 e6ad 82d9 bc3f
00000010: 311b 1635 ac11 e13f fe6b 36b5 af1c f23f
00000020: dc8c 4238 d9fc e73f 1900 06e5 ee2d d5bf
00000030: 62d1 3332 a2ea f53f 0cfb ea10 891b e4bf
00000040: 1b6e 02b6 f570 d33f b298 b43b 7031 eb3f
00000050: 0907 5e28 7b6d edbf 9864 5697 5b3b d1bf
00000060: b9af 5bf2 ea1e e13f d61d 06f3 3d5b cd3f
00000070: 98a9 2a67 6be6 e9bf afc0 3a0c 590d d23f
00000080: 810d d2aa 1546 e5bf c117 76ff e032 b9bf
00000090: 0895 82f1 dd42 fabf 63b7 908e e344 e3bf
000000a0: 35d0 db91 8925 e4bf 2fc8 1240 2f86 f33f
000000b0: 4e91 334b 4be6 f8bf 2fcc 1497 fdf7 b83f
000000c0: 8570 775a 7da9 a7bf 1dd8 3f1c 8275 e0bf
000000d0: dd5b 935d cf92 bbbf de5c 4b46 0e41 fcbf
000000e0: 000f 6d33 db66 d33f 2d62 968b 200d f63f
000000f0: 8e3e c86b 9d93 e0bf d36a d3bb 4ebb f5bf
00000100: 1b1f fe03 89fc d03f e44b 58a5 a858 ea3f
00000110: d19b 8028 a3be ecbf ee52 1bcb 9c72 cb3f
00000120: f0e0 cf51 48ec f23f 6e62 288a ff3b c7bf
00000130: 92d3 e446 4d61 e7bf 4c86 ae07 a1ab e13f
00000140: af0f 935a 643f f23f b0a1 7978 9f5b f4bf
00000150: a749 376d f2b1 dbbf e6d8 6dc9 74dc f23f
00000160: 0c8f 41c7 ce6e d9bf 5cce 335b 3c9f f33f
00000170: 53b4 8ef4 a66d f0bf 31b3 33c9 8d85 fabf
00000180: 9849 9fed 5388 ffbf dec1 1819 69d2 d5bf
00000190: 13e7 3f2c c292 eabf 83ca 76c8 f36b ed3f
000001a0: 22dd 3974 5801 d3bf 5ac5 743a 91f8 f33f
000001b0: 71d5 8fbb 9490 e43f 48d7 c047 43f4 e3bf
000001c0: a7e7 eb0e f6e3 e6bf 55a0 6cca 6c19 f0bf
000001d0: 5b9a 268e eb3f f33f ae32 0034 c94f c63f
000001e0: eeac a231 79de eabf e4be c6f8 0fea d4bf
000001f0: 0d14 33fb 7f5c e33f 39dc 5afc 5a36 d6bf
-0.440430998264302 0.11269394632002007 0.5334073101847477 1.1320035055748572 0.7496152972056751 -0.330928538947775 1.3697835885078224 -0.6283612566402055
0.3037695195614291 0.8497849622842948 -0.9196143902229049 -0.2692479112534527 0.5350241406972521 0.22934698454285635 -0.8093773856137885 0.2820646876744019
-0.6648052536333325 -0.09843260037277358 -1.6413249429691081 -0.6021592888334734 -0.6295821999360728 1.2202599051347638 -1.5562241494709101 0.09753403604990817
-0.046214978497773486 -0.5143442680116582 -0.10770889315186545 -1.765882753932423 0.3031528475005274 1.3782048657068444 -0.5180194001313383 -1.3582293831774919
0.2654135264387933 0.823322604121469 -0.8982711592733442 0.2144351951343632 1.182686156824328 -0.18151849981292706 -0.7306276688237736 0.5522008085283203
1.1404765642227905 -1.272368879896117 -0.4327360216676887 1.1788223141025411 -0.3973881669864887 1.2263759195892794 -1.0267705491089785 -1.6576059207392968
-1.9707831651800003 -0.34096744013643654 -0.8304148544550308 0.9194277682602919 -0.29695712423513687 1.2481853755419565 0.6426490462605853 -0.6235672379905077
-0.715327290671884 -1.0062072665405328 1.2031055023923247 0.17430987395382175 -0.839657399124375 -0.32678603453221755 0.605041494964668 -0.3470675911334556

encoder.1.1.running_var f8 [64]
00000000: ccd8 fdab 17d6 fa3f 7b2c 8154 8296 f43f
00000010: 70c1 3bbc 2862 d43f 0e96 255a 4af0 ec3f
00000020: 86ee 559c 9095 f13f e382 b035 60af 0340
00000030: 2cb7 ff1e 104f e73f 7c2d b2be 53f2 f63f
00000040: 5f25 7142 38f5 db3f 504f 6e48 d2db e93f
00000050: 3302 eba2 c346 0440 be47 fef3 9b94 fb3f
00000060: 1227 8675 c4d1 e43f 4d2c 5e22 72b8 dc3f
00000070: 89a6 16b3 e5fe f33f 8d65 1fc3 3c9c ea3f
00000080: 7001 c8e6 701f e03f 0aad eb10 ced2 fe3f
00000090: 3202 8cbd 68c4 0440 2992 e7e9 6c22 d73f
000000a0: fee6 421f 35fc e53f 9956 aed6 5961 e43f
000000b0: ba96 685a 7e52 fb3f ce7f 94cd 99ad e33f
000000c0: ee9d fe78 f17e d13f d026 006e f59e e93f
000000d0: 3d10 ea8c 7a68 f83f a361 3aba 830b fa3f
000000e0: bac2 4b0a 6c0b e63f ac7e 89f7 c3eb f13f
000000f0: a901 e3fc 5eca f73f 8f6d 735d 8901 f93f
00000100: 05ed ea0b 0e5d e83f 3c82 2419 47f7 ea3f
00000110: 1bc1 6727 394c e23f 48cf 5f57 4f55 e83f
00000120: 3c98 3286 2ccc d93f 0403 9dec cee0 0140
00000130: aa45 7109 7b4d f33f 5842 f8c4 4c9c 0340
00000140: 3e67 d91a db8b f63f 13f0 c599 b970 f33f
00000150: 4b23 7a3d 9c53 ef3f 1ba1 7b9d ab5d f13f
00000160: 98a2 d612 9aec fa3f 3aef fdf6 e9d6 ea3f
00000170: f7c4 b3e3 aa56 fc3f 46d1 f967 e066 0240
00000180: 5711 2fb0 f02a 0740 4deb cf65 8cac f13f
00000190: cb07 c7e5 64cb f73f 3040 3eb0 9e9c ed3f
000001a0: ff84 d7c5 694e 0840 9e9b 1ded 662f fc3f
000001b0: ee42 ce44 77c6 ea3f 9392 6c8c bec2 d23f
000001c0: 4dd3 7bff 132f f73f b0c9 82a1 bd99 f63f
000001d0: d368 7e91 46a7 e23f e83d c155 4f8e e73f
000001e0: 5fa6 eb5f 5fb1 d83f bdcd 82d6 a02f f13f
000001f0: 2218 8210 1770 f63f 3d12 c688 003d f13f
1.6772686689778764 1.2867453862152434 0.31849115736169775 0.9043323288612457 1.0990148646223203 2.460632724236676 0.728401241821961 1.4341618966162448
0.4368420266005923 0.8080836691537829 2.5345528343171053 1.72378154096485 0.650606374301079 0.4487576804755847 1.249730777325029 0.8315719424237372
0.5038380153128355 1.9264660511933607 2.595902901492331 0.361476162359653 0.6870370493481628 0.6368836586941199 1.707640031011961 0.6149415030704348
0.27337300125006336 0.8006541393708293 1.5255074982133146 1.6278111719640058 0.6888942910282687 1.1200599355142158 1.4869069937122765 1.5628751421380433
0.7613592369811221 0.8426852694574971 0.5718045968660904 0.7604138094452333 0.4030867872737678 2.2347696767250245 1.206416165241857 2.451318301035183
1.409144501571475 1.2150207525983248 0.9789563370442037 1.0853687431027257 1.6827641235233042 0.8387346099911845 1.7711590666406758 2.300232708274197
2.8959668888439114 1.1046260811842388 1.487156770294393 0.925368637299476 3.0382876831432664 1.7615727674799255 0.8367267936574458 0.2931362506226744
1.4489936809379345 1.4125343617457524 0.5829193917918708 0.736121814241355 0.38582596175419853 1.0741279963811927 1.402365746007043 1.0773930876467965
