models/matching_nets/AWF_n=1_k=5_q=15_nv=1_kv=5_qv=1_dist=cosine_fce=None.pth (torch, 316367 bytes, 24 tensors)

encoder.0.0.weight f8 [64, 1, 3]
00000000: 9c44 9ca9 458f e13f 33c9 ab70 700b d83f
00000010: f9b7 a1da b0fe a2bf a9a1 a2f6 bc4c 893f
00000020: 5d7b f4ff f08f b53f 204b 8caf 9eec be3f
00000030: c0aa 434d 0485 8c3f cde5 7828 5498 ac3f
00000040: 4b65 ece7 375a dc3f 7f68 ea79 6c8c d4bf
00000050: c421 880b eec7 dd3f 07e7 1ba9 d01c cf3f
00000060: 83ef 620b f030 e0bf 706a 8b8b 8b34 debf
00000070: b8b9 de94 638a c13f 95b2 5585 42f3 a4bf
00000080: e3a8 b812 6f9e aabf 3244 8cf7 9a28 d13f
00000090: 6b06 5344 6ca6 c4bf efb7 fefa d3fc bfbf
000000a0: ae56 cdb5 fae3 ddbf bbe7 8743 ce10 d6bf
000000b0: c1d5 1523 eb8f d23f 784b 7e96 8c9a cabf
000000c0: 543f bc47 4bef e23f b4a5 6379 232c c93f
000000d0: b4d6 7841 c08f c43f 458f 3e9c 71d6 dbbf
000000e0: 5036 c503 8d64 d4bf 645d 390c cb78 d33f
000000f0: ceee 9a21 66e1 cdbf d429 e7d7 ffce d9bf
00000100: 1cb7 72fd dda1 dc3f 2621 f188 593b d73f
00000110: 98bd 041d d871 c9bf 2557 e48e 65a9 e03f
00000120: 7831 3ecd 7e58 e0bf 79f7 c436 4293 d2bf
00000130: 2573 de1e 7612 da3f e2fc 7148 da10 dc3f
00000140: b427 c6e1 d93d e2bf d819 b897 d83b a2bf
00000150: a5e5 7c54 db1e c53f fd37 b825 c23b d63f
00000160: ce46 9063 b9f8 cbbf 0206 bc62 1e85 dbbf
00000170: aa82 4aa1 5557 a93f a7ed 4458 3148 df3f
00000180: c5aa fb2c db6a e2bf d909 4d11 310d c13f
00000190: 2eef a49f bc23 da3f 03f9 4d2b 3b3a e13f
000001a0: 67e3 797e 6f8f e1bf 55d6 c986 c564 e33f
000001b0: 6087 b6b5 c797 d73f f0da 2861 30d5 c6bf
000001c0: fc3f d4ca 6841 d4bf bed1 36fc 700e dfbf
000001d0: d49b a483 f05d d7bf 74ba b2a7 6978 d5bf
000001e0: 721c bcf8 a941 cabf 11a8 28f8 2205 c6bf
000001f0: 3b6e 2bbc 38d3 cf3f 54c7 dff7 be64 cd3f
00000200: 61d8 1e70 7d0a 99bf 8d09 9fec 4070 a8bf
00000210: d14d 481f f632 d23f 4b96 0f0c 8ae9 dcbf
00000220: d8e1 c862 6ac5 dabf 9bb2 1c4f 409e d5bf
00000230: 2dbd bc12 3c40 e3bf cfc7 7389 d0d9 bbbf
00000240: 8ed7 36da ead0 a0bf f7ba d102 1f25 b7bf
00000250: 3cd8 9698 d641 e33f 9cee 757a dd2e e1bf
00000260: 47a2 37c7 996c d9bf 17ab 84b8 4f45 e03f
00000270: c523 ed3c 28b3 b6bf 4388 469a 6a90 dc3f
00000280: 7804 d9ff 57bb bf3f 6d26 20da 1897 db3f
00000290: 5881 a4b8 0bea d2bf 850f 9ca0 8142 da3f
000002a0: 7b58 a9ff ed09 c33f 62d7 b803 f942 debf
000002b0: 5d47 93ff 5fd6 79bf 08d0 1791 6c22 af3f
000002c0: d337 ea63 cbb7 d6bf cf85 23c6 6ae5 debf
000002d0: cad9 cd57 bd26 d6bf 3b51 501a 8a93 db3f
000002e0: 5e23 2676 60fa dabf 1839 cd91 4e70 e33f
000002f0: 5211 85af 3b71 de3f f0d2 8e21 ecb5 d83f
00000300: 0ca5 5556 bd36 dd3f 58dd d391 6139 d9bf
00000310: 1230 a62c 5437 d23f 7dca 2d64 237f 963f
00000320: cfc4 6f83 367c bdbf 8021 8a5c 30bf b2bf
00000330: 1981 d770 6f79 d2bf ea0e f1fb 0ac6 d6bf
00000340: c78e a912 e586 a0bf 1688 6d86 6a58 d8bf
00000350: 3c17 fd19 a4b5 d0bf 8fa9 d268 037e d03f
00000360: 598e cad4 a23d c13f 0e1a 477e 576e dc3f
00000370: 617a caa7 01cf cebf 74e2 66f7 e82c c83f
00000380: 72c1 71a2 46fd 77bf c5a9 aa5f e1b4 e03f
00000390: 9e54 d539 6578 e13f 6a2e f4e9 4c83 c0bf
000003a0: 118c 9ec3 f675 a83f 46ca 10c2 9dd9 d4bf
000003b0: cd41 946b f2a3 e03f c106 67d2 dda2 c0bf
000003c0: ca51 9ef6 acfa bbbf 7c4f d167 b78d e23f
000003d0: 1e90 e45b fe09 bd3f dffe 0ba2 2b5d ca3f
000003e0: cf9b 9bc8 0abd dd3f 23d4 567c b176 e23f
000003f0: e6f4 57d2 6233 d8bf 8181 cb0c 97a1 bfbf
00000400: bb64 c258 d827 babf 8813 0481 ae3f c1bf
00000410: 6cb9 7b4d 700a d7bf a5cb 9a66 8c7f c7bf
00000420: 8f86 fea6 87df d5bf 408f cd15 ae7d ca3f
00000430: 4428 934d b89e bdbf 5ad5 e058 435e d63f
00000440: 15d5 eead 049c c03f d0ac 0216 da3d ccbf
00000450: ac9d db0e 17a5 e23f ae2e afbb 122e dd3f
00000460: bdd0 680b 1601 c0bf ba64 79a3 51e1 cf3f
00000470: a98a c3ab f1e7 dfbf fcd9 ca01 69db e0bf
00000480: f5f2 34ed 5b27 dbbf bd2c 8910 b743 dc3f
00000490: 8778 f0f3 0532 c93f 0e74 2dd3 dc30 c8bf
000004a0: 64cb 6824 992b d9bf 9aa0 f56a a977 c9bf
000004b0: fae0 2de3 9370 d03f 2254 250f 73cd d9bf
000004c0: ba0c 464d 2306 bc3f 2c1f c24b 73cd e1bf
000004d0: 3e2c d8f7 58fe dd3f 62d3 aef5 66c6 e1bf
000004e0: 6737 cde9 bac3 cd3f a3ef 7e05 3ca7 dbbf
000004f0: d473 ebc6 5a3a a13f 2649 a42a 202b c73f
00000500: 65fd 50d4 7b12 cebf 6c8e f54c 5e0f d8bf
00000510: 015d fb46 958b e03f 41db 4734 177f b53f
00000520: 3334 acfa a529 9e3f c2e3 39eb b043 b23f
00000530: 49c5 92c1 9f75 c93f b6b0 04f5 8626 d0bf
00000540: ad46 e79d d848 d0bf 7c6b cb38 0da0 b03f
00000550: e1c2 00f7 97d2 df3f a76f a12a f97a dd3f
00000560: a652 da8e 81ac be3f 29fe 69d7 0930 d0bf
00000570: dc41 4a84 1c86 b83f 352e 5b73 1cf0 863f
00000580: d3aa ce50 a66d d13f c5cb cfd0 95ee d53f
00000590: 6722 1b9f 4bc1 c2bf 4a03 33dc 17dd d73f
000005a0: 0745 8af3 500c ddbf 1572 2c37 a7a6 d3bf
000005b0: a96e dda9 2f44 dabf 4e70 bc1c 0ab9 bcbf
000005c0: 6688 cfd6 82bd cf3f ab5a c45d f794 d8bf
000005d0: 0454 880e 56bd e13f bbf2 6284 202d c83f
000005e0: 00c9 d333 695e e1bf 21bb 2f1f 18c8 e13f
000005f0: 0fe0 2503 1efa c8bf 0d64 0f30 b096 de3f
0.5487392723754456 0.3756981945326913 -0.03709938687175902 0.012353397633277323 0.08422762154485271 0.12079803262558331 0.013925584419174242 0.05584967607542133
0.4430064930798678 -0.3210707846243465 0.46532775045536945 0.24306686646723838 -0.5059738371269166 -0.4719570982685246 0.1370357968239213 -0.04091842534657989
-0.05199000457317184 0.2681033532581437 -0.16132882438801074 -0.12495159986312364 -0.46703975442992884 -0.34477573962032765 0.29003408838556416 -0.2078414664107091
0.5917107010918508 0.19665950228890738 0.1606369323432567 -0.4349636102508508 -0.3186371361560747 0.30424762910612047 -0.23344113007430284 -0.40325924000049196
0.44737958670417455 0.36299742100938415 -0.1987867490474684 0.5206783095224848 -0.5108026512767045 -0.2902379546029504 0.4073767949537788 0.4385286052201548
-0.5700501832627567 -0.03561283924141251 0.16500417352089616 0.3473973625522147 -0.2185279594564719 -0.42999992029226075 0.04949443429837193 0.48878129596752234
-0.575543964250152 0.13321507782718703 0.40843120184193793 0.5383582921784015 -0.5487592191922034 0.6060512192331752 0.36863892312441315 -0.17838101142998353
-0.3164922695877974 -0.48525642996107965 -0.3651086125923346 -0.3354744088818855 -0.20512890477423046 -0.17203175656442274 0.24863347232791164 0.22963702300290356
-0.024454078644076897 -0.04773142708247056 0.2843604379169991 -0.4517541044027424 -0.41829929015105227 -0.33778388715544744 -0.6015911451303616 -0.10879233699577572
-0.03284391320941814 -0.09041017359571045 0.6017868976839575 -0.5369708434877398 -0.3972534604531898 0.5084608653899946 -0.08867122161349446 0.44631447854965617
0.12395238872797332 0.4310972337849311 -0.29553502112869046 0.4103092258885613 0.1487405298564147 -0.4728376900051129 -0.006307959550399503 0.06080950995593076
-0.35496792561832285 -0.48275250768173533 -0.3461144788228948 0.4308800942392456 -0.42153178728090335 0.6074593398750805 0.47566120281796487 0.3861036613191535
0.45646603995426527 -0.3941272663209552 0.2846270023371754 0.021969368924553912 -0.1151765890970353 -0.07322981127993522 -0.28866182346065866 -0.3558375797622221
-0.032279165771596 -0.38039649131508335 -0.26108648813202584 0.2576912425671702 0.13469348325917244 0.444234727209193 -0.24069233601490495 0.1888705451981597
-0.0058567771112482 0.5220801228036228 0.545946705775936 -0.129006971583624 0.04777499330455027 -0.32578224136083056 0.520013055911528 -0.12997029088551496
-0.10929375668485544 0.5797993686378358 0.11343374007680082 0.20596833622402408 0.4646632155476568 0.5769889286517621 -0.378136353887227 -0.12355941831947882
-0.10217048804260546 -0.13475590991597763 -0.360012126605304 -0.18357996950143476 -0.3417681818774349 0.20696044983480455 -0.115703123988312 0.34950336150662553
0.12976130001849442 -0.22063757014016128 0.5826525964920868 0.45593708351655493 -0.12503314549542735 0.24906368715418187 -0.4985317399388501 -0.5267834696776954
-0.42427728810052595 0.44163300146892565 0.19683908854580442 -0.18899116813091194 -0.3932860236702054 -0.19896428797369908 0.2568711966082585 -0.4031646392734861
0.10946865688861154 -0.5563293914465013 0.468649141345569 -0.5554690168852228 0.23253570953459787 -0.43208218132689974 0.033648335249132494 0.1810035904132487
-0.23493907801637728 -0.37593801036402996 0.5170389543881414 0.08397049929031387 0.029455750870557473 0.07134538405251958 0.19890210105726627 -0.2523515122181935
-0.2544461767221076 0.06494219433390741 0.49722861405738966 0.4606306949915457 0.1198197339784409 -0.25293203388716506 0.09579637746561026 0.011200163145438239
0.272317484773038 0.342687086026839 -0.14652390736434315 0.3728694582351194 -0.45387672217573577 -0.30704670322464384 -0.4104117544972988 -0.11219847871365227
0.24797091950228206 -0.38409217984136984 0.5543623241270557 0.18887716736016621 -0.5427747738124538 0.555675564681085 -0.19513297227581503 0.47794727986689695

encoder.0.0.bias f8 [64]
00000000: 328d 0400 f2a7 d73f 1d7c f03f e30c c5bf
00000010: 1f84 fc7f 83c8 d53f 9039 f7ff 2d20 c03f
00000020: 4f12 ffff 9c44 dcbf c294 d4ff 4774 c83f
00000030: b3dc ffff 0773 ca3f 5037 1f00 e83e d83f
00000040: cf69 d8ff dcea b7bf ada3 eb7f fa38 c23f
00000050: 72f5 2b80 64ad cb3f 78b4 1600 b72d cb3f
00000060: 1797 1220 4bf0 dcbf 7439 1b40 5b13 ccbf
00000070: 1723 d03f 89e5 d3bf 01bb f77f cb04 d03f
00000080: 0bda f0ff 58bf b2bf c1eb 0000 ec06 d83f
00000090: bcb3 fa1f e7eb d3bf 630e faff 97b7 c7bf
000000a0: 247d efdf 6b7f e1bf 1cae c07f 10d5 dd3f
000000b0: 5d4d 0420 78af e1bf c467 0380 731c e03f
000000c0: cb5c dd05 40e2 69bf 0bbf f4ff 28f3 c53f
000000d0: 49cb 0380 e857 dc3f 776c 7501 74bd 93bf
000000e0: 536c aaff d526 b13f ada1 0420 9a7d e0bf
000000f0: 1d0a f87f 4813 d4bf 2c1e 0440 5a87 d5bf
00000100: 7213 53ff 9f69 bbbf c79d a6fd 03aa a1bf
00000110: 456b f61f faaf e0bf 13dc ceff 42bd cfbf
00000120: 6d03 0a40 2978 e13f 1e08 dd7f 87da d8bf
00000130: 7407 3e00 7168 ba3f 19ee f27f 29b0 d63f
00000140: 486e 0680 4d3f e03f b41a fd7f 80f5 c93f
00000150: 0afc ff7f a64d d8bf 2c89 82ff 8385 a33f
00000160: e53a fa7f 1313 e03f 7ac7 e3ff 336e babf
00000170: ea64 9dff ff0e a4bf 927b fd3f 47a5 e13f
00000180: 3fe8 a3fd c374 943f 711e b9ff 47e4 b6bf
00000190: 7b1a f9df 37ec dfbf 6f31 ffff ca29 d23f
000001a0: 7690 59ff 5ab2 bc3f 3347 f4ff 9470 c03f
000001b0: 88f5 0380 6139 e13f 7a78 d47f dc74 c9bf
000001c0: 8396 af00 9047 aa3f 5b6c cd00 c2ba acbf
000001d0: 82b4 1dc0 3d08 d03f d5fb ac00 305b 9cbf
000001e0: a697 ffff 6bef de3f a4a3 dfbf 6239 d33f
000001f0: 6431 0700 c4ff d73f 9d52 1840 fdde d63f
0.369625568406451 -0.16445580122032846 0.3403633832804775 0.12598204611135744 -0.44168782233854115 0.1910486220523691 0.20663547515844058 0.37883949291141494
-0.09342747923111648 0.14236384626499668 0.2162290216291854 0.21233260635691287 -0.45216634876338574 -0.21934071188156745 -0.31088477355710736 0.25029265877576284
-0.07323223351054524 0.37542247772551823 -0.31127336619357115 -0.185290336598075 -0.5468043683758066 0.4661294219574488 -0.5526695847824318 0.5034730434665495
-0.003159642262214745 0.17148315904477615 0.4428654909271939 -0.01927739390280833 0.06699883930052523 -0.515332281623207 -0.31367695328677475 -0.3363862633854946
-0.10708045943745306 -0.034500241006124414 -0.5214815735119848 -0.24796330919863915 0.5459181071056328 -0.38833796965275436 0.10315614944377477 0.3545020818234846
0.5077273846140509 0.20280462502906504 -0.3797394037246141 0.038128018322156926 0.5023286342201031 -0.10324406621273666 -0.03917694087312802 0.5514255761917062
0.019976675373051696 -0.08942079537620785 -0.49879261848801776 0.28380084037487213 0.11209648832442717 0.1284357309128211 0.5382544994642311 -0.19887882463166645
0.05132722862599073 -0.0561123491267714 0.2505030037053261 -0.027691602746241124 0.48336315154881004 0.30037754762320845 0.37498569491142164 0.35736018428114297

encoder.0.1.weight f8 [64]
00000000: 6a8b a06b 4229 f03f 590f 3f35 081a f03f
00000010: 3d4a ad6c c087 ef3f 0372 7c63 912e f03f
00000020: e471 0492 1230 f03f 5613 a1c3 2d17 f03f
00000030: accc c626 e246 f03f dfe6 9284 56c2 ef3f
00000040: 1ac6 e275 1644 f03f 071b b685 ff50 f03f
00000050: c373 59e0 86ad ef3f c52e 548a 6749 f03f
00000060: 4804 05f3 484f f03f 88fd c81f aed3 ef3f
00000070: acd6 70f4 cd91 ee3f ccc8 06f2 1923 f03f
00000080: 159c 1bef 080a f03f 6753 53ef cf50 f03f
00000090: f820 2dca d72a f03f 15f0 0cb4 e19d ef3f
000000a0: 8795 9438 f653 f03f a041 2e1a 12ab ef3f
000000b0: b16b d929 f9b5 f03f d9da 4f3a ca99 f03f
000000c0: 26b4 f615 592e ef3f 72fd d639 650a f03f
000000d0: e265 e2c8 15da ee3f 078b 4982 62d2 f03f
000000e0: 8396 09a9 a81b f03f b208 793f 0964 f03f
000000f0: 0f49 22aa 512f ef3f b124 9b37 d6e7 ee3f
00000100: c8a2 26c8 0564 f03f 3803 e097 a34e f03f
00000110: 1da1 b9b3 3508 f03f cc50 1ec7 f004 f03f
00000120: 7342 0bd2 27ff ef3f 76b6 6a0a ed3f f03f
00000130: a100 7ee5 3d17 f03f 1fd9 3ea0 93bb ee3f
00000140: 19e7 af44 9376 ee3f 2cd5 2b5d 9b28 f03f
00000150: e734 1fd6 a510 f03f 4083 f11a e08a f03f
00000160: ffea bda8 435e ef3f c4d8 b77f d7df ef3f
00000170: 557c 03b2 6b1e ef3f b345 d80a db81 ef3f
00000180: be6e 66e8 b651 ef3f 759b b1b1 295e f03f
00000190: f4a9 c89f 8e9e ef3f 336a 6297 525e ef3f
000001a0: b7c6 4dbe 827f ef3f ba4d b379 a1a3 ef3f
000001b0: fbfd 82ce 66ee ef3f 3605 ef2a ab11 f03f
000001c0: 6e92 cccc 0ae4 ef3f 07d9 8418 ffb8 ef3f
000001d0: aebe c6c2 a863 f03f 7359 057d bf05 f03f
000001e0: 33ea 83e3 d433 f03f 7e72 4ac6 f9ba ee3f
000001f0: 247f 2100 932a ef3f a9e8 89e1 708b f03f
1.010073109072176 1.0063554840025601 0.9853212473484018 1.0113691221405368 1.0117364600947605 1.005658878494804 1.0173055185994526 0.9924728955586167
1.0166229824939195 1.0197749350642782 0.989932478125063 1.0179210093946705 1.0193566792443267 0.9945898648074243 0.9552984022363566 1.0085696653518879
1.0024499263906865 1.0197295521404273 1.0104596993933779 0.9880226627933576 1.0204984865352758 0.9896326552716808 1.0444270739305745 1.0375463750657927
0.9744077137926339 1.0025379428260206 0.9641217158816142 1.0513634766909392 1.0067526438737395 1.0244228820234125 0.9745262453964488 0.9658003889136549
1.0244195764918675 1.0191989834422213 1.0020043392669955 1.0012061861098571 0.9998969175740754 1.015606918993766 1.0056742634333562 0.9603975419802601
0.9519745198769868 1.0099137916088905 1.0040644039284474 1.033905129668895 0.9802568717708197 0.9960744375701087 0.9724634625271259 0.9846015178501858
0.9787249125542627 1.0229889813578812 0.9881051178720655 0.9802639919974524 0.9843152729865413 0.9887244584046393 0.9978517564231305 1.004313628873502
0.9965871810896496 0.9913325766454201 1.0243308647585923 1.001403320658565 1.0126541983905895 0.960324179922807 0.973947048430976 1.0340431985955922

encoder.0.1.bias f8 [64]
00000000: 590e 30c0 54b1 903f b0dc f61f 3716 7bbf
00000010: 061a cfd8 9ca5 88bf dd72 81db 0e49 6b3f
00000020: df5e 42ba 51eb 9b3f e5eb 396c 1162 86bf
00000030: 4379 378a 67ad 913f 0483 d537 28a8 9f3f
00000040: 10da f1bd 617d 763f caa4 9132 69a9 a13f
00000050: 4118 9f49 30a5 9dbf c35c 4d40 bbba 60bf
00000060: 2c58 50a5 08e5 913f 8286 9f5b 4cf4 6bbf
00000070: 65b8 55dc aea0 a03f d49b 6d18 62b9 91bf
00000080: b1d3 1809 7687 79bf 4423 73b9 42e2 9f3f
00000090: a5a9 33c9 af21 ab3f 06c4 fb6b db11 8cbf
000000a0: 83d3 8d65 eacf 963f 43a5 1b95 d054 75bf
000000b0: 9d21 41ef faa2 8d3f dad3 f226 952d a73f
000000c0: 1003 4dee 8188 90bf 6b4f 71ad e331 953f
000000d0: 4c98 1237 6333 91bf af23 1622 30ab 943f
000000e0: b6e4 ef4c 89b3 823f 8407 c93a dc0d 9e3f
000000f0: 983e d8d0 2bf4 8bbf b200 e272 6e66 803f
00000100: eb35 4ae4 a998 8a3f ac24 dc6c 3fd0 903f
00000110: 8192 ee4f 0e5f 9d3f 924c 6eb5 00cb 7a3f
00000120: 7167 d97b bd07 92bf e7a2 72ef 906e 8f3f
00000130: 6e38 0de4 b2bd 883f f75b 116c faf7 80bf
00000140: 3469 ff29 7137 9cbf 7e66 a0a6 5cd3 5b3f
00000150: 83f9 7270 f9fc 923f a3c8 e9d9 76c4 9e3f
00000160: 8cff 8cb9 58cc 8e3f b58e db57 72e8 743f
00000170: f80f d877 f698 6bbf 1af5 7726 5df4 743f
00000180: 197d 26dc 7317 9ebf db55 c954 0e52 803f
00000190: ce09 d1b5 5222 743f 2777 4ef2 2c95 9c3f
000001a0: 324e 903a 3f01 883f 390f ca24 2401 85bf
000001b0: 9f3e dcfb 4f21 31bf 4324 1374 72a1 8cbf
000001c0: b241 7d58 c805 8c3f 572f cd6f 4522 90bf
000001d0: 5e75 7025 8974 8f3f a2e4 4e7c 79d3 9abf
000001e0: 953f 2ddd 81e8 893f 159e a394 7b48 76bf
000001f0: a6d0 ae7d 0ca7 a6bf 272b 7729 6b63 6a3f
0.016301464300353483 -0.0066129830660692085 -0.012034631124959293 0.0033307352241947878 0.02726485919319443 -0.01092923747568437 0.01726304799182655 0.030914905937041062
0.005490667156769394 0.03449562780662914 -0.028950457089898633 -0.002042165493928745 0.017475257005649933 -0.003412388931779032 0.032475914379447336 -0.017308743229843618
-0.006232701374348546 0.031136553353266608 0.05299138384892225 -0.013705934746640846 0.022277510116925036 -0.005207838797767042 0.014471016336884907 0.04526964283414943
-0.016145734948852797 0.02069812532529573 -0.01679759048115441 0.020184280472253565 0.009131500873979053 0.02934974774166889 -0.013649313269552807 0.008007872467942743
0.012986495284418495 0.01641940214088737 0.028682922009141357 0.006541254776396903 -0.017607651409299267 0.015347606952063454 0.012080571732124148 -0.008285480902641125
-0.027555244625412104 0.0016983418268012025 0.018543145645475 0.03004632668530206 0.015038197672424557 0.005104490902997296 -0.003368836768233404 0.005115856044992451
-0.029386339485083377 0.007969009363629922 0.004915545546341394 0.02791280964776557 0.011721128439638216 -0.0102560828902437 -0.00026138499002657274 -0.013979810874291348
0.013682904434660557 -0.015755734394857637 0.015358993010574803 -0.026197336399239497 0.012650503694800178 -0.005440218674471993 -0.044243231145999304 0.0032212346083943136

encoder.0.1.running_mean f8 [64]
00000000: dacc c520 0a2c e33f 9f8f 81b8 6cc5 bbbf
00000010: 030e 89fa f242 de3f 27ac faba 3fe8 cc3f
00000020: 7cf6 565e 5d14 e5bf d8de b1ba b64f ce3f
00000030: 2800 cd39 6ea1 873f c22f 6fab 84eb d33f
00000040: da43 5da7 8371 c33f 5453 cde1 2f48 9a3f
00000050: 185d 8604 bb53 c53f 95ea 72c4 47f5 d83f
00000060: 969e 3b2c 87ba e1bf 482c c293 0be1 d0bf
00000070: c734 17e5 990e cebf ac2e 8be3 06e2 d13f
00000080: e8c9 6894 eb01 b5bf 8fc1 54d3 a6f9 e03f
00000090: b10a fee6 2b07 d6bf e7f5 63aa b57f dfbf
000000a0: 2bf9 62f5 9396 e2bf 17d5 1b3f f03e e03f
000000b0: 0971 83c8 0f82 e6bf 76f0 24d0 1bb6 cd3f
000000c0: 3583 969a e2dd be3f cf6b 6891 143f af3f
000000d0: 3647 a4d8 8027 e23f 96c0 ea9f 4672 bf3f
000000e0: 07e9 c662 ce91 93bf 17d3 0f35 7ee9 e6bf
000000f0: b854 c95f de96 d9bf ddeb 45ef 3e7a a63f
00000100: 2c01 1b2b c8b0 90bf 6005 414d e4c2 b3bf
00000110: 5d02 e3e2 e74a e6bf 6aec ef46 9232 d6bf
00000120: c965 f139 fb44 e43f 2049 8a2f b153 cabf
00000130: 480f 5a75 30af cc3f ece3 31f0 ecae d73f
00000140: 7c6f 7313 ac1c e53f f091 b270 3fd2 e03f
00000150: d948 48cc ce26 e1bf 2f4a 388e 649c c1bf
00000160: dbf9 e4e5 9402 dc3f 23ba f6bc a752 a2bf
00000170: 49ed 1914 303a c93f ec6b 52ec d778 d63f
00000180: 4c65 32a2 5538 b33f 009e 9550 b9a7 d2bf
00000190: b9dc c26e 1249 e0bf c6d2 f1fe ae2d be3f
000001a0: b31e 4a2b 8989 b13f f72b 9133 40f9 913f
000001b0: d82a 70cc b873 e63f 3a14 ffd6 d3ee c8bf
000001c0: f951 d572 91bf c03f 4fce d6e3 85b3 9d3f
000001d0: 6584 4cd1 ba56 d63f 9964 c29b 15cd be3f
000001e0: fd90 1756 ff08 c73f 1073 367e f54c ce3f
000001f0: e19c a4e7 9448 db3f f3a9 9361 eb63 e23f
0.5991259231654127 -0.10848121170562174 0.47283625093788845 0.2258376753792117 -0.6587359278270948 0.2368076716991172 0.011538373125972681 0.311249892631846
0.15190168068013926 0.02566599670111043 0.1666177532285722 0.38997072395765403 -0.5540195335315328 -0.26373567037143575 -0.23482059179369782 0.27942058774054135
-0.08206055043482474 0.5304750564155699 -0.3441877132210421 -0.49216977729505945 -0.580881099005443 0.5076829178421204 -0.703376666667766 0.23212001479430783
0.12057319902534121 0.0610281398296234 0.5673221808703832 0.12283746151183758 -0.019110893992299285 -0.7160025631297654 -0.3998332915701428 0.043901411731859
-0.01629936946005832 -0.0771925629242296 -0.6966437751180582 -0.34683663299046563 0.6334205753038812 -0.2056790811662461 0.22409635286396168 0.3700516076710858
0.6597500209713725 0.5256650162814918 -0.5359872808351397 -0.1375852293427484 0.43765757036808645 -0.03578685933768024 0.19708825093753493 0.35112569883648237
0.0750783463467048 -0.2914870535809939 -0.5089199221901232 0.11788457607492395 0.06850488001702608 0.01755237879505597 0.7016262047703448 -0.19478843686934671
0.1308461962422738 0.02900513842696589 0.3490435642179988 0.12031683972090192 0.17996207908357312 0.23672360098580514 0.4263050329340797 0.5746971994206532

encoder.0.1.running_var f8 [64]
00000000: 6a79 1b9d bea5 ae3f b3d4 5dc4 1f9e 6b3f
00000010: 0fc7 e406 5cc0 953f ecf0 5ac1 531d 963f
00000020: fc7a 1238 1d6e ad3f 0111 4b9b d2c2 713f
00000030: a08c e17d 3b4f a43f 575a 4e61 e354 843f
00000040: b223 0849 8535 b03f 6a5d 0665 a3a5 9a3f
00000050: ce7a 15c8 e511 913f 062f 2a35 4c09 a33f
00000060: 2d1c 85ab ac21 9d3f e1c6 5557 f0fa 913f
00000070: 53da bd42 a4cc 873f 55bc b84c ee0e 923f
00000080: 0dac 8331 0999 943f 6c48 518b c426 a63f
00000090: f566 bf4e b312 873f c293 5d11 aeff b73f
000000a0: b720 cc46 d9a8 783f 9a66 cb31 c0da 6b3f
000000b0: a32e 8057 0a69 a23f 621f 2511 6713 b43f
000000c0: 50f2 6502 c184 993f 9228 93ae 6301 a33f
000000d0: 0ca5 280b 68ee 943f 5900 5c7d c314 9c3f
000000e0: 97fa d2ed e46e 8c3f eaa1 0d3d dbe8 a73f
000000f0: 091b 9226 157a 923f 8fcb a608 cf7b c23f
00000100: d494 2c45 3263 923f 3a9f 08c4 5301 623f
00000110: ac9a 0fdc ace7 a03f 2d07 a492 a547 933f
00000120: 6ba7 0a63 58c3 8f3f fc5b 8479 e5b6 a23f
00000130: 2dd2 9658 b04c 963f a833 cf93 85bb 863f
00000140: 404a 00f4 c607 a03f 0244 5fbd 2852 bb3f
00000150: 77f8 3241 b54b 9a3f 4515 cef3 7d63 a03f
00000160: 02ff 4870 cb78 803f 7606 9a6b eec6 863f
00000170: b9a9 69b3 d533 b13f 8f6a 97da a951 ac3f
00000180: 8c47 75f1 6d13 913f 481c 80e4 3d7b a53f
00000190: e596 07d5 d69b 7b3f 142b 9bd0 6008 a63f
000001a0: b32b 6a68 44eb 813f d893 6704 4a6f 933f
000001b0: 7616 6a96 8d06 a03f 1117 88c7 a376 6d3f
000001c0: 6edf 7a3d 2ce6 913f 62a7 0c65 65be 913f
000001d0: a4b6 4988 a979 853f 2ec3 e636 1f9c 993f
000001e0: 7a98 4f33 0b50 b73f d5b7 bf9b 680d 833f
000001f0: b178 2b9c 0cea 9b3f e34d 228c 4d52 ab3f
0.05985828082860929 0.0033712978792502456 0.021241605683093797 0.021596249271838383 0.05748072919344868 0.004336188013159382 0.039666995159472807 0.009927536398930998
0.06331666024210739 0.026022484818523685 0.01666983636584512 0.03718031071647769 0.028448770493266707 0.017558818178662675 0.011620791708748223 0.017635081703869144
0.020115035674205518 0.043264524466068405 0.011266136971176158 0.09374511646235731 0.006020401703388404 0.0034002069281598548 0.03595764463542863 0.0784210602624831
0.024920478602768192 0.03711997514763356 0.02044069831950872 0.0274229569686216 0.013883389003578812 0.04669842834738687 0.018043833235903004 0.14440334246100092
0.017956529113821798 0.002197898488038333 0.0330175417546362 0.01882799823307051 0.015509310266981399 0.03655163868295827 0.021776919753124502 0.011099856923374521
0.031309335027021934 0.10672239898055128 0.025679428200185286 0.03200906373153115 0.008042897571726385 0.011121618899099444 0.06719718580430979 0.055310542996911065
0.01667568002932955 0.041955885069960674 0.0067404167061561925 0.04303267046414852 0.008749517857060107 0.018979221838794164 0.03129999600518556 0.003596610910110772
0.01747960210079163 0.01732786587960023 0.010485958549192383 0.0250096204051175 0.09106512072284714 0.009302918675498187 0.027260014564369942 0.05336229644413117

encoder.1.0.weight f8 [64, 64, 3]
00000000: ec56 12f7 7960 a5bf 9a5f d93a 7798 aa3f
00000010: 3cba 3b92 e4fd 96bf 4aa1 d509 0b6a 77bf
00000020: 63d7 f79e 43e7 98bf 4445 715e 9f39 6bbf
00000030: 503b 089b e860 8d3f b71a 4576 e79b a1bf
00000040: ff36 6b62 dcf7 ac3f 04d0 aca5 e851 b3bf
00000050: b670 ea4a 85ef b4bf 8740 b335 a62e b2bf
00000060: 5029 7595 8ed4 aa3f 1415 d56c b1d8 b0bf
00000070: 1400 ca80 bd45 a4bf 5a69 f1a9 54d9 b4bf
00000080: 01cc 8791 751d 9dbf d4de e046 bf6f 94bf
00000090: cf3f fd56 a8d7 b03f 0714 68ba 590b b0bf
000000a0: 2438 2482 3f0d 8b3f f9a6 e60d ed34 b0bf
000000b0: 1a68 6c47 76ae 3abf 6be9 6dba b16d 85bf
000000c0: d1f1 5890 693f 71bf 60e7 92ae 7ea2 9c3f
000000d0: ecb4 21b8 dbc3 b2bf 92c5 dee2 df3a b0bf
000000e0: 4c5e 919e df4d b03f 8dc2 5116 f7aa a73f
000000f0: 2380 eb95 773a a63f 6e04 61de c2ae a2bf
00000100: d086 927f d1ca a4bf 046b 5a0f 64a3 9bbf
00000110: 9ea4 c641 7517 a83f 1391 d8b4 ca3e a0bf
00000120: 7418 63a0 2fcf 98bf c499 bcb5 a506 abbf
00000130: 3681 047b 0efb 9bbf 8480 699e 3d99 583f
00000140: 14bd 887e 55dd b2bf 8b31 6d70 934c b3bf
00000150: 471f 6efa 6a0e 923f 6c15 87e9 27fe adbf
00000160: 2c8f 5138 1c23 7c3f 8cf5 8363 bf27 a13f
00000170: 5749 b8fb 9c34 99bf 6ffd dc62 a466 9e3f
00000180: 871d 13c1 84df a13f dd6e ecc6 00b4 b0bf
00000190: c616 01e0 6352 9fbf d78b 5b1a 80ba a93f
000001a0: 7a9f bdba a433 903f 2729 ce5f a4f5 863f
000001b0: adda 9836 5277 943f 5180 7840 6a53 a3bf
000001c0: d780 ceab 9f62 b2bf bb57 c7ce 2f51 80bf
000001d0: 7e57 33e7 3300 ad3f 90ed 04af 1ced a1bf
000001e0: b8ea fe1d af31 a5bf 2cbe f9bb d168 b3bf
000001f0: 8b7f bff0 a0f4 93bf 0706 a391 f782 a93f
00000200: db19 6a83 944f 9abf 839b 5275 e11e 9e3f
00000210: be70 875f 15db 95bf 2579 ead1 8256 a13f
00000220: 2d93 7fce f00d 91bf 4ddc d4a2 d199 a13f
00000230: 1ddd 3a3b 0bce 62bf 730f ae64 d914 a03f
00000240: 6520 9ce7 b02a aa3f 9412 1fa4 8046 8ebf
00000250: 5947 a741 26ba 59bf a7f3 7270 779f 933f
00000260: 9c65 49d3 f654 973f 22ce 6c6e b01f b2bf
00000270: 3f70 cc24 c2c1 8cbf e68e 397c ca1d a0bf
00000280: e64c 33a3 4024 a03f 10a6 8c9e 2733 ae3f
00000290: bca1 ee78 ced0 b4bf fc59 7f9e 48f4 afbf
000002a0: f5e8 f40c 269a a1bf d320 c1ba 71a5 a6bf
000002b0: b921 57ae 0e0e 93bf 6b26 479b d000 b03f
000002c0: c9e3 4050 14c7 9d3f 017d 3a2f 2911 93bf
000002d0: ba2c 0c6b 387c a13f 3910 16de 26c6 a63f
000002e0: 67b4 8a5d a1ab 96bf 4b6c 9d75 c680 793f
000002f0: 21e5 1d26 419a a5bf 6f1e 902e 71be 6a3f
00000300: 2ace ac22 e72b b0bf 14b4 f7e3 04db acbf
00000310: abe7 3529 3c16 b0bf bbc1 ebde 57ec 83bf
00000320: 100f 54b5 5f6f afbf 33bb b566 a78b 943f
00000330: 005a 992a 3260 a0bf 7eb8 2d7d f9f6 a6bf
00000340: 345a eabb babc 9f3f a669 486f caba 743f
00000350: b286 8749 0c1f aa3f 3a82 4668 9fb8 a13f
00000360: d107 adc6 f097 97bf 3a11 1d88 8d6c ab3f
00000370: faa0 e285 1dfd b2bf 6c00 8739 acc5 a6bf
00000380: ac73 73a5 7253 53bf 8c7f e338 8115 523f
00000390: 38f1 cde8 f421 b3bf b947 6e6c e6be 9dbf
000003a0: a0b4 71ba 1f22 603f cf65 b72f 3adf 93bf
000003b0: 824c ae94 5e16 b3bf f618 fa68 65d0 993f
000003c0: 899a 17c6 ed14 9c3f 85be dbab 42d8 ad3f
000003d0: 9bc0 b01c 5bbf b0bf 2c94 1fbd d4ec ae3f
000003e0: dc58 55c7 13f9 9dbf 9272 4dcf 93f4 9fbf
000003f0: 2fdf 2dc7 de92 9d3f e351 1409 ca25 82bf
00000400: dab6 6967 5a8d 9f3f faf4 1310 a82f 4b3f
00000410: f8a1 ed66 443b 9e3f 498b abdc 5266 963f
00000420: c926 6dae f076 a7bf bff7 4e36 b154 a0bf
00000430: ce53 5f04 0255 aa3f b74e 2841 718e a9bf
00000440: 30db 9f27 808e abbf a31e 1302 1ecd a1bf
00000450: fe60 2674 34ab a13f a8a8 4d31 926f 94bf
00000460: b180 bc61 f745 46bf f5e5 39df 3fb6 ac3f
00000470: 42b1 b2a4 1798 abbf d4a5 a4d3 5d4a 8e3f
00000480: 58ee 49a3 c8dd b8bf 1a10 af81 1c2b b9bf
00000490: 0c0a 586a 0146 9a3f c2d0 7847 e8b9 693f
000004a0: 3350 51c7 20c3 a7bf cb3f ff3e 2e13 a0bf
000004b0: 6802 09ae 725e 50bf f2f8 1954 6b61 b3bf
000004c0: a37b 1509 dc48 a03f 8297 1a41 8b75 aebf
000004d0: 8735 4620 58bb a13f 0a9c d2a8 f467 a43f
000004e0: e14b d0bd 910a b2bf 1df5 6507 9464 b1bf
000004f0: cd9f b068 0622 b0bf 9c25 eed6 d1c8 9f3f
00000500: 5e34 cf47 96e7 af3f 35f5 5385 d296 413f
00000510: ba7d 6157 cb6b a43f ee21 f336 edf7 a3bf
00000520: 2906 2348 1ecd adbf 2716 7fa0 3eb5 b3bf
00000530: 138a 729e 32d0 b3bf 2e0a be54 9490 a0bf
00000540: d644 69b3 52c3 4e3f 598c 10a8 3520 a8bf
00000550: 17e3 28c9 6150 aa3f 79af 56ff f333 a33f
00000560: 21d8 21d7 001c aabf 209f e7f6 eac4 a7bf
00000570: f328 5a83 e3db 7d3f 3690 0999 d657 6cbf
00000580: 0289 086b e6bd 783f 5d7e 90a5 eb2a a73f
00000590: b6e4 284a cf7a 83bf 7a9b 352e f9f2 8e3f
000005a0: 2cdd c498 16e1 743f 3be9 247c b510 a93f
000005b0: 30f1 ee00 ec50 b03f f0ea 9204 5c7b ad3f
000005c0: d25e 9582 becd 76bf 4a2b 2abe ca07 b0bf
000005d0: 5a9a af3f e091 97bf dc41 870d 3522 b6bf
000005e0: aea2 2e67 9814 babf 51c2 c52c dcd7 ad3f
000005f0: fbfd 8105 96d9 703f dc0d 613f e598 a1bf
00000600: d402 978a 86c1 b5bf 9384 2c74 1807 ab3f
00000610: d718 d87d b3d5 b13f c9a2 1650 f1ab a93f
00000620: 4888 a57c 70ff 953f 5e3d 5c1f b903 9abf
00000630: 68dd f407 defe 933f 160b dd35 bbe8 ac3f
00000640: 17eb f00f ab4f 9ebf 3c59 cb4d 7b31 603f
00000650: 7365 b5e2 a8d9 a93f fb98 6750 3693 ad3f
00000660: 04bd 8415 7c36 be3f 7e17 0785 3f83 9b3f
00000670: f20c aef8 f437 8e3f 0083 304b f783 ad3f
00000680: 0102 5704 7cc6 aabf f08e 7a2c b831 a7bf
00000690: 147c 26bd 6241 a2bf 9c01 1b02 2088 b43f
000006a0: a3fe aae0 e125 b03f 3efc 00b8 4707 933f
000006b0: c554 2699 cfcf ad3f baeb 96da a98e a8bf
000006c0: d6bc 6f19 731e 8abf 466c b1c5 9eba a6bf
000006d0: 0043 7c62 9406 aabf 5c3f ac8c 4089 a83f
000006e0: 2e72 0ed6 b548 96bf d33b 21fc 364e 99bf
000006f0: 1dd5 e343 6230 833f cf33 d8aa 33de 79bf
00000700: 4670 9b24 505d babf 7d27 50d5 5e76 a13f
00000710: 83ae 168f 6e1c 9bbf beba 312c 7c98 843f
00000720: d2d9 d3fa 7a58 b53f d05d e5e6 08b0 b13f
00000730: 65ad 8b11 8797 b3bf 16fb 382e a0d6 66bf
00000740: cb1f 76e0 6b68 aa3f ca90 2eec c0eb 813f
00000750: d0bf 04df 705d adbf b136 a4f9 5cac a93f
00000760: 964a dedf 0ccb 72bf 4246 29da b396 a8bf
00000770: 8874 9888 8804 a33f 9527 3509 6b30 b7bf
00000780: c978 0a4d e594 a53f 793b 2075 fdf8 a53f
00000790: c749 47a7 52b2 543f 761b 1dd6 8383 abbf
000007a0: cf68 a5c2 b7f0 83bf deb1 8b51 58ce 9bbf
000007b0: 0eb2 875e 0cc2 b43f 4da1 c048 efff 61bf
000007c0: 2997 e5d5 dac1 ab3f 6cde 2841 d608 a0bf
000007d0: afe9 0e29 04a4 ab3f 8b61 54ff 674c b23f
000007e0: 1733 2e8a 59cc b53f 5739 e2ee a711 9c3f
000007f0: 7496 9a9b 0284 b1bf a82a 9418 c056 b0bf
-0.04175168171893326 0.0519444712960528 -0.022452899384854272 -0.005716364973843044 -0.024319702699322387 -0.0033233750032556648 0.014344994765478042 -0.034392579257248306
0.05657852841760124 -0.0754685787658787 -0.08177979544638245 -0.07102431117096063 0.05240293096956583 -0.06580647379913201 -0.03959457585460782 -0.08144120358466492
-0.028432690627550276 -0.01995753164393828 0.06579067348252397 -0.06267319489423083 0.013208862456419786 -0.06330758656863712 -0.00040712726279113073 -0.010463131429550207
-0.00421086536294664 0.027963618664876733 -0.07330106015588783 -0.06339835442374511 0.06368825551305085 0.04622623584225947 0.04341481881215283 -0.03648957218730052
-0.04060988123206999 -0.026990474164089853 0.04705397060326642 -0.031729063583300875 -0.024227852024317945 -0.052785089907320365 -0.02732489229049514 0.001501379179579516
-0.07368978823864253 -0.075387206027875 0.01763312486175941 -0.05857968068770955 0.006869421228745936 0.03350637521541974 -0.024614765990983525 0.029688423666127613
0.03490843636387369 -0.06524662834675206 -0.030587730929503086 0.05025101014850691 0.015822004220722864 0.011210712598558615 0.01998642404779598 -0.03774578129764506
-0.07181737846849799 -0.007967351434597583 0.05664217183372865 -0.03501214634385541 -0.0413946842304162 -0.07581816519972823 -0.019487871831983788 0.04982732441704845
-0.025694199105169218 0.029414675508316456 -0.021343549686080314 0.03386315166902624 -0.016654741862924972 0.034376670004740185 -0.002295514999640992 0.031409066715268795
0.05110695674199021 -0.014782910355174018 -0.0015702603910665218 0.01916300414881147 0.022785050054471165 -0.07079603858874653 -0.014041439769748474 -0.03147728697220291
0.031526584550783984 0.058984029869247334 -0.0813111348385353 -0.06241061148437052 -0.03437918575441926 -0.044230989501160466 -0.018608312025919924 0.06251243391957366
0.029079739950450354 -0.018620151050183335 0.034150851313904565 0.04448052845967294 -0.022139092764224346 0.00622632525650164 -0.04219249334614462 0.003264638002750612
-0.06316990467603803 -0.056358483150553834 -0.06283927923314418 -0.009728132715708484 -0.061396590122994366 0.020063987392343562 -0.03198391695029912 -0.04485301640566862
0.030993383140037703 0.005060950050870627 0.051018127418286055 0.03461168430226676 -0.023040544630255348 0.05356256758253371 -0.0741747333401043 -0.04447687341917192
-0.0011795634834961084 0.0011037599502330157 -0.07473688777640042 -0.02904853855904552 0.001969396561938355 -0.019406232035043488 -0.07456008081344304 0.025209030658992902
0.027423587050999152 0.05829056117897572 -0.06541985941362542 0.06040062721857739 -0.029270466843933515 -0.031206426170103337 0.028880577952320848 -0.008861139680939217
0.030812656938386286 0.0008296557063257875 0.029522961408845888 0.021874708861001655 -0.0458293164179629 -0.03189615047402538 0.05142980864881218 -0.04991487427119295
-0.05382156833359486 -0.034768045190103146 0.034509314707237934 -0.01995685983585163 -0.0006797273558483333 0.05607795333794378 -0.0538947475955376 0.01479028036245015
-0.09713415133040237 -0.09831407705411302 0.025657674899784808 0.0031404053404689722 -0.0464105838115362 -0.03139633673674743 -0.0009990806503453967 -0.07570524981744933
0.03180587397468251 -0.05949053926205662 0.034632448138931564 0.03985561905692954 -0.07047377475855356 -0.06794095211622105 -0.06301918083101939 0.031039503806402288
0.06231374384479048 0.0005367782529500988 0.03988490525875528 -0.03900090499661589 -0.05820555334640815 -0.07698432367677609 -0.0773955952486534 -0.03235305342152049
0.0009388116657850453 -0.04712073971338588 0.05139451580584458 0.037505745810761 -0.05099489809155978 -0.04642423881506219 0.007289780352616615 -0.0034598533023189283
0.006040477820109526 0.045249332390309795 -0.009511584711719184 0.015111872408579908 0.005097473400659507 0.048955603985137285 0.0637347700384836 0.05758178287347515
-0.0055673066902596925 -0.062618895937857 -0.02301741017063317 -0.08645946102411223 -0.10187675971122687 0.05828750654734861 0.004113756200353698 -0.03436962507887717
-0.08498421557943497 0.05278850954187777 0.06966707060209686 0.05013994314805854 0.021482236488175738 -0.02540482763202811 0.019526929126383236 0.05646309883606741
-0.02960078511044192 0.001976719692133559 0.050488736795794596 0.05776376468183916 0.11801887059549548 0.02686785935818347 0.014755166854007549 0.05764744561043322
-0.05229556611039144 -0.04530120413735783 -0.035655103292121876 0.08020210315135617 0.06307803854996989 0.018582459073737782 0.05822609657767822 -0.047963436063092016
-0.012753390516051882 -0.04439254916425077 -0.050831448576110105 0.04792215077588821 -0.021761742773025165 -0.024712428225310234 0.009369628617131693 -0.00631542379916268
-0.10298634427766826 0.034106219805905426 -0.026475646480021552 0.010056467150403644 0.08338135360450075 0.06909232747181382 -0.0765308778606389 -0.002787888386392888
0.051577922010494236 0.008750445563983428 -0.057353522514290156 0.05014315173512552 -0.004588175097426947 -0.0480247691927045 0.03714396159578209 -0.0905825517158106
0.042151609091193594 0.0429152684665643 0.0012632186090867235 -0.05373775471394186 -0.009736476543072218 -0.02715433118548726 0.08108594234335717 -0.0021972344893762875
0.054213369951680974 -0.03131742043882188 0.053985719692224314 0.0714783666957201 0.0851493799547821 0.027411102252295674 -0.06842056559488602 -0.06382370567386408

encoder.1.0.bias f8 [64]
00000000: 0be6 2900 e4a6 65bf 3f3b fdbf 1dc6 a83f
00000010: c074 faff 9cf6 a6bf 3029 d87f 800e 943f
00000020: b225 0700 e060 903f bb01 0a40 0296 a7bf
00000030: a43a 1540 4103 a2bf 4333 0380 f964 9a3f
00000040: baa6 0980 9c8b 9ebf 65ad f93f aca2 b13f
00000050: 4ee1 ff7f 06f8 a03f bbba 1380 5819 98bf
00000060: b05d e800 e8a7 68bf c69a f6ff f2f3 9ebf
00000070: 85be d4ff fb1a 79bf 2ee4 fedf 6eef b1bf
00000080: d33a c3ff 79ab 8c3f e382 0a00 bd4e 8f3f
00000090: 64f6 f87f 97be a4bf 5d89 ea7f 5e36 9ebf
000000a0: 3c9e 10c0 2f26 a6bf bd33 0900 aa87 9d3f
000000b0: c74f 0860 adb8 b0bf 9d97 0d80 0698 acbf
000000c0: af68 02c0 9c3d aabf 67f6 1dc0 e6c8 abbf
000000d0: 4374 f53f ef18 aabf 5fbe dbff a15b 7cbf
000000e0: fbf0 0040 d45a b1bf bbf0 8dfe 6776 56bf
000000f0: bda7 72ff 67a8 72bf c82b fdbf ec74 a33f
00000100: 0e4f 45ff 6172 75bf 4461 e9ff 8b94 913f
00000110: 90a5 5900 de5a 813f d158 0700 ca71 ae3f
00000120: ed35 0600 c3ed a93f 18f3 2760 0219 a2bf
00000130: 9ad8 0c80 a3f0 aebf 11e4 1c00 b854 6ebf
00000140: ffb1 ffff b76f ab3f a6e9 01a0 a3e9 a2bf
00000150: 4dce fc7f 3c6d b13f 735d 0440 bdda b1bf
00000160: fa21 0b80 13d3 a23f 18c4 b9bf 162c 9abf
00000170: 8832 fcff c7f9 ad3f de89 f97f fa91 aa3f
00000180: b9b2 fc3f 4d21 b1bf ac9e fd7f 536a b1bf
00000190: d8ce f9ff b740 b03f e4b5 fb1f 4ca9 a1bf
000001a0: bce0 ee3f 48bd a43f 8429 ebff f854 913f
000001b0: e93a 2c00 7887 7cbf bb01 fc3f 871f b13f
000001c0: fe42 0c00 3d38 a9bf a3a3 f07f c99b 98bf
000001d0: d5a5 4a80 128d 8abf 0f8f 993f f233 90bf
000001e0: 8a5a 0380 d4b4 af3f cd99 df7f cbdc 8dbf
000001f0: 9408 c200 3455 6bbf c5c4 1800 fee4 a23f
-0.0026430562150465734 0.048386506735019534 -0.044850260016781274 0.019586570551873794 0.015994548799232518 -0.04606635123946342 -0.03518108279478341 0.025775812567008016
-0.029829449953843158 0.06888844072243712 0.033142283558790994 -0.02353418618889223 -0.0030097514456987814 -0.03022746741558071 -0.006129249927922968 -0.07005970924991864
0.013998940580134988 0.015286900104287187 -0.040516600009578935 -0.02950427680719635 -0.04326009006063855 0.028837829830354645 -0.06531795115034732 -0.055847361690026555
-0.05125131458153597 -0.05426713080576633 -0.05097148566958556 -0.006923325357760384 -0.06779219210233471 -0.0013710036821228805 -0.00455513595731277 0.038001440464163816
-0.005236037064907396 0.017168223852736433 0.008474096666037295 0.059461891654494566 0.050642102959596126 -0.03534705566196389 -0.06042967737305212 -0.0037025064238176493
0.05358672142014952 -0.03693877533165173 0.06807306408591636 -0.06974394619861872 0.036766633396442885 -0.025558810665135295 0.05854630470102956 0.05189497768585104
-0.06691439449486837 -0.06802865862629898 0.06348752974900707 -0.03449476137562238 0.04050660877641252 0.016925707454711794 -0.00696513057006485 0.06688733398551154
-0.04925718904099162 -0.024031780656659795 -0.012964386501454076 -0.015823159343553658 0.06192649901065746 -0.01458128913868686 -0.0033365264590097896 0.036903321754274944

encoder.1.1.weight f8 [64]
00000000: 670c 2c04 862a ef3f 518a dcd7 797d ef3f
00000010: 5748 8f99 7ebc ee3f 6175 cd1f 9c27 f03f
00000020: a2df 85dc 0f57 f03f 18e3 2dc5 66ab ef3f
00000030: ddd9 4bb2 f10d f03f cdb6 7595 21d7 ef3f
00000040: 0486 584b 6b68 f03f 5e8a 1a52 ce7f f03f
00000050: efb6 c27d 5236 f03f 4f63 6c11 f8bc ef3f
00000060: d3ea 88ec 20ff ef3f 3898 c1b7 d431 f03f
00000070: 77e0 a08b 8ac0 ef3f cb1c 500e 63e0 f03f
00000080: 0849 2e40 0273 ef3f f146 52d2 9d80 ef3f
00000090: b7ce a7ae bd92 ef3f 03d8 b6d2 b1e9 ef3f
000000a0: d834 763d 6c1c f03f 4542 7d3a 1a1c f03f
000000b0: 1d4e 2d4b 8b62 ef3f de3d 1e27 bf17 f03f
000000c0: db08 154b c2b4 ef3f 51b6 d1e0 7e06 f03f
000000d0: 2778 f602 be1f ef3f 33d2 7720 a610 f03f
000000e0: 4613 d82d bbc5 ef3f 1113 351b 607b ef3f
000000f0: ca6e f17f 1743 f03f 2e6e 6ba6 93a4 ef3f
00000100: 8755 9287 9ea9 ef3f 5502 0f7c bbc5 f03f
00000110: 2265 3be9 056d ef3f 6fba 6c93 12a1 ef3f
00000120: 652e 3d2e 51a1 ef3f 3466 c9f4 1bda ef3f
00000130: 1f30 0d25 17cc ef3f 20aa 87f9 cb54 f03f
00000140: 81d5 2442 332e ef3f 6795 8256 63cf f03f
00000150: c2eb 514a 4d5b ef3f 5e68 4e7a d769 ee3f
00000160: 3cc9 b048 14b3 ef3f 49b8 7dd2 5c44 ef3f
00000170: 08c5 d2e0 b08c ef3f bf6f f2f7 258a ef3f
00000180: 48f0 fdef b05b f03f 206e 56e3 9a46 ef3f
00000190: f4d2 f5dd 2679 ee3f 7888 dd1c e039 f03f
000001a0: 1203 ef8f b00a ef3f 07df 7fce c071 f03f
000001b0: 0341 51e4 ff0b f03f b5eb 436e 8bfa ee3f
000001c0: aed0 96ba 37f8 f03f 9213 ed58 3028 f03f
000001d0: b73b 9ba4 6fa5 f03f 3564 68fc e7aa ef3f
000001e0: 3e02 8153 9efd f03f 0715 28ea a0f1 ef3f
000001f0: 0e9a d8c9 8a6f f03f bb5f 50f8 d45d f03f
0.9739408570752744 0.9840668884319915 0.9605095862591594 1.0096703760421735 1.0212553610017285 0.9896730281026036 1.0034043278407048 0.9950111312043305
1.0254929488368143 1.0312026221441992 1.0132622635387027 0.9918175068188279 0.9998936290570221 1.012165754125375 0.9922535636060407 1.0547819670771783
0.9827891591578757 0.984450255187964 0.9866627131691165 0.997277175475347 1.00693916328901 1.0068609509218203 0.9807793110180146 1.0057975318958294
0.9908153025101244 1.0015858442306078 0.9726247842661494 1.0040646808894393 0.9928871055022703 0.9838104754822742 1.0163798330094544 0.9888399362930096
0.9894554756053119 1.0482745023765763 0.9820584826767667 0.9884121779812868 0.9884420302491433 0.9953746586790602 0.9936633800184643 1.0207023379576938
0.9743896762726508 1.0506318454075314 0.9798952533304759 0.9504201306147129 0.9906102580774028 0.9770950423387684 0.9859241858559082 0.9856138079371631
1.0223855375943618 0.9773687782466745 0.952289041057695 1.014129746203734 0.9700548945621412 1.0277717653643224 1.0029295843742723 0.968084063875145
1.0606000221860472 1.0098117326426501 1.0403896741806713 0.9896125726546702 1.0619185697434115 0.9982456754084134 1.0272319683659847 1.022908182121667

encoder.1.1.bias f8 [64]
00000000: 3ec6 a5b7 960a 58bf 0e7e a769 3f13 9b3f
00000010: c845 2e97 8825 8abf e125 3efd c9f4 a1bf
00000020: ba44 7f73 0d72 953f 8e5f 723c 7f98 953f
00000030: 8869 2e90 f55a 12bf ae1b 7633 eee7 4c3f
00000040: 08fb 04f9 b26a a23f 9ba6 0271 55e2 903f
00000050: 4937 e45d 8d91 5d3f 41d3 8745 4dfc 813f
00000060: e920 9cc7 d78b 9fbf c79b c534 8474 9c3f
00000070: c8c8 f059 2103 773f 3fe4 2c4d 6e2b 7bbf
00000080: 3015 c476 6237 a4bf 9d19 426a 9e23 6cbf
00000090: 1e27 740d 96aa 5dbf 588d 347f be8e 97bf
000000a0: 8fdf f59a 15eb 913f 826b d4de 34be 78bf
000000b0: 56c6 7dbb 4d14 b0bf d5bd 85a1 9043 7ebf
000000c0: 6517 b56e 34a3 913f f87c abe8 779c 823f
000000d0: cb26 7797 46f7 86bf 4fe7 1352 552d a23f
000000e0: d07e c027 01e7 7e3f d569 1cbc 2f9d aabf
000000f0: 6ad1 d208 c9de 723f 499e 1fe4 e4bc 8abf
00000100: 1d58 ec52 08d3 89bf e1c8 2c1a 8a83 45bf
00000110: af93 c59f 67cb 933f 9a7b 6552 ae5d a0bf
00000120: a55a 8080 98af 6bbf 5a8b da2b 6d36 a4bf
00000130: 1ee0 bbbc 86c0 553f f7de b274 3d5c 8e3f
00000140: d8df a6e1 d101 a3bf 8676 8215 ae54 883f
00000150: b47b 85d2 085b 843f 31d7 f87e 5603 8c3f
00000160: 6889 d6b5 758d 903f d96d 56c6 b136 aebf
00000170: 8f8c 4693 70b7 84bf 5b5a 26f4 c3d2 673f
00000180: bd92 aa27 b8b6 9f3f a873 9a92 f7c2 7ebf
00000190: 032d a395 efab a6bf 6d9c fc84 3287 773f
000001a0: ec32 01c9 fd38 5bbf 1acb 09fa 6658 9e3f
000001b0: 8d78 e4dd e341 70bf 6b27 e0ac aa3c acbf
000001c0: b681 46f5 5e58 78bf d6b6 e417 96be 9f3f
000001d0: c83d 2421 9c28 a13f 8c36 e3db ef6b aa3f
000001e0: ad4f f140 1cda 853f fd70 e1b0 8462 783f
000001f0: e28a 0207 0349 8dbf 4359 2fba 7121 933f
-0.0014673683022831253 0.026440611671089846 -0.012766902078314227 -0.03507071701376297 0.020942888426195273 0.021089542450311742 -7.00199489486517e-05 0.000882140454380278
0.035970299623377555 0.016488394758801133 0.0018047218832779202 0.008782008823780553 -0.030806895788402597 0.027788224907819428 0.005618219641336526 -0.006633215775587563
-0.03948505115298884 -0.0034349531216008714 -0.001810690437027813 -0.023005463136667487 0.017498338301691837 -0.0060407700778125645 -0.06280980899261954 -0.007388653721462875
0.01722413945869707 0.009087502277394396 -0.011213828561170832 0.03550211550641668 0.007544521820846931 -0.051980487549559896 0.004606995859991117 -0.013055599414612777
-0.012609543829551534 -0.0006565498664257396 0.01933061516446671 -0.03196472888770714 -0.003379628997218847 -0.03947774086306906 0.001327640132272385 0.014824371456014769
-0.037123259349243376 0.011880264312192478 0.009939259457210393 0.01367824149120231 0.01616462633467944 -0.059011035405287245 -0.01011550855111512 0.0029081179829504706
0.030970456524886048 -0.007510153847445723 -0.044280516639981136 0.005744168607441852 -0.001661537015041843 0.029634102831958754 -0.00396908770042449 -0.05515035019204969
-0.005943652086358877 0.031000466545427617 0.03351295380172875 0.05160474356817443 0.0106699187582889 0.005953329395279147 -0.014299415255952967 0.018682267178371303

encoder.1.1.running_mean f8 [64]
00000000: 06ff 4776 5ba2 ebbf 8149 573c 65f3 e53f
00000010: a7e5 e67f a05f acbf 6ea3 7299 49c4 e23f
00000020: 43e8 a782 c393 fdbf 454a b4cb 4cf9 d6bf
00000030: 8f9a d117 d27b bfbf 76c7 c009 7eae e7bf
00000040: 0d2f 14db b13b af3f ad91 fe81 4408 f5bf
00000050: 09db ff1a 162c febf dc8b 3d96 c6f5 d33f
00000060: ea3a b361 7ebe dd3f ac05 81c8 4669 fabf
00000070: 70e3 a02c cafd f03f ed9a 90f3 0c0d fcbf
00000080: e850 7ba0 1cde f23f 3bb0 8257 7a44 c23f
00000090: e60a e6d9 782e f2bf 5ec2 f9d5 8d48 e03f
000000a0: e6d8 363b 7b74 d2bf a678 2e43 aa92 d03f
000000b0: 4ce2 ad1d b607 d23f b7ab c91c 6961 f5bf
000000c0: db41 bf3f 83e7 cf3f d3be f499 4faf e4bf
000000d0: 0713 04da c513 b83f 9e8d 05fa 917d d5bf
000000e0: e585 808d b651 efbf de34 2d6a 37c0 ee3f
000000f0: 74d3 73b0 1b7d d6bf 4cc9 df5b d90c d53f
00000100: db0b 6624 0856 d6bf f04c aaac e2d8 febf
00000110: cdc2 cb10 2523 d4bf a4c5 f0fc 38e4 f03f
00000120: 6d39 f4a2 1f13 a03f 5a2b 472f 086d d43f
00000130: b36b f916 de63 e93f 885d 0601 1863 c03f
00000140: 1f52 7df5 bbf9 d1bf 6d0b 23a7 3e6d f9bf
00000150: ae7d c777 9f1c e5bf 5e75 36e1 28bd d23f
00000160: 97c3 48f1 157c f5bf a204 f699 c43b cabf
00000170: 92a0 fd80 8e93 c3bf 6f5d 6e01 8377 f2bf
00000180: ec7d 4a23 ee6b a6bf 2c4c f290 dc24 ecbf
00000190: fbe8 d6a3 56ad e93f 1422 261d 572a eebf
000001a0: 6b17 889f 058c e2bf dccc 4cbe 468f c1bf
000001b0: ef9d 858f dbf2 f03f bc7a 6a0c 71d8 dc3f
000001c0: 16f5 9e86 c252 fdbf ef57 c287 3851 e73f
000001d0: 6c9f c1d0 6852 9d3f 5051 3e80 708e e0bf
000001e0: 9500 92fe f908 fabf c16e fae7 8436 e1bf
000001f0: c151 a7db 2c39 a93f 8371 8567 08e0 ed3f
-0.8635690031223653 0.6859613588842849 -0.05541707574179649 0.5864608761813608 -1.8485751250978104 -0.358966063432636 -0.12298310357582863 -0.7400503340233928
0.06100230979254038 -1.3145184591204313 -1.8857632689156978 0.31187596008220253 0.46475181141879196 -1.6507022697627276 1.061960386590922 -1.7531861795666217
1.1792265194717917 0.142714779596078 -1.1363457214035235 0.5088566950999611 -0.28835945875779456 0.2589517265386213 0.28172066591608735 -1.3362818836710468
0.24925270664836216 -0.6464002615884631 0.09405170986799415 -0.3357891980760658 -0.9787247432433871 0.9609639238130077 -0.35138599616703137 0.3289092442711492
-0.3490009646849878 -1.9279505486236381 -0.31464506759861594 1.0557184105385682 0.03139590133843027 0.3191547834109564 0.7934408615795888 0.12802410173456402
-0.28086756681048713 -1.5891710785660635 -0.6597440089644147 0.2927953910201121 -1.3427943635144624 -0.20494897382380822 -0.15294057176948123 -1.1541776710417613
-0.04379219227598327 -0.8794997054086529 0.8024094772329414 -0.942668492251928 -0.5795925250865656 -0.13718494693748695 1.0592914205861879 0.4507105466126793
-1.832705045569417 0.7286646510644895 0.028634679547763595 -0.5173876290087183 -1.6271915382531337 -0.5379051714730495 0.04926433736150982 0.9335977575206446

encoder.1.1.running_var f8 [64]
00000000: 8964 b33d dd71 f73f 7963 6b4b 692c f43f
00000010: 1963 19cc 872c fb3f 3d73 04d2 2852 e23f
00000020: e7d3 c198 0920 f53f 5c1a 8cde 2c38 0040
00000030: 71fe 70eb 2987 0040 3977 1d85 fcf4 e63f
00000040: 6ff5 1464 3533 0140 1731 07d4 863b f73f
00000050: 35a3 89f0 c3ba f93f 7210 0618 5eb0 eb3f
00000060: a2d4 c1a0 08ce de3f 1ef2 4d5a 46dc 0140
00000070: 11f1 2ad6 ffd1 f23f 537e 2d80 72ee 0340
00000080: 7258 52bf 4013 e73f c6a4 d3ce aeb8 e23f
00000090: fff8 7e3c a7e1 ec3f 3df7 d999 d054 ef3f
000000a0: c75c 2987 c8c4 f73f 7321 1708 619e db3f
000000b0: d379 748e 9607 e03f a488 12ab 2255 e23f
000000c0: 8fe3 d8e2 6576 e83f 843f 278a b9d4 0240
000000d0: 942d 4ff2 4ad1 ea3f f610 1948 96ab e33f
000000e0: f9a7 40ab 6070 eb3f 69d7 4cdb 963f f63f
000000f0: fee0 375c 018a ef3f 62e8 e8fb 8dc6 e23f
00000100: 30f2 1922 ebbe ea3f cf96 886c dc5f 0740
00000110: 2688 1cfe c325 eb3f d5bc 5f72 ac26 f13f
00000120: cee0 ae6d aaf1 fd3f c24d e471 fc93 d63f
00000130: c733 8eee b3dc dd3f 4ec6 66f2 138c e03f
00000140: 8ed6 47f3 24f0 f33f 3c1d fa38 1b59 0140
00000150: e850 5318 a456 e43f 910c c8a8 3bfd eb3f
00000160: 458f 06ae d8e1 fb3f 54e1 1d2e fa0b e83f
00000170: 8d9a 426a 8ae8 f03f e6d5 b254 f1b7 f23f
00000180: 9349 4cb6 e9d5 0b40 e24e 8dcc 9f7c e63f
00000190: defb ff81 7532 f63f 1e37 83b3 bf5a fa3f
000001a0: 5c02 ffe1 e6a4 fc3f feac 9461 c97c fd3f
000001b0: 5394 da45 8712 ea3f 0e19 4a60 83cd e43f
000001c0: c2fc 70ec 8cc5 0840 53fd 9369 113a f73f
000001d0: 1d83 bae8 7444 ec3f a9e4 bfaf ee50 db3f
000001e0: fef8 db47 5765 0640 de1d 052f aca0 f13f
000001f0: 6547 284c ae00 c13f 5737 846e d4e4 e93f
1.4652988825021416 1.2608426042627043 1.6983716938613667 0.5725292302991886 1.320321652133538 2.0274293314462692 2.0659979242189412 0.7174055671600633
2.150004178895578 1.4520328790995956 1.6080970188142605 0.8652792424404778 0.48132529925289635 2.232556062225071 1.176269375412691 2.491429330242491
0.7211002098799908 0.5850442924103383 0.9025455648004764 0.9791033749495238 1.4855428008793738 0.4315416888244023 0.5009262831043152 0.5728925076730502
0.7644528799638567 2.353869513819463 0.8380484325984292 0.6146956833040622 0.8574679703499434 1.3905247274792265 0.9855963517320843 0.586737625132866
0.8358054796258951 2.921807144087189 0.8483600581278139 1.0719418018086817 1.8715004238602435 0.3527823555206987 0.46659563347276073 0.5170993551639158
1.2461289885663152 2.1685089541748805 0.6355762934786329 0.8746622368347677 1.742638282573311 0.7514620686261346 1.0567726279056473 1.1699078854120386
3.4794496767073695 0.7027129168659167 1.3873190954325234 1.647155476780831 1.790259249493963 1.8429654895542735 0.8147617687542471 0.6500870590832919
3.096460196683979 1.4516767620223916 0.8833565278510808 0.42681471980138014 2.799482880974323 1.1017267071455232 0.13283327787990654 0.8091833265805047
