models/matching_nets/AWF_n=1_k=5_q=15_nv=1_kv=3_qv=1_dist=cosine_fce=None.pth (torch, 316367 bytes, 24 tensors)

encoder.0.0.weight f8 [64, 1, 3]
00000000: f490 2c03 4679 dd3f a116 e8b7 0353 d5bf
00000010: 55f0 ed68 563c da3f 7f72 fbfb a508 a33f
00000020: 7226 761f 790e be3f a0d2 21c3 9bca d43f
00000030: 1643 4461 7d8e c63f 90bf 2e27 a826 d0bf
00000040: 9baf d05b 0f53 d93f fef5 08b8 631b debf
00000050: 8d96 a7d3 c5c2 cb3f 4b15 e5b5 2d69 e33f
00000060: fe71 7d00 1e86 de3f d51d b369 289f dbbf
00000070: b769 29f1 3dea c4bf d503 5d07 322a d0bf
00000080: f882 6c33 8fda c6bf bea4 e49d f1e5 dabf
00000090: e583 0106 43c8 dbbf b79d ffce b137 c9bf
000000a0: c502 06b3 ee51 c63f 3cd6 224f 6a94 c93f
000000b0: 01b3 6e5d fbd2 e13f a798 709f 2f19 c4bf
000000c0: 05fa 1670 6852 7fbf 3a84 020a 9bf4 da3f
000000d0: 32ea 6969 4454 df3f 7418 9d6b 1fd7 d0bf
000000e0: 3d1b 5bc2 34d8 c03f 5f47 9711 4707 c03f
000000f0: 99de bf92 0698 e13f 8e06 006c 1c6d d43f
00000100: c795 b482 c624 59bf 5964 ffd9 fbe4 dfbf
00000110: 6ac4 9204 48e7 d23f 04a4 b587 056b bdbf
00000120: 27c9 77e7 9ef8 d63f ddcb e41a d4f9 dabf
00000130: 2512 21ec 8d72 d33f a905 08e2 abdd b0bf
00000140: 8004 2197 307e 4d3f 8b3e 9161 be06 e23f
00000150: d3db 002c 023d c4bf 24bc 748b 2f0b dcbf
00000160: 280b eeab 18d0 e13f d24c b9a4 9671 cf3f
00000170: 173b 8c79 001f b5bf bae9 7777 ba2e c3bf
00000180: 0c0b e6b4 fbce ce3f 17b5 9c9b 1a92 a73f
00000190: ee28 07cc 882a e0bf f634 b819 8ffd d03f
000001a0: 73a6 bc91 ba68 e0bf c7cc 92fb 6a7d b23f
000001b0: f4d9 2d09 2ed7 db3f 6752 fa74 00ac e1bf
000001c0: 6578 9f59 be38 e03f b9cf 1080 dc0f debf
000001d0: 7bca 0fdc d892 ccbf 404f 70c9 a886 e03f
000001e0: 2591 8905 e2e2 c8bf 78af 9e59 0973 dabf
000001f0: e7ff 6db7 7db2 d3bf 34aa e7cf 635b e0bf
00000200: f59b d0dc 06e2 c4bf 3ed7 9732 1a42 e13f
00000210: 57f3 2c4d d0f3 c3bf 0ebd b291 f528 d8bf
00000220: 9c53 c828 a2d6 df3f d59f a21e 69e9 d43f
00000230: e6ce 87da ff55 da3f e3b1 8702 6aa0 b43f
00000240: bf4c 5f66 a646 d3bf 1862 831c bbcd d73f
00000250: ba20 8ab8 e64b d43f d416 0b57 cebc d3bf
00000260: 7fd9 51a8 ab90 e03f b4c9 0c97 f739 cd3f
00000270: 7364 afdd 2fed ccbf a185 abbc ddcc d53f
00000280: 43c7 feaf 7718 c3bf 6cac 2fbc 4647 d5bf
00000290: b19d ee55 21ec 993f 94d2 f44a 2119 d73f
000002a0: 8eec 42aa 40a6 d53f 8d8c a3f9 dfff de3f
000002b0: 73ba 729a e5d1 d8bf 6cb0 4c17 1b53 b43f
000002c0: a804 2068 48c0 b7bf 541f 2a3b 61c9 e13f
000002d0: 59bb df59 ecfd d1bf ed1d 4ae0 7b49 c8bf
000002e0: fd47 89cb b7ee ca3f 4888 296d e94b e1bf
000002f0: e26b c90b f0ca e0bf f790 08f0 d198 a03f
00000300: 7c9d 8205 69b6 bbbf b847 ba73 06df da3f
00000310: 7747 ee07 6cbb e03f a61e 3bba a078 e03f
00000320: 574a a660 01c6 a9bf b66a 9001 2e0b e13f
00000330: 0fb2 2725 d2ab cbbf 5130 75ea cd45 d2bf
00000340: 6e8e 07f9 5976 d73f b9ba f292 a591 c3bf
00000350: 06e1 e066 a33e dbbf bc2b ed61 e901 aabf
00000360: 871f aa0d 2d82 e1bf f84d 52fd 4f5c cebf
00000370: 69a9 e4d6 5103 d73f a96c d13a 3935 e1bf
00000380: 7f04 bfda 9e8c d83f 1fde ef40 4895 e1bf
00000390: bc43 c515 db97 c7bf 3146 0e11 0231 e23f
000003a0: c719 03a6 5549 94bf c62d 453e fefc 95bf
000003b0: e0ab 5088 e134 dabf 5288 256c e6cf c9bf
000003c0: e0e2 031b 3a7d d13f 45b3 e341 2b0f b33f
000003d0: 7878 36a8 f33b d83f 332b c566 6aca a63f
000003e0: 0a98 52a9 511c c43f fd59 5b32 1e07 e2bf
000003f0: a9cc 8aac cd74 debf f35e ce4e 71c1 d4bf
00000400: 02f3 4d33 e858 dcbf 4f4d fbdf bbd7 d93f
00000410: 5e4d d42e 6106 943f 7804 62c2 2cbf d53f
00000420: ef1b ff13 5076 c4bf a73a 256c 04fc 84bf
00000430: 7a6a 295b 6bee b7bf 03ad f48a 3bfc d73f
00000440: 24d7 11d8 65df d23f 20ac a5db 015c d0bf
00000450: ba04 874d a2a5 e0bf 6d99 0d4b 1d89 d63f
00000460: 7b92 41b7 d07a d0bf 859a 6c2a 6f11 dcbf
00000470: f8f5 d228 0e59 c8bf 672a 2719 8bad d6bf
00000480: 5a21 e91c cb01 cbbf ed32 2ba8 d6fb d43f
00000490: 2e09 460e bb88 c1bf cee2 927f 619f e0bf
000004a0: 7e26 8fe4 036d d3bf a1ff 1bd6 99e7 9cbf
000004b0: 7330 ba01 ab86 b6bf 7900 1536 7d7d c73f
000004c0: e610 b234 74de de3f 9a64 fa7c 02b0 e03f
000004d0: 6b99 275d 4039 dfbf ce3c dd00 84ab e13f
000004e0: e976 811e 00f7 df3f a89d e5ed 1076 a3bf
000004f0: bae2 e12b f05e d43f 52be af73 42c3 a73f
00000500: 0afe 2126 cced b53f d60b b167 a8d1 debf
00000510: 045c 2eaa 575c 7bbf 3448 50cd 3e50 e2bf
00000520: 095a 2881 49ef dabf db53 029f abbf e0bf
00000530: fc27 ba9d 880d dfbf 4108 ec74 8ef0 ca3f
00000540: f629 4191 e1ed abbf 96f6 f8a7 e42c c73f
00000550: 704a e134 276d e13f f0f3 ef0e 4c2b e03f
00000560: 482a 7ffa ce14 cebf 7e66 5ea2 9068 e13f
00000570: b0d3 1552 e506 ca3f 6a4e d9f5 3f28 d03f
00000580: 6181 b20e 3962 cebf 0cb9 1e81 8e9f c63f
00000590: b72d 29c7 460f c2bf f32c e3ea 8b53 c9bf
000005a0: 235c 2e2f e091 cabf d75e f542 8a14 b0bf
000005b0: 3135 d887 40c4 b83f 335f a8b2 30c0 db3f
000005c0: 609d 741e 9e54 cfbf 9b75 600a 60f0 d9bf
000005d0: 2c43 cd1e 964e dd3f 7956 3408 94e3 cb3f
000005e0: 19e9 045e 6536 d43f 392e b912 6ec0 d1bf
000005f0: c000 4a0b 1889 c2bf 8287 44e7 fd69 cebf
0.4605269461628858 -0.3331918045008511 0.4099327110959668 0.03717535687403472 0.11740834253409974 0.32486623817320925 0.17622344254825667 -0.25235942675043876
0.3956945797569859 -0.4704217240540344 0.21688149294566408 0.6065891792901906 0.4769358639512403 -0.43158922502740654 -0.16339849734761255 -0.2525754043490996
-0.17854490290576286 -0.420284656708258 -0.43409801088824757 -0.1970121632323136 0.17437537900334213 0.19984177459780195 0.5570046257831508 -0.15701861653469004
-0.007646949730256929 0.4211795423271415 0.48951826376256513 -0.2631300497927278 0.13159808626206795 0.1252220950978495 0.5498078218651755 0.31915960833439605
-0.0015346468524709432 -0.4983510617144638 0.29536629149067173 -0.11491427005024951 0.3589246044567908 -0.4214983236917627 0.3038668447445921 -0.06588243740409062
0.0009000527627521931 0.5633232026684295 -0.1581118311748627 -0.4381827222704848 0.5566523893361124 0.24565394442706762 -0.08250430076098457 -0.1498635371534201
0.24069162686290502 0.04603655957758173 -0.5051921830102211 0.2654760123412666 -0.5127842756675832 0.07222622529916399 0.4350085343970982 -0.5522463116381687
0.506926703495776 -0.46971809870160147 -0.22323141808699973 0.5164379057264128 -0.19442391653422778 -0.41327127220096527 -0.30776923096709513 -0.5111559925692917
-0.16314779073692845 0.5393191326281579 -0.15587810295428525 -0.37749995449390006 0.49747518522900136 0.3267462538883568 0.4114989885413095 0.08057272493142124
-0.3011871337632321 0.3719318178605433 0.31713264485780324 -0.3083988046677011 0.517659977673972 0.2283315169857595 -0.22598837208241526 0.34062903809361883
-0.14918418973462097 -0.3324753606563664 0.025314827794913067 0.3609088165278902 0.33827225329486843 0.4843673646811986 -0.38781108935191994 0.07939309424244961
-0.09277775327793114 0.5558324962193901 -0.28112324501755875 -0.18974255038868595 0.21041009367269217 -0.5405165798258702 -0.5247726659975991 0.032415924597701755
-0.10825210938002344 0.41986237813500393 0.522878661622811 0.5147250783274628 -0.0503387861710009 0.5326147108601933 -0.21618105711185406 -0.2855105199457784
0.366598599617851 -0.152882286788971 -0.4256981377289012 -0.05079583473578661 -0.5471406237493149 -0.23719215268339133 0.3595776175085548 -0.5377470158376997
0.38358279573373716 -0.5494729297924471 -0.18432177126899585 0.5684824307556423 -0.01981099916226883 -0.021472904730485153 -0.4094775992586488 -0.20165710716816193
0.27326824796868543 0.07445021017674687 0.37865916659382703 0.04451305870551039 0.1571142269869486 -0.5633688910991733 -0.4758791146261481 -0.32430679984962224
-0.4429264546413806 0.40379235146720743 0.01955558632205389 0.33979338629439537 -0.1598606202735193 -0.010246309805237287 -0.0934817407191221 0.37477005548380776
0.29488512135081835 -0.2556156773559355 -0.520218993588194 0.3521188004437111 -0.2574960507975345 -0.438564101629176 -0.1902177523933657 -0.35434224563929323
-0.21099223052648136 0.32787100241402706 -0.1369851894087985 -0.5194556705165156 -0.3035287601493123 -0.028227237408827602 -0.08799237053080038 0.1835171236107305
0.48232751031925003 0.5214855614641636 -0.4878693494523733 0.5521869675520976 0.4994507120044163 -0.03801014808669417 0.3182945660151223 0.04641158735455221
0.08565975123382699 -0.4815464985478547 -0.006679861488826159 -0.5722955713301929 -0.42085492718743517 -0.5233972650190667 -0.4852010288528843 0.21046620091516569
-0.05454926393629826 0.18105753137381403 0.5445743592084238 0.5052852908844425 -0.23501002532278137 0.5440142794861484 0.2033354426199856 0.2524566555850699
-0.23737252442971182 0.1767442827671818 -0.14109120106364312 -0.19786213845359377 -0.20757677367939306 -0.06281341681221463 0.09674456898229235 0.43360536047974846
-0.24476982581220863 -0.40529633534773674 0.4579215336607827 0.2178826370297207 0.3158200662761757 -0.27736999348119046 -0.14480877448295892 -0.23760961334579284

encoder.0.0.bias f8 [64]
00000000: 84e3 e77f 962a b8bf e662 e45f 56d3 dbbf
00000010: 0bb2 f0bf 8db4 d93f d26a f1ff 5c10 e03f
00000020: 6158 f4ff bdf9 d63f 2b82 1060 7afc d0bf
00000030: af53 6c00 30bb 9ebf 94b5 1540 32d0 d1bf
00000040: c0c9 f6bf f7db e1bf 3035 2ac0 82c3 d83f
00000050: 1062 f2bf 21e9 c2bf 5134 d27f a4cb babf
00000060: d92b 0e00 5c72 d8bf 2a38 11e0 3825 d0bf
00000070: e9d2 e7ff bbad c63f 93ec 2e00 3b61 b5bf
00000080: 5d3f f0ff 7170 e1bf 42e3 87ff e83e c63f
00000090: 83a1 2a80 bcad cb3f 9dec fb7f cf7f c5bf
000000a0: 56dd 0080 71bb b8bf f8a6 fc7f e224 d6bf
000000b0: dd4e ebbf 3f3b d33f c939 f3ff 6520 e2bf
000000c0: 7d3f ff7f b48f cc3f 0408 0040 a452 dfbf
000000d0: 9689 f9bf a05c d7bf 9f29 f5ff 4b62 9f3f
000000e0: e5b7 0600 2a29 d9bf 5a42 f7ff 045a b7bf
000000f0: a7b2 2a00 1d24 d6bf 37b6 ffff 23e6 e13f
00000100: 5097 e0ff 0097 b73f 910f 1200 bb3b e03f
00000110: c722 6a00 15d3 bb3f c82b f63f 4447 d53f
00000120: e6ff feff 7725 d73f e938 0280 f69b d53f
00000130: 03a8 e103 e022 613f fdb6 1f00 28b8 953f
00000140: 470b 0940 b6a0 e03f 37ea 1ac0 c024 d43f
00000150: 5b24 0240 fcb5 d23f 3f3a 0240 4f6e d63f
00000160: 91a7 0540 3c8d e13f 0577 99ff 8fd1 bf3f
00000170: 7887 fcff 236e e0bf 94d9 1d00 5b61 d23f
00000180: 5a68 2e00 4ef2 dbbf 0da9 feff 8aa2 b0bf
00000190: c430 02a0 777a d8bf d89e 1100 5ef8 d83f
000001a0: ad48 fb7f 78b7 c63f 68a1 e67f 9789 cc3f
000001b0: 125b 0340 d65a d93f 46d0 0c80 2b0a d23f
000001c0: 7e60 1700 88e3 b03f 9998 0700 7b1b d83f
000001d0: dd97 2900 e081 c03f 9a0c f27f 190b d2bf
000001e0: c367 4480 5ec9 d53f 7588 d600 cc2c a73f
000001f0: 7ba1 1400 9957 d43f 2eaf 3c80 f6d4 c5bf
-0.09439983961773463 -0.4347740112730619 0.40164512390291013 0.5019974707496095 0.3589930533938795 -0.265410035908675 -0.030010938669039863 -0.2783322931125778
-0.5581015347764193 0.3869330288515185 -0.14773961899187826 -0.10466983910210216 -0.38197994237333216 -0.2522718609005802 0.17717695231808442 -0.08351486925578148
-0.5449762343214207 0.17379486538973238 0.2162395120442505 -0.16796296834204308 -0.09661015868265585 -0.34600126742098736 0.3004912733278909 -0.5664548872971916
0.22313553094727104 -0.48941904306423134 -0.36502856013807994 0.03064841031781784 -0.39313745501101344 -0.09121733903089915 -0.34595417991912786 0.5593433380105982
0.09214788672451601 0.5072913171174936 0.10868960628625778 0.33247476812601606 0.36166191100710277 0.33764421940658323 0.0020918250366337445 0.021210312850533864
0.5196181536378867 0.31474322090403767 0.29235750437562097 0.3504827618679975 0.548490643542424 0.12429141988965504 -0.5134449004874417 0.2871921063555416
-0.43666410463049987 -0.06498020887253038 -0.382474809892994 0.3901591301605385 0.17747408150768731 0.22294896836434508 0.39616924525528063 0.2818707228173064
0.06597185137013814 0.3766772747316139 0.128963470534642 -0.28192746634176447 0.3404155972108322 0.04526364813070042 0.3178465367114069 -0.17056161176275836

encoder.0.1.weight f8 [64]
00000000: d621 9366 3dbb f03f 1f87 555c b3b3 ef3f
00000010: 7657 4adc ab96 f03f d782 20c9 7482 ef3f
00000020: fb2c 474d 2358 f03f 5391 e78e f275 f03f
00000030: e03b d73d a745 f03f 5b5e 89b6 0109 ef3f
00000040: 3ae8 1e53 0e6b ef3f 2a33 254d 05c5 ef3f
00000050: 3320 33e2 6b99 ef3f 6311 0071 761e ef3f
00000060: f0b1 1477 3cdf ef3f 8965 28a7 c2b8 ef3f
00000070: b553 6dd0 05c4 ee3f 2cdc fcaa 5a35 f03f
00000080: 992f 8080 c835 ef3f d06e a0a8 bc06 f03f
00000090: d97d 13bd 780d f03f 8821 b92c 9225 f03f
000000a0: 8408 52e4 e6a7 ef3f c9fa 6aa2 f78d ef3f
000000b0: b273 9c34 f4ce ef3f 5fcc 757f 9506 f03f
000000c0: f2e0 903e 9e9a ef3f 9cba cde2 e57b ee3f
000000d0: eba3 f8bf 88ca ee3f 1bdc a83b a43e ef3f
000000e0: 9df7 0de2 6db5 ef3f e7ee 37f0 0fcc ef3f
000000f0: 9357 bcde 78ad f03f fc81 58d9 4102 f03f
00000100: 3394 6b9d f8f2 ef3f e69a 9440 c159 f03f
00000110: 849d 6686 c3dc ef3f 5369 697c 99e9 ef3f
00000120: 2a7c bed3 af51 f03f db52 c9c8 2f3a f03f
00000130: 29e5 776d f8f7 ef3f e6c8 71fa 558c f03f
00000140: 3faa c4f0 3e2f f03f 9195 535f 3f2f ef3f
00000150: 4f78 bedb 1468 f03f 95cb bc43 9529 f03f
00000160: 5ce1 8d51 c208 f03f a9f3 b9c3 e6d7 ef3f
00000170: 41c7 0851 9334 f03f 3853 1023 e675 f03f
00000180: 7b3e 2353 183a ef3f aa2a 84a3 2a16 f03f
00000190: 5d25 0074 5508 f03f d5e1 3ee9 e043 f03f
000001a0: e674 da16 5164 f03f 0ebb 2aa1 4e04 f03f
000001b0: 0867 e385 5e78 f03f 3fe1 f3c3 216a f03f
000001c0: 8f4d 3e6f 9147 ef3f 54c3 059c 4552 f03f
000001d0: e6f5 a088 8f03 f03f 65ae e473 5963 f03f
000001e0: 96c1 2b4c f8c3 ef3f 0784 a35f aa32 ef3f
000001f0: 93ce 3695 ec0c f03f ad5c a139 2392 f03f
1.0457128531289661 0.9906861117744689 1.0367849927037844 0.9846748283635759 1.02151804148417 1.0287957746705458 1.0170051971106133 0.9698494496505633
0.9818183539821412 0.9928003794426321 0.9874782007182205 0.972468586639064 0.9960005117223414 0.9913037552643554 0.9614285536614405 1.0130259207924253
0.9753153333453951 1.00164476270486 1.0032889734064752 1.0091726061819788 0.9892458400138513 0.9860799953674696 0.994012930637487 1.0016074160492037
0.9876242849341266 0.9526242666014073 0.9622234105528354 0.9763966717936258 0.9908971228721729 0.9936599437491765 1.042351598798153 1.0005510797565185
0.9984095644582623 1.021912815349134 0.9956987023369241 0.9972655706326726 1.0199430724385459 1.0142057269305755 0.9990198267034077 1.0342616827952553
1.0115346341141416 0.9745175229879114 1.0254105170966061 1.010152115439927 1.0021384416305272 0.9951051543026682 1.0128358045007675 1.028783928840495
0.9758416770727786 1.0054117572168857 1.002034619452693 1.0165719138295704 1.024491395254978 1.001051549490231 1.0293870191584933 1.0259111074829688
0.9774863407823647 1.0200859160069813 1.0008693062840108 1.0242552306252943 0.9926721084321339 0.9749347560829172 1.0031553105044722 1.0356781245407476

encoder.0.1.bias f8 [64]
00000000: 2c22 1edc cd27 9b3f 84d9 f7b1 0a66 863f
00000010: 108c e357 0990 4bbf d144 0e9b 95ea 85bf
00000020: 7a33 953e 2ba2 73bf 6995 c5e8 123f a33f
00000030: 805e 5c52 c4b7 aa3f 4c45 15cc 9fc2 84bf
00000040: 5509 ff2b 28e5 6c3f 48a0 01b9 807e a5bf
00000050: 31c4 478e c674 a03f ef37 ab9e 6cfe 993f
00000060: b8ad 3eee c332 883f 37b5 22b5 d089 923f
00000070: 9a93 03a9 79fb 7bbf 3c1c a66c 4b47 a2bf
00000080: 4dd9 fd1c 179c 953f 7aba cdcb 9b29 9e3f
00000090: 629b 4cbe edd3 81bf 0c80 b88d b7d9 a73f
000000a0: 0f1d 94de 2771 8a3f ef4f 4086 5e26 9a3f
000000b0: 4524 595b f296 a2bf 850e beeb fdcd 98bf
000000c0: d491 92ca f848 7e3f 608e e9c1 0609 99bf
000000d0: 15f1 f9a7 89e2 6bbf 978e 4932 d92c 83bf
000000e0: b011 9c03 26b8 8ebf 5071 b3db ce15 723f
000000f0: f8ab 68aa abc8 9b3f 28b8 8c26 05f8 863f
00000100: 518b 1b0e 8c13 86bf 7839 7d81 0f8a 58bf
00000110: a9d7 2477 092e 773f 3b45 c24e fa89 8b3f
00000120: 6521 9f8d 3dfa 9a3f 51a9 b2a9 b9aa 9d3f
00000130: 62de 448d 1958 9bbf 80a7 83cb 6a5d a63f
00000140: 9d70 9dbd 39a5 9abf 76cb 12fe 6b53 a43f
00000150: c59c ea0a c664 a23f a90f 6b6c d1d2 92bf
00000160: 673d 977d 8a4a 783f fc5c e015 9a20 7fbf
00000170: 9442 873c f814 a63f 0de0 e69f e60c a03f
00000180: ed48 2228 ff3d 9bbf 13ad 4b84 5a8d 9c3f
00000190: e242 b561 5443 85bf 2b8e 2940 a976 3a3f
000001a0: 15c5 aa23 d482 9f3f da29 7399 9c08 a23f
000001b0: 527e ee52 d1f7 a63f 5396 20a6 ab9c a03f
000001c0: b146 406e bfee 7cbf 7ddf a366 7b5a a1bf
000001d0: b5c1 9039 5d20 81bf 31f7 08f6 072c 25bf
000001e0: 4c54 344a fe9d 723f 42d8 319c d208 7b3f
000001f0: 5fe7 49f7 afc6 2bbf 3810 13d2 1ce1 9c3f
0.026519028243941076 0.01093681674590808 -0.0008411450978907959 -0.010701340479302964 -0.00479332821244049 0.037590590395477026 0.05218328004246775 -0.010136841216680147
0.0035272392851492342 -0.04198076494577713 0.03214092718906903 0.025384614166618687 0.011815577228694404 0.018103848510397227 -0.006831622348021061 -0.0357001848342908
0.021103249687678006 0.029455599130808065 -0.008705003137561899 0.046582923936739545 0.01291113994604001 0.025536992019695445 -0.03630788197603655 -0.024223296655249377
0.007393810120593664 -0.024448495469540865 -0.0034039200398280436 -0.009362885329387267 -0.014999672875554676 0.004415329017515582 0.027132684970791104 0.011215248335783981
-0.010779470615892047 -0.001497759954833448 0.005659138654939535 0.01344676545002931 0.026345216530701338 0.028971577627694704 -0.02670326161134396 0.04368146642975912
-0.026020910452061775 0.03969895817262785 0.03592509158380034 -0.018382332079241035 0.005930462817061644 -0.0075994509661747554 0.04312873591300562 0.031348425883550225
-0.02660368616540947 0.02788297111957856 -0.010382327300847153 0.00040380127044256875 0.030772509266801047 0.03522195218245701 0.04485944878910843 0.032445301083765664
-0.007063625122116044 -0.033893448142349826 -0.008362510985620778 -0.0001615295141323358 0.004545205421227893 0.006600210853426049 -0.00021191499731170856 0.02820248634522235

encoder.0.1.running_mean f8 [64]
00000000: 290b 1004 7e61 a23f 4cc6 7710 095c d4bf
00000010: 69d8 5f2d 199d de3f 6a8d 1640 bacc e23f
00000020: 457b 325f 5422 d53f 9553 4c16 f53e debf
00000030: 0205 e61f d514 c2bf 2b78 314e 30f7 c0bf
00000040: 38a6 8795 25af d5bf 9787 eb1d 9fa9 d83f
00000050: bb83 1fd2 1c17 b03f 6ec1 39ea b936 c7bf
00000060: f4b0 9b91 32b8 d4bf 1fe4 80a3 51c6 c0bf
00000070: 4477 241d fd5c c53f e8a6 f08b cc8a b4bf
00000080: 8baa 40ca 7d20 e3bf e691 d7d4 77bc c03f
00000090: cdd5 6c75 c5d9 d33f a3d5 7af9 2b24 cbbf
000000a0: 6f4a 076f ca6f d4bf 6aa7 0f3c 1433 d8bf
000000b0: 9192 c0b3 3da6 d23f 5c7d 3913 b981 d7bf
000000c0: 78ab 247d f058 d43f 3fac 8965 2f9b d8bf
000000d0: 40cd 1f36 77e2 d7bf 5e7b 5fc5 a46e a63f
000000e0: ead4 d604 aa61 d2bf a3f8 b450 e28e a43f
000000f0: b84e 3528 f132 dabf 45e9 1b64 30b8 d33f
00000100: 2195 8f1d 6eec d23f 1d9f c7b6 16fe e73f
00000110: 50c9 61b0 ba7e b33f 48aa 0947 00f6 c63f
00000120: e711 a602 6687 d03f 7d94 e6f8 d862 c53f
00000130: 771a 4b7a 0614 b73f 9abb ec85 2cff c0bf
00000140: 521b 60e9 a547 e63f f561 9285 94eb cc3f
00000150: 546c 086a 8277 84bf e9e7 eec6 2128 e13f
00000160: 8234 0d11 7eff de3f bf90 05b0 adc3 cc3f
00000170: ed5b 06bf fbbe e3bf f086 78b3 aa9e a83f
00000180: 8a18 0adc d039 dcbf a4af d544 cb6c d1bf
00000190: f038 c054 abf1 cebf 4af4 ca82 cf03 e13f
000001a0: a8b5 4af3 a97d d73f d2e7 d2bb 847c c13f
000001b0: 2436 f112 038b c33f b6c2 2442 386c b63f
000001c0: 28f1 dca6 4c5c cd3f 69c4 9d0d 5f61 e23f
000001d0: e838 1991 1143 c73f 2e91 2da7 a296 d4bf
000001e0: e62c 6cc1 1e1b d33f 9b55 42cb ac5d 7bbf
000001f0: 12a4 b3ae 88e4 e13f d0b7 742c 2830 d5bf
0.03590005683510917 -0.31811739547911055 0.47833852225392676 0.5874911548348056 0.3302203111324398 -0.4725926130061507 -0.14126075799507737 -0.13254360025433817
-0.3388151130917296 0.3853528778255337 0.06285267000158871 -0.18135761200711492 -0.32374252528712977 -0.13105221255844499 0.16690029070826473 -0.08024290482049035
-0.597716231369604 0.13075158970526884 0.31016670672701424 -0.2120413749850459 -0.3193231663000579 -0.3781176172766353 0.2913965468781408 -0.36729266049765896
0.31792843075771016 -0.38447174945639867 -0.37319736753052624 0.043812893956547624 -0.2872109458215407 0.040152618743819056 -0.409359254136898 0.3081170060755947
0.29568055044940605 0.7497666902463355 0.0761524849529327 0.17938235729828222 0.2582640672556224 0.16707908776621486 0.0901493118827633 -0.13278728999418093
0.6962461050141917 0.2259393360334482 -0.009993571148745918 0.5361489186682294 0.48434402146524047 0.22472163290797728 -0.6170634013132009 0.048085531623895394
-0.44102879989839805 -0.2722652599538782 -0.24175016058183685 0.531715159849804 0.3670449138542957 0.1366125027760164 0.15267980980790796 0.08758880247911346
0.22937925479517074 0.5743861452048239 0.1817342718590631 -0.3216940529439566 0.2985302819149197 -0.006681132294166582 0.5591472065108312 -0.331064265645975

encoder.0.1.running_var f8 [64]
00000000: 769c 23d2 9558 9d3f e38b 85fc 4bb1 913f
00000010: fecf 5844 a062 893f c1be 2ad1 6722 a13f
00000020: 6684 f865 8ec9 903f 754b 01e6 ae6e a93f
00000030: 62af 4a05 c3bb 963f 1224 858a f957 a13f
00000040: eadf 9fe7 f3a0 af3f b5fd 2f01 4d12 703f
00000050: c259 0913 4772 ad3f a77f 1f39 5120 903f
00000060: f2ad 9649 a318 8c3f 845e c4d9 bc5d 9a3f
00000070: 22c2 9759 6100 933f cd2e 0ced 7d9e 6d3f
00000080: e5c4 8e80 b155 8f3f f00e fde6 9be9 883f
00000090: be08 32be 07a3 9c3f edaa 9bb6 5e95 983f
000000a0: 9acd e856 a0df ad3f ca03 8fda 76b1 993f
000000b0: daf1 f585 023a 8e3f 867d 884d 12c5 a83f
000000c0: 9108 3bd2 cc00 963f 4395 86e3 b94c 9a3f
000000d0: eb38 9bf6 77db 753f e517 2d6c 3620 853f
000000e0: 7ea2 1577 3a88 9e3f 9188 925e 5d5a 9b3f
000000f0: 4c94 6c53 3020 853f 6228 857d d3f7 b43f
00000100: a53a 60ee 8176 ad3f 34f8 1ae6 4429 b23f
00000110: 6f64 8e6e b385 863f da19 875f 62bf 9e3f
00000120: 3e23 47ba e6ef 9e3f 121d dd72 2fc5 a73f
00000130: a4f4 fbcf 5078 933f b11d 2bbc b42b 9f3f
00000140: 404e 6044 839e a23f 14d4 ed94 c8c8 933f
00000150: ebd5 5228 03bc ba3f f87e cb40 24d6 a43f
00000160: bcd8 83b2 e525 743f 0047 bcb3 0cee 953f
00000170: 1978 0c8d 4a1a 973f b2e0 80cb 24c9 b03f
00000180: 20e3 b7e0 50a9 733f 4921 29da 6ee8 ab3f
00000190: 3368 325b d73c 9e3f 1251 3ae9 5c69 a43f
000001a0: 8a76 aa09 d38d a63f 3072 c7d1 3efa 8f3f
000001b0: 38b6 1f8f e35e b33f be3e 1d97 d79d ad3f
000001c0: 39ae a88a 7e7c a33f ae63 ba4f 4807 ab3f
000001d0: 6c5c 86f4 e23c 823f 5e88 f1f6 b83d 753f
000001e0: 79a9 2d19 4a40 703f 75b4 a208 dee5 933f
000001f0: d64a 3885 5324 b13f 3e92 0220 852d 9e3f
0.02865823836409872 0.017277896201800657 0.012395145498068413 0.03346561840350893 0.01639387605076017 0.049672570778645765 0.022200629423124403 0.03387431922835317
0.06177484705398213 0.003923703002328184 0.05751249415759531 0.015748280631555336 0.013718867953534695 0.025748205939719174 0.018556138127623474 0.0036156138888879586
0.015300165878075986 0.012164323794088244 0.027965661033257254 0.024007301230919365 0.058346758469635066 0.02509103497482438 0.014759082520634449 0.04837853619050762
0.021487427073914992 0.025683311950748033 0.005336254698433 0.010315346885942442 0.02981654502710506 0.026711901566735256 0.010315301462080616 0.08190652670342183
0.05754476580488203 0.07094221704298392 0.010997201739700395 0.030026948051977566 0.030212025756358722 0.046426279803705964 0.019013655371044394 0.03044016264428046
0.03636560640020692 0.01932061585417351 0.10443134054624863 0.04069627085641331 0.004918954138920902 0.02141589972513369 0.022561230524949936 0.06556920975060868
0.004800144127778322 0.05450769818395657 0.02952896589395255 0.03986635539073026 0.04405078404418557 0.01561402394957509 0.07566663974986276 0.057844865032732326
0.0380591911565173 0.05278993581050116 0.008905194365793366 0.005185816305216388 0.003967561194125551 0.01943156173426926 0.06696054460943954 0.029470520094621692

encoder.1.0.weight f8 [64, 64, 3]
00000000: 6ffa 3e83 da63 913f dc33 10a1 315e 83bf
00000010: 3057 4135 1bf8 94bf ff7b 6715 27a9 a43f
00000020: f295 f8c4 e103 b13f 1b93 5ff5 8cb2 a6bf
00000030: f7d8 33c2 a1ac a7bf 7dd6 bfeb 4b9b a9bf
00000040: d895 44a1 3af4 b83f a8d1 5519 9004 5c3f
00000050: d786 24a1 33de a43f 7105 03a6 b7d5 b63f
00000060: ef92 eff4 096b 8abf 2da8 d5f1 f991 89bf
00000070: 2fd5 ddd1 31b9 923f 2eff 719c ac5e b1bf
00000080: c83c 6e0c 3a81 8bbf fa8c 17dd b089 983f
00000090: 5fa5 b949 497b 8bbf 5e6e 5640 cb22 a03f
000000a0: bd67 f839 502a a73f b95b 34d8 3328 8d3f
000000b0: 1c82 2e3d 99ce 94bf bdc4 600f f6ae a23f
000000c0: 53cc 642f 3dc5 a03f 1edf 153e c5a5 8bbf
000000d0: ad41 15ca a3fd a5bf 521e 71ad 0b0f 9dbf
000000e0: 71ee 88f9 45a0 88bf 5a88 679c 2feb a93f
000000f0: c8e7 24e1 96a6 9b3f 00ed b0ec cb03 963f
00000100: 7539 7891 0722 adbf e9a1 c29a 3283 59bf
00000110: c2d6 7afb 966e a0bf dbfb 5083 fddb 93bf
00000120: 0294 c54c 9f67 86bf b270 c84a 67a9 5e3f
00000130: 6e57 ac6f f5e4 54bf 6526 2b4d 0958 b33f
00000140: b953 1858 9ea8 523f a621 ca1a 096b b23f
00000150: 81b3 af91 60e9 9b3f 4d85 4f59 0a96 53bf
00000160: c879 903e 7fa2 9c3f 1303 6250 e8a2 93bf
00000170: 467a 3abb ce1e a73f a460 c522 17a0 9c3f
00000180: b7a4 ad85 6f14 b0bf 5d04 d302 ba3e 973f
00000190: 2210 baa3 c8e3 abbf 0486 92fd 5015 8d3f
000001a0: 89df abea 0ed9 af3f 2a69 c827 9127 a23f
000001b0: b667 b2df 5549 b23f 73ff 6c20 2b2e a7bf
000001c0: ec76 8b45 781c 8b3f a404 b74d 0577 a73f
000001d0: 2687 f2b1 65cc b03f eb03 3332 e80a af3f
000001e0: ddc7 5241 b82a 603f 13fe 839d b70f b23f
000001f0: ccd3 dad7 c8aa a03f 085b a6b1 fc90 8fbf
00000200: e470 95de 4cc6 a9bf acb2 b7eb cb8f b93f
00000210: b644 0595 02db 963f f9ea 825c 4108 9f3f
00000220: c902 d57b f467 b43f a835 f129 7e4b a83f
00000230: be74 8cfd d674 4e3f 03a8 e098 90d7 ac3f
00000240: 487b eae9 f24a 983f 1f7f 93a3 3e86 abbf
00000250: 907a 3c1b 09e2 ad3f 66b9 b5df d1ad a2bf
00000260: 8365 d4f6 998b 88bf 5857 b5d3 f2b4 b13f
00000270: 3d75 0596 3915 a63f 141e e84a ad94 a93f
00000280: b8d6 b77c 9500 953f 4d61 b378 3a44 903f
00000290: 39ab ef1f ade8 97bf 7058 e1f1 e95e a33f
000002a0: f2e1 08b5 e63d a23f ec68 368f 11ea aabf
000002b0: b471 5d61 c118 873f 97b5 961a e689 86bf
000002c0: 19f7 a1c0 3a16 903f c689 c173 18a2 8b3f
000002d0: c9fb 3c80 3b63 a2bf 773a 3a58 510a 67bf
000002e0: a295 aa35 0a3b b93f f3b3 f765 b1e0 813f
000002f0: e9a3 220d 4209 a63f b134 8bf7 dc5d 853f
00000300: f244 c56a e479 803f e893 621e adbd b13f
00000310: c2d2 9c4a 273d 213f 0cc0 cd6a d859 9c3f
00000320: b47e 87c9 017b a73f f96f 88b6 1605 a2bf
00000330: a1a9 2c16 bea1 9ebf c7b7 4a70 58f7 b2bf
00000340: 20e0 8abf 11e4 9b3f 6c98 cd28 812b 933f
00000350: 2f99 78be 383a abbf 12c8 c348 d6bd 853f
00000360: 8ab5 1550 5b48 b63f 91ea 7009 c553 a63f
00000370: 2da8 1dde 5736 b63f a22a dad0 1c81 af3f
00000380: da6b af1f 2d7a 6c3f e0fd bd48 0da8 b2bf
00000390: b8f9 d2dd 9d2d 8f3f b12f d3d9 f355 ac3f
000003a0: 5ff1 1698 198b aebf 74fd e1ec 2e66 aabf
000003b0: 10f9 9ed6 70d7 8f3f 01fc 9ab2 9ee9 963f
000003c0: 1447 dc51 4f46 9c3f ec36 763c be0d 9cbf
000003d0: 0d94 c44f 35ca b23f e5f6 cdc7 889a a23f
000003e0: f1c6 24af 3fc3 a73f 45b2 bb4d 390b b7bf
000003f0: 819b c2f5 aafc a73f 5241 61c1 0a2f b03f
00000400: ad60 3fa0 ce86 b1bf 43d9 219a 6489 a33f
00000410: 838a 3c2b 6f23 9dbf f995 5e03 39af b03f
00000420: 13c3 3903 a278 b1bf 3bf8 a39c d948 8e3f
00000430: 03bb e9de e9f0 9f3f b551 4433 ccc1 a63f
00000440: 2124 e8a6 6d3b ab3f d314 821a 0362 963f
00000450: ad0f 5c81 f754 af3f 3431 ecf8 045a b03f
00000460: 0882 7914 c2df b3bf 40fd a645 dd38 893f
00000470: ce93 2997 0e46 803f c497 552d 9b65 b2bf
00000480: c053 d669 721b a03f c6d0 3225 b3a1 a53f
00000490: 9f4a eb3a 184d 66bf 3248 c1ce 5b59 a9bf
000004a0: dd72 ec48 a310 a13f 640e c229 8e08 b13f
000004b0: 55e5 fc97 b233 a6bf d4a2 12b7 d4df b2bf
000004c0: 0b7f 985f 032a a4bf 96e8 1833 9946 82bf
000004d0: 670c a3b1 e9e2 92bf 1bbf 4572 40af a53f
000004e0: 0408 3c5f a9e0 aebf 189e 2071 c449 a23f
000004f0: 2c0a 2492 835f a63f 3cc7 ef4a dbc6 b3bf
00000500: 24d8 bef3 3b56 abbf 468f 5055 2ad8 97bf
00000510: a745 d1fc 9bbb aa3f 0f91 d4d2 32dc aa3f
00000520: edcc 59b5 5b1e a93f a66b 892d 2dc0 b23f
00000530: 73ab 9a3d 2e11 ae3f c325 34ef 29b4 6fbf
00000540: ce0f 37c2 e127 a13f 574c 029c 8b03 b0bf
00000550: 002c 5fb4 6a26 b33f 5147 4121 d7b9 ad3f
00000560: d954 7bba 3988 92bf 242b 5a02 c549 a73f
00000570: 1a59 1f55 1d8a 94bf 8357 bce7 1b1f 80bf
00000580: 55d5 08fa cfea a8bf 16b2 8fea a056 a3bf
00000590: 0d42 0d2f 5e72 77bf 9b6f 3232 af6c 68bf
000005a0: 9b17 d57e 817d ab3f 696c d9c6 201b 87bf
000005b0: b803 3299 bdcb 9bbf db51 e2a6 d2a5 853f
000005c0: ebf4 e880 276f a3bf 823c aab8 81c2 68bf
000005d0: 0210 5cfb a309 b13f 44ed e390 728a b23f
000005e0: adf6 8741 82c6 a03f defc 60e9 8674 9cbf
000005f0: 76b2 229f 9658 b2bf 4ffb 6551 092f ad3f
00000600: 226d 53e8 8887 a93f 2871 504d 179c 943f
00000610: 1603 6ca9 4aa0 b53f 4b6f b96c a828 7b3f
00000620: 3e5c 02bb 1344 943f 8105 fce7 e8d6 a83f
00000630: 5672 9e43 b094 a03f 4232 25e2 cf7a ac3f
00000640: 4f3e 91fe e85e a03f 7c44 6738 29c4 863f
00000650: 860d b798 7ceb 85bf e3a5 c441 604d ab3f
00000660: b87e aa4d bc93 92bf a5f3 59e5 7a9a 823f
00000670: efcd 0667 4127 aabf 070f d941 308d b33f
00000680: 8103 244f d9e5 acbf 41c1 fad6 f711 7bbf
00000690: 5586 15d9 0a1e b33f ec6a 64e2 2c61 b83f
000006a0: 1add 757b 222b 4cbf f2d4 3b5a ea1e acbf
000006b0: ff1e b02c 85d3 a43f 7baa 19b7 28a8 a03f
000006c0: 1e2c b2a1 07c4 acbf 6149 2055 d35b 623f
000006d0: db9a 4728 478c a9bf 6256 c487 cec2 a8bf
000006e0: 487d d849 8bb4 a63f 4b34 f942 6a4e a93f
000006f0: fa30 5b1b ddd7 483f ff48 282e d1b9 a13f
00000700: 3745 b68d 9f82 aebf ac70 1403 3c86 b13f
00000710: 6fab 4cfc 3c75 a8bf 553b 7cd6 a114 afbf
00000720: 0a79 eb7e 1d45 a6bf fc8a f038 1fcf 9d3f
00000730: ffc5 cb48 d668 a53f 18eb ecbb fb25 a43f
00000740: cd78 ee08 c94b a3bf 5668 b911 904e ad3f
00000750: 6b5f 29fa ae43 793f 541b ca6e 52d0 a83f
00000760: 44e2 3a6c 2ac7 8bbf b866 f3f4 23a1 97bf
00000770: f1f3 460a 5d54 afbf 3801 2a45 e020 a7bf
00000780: 2d19 9f76 1794 b23f 8245 8911 60a4 95bf
00000790: ccb4 6f6b 833b a63f 65e2 b41b d14c b03f
000007a0: 7236 90a0 6244 a0bf 2939 d824 11d0 95bf
000007b0: c999 86b2 82f3 61bf c1e3 318d 9538 87bf
000007c0: 281f 869f 9cd0 b83f 4d36 8645 295f 90bf
000007d0: c20a 8a7e 8476 933f b0d1 6ceb 38ed b13f
000007e0: 7830 87a6 5058 ac3f e04c 0bdb f576 b03f
000007f0: 20c0 08bc 16c1 b2bf 5cc1 fcba 4931 993f
0.01698247362196031 -0.009457004287492347 -0.02047770035308999 0.04035303245813537 0.06646548327315552 -0.044330983116912935 -0.046238951641429375 -0.05001294377136121
0.09747663914875859 0.001710072251936182 0.040757764263856515 0.08919856837294106 -0.012899472987507347 -0.012485459034639568 0.018284586366879182 -0.06785086459603626
-0.013430074219085944 0.02396274899900861 -0.01341874366990464 0.03151545677539212 0.04524470050473848 0.01423683646730277 -0.020319361075623474 0.036491097809979924
0.03275481418167971 -0.013499775845715652 -0.04295074312051681 -0.028377706967403 -0.01202444713373227 0.05062245163186736 0.027002675525387848 0.021498857804755467
-0.056900249965212625 -0.0015571588692556654 -0.032093733022902096 -0.019393883838571085 -0.010939831285847749 0.001871443625652208 -0.001275291141330705 0.07556207784650722
0.0011388346032436948 0.07194573310892469 0.02725745095442589 -0.0011954403937511516 0.027963627046227818 -0.019176130205326446 0.045156917910607094 0.027954446313146378
-0.06281182302122344 0.02270022051084585 -0.05447222708338041 0.014200813997663715 0.06220289816513886 0.035458122354798796 0.07143151007986046 -0.04527411242315695
0.013237895605409965 0.04582993100803748 0.0656188544694741 0.06063008892807161 0.001973495362642004 0.07055232616038891 0.03255298266359538 -0.015413259669725857
-0.0503410360058483 0.09985041146110046 0.022319832177633635 0.03030492903847468 0.07971122763866413 0.04745096456518222 0.0009294557340556937 0.05633212915593335
0.02372340729436509 -0.05375858065394667 0.058365139555680234 -0.03648238998254065 -0.011985018582481249 0.0691673056474803 0.043130683482312616 0.0499624399126867
0.020510040032567928 0.01588527070711736 -0.02334852702544341 0.037833510185621644 0.03562851867576801 -0.05256705163192685 0.01127768591293763 -0.011005208670065865
0.015709798819890517 0.013492766411393197 -0.03591333332450792 -0.002812537075278339 0.09855712709630507 0.008729349064163094 0.043039383033210594 0.010432936005054879
0.008044991024379364 0.0693004798109339 0.00013152222282432872 0.02768648292425273 0.04586034379076179 -0.035195073873381895 -0.0299138737711161 -0.07408669225216534
0.02723720294554266 0.0187206441072693 -0.05317857098661915 0.01061599168358288 0.0870415754813704 0.0436078619026904 0.08676671192884618 0.0615319256731557
0.0034762269328729558 -0.07287676835948487 0.015223725635561944 0.055343265857657704 -0.05965499860346556 -0.05156084672580166 0.015547639417374387 0.022375564242562266
0.027611960765233937 -0.027396175804418485 0.07339795300920589 0.03633525313396805 0.04641150486930979 -0.09001501224310811 0.04684957742693197 0.06321780415715253
-0.06846324360174334 0.03815760022637218 -0.028455483449884255 0.06517368633520694 -0.06824696139097979 0.014787387936390775 0.031192449789553055 0.044447308786547714
0.053187777160992995 0.02185826157849109 0.06119512037369588 0.06387358739101928 -0.07763302802914762 0.012315491378898202 0.00794612311183043 -0.07186288697047788
0.03145940343816944 0.04224929646571378 -0.00272230846835815 -0.04950987719406931 0.03333006158047678 0.0665367938946076 -0.043363171628196064 -0.07372788877058706
-0.03938303510608251 -0.00892371833025533 -0.018443728892418323 0.04235268969466529 -0.060307782054238174 0.03571905022573335 0.0436974635977275 -0.0772530610991255
-0.05339228964241752 -0.023285542924113466 0.05221259556914087 0.05246123145687608 0.049059739959284566 0.07324488031137708 0.05872482778553136 -0.003870088484863672
0.033507399518867595 -0.06255409773648189 0.07480494407279537 0.058058474358985486 -0.0180977840489803 0.045484692132126164 -0.02005811531110977 -0.007871835717690128
-0.04866647650889414 -0.037770298607800054 -0.005724304109052014 -0.00298151224121841 0.05369190858122793 -0.011282211368941657 -0.02714439628153162 0.010570188253304849
-0.03795741509063951 -0.0030224355335302664 0.06655335318288283 0.07242504155504031 0.032764502047922896 -0.027788265222849932 -0.07166425118584549 0.0569994842398872
0.04986217342385603 0.020126690000425246 0.08447710644032855 0.006630571278573981 0.01979094342149445 0.0485146315750269 0.03238440347124498 0.055624481540324414
0.03197410686027224 0.011116334947390387 -0.010703061495297882 0.05332470705827654 -0.018141691437107282 0.009083709835289453 -0.051080745531546394 0.0763731156121673
-0.05644110766480193 -0.006608932613446251 0.07467716026214906 0.09523277785448742 -0.0008596342440076205 -0.054923366083963546 0.04067627115733607 0.03253295168982092
-0.056183088768271924 0.0022410514438970107 -0.04989836088843954 -0.04836125762282674 0.044346192135203355 0.04942638461634682 0.0007581548331585801 0.034620797047084644
-0.05959032635576949 0.06845450473014364 -0.04776945667102594 -0.060704286033902356 -0.04349605726541668 0.02911042008430352 0.04181546820280956 0.03935228985797873
-0.037687570896410706 0.0572400113712354 0.006168063645041725 0.0484643707505287 -0.013563472202222766 -0.023075639558419708 -0.061190516953025915 -0.045172699396973603
0.07257219930679489 -0.021134854383779274 0.04342280088881409 0.0636721317904488 -0.03177173814775082 -0.02130152499562957 -0.0021913101847587974 -0.011338394519258334
0.09693316359164028 -0.015988011234688227 0.019006796096173735 0.07002597568209157 0.05536129029096143 0.06431519124753349 -0.07325880137136709 0.02460208133487761

encoder.1.0.bias f8 [64]
00000000: 3692 fbff b6d5 90bf 3542 0280 3496 b03f
00000010: 06f0 4100 1a1e 773f 2600 0020 2a71 b2bf
00000020: 7e22 dbff f764 8f3f 65fd e49f 0399 afbf
00000030: 8153 0120 6f52 b1bf 3d3a fc1f f862 a0bf
00000040: cab0 1540 0a72 a33f ae63 f47f 4590 a03f
00000050: 6a9f 2f40 f525 a43f 1ac5 fb9f 642c b1bf
00000060: b8cf 0420 3441 a3bf 04e4 0400 613a ae3f
00000070: 6d25 0300 9e64 aa3f 420e 0e00 e96a a3bf
00000080: c690 bcff 7371 873f a45b 0080 5f66 a33f
00000090: 3d21 6d00 c488 7dbf 4f00 e8bf 74b3 92bf
000000a0: e116 09c0 a2f7 a33f 67f4 0180 791e 9f3f
000000b0: 378a 2c80 e69e 9f3f af32 fafe 27d7 5cbf
000000c0: a7ee 0900 e44f 9b3f 7aae 0040 e249 a43f
000000d0: e9b4 1e00 8781 87bf ff30 f5bf 5ce0 a6bf
000000e0: 1d51 0220 391f a6bf 808d d47f fa53 9ebf
000000f0: 9fd0 f303 40d8 4b3f 7e25 08ff 1fc3 543f
00000100: a833 fb7f 8717 b13f 24f6 febf 23af b13f
00000110: 4f81 ecff d3a5 993f 7b15 e91f 1b01 a1bf
00000120: 9530 0580 d331 af3f 83ef f1ff fd79 ac3f
00000130: 1969 08c0 e327 a23f 50f7 0bc0 cca4 a03f
00000140: d1ba e57f 8278 993f a928 ed3f 6f54 a43f
00000150: 083f ecbf 0d61 adbf 1676 0160 cc01 b0bf
00000160: 8d20 65ff ebd3 683f 3cb0 1e00 7eec a73f
00000170: 773f e83f 177d a4bf 0b35 0b00 4d89 a6bf
00000180: 1e48 d208 c019 37bf cc20 fa3f 2c0a a8bf
00000190: d4cc 0080 62c0 a9bf 27be 0f00 1dd6 9f3f
000001a0: 7521 2180 1f34 953f e4fe f9bf edd3 a83f
000001b0: 6ab0 97ff 21a8 773f a715 fcbf 755b a53f
000001c0: 202a f01f 2bb9 a0bf 624a 1440 b889 adbf
000001d0: 4671 9c00 08c6 643f bcd6 43c0 d06c a93f
000001e0: 383f 18c0 b762 a73f 2c6c 02a0 14fe a5bf
000001f0: 99d0 0140 79f2 a8bf 3bb9 1c00 e2f6 9abf
-0.016440257429069592 0.06479194760527991 0.005643941465788066 -0.07203925400972419 0.015329301353078192 -0.0617142803844171 -0.06766409427048183 -0.03200507536358941
0.03797943146023071 0.03235070406862604 0.039352096638878134 -0.0670836344322833 -0.03760683909277368 0.05903914571030813 0.05154889822149298 -0.03792503476782062
0.011446863405190643 0.03789041936413831 -0.007210507995133062 -0.018262695515659563 0.038998685781320715 0.03038968890949825 0.030879594395751133 -0.0017602816186893901
0.0266719460509949 0.0396261885765314 -0.011477522555504343 -0.04468049853548627 -0.04320696368918873 -0.02961722760404717 0.0008497536254297339 0.0012672245467249816
0.06676527857344061 0.0690786689510437 0.025046646590568596 -0.033211562772104984 0.06092701852557628 0.05561822652177197 0.03546058386946722 0.03250732273407542
0.024873770767437634 0.03970668464042266 -0.0573810860424811 -0.06252744048966749 0.0030307397202343268 0.046726167215951325 -0.040016867209600564 -0.04401627183470155
-0.0003524869760634946 -0.04695261269540793 -0.050295904279119036 0.031090214852097866 0.020706646151923153 0.04849188774551097 0.0057755783140970105 0.041713409124024374
-0.03266272320623309 -0.05769134313790826 0.002535834912931775 0.04965832087502295 0.045675031851827474 -0.04295410588493839 -0.0487249270089773 -0.02633240819630454

encoder.1.1.weight f8 [64]
00000000: 52cd 2a74 5798 ef3f e8a3 62e3 66bb ef3f
00000010: 305a f2a7 da02 ef3f 5f88 6e28 d405 f03f
00000020: 9aa6 75da cb38 f03f 0054 ff28 4542 f03f
00000030: bbd8 3e68 8f73 ef3f ef6a 9876 2a4b f03f
00000040: e2a0 dfc1 a506 f03f e863 cd5b ff1f ef3f
00000050: f810 d96b 6f3f f03f 6926 323b b22a f03f
00000060: 9337 92a3 f857 ef3f b16f ec97 652c f03f
00000070: 52d6 9458 7210 f03f e30b 5bc5 4325 f03f
00000080: b671 dbe2 57d8 ef3f baea 2027 a345 ef3f
00000090: 49ea 0fd3 cddf ef3f 507f f092 b312 f03f
000000a0: 8a73 273f d723 f03f e074 6ef7 7659 f03f
000000b0: 0d51 927c e62d ef3f 7e53 bdb6 7a5f f13f
000000c0: 99a7 e063 a06b f03f 0dd0 85c1 151c ef3f
000000d0: e64a 8328 1753 f03f 73f3 a258 ecad f03f
000000e0: 2ce7 5489 c225 ef3f 2523 9987 480e f13f
000000f0: f8b7 3171 fe46 f03f 4ab3 f95b 7b38 ef3f
00000100: 405a 88ed 4c3a f03f d0cf 7da4 3e60 f03f
00000110: 30df a627 035e f03f 3d19 a641 689f ef3f
00000120: 46a9 b786 82cb f03f 7364 e1f3 088d ef3f
00000130: c3f2 2baa 2fa5 ef3f 95e1 afb5 27b3 ef3f
00000140: d0f2 2bec bddd ef3f e9b0 64d1 d8dc f03f
00000150: 9faa 7aab 8950 f03f 6983 37f1 c180 ef3f
00000160: 23e4 8fed e56c ef3f 8915 a13e fa72 f03f
00000170: 2955 f961 8a09 f03f ca63 7c53 071c f03f
00000180: 798c 3c54 9578 f03f 31e9 1e9a 5e68 ef3f
00000190: 0aed 3518 a7a1 ef3f 3102 a496 044f f03f
000001a0: 27a6 6b79 4734 ef3f 269d e9af dfd5 ef3f
000001b0: 589f 534e b45f ef3f 4138 fb93 1e76 ef3f
000001c0: 70f7 8681 f445 ef3f 708d 230c 5cdf ef3f
000001d0: 52ac c755 a0bf ef3f 1647 569f a388 ef3f
000001e0: 2d1b 0269 e5cc ef3f 42b4 09b4 9858 ef3f
000001f0: 5725 a05a 2758 ef3f 9ae3 d53a efbe ee3f
0.9873463887110268 0.9916262093657879 0.9690984039505732 1.0014230327001525 1.0138662847115598 1.0161792375049572 0.9828564678234878 1.0183510429985139
1.0016229222474569 0.9726559441579612 1.0154871189889132 1.010423880800227 0.979488677477763 1.010839074565393 1.0040152988634827 1.009097834511288
0.995159094887234 0.9772506489019499 0.9960698244388563 1.0045657863447168 1.0087501971204085 1.021841970948394 0.9743530686414786 1.0858103883994938
1.0262760068385204 0.9721783427944516 1.0202857573064477 1.042461725460467 0.9733593637713276 1.0659871384434123 1.0173324987076722 0.9756447597879767
1.0142335203760382 1.0234972405860283 1.0229522274875755 0.9882088930324141 1.0496850263976554 0.9859661830224823 0.9889143298783768 0.9906195210051459
0.9958181011894229 1.0539177112032638 1.019662542191021 0.9844674788729267 0.9820432319530749 1.0280706831411826 1.0023292376620907 1.0068429242294195
1.0294392862786295 0.9814904222651305 0.9884829972137663 1.019291485252449 0.9751317378515453 0.994857638911445 0.9804326562707315 0.9831688776264472
0.9772894410923367 0.9960155713164749 0.9921418834104634 0.9854295837451186 0.9937617350522935 0.9795650020947806 0.9795109529524478 0.960807433045477

encoder.1.1.bias f8 [64]
00000000: 7f1a 4307 b68d a7bf e4ed 071c 5a59 a1bf
00000010: c9b2 2698 f8be a4bf 1da8 00b3 35ef 983f
00000020: 9826 0436 1c76 9b3f 88f3 bdf8 c1db 9d3f
00000030: d7ba 06a2 cf56 6cbf 6193 4a7c 2592 af3f
00000040: 7712 c65f b9eb 72bf 7802 24ad 14e0 7cbf
00000050: f78f ee57 5be9 96bf 48a9 4708 fb88 8b3f
00000060: 5fec 2c2d efc4 a2bf eca6 bd2a 1988 963f
00000070: 53d4 2c28 765d 83bf 3be3 1856 4c0b 60bf
00000080: 8077 ad05 4a3a 3dbf c4f6 5170 43aa 75bf
00000090: 0c2f 3ae4 97d5 90bf 9395 3b9b 909b a93f
000000a0: 5a91 a26f fe41 803f 0a1b edb6 4557 993f
000000b0: 0d01 1b03 0d4b 9bbf bc49 3e5c c74e 74bf
000000c0: 4a51 6c54 99db 7a3f 44fd 5f93 ffe7 99bf
000000d0: df28 bc5f b5fb 8ebf b42a 838f 1a38 a83f
000000e0: 3b76 230b 7098 a6bf 17bb 2848 da2c 80bf
000000f0: b3f3 86b7 4b02 9a3f ddc9 befd dfee 7a3f
00000100: c2b1 1856 1ec4 8d3f 8ba9 bece 6d7f 723f
00000110: 1696 30b0 fbb4 9ebf 0f8a ec18 765b a4bf
00000120: 7568 c265 4f73 66bf 9320 8b54 b2d2 9e3f
00000130: e04d 41ac 8d12 9fbf a5ee 07e5 348d 9e3f
00000140: bff3 b639 452d 8f3f 0ebb e429 9525 81bf
00000150: 4ec2 57bb 3cca 7dbf d713 cc1e 1f1c afbf
00000160: 7139 96cf 8897 863f eb80 03b5 b46c 9a3f
00000170: 16ae 0070 6115 98bf 939b a62e c44f 903f
00000180: 7da5 a887 e57f 9fbf 5e98 840b 3356 77bf
00000190: cc3a 5a82 ec63 83bf 510f 3c63 7ca3 9d3f
000001a0: 544a f02d a881 9dbf c717 0c62 e609 a3bf
000001b0: 3020 fbf6 eeff 91bf 455a bfab db94 9abf
000001c0: 349c d3c2 9a09 64bf fc2f 0351 1a29 a6bf
000001d0: 861d ab76 22b3 93bf e1f7 d08d 6111 92bf
000001e0: 5f96 39d3 b516 863f cead d2ff 0149 8a3f
000001f0: 73de b89f aa94 85bf 5eda b48c bc38 a8bf
-0.0460030444970032 -0.033884826585530964 -0.04051949364961655 0.024350012827348267 0.02681774215401464 0.029158621603972118 -0.0034593634920477667 0.06166188375690385
-0.004619335286751728 -0.007049637572209215 -0.022374560586868566 0.013444863500769913 -0.036658739342293904 0.022003548844998486 -0.00945560751061173 -0.0019585123962112794
-0.0004459791868408544 -0.005289328987712675 -0.016439793877494543 0.05001499075823825 0.007938373357611429 0.024746979989937613 -0.0266534836907804 -0.004957941771765947
0.006557082123226652 -0.025299065942815405 -0.01512853334817915 0.04730303766117086 -0.04413175712555214 -0.00789804966652023 0.025399382664307257 0.0065754651695208695
0.014534222605186001 0.004516056953358559 -0.029987270954867716 -0.03976029447791884 -0.0027405310375572763 0.030100618753551144 -0.030344213141075715 0.02983553550619313
0.015223065208255336 -0.00837246450518372 -0.00727294658052864 -0.060761425504132376 0.011031216464087308 0.02580530505008564 -0.02351906057462657 0.01592928442701298
-0.03076132431502775 -0.00569744052362439 -0.009467933395425197 0.028943961674499367 -0.02881491451632663 -0.037184905499131164 -0.017577871155282476 -0.025958473546632516
-0.0024459860493269096 -0.04328233946725388 -0.019238031857438574 -0.017644428520945502 0.010785503872465073 0.012834563846204097 -0.010537465094883935 -0.047307865310746364

encoder.1.1.running_mean f8 [64]
00000000: ade8 4f54 d787 ed3f 3993 6122 5760 f33f
00000010: c8f5 cab1 045d 63bf c85e 1582 f7b5 9f3f
00000020: 8372 c729 216a e7bf 4acf d332 0680 eebf
00000030: 8ac1 bcaa f099 f8bf 8e09 0e93 7034 f3bf
00000040: 0bdd 1987 21ec cd3f 549a d82a f996 f23f
00000050: 8bd2 0c87 99a6 c33f 7e27 ef3f 42c0 e7bf
00000060: 4fcd 6b8e 44ae d53f e960 0a39 a571 e2bf
00000070: 8e4e 9d09 ed13 f33f afe8 661c 52e7 e53f
00000080: ce67 d2aa 5de4 f43f 6ace cc25 a47c f73f
00000090: 2a39 dd67 48cf e93f fc5e 2c71 92d4 e33f
000000a0: d4ae 86d2 cf5e e6bf db97 f282 6340 f4bf
000000b0: de16 01bc fd73 f83f 2684 8a5c b74a ecbf
000000c0: 413b 1bca 23cd ecbf 1464 ee0b 1303 f0bf
000000d0: ad00 c877 840a e43f 5ceb 0507 9c40 ddbf
000000e0: 6b25 59a3 04dd df3f 952c 7e1d c32a f9bf
000000f0: d707 0245 6872 c23f caae be95 3024 b3bf
00000100: 688e d29c 6054 b33f 6ae2 b271 a85f ed3f
00000110: 0577 884e a0ed f43f c4c7 6456 80fe eb3f
00000120: b01f 1ffa cc70 febf 49bd 3847 516d e53f
00000130: 2a88 f6e9 3a5e d23f c422 70ac 9dcf e1bf
00000140: 9bdd b8f4 b6be d5bf 5117 ab44 29c1 f9bf
00000150: 895a bbf6 f12a d2bf 8a9a f0e0 089c e73f
00000160: 2a13 d6de 2f8a c93f 607b d016 4038 c4bf
00000170: 07f1 e31f 001e e83f b309 30a4 4e30 efbf
00000180: 16e8 dfda 9f2a ef3f 9462 7c7b 446e ecbf
00000190: 94e5 d0e9 5789 e4bf a8e7 5cc0 df0d d6bf
000001a0: d5b6 c7f1 5f14 f83f 5198 428f a0bd f7bf
000001b0: e051 29d2 89ed e9bf bfc6 50d2 5c34 ec3f
000001c0: d1ba c010 21e2 e3bf ee55 364f 0c31 e23f
000001d0: f095 02c3 6074 b73f aba5 b6cd a1a0 dd3f
000001e0: 3620 ec61 4e8f f0bf 74d8 ac6c a9e6 cebf
000001f0: f47e d7a3 edd0 f3bf 543c 06ea 9cc2 ee3f
0.9228321692201199 1.211020597745302 -0.0023636905374064578 0.030967585863747954 -0.731705266570842 -0.9531279556963252 -1.5375830335070497 -1.2003026718453813
0.2337686452553743 1.161858718268964 0.15352171987764893 -0.7422190903391621 0.33876146229086584 -0.576372729689891 1.192364728504717 0.6844873957372978
1.3057533905725793 1.4679299809039557 0.8065530804249523 0.6196987352768413 -0.6990737068021766 -1.2657199015752585 1.5283181518474787 -0.8841206366961429
-0.9000414798154922 -1.0007505861342496 0.6262838687398663 -0.4570684498391324 0.4978648753354579 -1.5729399826111934 0.1441164338066858 -0.07477096229439009
0.07550624684022866 0.9179270001105355 1.3080142085740942 0.8748170554520063 -1.902539231336032 0.6695944205329535 0.28700135086012557 -0.5565937393121989
-0.339765299784142 -1.6096584970814158 -0.28387116522700545 0.7377972024304011 0.19952963238406457 -0.157966624393306 0.7536621687754924 -0.974646874121666
0.9739531779189317 -0.8884603893121317 -0.6417655531615076 -0.34459680352631006 1.5049743122612445 -1.4837956997012223 -0.8102463822092965 0.8813919170117613
-0.6213536574558366 0.5684873149027092 0.09161953698147562 0.4629292019768296 -1.0349868607609216 -0.24141423994450728 -1.2385078811711852 0.961256463126015

encoder.1.1.running_var f8 [64]
00000000: ea98 15c7 95ba e63f 9e90 ad0a fb43 eb3f
00000010: 16fd 143a 3c7f e53f dc9c 8d82 30cb e83f
00000020: 5a1a 859b a840 fe3f 5648 f890 91fc f13f
00000030: e9a9 758c 5267 f33f 71ed 4355 f1c4 ef3f
00000040: 56a2 58d9 f6e6 e13f 3c42 ea67 a513 f23f
00000050: 6564 787f ceb9 e13f 04c0 3c7c 8d09 fa3f
00000060: c237 e0d1 81a2 e43f 04b8 e8bb 9b48 f03f
00000070: ca45 a42c 99af f63f 66a2 7c31 d2ce f53f
00000080: 66ef 4e6d 33bb d43f 976d d79f 951f f03f
00000090: e19b a7de bbbf d63f 93d2 fdee a6ba f33f
000000a0: 1e3b 1a5a 790e f13f ad77 7687 c4b3 e83f
000000b0: 1913 0363 3f4e e73f 0246 3397 9b28 cf3f
000000c0: 7abe d581 2895 e73f ba32 2d78 0b1f eb3f
000000d0: 94b7 ed66 0da1 e43f 9e91 33dc e050 e63f
000000e0: 5ad8 66c1 5f74 f53f a3fd 52d5 2351 f23f
000000f0: 75e4 6dee 41dd ef3f 2d18 8097 0cb9 e33f
00000100: ef6e c117 bef9 f93f 3ab0 51d3 049d e13f
00000110: 1193 69b4 8b4d ef3f 52d8 728f 9757 ed3f
00000120: 9ba2 2ba7 c7ba f73f 50f5 d322 7db9 ec3f
00000130: f748 9bfe 6a32 dc3f e695 c031 4325 f93f
00000140: cf5f efb8 0d8b ea3f 7471 52c0 1fac f43f
00000150: 05af 7d8b 5eea d23f 0e16 6a66 30ad ed3f
00000160: 7a23 94e6 eb82 e33f 48f5 3af7 e076 e73f
00000170: 6fa7 615d cb54 e53f 324a fe25 4503 ef3f
00000180: e7ee 49b4 53cb f23f 8432 b784 4aab e53f
00000190: 16f6 f99e 7d27 e03f 9d89 e771 b1f5 e13f
000001a0: d909 6211 27a2 ed3f 0952 4c45 02e9 f13f
000001b0: e418 d190 d2cb f23f 8f2a 30dd b643 ea3f
000001c0: cbba cfec 8b67 f63f b659 14fb c42d e23f
000001d0: 8df2 4134 3b37 e83f 640b d55b 328e dc3f
000001e0: dc8f f287 bc71 e93f b922 54e9 8871 e53f
000001f0: f79f 24ad 45ff eb3f 8548 5f50 f3f7 f93f
0.7102764976850982 0.8520484169535114 0.6717816481031231 0.7748034047953314 1.8907857966420551 1.1241622603306687 1.2127252089218195 0.9927908578242023
0.5594438786548135 1.129796415251021 0.5539314736989921 1.62733219652364 0.6448372935426436 1.0177266445348332 1.4178706878486644 1.3629934247093387
0.3239258353676092 1.0077110523041932 0.3554525064814112 1.2330693564992188 1.0660336990001222 0.7719442983395673 0.7283017095402072 0.24342675097300065
0.736957791885245 0.847539648742518 0.6446597109149814 0.6973728466805829 1.3409116320376797 1.1448095639205824 0.9957589775869012 0.6163390120498257
1.6234723022416195 0.5504173400236205 0.9782160304717725 0.9169423867922524 1.48310056019742 0.8976426773294097 0.4405772673027423 1.5715972846459123
0.829474316788941 1.292022467859252 0.29555476782000795 0.9273912430077773 0.6097316268434121 0.7332615689007662 0.6666008781296408 0.9691491834694885
1.1746403734713853 0.6771595565893027 0.5048206429489166 0.5612418389030612 0.9260440196524612 1.1193869311292721 1.1747613579660134 0.8207659072953265
1.4002799272963553 0.5680870918175092 0.7567420979172127 0.4461789986418607 0.7951338439202078 0.6701092297745027 0.8749111539555078 1.6230347766436648
