models/matching_nets/DC_n=1_k=5_q=15_nv=10_kv=3_qv=1_dist=cosine_fce=None.pth (torch, 316367 bytes, 24 tensors)

encoder.0.0.weight f8 [64, 1, 3]
-0.07636776096520186 -0.25648179960578976 0.2882505598655144 -0.01693431957548808 0.0977440842746171 0.5440587837085122 -0.5152518641680418 0.5263868408123851
0.1691610559606961 -0.5454598597410756 0.3769337644879809 0.10221415060121672 -0.46925878047488867 -0.2632316565247406 -0.6066248953801908 0.10553759843905887
0.40148335684939257 -0.17637574334894296 -0.23273834498653959 -0.5282354483955195 0.24600418439716482 -0.07175505263089724 -0.5350700465141119 0.0055783647173560155
-0.42927198432391517 0.34186205006657233 -0.2537240825666968 -0.5808488045263693 0.4651966130083631 0.20263509013841524 -0.10054792559246939 -0.28474019944481865
0.47190209937977395 0.4899875048799027 -0.14395109149272534 0.2425649779658229 0.173660154751538 0.4112735903487355 -0.37113114149208415 -0.20150012795023442
-0.46171953886805767 0.5088808317000311 0.19474860026598345 -0.5845790801355161 0.39183771112623234 -0.2908041126024371 -0.5461529294107572 0.15203857942222435
0.49519901864331267 0.45084249337688764 0.48200788990564597 -0.45225614269061043 -0.14817193414972732 0.4667491143664607 -0.5058733199394991 -0.3126431979827827
-0.13158723278577916 0.15004145044455736 -0.18409081050873186 -0.5292645801663323 0.47003890801951037 0.4030293992401024 0.5177470012016718 0.4664476994869108
-0.5905744470148394 0.0924477162063161 0.13852498732913623 -0.4195539519684437 -0.5034692593978003 0.31708873658353465 0.4202174499659097 0.10028220694721618
0.04832897886297755 -0.3620580565447056 -0.029964216698883033 -0.49616770171238794 -0.3552667581214719 -0.07401364246611976 0.034093401245385 -0.19477134727114379
-0.5145043866189599 -0.44692920879784687 0.5174790330848693 0.4904203263343375 -0.47442358395390094 -0.5961936086824152 -0.16080106582874074 0.38596678024599707
-0.20339626965201518 0.3588763506166245 -0.4385633455419584 0.1291119314427443 0.11626391471431298 -0.593538200614945 -0.5385767576361173 0.440994658967384
-0.4512246207208857 0.403920259207115 0.00989529583538411 0.2831952221756525 -0.2419241527245785 0.36226299020544983 0.07952921645720192 0.230364576051325
0.0325486353448889 0.24842198420640552 0.4429780241122523 0.3510768223793974 -0.08805108143105865 -0.11590028487449486 0.004308301473916463 -0.4703888929056772
-0.23520280000901994 -0.2383176205243957 0.1896526225831805 -0.2353170250609758 -0.24735903324222167 0.210444076235584 0.1116693944211029 -0.4986457413521564
0.3066920645437958 0.22239388590468187 0.016279468690830915 -0.2646686359734908 0.26023204174645287 0.09416495013487132 0.253371323626668 -0.4094275582672144
0.01714715929522368 0.5009814217127257 -0.35744130203337626 0.3327020604268673 -0.3075308168806582 0.5401859349884022 -0.5020191530463811 0.1528379901787942
0.46564874953327196 0.26473924931507303 0.10549557904624438 -0.03319560070915062 -0.05823400339414931 -0.3405273142768929 0.10469466564451331 -0.3061336946315082
0.42091865332458106 -0.09312938123039322 0.15400897056859805 -0.402783103899588 0.03179908555931963 -0.5384508258730699 0.35632592296875576 -0.43400906796216626
0.5727890304805713 0.2746443847543453 0.18113806754966066 0.23014881485723854 0.4561819948797464 0.4000310981254335 0.1902259110624592 0.4287942821742907
0.44206315423593323 0.08782679958725753 0.3828987914485973 0.19359629859157312 -0.07600261966908183 0.5231363434557565 0.12667487727375337 0.39519906852581077
-0.23074035795820488 -0.5736017382954117 -0.28260519344469365 0.362956557874916 -0.19569713479652978 -0.36292774703822883 -0.2581549397860595 -0.497265044053641
-0.39580557883087 0.1597379369762016 0.46349326477916636 0.2137072692232176 -0.4078388793907892 -0.03246432115599219 -0.44111444211131356 -0.05592400250235451
-0.2209904637130999 0.32905575553695127 -0.5549433869298198 0.5511894422985347 -0.28224500134869407 0.2902892551575195 0.31887529543271304 -0.41635409273001617
00000000: 2375 d06b d68c b3bf b4de 54a3 326a d0bf
00000010: ce44 eb79 b272 d23f 41e5 06f3 3a57 91bf
00000020: 3f42 569d c105 b93f aa25 64f7 ed68 e13f
00000030: b5c0 397a f17c e0bf bcaf 4a37 29d8 e03f
00000040: 75d3 8dc9 11a7 c53f 1ecc 5b3c 6874 e1bf
00000050: 94fa cecb ae1f d83f f648 05e2 b42a ba3f
00000060: 0808 e0fa 5508 debf 31ec 0297 c9d8 d0bf
00000070: 6b1d d39c 7869 e3bf a94c cb15 8304 bb3f
00000080: b19c e33f e7b1 d93f 2ee6 bef8 7a93 c6bf
00000090: 6d05 1fbe 5eca cdbf f94a ee06 4ee7 e0bf
000000a0: f21d 55ab 107d cf3f b259 5f04 8a5e b2bf
000000b0: 291d db37 4b1f e1bf 4655 6be0 56d9 763f
000000c0: c7a7 7033 3179 dbbf 64e2 315d 11e1 d53f
000000d0: 6338 35ef 033d d0bf 0691 6b3b 5096 e2bf
000000e0: 442d c503 c8c5 dd3f 0e50 9556 f2ef c93f
000000f0: 18ad 1944 82bd b9bf 7835 1ef5 2e39 d2bf
00000100: e3fd efdc a433 de3f c419 3a8d f45b df3f
00000110: 30a6 1747 fd6c c2bf 6553 c283 5e0c cf3f
00000120: 0a59 a3f6 7e3a c63f 8d67 1077 4e52 da3f
00000130: e414 cfd4 9cc0 d7bf 38d1 d795 c1ca c9bf
00000140: 5733 d71b d08c ddbf 30d0 3674 c048 e03f
00000150: 46c6 8aaa 85ed c83f 2373 e32f dfb4 e2bf
00000160: 401b a87a de13 d93f 7edd 4ada 889c d2bf
00000170: aee1 4db5 157a e1bf e9a3 2c0b 0076 c33f
00000180: 8965 8539 57b1 df3f 62da 2c79 9ada dc3f
00000190: 09c2 e39e 37d9 de3f ac5c 91bf c3f1 dcbf
000001a0: add7 ad45 4cf7 c2bf b604 69ad 37df dd3f
000001b0: 18e4 a13e 1d30 e0bf 31c9 a99d 5802 d4bf
000001c0: 6e6a b1b6 d9d7 c0bf 6a15 5ae9 8e34 c33f
000001d0: 8b87 50a5 4990 c7bf b0db d745 bcef e0bf
000001e0: 77a5 7212 1e15 de3f 6004 44d2 3bcb d93f
000001f0: 926c b828 6291 e03f 52ce a573 47da dd3f
00000200: 4f06 f961 fce5 e2bf 292e b24d a7aa b73f
00000210: 45f4 20d1 2fbb c13f 582b a7d1 f8d9 dabf
00000220: e2f4 7490 6b1c e0bf 7099 638e 2e4b d43f
00000230: 6cf9 33bb d7e4 da3f dc80 353f 18ac b93f
00000240: c9c4 546f 93be a83f 9838 078e f52b d7bf
00000250: 9b7c 168b f0ae 9ebf 87ea 0b2d 36c1 dfbf
00000260: e435 dfc8 b0bc d6bf e18d d9dd 8ef2 b2bf
00000270: 9677 b7b6 b074 a13f 251c 5d7b 44ee c8bf
00000280: c3a9 45e7 d176 e0bf 777d daf7 7c9a dcbf
00000290: 0ce3 6e30 308f e03f 7e93 b9ef 0b63 df3f
000002a0: 8e1e 62bc f45c debf 9901 6c9e 0414 e3bf
000002b0: bbbc 721b 2195 c4bf 3aef 9f02 aeb3 d83f
000002c0: a453 2493 e308 cabf e632 4d83 d4f7 d63f
000002d0: 88ee 94fe 6b11 dcbf 22f5 8861 bd86 c03f
000002e0: f124 67cf 78c3 bd3f 0a2c 12d3 43fe e2bf
000002f0: d8d9 0d53 053c e1bf 0670 7ea9 4139 dc3f
00000300: 795b 493b dde0 dcbf 3521 df5b d4d9 d93f
00000310: 594e fa1f fc43 843f 362f 68da de1f d23f
00000320: f643 08e2 5ef7 cebf e6f2 de1b 512f d73f
00000330: a19b c2d7 065c b43f 6c0f 2620 967c cd3f
00000340: 7ae4 abf8 36aa a03f 7910 e3a4 4acc cf3f
00000350: 282a 9a7f c059 dc3f 0033 a0eb 0a78 d63f
00000360: 4fb3 1f03 848a b6bf d60e 221d a4ab bdbf
00000370: f191 e8de 94a5 713f 309e db03 da1a debf
00000380: fcb1 fb16 201b cebf 9e3d 1b19 3181 cebf
00000390: c835 cc81 8946 c83f 8219 6a47 de1e cebf
000003a0: 5da0 12f7 75a9 cfbf 43cd 88dc d4ef ca3f
000003b0: ffb4 008d 5d96 bc3f 816b d9d3 cfe9 dfbf
000003c0: fb21 cac0 d7a0 d33f 4f3e 6521 6777 cc3f
000003d0: f155 7ea6 90ab 903f da1d f2b7 54f0 d0bf
000003e0: 5207 2b4b a4a7 d03f fd3c 42b5 311b b83f
000003f0: 1d21 2e5b 3c37 d03f 3baf 35a5 0f34 dabf
00000400: fab3 9161 068f 913f 9a1c c530 0a08 e03f
00000410: c945 9e7b 51e0 d6bf ef17 3695 fd4a d53f
00000420: 12ef 40bc 95ae d3bf 8e19 9103 3449 e13f
00000430: 2c98 8978 8a10 e0bf c9bf b3fc 3190 c33f
00000440: f4cb aa69 30cd dd3f 2fa7 71e4 7cf1 d03f
00000450: ce4e e01d c201 bb3f d070 d586 03ff a0bf
00000460: e1a0 2fe8 d8d0 adbf abb1 8d13 33cb d5bf
00000470: 4d43 0205 45cd ba3f b657 a9c7 b197 d3bf
00000480: 498c 93ca 54f0 da3f bc66 aebe 53d7 b7bf
00000490: 1ffe f0e1 90b6 c33f 9153 a8c8 32c7 d9bf
000004a0: 4d3b 0a41 f847 a03f fb20 f439 fd3a e1bf
000004b0: 628a 773e 0bce d63f 1128 44f8 cdc6 dbbf
000004c0: c17d 2da9 4954 e23f 7332 a30a c693 d13f
000004d0: fcdc 173e 882f c73f 2633 8330 8475 cd3f
000004e0: 4e15 42f7 1532 dd3f a33a f508 1c9a d93f
000004f0: 83ba 6e99 5259 c83f bc9f a992 5d71 db3f
00000500: 9c6f 8d41 c34a dc3f c48a f02f d17b b63f
00000510: 10c7 bcee 6981 d83f 20ea 8975 c3c7 c83f
00000520: a797 e35d e874 b3bf 5aba cf6d 88bd e03f
00000530: 78cb 8ee3 e136 c03f e297 ae08 f14a d93f
00000540: 131f a669 e688 cdbf 9a0a 5d08 f25a e2bf
00000550: e594 e117 3416 d2bf 7641 7c24 ae3a d73f
00000560: aa9d ef8c 9a0c c9bf 14c5 154d 353a d7bf
00000570: 7aa5 eb4b 9c85 d0bf 7ce1 69c3 30d3 dfbf
00000580: b6c9 29ec e054 d9bf 4a24 9fef 4a72 c43f
00000590: 7123 89a7 dfa9 dd3f 8897 1d82 c25a cb3f
000005a0: 9c53 413e 081a dabf 51bc 4ddb 299f a0bf
000005b0: 0054 aa11 383b dcbf cf39 9e23 12a2 acbf
000005c0: ef14 305f 6a49 ccbf abdf 25df 3f0f d53f
000005d0: 73d7 3fa2 18c2 e1bf 7153 920a 58a3 e13f
000005e0: af22 9056 4d10 d2bf 1f08 5262 1994 d23f
000005f0: 9db1 58ed 7368 d43f e731 f5a2 8ba5 dabf

encoder.0.0.bias f8 [64]
0.5377260445170671 -0.1584088802292612 -0.5160514116036137 -0.06743115186390507 -0.43640691042311475 0.14986461394771436 0.46657574176029143 0.4359093904422145
-0.12800872321426415 0.06886905428320066 0.015498638118929067 0.4834406376374879 -0.27463382485307375 0.451731085791706 0.14529550072388364 -0.09803202748171481
0.5484372377458865 0.10150432586378141 0.07867097851710841 0.5346711873945527 -0.0392231941154144 -0.1679068506103422 0.24751627444155472 0.25977003573097196
-0.37760198123371286 -0.21526646614797604 0.004875898420493358 0.3711781501696721 -0.46448957920460726 0.5227204561109975 -0.09377539161230598 0.48622822763244045
-0.1287564932806241 -0.02873843908054506 -0.4432345032973438 -0.18079403042838477 -0.28559285413194224 -0.4538313150508295 0.5250828266294469 -0.38967925305999007
0.5756740569895046 -0.44768613562694237 0.5112648009549596 0.3060380816466959 -0.08986541630590837 -0.06565034389177765 -0.4969240724930344 -0.06766366958217497
-0.2694205641895531 0.1598588824468141 -0.5141533612929832 0.37713146207459053 0.028858602041427674 -0.4893318414754913 -0.39809304475787427 0.1489422917345223
0.4446853399495443 -0.2959674596127612 0.11793810128066083 -0.15978008509706 0.3006433248496827 0.49636113623184747 -0.2256371378963226 -0.42995214466813436
00000000: 5410 ed3f 0d35 e13f 3286 fdff bd46 c4bf
00000010: 8a8c fc3f 7e83 e0bf 63b1 fcff 2a43 b1bf
00000020: e400 0140 17ee dbbf 2dd6 dd7f c32e c33f
00000030: c5e9 fd7f 60dc dd3f a5fd fd7f f0e5 db3f
00000040: e86b e7ff 9662 c0bf cf50 daff 66a1 b13f
00000050: 8ea3 d3fe bfbd 8f3f 2677 0d00 b1f0 de3f
00000060: 54a3 07c0 9993 d1bf f3f6 0380 29e9 dc3f
00000070: 20b9 eeff 0a99 c23f 119a fe7f a018 b9bf
00000080: 7dde 0040 cc8c e13f b6ca fcff 2ffc b93f
00000090: 9c13 e0ff c723 b43f 9023 ffbf 061c e13f
000000a0: 9ed3 f0ff 0f15 a4bf d5a8 12c0 f87d c5bf
000000b0: 7a24 faff 9cae cf3f 677f fc7f 12a0 d03f
000000c0: 396e 1380 a12a d8bf 63f9 0300 da8d cbbf
000000d0: 47fe 1204 c0f8 733f 35fc fdff 61c1 d73f
000000e0: cf0f 0180 32ba ddbf 504d fe3f 20ba e03f
000000f0: 79fa 2400 aa01 b8bf 2eb2 0400 5d1e df3f
00000100: b4da e4bf 177b c0bf 1cc4 f4ff 9b6d 9dbf
00000110: c2bc 0740 f45d dcbf 9e3f 0040 4224 c7bf
00000120: 8ef3 1d40 2747 d2bf a8d0 0280 920b ddbf
00000130: 2012 0280 7acd e03f a2a1 f43f 81f0 d8bf
00000140: 359e fdff eb6b e23f 4cfb d8bf e3a6 dcbf
00000150: ee51 f6ff 475c e03f 6433 00c0 2096 d33f
00000160: f746 1380 6b01 b7bf ac80 fcff 75ce b0bf
00000170: 4cf9 fc9f 9acd dfbf 3998 fbff 6752 b1bf
00000180: 9118 04c0 2f3e d1bf 3fc6 0a80 4176 c43f
00000190: fe37 fcbf f173 e0bf 41cb f9ff eb22 d83f
000001a0: c7a3 e7ff 1b8d 9d3f 15d6 0180 3651 dfbf
000001b0: 3302 0040 5b7a d9bf 33db fe7f 8a10 c33f
000001c0: 0803 0680 b975 dc3f 7fe3 ed7f 21f1 d2bf
000001d0: ffe8 f3ff 3031 be3f cca0 0580 ac73 c4bf
000001e0: a85d ff7f bd3d d33f 81c1 c77f 61c4 df3f
000001f0: 3d8d 0380 ade1 ccbf ee75 0c00 5684 dbbf

encoder.0.1.weight f8 [64]
0.9415319347422486 0.9478979332358866 0.9710030244091845 0.9410089954425557 1.165354600754728 0.9382708965409309 1.0067656847488895 1.1092111997273169
1.049283419332108 0.9503225758352569 0.9721272935857027 1.012743795319387 0.9699819699287711 0.9380004456420412 0.973634123730424 1.051606708260461
0.9727373751186725 1.0083990703576942 1.1158566938593286 1.127856876485872 0.9874360740309006 0.9888584219627122 1.163519415944581 0.953517124625163
1.155575232646407 1.0710844597150573 1.1561652246900165 0.9614083749392307 1.1198562380897448 0.9953815390475467 1.016160621084872 1.0412239805555241
0.9784101359651493 0.9704257016223813 0.9589810035754691 0.9765987626650644 1.1166281030050593 1.1287433722591496 1.1195723471497583 1.0966284765568572
0.9459414978649037 0.9575995839323257 0.997505181695804 0.9922973040890782 1.0438560484138368 0.9475395175132872 0.9677379957495676 1.1483367153263841
0.9687038560767425 1.2220449807753138 0.9347109921945276 0.972513075107129 0.9990323307351097 0.9656852427739826 0.940185857304514 0.9486849261167684
1.1589582941841094 1.0423220106039657 1.0848498991228757 0.9614160698785541 1.1708380719684874 0.9506591205719835 0.9823475461959139 0.9678606799981142
00000000: 2a71 7b94 0721 ee3f 4436 e60b 2e55 ee3f
00000010: f8f1 44ef 7412 ef3f e55c 95e5 be1c ee3f
00000020: 4ec1 a7dd 4aa5 f23f 1bd2 edaf 5006 ee3f
00000030: 55b4 ab55 b61b f03f d5f8 323e 54bf f13f
00000040: 6943 2469 ddc9 f03f f29c fbe3 0a69 ee3f
00000050: 97fc afb2 aa1b ef3f 9dfa 81d6 3234 f03f
00000060: 22b8 d1a0 170a ef3f d04f b582 1904 ee3f
00000070: 2223 f6bf 0228 ef3f eeb9 438e 61d3 f03f
00000080: 2069 b721 aa20 ef3f b20c 4810 6722 f03f
00000090: 4260 728c 8cda f13f 6135 f1a6 b30b f23f
000000a0: ab4e 9b89 1399 ef3f 4f87 d66a baa4 ef3f
000000b0: 50e3 fb88 c69d f23f ee1c 4e58 3683 ee3f
000000c0: e58a 8474 3c7d f23f 15ae 5b75 2923 f13f
000000d0: cc0e 4d1b a77f f23f 33dd 0e7f dbc3 ee3f
000000e0: 9c12 ed5f eeea f13f 240b a862 2ada ef3f
000000f0: 61ae b0a3 3142 f03f 2bc0 047a daa8 f03f
00000100: 8572 01c6 224f ef3f b94f 7533 ba0d ef3f
00000110: d6f0 faed f8af ee3f 8fbc 5e0c 4c40 ef3f
00000120: 5138 036e b5dd f13f 77e0 d635 550f f23f
00000130: 0b3a 88b1 c4e9 f13f b9c8 2a4d ca8b f13f
00000140: da49 a81a 2745 ee3f a8e1 f4e1 a7a4 ee3f
00000150: 242b 9ffc 8feb ef3f 0117 9f46 e6c0 ef3f
00000160: 22b5 5a66 a2b3 f03f d863 ec64 3e52 ee3f
00000170: 4fe9 5aac b5f7 ee3f 53f7 d151 965f f23f
00000180: 787a ab3a 9fff ee3f 18bc aa09 7f8d f33f
00000190: 9afd d506 27e9 ed3f 738f 90bd d31e ef3f
000001a0: 2ced 84a6 12f8 ef3f de35 febc e4e6 ee3f
000001b0: 871b a9a6 0016 ee3f 7926 7c7d a05b ee3f
000001c0: dd2d 2fda 178b f23f b61e 37d8 59ad f03f
000001d0: 8fd3 5c91 8b5b f13f 8e45 3fa2 ebc3 ee3f
000001e0: f642 c0b3 c0bb f23f 7906 10ad cc6b ee3f
000001f0: 1ef4 061f 646f ef3f 9ca3 f5f5 b6f8 ee3f

encoder.0.1.bias f8 [64]
0.024227252524826874 0.09911290081495103 -0.005145164024077123 -0.0520816189239197 0.12093451649329244 0.008401607556485622 0.05270213240422387 0.0869138886659813
0.10710092668840518 0.146911992678871 0.07781325172633988 -0.02865882242911066 -0.007419527724175361 -0.016195728309030714 0.05120022256311466 0.057697366683372366
0.019479068149968366 0.017689748596938778 0.06151277164347546 0.04618542395386185 -0.028627308231362385 0.03131310771593194 0.11107420568342727 -0.008711594269927233
0.07521237417427638 0.034707208670748044 0.12126389687809538 0.04967510956796064 0.08407283618298174 -0.0394968526037663 0.049886809567209985 0.08090019495266597
0.022337965688905365 -0.0051527157736778306 0.046818733350597115 0.050207159431086924 0.08364152000483172 0.05892849906993148 0.04737714285772021 0.010537658255379384
-0.04059658663198713 0.06868102672272666 -0.06362862358942765 -0.04793099926248723 0.027036369392095957 -0.045851257550692255 0.06103483098890567 0.0617880906278446
0.09250249402182585 0.10536181194099589 0.030886101173188105 -0.0841326790883609 -0.08681901308446653 0.07747036758486353 0.05068533374364782 -0.026972515278325636
0.13209098012701753 -0.03470276020495998 0.0804712320408556 0.014087170420380567 0.09547721300105624 -0.03103940778585197 0.06635982060766714 0.06766122687420033
00000000: 4e73 1065 07cf 983f e6a5 9c8b 765f b93f
00000010: d099 7473 1813 75bf 1e7f 0024 71aa aabf
00000020: efd7 4b81 90f5 be3f e5ee 82ad dc34 813f
00000030: a511 361e c6fb aa3f a379 6315 fd3f b63f
00000040: 867c 7f61 f76a bb3f a414 f91d 03ce c23f
00000050: ee2b 5cbb 91eb b33f ffb2 4c04 bd58 9dbf
00000060: 3865 d54e f063 7ebf 2152 b0ed 9c95 90bf
00000070: 35ba e962 ea36 aa3f d5d8 f05d 828a ad3f
00000080: 8286 a422 52f2 933f cf12 cbee 421d 923f
00000090: 5076 fd1c 9a7e af3f 1312 deaa 9da5 a73f
000000a0: fe3d 8122 7a50 9dbf 69f0 268b 4508 a03f
000000b0: 4ee9 d6f0 5b6f bc3f 9e03 e263 62d7 81bf
000000c0: 9741 553f 1e41 b33f 5e45 5aac 24c5 a13f
000000d0: 4ae5 4697 260b bf3f 030a 0a16 046f a93f
000000e0: 954b e321 cc85 b53f aaca 7474 ee38 a4bf
000000f0: b996 2f8f c38a a93f 2fcd 8f0b e0b5 b43f
00000100: 4840 5f80 c3df 963f 8e89 bc9b 031b 75bf
00000110: 7973 2901 a0f8 a73f c52a 90b7 c0b4 a93f
00000120: e02b 02d9 8769 b53f c18d 9d50 e02b ae3f
00000130: 70bc 4d1e d141 a83f 1d8e aa8c c494 853f
00000140: 6ac5 d367 13c9 a4bf 6e3b a16b 1495 b13f
00000150: 3ff5 6729 f749 b0bf 200e 9874 698a a8bf
00000160: 9cd3 5d09 6caf 9b3f c946 52e7 d079 a7bf
00000170: 194a 0716 f53f af3f ecc8 0e49 b0a2 af3f
00000180: 0747 9f52 3eae b73f 56ac 88e0 fdf8 ba3f
00000190: 5958 c229 9ba0 9f3f 7b99 3521 b889 b5bf
000001a0: 5b68 de55 c539 b6bf 6ca3 2f17 19d5 b33f
000001b0: 32b2 a195 6df3 a93f 168a 0bdc ae9e 9bbf
000001c0: fefd de73 5be8 c03f 2e8d 5268 8fc4 a1bf
000001d0: a061 e23d c399 b43f 4c5d fd01 bcd9 8c3f
000001e0: a64e 5ad3 3171 b83f f34c 4f65 cbc8 9fbf
000001f0: 6b42 470b f5fc b03f f3c5 a104 3f52 b13f

encoder.0.1.running_mean f8 [64]
0.5336691482274344 -0.10638730291746785 -0.5009310238453049 -0.0726646279695304 -0.5485231244551991 0.1778949869527986 0.4228504120010659 0.38525033850965373
-0.15610504138797762 0.07602832743998779 0.022241853730799597 0.5326216123395681 -0.2557939273635034 0.43838001040334074 0.1451202994565532 -0.1557675734159374
0.6680527671253138 0.0896168482395827 -0.0010428985755353264 0.48815129872117047 0.07740084139272312 -0.17078550284097593 0.18237895842528046 0.32994577872819925
-0.4063091922008659 -0.29303256355401003 -0.051129320543069755 0.4178365217407512 -0.5678892257665098 0.5680229638619254 -0.10987535800707937 0.4277378888786476
-0.13202743531651798 0.004936200681030495 -0.4143866844904467 -0.09349349487780825 -0.3025553729976735 -0.5329899764601296 0.5009528121563737 -0.4039404079269813
0.6213208033623506 -0.4402688856772285 0.4995243331590688 0.34555648877068834 -0.11213309468082801 0.00841658798405082 -0.49586752747874524 -0.1132199192090378
-0.2289573223788358 0.08384076555844622 -0.47345416924606026 0.43463746277043963 0.11654837850982705 -0.4087179899680182 -0.35560685096243705 0.23676376858434367
0.3535484164015596 -0.31184686988272564 0.021528955260830773 -0.08957743069550364 0.22682789099323278 0.5006624606557042 -0.24879057290124373 -0.41291798792968254
00000000: 17ac 5052 d113 e13f c57b bdc2 323c bbbf
00000010: c8f4 9e7f a007 e0bf 0d84 b428 269a b2bf
00000020: 6e50 145e 808d e1bf b8d4 8a4f 43c5 c63f
00000030: d442 a92c fb0f db3f 4800 2b09 f1a7 d83f
00000040: 7f44 c0ff 3ffb c3bf b1a0 ecab 9776 b33f
00000050: 893a 8189 91c6 963f ff84 c47a 3c0b e13f
00000060: 57aa 227e ed5e d0bf 5ec2 f907 6b0e dc3f
00000070: 5e68 134e 4d93 c23f 30a3 cc1c 31f0 c3bf
00000080: e0c6 5932 b060 e53f ef0e 5c38 21f1 b63f
00000090: 7818 99d1 3b16 51bf 7c78 e0f1 de3d df3f
000000a0: ebf1 76a2 8ad0 b33f b09c aaa2 4cdc c5bf
000000b0: c222 f596 3158 c73f c9d0 45e6 d41d d53f
000000c0: 0c48 2445 f800 dabf 3329 48a7 0bc1 d2bf
000000d0: 73c8 324f 9f2d aabf dddb fc64 d5bd da3f
000000e0: 9a5f 8d06 262c e2bf 283f a57e 3e2d e23f
000000f0: a8d5 469d ca20 bcbf a09b ffbc 0e60 db3f
00000100: 45fa 6d66 46e6 c0bf ed42 dd47 fb37 743f
00000110: 9c32 72ba 4f85 dabf ea90 e38e 30ef b7bf
00000120: ff42 1036 115d d3bf 02bf bffe 400e e1bf
00000130: 9da0 2131 ce07 e03f fd12 65de 28da d9bf
00000140: f780 582a dce1 e33f 1786 5b8c 5d2d dcbf
00000150: b75c 9ee8 34f8 df3f 6434 8cf6 981d d63f
00000160: d913 7426 c1b4 bcbf 224f 1551 b73c 813f
00000170: 99da 6a27 4bbc dfbf 4532 420a fbfb bcbf
00000180: 7bfe e539 794e cdbf 3827 25a2 9676 b53f
00000190: 7344 44b7 124d debf 07ca 0da6 19d1 db3f
000001a0: 4afe 1952 1dd6 bd3f 84c4 0c80 6f28 dabf
000001b0: 6c80 c73c 43c2 d6bf a446 7971 464e ce3f
000001c0: 93d3 7f89 89a0 d63f cb66 e092 4cf5 d3bf
000001d0: 639c 0cbb af0b 963f 4a01 4ce7 8bee b6bf
000001e0: b57b d142 b208 cd3f 823c db47 6d05 e03f
000001f0: 2cfc 1497 5ed8 cfbf 95a3 8591 3f6d dabf

encoder.0.1.running_var f8 [64]
0.001699179263304473 0.012457588466510208 0.007194436468546884 0.004932957888765005 0.046214614390567045 0.004782233533337427 0.0109266701636301 0.01160605104439143
0.004505596307550162 0.007228513496892671 0.0035472136015131405 0.009688312989253602 0.005063635111253785 0.006463871920065037 0.003585992732839921 0.015862882701547436
0.053152496589904896 0.007336638722877162 0.024694029511676457 0.011743882269664213 0.05038720703516772 0.004572922280065593 0.020030501451067332 0.01945113629219624
0.004118290582599794 0.024077383550757184 0.014026337176621993 0.017197718194026393 0.041905693665230614 0.008114107478118669 0.0036156552851551805 0.022918754063313666
0.0033983245674173226 0.004942010386510669 0.0034314917165784247 0.029060549039843463 0.0012054134138675691 0.023453605443373375 0.004097640360944117 0.004875605791738829
0.008537302074560518 0.0018680276950578517 0.002508898944509322 0.007513510305441067 0.005159997060876364 0.021540422369853148 0.00022913286660604772 0.007812503676838294
0.006714280401011282 0.02136374898814388 0.008654395446775019 0.012205953297046053 0.029458959146712132 0.02574547193127484 0.008423602338080621 0.028244173062375373
0.03246932733759133 0.0054619839285759714 0.03554551856340021 0.019442572768620405 0.019906644743218644 0.0017112962000941318 0.005859067903908063 0.005818780753770217
00000000: cb76 6bd7 dfd6 5b3f 2ecf 6738 5d83 893f
00000010: 7468 87d5 e977 7d3f 6d6c e0cc 9434 743f
00000020: 9d39 cf22 71a9 a73f 2051 0a0a 8996 733f
00000030: 6b46 0ed8 b860 863f 1af6 5ecd e9c4 873f
00000040: cb74 a3cc 7574 723f 6fe8 1551 a59b 7d3f
00000050: 4534 22cd 0b0f 6d3f a1bd 895b 77d7 833f
00000060: b536 3a33 9bbd 743f 830f 0968 dc79 7a3f
00000070: 5a16 5c30 5f60 6d3f bb97 b109 5c3e 903f
00000080: 68d9 1bd5 cd36 ab3f 8a85 09f6 050d 7e3f
00000090: 88ed a244 6449 993f 5dd3 3532 2d0d 883f
000000a0: aca5 b41c 5acc a93f a591 3d7a 0ebb 723f
000000b0: c187 9e32 e082 943f eee6 faa8 ffea 933f
000000c0: db0f e235 57de 703f a4eb b1db bda7 983f
000000d0: df6b a61b d7b9 8c3f 0430 d654 479c 913f
000000e0: 58e1 9dbf a974 a53f b2b9 0912 219e 803f
000000f0: 12da 8126 949e 6d3f de01 ab8c 0378 973f
00000100: 50a1 1a9c cdd6 6b3f 92ee c8cf 123e 743f
00000110: 13d7 5f16 5c1c 6c3f 4373 eb6e 0cc2 9d3f
00000120: 87c5 34cc debf 533f be09 69d1 3804 983f
00000130: 3bd6 74f5 afc8 703f 6c80 c776 71f8 733f
00000140: 0e86 a649 017c 813f 3b51 ee76 139b 5e3f
00000150: d4e4 4cdd 8a8d 643f c5f4 a390 7cc6 7e3f
00000160: a693 fb29 a622 753f 6f70 7b46 b10e 963f
00000170: 902a 4756 6c08 2e3f c9cf 557e 0000 803f
00000180: 6ff7 d0eb 6e80 7b3f 6668 e5ec 60e0 953f
00000190: 72ce 484b 65b9 813f 248b d151 6fff 883f
000001a0: dbf3 6f48 7d2a 9e3f bc11 dc5f 055d 9a3f
000001b0: 90d8 73c4 6440 813f 62ff 6b5e 0aec 9c3f
000001c0: 5f7e 13d6 d19f a03f 621e 8325 4e5f 763f
000001d0: 8792 7faf 0533 a23f a7ea c3f8 c0e8 933f
000001e0: 15b3 9450 6862 943f e9a1 a44d b209 5c3f
000001f0: c96a 8490 adff 773f 2afe a310 6fd5 773f

encoder.1.0.weight f8 [64, 64, 3]
-0.02424822659907231 0.044437871161262556 0.021155417630256117 -0.03664913026716253 -0.07468055953599141 0.042374753896823214 -0.024791824203005724 -0.015816717751826956
0.053111951089327494 -0.06187141867240646 0.0063383019261979345 0.04113237209423392 0.03536509525984063 0.11392431592243504 -0.010187449798299124 -0.025763835059242193
0.04904354341298668 0.028569900998895326 -0.002983787649955584 0.03321175863351396 0.02567186251256013 0.044846407132123574 0.02051208851256751 0.10507901577027261
-0.016965603821575984 0.045546681336634504 0.01013390288413226 0.03235807231474737 -0.021787454943285222 -0.06695817117792918 -0.019773960992186628 0.02244251526214102
0.023547870153635752 0.053421576690118766 0.05176094986141738 -0.09481887198222959 -0.07580592796432462 0.018408071757478005 -0.06919872588112785 0.029639044473674953
-0.06638028289618433 0.037411179515675595 -0.0004541211650956593 -0.04038835708875777 0.0463315336685785 0.06670477524684135 0.07183801683582292 -0.021411446321245087
-0.07289819641152691 -0.00458264999735921 -0.07868024013391108 -0.08082438041100898 0.031998220831540546 -0.00023256541932172546 0.030148503566300385 0.04623526603374993
0.02981119553509783 0.018716492411099985 0.10159634468873324 0.07287767739558924 -0.0730109132624991 0.029987183091267144 -0.03696233286154884 0.06760638146649592
-0.009238770283978497 0.06444218095210294 0.1262867302841442 0.030857534562967154 0.014985086494770943 -0.05265672649312301 -0.0171359133992635 -0.03352666426688359
0.0857533129805814 0.10155141200769349 0.02284855308300729 0.0779978377579173 0.025309647064163526 0.08438540513423405 0.06368208103394779 0.05471891341883112
-0.052879650297399536 -0.0320328263247652 -0.016845662590347494 0.051469828188315754 0.08871481068200651 0.12937025304227437 0.008964507933965556 0.04198667837035184
-0.010208644259320254 -0.09432582980787797 -0.06258150060400777 -0.05816209494189083 0.01872976334475139 -0.019492914536227986 0.029783701342187864 0.034620182099084025
-0.03837932143315384 -0.08688462755745932 0.04843701328646282 -0.002226054458669862 -0.05274025753223631 0.027579040584841518 -0.022463659125712427 -0.0074622558543643025
-0.06418994099203297 -0.006621750648577229 0.05148869952972132 0.040059250674860894 0.05860241498417631 0.12021721118334655 -0.005163176527291678 0.017327717193153066
0.10389036664702016 -0.0264567582944235 0.07097745184155507 -0.024594552556308383 0.05461689323736377 0.05053474473141157 -0.050478978884005564 -0.025728325877842576
0.005847154432074254 -0.004013268892874384 7.18672137471241e-05 -0.07593872426451273 -0.05253399308075363 -0.0056291806029477925 0.020050870482542255 -0.0008253400487184563
-0.06604378604711146 0.04387518785795289 -0.02092236575585545 0.03750965325194767 -0.08831914703948668 -0.07221977947625717 0.017152606694552347 -0.06722490510772341
0.0044147270438731736 0.027585486113713163 -0.013088948346059719 -0.008919679422112992 0.055261164037176215 0.05678776040977427 0.07335160384066866 0.004488231254255203
-0.05877299387106417 0.04025490368055705 0.02080395346270365 0.10964657260686611 0.05448766865050752 0.04915279628287722 -0.05347231226712465 0.03412226197350084
-0.03359571073343002 0.045211114582377365 -0.04733563163468593 0.011340306772340455 -0.07913331574496495 -0.05677590811032108 -0.09281909776932075 -0.08546266193313701
0.01858672270561157 0.033515436873917365 -0.015438312091864281 0.06595859010056117 -0.08228707708494042 -0.045619531536329964 0.023842965605289063 -0.06915971065172646
0.059380856598092176 0.10304030249952868 0.01235490564116561 0.04507554931539491 -0.0489909643954806 0.06729573437586281 0.09859471390564625 0.06397134421635274
0.021385767678355493 -0.06252959463556391 -0.05454541062345731 0.0182356005773858 0.123536041051114 0.03527667055745457 0.0006195317801334948 0.06865229723572727
-0.03540343857446865 0.029713217606538635 0.014298507045721968 -0.02840943884384482 -0.05943969604225383 -0.07435527811826116 0.02429231824816347 0.04830377773333372
-0.05860178876620774 -0.020431675484985617 0.052468596440673594 -0.04007343362075881 -0.03117817061488976 0.08002273895513828 -0.03278127895208588 -0.001592794303064277
0.006476884395215912 -0.014870308569105721 -0.06358545608707782 -0.05728408622281261 0.01714157184478464 0.03567500562728055 0.04046691101174483 -0.03173891136359004
0.03795856495799483 -0.022111750179621196 0.049338610235616344 0.014150407433834751 0.0151101925562146 0.056096785784640744 -0.029307915658937 -0.04997289866223062
0.023128995637166968 -0.07887472220296592 -0.013830792012640552 -0.0013769476184967097 -0.08786482740622024 -0.003248099565670567 -0.05011131566194074 -0.047778489334779704
0.0823590134380796 -0.0771373609549881 0.029800336626424027 0.04194779840475935 -0.03662747629615207 0.04402881903632215 -0.11399483989029628 0.02469009341282195
-0.04295924861881435 -0.04468387568177714 0.041278095396005576 0.07216790863860335 -0.012002292690024794 -0.019916185390662807 -0.020676944110473664 0.015231852502809822
0.04546820501049048 -0.059438823442926204 -0.03764860318645723 0.02548773447508368 -0.06703951910448315 0.04268277335997561 0.004456025705950976 -0.0037620016842501857
0.049248168963522326 0.006122101366259886 -0.007586438301427098 0.02505369653317598 0.02050496546558341 0.021390922308197773 -0.03924413004733272 -0.05663311888010714
00000000: 5a82 eaf0 86d4 98bf 05d7 ae86 8fc0 a63f
00000010: 2bb2 6b0b c4a9 953f be3e d9bf acc3 a2bf
00000020: f1a3 dae0 431e b3bf 3068 53cc 24b2 a53f
00000030: dbee a328 0763 99bf 0c8a e5f5 4132 90bf
00000040: ea2b e959 7d31 ab3f b69d 824f 9cad afbf
00000050: b75a c3f7 30f6 793f 0f3d e761 4d0f a53f
00000060: 8b33 1faf 5f1b a23f d224 1bdb 242a bd3f
00000070: c9e9 b45d 28dd 84bf 84f5 feb3 d561 9abf
00000080: f2d4 133e 3c1c a93f 3dc7 c299 6d41 9d3f
00000090: 5019 fecb 7471 68bf 8ae0 58b2 2101 a13f
000000a0: 1ae8 ac87 b949 9a3f 297e f3b7 1bf6 a63f
000000b0: 6b27 56f5 1e01 953f 23ac 3a58 75e6 ba3f
000000c0: 4441 4866 6e5f 91bf bc79 9005 e551 a73f
000000d0: 6cd9 be6b 15c1 843f 7af6 b4bc 3c91 a03f
000000e0: b326 c759 734f 96bf bcbf 68b3 2b24 b1bf
000000f0: 9b64 180f a03f 94bf be0e 5db4 2bfb 963f
00000100: b320 cdd0 ee1c 983f 68d3 91a9 125a ab3f
00000110: c8b7 ba45 6980 aa3f bf10 35b2 0c46 b8bf
00000120: f01f 736d 0468 b3bf d320 b9c8 90d9 923f
00000130: 8895 95f8 01b7 b1bf 05e7 cb9a b259 9e3f
00000140: 3e6a 2358 4cfe b0bf eb99 0ce1 8e27 a33f
00000150: de1d 718d e3c2 3dbf 81b7 ab61 c8ad a4bf
00000160: 3798 c24b c4b8 a73f 3616 2c6c 9013 b13f
00000170: f85a ebec f963 b23f b0d7 d6d6 e1ec 95bf
00000180: 5d5f 86c9 74a9 b2bf 58fc e1bd 41c5 72bf
00000190: 7171 3762 6324 b4bf f4b1 9516 e8b0 b4bf
000001a0: 9bd8 0020 1262 a03f c092 86bd 997b 2ebf
000001b0: 1fc6 5cd3 3fdf 9e3f 7ed9 1217 26ac a73f
000001c0: e5f9 8277 d386 9e3f 27be 348b 6a2a 933f
000001d0: f8cc d4d1 3702 ba3f 2fc2 0589 1ca8 b23f
000001e0: a9a9 b6dc d7b0 b2bf 6362 b4ca f5b4 9e3f
000001f0: f3ff a515 baec a2bf aa45 66dd a64e b13f
00000200: 96af ccc1 c6eb 82bf 0e15 ac63 487f b03f
00000210: 319d 3ee0 292a c03f c5ed 2117 1e99 9f3f
00000220: 89d6 6143 80b0 8e3f 5d9e 678c d2f5 aabf
00000230: 0c36 8cae 138c 91bf 15f6 232d 682a a1bf
00000240: bf76 c6da edf3 b53f c287 6ff9 45ff b93f
00000250: a87e 0271 9c65 973f 4c37 5492 aaf7 b33f
00000260: 68d1 a7a9 c5ea 993f cdad 4f2b 489a b53f
00000270: 90cc 6107 784d b03f c88b 360f 1e04 ac3f
00000280: 5670 4da1 0a13 abbf 8c37 ed4a 9b66 a0bf
00000290: 85b6 9e47 fd3f 91bf 495f 99d9 405a aa3f
000002a0: 0ad0 8c8a 03b6 b63f ed26 f256 348f c03f
000002b0: 917b 35e3 fb5b 823f 2dc9 ef24 477f a53f
000002c0: 539c d709 45e8 84bf c161 31d2 bc25 b8bf
000002d0: fec6 6d5a 5705 b0bf 5ed7 480f 6cc7 adbf
000002e0: fc2f 1c24 e52d 933f 524e bf59 f3f5 93bf
000002f0: dac5 df5c 9e7f 9e3f b154 cb8b bcb9 a13f
00000300: 84cf cb54 74a6 a3bf e269 e229 123e b6bf
00000310: b769 f677 bccc a83f 0bd8 2be3 5f3c 62bf
00000320: 6e30 9162 c500 abbf 03c2 7715 ae3d 9c3f
00000330: 1578 2ca5 b600 97bf 6002 950d be90 7ebf
00000340: ddfe 4a81 c06e b0bf c080 a5a7 681f 7bbf
00000350: 8cfc 2f11 ba5c aa3f 9a01 1a67 a582 a43f
00000360: 73b6 a5bf 2201 ae3f 7ce4 721e 8ec6 be3f
00000370: e546 40a5 fb25 75bf 5fbe a26a 5bbe 913f
00000380: 834f 1e1f 8f98 ba3f 3de9 87fe 7a17 9bbf
00000390: 6cb3 690a 942b b23f a16f 8e7b 502f 99bf
000003a0: b4f6 86d4 bef6 ab3f 09c2 dda7 b0df a93f
000003b0: 5372 e276 61d8 a9bf a197 e7b8 8658 9abf
000003c0: 5b7b f790 2ff3 773f aeb6 51aa 3770 70bf
000003d0: 0ced ae54 edd6 123f a64e 3761 b870 b3bf
000003e0: c895 6b4c bce5 aabf e7ac 7ca9 9f0e 77bf
000003f0: d857 ea23 3788 943f 18b3 3742 740b 4bbf
00000400: 3f26 2ddd 3ee8 b0bf e559 e901 cf76 a63f
00000410: f594 b432 ac6c 95bf 81b9 001c 7734 a33f
00000420: 842c 2568 159c b6bf 3390 f9d6 fe7c b2bf
00000430: a850 2df3 7390 913f 8214 eac0 a635 b1bf
00000440: ad21 6344 2d15 723f 2686 cfa2 5e3f 9c3f
00000450: 1cd1 aee8 60ce 8abf 2d2e 451b 7b44 82bf
00000460: d59f 8ef8 304b ac3f 0dcf 8b0b 4913 ad3f
00000470: 7ad5 9ab3 2bc7 b23f 5938 4367 4062 723f
00000480: a1e2 206d 7e17 aebf fe8c 9f6d 4a9c a43f
00000490: 53d0 ffae a14d 953f e408 773b cc11 bc3f
000004a0: 1747 c7c5 cee5 ab3f f874 1529 8e2a a93f
000004b0: ac8b db10 b960 abbf 1bc4 7b1e 7978 a13f
000004c0: 4d9c c5fd 7433 a1bf f012 1845 e925 a73f
000004d0: d4ea 9c3b 603c a8bf cbe1 b535 9639 873f
000004e0: ff0e 26bb 1442 b4bf f1ad 1159 bb11 adbf
000004f0: a90b 5d0d fec2 b7bf 682c 088a e1e0 b5bf
00000500: c045 a4d8 6508 933f b4ba 9172 ef28 a13f
00000510: b3ea 512c 1f9e 8fbf 2947 5f83 a9e2 b03f
00000520: 8f97 f610 c410 b5bf 07c7 0378 715b a7bf
00000530: d8b6 0e56 4a6a 983f 6a32 7367 73b4 b1bf
00000540: 99cd 31ea 2a67 ae3f c9c9 6769 d960 ba3f
00000550: 8a4b 645d 874d 893f 9e55 5174 2414 a73f
00000560: f594 c1fb 5715 a9bf 7afc 4d12 4b3a b13f
00000570: 9281 c8cf 803d b93f 3f57 4a0f 6d60 b03f
00000580: 7312 1d93 26e6 953f 1dec fd83 f001 b0bf
00000590: a19d 8c45 60ed abbf f941 6970 5aac 923f
000005a0: f51c 31d8 0ea0 bf3f 054a b6a4 c80f a23f
000005b0: 194b 045e 024d 443f 5e37 6c6b 3293 b13f
000005c0: 68c3 af45 6620 a2bf 771c 8447 246d 9e3f
000005d0: efdd 2421 8948 8d3f 1b98 ed2a 5d17 9dbf
000005e0: bddb 2b3d e16e aebf e98b cd8f f208 b3bf
000005f0: a0f6 ade1 15e0 983f a09d 46d3 45bb a83f
00000600: 36d6 79bc 0d01 aebf 08c0 0a88 0aec 94bf
00000610: d136 8ff3 29dd aa3f 36de ad4d 8184 a4bf
00000620: d16b 8f9c 2bed 9fbf 74a8 bfc6 5e7c b43f
00000630: c85f 0a32 b5c8 a0bf 82f8 37dc a918 5abf
00000640: 29d0 846a 8187 7a3f 69ca e207 5374 8ebf
00000650: ab2e 65ee 2247 b0bf c702 d1f9 5654 adbf
00000660: 2ccb e669 8f8d 913f a156 e88c fe43 a23f
00000670: 212e bb36 14b8 a43f 2a70 a224 1540 a0bf
00000680: 0903 3216 4e6f a33f e1e2 836f 76a4 96bf
00000690: 7dbc c80a e942 a93f 7127 3a89 e3fa 8c3f
000006a0: 42f0 ebb6 17f2 8e3f d324 b6c8 b7b8 ac3f
000006b0: a684 13ed e402 9ebf ac96 e13a 0c96 a9bf
000006c0: bf61 679f 20af 973f 4bc3 5740 2231 b4bf
000006d0: 69ff f97a 5153 8cbf e509 583f 568f 56bf
000006e0: a7ab 2d30 4f7e b6bf 7920 142d c29b 6abf
000006f0: 34ea dabb 30a8 a9bf e352 4a12 6c76 a8bf
00000700: 0f54 3ff5 7a15 b53f bef6 992a 46bf b3bf
00000710: a691 e1bc fa83 9e3f dd45 938c 2e7a a53f
00000720: 046b a729 d6c0 a2bf ee5c af03 f28a a63f
00000730: 1bd8 3d0d c42e bdbf eb17 f91e 5c48 993f
00000740: 1ad0 c12f c1fe a5bf 236c 6c11 cee0 a6bf
00000750: d0b5 880b 6722 a53f a16b 6c97 9879 b23f
00000760: a539 a574 a894 88bf afe7 a793 e864 94bf
00000770: 715c f13a 562c 95bf 5644 dba2 e031 8f3f
00000780: 4846 0ecb 9b47 a73f e5a4 99f5 c36e aebf
00000790: 8e11 da7e ad46 a3bf 4016 14e8 7419 9a3f
000007a0: f9e3 177e 8029 b1bf b00a 5e37 84da a53f
000007b0: 2bca d54a 7b40 723f a178 7146 7dd1 6ebf
000007c0: cc23 2c56 0e37 a93f 6d04 6a12 7d13 793f
000007d0: 5630 5d06 f512 7fbf 35fe 031d ada7 993f
000007e0: 9537 52f0 40ff 943f aedd fa7e 80e7 953f
000007f0: defd 397e ce17 a4bf f1cb eb22 04ff acbf

encoder.1.0.bias f8 [64]
-0.057809181512338007 0.017561778426302913 -0.01728723198021292 0.037328809499303985 0.02514014392998586 -0.05640604347035264 0.007816396652940014 0.007967852056064753
-0.05041593685560201 -0.032970353960057 0.0721319019797965 -0.04183346405741382 -0.042954795061640065 -0.007360368968128483 0.020819604397429213 -0.005550347268019566
-0.02532717957836866 0.006256908176446895 -0.03634192794764181 0.015027441084471363 0.03537570685132686 -0.03883738443204849 0.05454789102041813 -0.03489840775462751
-0.028427921235607327 0.045019991695591434 0.06909482181016686 0.030069358645531626 -0.015544284135583078 -0.03690952434839297 0.028536856174109917 -0.007599413394676926
0.04405283182782471 0.03574239462561131 0.021154887974431602 -0.06639498471677158 -0.008700959384038792 0.0251520574124084 -0.0063677206640432825 -0.04488561674636271
-0.017794519659812345 0.004705972971090762 -0.022062096745458594 0.030349709092944623 0.03692790866026951 0.050808772445107474 -0.017077460887069868 0.05207349360153211
0.025090955198098994 -0.06741719692948306 -0.04985498264382091 0.03757461160478497 0.022466652094082048 0.056066840885946385 -0.03323314711744356 0.03682920336788742
-0.03276221081681603 -0.00750634819262691 0.0624872595066374 -0.04421493038955165 0.0047344714413301795 0.05965216457792024 -0.02186878397925334 0.019802503287381656
00000000: da0e 0240 2a99 adbf 4195 0000 b7fb 913f
00000010: 8f38 f97f beb3 91bf 350a ffff c21c a33f
00000020: 3ded fb7f 56be 993f 85fb 00c0 40e1 acbf
00000030: 52bc f9ff 0a02 803f 3b56 0000 7351 803f
00000040: f5e8 fb1f 1ed0 a9bf 42f2 fd7f 7de1 a0bf
00000050: 8b62 0080 3c77 b23f 3d8d 0220 326b a5bf
00000060: 4704 febf 2bfe a5bf ccdc 1200 e825 7ebf
00000070: d6ad 0200 bc51 953f c51d f6ff f5bb 76bf
00000080: afbf f43f 5eef 99bf a5e1 deff d7a0 793f
00000090: a275 04c0 689b a2bf a8c2 0000 b5c6 8e3f
000000a0: 72a8 ffbf c31c a23f 49e3 fe5f 7ee2 a3bf
000000b0: 3037 ff7f b3ed ab3f 8329 fa3f 34de a1bf
000000c0: be33 0080 351c 9dbf 0d5d ff3f dc0c a73f
000000d0: a563 ffbf 32b0 b13f 821d fa7f 80ca 9e3f
000000e0: 8838 0480 aed5 8fbf 9b7a f91f cee5 a2bf
000000f0: b76b feff c338 9d3f 5c95 fbff 8f20 7fbf
00000100: d04e febf 178e a63f 0ad6 febf d34c a23f
00000110: b0be 0080 a0a9 953f a419 faff 42ff b0bf
00000120: 7675 fcff ced1 81bf f3ba 0d00 76c1 993f
00000130: bcb8 0800 0a15 7abf c00b f95f 3ffb a6bf
00000140: f69b f2ff b938 92bf fb6b 1b00 9246 733f
00000150: ca00 0340 7297 96bf 173f fd7f fe13 9f3f
00000160: 2fd5 0200 37e8 a23f 4bd7 0080 9b03 aa3f
00000170: 85e4 0800 c17c 91bf 7d9b 0380 60a9 aa3f
00000180: 1c44 0180 71b1 993f f407 00e0 4042 b1bf
00000190: 4de7 fe9f 9786 a9bf 9741 01c0 fa3c a33f
000001a0: 9f90 fa7f 7f01 973f a187 fdff cab4 ac3f
000001b0: 7670 0660 ef03 a1bf 4070 0100 47db a23f
000001c0: ca79 0160 35c6 a0bf bfdb feff f9be 7ebf
000001d0: f6ce fe7f 54fe af3f a73c 09e0 56a3 a6bf
000001e0: dada 1100 7464 733f a3dc fe7f ba8a ae3f
000001f0: ce0a fa3f c564 96bf c331 fe7f 1b47 943f

encoder.1.1.weight f8 [64]
1.020628306175001 0.9728279714309732 1.1054904459095516 0.960705745859658 1.0087224863002793 0.9902237655960636 1.0149270142710654 0.9917747596845673
0.9683974691591531 0.9587728576660354 0.9154586420862805 0.9954730739130961 1.013143569385024 0.9860997271883706 0.9652626526353535 0.9386453808438271
1.0026435739847133 1.0175649132320457 1.0035601745712643 0.9478921971277285 1.0233364595971126 1.0147108264064317 1.0113968903606378 1.1596084138040317
0.9853452523910277 0.9635019525908146 0.9974454161859897 1.0589612008863978 0.9544872184834584 1.0177899816676443 0.98329009969137 1.0465141307949744
1.0203933394752525 0.963320509757914 0.9843624102810111 0.9917774189676571 0.9817972294570257 1.0004469146330777 0.9678069207231038 1.1482721576133552
1.0064097345199732 0.9759100482999925 0.95526068696463 0.9778407254423549 1.050655056277556 0.9851501479224262 1.0231276519255204 1.0459687904729753
0.8808677630695833 1.030846786144502 0.9644668077359438 1.05913806847609 1.0010553242124094 1.0019976071030248 1.1367221908708174 0.9785859114442098
0.9608158841556983 1.007705633265036 0.9540608458486325 1.0256141821769504 0.9373059920990177 1.054554196677885 1.0246241662213085 1.102213590562819
00000000: cb4b c658 7e54 f03f fdc2 3d20 6821 ef3f
00000010: 3c8d f3bf 16b0 f13f 147d f1f9 19be ee3f
00000020: 6264 9630 ba23 f03f 43a0 1ec0 e9af ef3f
00000030: 3cf0 e11b 243d f03f c1fd ba6b 9ebc ef3f
00000040: db2a 72b0 1cfd ee3f 8dfa 7e6a 44ae ee3f
00000050: 923c 13ec 6f4b ed3f bc2b 1059 eada ef3f
00000060: 0895 0a08 d635 f03f 5bcb db03 218e ef3f
00000070: 45cf a380 6ee3 ee3f a280 a809 6209 ee3f
00000080: 41f1 fcfc d30a f03f 2c38 7e25 f247 f03f
00000090: 48a0 151d 950e f03f 7e82 5904 2255 ee3f
000000a0: 6762 2c0d 965f f03f 0e01 656b 413c f03f
000000b0: 2700 7681 ae2e f03f a946 578d c18d f23f
000000c0: ff39 49c4 f287 ef3f 644f 000c 02d5 ee3f
000000d0: c10b 42a6 12eb ef3f b2a3 d84c 81f1 f03f
000000e0: 49c4 7ac7 288b ee3f f357 d725 de48 f03f
000000f0: e0f5 94cc 1c77 ef3f 7d0f e999 85be f03f
00000100: 93a3 61f7 8753 f03f c33d 9f88 85d3 ee3f
00000110: 9a32 f298 e57f ef3f 7a13 6cff a3bc ef3f
00000120: 5d48 fa05 e26a ef3f 13bb bb9f d401 f03f
00000130: 6b24 2b38 46f8 ee3f 1eb5 3da0 525f f23f
00000140: af3a 0218 411a f03f f228 a9b5 a73a ef3f
00000150: cf5c 35dc 7e91 ee3f 3a19 0fa2 784a ef3f
00000160: 216d 21ad 7bcf f03f 873e 5f9a 5986 ef3f
00000170: 4074 ca19 bb5e f03f 5c7d 3bc5 49bc f03f
00000180: 5381 4f97 1130 ec3f 65d6 1a33 597e f03f
00000190: 71b5 a97e e9dc ee3f cada 60c2 3af2 f03f
000001a0: e2a9 6f96 5204 f03f 0fd8 92a4 2e08 f03f
000001b0: 93d7 a69b 0330 f23f e155 bf66 9350 ef3f
000001c0: 31a2 fdf3 00bf ee3f 8ee4 2df1 8f1f f03f
000001d0: 130c 6a9c aa87 ee3f 7a38 ac6a ea68 f03f
000001e0: aa1f cd22 69fe ed3f 0475 a938 74df f03f
000001f0: e2c9 494f dc64 f03f e0c8 cab7 aaa2 f13f

encoder.1.1.bias f8 [64]
-0.026998492570395348 -0.004821024515596108 0.03151708425190214 -0.00847171198881133 0.009245032635890955 0.0639701248751127 0.049614896999379994 0.05625447289313185
-0.027524082588606842 0.009935360933564072 -0.009929323328354587 -0.0026892910371336906 -0.006930902745333308 0.020839894785467987 0.029272507509675777 0.033423363457872925
-0.02606515972603904 -0.07486019177788547 -0.016553976193172094 -0.021549549117481526 -0.015996738086874816 -0.004731246483245178 -0.017903736373810708 0.054101948675429605
-0.013073714701708842 -0.00019497743868336924 -0.011922177171974732 0.026648372048299958 -0.06630962922559965 0.046538354589154125 -0.06974786770869175 0.02661353561425653
-0.06232222693820391 -0.0231563591596897 -0.07449448019830829 0.05181908723134888 -0.04101095752352456 -0.028286674720651606 -0.06749521925062371 0.09029469480359854
0.0015668670436956068 -0.008221990098917874 -0.016642603963884887 0.0168205512371127 0.03849304913406435 -0.007412974307780015 0.021981192817751866 0.016358177369857153
-0.0057981066723577866 -0.03710074402496822 -0.021346003547615237 0.02298545124193957 -0.034913123389107126 -0.02115804579355918 0.10728579928724631 0.07304970241579824
-0.011280072219700737 0.03764152924504756 -0.013656865535673132 0.014798686670047299 -0.08050145882466657 0.02779347457434067 -0.01867936611476883 -0.05468489932314841
00000000: 664b 862a 7ea5 9bbf a80e 0bea 35bf 73bf
00000010: e01f 41dc 0123 a03f 6ff0 76ef 9d59 81bf
00000020: 4aa5 9246 0fef 823f 1a78 429a 5860 b03f
00000030: 2974 03b0 1f67 a93f 09d1 a8e2 62cd ac3f
00000040: 2229 48ea 452f 9cbf 45d7 4492 fd58 843f
00000050: 72c9 bb37 d355 84bf 35ac b921 da07 66bf
00000060: 3ca8 f709 9463 7cbf 7e00 39aa 0d57 953f
00000070: f831 b4b9 9cf9 9d3f 25a1 f2f9 dd1c a13f
00000080: 7879 5a42 d3b0 9abf 8e53 759b 092a b3bf
00000090: 7a47 7989 86f3 90bf 0001 d0c2 1511 96bf
000000a0: 3606 b4eb 7261 90bf f43c a34e 1261 73bf
000000b0: 6090 ce68 5b55 92bf 4ff3 6b28 40b3 ab3f
000000c0: 0f0a a648 64c6 8abf 6a02 f971 5b8e 29bf
000000d0: 38ef 6788 a76a 88bf 82a0 c1f9 b549 9b3f
000000e0: e50f eff8 aaf9 b0bf d1ac f00d e0d3 a73f
000000f0: ed49 c60a ffda b1bf 496c 6024 9440 9b3f
00000100: 54e6 06ed b2e8 afbf fa24 24f5 4cb6 97bf
00000110: 402b 2ffc 1112 b3bf c136 ef09 0888 aa3f
00000120: 8eaf ae62 63ff a4bf 40e5 599b 2ef7 9cbf
00000130: ee59 51df 5d47 b1bf b10a 2f99 8d1d b73f
00000140: 953a 6ead eaab 593f 39c1 a9d4 b0d6 80bf
00000150: ae0c fb3e c20a 91bf c63a db15 6839 913f
00000160: cde9 4e66 5cb5 a33f 23f1 7c23 115d 7ebf
00000170: 9504 1ee1 3c82 963f 4a85 4db3 32c0 903f
00000180: ea7c 9568 c1bf 77bf e12f 7d64 defe a2bf
00000190: 519a 8c0c badb 95bf 70c3 7885 7f89 973f
000001a0: 609a 5006 22e0 a1bf 4124 ec6a 74aa 95bf
000001b0: c591 4307 1577 bb3f 29bf dba2 62b3 b23f
000001c0: 43b6 3daa 011a 87bf 7a66 2822 c045 a33f
000001d0: 3e91 bb76 21f8 8bbf df3e 2c1a c64e 8e3f
000001e0: dba6 ee5c be9b b4bf 0023 5b81 e475 9c3f
000001f0: 7eb1 4a0a af20 93bf 891f 5bbc a8ff abbf

encoder.1.1.running_mean f8 [64]
0.8271335533007118 -0.7480781272032957 0.15283287142886415 0.1198901714481267 0.7620812265062522 -0.4396835618175737 -1.4663788439567835 0.24167656600479992
0.43438100027504134 -1.1691010475188306 -1.352190955640911 -0.2979474286071958 0.13879805331431588 -1.1177767709895536 -0.17084279318699433 -0.1726176223749451
0.7503741473117045 0.6633068939555259 -0.4059974819478779 0.6551116017745461 -0.07998608535780764 -0.4366260939706603 -1.1993531560320227 -0.14164888287625352
-0.39143183468467396 -0.13072792968886227 0.3021625329114397 0.0702674949924998 -1.1229273700115796 -0.48935924306316086 -0.79321215749528 0.1951123022740409
0.4827853897028859 0.2540526255434114 1.3928520549560561 0.06398788034755237 -1.5525723049554248 -1.5758095999271602 -0.2019008718187112 0.07691507758430462
0.8385870790297246 -0.7346152143836662 -1.1368388567922014 -1.1853812582731866 0.22783375836760072 -1.3890629998482042 -1.4286666597254076 -0.0888540770048524
-0.19548250382752155 0.8656119635601385 -0.7651005415901027 -0.23749676088686741 -0.6222543922163941 -0.05989987816157404 -0.2176930836807653 -1.2401845206380844
-0.6761093999305118 -2.0057811330464346 0.16346945265525858 -0.7910336098235656 -1.1864874209390197 0.4269880691952227 0.31968160847083577 0.4100423886661368
00000000: 003a 1bc9 e077 ea3f 5a1d 668a 41f0 e7bf
00000010: 1c37 450c 0790 c33f 0546 7b4d 1fb1 be3f
00000020: 70ad 172b f862 e83f f518 a685 c623 dcbf
00000030: 6573 a5a9 4976 f7bf 30a0 99f9 41ef ce3f
00000040: 2ed8 8bf7 e5cc db3f e600 cd4c a3b4 f2bf
00000050: 92cb c6fb 92a2 f5bf 92e4 7217 9211 d3bf
00000060: bae1 dd75 22c4 c13f ce0e 3ae5 69e2 f1bf
00000070: 536a bf38 2dde c5bf 3e26 6891 5518 c6bf
00000080: 0cf7 cea4 1003 e83f a702 1861 cf39 e53f
00000090: fa5d cedc dcfb d9bf 5d42 1b9b acf6 e43f
000000a0: 7331 bfd4 f779 b4bf 14ca 8b92 aef1 dbbf
000000b0: d630 58ef 8c30 f3bf f3f5 bbf3 8c21 c2bf
000000c0: 7d5f 251c 380d d9bf 64fe 575b b1bb c0bf
000000d0: 1498 3b85 a156 d33f 05f2 f6f0 0cfd b13f
000000e0: 79ba 9fb0 82f7 f1bf dde6 3c6e a951 dfbf
000000f0: 246b 6776 fe61 e9bf 113a a89e 70f9 c83f
00000100: 33ac f0b0 f4e5 de3f 2f00 8bf1 6542 d03f
00000110: 143e 833c 1f49 f63f 8cdf 6e7d 8261 b03f
00000120: 9b57 a70e 56d7 f8bf 598f 8620 8436 f9bf
00000130: 7064 bf44 e3d7 c9bf 713c cbde b4b0 b33f
00000140: 99fc e891 b4d5 ea3f 0080 1dc4 f781 e7bf
00000150: 9be9 ebf0 7d30 f2bf d531 9956 52f7 f2bf
00000160: d28a 8e16 a829 cd3f 34e8 c61f 9a39 f6bf
00000170: bd7f 4692 d1db f6bf aa23 da0a 24bf b6bf
00000180: 2d90 7018 9205 c9bf 668c 50dc 17b3 eb3f
00000190: 0e01 8921 b47b e8bf 9f1f 753a 4b66 cebf
000001a0: 9e93 0b0b 82e9 e3bf 5f08 7a63 32ab aebf
000001b0: 26b5 7cf1 5ddd cbbf 0e56 52b9 cbd7 f3bf
000001c0: 0d08 272e b0a2 e5bf 33f2 8afa d60b 00c0
000001d0: 4c51 8628 91ec c43f 4954 87b7 2550 e9bf
000001e0: 8ec6 e03b dafb f2bf 5271 3ec4 c553 db3f
000001f0: 63f4 60d9 a975 d43f a7dd 526e 223e da3f

encoder.1.1.running_var f8 [64]
2.1038305874380514 0.8406337173095793 0.4807885521563175 1.5505280104122983 1.2046510282094023 0.9566491104056228 0.6986146414347572 2.6623376019008314
1.2007546816574934 0.9558348427651008 0.9141831551630533 1.4621623922296425 1.7658886881790523 1.2141028453714895 2.0913429813196105 0.6535373805549669
0.8784671208732302 0.8015163404928493 0.5244196578816913 2.8139338794169277 1.142515477338753 1.2199208930102026 0.818616864116138 1.2889320880796071
0.67361470559045 1.4874295249520557 0.7425571309610999 2.2185542759520707 0.6549768614737468 0.7135071915751712 1.8617883373875581 1.573954557870525
0.5057147172582903 1.5741943203292534 4.158516355793221 0.311922774644621 0.4923663833798376 0.38687758865982474 2.8647067821386636 0.52840248925879
0.5405483926851952 1.4645963383081533 0.745080153864459 1.8395068104783747 2.4147615080893985 1.0349191419296933 0.40506279562520914 0.9103441825591975
1.4054501787672462 0.5720704137416676 1.97239488755719 1.9019124088150003 1.9948745942633574 1.0802883978062716 0.8351529182742348 0.8757740575247652
0.5407749395886886 0.562912796123623 1.0005431473586488 0.3885643440607815 0.837880538355463 2.1965291710346886 0.7782256849285677 0.6734520618221618
00000000: 9af7 8a21 a5d4 0040 404e 78ae 78e6 ea3f
00000010: 5f5d f358 3dc5 de3f 570b 8475 f6ce f83f
00000020: d508 1428 4046 f33f 8f11 5e98 de9c ee3f
00000030: 7202 af17 0d5b e63f e299 18a8 774c 0540
00000040: 22ce 838a 4a36 f33f 89b5 c1f3 3296 ee3f
00000050: 4e57 3f08 fd40 ed3f 3b14 8164 0465 f73f
00000060: 9aaf 417f 1441 fc3f 139e ed1a f76c f33f
00000070: 1ae5 6b07 12bb 0040 8e4e 8639 c7e9 e43f
00000080: b060 5814 671c ec3f 5f0b b498 05a6 e93f
00000090: 6867 ffbb 0bc8 e03f ed9d 09c4 ef82 0640
000000a0: 1880 254f be47 f23f 97f9 32c5 cb84 f33f
000000b0: 06a7 6afe 1b32 ea3f 0a12 d140 779f f43f
000000c0: 6ab3 536d 408e e53f e061 cce6 82cc f73f
000000d0: e476 1c2c 07c3 e73f bbeb 5c62 99bf 0140
000000e0: ae53 f508 92f5 e43f 5cd6 a808 0dd5 e63f
000000f0: de75 5291 e2c9 fd3f ce1a 77f9 ea2e f93f
00000100: 285e 77a1 d02e e03f 39cf 3562 e62f f93f
00000110: 4c0d 901c 52a2 1040 797a fef0 8af6 d33f
00000120: 6e09 914a ee82 df3f bb5a b637 9ac2 d83f
00000130: d551 af63 ebea 0640 52ba 4f56 ace8 e03f
00000140: fb9f 8f24 2c4c e13f 78ff ed91 fc6e f73f
00000150: 53e3 b755 b2d7 e73f da61 7cb1 9e6e fd3f
00000160: a011 477b 6e51 0340 887a c95f 078f f03f
00000170: bd57 0281 8cec d93f 6942 861f 8a21 ed3f
00000180: 1f67 9f53 b97c f63f e7f2 c09c 664e e23f
00000190: 10b1 0df1 ed8e ff3f de78 bbb4 3b6e fe3f
000001a0: deb7 5f9f 01eb ff3f 0338 ad7c dc48 f13f
000001b0: 94b2 e49c 92b9 ea3f 8021 f850 5706 ec3f
000001c0: 11f4 003f 074e e13f 613a 3bb2 6103 e23f
000001d0: e246 0288 3902 f03f f37e 88fb 3cde d83f
000001e0: 7b21 c6d8 eacf ea3f 8c6e d2e2 7d92 0140
000001f0: dd9c 358d 39e7 e83f 0866 9e56 eb8c e53f
