models/matching_nets/DF_n=1_k=5_q=15_nv=3_kv=10_qv=1_dist=cosine_fce=None.pth (torch, 316367 bytes, 24 tensors)

encoder.0.0.weight f8 [64, 1, 3]
0	0x3fd310ae13bc9060	0.2978930657138843
1	0x3fd35e6a4bf8fb1e	0.3026376478118652
2	0x3fd3d5666fd08fc6	0.3098999111118669
3	0xbfd2fd0738390292	-0.2966936158227692
4	0x3fd8df0e921b4788	0.38861431377619526
5	0x3fe1413f674266c2	0.5392148033890509
6	0xbfda2419ea048c35	-0.4084534440355044
7	0xbfd8021085b7a924	-0.3751260095438218
8	0x3fdb1f950b4b6a74	0.42380262473094565
9	0x3fbfccf4dced0932	0.12422113794039971
10	0x3fe26cb0d984fa06	0.5757679222513736
11	0x3fd4351c0add7302	0.31574154912031827
12	0xbfc77ee37265f502	-0.1835598286233236
13	0xbfdebbbc75807e43	-0.4802085063438179
14	0x3fde71cb8e2eff70	0.4756955040465902
15	0xbfd59d5f1531be5b	-0.3377301890350048
16	0xbfdecdee518ba4f0	-0.4813190265982277
17	0xbfd562df5c578dc5	-0.33415969865583534
18	0xbfd274d3c7c10b10	-0.2883805704806699
19	0x3fe1e6e0319ffdc8	0.55943307583214
20	0xbfde269b39ec9d27	-0.47110634476344376
21	0x3fd81b5421ab52d9	0.3766680077363112
22	0x3fd3232c3e851bcd	0.29902177911247635
23	0xbfe040445d5b5b31	-0.5078450988174606
24	0x3fa831c129fd857a	0.04725459706856845
25	0xbfdf9fb9b35064eb	-0.4941238642800971
26	0x3fdb46c9fe7a0921	0.4261956200717965
27	0xbfe0de966e5c2a94	-0.5271713405102951
28	0x3fc59628ce96c9b6	0.16864500129083887
29	0x3fd721f75d6876a8	0.36144813653832353
30	0x3fc59ee6f1368208	0.16891180780386628
31	0x3fd1c373417149b5	0.2775543345534531
32	0x3fcde1f426edd7a7	0.2334580602725371
33	0xbfbecff088eaaecb	-0.12036040632909388
34	0xbfe07268591259ae	-0.5139657725983875
35	0xbfe214c7510d78da	-0.5650364478167618
36	0xbfbdfde0bd5e95a4	-0.11715511916425797
37	0x3fb8d1ae3101d6c1	0.09694946953262741
38	0xbfc472373a987ed0	-0.1597355877029174
39	0x3fd287f6553bd6b4	0.2895484764443197
40	0x3fba25f072c027bc	0.10214140702751612
41	0xbfca38508a94d51e	-0.20484358565014643
42	0xbfd8500c14c4499b	-0.37988569286349055
43	0xbfd15e6efcd4c94b	-0.271388766198602
44	0x3fb8919716c95ca8	0.09597153002083536
45	0x3fe10862de26ade7	0.532273706330156
46	0x3fc0a0a2c7d3fb7a	0.129902217457097
47	0xbfbca216bf204aa2	-0.11184827963033198
48	0x3fd593cd80f5d275	0.33714616388105095
49	0x3fd3da7ffbbd090a	0.3102111776717186
50	0xbfc74d43b00c55bb	-0.1820454225168485
51	0xbfc4e73267412ff8	-0.16330556909304028
52	0xbfd3f86b1cb830b5	-0.3120372562850762
53	0xbfd72853fe602f4e	-0.3618364318979176
54	0x3fd72c46258ddd06	0.3620772711505683
55	0xbfd19f949cd7a028	-0.27536502186422007
56	0xbfe07b166bea5c8a	-0.5150253398632156
57	0x3fb4eca4768293b3	0.08173587697326816
58	0x3fe04649f2f654fe	0.5085801835399761
59	0xbfd2c08aa53def89	-0.29300180565746153
60	0xbfd372f1ac1ff86d	-0.303890626993854
61	0xbfdbfda45f095e60	-0.4373560836879502
62	0xbf9f0f5157ac7696	-0.030331870056321174
63	0x3fdb70dd1cb179e7	0.4287636547286681
64	0x3f96b6d6be4626a6	0.02218184982624529
65	0x3fc1336dc8d42c2e	0.13438198381513317
66	0x3fdcb1174947ead5	0.44830877453175094
67	0xbfcc2325272bc68a	-0.21982254421850583
68	0xbfd6208c783ca758	-0.34573661558044
69	0x3fb812cc4e9b9dbc	0.09403683585298145
70	0xbfc46b2624eb100f	-0.15951992800376089
71	0xbfb4743ef010cd22	-0.07989877091386124
72	0xbfcf7a237514a0a4	-0.2459148713762761
73	0x3fe0f8556c05dde9	0.5303141698668102
74	0x3fc6c3b520203b5b	0.1778475195755743
75	0x3fdd5fa53e8d1d46	0.4589627371646724
76	0x3fd91e751e442b09	0.39248397784892625
77	0xbfd647d10cc3255b	-0.34813333746258984
78	0xbfd1946ffdf5b1d3	-0.2746849041057235
79	0x3fb2bac0dfb864c5	0.07316213094636044
80	0xbfe00439e06206fd	-0.5005158789137735
81	0x3fc54b0354a8c3e5	0.16635171540977392
82	0x3fe0339947d976e3	0.5062986758527724
83	0xbfe00e00d7fd532f	-0.5017093866868886
84	0x3fce9d84825f8c63	0.23918205610161455
85	0x3fb2171f896b24e7	0.07066533188767075
86	0x3fd7cfc36684c689	0.372055864444612
87	0x3fd0cddcde27febd	0.26256486601776513
88	0xbfdea9c2a16fa017	-0.4791113449596209
89	0xbfe0d69820c8b1a6	-0.5261955871879322
90	0xbfc50f2253b09a42	-0.16452435575884478
91	0x3fdf9329315e99e6	0.49335698910945636
92	0x3fbb1d95c50b6c1d	0.10592018185290937
93	0xbfde502dd45d88cd	-0.4736437391167215
94	0x3fbc1d0d726fb511	0.10981830638748515
95	0xbfd9dd5d2fcad3cc	-0.404135986969149
96	0xbfcc6f0b904d0b17	-0.2221388296694264
97	0xbfcaad4848cf9a36	-0.20841315798971188
98	0xbfd2c786e2a989e1	-0.29342815527902927
99	0x3f8a75472809c2ea	0.012919002446524403
100	0x3fdde60e46b33889	0.46716648964218926
101	0xbfe0d23735ba58b7	-0.5256610917447436
102	0xbfd8b09f9ab93b43	-0.3857802401516219
103	0xbfdb5077e6cb4452	-0.42678639925458584
104	0xbfd9d68830e337ec	-0.4037189938943573
105	0x3fc951a095a7c9df	0.19780356700319054
106	0x3fcc5c6dd9dcbbd1	0.22157071245007257
107	0x3fdc0d1bd3c6881d	0.4383000915642031
108	0x3fd69e4da7fa0ad8	0.3534120693586096
109	0xbfe1bdc13c1e2d7e	-0.5544134306123139
110	0xbfc13da66a514178	-0.1346939105155902
111	0x3fe060ff9e7e8f71	0.5118406386941229
112	0xbfd96d1f1c70e7cd	-0.39728524949498195
113	0x3fd3d3f78169ef1d	0.309812427883786
114	0x3fdfc12849d7becb	0.4961643906708388
115	0x3fa4bd52630f589b	0.04050691088893751
116	0x3fcae39088d53635	0.2100697200898353
117	0x3fd4a3f08f24bd23	0.3225060842405176
118	0xbfd8f177ba759750	-0.38973801812095576
119	0x3fc83761535e239d	0.18919006891908632
120	0x3fb09b785f448006	0.06487228704327216
121	0x3fca88aab3037b7a	0.20729573956392838
122	0x3fa7663f52038af6	0.0457019603361654
123	0x3fd274fa2c0e69a9	0.2883897238004019
124	0x3fa059352a98ce2a	0.03193060059529913
125	0xbf7b5ee13a995058	-0.006682281303785308
126	0x3fc93cf8f6fbb03e	0.1971732336018039
127	0x3fcf88073f141549	0.24633875446321898
128	0x3f88e98a7f337013	0.012164194113601956
129	0x3fdebf20051a9819	0.480415348991643
130	0xbfcea5b2b89871ab	-0.23943170560313595
131	0x3fc2520d008ddcdc	0.14312899138506097
132	0x3fcc01439dfd5e90	0.21878857817022324
133	0xbfd895b8c163a6b4	-0.3841382874075905
134	0x3fdaaf429642f8b4	0.4169470279119978
135	0xbfe11cb76e37aae9	-0.5347554352459528
136	0x3fc1cd69eee94f43	0.13908123174280193
137	0xbfd9de9664b86aaf	-0.40421066127752686
138	0xbfdc436ba1fec862	-0.4416150171265426
139	0xbf7b655dabad2fb1	-0.006688466931176793
140	0x3fd6aa72b35e0115	0.3541533233292438
141	0xbfcff3fd067f28b7	-0.24963343445990002
142	0x3fc64acbc8eab3e8	0.1741575938262081
143	0xbfd5041815551c1e	-0.3283748825383003
144	0xbfe1b3f83e5bd325	-0.5532189577048469
145	0x3fad268d9646abab	0.0569347616140797
146	0x3fdc5b66785c1e79	0.4430786300076544
147	0xbfc149b6ef24ce0d	-0.1350620906538186
148	0x3fc8da0dbb18ba58	0.19415446887565468
149	0xbfc99b61dd9dc2b3	-0.20005439110857068
150	0x3fc458a67bfec9dc	0.15895539335686137
151	0xbfc6e7eb9731b9ff	-0.17895264513522588
152	0x3fbde1eabb49fe74	0.11672846863256742
153	0x3fd85b694151ff8e	0.38057929400383095
154	0x3f9e5e8e5293a4d4	0.0296575773144568
155	0x3fac7d00affbbdef	0.055641194803566545
156	0x3fe149807efe976e	0.5402224045144359
157	0xbfd9091205a7d0dc	-0.39117861320779723
158	0xbfd1580e893df6af	-0.27099955942672244
159	0xbfa0cf856211cd39	-0.032833259793643106
160	0xbfd3a754a5e354f7	-0.30708805274964796
161	0xbfdab32d54cc2ff2	-0.41718610077873486
162	0xbfc2dfb92fde4518	-0.147452495930829
163	0x3fe125dd2d54a8ca	0.5358720670094723
164	0x3fc5758e649659be	0.167650031199356
165	0xbfd2a0c99ecec94a	-0.2910636950356503
166	0xbfd97bdb3cdcee8d	-0.39818459457067307
167	0x3fddf7cacaa4e4a0	0.46824903287376607
168	0x3fd428cd44a76d07	0.3149903459977427
169	0x3fe16b379ee4e5eb	0.5443380454445877
170	0x3fd4fdb097a0362d	0.32798399741372714
171	0xbfe02cc6a066b7a6	-0.5054658062779154
172	0xbfbce971fc94260c	-0.1129370919844847
173	0xbfe0b3e4ef5c1f97	-0.5219597506520469
174	0xbfd3b58e2a2182af	-0.307956257956941
175	0xbfda2c17505e732d	-0.40894110535173206
176	0x3fe16cf5a9499f4d	0.5445507341764625
177	0x3fd15ad00ca313e4	0.27116776689609723
178	0xbfe086d1c0b87f64	-0.51645743981133
179	0x3fd6781f3d1679cb	0.3510816666183955
180	0x3fd5484ae136b97f	0.3325373839715197
181	0x3fc34e06c6a101c0	0.15081867884329192
182	0xbfc70fa57688fe4b	-0.1801649884018722
183	0x3fda8b3ed637f3e8	0.4147488681772402
184	0x3fe1e0539ecd3d1d	0.5586336232753727
185	0x3fe0f3b1f0472e54	0.5297479336672475
186	0x3fc144deed219a49	0.13491427019762828
187	0x3fd4c9f8e0f98e74	0.324827403738005
188	0xbfe091cc6178a35f	-0.5177976516471111
189	0x3fd377358a0a1a1e	0.3041509483377086
190	0xbfdc3a7767e3a019	-0.4410685076277346
191	0x3fdd0fbfa9ed38d3	0.454086223548882

encoder.0.0.bias f8 [64]
0	0xbfb68b4d0002b2e0	-0.08806306123978969
1	0xbfd1785340028a12	-0.27296906710594826
2	0x3fd407a57ff99b3e	0.3129667043453316
3	0xbfdd3e1e9ffbf2d6	-0.456916481241746
4	0xbf913eafff713086	-0.01684069630236753
5	0xbfe1b96effff1029	-0.5538859367302439
6	0xbfdadba00001c901	-0.41965484619790067
7	0xbfd1bb4920049e0e	-0.2770560085941448
8	0x3fb8cb42005b5e2c	0.09685146816934126
9	0x3fdac7f400133c41	0.41845417029702864
10	0x3fd4fd113ff51b95	0.3279460072121137
11	0x3fd812d73ffd2868	0.3761499524013119
12	0xbfdbcd3d8019bd8b	-0.4344018698675078
13	0x3fe169947febdc8a	0.5441381929839662
14	0xbfdeacbaffe71212	-0.4792926310585993
15	0xbfdf64f1bff56f79	-0.49053615327806416
16	0x3fd99ea1000ad77b	0.4003069401181773
17	0x3fe111b9000233c6	0.533413410202791
18	0xbfd3a6689ffa9a63	-0.3070317804617046
19	0xbfcf214a400a4c32	-0.24320343138660544
20	0x3fb1731c001647e4	0.0681626796925055
21	0xbfe10fa53ffc6f72	-0.5331598520019567
22	0x3fda383fc00034cb	0.40968316793516796
23	0x3f8f12d807e37cc1	0.015172660580388688
24	0x3fc3f4ba7fee6a4e	0.15590602156301475
25	0x3fe1e7cf80036d73	0.5595471859227658
26	0xbfa68b1c002ce0a7	-0.04403007032527855
27	0x3fc55807fff0ecdb	0.16674900052189554
28	0xbf90129fffc92ea8	-0.015696048724108153
29	0xbfcbd917800a8aec	-0.21756261589060644
30	0x3fd5d0de40047300	0.3408733010453915
31	0xbfcf437fffe237b4	-0.2442474364692636
32	0xbfdf4f27200f5ea2	-0.48920610552657184
33	0xbfe1b2439fee87d5	-0.5530107616107168
34	0x3fd7fbe1fff959b3	0.3747487067934358
35	0xbfd8d0555ffcbee6	-0.3877156674743517
36	0xbfd0b607c01f03a9	-0.2611102462943174
37	0xbfd7f63e1ff10d22	-0.37440446013734363
38	0xbfddd458800e2f64	-0.46608555322085565
39	0xbfd5b22c800a0dd0	-0.3389998674758461
40	0x3fdd0396ffe306ce	0.45334410656878965
41	0xbfcdcd84bff6dd01	-0.2328344285321933
42	0x3f92cba400eee997	0.01835495238968007
43	0xbfd78477c015faf4	-0.3674601913298112
44	0xbfd5de478006d408	-0.3416918516407468
45	0x3fb61134ffbab540	0.0862000583972149
46	0x3fd81be87fe8c918	0.37670338145393734
47	0x3fe17730c00a88d6	0.5457996130756111
48	0x3fc63702000e9989	0.17355370524201089
49	0xbfbd6996ffd4de0f	-0.11489242311369473
50	0x3fe12822c0140e11	0.5361493827371665
51	0x3fe169e27fff2d49	0.5441753864228441
52	0xbfd79818bfe9a3ec	-0.3686582445284887
53	0x3fab6659ffc94ac8	0.053515255426324126
54	0xbfcbdff43ff1b28b	-0.21777203676483156
55	0x3fddddcb7fddf5d4	0.46666228758826134
56	0xbfcf52af3ff14ae2	-0.244710832807491
57	0xbfc407d5400b7330	-0.15648904444869904
58	0x3fde216ffffea6bb	0.4707908630322028
59	0x3fa7f559ffeb634e	0.04679375885979785
60	0x3fd52c78bfed3a87	0.33083933585013664
61	0xbfe04a873ffbf9fe	-0.5090976953213724
62	0x3fc138e9003eef2d	0.13454926025394212
63	0xbfd619ac7ffedac6	-0.345317006106978

encoder.0.1.weight f8 [64]
0	0x3ff03f62fe9dd89f	1.0154752679787078
1	0x3ff01c88b2962366	1.0069663024935038
2	0x3fef6de0166ed1c8	0.9821625173704485
3	0x3fefa5e6ffe99847	0.9890017507830259
4	0x3fef44b4643ccf50	0.9771367986454411
5	0x3ff03807d28d9c04	1.013679335091866
6	0x3fefb63bb1fd5109	0.9909952617986458
7	0x3fefae30f62f91b2	0.9900135811154114
8	0x3fef905148106048	0.986366883039417
9	0x3ff00e38401d63aa	1.0034716133579686
10	0x3ff031843e17cbad	1.0120890069490358
11	0x3ff0449ec9095de8	1.0167529919616474
12	0x3ff01649605d33c9	1.005441070959238
13	0x3fefd4a17430203b	0.99470589344947
14	0x3ff00539026bb77a	1.0012750715791001
15	0x3ff02f175456dfc6	1.0114968580728472
16	0x3fefd6044fe7fe5d	0.9948751030605752
17	0x3ff07112277516c2	1.0276052037528847
18	0x3ff019f94f82e506	1.0063412767324862
19	0x3fef17e62e0044a6	0.9716673754175147
20	0x3ff016e66ffacfee	1.0055908559997948
21	0x3ff005eaa5c2f44e	1.001444480424897
22	0x3ff00686660748ae	1.0015930161940036
23	0x3feff39fc87675ee	0.9984892764365989
24	0x3fef86b99922fa48	0.9851959219884714
25	0x3ff012d434beaea3	1.0045969066949645
26	0x3fefe48025e79366	0.996643137009056
27	0x3fef3e8b43283208	0.9763847648296755
28	0x3ff057a44d0db61b	1.02139692400977
29	0x3fefacd858f766c5	0.9898492562890274
30	0x3fefda5fbaea17f9	0.9954069758102825
31	0x3ff04309c475f5d9	1.016366736817295
32	0x3ff033d35c09ca43	1.0126527400249337
33	0x3fef7b09756d603b	0.9837691586972207
34	0x3fefe3831032a4b7	0.9965224567760264
35	0x3ff07101183b0219	1.0275889345649658
36	0x3ff014782da1817b	1.0049974234062506
37	0x3ff0367c0d4729bf	1.0133018988295672
38	0x3ff0616c186a002b	1.0237847284006516
39	0x3fefdd458b239c5f	0.9957606999931946
40	0x3fefedb6d86ccfab	0.9977678515483509
41	0x3ff0652367cec5cb	1.0246919684399127
42	0x3ff01fed47678097	1.0077946461897562
43	0x3fef72ebadf1adbc	0.9827783963532322
44	0x3ff009cdbede1fea	1.0023934798973593
45	0x3fef96a353658903	0.9871384266701003
46	0x3ff0129e29d53b64	1.0045453676318283
47	0x3ff0107864fd88d3	1.0040210671364107
48	0x3fefdaaf5fa90119	0.9954449528086428
49	0x3fefe2f7f48e1904	0.9964561249223896
50	0x3ff00edfa6005d18	1.00363125652604
51	0x3ff079e8359988bb	1.0297624677410073
52	0x3ff00231c0f86a5b	1.0005357301621618
53	0x3fef9427d46095a3	0.9868353984826864
54	0x3ff010fce4159a0b	1.004147425608269
55	0x3fef5f82f5bd1adc	0.9804091262420473
56	0x3ff04769c95c4450	1.017434870304232
57	0x3fefc8fd970197b3	0.9932849835720304
58	0x3fefd374f745a7a4	0.9945626096280091
59	0x3fefd59e85881e14	0.994826565555686
60	0x3ff01f11f1682e6c	1.0075854711493788
61	0x3ff03d02110ac8a9	1.0148945489604932
62	0x3fef63efd13b36f1	0.9809493147419898
63	0x3feff6a8c8b99035	0.9988597793967587

encoder.0.1.bias f8 [64]
0	0x3f67459a49155d43	0.002840806330521113
1	0x3f97ce09bf6826c7	0.023246910388514033
2	0x3f69024b74af4f58	0.00305285203419629
3	0x3f70c0d08aab79cd	0.004090132347043651
4	0xbf6c1d9bddce513b	-0.0034320873514365447
5	0x3f903768f9674fbf	0.01583637258757142
6	0x3f7c13709439505f	0.006854476701466521
7	0x3f863a3174a39314	0.010853182193792978
8	0xbf90e741773cf15c	-0.016507170584405415
9	0xbf7b6217a3df33f5	-0.0066853450243344785
10	0xbf80a1c9bd7f9d89	-0.008121086211714939
11	0x3f9277364bec5a34	0.018032883056628715
12	0x3fa00358ca4ccf5b	0.03127553433878801
13	0xbf801262c9c88b9a	-0.007847568304958408
14	0x3f8a852626f39889	0.012949274123865944
15	0x3f87477b5844e373	0.011366809493311902
16	0x3f87ad1337ecc89d	0.011560583252137763
17	0x3f97bbf661136356	0.023177957224876998
18	0x3f76a8cc7e31e198	0.005532072830753874
19	0xbf8e78f007ff7059	-0.014879107708047611
20	0x3f713648f340aad7	0.00420216079877874
21	0xbf6801c7d0c20b21	-0.002930536522457131
22	0x3f745f86e60f49f6	0.004973914096768164
23	0x3f83cda1401e31de	0.009669551629280567
24	0xbf7053df7dbedf1a	-0.003986237537837467
25	0xbf7e224b5d48e567	-0.007356924431001977
26	0x3f78ab180e0da147	0.00602254291957422
27	0x3f97bedd790e26f6	0.023189030183437397
28	0xbf890eb150c43113	-0.01223505523423588
29	0x3f748293806cf5c7	0.005007339647645498
30	0xbf784bb074dc4518	-0.005931557925366059
31	0x3f8b259ab9069cca	0.013255318423786373
32	0x3f907b530157bd9c	0.016095444638208542
33	0x3f58d107c339a364	0.001514680462515205
34	0xbf58ec658ab001ae	-0.001521205102790284
35	0x3f8aca079831f97e	0.013080653507355985
36	0x3f81ae05fa8f7751	0.008632704457280179
37	0x3f732be546e0c152	0.004680533993493734
38	0x3f91ab1880bf1bd7	0.017254240854324223
39	0x3f7b6b9151278009	0.006694381374899202
40	0xbf8933529823a41a	-0.01230492140571653
41	0x3f9cd8091c63514f	0.02816786037222246
42	0x3f7d099706e1bf93	0.007089223812826523
43	0xbf524194b8de0d5e	-0.001114268528426297
44	0x3f80762fa845f1d2	0.008037922213355229
45	0xbf7b9097f5546eac	-0.00672969206541622
46	0x3f70a0e464e76c2e	0.004059688725159423
47	0x3f89fb9cbdf6dea3	0.012686943576098847
48	0xbf98a9f46597311c	-0.02408582563457272
49	0x3f8d67e0251b17a6	0.014358283169155172
50	0x3f95e1bf2225391c	0.02136896749407767
51	0x3f9061e721d84f3b	0.0159984697730373
52	0x3f7a1d9065b1b955	0.006375850726824635
53	0xbf80abd6a025d9c5	-0.008140255701374674
54	0x3f8653e183e6b5ca	0.010902177655988238
55	0xbf796c90802f6be6	-0.006207050758315602
56	0x3f8d7a313925b62e	0.014393219524858027
57	0xbf8498bff8f002c8	-0.010056972298117542
58	0xbf868db806146044	-0.011012494740995867
59	0xbf86ef1705b77506	-0.01119821535297173
60	0x3f7396427f7e9f5d	0.0047819707469115265
61	0x3f5f71a11b559572	0.001919181185564636
62	0xbf84ee6f4aafb8b3	-0.010220403162716307
63	0x3f7b47b2138f4965	0.006660171137769265

encoder.0.1.running_mean f8 [64]
0	0x3fcee289a3e66595	0.24128838065079763
1	0xbfa6a6461375adad	-0.044237317920159704
2	0x3fc7824070b22b66	0.1836624670289339
3	0xbfb70f78e665f1eb	-0.09007983803707702
4	0xbfb5b0ad488410f8	-0.08472712536246607
5	0xbfef12836a37e9cc	-0.971009929139933
6	0xbfdf9018f808e23b	-0.4931700155462157
7	0xbfcbc997ff5e586d	-0.21708965272108874
8	0x3fb668087ef502e6	0.0875249204591558
9	0x3fdadb89307cf9bb	0.41964940772222875
10	0x3fe2555c2f1f93c1	0.5729199333551308
11	0xbfad75dd183b456b	-0.05753985329432506
12	0xbfe006e6928bab39	-0.500842367383803
13	0x3fe38284959c0cb5	0.6096823617994206
14	0xbfe5c4dc2e749b51	-0.680280771954907
15	0xbfd29f6a0f69600c	-0.29097987656632607
16	0x3fe223aeffa49218	0.5668559067749497
17	0x3fcd88b87948df57	0.23073488161184727
18	0xbfdd866be674bba6	-0.4613294363543282
19	0xbfc16840d99d3496	-0.13599405885398558
20	0xbfcb09162511341a	-0.21121479806825577
21	0xbfd493f923bb50e3	-0.3215315674726879
22	0x3fd7840d723bba1d	0.3674348464545874
23	0xbfa28d01fb404ab2	-0.03623205368071093
24	0x3fd4a832d66ce8f6	0.32276602687819833
25	0x3fe7b65cd57103cb	0.7410110634592625
26	0xbfd306f2e832e335	-0.29729912448560764
27	0x3fcd060d9f549599	0.2267472293835169
28	0x3fcd85e48d3ce17e	0.23064858337762567
29	0xbfdf1fe66c3e18aa	-0.4863220269256866
30	0x3fdfb5844596ab44	0.4954538993430797
31	0xbfe0b103a925f300	-0.5216081908871217
32	0xbfe807db368101a9	-0.7509590210466303
33	0xbfe2277dfbbeed1d	-0.567320815745379
34	0xbfb0bc166037b835	-0.06536998604835349
35	0xbfb3b78780bcd322	-0.07701918499953966
36	0xbfd87119543272c6	-0.3819030115353538
37	0xbfcc64b43757145d	-0.2218232412543867
38	0xbfc920cf7096dbc8	-0.19631379125141124
39	0xbfd2bf54b9672e17	-0.29292791467443763
40	0x3fe2300b1fed0230	0.568364679675204
41	0xbfbedd8fd7557d4b	-0.12056826598335595
42	0x3fc75ef93ff8f704	0.18258586524637377
43	0xbfcd77cd95ad5069	-0.23021859940002123
44	0xbfd00a3c232423d2	-0.2506246894050125
45	0xbfc9d4d13a2c5b61	-0.2018071683930556
46	0x3fd5d89e1f64060e	0.3413462931203818
47	0x3fd999120a70adfa	0.39996768016382556
48	0x3fc380ddfda34ea4	0.15237021336235046
49	0xbfc50fdb10513e9d	-0.16454637810465025
50	0x3fe24d0d3cfae410	0.5719057265297369
51	0x3fe6cd8eb5d43397	0.7125924636217061
52	0xbfda66be9c5ab95f	-0.4125210310839033
53	0xbfcc2caf98c6c2e4	-0.22011370620523174
54	0xbf90f07fe129e00e	-0.016542432897466645
55	0x3fd89d15cdbbc65d	0.3845877179256599
56	0x3fc7a511c59090ce	0.18472501894678434
57	0xbfe236779a7033fd	-0.569148828160564
58	0x3fda0e8a1be82dcb	0.40713741994178737
59	0x3fb5d6a144ebc56d	0.08530624325410026
60	0x3fdc14f5a3882192	0.4387792679777017
61	0x3fa195dd6da1d6cc	0.03434650386126989
62	0x3fbcfb9c47c4798b	0.11321427108894093
63	0xbfcd7f700a2e5ac1	-0.23045158860323592

encoder.0.1.running_var f8 [64]
0	0x3fa4f921a42d661d	0.040963221827677844
1	0x3fa114255b4cf8b8	0.03335682620535024
2	0x3f95bfef4bc05d40	0.02123998546457284
3	0x3fabed014ef86d65	0.05454258049959541
4	0x3f916ec6fe8ab106	0.0170241444454158
5	0x3fb0fe4983d3b429	0.06638011425430136
6	0x3f940b52e9db9926	0.01957444717745562
7	0x3f91d4fcefd0ff82	0.01741404737208497
8	0x3f8a92672be83bbc	0.012974554088058692
9	0x3f8e2cfb6d78f639	0.014734234121642863
10	0x3f9785d89638f80d	0.022971519631248372
11	0x3fb346e59deda6e7	0.07530055146858282
12	0x3f662cd5f69b1e0c	0.0027069262476719976
13	0x3f7830d8efa9fdd6	0.005905959517462608
14	0x3f9405d50a69a914	0.01955349803976343
15	0x3f96a5c8c362ce5c	0.022116791654026677
16	0x3f90c0529d8b741e	0.016358652940528733
17	0x3fa22044d62275fe	0.03540244211147224
18	0x3f979b8116dd0035	0.023054139156784188
19	0x3f8d80a23c524fbd	0.01440550562464426
20	0x3fa0a1be9c301078	0.032484013143432244
21	0x3f93ec9d69f13a8d	0.01945730170364839
22	0x3f8a7dd538ae2eb8	0.01293531970238547
23	0x3f613a37e6cc1bd2	0.0021029559924303576
24	0x3f94bd51ecbd3275	0.020253448557286242
25	0x3f9ab30e6c50ce79	0.026073670731604246
26	0x3f9d6f6cbf12b271	0.02874536434380776
27	0x3f928050fd7a7dbf	0.018067613097284992
28	0x3f98a230ec73a802	0.024056209976073724
29	0x3fa4d614d40f48e7	0.04069581116313419
30	0x3f9069204c98eaa4	0.01602602450860026
31	0x3fa198b34cdf2047	0.03436813653348785
32	0x3f9a92b062570f54	0.02595019912929726
33	0x3f8f2cc1ab7620b8	0.015222085042083541
34	0x3fb2bf505a467675	0.07323171810136293
35	0x3fa32cdd755b281b	0.037451668334668585
36	0x3f9304645d5134bf	0.018571441836958465
37	0x3f9649192ce4a508	0.021763223042545327
38	0x3f9f35334c77432c	0.03047638086519837
39	0x3f82b2c4e24c9cdb	0.009130037456613163
40	0x3f76a3c55b6ce900	0.005527277876178127
41	0x3f7a6cf3468f6d8d	0.006451559348501401
42	0x3f8717a9d7a2cfda	0.011275603192508688
43	0x3f8e1eed2e7eaeaa	0.014707425099764155
44	0x3f8af645b9ff6f79	0.013165039766981345
45	0x3fa38688f1064c37	0.038135795041988656
46	0x3f8726b776b68f9f	0.011304314909302891
47	0x3f88ae26b8f5124d	0.012050917167138265
48	0x3f91c91f802c53c4	0.017368786047047072
49	0x3f6c93572a60f015	0.003488226170729201
50	0x3f63df3e0d0496fa	0.0024257862024964468
51	0x3f8acd9532240845	0.013087430565523426
52	0x3f91e90a7f10ec68	0.01749054337072345
53	0x3f9fce8ada354cb1	0.0310613341983525
54	0x3f97702536cce64b	0.022888738126516633
55	0x3f9198c9637225d8	0.017184397406287605
56	0x3fb22f802cfa1b45	0.07103730295248763
57	0x3fb11766f992fd25	0.06676333993072044
58	0x3f93fd1bf4480b37	0.019520222458605487
59	0x3f8c8d89a27910d4	0.013941836615352456
60	0x3f8290ae0034559c	0.009065017110098599
61	0x3fbcb4c137cfcb28	0.11213309872236421
62	0x3f89cea0f5239270	0.012601144295737415
63	0x3f928e546be99125	0.01812106999058573

encoder.1.0.weight f8 [64, 64, 3]
0	0x3fa28ab8b849ced6	0.03621461152661502
1	0x3f71a06ae89a50b1	0.0043033767812127735
2	0xbfb62b292b34f778	-0.08659608178001388
3	0xbfb4c22801652835	-0.08108758958874847
4	0xbf8e68ee218e5316	-0.014848575972601401
5	0xbf62016324847066	-0.0021979271297265955
6	0x3f794e823d0e8bbc	0.006178387397912152
7	0xbfb162658f6408b3	-0.06790766478300973
8	0xbfb33b237443460b	-0.07512113178679429
9	0xbfa18c80279c34e5	-0.03427505954287272
10	0x3f688c6bfbca2d64	0.002996645837190991
11	0xbfa2a37d476d0bb0	-0.036403574913968284
12	0x3fb2f999d07e758c	0.07412110653100096
13	0xbfb31f401001b412	-0.07469559088504266
14	0x3f95d8ab2b7880dd	0.021334337738267862
15	0x3f918373f3bdd721	0.017103015662960467
16	0x3fa8a7b155942459	0.0481543938604509
17	0x3fa483df31a1151a	0.04006860237908878
18	0xbf8de8d57e1c18ce	-0.01460425177675653
19	0x3f97efd73888ec63	0.023375857186902837
20	0x3f50c5f7cabac213	0.0010237617342846491
21	0xbf6570bc4f6cd1e5	-0.0026172330794003045
22	0x3f642ac1920432ac	0.002461793963567457
23	0xbf84011be0c68a87	-0.009767740056138464
24	0x3f87f334aab3d232	0.011694346866058945
25	0xbfb3f589150212da	-0.07796532404797621
26	0x3fa28be1a7ca3129	0.03622346089568602
27	0x3f8bf863bce87795	0.013657359316365173
28	0xbfaad0e6320381bb	-0.05237502441900995
29	0x3fa060eaf3941c8b	0.031989423974715235
30	0xbf8403e040dfafac	-0.009773017864027476
31	0xbfb2afa28e6c1911	-0.072992477198657
32	0x3fa7501ef8d0c81e	0.04553314959811437
33	0x3f96fa94ea4c1ae4	0.022440268326159876
34	0x3faa41c5b5eb5dc0	0.05128305288024704
35	0x3fb45d168c65f857	0.07954541137402892
36	0xbfacfedd8b7e1019	-0.056631968763241676
37	0xbfb1142422bbd8d8	-0.06671357963554969
38	0xbf7a530fac699fbb	-0.006426869606549641
39	0xbf947d2a2ab1f504	-0.020008715492157783
40	0xbf93ccb4a5f5e409	-0.01933557761137553
41	0x3f799977fe95f0f1	0.00624987480966531
42	0xbfa2afac736da314	-0.03649653348003859
43	0x3fb21d1bc1f2825a	0.07075665936509648
44	0xbfa5cdfb86b9904b	-0.04258714694586326
45	0x3fa36cf43a16fe34	0.03794062813858226
46	0x3fa288e4464e0450	0.036200650770304876
47	0xbfb24fdd46792ce0	-0.0715311333707862
48	0xbfb744e340c54a04	-0.09089489299120862
49	0x3fa6d3c77cdb1eb6	0.04458449744339303
50	0xbfa0fbfe10df2ec5	-0.03317254978136711
51	0x3f60104bdd026331	0.001960895700971931
52	0xbf7cb33e93a67b39	-0.00700687831923013
53	0xbf9782596cf9c567	-0.022958180691096255
54	0xbfa7abd6b61ae00d	-0.046232900361644715
55	0x3f9dc40537f8376f	0.029068070927727726
56	0xbf8e0d74808ca90c	-0.014674101040857333
57	0x3f762d159b62efb4	0.005414089586505289
58	0x3fae111c1fb0cc3c	0.05872428786133141
59	0xbfab40070952e174	-0.05322286595168438
60	0xbfa654b6e3ac8a9d	-0.043615069668040386
61	0xbf8fe58e2fcc5d55	-0.01557456096047242
62	0xbfabd1b422542627	-0.05433428687144853
63	0x3f83f835cec8721f	0.009750767109886259
64	0x3fa47292bb109192	0.03993662389283083
65	0x3f874b5081a9b4df	0.011374119717596219
66	0xbfa8de9d10d9a414	-0.048573406512169154
67	0x3fa0dc035d259768	0.032928567047561697
68	0xbf78d095d7d99c6a	-0.006058297467098498
69	0xbfad20f115aee15f	-0.05689195050894357
70	0x3fa3b5e3c056c717	0.038497082928541974
71	0xbfa24305534bcf50	-0.03566757814215171
72	0xbfa4f5e016eeb5d7	-0.040938380050061056
73	0x3f73f4eb537a78f6	0.004872245066193983
74	0x3f960642a0ad6200	0.021508256012880977
75	0xbf98fa1a275aac56	-0.02439156403731276
76	0xbfb185c8b00884ea	-0.06844763086020902
77	0x3fa63e610b142d30	0.04344466457595286
78	0x3fb224f59bd21fa4	0.07087645582407603
79	0x3f9611e0d917ff87	0.021552575350142014
80	0x3fb5f78177294361	0.08580788764198878
81	0x3f7314610c015ca4	0.004658106889187472
82	0xbfb3c68c89990e20	-0.0772483669216446
83	0xbfb0b911b112b9b8	-0.06532393048357832
84	0xbfafedfbaf264bf9	-0.062362542276922235
85	0xbf8176ce8cca7071	-0.00852738730582578
86	0x3f9dc850b16b45b9	0.0290844543731674
87	0xbf7e1d439e0d7ae3	-0.007352127199594635
88	0xbf999fc3e1f896d1	-0.025023518244913504
89	0x3fa6485490cd36b3	0.04352058665845728
90	0xbfa01932c408036e	-0.031442247800447784
91	0xbf8a130285466dea	-0.012731570904000972
92	0x3fa9a13143da5375	0.05005792573243798
93	0x3f8372d078b60326	0.009496334728056843
94	0x3fa630f54293d3e7	0.0433422702571205
95	0x3fa54c581b05f9d4	0.04159808473467633
96	0x3fb1a2777fadbb28	0.06888529650835251
97	0x3fb0915c080f7b5e	0.0647180099181077
98	0x3fb5484d9f6fe82b	0.08313450949199878
99	0x3fafb5f0b3a90071	0.06193496888272499
100	0x3fa17de772df703d	0.03416369702583253
101	0x3f9e35a563b1f89a	0.029501518449699483
102	0x3facac7f2088f8ad	0.05600354454189591
103	0x3faed0e522563a3e	0.060187492791659455
104	0x3fa0a96c596b0c7c	0.03254259673624291
105	0xbfb02eba68d934a7	-0.06321301517273757
106	0x3fa9f80e06746f99	0.05072063282770429
107	0xbf8ea8b35f6574a1	-0.014970208500637407
108	0xbfb23db958d668fb	-0.07125433367619742
109	0x3f77ea9462a98b5b	0.005838946943728408
110	0x3fa3d87c81ba1a47	0.038761034808932275
111	0xbf99a0560669bdcf	-0.025025695935651456
112	0xbf99b6a3623d2b27	-0.025110772009877238
113	0xbf94d1c6a11a99cb	-0.020331481535913725
114	0xbfb388ea171228f1	-0.0763078981709986
115	0xbfa0e532d3c3fe6b	-0.03299864611653621
116	0xbfb474dcf8f1539f	-0.07990819051458552
117	0xbf73c1946f45a9b5	-0.004823283980253047
118	0xbfb202e32fcee3c0	-0.0703565589636943
119	0xbfa219028425725e	-0.035347059851777315
120	0xbf6b40e0cb36f755	-0.003326834726720055
121	0xbfb30f9f6a67bc15	-0.07445713374885117
122	0x3f3a428ae0fa9b4e	0.0004006947574261469
123	0xbfb474dcd9f1ef52	-0.07990818329738872
124	0xbfaf13580578b993	-0.060694456737439804
125	0x3f89e1b81260981b	0.01263755613406308
126	0xbf923cb9f841980a	-0.017809778001172595
127	0xbfa165f8c5ecde4b	-0.033981107865142045
128	0xbfb4b0afd1e1a882	-0.08082102655467518
129	0x3f8dcabaca4abc9f	0.014546832369289496
130	0x3f87cf61e12d5ed9	0.01162601917682997
131	0xbfa0170652f0c9bb	-0.031425664543707175
132	0x3fabf995607952c4	0.05463854601535936
133	0xbfa2e68e62ae928d	-0.03691525416005446
134	0xbfa7e522ee0c9af4	-0.04667004733919625
135	0xbfa147ed1f5b6588	-0.033751878812561975
136	0xbf51d2cc93a30a6a	-0.0010878560847663817
137	0x3f70c0f83c7a3b92	0.004090280220807057
138	0xbfab79932eb25ce6	-0.053661918115887094
139	0xbfa0528540d030af	-0.03187958160569459
140	0x3f91f26e7ae6daad	0.017526365519837373
141	0x3fb27763f368e035	0.07213425343150066
142	0x3fb0c33688bf17ac	0.0654787143567705
143	0x3fa7c0174acbb67c	0.0463874129107866
144	0x3fa9e541249a7652	0.05057719775980431
145	0xbfa87603f237815f	-0.04777538615940346
146	0x3fa1f5eba5958cf9	0.03507934948245323
147	0x3f943ce034897c58	0.019763472754103922
148	0x3fa7173576f0db64	0.045098944443842354
149	0xbfaa9431e97c5acc	-0.05191188788574194
150	0xbfb36706db9e9c2d	-0.07579081403547212
151	0xbf80443fd6c0ace5	-0.007942675343733227
152	0xbef5c8f0fbd156f4	-2.0775725478059317e-05
153	0xbfa2916a7b012ec7	-0.03626568557282677
154	0xbfb193d39be3e445	-0.06866190486825115
155	0xbfb5ced07274ef6b	-0.08518698496203363
156	0xbfaa4b2764ac68e2	-0.051354628600351906
157	0xbf38e9387d393b6f	-0.00038011197213887784
158	0x3f850235c74b075d	0.010258121628229306
159	0x3f95a1b889a658be	0.021124728585697687
160	0x3fb3885699d80055	0.0762991071314912
161	0xbfa893c9fb8eecd9	-0.048002540548134305
162	0xbf9eb6ca0ecfe894	-0.02999416079908508
163	0xbfb43e37c5f729a7	-0.07907436926976762
164	0xbfb441340debd3d1	-0.07911992397187297
165	0xbf98ac91c39e2d9e	-0.024095799984520043
166	0xbf902e2922f255d9	-0.015801089055988846
167	0x3f9f92bf4f8f5c05	0.030833234053570652
168	0x3f9f4e0dbdfac9b1	0.03057118866008474
169	0xbfb616cafd31fcea	-0.08628529244923624
170	0xbf88b7849d779b3c	-0.012068782859342535
171	0x3f82287583cc56db	0.008866231999074816
172	0x3fae49ff8fe4bc5f	0.059158312144398144
173	0xbf9391a0667de35a	-0.019110208755111692
174	0xbfad46788e0fb533	-0.05717827543399281
175	0xbf94005d4708a807	-0.01953263994270318
176	0xbfae33de8f9a5508	-0.05898948195423698
177	0xbfb30897f6992c65	-0.07434987802950983
178	0x3faa467dbc1418fe	0.05131905480270581
179	0x3f91b08b55991c6f	0.01727502546262055
180	0xbf844fe1ff9c46c2	-0.009917989361869831
181	0x3f8881af9a76f86e	0.011966106320752536
182	0x3fae9ba42ef46e65	0.05978119919947459
183	0x3fa8416f493173f6	0.047374227223123386
184	0x3fa3e7a8acf56701	0.03887679206191131
185	0xbf91915a19dd46f0	-0.01715603621352718
186	0xbf9dbf6870b15fdc	-0.029050475958086838
187	0x3f90526f4172109b	0.015939463014107074
188	0xbfae1a824bee06bc	-0.05879599739911387
189	0x3f9154aabbcdb6b2	0.016924541199321914
190	0x3fa5e42e58199da6	0.04275650811615188
191	0x3f85d0399d2bde11	0.010651064023007558
192	0x3fa8d37b59fc4222	0.04848847840742489
193	0xbfb321407859392b	-0.0747261327571535
194	0xbfa4179ecb3e391c	-0.03924270850176212
195	0x3f655fe0b38dc3f3	0.0026091946314683533
196	0xbfb12b4567a4cf5a	-0.06706651478162709
197	0xbf98cba234e059b3	-0.024214300610845018
198	0x3f997f79663215d9	0.024900338041808332
199	0xbfa49975b5de7104	-0.04023330540732853
200	0x3f74fe2c83c03d27	0.00512521160636873
201	0xbf9d9fcaa27a309a	-0.028929868857219355
202	0xbfaaee1e6fadef74	-0.0525979529693065
203	0xbf9736495f5fda61	-0.022668024488633146
204	0xbfb06901bb721cd5	-0.06410227609932247
205	0xbfabcc85869c4aa7	-0.054294750863978884
206	0xbf7fc378c09a90b9	-0.007754775704288779
207	0xbf54de4212d1f854	-0.0012736935853179436
208	0xbfae6e527dcf9d2c	-0.059435441835200414
209	0x3fb4dd296ee29782	0.08149966199070316
210	0x3fac493cfaf862d6	0.05524626315690788
211	0xbfaef6999fb76231	-0.060475159403442176
212	0xbfafa4c989eedd49	-0.06180410202744697
213	0x3f86be971ff075e5	0.011105709707460451
214	0x3f9a8ab461bcd6fd	0.02591974112075145
215	0xbfb3cf1a89c23c78	-0.07737890113115664
216	0xbf74e319ac12748f	-0.005099392206060162
217	0xbf978f0c5fa5c5b8	-0.023006623590338754
218	0xbfafc70d4ae3016a	-0.062065520659873766
219	0x3f977a65238c7630	0.022927837652892247
220	0xbfa7ec711417c38f	-0.04672578211091782
221	0xbf9383fc97611080	-0.019058176745844424
222	0xbfa4d7bf8425ec6c	-0.0407085274518629
223	0x3facc97096656ec0	0.05622436366931316
224	0xbf0af7376b0fb007	-5.143297074269864e-05
225	0x3fa3abb2aca68779	0.03841932637739282
226	0x3f91ff27be87757f	0.017574902538276312
227	0xbf28ae2486480a60	-0.00018829532486115946
228	0xbfa3ec783748c7bb	-0.038913494824000826
229	0xbfa2575b5a8d37c8	-0.03582272987715346
230	0x3f8985973b1c5bca	0.012461835376184189
231	0xbfad973d2e025d43	-0.057794486872064364
232	0x3fa39d889ce8d63e	0.03831126132392314
233	0x3f9ac2d19f287f66	0.02613379987644695
234	0xbf782788f963b071	-0.005897078566914003
235	0xbfaf21596bc7d335	-0.06080130997353309
236	0xbfadc921df2270b3	-0.058175142753698415
237	0x3fac28466344d6ca	0.05499477350023836
238	0xbf662cf3e91a2ccf	-0.002706982028774264
239	0xbf8e18ed40a25997	-0.014695981535891174
240	0x3f953082e5df808c	0.02069286850007805
241	0xbfb041cd7e7513c0	-0.0635040696843836
242	0xbfb4c43938ff712a	-0.08111913339184143
243	0xbf8565efc4affda4	-0.010448334875035332
244	0xbf58f891031e4331	-0.0015241066107344987
245	0xbfaa9052a546abcc	-0.05188234584360138
246	0x3fa514ae6eedec83	0.04117341140860111
247	0xbfa18c8da5676a07	-0.034275461617387086
248	0xbfb1018bfd1736fd	-0.06642985276195286
249	0xbf5e6af175cf3f5c	-0.0018565519342139325
250	0x3fa3caf06c1c9498	0.038657677838537186
251	0xbfabd5a5f3e4327c	-0.0543643818110455
252	0x3fb2960726d38781	0.07260174463183768
253	0x3f9c9d768b6d5901	0.027944423923451648
254	0xbfa9c5bac6eaacff	-0.050336682111572266
255	0x3fa5db9253d27fca	0.04269082329960801

encoder.1.0.bias f8 [64]
0	0x3fa079643ffe0736	0.03217614442020393
1	0xbfb10307e001f547	-0.066452495755546
2	0x3fab8c580006cef9	0.05380511284184126
3	0x3fac68c07ff3f827	0.05548669397283872
4	0xbfab98fb200b68ed	-0.053901527082148216
5	0x3f6e44b7ffceffcf	0.003694877027072586
6	0xbfa412417ff28d5d	-0.03920178114756354
7	0xbfb1fb498002e2b0	-0.07024058699870284
8	0xbf991962804ec359	-0.02451089771392687
9	0xbf59771800b69631	-0.0015542730714995896
10	0xbfa8619a00013fdd	-0.047619640827747146
11	0xbf8e8a0c7fe6b145	-0.014911744740708452
12	0xbfb22428fffdfc4e	-0.07086426019485367
13	0xbfb08b0480019418	-0.06462123990202462
14	0xbf7e0a340002dfd9	-0.0073339492084229735
15	0xbf96722a803e08c6	-0.02191988380173695
16	0x3fa3c01e3fecd704	0.038575120261539225
17	0x3f6e0363fffe6927	0.0036637261509443633
18	0xbf9ba42c800097bd	-0.026993460953370397
19	0xbf7d8193ff1f4950	-0.007203653442007088
20	0xbf8b096580029088	-0.013201516121917459
21	0xbfa9c2747fe64fba	-0.05031169949793886
22	0x3f76302e00597c8c	0.0054170414856279485
23	0x3f6ab864015daad8	0.003261752436562442
24	0xbf909d91401389e6	-0.01622607186880911
25	0xbfb04711c005a64a	-0.06358443201102051
26	0x3fb23c26fff996a5	0.07123035191906497
27	0x3f9a601200321cf6	0.025757104169795896
28	0xbf8377e9000fdf61	-0.009506054224388273
29	0x3fac4b907fefe243	0.05526401101809999
30	0x3fa96505c008da87	0.04959886521503614
31	0x3fa7d6b23ffa985e	0.04655987769119528
32	0x3fa958e0bff84c49	0.049506209787204165
33	0x3fa0032ebffabbb0	0.03127428143977029
34	0xbfa224faa003cc7b	-0.03543837741190089
35	0x3fa55772bff4e5c9	0.04168280213566395
36	0xbfa429935ffd54e9	-0.039379697291829725
37	0xbfb1cba8e0064374	-0.06951384991977055
38	0xbfa9c3ba20060afc	-0.050321403893596156
39	0xbf67a53c00546016	-0.0028864070797105608
40	0x3f6fae00002a4b6a	0.003867149354229428
41	0xbfaddc71bfd8522d	-0.05832248179300268
42	0xbf9318a7001bf88d	-0.01864872873465422
43	0x3f912fa17fc0e82e	0.016783259794671483
44	0xbfa540033ff93edb	-0.04150400310447618
45	0xbfa553b90000aab4	-0.0416543781760387
46	0x3fa8c2d1801c02e6	0.0483613461383408
47	0x3f9311a8ffca2dfe	0.018622055637520056
48	0x3facab6b0001338d	0.05599531531388555
49	0xbf9823857ff66a34	-0.023573003707136844
50	0xbf9120190003b3f7	-0.016724005342371808
51	0xbf4807f0022e20cf	-0.0007333681027015484
52	0xbfa0e17adff98694	-0.032970275726950465
53	0xbf9ecbc180142773	-0.030074141924195396
54	0x3fb0e0ba7ffed323	0.06592908501518173
55	0xbfa0dea8a00d44fe	-0.032948751008584395
56	0xbfad8f7c8007161d	-0.05773533881032853
57	0xbf8742d70035e0f2	-0.011357955640719262
58	0x3fb2083c3ffe93db	0.07043816149105402
59	0x3fa69999000f177c	0.044140607125469494
60	0xbf93b38d402aefc3	-0.01923962310932815
61	0xbfb238081ffc3c48	-0.07116747647181498
62	0x3f69cb0c0048e138	0.0031485781094283925
63	0xbfb25a0e60003b2d	-0.07168664783260388

encoder.1.1.weight f8 [64]
0	0x3fefdde857f6a05e	0.9958383291277746
1	0x3fefa7e3c8f53d17	0.9892443585357878
2	0x3ff044ca0fe11de7	1.0167942638671492
3	0x3fef810a3505c73f	0.9845019374463176
4	0x3ff0047b0001c14d	1.0010938644664578
5	0x3fefe943af4b63e1	0.9972246574135363
6	0x3ff0277fc0686f03	1.0096433177886304
7	0x3ff034a862940379	1.0128558970174864
8	0x3fefd7cf35ec090b	0.995093922916824
9	0x3feff9aca1492b5f	0.9992278242219576
10	0x3ff07394077efcef	1.0282173435987791
11	0x3ff00402f70a5425	1.0009793901456387
12	0x3fef1fdeeff626db	0.9726404844998017
13	0x3ff00bed8dccfe1a	1.002912095936955
14	0x3ff02f6a8ac9d14a	1.011576215879432
15	0x3fefac5edf4342a2	0.9897913323021224
16	0x3ff095efa19071ad	1.0366054831602967
17	0x3fef385ecf5eae84	0.975631146449317
18	0x3feff614caa1acc2	0.9987892110488235
19	0x3ff01985294ea1fe	1.0062305081902418
20	0x3ff02306ee3ad54e	1.0085515313961255
21	0x3fef3d513ce17b00	0.9762350262716097
22	0x3fefca29d16496f6	0.9934281434732088
23	0x3ff01c479f0b1917	1.0069042408591196
24	0x3ff02f1c14a7f6f2	1.0115013892058724
25	0x3ff03a2a3a1e0aab	1.0142004270752902
26	0x3ff040e5091a8960	1.0158434253322284
27	0x3fefcbd84a5fae1e	0.9936334087955776
28	0x3ff059db98a4bf87	1.0219379389418195
29	0x3fef69cce5dc94e5	0.9816650857434551
30	0x3fefaa92102de478	0.9895716014863316
31	0x3ff086a284a0908b	1.0328698330641
32	0x3fef2ae3c1642e33	0.9739855553793347
33	0x3fefd5e4ea81c39d	0.9948601322376934
34	0x3ff0189a31a82ac8	1.0060064258311048
35	0x3ff013b835c218c3	1.0048143482140837
36	0x3feff3d1aabe979b	0.9985130629399807
37	0x3ff029a4be4fed28	1.0101668771811294
38	0x3fefc550c613c654	0.9928363674827758
39	0x3ff01ac969c6b82d	1.0065397388348274
40	0x3fef994d2f3a8def	0.9874635622440432
41	0x3fefc4d07930ea46	0.9927751891148737
42	0x3fef688e64a82b08	0.9815132108645637
43	0x3fef846775904a6d	0.9849126144566306
44	0x3feff2eaef46b56b	0.9984030412066834
45	0x3fef76a35b619c18	0.9832321915427
46	0x3ff01a0b57d60ac0	1.0063584738824574
47	0x3ff01bc3a2a4e89e	1.0067783692634644
48	0x3fefe47963a93079	0.9966399141790269
49	0x3fefe67762997c98	0.9968830991528135
50	0x3fef61c5ba21fd43	0.9806851039319685
51	0x3ff02b23acf9238a	1.0105320698514526
52	0x3ff0a8ee0d48ba7c	1.0412426489744169
53	0x3fef5f559e4954ca	0.9803875056774356
54	0x3ff0386ca942e414	1.0137755023736235
55	0x3ff02bf3ff61080f	1.0107307410949067
56	0x3feff393513f4823	0.9984833323344485
57	0x3ff0272cdff91c2b	1.0095642804096865
58	0x3fefcf3c50564c11	0.9940473145564984
59	0x3fefb07cc49aa5a3	0.9902938690112716
60	0x3fef39f896632781	0.9758265435459493
61	0x3fefa99c1ff61454	0.9894543289416426
62	0x3ff0513544a302ec	1.019826191055638
63	0x3ff000b95c79133c	1.0001767742371177

encoder.1.1.bias f8 [64]
0	0x3f6b3a10041d996f	0.0033235848249432635
1	0x3f623932e05f68a8	0.002224540107801227
2	0x3f90f5e82022f652	0.016563059770069728
3	0xbf9a867424319619	-0.025903525075042653
4	0x3f72cc6804d39be4	0.004589468310974152
5	0xbf7b49342d71c8b8	-0.006661609476497236
6	0x3f891e6ec5d15a66	0.01226507703010533
7	0x3f7ebe4133e5c182	0.0075056597691943745
8	0xbf766462651d8f1a	-0.005466827731513546
9	0xbf7992a8a361ee79	-0.0062433803014943995
10	0x3f981abcaa27bce7	0.0235394934515484
11	0x3f8fb7f060548a66	0.015487554492726829
12	0xbf81ee2d1d811bab	-0.008755066359425209
13	0x3f77b4cc3ad8346b	0.005787656567474912
14	0xbf651cea1d900d98	-0.0025772640769916137
15	0x3f8835cd6a741581	0.011821369944764683
16	0x3fa4a3bc1f6316b6	0.040311697799137944
17	0xbf7d982ec2297eb7	-0.00722521080987775
18	0xbf5a29b4d55fae50	-0.0015968576385557882
19	0x3f349fcad971cf54	0.0003147001493239894
20	0xbf8443c58391b2c9	-0.00989488895194181
21	0xbf86f5624c209723	-0.011210220287533773
22	0x3f60491923ce630f	0.0019879809392019453
23	0x3f851993dc9a7f17	0.010302691621574973
24	0xbf6a13fe146bc345	-0.0031833612914557185
25	0xbf84fbb2e44828d3	-0.010245702354059116
26	0x3f79800776e16797	0.006225613744470857
27	0x3f8e9e30e4883878	0.014950162863012859
28	0x3f905f17e30c747f	0.015987752182912814
29	0xbf7a61945edad215	-0.006440715381974123
30	0xbf929a4b44266a75	-0.018166709932851483
31	0x3f99a9fc24530b20	0.025062503544869164
32	0xbf8d76fd25768d6d	-0.014387109475882476
33	0xbf71c37bf3ca25ca	-0.0043368188750120915
34	0x3f8f6487af9b0dd4	0.015328464552459765
35	0x3f92818f8b6d06b7	0.018072359928970907
36	0xbf626ac69a3bba1f	-0.002248180289704096
37	0x3f8d1ebbc9ff1328	0.014218775846424572
38	0x3f5588a60024040e	0.0013143178080670145
39	0xbf7edf1e677fe5ac	-0.007537001387384928
40	0x3f61bb91c4cb7e72	0.0021646353765019605
41	0x3f827eceaf194f12	0.009030928343384956
42	0x3f5d688d299662a3	0.001794946531253818
43	0xbf946f1b47d180fd	-0.019955087908216197
44	0xbf81d437e8e9df23	-0.008705555720765873
45	0xbf6e65267020a4e5	-0.003710341524329241
46	0x3f7db3a569a891eb	0.007251402038069159
47	0x3f83511c36788cb6	0.00943204919082628
48	0x3f909592d6935f96	0.01619557795206069
49	0x3f7d4f6e5aaa5c05	0.007155829497285109
50	0xbf8816671892d625	-0.011761479794908667
51	0x3f947bc2b3788703	0.02000335903551954
52	0x3f910207a52aa2f1	0.016609305816618073
53	0xbf81dc1b2a094b41	-0.008720600338312347
54	0x3f86e70f0af11039	0.011182897111332678
55	0xbf805c75bb10c098	-0.007988853236469404
56	0xbf27936705b57c9d	-0.0001798690089840114
57	0xbf488ee3834a3c7a	-0.0007494555380435218
58	0x3f319eb37051a933	0.0002688587267757503
59	0x3f825ebecbbfb563	0.008969774811670111
60	0xbf9039de91f02f09	-0.01584575429664795
61	0xbf8f2719726d5395	-0.015211294941460266
62	0x3ef33f2d35a6415a	1.8355163186324415e-05
63	0xbf517b1eea9d0078	-0.0010669519346749017

encoder.1.1.running_mean f8 [64]
0	0xbfde8ab98db559f3	-0.47721709097586923
1	0xbfe8bfb18d763db7	-0.773400093357785
2	0x3fc1b9829c429064	0.13847382192500668
3	0xbfd91d2b6fa30319	-0.3924053754999917
4	0xbfc15f867ecb9355	-0.1357277030102987
5	0xbfec8240b45243e3	-0.8908999940778098
6	0xbfd7fe2edea3e412	-0.37488910429198186
7	0xbfe6d3ad75d42ee6	-0.7133395482391875
8	0x3fdeadcc4d24ab5f	0.47935779126662753
9	0x3fd86ccb1c21b514	0.3816402220462163
10	0xbfe5ceeb8c05af5e	-0.6815088019188627
11	0xbfe6063d9f3f351b	-0.6882618055621238
12	0xbfc0554e3baee92c	-0.12760332025738685
13	0xbfe4736874e08538	-0.6390878947023912
14	0xbfc99dd284c73347	-0.20012885554606383
15	0xbfb40d930313ea8c	-0.07833212685720009
16	0x3fe811e5e714a6a4	0.7521848214430134
17	0xbfd25938e2191a17	-0.2866956909169018
18	0xbfbde4b50edf85c5	-0.11677104580987592
19	0x3fdee82190fdf36e	0.4829181590974291
20	0x3fe158bb418a8686	0.5420814781284242
21	0x3fd61c48dd87c738	0.3454763568289425
22	0xbfe292b7b8a1c818	-0.5804098707287748
23	0xbfbfc3e2b93a96f2	-0.12408272764386277
24	0x3fe09642b469bdae	0.5183423541729348
25	0x3fe273493346b08d	0.5765729905592863
26	0xbfd9bddb062ec955	-0.4022128639582168
27	0x3fbd3705569d7bb1	0.11412080158832684
28	0xbfa4dfd1176009fc	-0.04077008638707366
29	0x3fda0ad5d8c25efe	0.40691133659264256
30	0x3f9bab9e1c106fd3	0.027021856749442307
31	0xbfb2c3baf6fb45ca	-0.07329910783598517
32	0x3fc47b6868d8ccd3	0.16001610869861924
33	0xbfe5a54b48c1fa73	-0.676427499871194
34	0x3fe10a6880e5a296	0.5325205342788475
35	0x3fcf3ae36ee394ff	0.2439846316766889
36	0x3fb3bf3fc3df51f6	0.07713697940864236
37	0xbfe2d4d2ffbc3506	-0.5884795183971228
38	0x3fc06ce2c039e87f	0.12832292924924002
39	0x3fe11f33cbc5cd1f	0.5350588779387272
40	0x3fce09c0e891844b	0.23467265468483087
41	0xbfd853d83646a496	-0.3801174669302524
42	0x3fe5ecd43d4a8276	0.685159797391022
43	0x3fea009dd0c96bcf	0.8125752523295605
44	0xbfdf714ca4af3c09	-0.4912902458426634
45	0x3fdbabf76634b0b1	0.43237099629437653
46	0xbfca963f3ccbe063	-0.20771017521451815
47	0x3fc956e6ec3adca9	0.19796453985847975
48	0x3fb81f1154309709	0.09422405534186508
49	0xbfe1fdb151378256	-0.5622183405176411
50	0xbfd73cb52ff8caa1	-0.36308030781507666
51	0x3fc4109e7a212c91	0.1567571731887694
52	0x3fd758ddc2b1b908	0.3647989655791126
53	0xbfe650b03d1bea65	-0.6973496621643106
54	0xbfd74bfa40756089	-0.36401230139518553
55	0x3fe64fa0e7d2f55c	0.6972202804387666
56	0x3f9b8c4a98384958	0.02690235666347837
57	0x3fd0d58f31232616	0.26303462790073817
58	0xbfd9963754748838	-0.3997934651143882
59	0xbfad040f36f0c039	-0.056671596008869014
60	0xbfce18bc491c880c	-0.2351298672666079
61	0x3fe9c1ff6a3e4225	0.8049313616812169
62	0x3fe2361334833c4a	0.5691009545934176
63	0xbfd2e3770bdfeb50	-0.2951333633388247

encoder.1.1.running_var f8 [64]
0	0x3fed232f8532f7c1	0.9105451203865799
1	0x3fe5ea2389e6c6f1	0.6848313992870471
2	0x3fe6488045b9162d	0.6963502275254477
3	0x3fe6115f486d3f9b	0.6896206297478672
4	0x3fcb1e35daa3e69b	0.21185944724839065
5	0x3ff22b8946f3df4b	1.1356289645754767
6	0x3fe2f73a019e6f0b	0.5926790267580783
7	0x3fe21272f8e0048b	0.5647520886269758
8	0x3fd3cce80fe8e660	0.3093814998024751
9	0x3fd41c411d71328a	0.3142245090028061
10	0x3fe7e46b2bb817ac	0.7466331342591181
11	0x3fe36028d6848849	0.6054882230566899
12	0x3fe0a5c7993e8f9a	0.520236777596881
13	0x3ff21f419d0e84b3	1.1326309332874132
14	0x3fda51a90dcf401d	0.41123415325728435
15	0x3fdd62566dd1c42a	0.4591270515875886
16	0x3fcb7556edbd9470	0.21451841934609517
17	0x3fd89b1492b69015	0.3844653542275876
18	0x3fd7a64b8aa157c2	0.3695248464404096
19	0x3fe026cf45bb1f6a	0.5047375070507603
20	0x3fdd08f322cbac4e	0.4536712493706475
21	0x3ff63b17fe73c369	1.3894271792925912
22	0x3fe300b5a2866a0e	0.5938366102521415
23	0x3fe6e1101a3f9d3f	0.7149734985986597
24	0x3fd8ca2d1edc7d16	0.3873398591403697
25	0x3fe2190f13bc4fb6	0.5655589471302764
26	0x3fe131c0ab186879	0.5373233167367878
27	0x3fe6a4b4acf257a1	0.7076056840767145
28	0x3fe36ec96b9a9670	0.607273779071603
29	0x3fde93c8df62d806	0.47777005972909625
30	0x3fde00324e92d526	0.4687619941062898
31	0x3fd9e9b817772312	0.40489008227864176
32	0x3fecd0baa583d201	0.9004796250069945
33	0x3fe672319f710da9	0.7014396776289021
34	0x3ff0156019556440	1.0052186002342438
35	0x3fe42ef643a77369	0.630732662331508
36	0x3fd572ccf73d2114	0.3351318754616994
37	0x3ff3e88b6364bf3d	1.2442735559997822
38	0x3ff073cdcf05814f	1.028272446325065
39	0x3fe2584bfffb8567	0.5732784270914352
40	0x3ff20376825f5b6f	1.125845441119704
41	0x3ff18badfa49d34b	1.0966014649286133
42	0x3fd829edaf2776cd	0.37755910973451706
43	0x3fdec91697d659d1	0.48102345302450283
44	0x3fef069fe5b2486a	0.9695586668260721
45	0x3fecdd861112f566	0.9020414670446086
46	0x3fddebf15fff3491	0.4675258100003897
47	0x3fededbb5bd1af5c	0.9352700036374517
48	0x3fe6137330258a03	0.6898742618907935
49	0x3fe69574381d66d5	0.7057438941949054
50	0x3fdfce092fbad446	0.49695043240655357
51	0x3fe196ab8c782787	0.549642347673612
52	0x3feab1e7146d5c8a	0.8342166327446574
53	0x3fe9c5147b7365bc	0.805307618250644
54	0x3fe9aa5db621b98c	0.8020466382275102
55	0x3fde332859c0e856	0.4718724133014168
56	0x3fdb5ef0d04d7ade	0.4276697191434503
57	0x3fd78d755ae27e7a	0.36800893664801715
58	0x3fe116fdbf6475c4	0.5340565431721918
59	0x3ff03e1f3e6c6783	1.015166515199298
60	0x3fc8441bda01a87b	0.18957851548049462
61	0x3fe1356d5ae66b66	0.5377718711273303
62	0x3fe7b520551cf3b4	0.7408601438870535
63	0x3fd92c62de95ebbe	0.39333411919477246
