models/matching_nets/DF_n=1_k=5_q=15_nv=10_kv=3_qv=1_dist=cosine_fce=None.pth (torch, 316367 bytes, 24 tensors)

encoder.0.0.weight f8 [64, 1, 3]
000000 37 02 3b 33 60 21 d3 3f 98 42 0c fd 84 d5 d8 bf
       0.2989120960519673 -0.3880321952029049
000010 1b 49 7c 38 34 fe d8 bf a4 16 f1 f7 1e 0a c6 bf
       -0.3905153800598257 -0.1721838675168118
000020 00 51 05 d2 3d 69 85 3f 46 50 5f 00 85 ca b2 bf
       0.010454638454270526 -0.07340270289506731
000030 78 1a 53 26 9f 0c db 3f d8 e7 0c b0 63 18 e0 3f
       0.42264536612166337 0.5029772222981093
000040 82 84 a7 8f fd d2 c1 bf a5 17 74 5d 2c cb db bf
       -0.1392514182507832 -0.43427571417157146
000050 bd 2e 9d 1a bf c8 de bf 8d 6a 73 69 8b a0 b8 3f
       -0.4810025939848222 0.0961997158478118
000060 12 cf 9b 63 38 e5 c1 3f ee 87 94 16 7e eb c8 bf
       0.13980774749472197 -0.194686661744583
000070 2e ee 2a 2a 38 74 db bf 8d 96 92 f4 8d b1 dc 3f
       -0.42896846883715767 0.4483370674518959
000080 0c 7f fd b2 6a 52 d2 bf 5e bb 47 19 84 27 dd bf
       -0.28628032187951713 -0.4555368658902149
000090 b6 eb b9 4c a3 76 dc bf a3 b3 2a 12 f6 27 c5 3f
       -0.44474108212278496 0.16528201949168161
0000a0 2a 43 07 7c fb e8 c5 bf 9f aa 1f 15 1d f1 cd bf
       -0.17117255741188703 -0.23392070323401
0000b0 9e 85 71 4d 58 d2 e0 bf 8b df cb 91 19 25 bd bf
       -0.5256768715445792 -0.11384734925729682
0000c0 99 35 2f 3a de 24 d5 bf 47 3e 5c e4 01 d0 b4 bf
       -0.33037524873801655 -0.0812989408989263
0000d0 a3 32 2a 16 05 9e d5 3f c6 c3 59 6f 6d 20 db 3f
       0.33776976742300685 0.4238542163284901
0000e0 3f 1b e2 25 e9 a1 d0 bf 9a a9 82 cb de 52 cc 3f
       -0.2598822469666863 0.2212790006354453
0000f0 8c 81 78 0f ce d1 c9 bf 6e f1 f0 8b 7b 4e a5 3f
       -0.20171523814589098 0.04161439975038915
000100 ce 66 b5 cb 6c 56 d3 3f e8 78 f3 2a 6e 58 d8 bf
       0.3021499623624607 -0.38039735979499634
000110 ed c5 59 50 2f 34 ce 3f cc 24 d4 1e c6 3d d8 3f
       0.23596755431530828 0.37877038012136377
000120 c7 5a 47 80 14 bd d9 bf f6 57 ec 3c 32 ed dc 3f
       -0.4021655323717081 0.45197730969937255
000130 ad 82 d5 08 d3 37 cb 3f e7 67 1e 7c 75 35 a5 bf
       0.21264112407063376 -0.041423484231202505
000140 9b 59 de 96 9a 1e b9 bf 67 40 15 30 30 47 c1 3f
       -0.09812322791399312 0.1349849924831716
000150 4a c4 46 53 3c 43 e0 bf 3b e1 93 4e 37 cf dc bf
       -0.5082074762814355 -0.450147463546745
000160 24 8d 94 ae 28 d5 76 bf 79 a7 06 12 44 19 bd bf
       -0.005574377931483885 -0.11366677703941076
000170 ad 62 a6 2f 17 d3 db bf 7e 55 4a ed 72 9c cc bf
       -0.4347589459735371 -0.22352444254344656
000180 96 00 31 d6 8f 89 e1 bf 8d 60 b4 8f 1f 5f c7 bf
       -0.5480422194887236 -0.1825904323275193
000190 0e 16 68 33 eb ff ac bf 6a 5e 2c db d0 9e d5 3f
       -0.05664000513574417 0.33781834987300974
0001a0 ef 86 57 47 f3 f0 d6 bf 1e 7d b7 ac e3 1e c9 bf
       -0.35845643965704616 -0.19625516827998352
0001b0 ed 32 b8 13 6b e2 b5 3f 42 d8 90 b5 07 d4 df bf
       0.08548611861642615 -0.4973162911513819
0001c0 da 71 38 e5 58 77 d9 bf 91 70 2b fc 98 8b c5 bf
       -0.39790937790692527 -0.1683226805970475
0001d0 46 3c ce 6d e1 8f da bf bb b3 f6 95 ff 4d e2 3f
       -0.41503177378848866 0.5720212868669629
0001e0 b4 e5 6b 64 8a 45 e0 3f d3 b0 dd ac f5 2e d6 3f
       0.508488842139903 0.34661619073336886
0001f0 ce a7 83 70 e7 f4 c9 bf 8e f0 19 c8 11 97 7d bf
       -0.20278637880193034 -0.007224149188569963
000200 54 ce f4 f5 ec be 9c bf ce 89 1c c5 59 fa a0 bf
       -0.028072073471049855 -0.03316002398630112
000210 c8 db 6f c5 79 22 d5 bf 87 58 8c c3 a1 c4 d4 3f
       -0.3302292278380574 0.3245014581347125
000220 67 8e 59 06 ae 69 e1 3f ae 1f 99 94 7d 08 e0 bf
       0.5441503643055058 -0.5010364439303794
000230 41 3c b6 6b f9 f0 a4 bf 94 8e b1 15 7a ba d2 bf
       -0.04090098800508502 -0.29263164633287286
000240 37 7b bd 7d c3 79 c0 3f 81 21 27 81 ea b7 b9 bf
       0.1287159313169128 -0.1004625859560573
000250 09 ba 2c 43 23 3b cd bf 1a 85 36 e6 b6 b9 d4 3f
       -0.22836724071517292 0.323835110490181
000260 63 23 79 da bc 1b c4 bf 05 c7 6f 71 25 42 e1 3f
       -0.15709648769032034 0.5393244948920431
000270 a6 37 e5 80 8e 51 c0 3f 24 ef e9 cb df 5b da bf
       0.12748891156882997 -0.41185755647141975
000280 8d 50 23 a1 7a 7b cf 3f 80 69 9e 66 a3 a4 e2 3f
       0.24595578067840443 0.5825974468491921
000290 ac 21 9f f0 c2 9e d3 3f 8d 89 70 4e 49 95 de bf
       0.30656503198818075 -0.4778617158900936
0002a0 fd 6e e6 67 48 6d d1 3f d8 7b 5d e6 6a 4f 96 3f
       0.27229509493348286 0.02178732901608868
0002b0 d0 45 44 f1 c9 59 c7 bf 2a 4c 47 cb 58 a4 e2 3f
       -0.18242763786888228 0.5825618715556449
0002c0 76 b2 8f f5 4b 52 d2 3f c6 10 c7 91 2a 5a b1 3f
       0.28627299290273045 0.06778207835219793
0002d0 9f 7e c0 52 24 5f db 3f d5 80 0c 23 cc 32 e2 3f
       0.4276819999813401 0.5687008556888268
0002e0 48 19 7b 1f d1 e4 e0 bf 62 64 1b d1 7b d9 cf bf
       -0.5279317488537254 -0.24882457456877477
0002f0 76 a5 2a 59 32 6e c4 bf 8b c4 32 b6 98 a9 d5 bf
       -0.15961293557965534 -0.338476350715674
000300 f2 0d e1 15 bb f3 8c 3f 1b 28 0d 96 df cd b6 3f
       0.014136754613111233 0.08907887853015987
000310 26 31 0b 64 a2 de da bf b4 8a 5d eb 68 05 e2 3f
       -0.4198385216702881 0.5631603810291694
000320 c6 9f d9 04 e8 0f d7 bf 34 ea 54 3d f2 2e e0 3f
       -0.3603458449711038 0.5057307432064762
000330 97 7f 27 0f 8e 7b c1 bf fe f9 fc bc af 5a d7 bf
       -0.1365830968852577 -0.36491006332281006
000340 f1 5d 5f be ec 40 d5 bf 26 c0 0e e1 92 1c 91 3f
       -0.3320876940829001 0.0167105626930494
000350 38 52 2e 9c 42 87 b0 bf f9 a2 f0 57 0d 55 d3 3f
       -0.06456390679370194 0.3020661696232732
000360 c2 b9 67 73 4c cc b5 bf 7e 80 5f 94 0c b8 98 bf
       -0.08514859979161485 -0.024139591747257765
000370 38 08 b8 10 ac be d3 3f d7 a8 59 26 ab 27 d3 3f
       0.30851270325377156 0.2992961763872137
000380 3c fc 2a 1b a2 10 df 3f 89 13 71 6c a2 f3 d7 3f
       0.48539021161190354 0.37424526777277173
000390 96 0d 55 cd ee 0b cb bf 24 3e c8 7c 80 18 c5 3f
       -0.21130166078556262 0.16481023877030154
0003a0 23 6d fb b6 aa 97 b7 bf df f5 30 9f bd ef ab bf
       -0.09215800254189736 -0.05456345146420082
0003b0 06 39 4a 14 94 99 e1 3f d6 97 f0 06 63 b7 d7 bf
       0.5499973675048586 -0.37056804349628913
0003c0 26 32 21 6a fa ea ab 3f 4e fd d4 c7 5a 9b c5 bf
       0.05452711625602928 -0.16880354649945634
0003d0 11 93 7c 2a 62 ce d8 3f 89 66 59 a9 68 eb c0 3f
       0.3875966467769994 0.13218410748486445
0003e0 9f 38 ee c3 27 8a b0 3f c0 fd a3 61 86 be d1 bf
       0.06460808309040765 -0.2772537187119859
0003f0 38 2b ca 36 d2 72 e2 3f f8 f5 fd a2 59 94 cd bf
       0.5765162534820325 -0.2310897870883506
000400 ce 68 98 c6 c3 09 cf 3f da a4 1c b9 ad 48 cc 3f
       0.24248549649275336 0.22096797503153348
000410 d2 f8 fd 95 61 f1 c9 3f 31 41 f5 4a 77 17 e0 bf
       0.20267886947471553 -0.5028645004295297
000420 f4 6c 03 38 bc cd dd bf ac ee 82 e5 28 2b cd 3f
       -0.4656820818906475 0.2278796311055563
000430 0c 82 a9 f5 21 29 bf bf da 67 a4 8a e1 16 ca 3f
       -0.12172138450251441 0.20382327336920875
000440 7e 5d 39 71 d3 92 bf 3f 97 c6 6a 75 20 77 a5 3f
       0.12333413614520869 0.041924490292683796
000450 81 af e7 fa 3e 64 d0 3f 47 bf a4 d2 d8 fa e0 bf
       0.2561185312504151 -0.5306209673053467
000460 d0 a1 82 b0 7b 6c 9a bf 74 ac 91 62 31 3b e2 bf
       -0.02580445542176496 -0.5697256970573918
000470 8c dd 97 fe 0a 29 d1 3f c5 69 2f 06 3d 5f d8 bf
       0.26813006270045814 -0.3808128891374987
000480 35 e2 2b 35 6a 01 c5 bf fd b2 82 ec 0e 03 d1 bf
       -0.16410567852268945 -0.26581166359646585
000490 be 0b 15 80 d4 64 c6 3f 80 3e 1c 43 3b cc df bf
       0.17495208982481175 -0.4968403010725311
0004a0 7d 3d 26 3d 48 3e d0 3f ce a8 39 0f e9 02 a0 bf
       0.25380140277498936 -0.03127220450262912
0004b0 b2 39 b0 2b 9f ec c4 bf 38 72 72 59 58 0f d7 3f
       -0.163471123058526 0.3603115914827728
0004c0 29 7a 3e 03 c7 7f dc 3f 0d 74 ea 51 a3 dc d6 bf
       0.4452989131622496 -0.3572166728934583
0004d0 53 d5 0f e7 58 28 e0 bf f9 5c 9b 6f da 2e c6 bf
       -0.5049252045561538 -0.17330484818987893
0004e0 f5 d2 2a eb 40 e3 d6 3f cb 10 48 fd 64 4c c5 3f
       0.3576204582744105 0.16639387480984733
0004f0 36 04 5d 0a 24 b5 bb 3f ad 13 9d 43 22 5e df bf
       0.10823273900042882 -0.49012047388924423
000500 67 5d 43 14 0f 3e db bf c7 e6 90 3c 87 a0 dd 3f
       -0.4256627748377099 0.4629228679146817
000510 34 0d b4 31 21 cd b8 3f 56 b7 68 d5 84 1e e2 3f
       0.09688003028354758 0.5662254493852099
000520 28 1f 0d 23 91 7a d4 bf 1e 06 9a 75 e4 f0 d5 bf
       -0.3199808924004963 -0.34282790646111205
000530 0b 1e 30 23 a8 78 cb bf 24 12 26 d8 93 fd d6 bf
       -0.21461965292131455 -0.35922714336655504
000540 e5 d7 98 cc f6 3b d2 bf 82 e3 91 43 72 25 c5 3f
       -0.28490991573505503 0.16520527171431004
000550 2b 18 40 d1 b0 bb b6 3f b4 e5 85 6d bb 6c dc bf
       0.08880143269206602 -0.4441364831505681
000560 9f f5 ba d7 1e 3e c5 3f 57 89 d3 58 5d 24 c3 bf
       0.16595826657969057 -0.14954726063940413
000570 00 31 b4 d2 c2 68 d4 3f 05 b8 1d 2c aa e1 de 3f
       0.3188941056876189 0.482523482401007
000580 d4 86 bd aa 34 fe c0 3f 7f 33 b9 62 bf 12 cb 3f
       0.1327577432339725 0.2115096313522393
000590 e8 b0 86 41 cc c3 c4 3f 2f 8c d4 c5 dc 5c c5 3f
       0.1622252769424286 0.1668964353530966
0005a0 c9 45 95 eb 3c ec cf bf 10 ac b4 5f 3c ab c7 3f
       -0.24939691069680084 0.184913202983211
0005b0 0d 1b 0f 45 1f 8d b5 3f 69 06 0f e6 f0 9a b3 bf
       0.08418460308085347 -0.07658296219508433
0005c0 5f 0f 93 00 3e c5 de 3f 0a 18 76 02 69 22 d1 bf
       0.4807887082681556 -0.26772523155557393
0005d0 ea 8e d7 5a ce 0a 9c 3f dc 87 ce 6a 7c 7d d8 3f
       0.027384971899563938 0.3826590579066058
0005e0 07 54 43 36 38 01 b8 bf 63 31 9d 53 ed e2 c1 bf
       -0.09376860928325935 -0.13973776419369263
0005f0 0c 8b b4 e4 6f c8 d6 3f 62 16 0c f6 f5 d8 ba 3f
       0.35598370871063945 0.10487305886280177

encoder.0.0.bias f8 [64]
000000 ba 7a 00 40 35 6f e2 3f 65 d5 f4 3f 2c 3d dc bf
       0.5760751962696624 -0.441233694512752
000010 df c0 e8 ff b7 8b b4 3f 31 4b 10 80 e0 c6 c0 bf
       0.08025693891318351 -0.13106924298389225
000020 71 b2 16 80 be d7 d8 bf 61 dc 1e 00 c5 b7 b8 3f
       -0.3881679774156402 0.09655410054152604
000030 01 65 02 a0 25 97 d1 bf 6f aa 09 80 25 f4 df bf
       -0.2748502791015 -0.4992765188568801
000040 ce 50 cb ff d8 46 b3 bf c9 43 d6 ff a7 4c a1 bf
       -0.07529979939437512 -0.033787965755557155
000050 66 3d ea 7f d4 0b d9 3f 60 d8 d8 ff de 00 b2 3f
       0.3913470505876461 0.07032579180017384
000060 b1 eb 0f 00 f6 d3 d6 3f f3 f2 f9 ff 84 ec de bf
       0.35668706899712804 -0.48318600652400717
000070 9b ad 1f 80 a0 40 c2 3f 6f 42 d6 3f 88 ec d6 bf
       0.1425972581485951 -0.35818678125455156
000080 4d 28 fe ff 67 a0 d9 3f 6d aa 2f c0 41 1c c7 bf
       0.4004154205255233 -0.1805498302849914
000090 47 d3 63 00 7a a1 b8 bf 09 f9 a4 ff e3 45 97 bf
       -0.09621393689651568 -0.022727549055383132
0000a0 b5 26 ff 3f 09 3e c7 bf 90 02 89 00 bf 18 e2 bf
       -0.18158069252813439 -0.5655207643940958
0000b0 b3 00 fd 3f e6 8e d9 bf eb d6 ab 00 78 03 bf bf
       -0.39934688805443413 -0.12114667908084768
0000c0 87 60 02 20 92 db e1 bf d0 99 05 00 8e c8 d0 3f
       -0.5580530762845378 0.2622408867086081
0000d0 5e 04 fe 7f b9 85 d7 bf b8 e7 8f 00 e8 ef 8f 3f
       -0.36753690242045944 0.015594303624300795
0000e0 ce 28 00 80 b9 ba cf 3f 04 82 02 60 30 8b d8 bf
       0.2478858828547516 -0.38349542022663763
0000f0 78 ae ee ff ea 46 c0 3f d0 d4 18 80 20 0e e0 3f
       0.1271642446202923 0.5017244817633131
000100 4f 68 0c 00 0a cf d0 3f f6 f5 f5 7f 69 d8 b5 bf
       0.2626366615746791 -0.08533343671839319
000110 21 0c f1 7f 5f 96 dd 3f 1a c4 c1 7f 67 32 b8 bf
       0.4623030423574069 -0.09451910847725778
000120 6e 3a fd 7f 46 4c d8 3f 81 07 06 e0 03 cd dd bf
       0.37965548037474306 -0.46563813092517853
000130 e7 77 db fb c7 7d 91 bf 68 70 f9 7f a6 f1 d9 bf
       -0.01708137964930492 -0.40537416932580195
000140 95 4a 08 80 d3 74 dd 3f fb d8 d2 ff 9f c2 db 3f
       0.4602555036846437 0.4337539671208927
000150 d3 37 09 00 49 05 cb bf dc c2 2b 80 81 3b c1 3f
       -0.21109879018552977 0.13462847479197293
000160 00 6a cc ff 2a 73 cd bf ab 69 16 ff 9b 2d a5 3f
       -0.2300771473899914 0.041363596809975554
000170 80 a8 e1 bf 31 c7 d1 3f 25 e5 25 80 68 4d c7 3f
       0.2777828573076775 0.18204981095531383
000180 cb b4 c4 5f 96 0b d3 bf ed d0 f7 7f 8b 72 e2 3f
       -0.2975822386968729 0.5764825343490237
000190 01 b3 dc 7f 64 09 c2 3f b9 ef f1 3f a5 06 d7 bf
       0.14091163867251313 -0.3597806095565335
0001a0 61 c4 fb ff 0f 04 a4 3f 66 8a dc ff c4 8f ca bf
       0.039093494413358305 -0.20751249783741627
0001b0 05 ad f3 7f f5 35 dd bf 82 74 00 00 ab 4a c3 bf
       -0.45641839499758446 -0.15071618557059102
0001c0 4a fd 23 7f 69 7f b7 bf bc ff d5 3f 45 c8 c0 bf
       -0.09178790430086284 -0.13111177079190195
0001d0 08 c6 72 00 34 92 ae bf 7e df fe 7f e3 45 e2 3f
       -0.05970919137451963 0.5710313320077913
0001e0 50 45 c8 3f e9 59 d9 bf d8 ff 03 80 2e e7 ca bf
       -0.3961127398370836 -0.21018010378611396
0001f0 e1 88 11 00 48 69 c8 3f b3 0d 0d 20 82 aa da bf
       0.19071292880386806 -0.416657000827594

encoder.0.1.weight f8 [64]
000000 3b 96 01 41 a1 81 ef 3f d6 4e bd 25 eb 99 ef 3f
       0.9845739621784512 0.9875388848399449
000010 a6 e8 53 ae 88 76 f0 3f c5 ad d8 66 2d e0 ef 3f
       1.0289389428785767 0.99611539923847
000020 6a da 3f af 4d c9 ef 3f 45 1d a5 c6 dc 79 ef 3f
       0.9933231757011758 0.9836257819924091
000030 69 1f 1a ae 72 41 ef 3f 7e fa 44 ef 61 15 f0 3f
       0.9767392540388588 1.0052203508818418
000040 00 cd de 21 a8 71 ef 3f f4 df 2a a1 ff a1 f0 3f
       0.9826241170434571 1.0395504279713323
000050 2c 9b b5 25 b5 fb ef 3f 10 e5 e0 f0 56 72 ef 3f
       0.9994760262023639 0.9827074722917661
000060 43 df ca 27 fb 12 f0 3f 92 af 16 2d a2 55 f0 3f
       1.0046340517419174 1.0209066163324434
000070 2f 21 31 a1 b6 05 f0 3f 85 25 5c 00 8e 3a f0 3f
       1.001394872337254 1.0142955793438386
000080 3a c7 21 30 9f 0e f0 3f 59 27 9b 5f e1 4c ef 3f
       1.0035697822717808 0.9781348101907766
000090 c7 c8 95 c9 98 36 f0 3f a3 03 3d f2 0a 11 f0 3f
       1.013329303209092 1.0041608297762898
0000a0 1d d6 47 40 5f a7 ef 3f fe 41 fb 72 5e cc ef 3f
       0.9891811614494973 0.9936973806125591
0000b0 d4 67 55 77 04 be ef 3f c8 e1 fb 4b 3d 3b f0 3f
       0.9919454889998129 1.014462754070438
0000c0 3a db 00 f9 31 07 f0 3f e7 c8 db 46 7d 27 f0 3f
       1.0017566420262498 1.009640957633161
0000d0 65 c7 56 ed 8b ad ef 3f ce cb 40 48 04 f7 ef 3f
       0.9899348865057901 0.9989034091180373
0000e0 b8 f7 fa ad c4 a7 ef 3f 8a 95 d2 e5 fc 40 f0 3f
       0.9892295263341486 1.0158661820836152
0000f0 5f 6e 15 87 73 21 f0 3f 13 e3 4e e4 28 16 f0 3f
       1.008166816397441 1.0054100912368014
000100 e3 c5 ab 2a f9 d4 ef 3f 09 fa 7c 40 98 49 f0 3f
       0.9947477181833019 1.0179674643583232
000110 39 b4 9e 18 3d 50 f0 3f 7a 02 ac 4c 41 66 f0 3f
       1.019589515849715 1.0249646182056993
000120 d4 24 d0 34 36 4a f0 3f d3 c3 73 a5 fc 2e f0 3f
       1.0181181014070733 1.0114714110352352
000130 2a d6 6d 6c 42 4d ef 3f 28 a0 f8 1e 07 00 f0 3f
       0.9781810872797838 1.0000067910969026
000140 45 3c 42 10 60 52 f0 3f 2f f3 9c 28 c5 27 f0 3f
       1.020111144552872 1.0097095095108661
000150 58 d9 c4 fe cc 97 f0 3f 55 94 58 f5 2f 86 ef 3f
       1.0370607330238126 0.9851302902139972
000160 e0 cb 3a 83 70 e5 ef 3f 67 bf 2a bc 0c 1c f0 3f
       0.9967577517585333 1.0068480825684334
000170 7a 2b 51 24 76 1f f0 3f da 83 97 7f 3b d0 ef 3f
       1.0076810282359632 0.994168996050685
000180 86 3e 0f 28 79 63 ef 3f 9b 93 c4 f0 b8 9d ef 3f
       0.9808927328503649 0.9880032255647281
000190 ff 18 6a ae 08 01 f0 3f f0 6a 75 e5 37 40 f0 3f
       1.000252419763967 1.0156783068875335
0001a0 ae 5f 8a 29 08 4a f0 3f 10 6e fd dd f8 13 f0 3f
       1.0180741903950365 1.0048760100825156
0001b0 22 87 79 b8 f9 87 ef 3f 50 39 31 4d d7 74 ef 3f
       0.9853485682508316 0.983012820020841
0001c0 07 4b 49 96 cc 97 ef 3f ef 4e 68 90 9c be ef 3f
       0.9872801718978231 0.9920180149515242
0001d0 4d d4 f3 c6 6a 05 f0 3f 57 d8 2e b8 04 1f f0 3f
       1.0013225337582015 1.0075728602073661
0001e0 2d 74 f5 a7 8d e4 ef 3f 24 8c 10 35 8a 44 ef 3f
       0.9966495781369581 0.9771166836184233
0001f0 0b f7 8a c4 c8 4c ef 3f 1f 4a 94 df 59 ab ef 3f
       0.9781230772711934 0.9896668783933967

encoder.0.1.bias f8 [64]
000000 f4 cf 66 df 4d f4 6b 3f 65 be c2 06 f7 6b 8b bf
       0.003412391753238703 -0.013389520543881159
000010 6f 29 1b 32 39 22 9f 3f 43 c7 0e 9a ca de 42 3f
       0.030403989489778235 0.0005758752123396844
000020 ff d9 b3 bd 87 8b 85 bf 35 30 d3 ff 42 76 8f bf
       -0.010520039059412232 -0.01536228507247737
000030 63 97 cd 2f 0c fc 8f bf b2 e1 cd 90 7f 1d 83 bf
       -0.015617461403688975 -0.009333607298444988
000040 ec 96 a2 fe 13 02 9c bf df c9 21 87 6e ab a3 3f
       -0.027351677338308386 0.0384172954517401
000050 bf 8a 94 67 02 36 99 3f d3 9f 14 dd d4 38 62 3f
       0.024620091983829747 0.002224364995203823
000060 7f 03 7d 31 8c 2d 92 3f 7c 3e e3 3f b7 41 8c 3f
       0.017751875420120463 0.01379721797675803
000070 04 53 37 6a 67 ad 8c 3f 40 df d7 51 68 c5 89 3f
       0.014002616814573716 0.012583556172998223
000080 ef fb af aa d3 05 7f 3f d3 63 7e f2 26 16 9c bf
       0.007573916266664134 -0.027428253698960802
000090 41 d3 a3 cc 91 de 62 3f 59 dd b1 99 7d cf 98 bf
       0.002303395046619278 -0.024229013925347462
0000a0 f1 46 56 16 9f 45 95 3f 29 2a 3e 36 22 9d 6b bf
       0.02077339719614363 -0.0033708255959415023
0000b0 79 8d cb 42 f2 00 8f 3f ad 09 81 2e d1 60 91 3f
       0.01513852373449852 0.016970890487081714
0000c0 e6 fc 98 e1 43 9a 80 3f cf 2f 41 dc bd f8 95 3f
       0.00810673744410768 0.02145668656184779
0000d0 d0 7e 15 79 01 c2 88 bf 5d a0 05 f0 16 88 79 3f
       -0.012088786609353447 0.006233300781197296
0000e0 49 47 79 74 a0 25 89 3f 56 3f b0 8b 93 21 81 3f
       0.012278798632141668 0.008364823055700004
0000f0 e0 3c b8 7d 71 f9 99 3f 2a 05 ae 99 32 57 72 3f
       0.025365613268203968 0.004477689416377198
000100 37 bc 63 65 e0 af 63 3f 88 da 46 2b e3 68 86 3f
       0.002403200410405339 0.010942244299127837
000110 19 99 16 0f 8d ac 96 3f b0 38 d1 0e 98 e1 9b 3f
       0.022142604871668945 0.02722776022374579
000120 a8 fd 65 05 90 57 ab 3f 8e 4a a5 f4 30 ea 85 3f
       0.053402424487099254 0.010700590578072846
000130 25 a4 f8 bb 41 8a 8a bf e3 b7 61 99 3e df 9a 3f
       -0.012959016369750451 0.026242235290219084
000140 2d 4f 16 a6 59 83 9c 3f 91 65 88 25 19 38 78 3f
       0.027844811212687382 0.005912874440150332
000150 8b 92 fc bf 0f f2 9a 3f db ad 77 90 95 d6 97 bf
       0.026314016430790715 -0.023279511396976687
000160 b9 91 97 ef c3 96 48 bf 17 8e 35 6d 46 7f 8a 3f
       -0.0007503945081990738 0.012938070495414995
000170 24 49 c8 b5 e6 d6 95 3f 98 7e f8 1b f8 e7 70 bf
       0.021327595563044657 -0.004127473046110851
000180 85 98 dc f9 a2 aa 7f bf 53 da e2 c0 2f 8d 86 bf
       -0.0077310911417837235 -0.011011479448240246
000190 56 dd 50 09 54 16 9a 3f 21 c9 16 4f 1e 56 8f 3f
       0.02547580057963946 0.015300976551632818
0001a0 28 5d 56 4f 7f ae 87 3f f3 06 1e 4a 5c 56 74 bf
       0.011563295944866228 -0.0049651722964669685
0001b0 8d 51 a3 21 05 9d 6b 3f 71 1f 48 5d 46 56 93 bf
       0.0033707714293120306 -0.018883799975838614
0001c0 d7 7a 71 16 d7 a5 91 bf 3a e0 ec 6d cd f6 7b bf
       -0.01723419260485567 -0.006827166040970717
0001d0 36 81 d9 33 3d 58 20 3f 07 b9 c7 9b ed 81 83 bf
       0.00012470004178322954 -0.009525162045033854
0001e0 7b 1f 34 43 73 f2 83 3f 95 f2 bf 68 14 b3 81 3f
       0.009739780891791608 0.008642348715505658
0001f0 4a 50 e3 00 fd a8 87 bf 01 0f 56 81 03 e5 56 3f
       -0.01155278834304609 0.0013973745566042142

encoder.0.1.running_mean f8 [64]
000000 e7 8f e4 58 23 6c d9 3f ca b5 9a fe 03 eb e0 bf
       0.39722522431315926 -0.5286884281865067
000010 61 0d 22 9c 0e 20 d8 3f 7f 65 1f ee 10 1c dc bf
       0.37695660827031047 -0.4392130208412581
000020 76 b5 5f 4d 40 33 e2 bf 95 96 85 3e 14 32 85 bf
       -0.5687562476356749 -0.010349424512877273
000030 8e 50 c0 f0 0f 66 dc bf 5c 97 4c ed cb 79 ea bf
       -0.4437293864332411 -0.8273677477597903
000040 4b 8b ae 2a d9 29 ba bf 3d c9 2f 38 b3 d2 bc 3f
       -0.10220105449711274 0.11259002801651703
000050 b5 c0 97 32 16 97 dc 3f 75 38 bf 5c 0a 51 c4 3f
       0.4467216009206923 0.15872315910968707
000060 41 ad 57 dd d7 3d dd 3f 8c e6 52 26 6c d9 de bf
       0.45689961066701207 -0.48202041380464133
000070 9b 38 ab c9 8e 2e cc bf 3e 1e 32 a6 f2 bd e4 bf
       -0.22017083022223435 -0.6481869932185373
000080 7a 91 72 93 3a b9 ba 3f 69 c1 99 17 ab 9e d0 bf
       0.10438886737626332 -0.25968434624430486
000090 f6 67 ab 3e c8 a3 d9 bf 3d 0e 01 77 6a d1 9d bf
       -0.4006214725501417 -0.02911917067855384
0000a0 4f e6 2e 27 a4 82 b0 3f fc f0 34 f7 51 e9 e2 bf
       0.06449342686291824 -0.5909814670808653
0000b0 f4 3e ca 3b 12 4c c9 bf a5 54 24 5c ce d7 db bf
       -0.19763400954661103 -0.4350467586348919
0000c0 b2 64 6e 6b f0 45 e4 bf 6e 4f f0 41 f7 e7 e0 3f
       -0.633537492586717 0.5283161437859982
0000d0 71 01 12 2d ad 7f d8 bf a9 d1 a9 1c f9 d8 c5 3f
       -0.38279275323295453 0.17068399333551312
0000e0 c4 1b de ca db 8e d2 3f c2 64 fa be c9 25 9f bf
       0.2899693947915092 -0.03041758754861657
0000f0 39 04 76 e4 98 6e d3 3f df 18 b7 99 ba 2e cc 3f
       0.30362531958241196 0.22017605310083518
000100 98 e8 b5 6b 64 58 c2 3f 39 f1 e1 7b f2 56 c7 3f
       0.14332251796060258 0.18234091805414623
000110 49 d9 f1 5e cf f9 c2 3f ad 80 88 ea 2f 64 6b 3f
       0.14824859748814337 0.0033436714040960464
000120 e9 63 b5 91 a6 45 dd 3f 92 72 9e f7 2b f5 9e bf
       0.45737613896704815 -0.030232130993328506
000130 d3 00 10 f7 c2 db b1 bf 93 74 f5 d4 18 e8 d6 bf
       -0.06975954562949775 -0.3579160766292457
000140 5b de 6f d6 07 18 e2 3f 0e 37 32 aa a6 9e d9 3f
       0.5654334247801204 0.40030829067914986
000150 1b 08 8f ba 6b 77 86 3f 66 25 37 d4 d1 02 bb 3f
       0.01096996462900184 0.10551177435913459
000160 3d 05 4e 3f 95 57 d7 bf 58 39 c4 d5 05 1c c7 3f
       -0.3647206419191951 0.18054268777673133
000170 e1 09 5d ef c5 00 c5 3f 1c 2b 58 4d a3 a5 b2 bf
       0.16408609569232538 -0.07283993376055914
000180 7d 9a 6c 64 a7 02 d9 bf 97 9e 01 75 63 59 de 3f
       -0.39078697974256454 0.47420584131621396
000190 9b 3f 64 83 5c 90 d8 3f c3 35 88 16 2e fd e7 bf
       0.3838111193772364 -0.7496557655410289
0001a0 89 f0 3e ed b0 c8 d1 3f f1 c4 de c1 b1 47 d8 bf
       0.27787421387234496 -0.3793758767379379
0001b0 2b 76 f5 14 90 f3 d4 bf 88 7c 7c 9c 4b bc df bf
       -0.3273658947635762 -0.4958676365076333
0001c0 4f ba 04 16 1f 5a ba bf c3 28 34 f1 01 91 d2 bf
       -0.10293764388618708 -0.29010056071332374
0001d0 4e c1 79 dc f9 ac d2 3f e4 fa 19 80 bb c9 e8 3f
       0.29180761843510516 0.7746255399686928
0001e0 3a ca c7 83 87 d1 d8 bf 88 e0 c5 44 f5 a9 c4 bf
       -0.3877886568945176 -0.16143670900396878
0001f0 26 ff 15 40 37 c5 d3 3f bb a8 79 11 f8 df d2 bf
       0.3089120984877688 -0.2949199839264442

encoder.0.1.running_var f8 [64]
000000 47 c6 58 95 95 ef 96 3f fc a8 75 26 e8 7e 69 3f
       0.022398316612628724 0.0031122717079387057
000010 90 df 70 af 93 0e a4 3f f0 03 fb 4a 53 98 a4 3f
       0.03917371288883864 0.04022465029039057
000020 ed a2 3e 97 64 9e 91 3f 42 f3 be 82 4b 34 95 3f
       0.017205783587686808 0.020707301955315012
000030 28 6f a3 fd 4a 56 8f 3f 27 3b 1b a2 c4 af a4 3f
       0.01530130945723547 0.04040350416982213
000040 02 6a 9d 84 39 98 81 3f 5a ec ff ce 9f d8 8d 3f
       0.008591126784883055 0.01457333422148659
000050 f7 27 e1 8d 6a 58 77 3f 12 59 85 24 4c aa 8d 3f
       0.005699554660234077 0.014484972824601292
000060 e8 38 66 2d f7 2d 91 3f bc b2 9a c6 47 70 50 3f
       0.016776907106355404 0.0010033322272803699
000070 7e 9c bc a4 cb 11 aa 3f 2e 6c 4d 22 bf b9 9f 3f
       0.05091701875635922 0.030982004612592977
000080 d0 c5 2f 47 67 bc a1 3f f9 0d 80 cf 89 30 87 3f
       0.03464052909829329 0.011323048252967803
000090 8f d4 53 07 44 fb a3 3f da 26 8c 1a df 45 92 3f
       0.039026380438294976 0.01784466361554036
0000a0 99 df 3b 77 0b bb 9f 3f 3b 93 07 39 8a 44 2f 3f
       0.030986956741770297 0.0002385538796395805
0000b0 fd 43 18 89 d7 e1 9d 3f 86 1c dd 98 22 be a2 3f
       0.0291818311143892 0.03660686603557743
0000c0 5e fa b7 f0 93 de 71 3f 27 21 e8 08 ac 06 a0 3f
       0.0043626574438336545 0.031300903403521034
0000d0 2f 95 48 ac 0f 95 7f 3f e3 58 b3 f3 ca 10 9f 3f
       0.007710515234554279 0.030337496876051594
0000e0 6d cb d2 78 59 03 72 3f d5 f2 be 02 23 50 a8 3f
       0.004397725581997897 0.047486394963447566
0000f0 25 68 6f 11 92 54 a2 3f 5f 02 2b 8b 4b 2e 9c 3f
       0.03580147230941603 0.02752035176195233
000100 cf 3c 32 3f 75 2f 84 3f 53 fb 46 75 bf 56 a4 3f
       0.009856143942924693 0.03972433382613496
000110 47 9b b2 06 86 fd a1 3f 6a 7d c7 62 c8 61 77 3f
       0.03513735610731899 0.005708487279178479
000120 ae 05 52 5a 05 77 75 3f de 2c c8 63 ab e2 b0 3f
       0.005240460309438628 0.06595870195467365
000130 5f c1 bc e2 89 fc 69 3f 35 0e b0 c4 3b 0f 8e 3f
       0.003172177608483803 0.014677493038113368
000140 11 15 d1 d9 84 e1 81 3f 97 a6 bc 99 70 67 6f 3f
       0.00873092450832272 0.0038335036496349273
000150 62 c9 e6 b4 9b 28 9b 3f a7 7a f3 83 f2 0f 89 3f
       0.02652209560046382 0.012237448360278803
000160 c7 0d 6b ec 39 c2 8b 3f fb a3 b3 4f 4b 21 7d 3f
       0.013554050948534247 0.007111829934026477
000170 70 fa a1 92 1c 54 8e 3f fe 80 4d ba 37 07 a1 3f
       0.014808867668987008 0.033258191577944615
000180 a1 29 93 c8 a0 86 7b 3f f2 5d 7b 4e 97 22 8a 3f
       0.006720188198594463 0.012761289675309737
000190 b3 60 33 ce ab f4 9c 3f 9e 53 1b 45 fb dd ab 3f
       0.02827709623383674 0.05442795961940948
0001a0 d4 dc 90 f0 d8 25 95 3f f5 65 c3 b5 d2 59 9f 3f
       0.02065218895242256 0.03061608538050638
0001b0 e3 72 c9 36 fa 2e 93 3f 59 3f 0d e5 33 fc a4 3f
       0.01873389205353505 0.040986654005449714
0001c0 1b 54 1e ba 32 65 70 3f c9 9f d7 e5 1e 2e 8d 3f
       0.0040027600788521646 0.014248124493818086
0001d0 7e ef 8a 17 dd f4 a6 3f d9 65 17 cd 82 26 8d 3f
       0.04483691131960564 0.014233610042469745
0001e0 74 5e 0a 67 88 fb 6c 3f 06 72 cd 4f 57 37 85 3f
       0.0035379089461676175 0.010359460947875664
0001f0 f1 04 a9 b1 e0 19 82 3f 93 d6 da b7 ab e7 82 3f
       0.008838420316467284 0.009230939434341756

encoder.1.0.weight f8 [64, 64, 3]
000000 88 0c 0a da 68 62 8e 3f 9c 6f 63 4d e0 00 ab 3f
       0.014836138872175178 0.05274105972941287
000010 a2 94 36 2c 7d ad b2 3f 9e 65 a0 98 64 e8 b0 3f
       0.07295973138259851 0.06604603506311554
000020 d3 03 3c eb 60 53 a9 3f f5 f0 c8 ac 71 6e 66 3f
       0.04946425315393523 0.00273821069848001
000030 d0 a1 11 7e 1d 85 a4 bf eb 16 ee eb 29 06 a7 bf
       -0.040078088416354185 -0.044968900728276605
000040 20 ba de fd 53 73 82 bf 08 59 c3 79 e1 6a 96 bf
       -0.009009033379553222 -0.02189209275896878
000050 b4 e4 e5 68 2c 0e 76 bf fc f3 69 d5 10 71 82 3f
       -0.005384610629669929 0.00900471831595872
000060 b1 39 01 68 24 11 b1 3f e1 b6 94 f9 05 de 9c bf
       0.06666781939677581 -0.02819070182629602
000070 fd 0d 13 26 80 4e 9b 3f 86 7b 18 d1 6b ba a7 bf
       0.0266666434515752 -0.0463441555732436
000080 96 95 17 c3 87 67 51 bf ba 48 18 4b 40 2f a9 bf
       -0.0010622812081860548 -0.049188622633793824
000090 c3 9f b7 d9 c1 d5 b2 3f 8d e2 63 5a 1d b2 a1 3f
       0.07357417645800894 0.03456203201671313
0000a0 9c 62 0b cd 42 48 aa bf 73 0d 9c 5d ad 7d 7f bf
       -0.05133255722984595 -0.007688214501971091
0000b0 04 6c 4a f2 6c 2e 84 3f 4c 9e 45 25 23 8e 7d bf
       0.009854174751401608 -0.007215630805468342
0000c0 b7 b1 cb 6c be 23 a4 bf d4 b2 9b 76 f9 60 a7 bf
       -0.03933520391533157 -0.045661731461086014
0000d0 db 8f ce 25 4e 5b 74 3f 29 21 b6 d9 63 c7 a8 bf
       0.004969887985598799 -0.04839622528658289
0000e0 b9 34 3d f0 c2 34 98 bf 07 bf 39 9a 28 6a b0 bf
       -0.023638769066839347 -0.064119851734855
0000f0 b8 d4 c1 b5 f2 97 b1 bf 85 af 4a e6 8f 77 b5 3f
       -0.06872479379110785 0.0838556229816146
000100 8a 7d 59 3f 48 48 9c bf 6f 93 5a 62 71 59 a0 3f
       -0.027619484774161353 0.031932395225601755
000110 2b e0 6d be 75 71 b0 3f f2 80 8a 2c c6 85 b1 bf
       0.06423126124525484 -0.06844748103549472
000120 69 9c 8c d1 15 1c 98 bf 5a c4 41 61 8f 19 a0 3f
       -0.023544636645194936 0.031445007917576276
000130 9d 8e a0 f5 83 72 a1 3f 88 ab 72 43 e1 f9 b2 bf
       0.034076808675562044 -0.07412536522558189
000140 f8 5b ad 7c 4c 06 70 bf 7a 68 a3 75 10 2b a7 bf
       -0.0039122569822529416 -0.04525042949690401
000150 84 1c 3d aa 4c 91 92 3f fe 8d 74 9a 75 50 ab 3f
       0.018132398500963834 0.05334823141518184
000160 82 2a 3c 90 73 ec a6 bf 9f 13 73 bc 93 6c 40 3f
       -0.04477273116761628 0.0005012246482683952
000170 98 4d f5 20 07 e4 96 3f 19 e4 14 5c 3c b6 b7 3f
       0.022354232203111474 0.092624447327481
000180 0a 2c a2 a7 f9 71 ac bf df 95 fa 7d 5f 22 87 3f
       -0.05555706187541183 0.011296030075139405
000190 9c 43 30 c4 b5 de 6b bf ce 94 bc 34 51 73 a7 3f
       -0.003402094852852545 0.04580167549856072
0001a0 47 bb 71 67 e6 93 b1 bf 75 b7 08 8c 35 76 90 bf
       -0.06866302514548038 -0.016075932189941484
0001b0 74 32 cf ca 93 e5 b4 3f 38 be 6c 33 02 a3 b2 3f
       0.08162807179832915 0.0727998137997411
0001c0 43 a1 86 d4 fe c5 b6 3f fc 0b c8 85 de 6c b8 bf
       0.08895867050762711 -0.09541121259830726
0001d0 db 9f 51 6a dd da af bf d4 f5 11 4c 2b 34 b4 bf
       -0.06221668169820279 -0.07892103774243903
0001e0 81 e3 f0 ca 33 7d a4 bf f8 fa 8e 1a 40 bb 71 3f
       -0.040017717860286524 0.004328966527224358
0001f0 eb a2 a5 ee 3a 28 99 3f 13 c1 02 56 88 61 b5 3f
       0.024567528549058897 0.08351947879669223
000200 26 12 2d 3b 3c c7 89 bf df d0 17 23 38 a9 b0 3f
       -0.012587042385015467 0.06508208138240289
000210 6b 07 3e 86 26 b8 ad bf e7 99 92 71 2e 86 94 bf
       -0.05804558170986137 -0.0200431114978076
000220 e3 1a 51 e3 17 b3 98 bf c2 21 73 d1 75 a3 97 3f
       -0.02412068676883451 0.02308448878173564
000230 10 c6 5e 64 94 c3 b3 3f 6f e5 30 9c dd 75 73 bf
       0.07720305872387478 -0.0047510773320536956
000240 0f 74 e3 86 fa c0 a9 3f 5e e8 01 97 2c bc 82 bf
       0.05030043503368386 -0.009147976263410292
000250 1d e9 f6 d3 9f bb b0 3f ac dc 15 09 a9 b4 a3 3f
       0.06536292004503648 0.0384877036657881
000260 36 33 ab b5 56 1a 7d 3f 52 09 37 9b ed 19 9f bf
       0.007105196675820482 -0.03037234554154484
000270 20 e2 13 4c 76 80 b5 bf 4e a2 d6 aa a6 35 b1 3f
       -0.08399142606129617 0.06722489996776312
000280 4c 5f c1 9c bb 8c 94 bf 18 42 e5 e5 4f 9c 7d bf
       -0.020068103258693612 -0.0072291489617133595
000290 1a 64 e1 c0 80 df ab bf 14 82 45 77 98 da b1 3f
       -0.054439567131972136 0.06974175369169472
0002a0 c6 42 05 91 a9 5c a2 bf be d0 41 d6 7b f8 86 3f
       -0.035863207771972536 0.011216132618052984
0002b0 76 05 c2 21 7b 5e a3 bf d6 65 c2 f8 38 76 96 bf
       -0.03783020770152749 -0.021935358222071454
0002c0 6e a6 e9 9c 8c 78 b5 bf 01 72 49 bd 93 25 87 3f
       -0.08387068587185251 0.011302141393735534
0002d0 9b 8f d2 60 86 cb 8e 3f 06 71 39 df e7 07 9f 3f
       0.015036630468166659 0.030303595542464222
0002e0 d5 16 8a fb 01 4c 72 bf 15 76 f7 55 bf 35 91 3f
       -0.004467017883717357 0.016806592580783503
0002f0 f6 a7 34 61 a8 71 a8 bf 1a ef f4 ea 56 60 83 bf
       -0.04774213968842382 -0.009461096806823433
000300 84 2f cf cc 5b c3 a5 3f 23 80 a0 21 2a f1 68 bf
       0.04250609278787379 -0.0030446837308915216
000310 64 0a 50 1f 90 17 b3 3f 6e d1 e1 fc ee cf a3 3f
       0.0745782925078316 0.0386957820600483
000320 cd 72 1d ee 81 37 a7 3f ab ba 65 5d e6 27 90 bf
       0.04534536391904496 -0.01577720589687696
000330 fd 0d 98 e3 54 54 ae 3f 3c bf 95 aa 95 da a1 bf
       0.05923714903113007 -0.03487079341255003
000340 fc 09 c8 07 62 d4 b4 3f 23 19 de 1f 54 ae 90 bf
       0.0813657063481869 -0.016290010876695803
000350 00 bc f6 f2 12 97 a6 bf e2 ab 77 43 50 3a 8b 3f
       -0.044121353300731414 0.013294817980712584
000360 97 25 05 48 39 41 9b bf 1a d3 f0 37 2a 2b 9f bf
       -0.026615996380575515 -0.030438098587370545
000370 90 11 3d 6c 1c 8c ad bf ba d6 0e 26 1a ee 7a 3f
       -0.0577095873000274 0.006574728148668713
000380 75 10 18 28 aa 7a af bf f2 89 9a b6 49 b4 b0 bf
       -0.06148273219517445 -0.06525097568604801
000390 55 02 b2 6f 0a ef 99 3f 08 f5 e4 d4 e9 15 ad bf
       0.02532593065962126 -0.05680781101043847
0003a0 80 df d2 5a 83 f3 a8 bf 70 cf f8 e2 50 1a 94 bf
       -0.04873285754859946 -0.019631637433306037
0003b0 9b fc 85 94 c1 aa a5 3f d4 89 ba b2 a7 2f a0 3f
       0.04231839120893107 0.03161357933756262
0003c0 40 ef e6 6f f2 6b a9 bf 6d d0 a2 6d c6 6c 97 3f
       -0.04965169540397918 0.022875881616258576
0003d0 f4 0e 4e cf 0d 62 a7 bf c9 56 16 d9 5a 3e 92 3f
       -0.045669967227722014 0.017815989971117916
0003e0 81 81 ea c8 b6 59 b3 bf 6f 59 21 df f7 52 a4 3f
       -0.0755876770513222 0.03969549750097456
0003f0 d4 33 83 d5 97 c4 a7 3f b7 4d 1c 6d 15 74 ad bf
       0.04642176133493306 -0.057526273316536196
000400 cc 06 a4 74 97 98 b0 bf df 74 07 8b 7d d6 a9 bf
       -0.06482836339639703 -0.05046455690510653
000410 86 c1 a7 e2 d1 13 a8 3f 1d 8f 36 a8 42 9a 98 bf
       0.047026213567622085 -0.024025956646837366
000420 99 2d 62 6d 0c ed b1 3f b8 c9 3d ce ef ca a2 bf
       0.07002332373138244 -0.03670453446001737
000430 09 d3 37 1c ea e2 9f 3f a1 b8 a9 e2 3f 7a b0 bf
       0.031139047596258105 -0.06436538013233185
000440 1f 57 ec d9 60 47 b3 bf 78 6b 0a 98 d0 c4 b3 bf
       -0.07530789680853588 -0.07722190582209787
000450 14 49 0e 63 d0 24 b0 bf cd ef 24 92 da d3 a6 bf
       -0.06306173723558955 -0.04458506616580813
000460 df 61 45 b8 15 37 b1 3f 0e 68 6d 40 6e 1b b1 3f
       0.06724677799991906 0.06682480881627859
000470 44 11 6a 56 7e 3b a5 3f 1d 48 32 c7 fb 9e b2 3f
       0.041469524429916166 0.07273839581674264
000480 6f c1 a2 51 1a aa a8 3f dd ce 6e 9d 73 74 59 bf
       0.048172781434348326 -0.001553643136259212
000490 68 2e 24 5d 61 3f 93 3f 9e ab 8c e3 7b b8 9a 3f
       0.018796464261909313 0.026094375384825612
0004a0 32 47 6e e0 13 3e 95 bf 35 f7 3e e3 e6 a5 b0 3f
       -0.020744619916121816 0.06503146217343388
0004b0 40 6d 6a 5e 95 f9 b0 bf 44 14 0d 65 89 eb a2 bf
       -0.06630834155150911 -0.03695325239690608
0004c0 9d ea 03 c9 da 3b 78 bf 55 c9 6f 41 2d ab 70 3f
       -0.005916456823110619 0.0040694968983977136
0004d0 3e 22 9a 00 d4 00 aa 3f a9 bf fc 02 f0 9d 92 bf
       0.05078756816243811 -0.018180608923273365
0004e0 7b ef 7c 50 4a 4f a6 3f 2d 44 d3 32 c2 ad 73 3f
       0.04357368690986526 0.004804380977661044
0004f0 ad 89 50 e8 08 fb 8b bf 19 55 8f 0b 1b 52 a8 bf
       -0.013662404622725466 -0.04750141636001554
000500 e3 38 df ad 2e 69 9f 3f 6a c8 5a 0f b8 85 a6 3f
       0.030674676286985735 0.04398894488748868
000510 88 e5 55 a7 7a 31 a4 bf 2e cf b5 60 e6 3c a0 3f
       -0.03943999569578255 0.03171462946457236
000520 d3 eb 3d 0c 69 f5 9f 3f af 8c 22 d9 11 6f 9f 3f
       0.031209603664574658 0.030697134855142746
000530 00 50 5c 2c 89 60 ab bf 84 67 70 68 ec a8 7e bf
       -0.05347088495742014 -0.007485316723455319
000540 26 a8 14 4c 54 ef 68 3f a3 98 dc 3c 1b 64 ae 3f
       0.0030438085965629634 0.05935750120106433
000550 10 de a7 79 dc 44 5c 3f 6d a6 1e e7 68 ad a7 bf
       0.001725402171926297 -0.046244886601311964
000560 35 9f bd 5e fd 88 8f bf 06 1b 81 33 fc 42 b2 3f
       -0.015398005918271099 0.07133461244039205
000570 b4 11 2f 5b 72 e5 93 3f dd 67 5b 1c 17 4f ab 3f
       0.019429957213803653 0.053337785922579185
000580 cd 54 63 24 02 89 71 bf 08 65 e4 4f 63 e3 a1 bf
       -0.004281051986443529 -0.03493795728918242
000590 5c c9 43 c5 93 e1 80 bf 43 d2 4d aa a9 64 8e 3f
       -0.0082427544188916 0.01484043646790057
0005a0 c7 08 07 bf 7f a1 ac bf b5 42 95 e0 b8 c2 b0 3f
       -0.05591963965299978 0.06547122462257955
0005b0 a2 27 d2 d0 ba a8 73 3f e0 36 cb 92 19 19 a0 3f
       0.00479958510289605 0.03144149701038912
0005c0 c2 ea a0 76 14 db 9b bf 4a 35 54 f0 0a 20 9d bf
       -0.027202911129488035 -0.028442545813097277
0005d0 ad 9b 0f 87 d6 98 a3 3f a4 b2 ab e8 ee a5 ae bf
       0.03827543638890716 -0.05985972013681831
0005e0 09 07 e4 f7 32 65 b4 bf 73 14 fd 06 7d be a4 bf
       -0.07966917564411004 -0.0405158110648153
0005f0 99 37 ad 0f 40 d0 92 3f c1 c9 68 28 f4 96 98 bf
       0.018372536618066346 -0.02401334282530754
000600 7d 4d 97 22 09 3b 88 bf b4 bb a9 f1 02 ea 9b bf
       -0.01183135163129267 -0.027259870529117783
000610 e0 3d ad 3e e0 43 31 bf 7d 77 7b 42 07 b4 a1 3f
       -0.0002634451363307793 0.03457663237143913
000620 b7 70 e3 85 8d f4 a8 3f 18 9a dd 67 1d 6c a5 3f
       0.04874078997974734 0.04184047596827528
000630 22 4d 70 4c ea 65 a1 bf 02 8b 69 55 9f b5 af 3f
       -0.03398067648972815 0.06193254392271365
000640 f5 66 90 c9 85 66 82 bf 2b 4e a5 a4 95 c5 86 3f
       -0.008984608854052814 0.01111905010899424
000650 6c be fa a7 03 85 96 bf 37 4b e1 df d3 c4 99 3f
       -0.021991784217503627 0.025164900340608667
000660 f5 7a 6b 2a ad b8 aa bf af 08 c4 96 b0 d0 a0 bf
       -0.05219021933384297 -0.032842176822684414
000670 3f 97 c4 0f 83 28 75 bf ba 6b 1b b9 ea 26 ae bf
       -0.00516558834013897 -0.0588906622849303
000680 27 0e dd ff 5d f2 96 bf eb 20 61 e0 a2 6c b2 bf
       -0.022408932439487963 -0.07197015741360573
000690 47 5d 9c fa 0d 8d ad bf fe 9c 89 b9 cc d4 91 bf
       -0.05771678623403403 -0.017413328956902945
0006a0 41 27 b8 9e f0 ad 8d 3f a2 1a 1f e1 4b 0c a1 3f
       0.014491920322160847 0.033296939116145965
0006b0 0d 5e a7 22 68 8c 90 3f 05 f5 72 12 fb ca ac bf
       0.01616060935506707 -0.056236120225984045
0006c0 91 87 23 98 44 20 ad 3f df 33 08 c2 37 16 a1 3f
       0.05688680989420825 0.03337263339572138
0006d0 07 73 01 37 2c ab 82 3f c3 de 2d 06 8c f1 a3 bf
       0.009115548542632647 -0.03895223212651679
0006e0 7d ad 71 e5 b8 86 b2 3f 6d 74 7c e3 90 dd a2 3f
       0.07236819841062032 0.03684666420870362
0006f0 6c ff 9d 46 58 c1 a8 3f 0b 57 1f 45 7d ba b4 3f
       0.04835010396982295 0.08097060144003991
000700 3c 8b 21 f5 24 51 99 3f b1 97 04 20 a4 76 b0 3f
       0.024723603688822524 0.06431031972587566
000710 9c cb ff 26 72 f6 a1 3f 15 61 00 5c dc 3e 50 bf
       0.035083358059544184 -0.0009915496775701517
000720 d1 31 c8 ce 70 d5 b2 3f fd 0b e1 b7 7d 99 9d 3f
       0.07356934593571586 0.028905834529961528
000730 d9 45 cf 29 3e 29 aa bf 17 c7 fd 83 8c 8f 90 bf
       -0.05109590778705426 -0.01617259555445746
000740 f4 bf c6 21 f7 ce b1 bf b7 ee aa ac bf ec b3 bf
       -0.06956429075830767 -0.07783124890823499
000750 57 16 1d a6 b4 41 9c bf 2f 05 26 54 d7 7a ae 3f
       -0.027594397200365908 0.059530953428302495
000760 da e6 cf 44 95 f6 82 bf 15 17 5d 60 eb 7b a4 bf
       -0.009259382402876982 -0.04000793029130826
000770 4f 76 0c d9 8f 8e a8 3f 58 7a 80 ea 34 5f 97 bf
       0.0479626610233309 -0.022824122250421602
000780 59 ab 44 1d 91 cb a0 bf 4e c7 83 53 9b d7 92 bf
       -0.03280309183386149 -0.018400599453293247
000790 32 c2 72 9e 09 22 89 3f 2c cf 6b 0c d2 f5 a1 3f
       0.012271952770192749 0.035078586593867506
0007a0 d3 a0 76 b4 c1 fa 9c 3f a3 48 3a 38 ab 6c a0 3f
       0.02830031074486856 0.03207907735226569
0007b0 64 7b 2b e3 da 31 7c 3f 16 02 5b c2 5d 68 a1 bf
       0.006883482960545393 -0.033999376273190204
0007c0 83 64 6f e5 27 56 73 bf dd 2a 1a da f6 a3 b1 3f
       -0.004720836491253102 0.0689081461406817
0007d0 49 e2 dd ff bd ac a7 bf 94 38 5c ab b6 00 ab bf
       -0.04623979328511447 -0.05273981897163185
0007e0 4d 4b fe 55 60 65 a6 bf b0 43 1f 91 4a 7c 9c bf
       -0.04374218988154741 -0.02781788359408538
0007f0 cd 60 5f 30 5c 52 ae 3f 15 c7 44 f5 3d 5a a6 bf
       0.05922210779653057 -0.04365724200250846

encoder.1.0.bias f8 [64]
000000 ac 2f 06 00 4c f3 99 bf bb cf f1 ff 87 9e 86 3f
       -0.02534216642520419 0.011044561861332505
000010 0f 57 fb bf 1e ed b0 bf d0 f7 17 00 d0 16 99 3f
       -0.06611816584640116 0.024501085286821767
000020 2f 88 fb ff 78 43 95 3f ea d0 ec bf e5 f9 95 bf
       0.020765200256285418 -0.02146109565656299
000030 8e ac f2 7f d6 dd ad 3f 21 4d f8 3f 41 f1 a5 3f
       0.058333113783498466 0.04285625368006608
000040 fd ed 11 80 a9 81 a7 3f 51 5d fe 7f 98 97 ab 3f
       0.04591111839632942 0.05389095842763914
000050 35 ab 2a 00 17 f2 90 bf 48 3d 05 00 50 8f a0 3f
       -0.016548499474690465 0.03234338760614236
000060 5c ac f3 ff e6 50 a2 3f b9 7a f6 bf de e6 a9 bf
       0.035773485893366014 -0.050589524205169885
000070 48 c0 1c 40 ec 5b a0 3f 15 be f6 ff b3 11 b2 bf
       0.03195131571408233 -0.07058262824170243
000080 c9 77 a4 ff 33 de 69 bf fa e8 fd 3f 4b c7 a0 3f
       -0.0031577125165673553 0.03277049213552803
000090 75 24 07 c0 92 2b 9e bf 88 cf 0b 80 02 dc a1 3f
       -0.029463093729451068 0.03488166630805184
0000a0 b7 87 fe ff 50 20 ab 3f 55 02 fd ff 8c e0 a3 bf
       0.05298092961244499 -0.038822561501096566
0000b0 ab 02 ee 3f e2 62 aa bf bb 47 fd ff 4b 91 a3 3f
       -0.051535673431322 0.03821790218229589
0000c0 f6 7f 12 00 43 b4 ab 3f b1 ec f9 ff b2 38 a4 3f
       0.05410966277963773 0.039495080706694614
0000d0 66 a4 f9 ff 28 08 a5 3f c8 55 04 00 79 36 a8 bf
       0.041077882048576694 -0.04729059338766778
0000e0 4d c9 04 80 90 90 a8 3f 49 d0 00 60 c5 12 b1 bf
       0.04797793925026159 -0.06669267267062752
0000f0 56 43 02 20 e9 b5 ab bf 82 0b 02 00 48 10 b2 bf
       -0.05412224307759199 -0.0705609321612837
000100 6e d3 e9 bf 3d 32 b1 3f bb 8d 01 c0 81 a9 91 bf
       0.06717287001977265 -0.017248179763908782
000110 a6 6f 02 00 37 9d b0 3f d4 59 08 00 cd 5f ae 3f
       0.06489890814049079 0.05932465196035577
000120 aa 2b f2 7f e4 c6 a4 3f 4e 6c fd df a0 dd b1 bf
       0.04057992994156419 -0.06978803127769703
000130 11 8c 56 02 d8 e7 61 3f 47 3d 4e 80 3b 0c 89 bf
       0.0021857470444088885 -0.012230362752034053
000140 db 4f d6 3f 49 20 96 bf 89 5c 02 c0 41 24 a0 3f
       -0.02160753681307868 0.03152661770689586
000150 77 60 f9 3f 10 c6 aa bf 7f fb b4 ff 98 c9 87 3f
       -0.052292354401914425 0.011614985755498129
000160 28 1a 02 80 41 d5 ae 3f 53 58 03 80 82 8e a5 3f
       0.0602207630882286 0.04210288822803023
000170 18 4f 6f ff e3 69 65 bf b8 22 08 80 e2 9a af bf
       -0.002613969143092986 -0.061728551987532965
000180 2f 20 0f 00 90 9b 8d 3f 5f 3f 08 c0 29 86 b0 3f
       0.01445686817341149 0.06454716623579547
000190 3a 45 c6 00 08 43 68 bf ab f5 01 40 1a cb b1 3f
       -0.0029616504963959874 0.06950534880339514
0001a0 ab 16 00 40 6b ea a6 3f d5 23 12 40 e2 f7 b1 3f
       0.04475722461942885 0.07018865646581614
0001b0 84 fd 89 00 e0 4c 47 bf 24 bd 14 80 fa af a6 3f
       -0.0007110685119896963 0.044311359534157796
0001c0 b6 fe d6 7f 0d cf 91 bf 7b 31 02 80 02 9d b0 3f
       -0.017391405990337026 0.06489577889641922
0001d0 ac aa 11 60 9b 63 aa bf d5 7f 01 80 c1 2f 9a 3f
       -0.05154119060246862 0.025572799146516296
0001e0 e1 34 fa bf 41 16 aa bf 7e 64 f0 bf eb 0e a5 3f
       -0.05095105617974994 0.04112946241384295
0001f0 f8 36 cb ff b9 42 7b bf 47 f5 e9 3f fc a4 a6 bf
       -0.006655432280877831 -0.04422748832892381

encoder.1.1.weight f8 [64]
000000 70 e5 ef a0 6f 11 f0 3f 75 1d 36 c4 bd c1 ef 3f
       1.0042568480115186 0.9924000580075886
000010 cc 13 a2 4e 38 71 ef 3f 42 a2 a5 ca b2 04 f0 3f
       0.9825707946589488 1.00114707144725
000020 42 4a 72 da 12 c6 ef 3f b9 4c 25 42 03 c9 ee 3f
       0.9929289118320599 0.9620376865299455
000030 f6 d7 dd 3a b8 bd ef 3f 26 78 2e 4d 4f 5a f0 3f
       0.9919091367471526 1.0220482840445668
000040 c8 75 4e 64 31 a0 f0 3f 85 43 72 c1 13 aa ef 3f
       1.0391096037122782 0.9895113733528978
000050 77 62 e0 59 29 ab ef 3f a3 19 ee 08 30 40 f0 3f
       0.9896437411690177 1.015670809634323
000060 ad 6d 43 2e 2d 39 f0 3f 3e a8 92 66 b8 28 f0 3f
       1.0139591033138047 1.0099414831879723
000070 07 de 98 ff 44 77 ef 3f 88 f3 4d 33 e1 f2 ef 3f
       0.9833092682010268 0.9983983995476686
000080 a1 ab b1 62 f9 4b f0 3f 30 05 b1 71 c1 6d ef 3f
       1.0185483794436794 0.982147905400927
000090 18 7d c6 8e 55 0c f0 3f 61 16 bd 62 c4 18 f0 3f
       1.0030112816965069 1.006046662996049
0000a0 d0 e4 88 67 d1 01 f0 3f 22 95 bd 74 72 03 f0 3f
       1.0004438442540966 1.0008415756395341
0000b0 41 a6 5d ea dc 73 ef 3f 2d 8d 53 84 15 d6 ef 3f
       0.9828934266526589 0.9948833069323989
0000c0 33 aa 0c 9b cd 25 f0 3f c5 99 43 77 e3 92 f0 3f
       1.0092292839641572 1.0358614596130888
0000d0 e5 1c b9 78 ae 12 f0 3f a6 30 e4 c3 af 49 f0 3f
       1.0045609203096373 1.0179898883825813
0000e0 61 8c f5 31 e5 3f f0 3f 66 04 c4 4d 96 f3 ef 3f
       1.0155994369058805 0.9984847563611197
0000f0 5e a0 36 81 73 28 f0 3f 57 6a 7c 9f d0 1c f0 3f
       1.0098757789037545 1.0070348958894522
000100 1c 5b cc e3 73 58 f0 3f 85 40 ca af 50 8f ef 3f
       1.0215948961610541 0.9862445290946346
000110 36 48 58 c5 d0 d9 ef 3f 3a 93 2d 6d a3 55 f0 3f
       0.9953388075248373 1.0209078087584218
000120 9d aa 46 b4 51 af ef 3f bd 49 52 35 05 18 f0 3f
       0.9901512642876075 1.0058643420094164
000130 6f ed f7 39 1a 43 ef 3f 5c b1 b6 78 8d 54 ef 3f
       0.9769412166782966 0.9790713651359897
000140 73 6e 8b 23 9f d9 ef 3f 33 b5 67 c4 25 17 f0 3f
       0.9953151411277318 1.0056512519907528
000150 0b fc 40 6f 14 35 f0 3f f8 3e b0 36 f3 a0 ef 3f
       1.0129589410642008 0.9883972232946396
000160 52 8c 26 2e 44 b6 ef 3f 96 74 4e 8e a3 75 ef 3f
       0.9909993077639092 0.9831102160857366
000170 5b 8d c2 be c3 4e ef 3f 78 76 84 95 5d 7f ef 3f
       0.9783648229389813 0.9842975540411336
000180 63 30 00 73 5d 90 ef 3f bb ce 03 7c 35 68 ef 3f
       0.9863726850612803 0.9814708158650868
000190 9b 14 87 84 73 6a ef 3f c1 2d 4f 65 1b 98 ef 3f
       0.981744536250193 0.9873177508065326
0001a0 aa ac 49 be a2 1f f0 3f eb 61 1a 36 a1 72 ef 3f
       1.0077235634915191 0.9827428871822667
0001b0 12 24 7c 93 09 77 f0 3f 33 a8 1f 76 1d e8 ef 3f
       1.0290618668680094 0.9970843608000507
0001c0 10 90 c6 98 3c 53 f0 3f b7 d3 c2 c1 bf 85 ef 3f
       1.020321461467578 0.9850767883677837
0001d0 1a fc 2d a9 80 1b f0 3f 43 f7 b3 c8 ca 70 f0 3f
       1.006714497430727 1.0275371398888218
0001e0 31 a1 41 a7 d4 ee ef 3f 29 d6 c5 fc db 54 f0 3f
       0.9979041353917976 1.020717608827349
0001f0 84 6a 10 1a f9 9a ef 3f 45 f2 c3 4a 4c d0 ef 3f
       0.9876676091256091 0.9941770038854619

encoder.1.1.bias f8 [64]
000000 ff 58 3f b3 6f d0 8e 3f b6 5d 63 81 11 b8 86 3f
       0.015045998246858703 0.01109327007399839
000010 72 9f d0 bc 3d 2c 63 bf de bb db de ce 97 52 3f
       -0.0023404317676244896 0.0011348266811486078
000020 73 a4 66 e1 76 0a 85 3f e6 46 3b ca 03 33 a0 bf
       0.010273865464869502 -0.03163921207091196
000030 ea 2e d7 2f 8f 17 72 bf da 32 c1 ba 5b e0 53 bf
       -0.004416999171961792 -0.001213159160232616
000040 1e 05 b3 c0 96 0d a2 3f 1a 51 cd 9f a6 c6 90 bf
       0.03525992491041506 -0.01638279295305365
000050 fc fc a0 c6 39 93 6b 3f a7 3f de 0e bb aa 37 3f
       0.0033661011157445336 0.0003611284909021913
000060 08 5e e2 ab 4c f0 92 bf 22 bc 1c 50 28 a9 81 3f
       -0.018494794836980716 0.008623423523742405
000070 7b a5 bb d3 65 4f 7e bf 91 02 4b d5 c2 2a 70 3f
       -0.007399938356436815 0.003947030131428734
000080 9a 50 6b 01 0a 6e 95 3f 10 75 c7 b8 5c 14 94 bf
       0.02092757829343892 -0.019608925607703276
000090 c0 2e fd 08 0f 36 5a bf db ab 93 78 3c bf 78 3f
       -0.0015998026683118755 0.006041752066475471
0000a0 be 10 31 ca 07 67 7a 3f ba 44 60 86 62 c3 80 bf
       0.006445913723897854 -0.008185167051154674
0000b0 46 12 fe da 6e cb 88 3f 4a 6c e4 20 61 1c 64 3f
       0.01210676770984621 0.002454938606331979
0000c0 63 7f a8 70 8a 36 7e 3f ba 5a 2f a3 0d b1 8c 3f
       0.007376232892539611 0.014009577314863509
0000d0 24 44 fd 7e b1 c7 92 3f 30 49 ea f9 cf a0 8f 3f
       0.018339894653142022 0.015443444074922569
0000e0 93 0e 00 8d 8b 56 8c 3f 39 75 2e 7f 59 3d 63 bf
       0.013836946716771414 -0.002348589704935702
0000f0 cb 8c 3e 97 99 22 83 3f 32 86 db b2 eb a7 7d 3f
       0.009343337944136462 0.007240219781779399
000100 41 fd d5 1c 4a 81 80 bf b9 5e 74 b7 15 e5 84 3f
       -0.008059100155832001 0.01020256963833731
000110 01 ff ea dd 65 08 8b 3f f9 26 2c 95 d5 b0 95 3f
       0.013199611506365285 0.021182381849064822
000120 7a 3e 47 46 91 0b 75 3f 5a 56 dd 75 4d b2 89 bf
       0.005137984732257567 -0.01254711643165789
000130 87 d2 da c2 06 59 7c 3f 13 31 b7 d5 ee 75 94 bf
       0.006920839701412113 -0.019981128496327005
000140 d3 8c 8a 15 f0 ab 8c bf 6c 6a f0 6a aa de 81 3f
       -0.013999820382485961 0.008725482357523982
000150 5e aa c7 e9 53 ef 99 3f de a1 78 c3 27 2a 92 bf
       0.025327025550647135 -0.017738934808365296
000160 64 f3 79 e9 17 85 82 3f 4a 1b f9 aa a9 b7 9a bf
       0.009042918026574483 -0.026091242847793773
000170 93 41 b8 3b 20 e1 75 3f f2 62 dd 1e b4 f0 79 bf
       0.005341649924517705 -0.006333068462333046
000180 ce 91 7e 5a a6 de 62 3f e4 f1 ad ad d2 a8 79 bf
       0.0023034333316493743 -0.0062645177484878835
000190 3f a2 fb 59 7a 8f 80 3f 3e 79 92 33 6c a8 88 bf
       0.00808616244417337 -0.012039990733964442
0001a0 51 75 51 0e 3b ee 85 3f a4 e8 6a 88 68 2f 75 bf
       0.010708295225578953 -0.005172165233199664
0001b0 96 d4 9a b1 60 d5 7c 3f d7 ef df 99 aa cf 77 3f
       0.007039430341753269 0.0058132804970192
0001c0 88 5b e7 ce 58 f5 84 3f 18 9c 74 16 fe 30 6b bf
       0.010233587087822973 -0.0033192598963469704
0001d0 42 51 d7 dd bd 2c 99 3f 1d 03 5a 41 bc 07 a8 3f
       0.02458473841200371 0.04693401620625635
0001e0 c1 19 11 e8 e0 7e 6b bf 62 78 ba 00 1e e1 65 3f
       -0.0033563988404552163 0.002670820807749983
0001f0 0a af 5c 27 73 98 8f bf 44 97 cd 3d 5d aa 67 bf
       -0.015427493704542456 -0.0028888531800700685
