models/matching_nets/DF_n=1_k=5_q=15_nv=10_kv=10_qv=1_dist=cosine_fce=None.pth (torch, 316367 bytes, 24 tensors)

encoder.0.0.weight f8 [64, 1, 3]
00000000: 0e30 d157 264a c33f 75d2 6f35 fd37 9d3f
00000010: 38f2 9237 c52f 9bbf 238c 5cb9 5bd8 c63f
00000020: 9b53 4f83 e191 6dbf a890 6599 f252 d73f
00000030: 9040 e5e5 f252 97bf 1905 25a1 f5d4 c43f
00000040: ad83 ac72 b694 d23f 1b77 27e9 654f de3f
00000050: d1ca 6e3a d836 c7bf 6345 8abb 34fe 813f
00000060: a8e0 4b72 0147 b7bf 9c47 2cef c628 953f
00000070: 1550 e3d2 db0d df3f 2d22 0575 34af d4bf
00000080: 6ac8 9918 e5fa d4bf 8a59 ecd0 7088 de3f
00000090: ca7c b157 b4bc d73f 5500 cd59 e758 d5bf
000000a0: 0131 690e 5740 ce3f 0d38 d64f e533 b0bf
000000b0: 70b2 3643 1864 d13f bf7a 53b9 3853 ca3f
000000c0: 73e0 34df 5dff d23f cabb f864 052c d13f
000000d0: c7e2 37fa 5dc8 dd3f e4ab eed0 5839 d4bf
000000e0: b391 db5b ed3e d03f 861b 0b4f 9c76 e2bf
000000f0: c073 2012 cc5f 76bf 01c3 881a 53b2 e03f
00000100: ccd4 1d1d a574 c2bf c6b2 02eb 1ae7 89bf
00000110: 874e c9de fdcf c1bf 7f06 3f38 2f94 de3f
00000120: c5c7 cc52 2e1d d83f d8e0 1d9b c347 7dbf
00000130: 6b45 d892 bbe8 c3bf 1fcc e052 15da b8bf
00000140: d2db 437c 7e2e ddbf 17ec 1788 2b33 7dbf
00000150: 61f6 fe80 ac15 debf c5b6 d3ce 94b4 cdbf
00000160: 46d6 7d70 435f c93f 868d eea2 f41b ce3f
00000170: 038c edaa 3258 c83f 938c 39d7 73db d7bf
00000180: 1715 eb66 3dea c8bf 4683 813e a343 c83f
00000190: d063 17d8 f059 d43f 439c b220 0bf9 b53f
000001a0: 0752 9c84 746b cabf 8399 4173 7bec c0bf
000001b0: 4aaf d441 0b02 df3f 1ff9 1a26 0b2d e03f
000001c0: 1252 b851 67cc dc3f 62f9 ce68 3168 d23f
000001d0: e5b7 ac67 8526 d43f da43 fb2e 3224 e0bf
000001e0: 2d38 4989 8f80 c13f 2e70 1d0b 44a5 90bf
000001f0: 6d46 8004 c50c d0bf c8bf a20c a03f c3bf
00000200: 75e1 a66f 10d6 bd3f bf54 a120 b92a c0bf
00000210: 2f3e cf68 5ec7 de3f 3e81 d6f3 fec7 d53f
00000220: 8830 9ee5 6766 dd3f 9a0c 5600 40e6 d2bf
00000230: 4e65 9bd0 bde6 b93f 3a23 76e9 38b1 b93f
00000240: c6cf 0c95 79af cbbf c0ce e08c e7d1 de3f
00000250: 91ab a73a be1b e23f 9dc3 2b77 1344 d93f
00000260: 5cc6 4ad0 4257 c1bf a1e3 4d30 ba1e e03f
00000270: af46 505e f27e e1bf 3cef 2aed 9ad7 cdbf
00000280: a348 fe1e 997d a4bf 8e3e 2f42 8c6f aa3f
00000290: 527c b00a e8f4 c93f 7e2b 5e5a 895a d43f
000002a0: 86e5 fb29 3193 d4bf c51c bb81 36bb d3bf
000002b0: 3f57 5382 ea9a c8bf ddf0 62a8 3922 df3f
000002c0: 347d 7216 5b95 e0bf f63d c28f 5486 d2bf
000002d0: 5e81 fafe 8d07 e1bf a868 ff0c fff0 c73f
000002e0: 2680 6a56 89a0 debf 2178 9f28 6a5c c23f
000002f0: d9ad 8b21 d9c6 e1bf 5143 6bb1 5947 e3bf
00000300: 3aea dade 87c7 bdbf 6611 d77f 3388 cf3f
00000310: dc3f 0498 1eb2 ddbf 41eb a0fd 9793 d5bf
00000320: 4d37 55c7 9e04 d43f 3023 f093 a5ca a5bf
00000330: d5eb 2661 60bd bc3f 838e 008c 7faa c5bf
00000340: 9370 d93d deae ccbf fc81 8c8f 337e adbf
00000350: 12db e0b4 fe31 adbf a906 daa7 25e0 c13f
00000360: 3e2c 9a89 0e0b e03f 4013 bbd5 a4cd b63f
00000370: 136e eefa e794 cfbf 0174 0f9f a2e2 bebf
00000380: bb4a 7d25 081c ddbf 1912 88f9 43a9 d3bf
00000390: d190 16ec fef5 cd3f 0368 5cf5 70a4 b4bf
000003a0: 8f19 6f17 5c6a cebf 0de7 0135 2241 973f
000003b0: 5b3d e615 4c9f cc3f 3ddc 4cc3 3cad d1bf
000003c0: 11f3 7e22 7333 e03f e502 94bd 765d d9bf
000003d0: 722d d0da 974b bdbf 5d90 3861 4cc5 d93f
000003e0: e2ac ab44 0367 d9bf e9b3 bc77 2e99 c23f
000003f0: 9682 7d9e f922 d6bf d5bd 362a 968f b0bf
00000400: cd8b 51d6 f85b debf f5bc a748 8b4c d33f
00000410: 8053 cc84 34ab da3f 462a 4f03 8286 de3f
00000420: 4e2d f561 c0f1 d83f f5f0 22f1 85f3 c8bf
00000430: 902a 8d8c 14eb bebf 8499 ebab e50f d03f
00000440: 9d05 ad29 a486 c83f 0b06 8202 77ab 9fbf
00000450: eb0f 0420 ecdd bdbf ad4e c2cf 5fc1 cabf
00000460: 68ca 112a f596 d83f 5c0a 3af1 9d05 ddbf
00000470: 8f6c 8836 96eb e23f 4a8c 3193 f65c d7bf
00000480: 1362 c051 b9c1 ccbf 7a44 82b4 b4a2 d2bf
00000490: a48c 75b9 94e0 9e3f 4e12 6547 47b1 dd3f
000004a0: 18ba ab06 8959 cdbf 61e2 48d5 87a8 e2bf
000004b0: 2dc5 d148 9f03 d8bf d7cb be59 3f69 df3f
000004c0: d6c6 ce44 58ce d1bf 4c25 ff92 4886 d43f
000004d0: b2c1 d304 6da0 7cbf 9e01 3e54 cb14 c7bf
000004e0: f0c3 f601 1491 db3f 4ed1 b4c8 34b8 debf
000004f0: c4b7 4e1e d6b6 babf c82d 8f6b 8587 b7bf
00000500: ed67 ca6a faaa babf 6e9a 0153 4cc2 a7bf
00000510: f20a 17f0 a3ad e13f 6c55 c2d6 2c15 913f
00000520: 6202 3411 23cf aabf fec4 571b e5e4 dd3f
00000530: 4261 f0ff fe4f 8dbf d136 613f 237b 92bf
00000540: 41fc 15de c575 aebf 6261 1374 e463 debf
00000550: 84ab 66bb ac6b cd3f 560b 2bcd 055c b5bf
00000560: df1a 4eaf 79f6 d0bf 663e 7ad3 53f4 b2bf
00000570: 236b 04d8 7f43 e1bf 31e7 1e24 b968 c53f
00000580: d1d5 422d bd3c c4bf 2d6d 5b2f 29a2 dfbf
00000590: 9c7d 77b2 7ba4 8dbf 7561 81ce 5b17 d13f
000005a0: 99c2 9b4d c5ae d9bf 245c edb1 95ce dc3f
000005b0: 6fcd a0d0 2e03 bdbf aab6 1b98 e3a5 d03f
000005c0: 6e88 a4c3 5b43 da3f ff28 4e8f 75c7 dd3f
000005d0: 37ba db60 2fc6 d93f a59b cfac 1d8c c9bf
000005e0: 5bdc 04c8 ebe7 e0bf 154e f459 7a27 dcbf
000005f0: 3e95 d760 1144 dfbf 4584 48f2 1850 d1bf
0.15070037162729516 0.028533893953822848 -0.026549417035072603 0.17847773123603003 -0.0036096005010030747 0.36443772297048804 -0.022777362138470425 0.16274900787724603
0.29032670210477357 0.4735960747619729 -0.18136122563517756 0.008785640691061308 -0.0909272102397859 0.020663364742240384 0.48522086710477313 -0.3231936590932801
-0.32781340982831486 0.4770776787057903 0.3708926063899979 -0.333551252075272 0.23633850291879102 -0.06329186629429291 0.27173430026849754 0.20566472100377628
0.2968363456489051 0.26831183300504036 0.46535443721181163 -0.3160001793245881 0.25384077043988923 -0.5769788307014643 -0.005462453033058645 0.5217681425329773
-0.14418472215371592 -0.01264782933898213 -0.13915990236511197 0.47779446118156693 0.37678106389932636 -0.007148517690318289 -0.1555399386420889 -0.09707768700973006
-0.45596277365933446 -0.007128877683039845 -0.4700728664136929 -0.23207340334868412 0.19821970932723526 0.235228137547079 0.1901915869339917 -0.3727693177990627
-0.19464843297297627 0.18956413795515398 0.3179895506160024 0.08583135174068084 -0.206404270888598 -0.13221686485048786 0.48449975422658 0.5054984802480113
0.4499758050963304 0.2876094363708913 0.31485114216309135 -0.5044184606177808 0.1367358608571875 -0.01625543897476705 -0.2507793945270354 -0.15037918679217754
0.11654761052966996 -0.12630380719443754 0.4809185050516786 0.34033178150459154 0.45937535689950737 -0.29530334503960776 0.10117708533234301 0.10036044788115542
-0.21629256990274665 0.48156155355102825 0.5658866067509384 0.39478003156460223 -0.13547549410354776 0.5037508910601113 -0.5467464296400147 -0.23314224796728833
-0.04002073767982608 0.05163229282299851 0.20278645059531414 0.3180259115694567 -0.32148388957974594 -0.3083015696433445 -0.19222766269256827 0.4864639419936461
-0.5182319105551074 -0.2894488719839211 -0.5321722011613408 0.18704212317135682 -0.4785483688265252 0.14344527228871676 -0.5555234580219192 -0.6024597611632122
-0.11632584753798705 0.24634402982895692 -0.4639965519463638 -0.3371334053842255 0.31278199640370447 -0.04256169730076065 0.11226465579868201 -0.16926569305461578
-0.2240865518568894 -0.05760346534066582 -0.05702205617892821 0.13965292640573537 0.5013497054618552 0.08907537668262666 -0.24673175575740966 -0.1206456793147055
-0.4548359266383774 -0.3072061478453932 0.23406969573728145 -0.08063417425401558 -0.2376208414481877 0.022709402547184832 0.2236113650255714 -0.2761985690335143
0.5062804864643075 -0.3963295794820126 -0.11443471042746525 0.4026671361373298 -0.39691240030397357 0.14529972883738587 -0.34588470914426617 -0.06469095736132797
-0.4743635266260611 0.3015468797229482 0.4166995331627774 0.476959708434752 0.38975534025367586 -0.19493173860781324 -0.12077454024726308 0.2509702853116311
0.19160892519907416 -0.03092752411658321 -0.11666751653325462 -0.20902631420596177 0.38421372516965 -0.4534678321580594 0.5912581505866842 -0.36504902243013204
-0.224661984365199 -0.29118077876871207 0.030153583354501592 0.463945216866965 -0.22929489923213064 -0.5830725827900772 -0.37522108184119213 0.49079879535855525
-0.2782192871046453 0.3206960139765058 -0.006988931517512164 -0.18032209027661578 0.43072986785688183 -0.4799930534384388 -0.1043523620598697 -0.09191163898429189
-0.10417142016595422 -0.046404252178764746 0.552446335721781 0.016682339294296453 -0.052361579751963885 0.46709563894462736 -0.014312736688268605 -0.01804785799350023
-0.05949228607186586 -0.4748469480087093 0.22984847212259407 -0.08343540438640437 -0.26504366035116605 -0.0740406409552122 -0.5394896716200929 0.16725839866358563
-0.15810360631955558 -0.4942725145790117 -0.014473883041261008 0.2670506970075828 -0.40129215792607337 0.4501089322633922 -0.11332981675587005 0.26012506346055864
0.4103612337659176 0.465299024530978 0.40272125681704857 -0.19958849847827512 -0.5283106714840743 -0.439909541936886 -0.4885295339320982 -0.27051376018977563

encoder.0.0.bias f8 [64]
00000000: edf3 1780 cbbb c73f 5697 5100 22b3 aa3f
00000010: 911e 02e0 3370 e1bf 7ac3 fa7f ebe8 dd3f
00000020: 2098 f43f cd0e d5bf 08a3 0f80 e66d c1bf
00000030: 8ff4 0900 4621 ddbf e81e 7fff a94c b73f
00000040: 8713 0640 9f7a c7bf a83f 0820 c7d7 d6bf
00000050: bb70 1980 8ef1 c23f 9e45 0f20 e534 d4bf
00000060: a730 02c0 7962 e13f 7fa9 0600 7d01 e23f
00000070: dfdc 2100 280e d03f eb71 d37f 4355 c03f
00000080: 2de4 1a80 dd76 bdbf 0877 f73f efb8 e13f
00000090: 4779 fc3f 9ef7 ddbf d806 1400 bb32 cd3f
000000a0: bc23 22c0 e5e8 da3f 613d f57f aae9 cf3f
000000b0: 51e2 f7bf 0616 d63f b6c2 e6ff 8167 d13f
000000c0: 9691 0780 c0cd d33f ba2b ffff 1821 c2bf
000000d0: 289c e4bf 5721 dfbf da02 e57f 69bb c13f
000000e0: 1478 1500 d45e dd3f 445d f17f e515 dd3f
000000f0: c790 f87f c9d4 b6bf 290c 0300 e86f df3f
00000100: 5a5d 4a00 b720 b43f d5c8 1fe0 7c2e debf
00000110: b424 e5ff cb6e d73f c4df d65f a6a7 dfbf
00000120: b5b5 00c0 75e4 d53f 2702 eebf 127d debf
00000130: 374e bf7f 2790 dd3f 7b88 c2ff f59d df3f
00000140: f3d9 1580 3d15 d63f 3c8a f87f f561 e23f
00000150: 45a1 4c00 d3e4 b63f edc4 fc7f b959 d93f
00000160: 2ca4 cfff 7162 afbf 4709 efff 1a1b c63f
00000170: 6795 e83f f5f7 dcbf dcbf dcff 9c9a cabf
00000180: 2ee5 2200 8bab c43f ce00 0480 7c50 dd3f
00000190: e279 bd7f 8bcf c73f 57f5 4200 f0f3 a7bf
000001a0: f4a3 17e0 68b2 dfbf 9624 2f00 c860 b33f
000001b0: 406b 03e0 eebd d4bf adbe ee7f 6dca c7bf
000001c0: 6649 aa3f 1811 c9bf 2ea2 5d00 8dcd bf3f
000001d0: f58c 0400 eb51 dc3f ee6a abff 5293 ca3f
000001e0: 09c8 f3ff ba36 e1bf 2316 fbbf 8392 dfbf
000001f0: 96f4 2f00 c06d c83f cc2a 05c0 89f2 d3bf
0.18541854624336854 0.052147924937158294 -0.5449466109430025 0.46734130380632843 -0.3290284275593667 -0.1361663937853097 -0.4551558494930043 0.0910135506411468
-0.18342962862166365 -0.35692003372332204 0.14799672369816172 -0.31572845583749565 0.5432709455649459 0.5626816750057485 0.25086402905385613 0.1276020406866246
-0.11509498956265025 0.5538250207279996 -0.46823841332106436 0.2281106710798244 0.4204649330427477 0.24931842086742065 0.3450943827333833 0.27194261541721276
0.3094331026352618 -0.14163506030885548 -0.48641008128692187 0.13853186364033016 0.4589128495043735 0.4544614552919095 -0.08918437361041064 0.4912052154651883
0.07862418896762816 -0.47158738982319665 0.3661375044799329 -0.4946075378352328 0.3420690894152714 -0.4763838648141551 0.4619234797985174 0.4940161702780938
0.34504640110335955 0.5744578837805601 0.08942908055599215 0.3961013555409199 -0.061297953106823705 0.17270219322933597 -0.4526341556650863 -0.2078434228255891
0.16148507601409662 0.4580374956276615 0.18602126824676107 -0.04678297045891593 -0.4952642620469867 0.07569551472183131 -0.32409259678177094 -0.18586510416706883
-0.19583418949748505 0.12423020609788502 0.4424998760388939 0.2076209782015534 -0.5379309653346819 -0.4933175444424213 0.19084930428644914 -0.3116783499905693

encoder.0.1.weight f8 [64]
00000000: 9401 9577 181b f03f d414 bb26 e276 f03f
00000010: 00ed 64dc bd24 f03f c8ab c4f6 2575 f03f
00000020: ec94 a890 c837 f03f 1be0 019f 3401 f03f
00000030: dc41 fa22 f138 f03f 7af7 bc0c 5c36 f03f
00000040: 3991 386f a9e9 ef3f 10b4 e4d7 7e11 f03f
00000050: 8914 824f ce16 f03f 4d21 0df4 e92b f03f
00000060: a3e8 1239 55e8 ef3f ed40 39b9 181a f03f
00000070: 83ef 4148 b345 ef3f 4f34 77e8 36cf ef3f
00000080: 1a29 adcd 1cef ef3f 36bf 8e02 300d f03f
00000090: f502 fc1c df1a f03f a641 26b9 1b9f ef3f
000000a0: 5424 37e3 4a89 ef3f 8458 9b49 38ee ee3f
000000b0: b5e0 85b6 c50e f03f baea d22e 1174 ef3f
000000c0: 9585 ccce 5f1a f03f b2bd 26d5 8a6d f03f
000000d0: 9dde 37bb c3cb ef3f 87c8 ee04 202b f03f
000000e0: eef0 60cd a614 f03f ceb9 91de b69c ef3f
000000f0: d10b e35d 6d0e f03f 7b17 5188 b726 f03f
00000100: 0449 a787 0996 ef3f d39f 3038 e4b8 ef3f
00000110: 2585 6b8a c68b ef3f 5672 f44a e667 f03f
00000120: b5d3 ee6c 8733 ef3f ec3d a266 710f f03f
00000130: b5f4 684b 47c1 ef3f 5e65 c9db f385 ef3f
00000140: 9643 0335 cb11 f03f 1f51 6c3b c433 f03f
00000150: b9b8 bbda 1e24 f03f 3615 799a 5abd ef3f
00000160: ac58 66ea a805 f03f fe1e c987 479c ef3f
00000170: a1dc 8753 8a70 f03f cea4 5836 c5b6 ef3f
00000180: 9255 c40e 28b9 ef3f 0995 1289 dde2 ef3f
00000190: 277e 095c 177c ef3f 0656 760f 84ba ef3f
000001a0: 61bc f6d2 2c4f ef3f 06d5 9b96 e119 f03f
000001b0: a170 41e7 420e f03f ba4d ff26 1c08 f03f
000001c0: 5d24 45e8 94f2 ef3f c88b 965b a092 ef3f
000001d0: e3de ead2 f8f4 ef3f fcdc 4e88 83b5 ef3f
000001e0: 4017 ddf5 228f ef3f c79b 3908 1d02 f03f
000001f0: ba3e 42f0 d5ea ef3f 3ca2 e89e 6047 f03f
1.0066151305364643 1.0290242684289312 1.0089701279783299 1.0286006583580605 1.0136190081332712 1.0002943240379014 1.0139018408118465 1.0132713792404204
0.997273175457429 1.0042713578543534 1.0055678468500295 1.0107211621526233 0.9971109499667999 1.0063712344454487 0.9772583400040137 0.9940447368950432
0.9979385392300941 1.0032196140200091 1.0065604335979377 0.9881723991584763 0.9855093419838661 0.9665795743592445 1.0036065225413442 0.9829183496979887
1.006439025696044 1.0267437292312533 0.9936236054044972 1.0105285828290407 1.0050418875317138 0.9878801676803108 1.0035222690064425 1.0094523739694228
0.9870650910836791 0.9913197610339871 0.9858124450221665 1.025366108696422 0.9750401618572285 1.0037702569132945 0.9923435662127732 0.9851016323765796
1.0043441839991138 1.0126383134093613 1.0088184875744857 0.991864492135085 1.0013817936174219 0.9878270771086759 1.0274756682318087 0.9910608350229724
0.99135210880438 0.9964435269545514 0.9838978574370615 0.991518049430568 0.9784149284731819 1.006318653407392 1.0034817727492185 1.0019799731570473
0.9983620201611633 0.9866487301663875 0.9986538047296246 0.9909074461237704 0.9862227251075879 1.0005159684458123 0.9974164669565291 1.0174261290905084

encoder.0.1.bias f8 [64]
00000000: 290c 5c1a 0840 923f 5432 2d17 8895 9a3f
00000010: a8ae fa4b 838b 973f 25c2 a6f8 6431 913f
00000020: 2328 6265 b61b 9f3f 9c3b ebe9 997f 92bf
00000030: e338 bc9a 550f 9f3f 10b0 474b 5539 9d3f
00000040: 48b0 4776 e1ab 8a3f 9eb1 8e68 a28c 903f
00000050: c3f6 e1ed d2d5 9b3f bad5 b76d 9f8f 763f
00000060: e502 40e1 3d2b 70bf d590 2e1f 933c 713f
00000070: 33c2 e035 e589 96bf 74a7 c778 9140 7dbf
00000080: 2602 3618 a7f2 933f bc97 fb6b 30e8 763f
00000090: fd0a ffe5 d8b0 903f 4dbe 5518 6ff8 803f
000000a0: 1d38 24b2 dcbf 793f 421b 150c cddf 92bf
000000b0: b98e 23ac 9cc8 77bf 1908 74ad 0bf4 9dbf
000000c0: a548 bd34 e89f 963f 531b 223c 2ccf 893f
000000d0: 1c63 7183 baea 83bf 4e66 7f0a 6d45 963f
000000e0: ab36 9479 ab46 8cbf 63d5 3e58 4ae8 5e3f
000000f0: ffb7 98d5 c67b 473f b4e3 7651 2420 703f
00000100: 7bb8 40f0 2098 883f 6116 4b4d 8085 95bf
00000110: 0fda c56e 7ce8 85bf 89dd 8d6c a7f3 9e3f
00000120: cbc4 82d9 06fc 84bf 4ea9 e130 80fd 743f
00000130: 9da6 e908 a1d3 833f 395d 8dae f97c 823f
00000140: 4109 6dbe b5fa 5cbf f4d7 093c 6800 983f
00000150: eb98 f6f0 3933 713f cfb1 e9d8 b9f1 78bf
00000160: 4baa 478d d3c4 53bf 3243 4229 99bd 5e3f
00000170: 5490 b5cc 71d8 903f 6efe b272 2988 97bf
00000180: 4dd7 aac1 b17b 80bf 2075 d1d0 6717 53bf
00000190: ba18 7459 3605 8cbf fa79 9131 a42f 8b3f
000001a0: 3090 496d 51ec 90bf 80c2 fbed da4c 753f
000001b0: 65f2 610b d70f 673f c6fe d21c 09e6 7a3f
000001c0: c765 8a9c 430f 7c3f 527c a2fc 9483 8dbf
000001d0: 91f2 121f f4d5 733f 8863 9a0e 8ebe 63bf
000001e0: d494 61df c72e a3bf d0c7 a414 9552 783f
000001f0: d595 d050 64aa 873f 4ce1 cd20 15a4 7e3f
0.017822386368617913 0.025961042799553205 0.022993136894611382 0.01678998725555138 0.030379152238801176 -0.018064885046267784 0.03033193356446241 0.028539021224716576
0.01302314893924729 0.016161477691342456 0.027182861108022715 0.005508063095012112 -0.003947488516133223 0.004208159155414577 -0.02201040402741423 -0.007141655205922127
0.01948033414146457 0.0055925265766968955 0.016299618757112267 0.008286350183623581 0.006286489575598989 -0.0184318579315701 -0.00580655288851844 -0.02925127264189351
0.02209437200446786 0.012602181992645766 -0.009725052963561569 0.021749213948942185 -0.013806666991992364 0.0018864370367571374 0.0007166596289545079 0.003936902874038962
0.012008912403043795 -0.02101707908402373 -0.010697338228721013 0.030226341248150077 -0.010246327889350223 0.005124569650528278 0.00968099411439321 0.009027434005175127
-0.0017687582819268662 0.023439053215461983 0.0041992438631608215 -0.006089902845456809 -0.0012065950332905858 0.001876258441402889 0.016450670356235556 -0.022980353952105785
-0.008048428271063246 -0.0011652482819706836 -0.013681816677955861 0.013274462473586535 -0.016526481910105584 0.005200247949446735 0.0028151702963994823 0.006567035289833439
0.006850494487161857 -0.014411128959464534 0.00484271392741377 -0.0024101995994211846 -0.037466283815584284 0.005938131662604776 0.011555465427657655 0.007480700046351107

encoder.0.1.running_mean f8 [64]
00000000: 7d1a 8d3f 56aa ce3f 2cce e7c4 21c1 cf3f
00000010: aa83 b40a 5fe8 d8bf 602f 2261 df7c e23f
00000020: 9c9d 408c 65e2 c6bf 4d62 e91a 27b2 c9bf
00000030: a82a fc32 6bb3 d6bf 4979 9371 09e8 ce3f
00000040: f375 8443 0957 c83f a07b fd4a 8dd5 e2bf
00000050: e608 3e5a b70c d23f e86a 4780 bc20 c9bf
00000060: c6e0 c981 4edd e33f 2393 5a37 8bff d63f
00000070: 4b1a ac93 4b67 b13f 9247 a5f2 fdd2 c23f
00000080: 1112 6f01 ef7b 52bf f46a e88f b69e dd3f
00000090: 46e9 6edf 2878 ab3f d90b 2d70 9df3 d03f
000000a0: e737 0d12 71f1 d73f 0ed9 d440 d070 c83f
000000b0: d847 5fac 3be5 e93f a0e5 66ff 9f2b ce3f
000000c0: d066 3057 a18d e33f f5cb 4b3d 116b c13f
000000d0: 8f65 c3c1 fd0b e9bf 8e20 fb44 2b24 d63f
000000e0: 99c9 74bb 069b c43f 07f5 ed12 f6a0 d53f
000000f0: 8992 c432 deb8 d8bf 1f41 2512 18ff bf3f
00000100: 5ee0 922d 44d7 a4bf e6f5 fd79 82d8 dfbf
00000110: 0cdf 1f59 c4e8 d03f f576 f2ff 03f2 debf
00000120: b5bf 1570 18df dd3f ee65 b228 d87a e9bf
00000130: 4817 74a6 fda8 db3f 4d83 6b22 66f7 de3f
00000140: 0799 0bfb 33e6 d53f fdff 391c 0428 e43f
00000150: 35a6 4e81 aca1 cdbf 1024 6dfe 278a ea3f
00000160: 6d70 546b 9b38 a1bf 568c 5dc7 f496 d43f
00000170: 89ea 5c18 2578 dbbf 9e22 762c 58a3 d2bf
00000180: 06e4 6b35 10f5 89bf 932c a747 e64a d53f
00000190: 791f 884a f614 c03f 2cea 7ca9 da81 543f
000001a0: 0fc5 886b 5aa8 e1bf c56a 7043 b5a0 88bf
000001b0: 5087 d1c0 d68d c1bf cec1 1cf5 aabf 9cbf
000001c0: 070c 8d0c 54a1 d3bf c96b 480b 563a 9dbf
000001d0: 985b eb99 dc05 d03f 6d2b 1e61 75c0 be3f
000001e0: 9488 9359 e306 e2bf a395 d4be 4dd7 b4bf
000001f0: 70a7 7efb cc4f b33f 53ae 063e 02e1 e7bf
0.23957326987347818 0.24808141817594398 -0.38918281598494764 0.5777432343615878 -0.17878407810461006 -0.20074929060025895 -0.35470085124021944 0.24145620389658465
0.1901561336207319 -0.5885683502818786 0.28202613651968844 -0.19631153358098818 0.62076497411092 0.35934715657849575 0.06798241000442677 0.14706396434717967
-0.0011281808890412119 0.46281208089355563 0.05365112044769886 0.2648690791576747 0.37411143076758296 0.19094279447171697 0.8092325560230575 0.23570632906721034
0.6110388472472668 0.1360799359605093 -0.7827137741507374 0.34595758186743175 0.16098102715620824 0.33794929359994835 -0.3862834449558155 0.12498617594724636
-0.040704851687622265 -0.4975897017792178 0.2642069692951601 -0.4835214614375752 0.46674166627689867 -0.7962456507549953 0.43218938117239647 0.4838500343449155
0.3421754790891928 0.6298847724247022 -0.23149639428929594 0.8293647736801422 -0.033635002948558014 0.32171363324431945 -0.42920806292719554 -0.29121975271167766
-0.012674452429097382 0.33269650456777206 0.12563971175427094 0.0012516627666189313 -0.5518009281424002 -0.012025276299075025 -0.13714107909168627 -0.02807490464255285
-0.30672169900589136 -0.028542847098019828 0.2503577712172329 0.12012418385545028 -0.5633408307587779 -0.08141027363725199 0.07543641223915443 -0.746216889519426

encoder.0.1.running_var f8 [64]
00000000: 04a8 1cb1 1700 5d3f 6b65 23df 6e9c 913f
00000010: 0602 56cf 4994 873f d893 7b78 d089 893f
00000020: 64e9 81d8 7f0e 903f b9e2 93d5 c2a8 913f
00000030: a0c4 fbf2 4fe5 893f 9756 0dfb 8e3c 873f
00000040: cde4 9488 4dab ac3f bb44 16b8 a978 a03f
00000050: d50f d110 55ab 8f3f 2f7d f6fc 8e61 8a3f
00000060: b810 c070 ba40 803f 31ef 3643 4cff 943f
00000070: 2bc6 7be8 516f 963f 02b7 617d 5e6f 813f
00000080: 95a4 a4d4 ed7d 853f cf06 98d2 6a6d 743f
00000090: 3990 cc3e eab8 bb3f c4c6 1876 a482 903f
000000a0: 94d9 895c 9239 6e3f 8dda d7e1 18dc 653f
000000b0: bf42 13f8 bfe8 b53f af7b 7dba c675 713f
000000c0: 429f bf2f ac9d a93f 5786 c535 3d15 a33f
000000d0: f410 9c43 f659 a43f 7fbd 7c01 6ce0 923f
000000e0: 833a e6cb a948 a23f 6834 e825 f4b7 993f
000000f0: 382e eb57 62ac a63f 22bb 8b19 1a0b b13f
00000100: 1554 6f10 d015 8c3f 0937 9bd8 047c 7d3f
00000110: 4ccb 2e03 9ae4 7a3f 888d d34d 900a 503f
00000120: 05a6 80f2 860b 913f e018 0bc5 44fb a53f
00000130: 6544 a717 591a 733f cd24 c00f a19c 713f
00000140: 3d35 a02a 5413 8e3f 5138 7a1a 033f 883f
00000150: 819c da21 4223 a63f 78db fb41 c83e b33f
00000160: 7908 370c 9882 7e3f 62ae c82b a183 853f
00000170: fac6 31b0 3536 7e3f bcb2 30c5 e153 983f
00000180: b65d 94b9 543e 8d3f f9d9 3e5a 4e25 9c3f
00000190: 9ed2 1099 04e6 8f3f 0e93 92be f972 773f
000001a0: 2407 beac 2af8 8f3f 9d0e 337c 0bb4 693f
000001b0: 74f1 3900 1227 963f 1f01 964c 2b5a 8f3f
000001c0: c82e e989 8b7f 8b3f b2e7 377b c7d9 843f
000001d0: bbbe 330e 8215 973f f334 1ce6 64cb 8c3f
000001e0: 5d06 5d0d cd4f 893f ef64 c9eb f97b b13f
000001f0: ef60 a4a0 3f8c 963f 0ceb a734 cd80 b33f
0.0017700415959986957 0.017198307389525363 0.011513306274310697 0.012469891239968264 0.015680310811583623 0.01724533489775368 0.012644409754530905 0.01134597495699134
0.05599443714386041 0.03217058536677927 0.015463509154990543 0.012881390662015406 0.007935959401955336 0.020505134203389012 0.02190902692286138 0.008513200951906
0.01049409680543282 0.004987160945803828 0.10829032929592665 0.016123361309104536 0.0036895617125153966 0.0026684270840136638 0.08558273130916925 0.00426271084128775
0.0500310714995167 0.03727141648665782 0.03974885535538589 0.01843422659947924 0.03571062673573968 0.025115790189421366 0.04428393672204972 0.06657565234830234
0.013713479520371089 0.007198351793432208 0.006565667735162272 0.0009790810793724753 0.016645535041027077 0.04293265252413092 0.0046637993022652134 0.004299763819298264
0.014685304213367995 0.011838936086203374 0.04323774970298989 0.0751767312138848 0.007448762833009431 0.010504969738654061 0.007375917167438345 0.023757484112297375
0.014279043115080419 0.027486061342381494 0.015575443192667845 0.005724883617550315 0.01561005916278508 0.0031376098937430778 0.021633416427435617 0.015308702730863431
0.01342686667080474 0.010181005904985916 0.022542984120206038 0.01405981852760838 0.012359239549940055 0.06829797750960485 0.022019380740943836 0.0761841062120931

encoder.1.0.weight f8 [64, 64, 3]
00000000: 33ed aca0 43f5 8ebf 965f e103 1135 813f
00000010: cee8 f564 3459 8f3f fb7e c507 56a4 913f
00000020: c8c9 0d85 20c5 b0bf fb60 66e4 1fb1 a03f
00000030: 06f7 8e39 e5c3 983f ce0e debf 2ec3 913f
00000040: 28e1 0be1 bb2d 5bbf 0e9d bfce ab90 aabf
00000050: e905 37a3 4e8d 8d3f 3946 28a8 133d 85bf
00000060: cd85 5894 0c8c 6fbf 45f4 5d6a 0985 a1bf
00000070: 17ad 9368 fd47 a33f d95c 329e 61e0 b03f
00000080: 1a30 6ce8 742b ae3f a4e9 4618 f233 b5bf
00000090: 903c 1ba3 b5a5 a3bf 0547 6042 2064 aabf
000000a0: 6442 3c02 ce69 b3bf 0211 2dba a43e 88bf
000000b0: 3b46 0abf 7c02 853f 90f9 f188 7127 94bf
000000c0: 241a ddc8 cf7d 84bf dbc1 cad3 8ee8 92bf
000000d0: 3b9b e61c 12a6 abbf 9934 8e6b 62fb b1bf
000000e0: ccf6 bf43 00c7 ae3f 2765 bd42 2ab8 a4bf
000000f0: dc03 226e d12c a7bf 0719 f8ba 311a 74bf
00000100: e130 f37a e239 a3bf 7cc6 6cde ce2a 8b3f
00000110: 6fb0 26c3 f365 b3bf fe4e b71e b348 b6bf
00000120: 3a80 8d25 2746 933f ff8d 1839 8083 643f
00000130: 4474 5614 ece3 a0bf bded 4292 467e 9fbf
00000140: e6ce acbc 97cd ac3f 9b81 2af4 5820 b03f
00000150: 95f8 0544 daaa 96bf 63ad 9a9b 43c4 b3bf
00000160: 80c5 9f0a 3935 a8bf 4a5b 667e 857a a2bf
00000170: 541e acdb 98cb b23f 28c6 a901 e155 ab3f
00000180: 7f99 7de6 1a46 a73f a2a4 a215 0d37 973f
00000190: 7f00 66ce 7973 a5bf 2e5d 592f 40f2 a5bf
000001a0: 6cb5 eba9 2c3c 803f d10c 8c15 6812 b43f
000001b0: a739 7e12 93b5 593f 1cca 2631 3943 a13f
000001c0: b0bf 62a3 a12f b3bf a7d0 873e b087 acbf
000001d0: 3ed6 0daa 0b6c ae3f fbeb bb8b b10c a93f
000001e0: 551d 0813 b33b a8bf f120 dfda 460b ac3f
000001f0: 8bcc 9568 652e adbf 7bb5 49c0 0fb6 83bf
00000200: f30f f6d7 c0bc 85bf 48ef 9af0 8f47 8e3f
00000210: a7b9 cbd1 3097 8bbf 701c e6cf 6690 983f
00000220: 5603 499f f5e5 b3bf d42c 4f1e 7a15 943f
00000230: b6b1 f9b7 c7eb a03f df47 215a ad43 a73f
00000240: faea 47fb 1693 683f b987 5234 8b7e 7e3f
00000250: 401e 3e9a 6eb6 883f 9526 ef2a c000 b2bf
00000260: 1723 159d 9272 523f 00fc 37c6 a69b a73f
00000270: 4c09 79e7 a983 b03f 9b89 ce2d 1408 94bf
00000280: 87d0 ce75 7504 9f3f 7d9f c62b c2a1 a9bf
00000290: 76f2 4ed2 d34a 963f 7d4f 840c 4d3b 9b3f
000002a0: 9180 94bf e7f9 833f ca94 97a7 dd90 b2bf
000002b0: 9955 ae9a 1662 a73f 9c64 6cf0 3b83 923f
000002c0: ee2f 0093 cb41 aabf 8586 cda4 3ff9 9bbf
000002d0: 2355 3f88 d3e7 b13f 6cf7 f02d c701 953f
000002e0: 47f6 896e 4779 673f b413 9052 994e a73f
000002f0: 1fad c6f9 25df aebf 02d7 82f7 7323 a93f
00000300: e7ac 9151 39ab 8fbf 9f9c 819d 1a36 afbf
00000310: afb5 a0ee 12ea 763f a1b0 c535 b89b b03f
00000320: 9330 5f80 9051 a5bf d229 2fe1 0cd8 a8bf
00000330: 1600 faea 7c3d 5fbf 4b8e 8915 e128 af3f
00000340: 903c cdd1 0a66 98bf 2cc7 03c7 fb88 96bf
00000350: bfc1 3c85 2566 9ebf b1e6 816b 5a6f a43f
00000360: 9708 609e 4537 95bf 3158 0244 b462 9e3f
00000370: 83f6 b820 05cc 90bf 29b4 8d1b 1e66 9e3f
00000380: 3c7e 0af1 bb06 903f 9a9b ddb2 50ad a13f
00000390: fe0c 50c7 d1c2 993f b009 5ccf 5a69 a4bf
000003a0: 4195 270c 924b afbf b264 c637 fb40 8f3f
000003b0: f2d1 aed5 cff8 9cbf b6d4 a303 3310 92bf
000003c0: a2f5 bcb7 82c6 a4bf 2485 eff3 314e 69bf
000003d0: 9d2a 16d6 6180 503f 7b15 ec91 b30b 9f3f
000003e0: 9e30 2495 789c b5bf 913d 51e6 60e7 84bf
000003f0: 6d6a 0069 7fc8 a1bf a7ab f671 c2bc 90bf
00000400: 39cb 0ecf d3c1 933f 3a33 21d1 eca1 93bf
00000410: fd08 6471 b99a afbf 0373 b31e 7911 a03f
00000420: 10d1 e763 6f2e b1bf 6718 b9ea 94d8 a2bf
00000430: 14b4 ca75 be92 7e3f e48d 87bc 6e03 a23f
00000440: 5b24 033b 0b39 ac3f 2782 9b08 4141 b0bf
00000450: 6545 8662 48ee a0bf 9e89 0ba1 9719 a73f
00000460: e8c9 3921 d291 b1bf 14cf 85ac c734 a73f
00000470: 16ee e5ce f70c a63f 82ab d55e 465a aabf
00000480: 91bd 0c38 b1f6 a73f ec7b e07e 8c82 a93f
00000490: 032c 9d24 0392 923f b265 70b0 c350 90bf
000004a0: a516 6317 ae24 b0bf e565 7ad1 ecee b13f
000004b0: 964c dfa8 a390 82bf 210f db9b f50c a03f
000004c0: 9cf4 60fb 3e98 a2bf 4956 69eb d24f 6a3f
000004d0: 0f5d 0499 c2fb ad3f 2ea2 aacc 91b9 ac3f
000004e0: f5d8 e725 8403 b0bf ea3c ce3e 1b8b 19bf
000004f0: 73e1 60be 8210 8ebf de36 bbce 7184 b03f
00000500: 3896 9c8a bba5 a03f ce25 4a16 c150 b23f
00000510: 8ecc c5e8 2289 b0bf f858 1a26 9a88 a1bf
00000520: 4495 cb5a 40da a1bf 4f12 4131 afd2 7cbf
00000530: 3ad5 51ed cbd1 a2bf 39de 5caa 38a0 8abf
00000540: f776 b832 e543 963f a309 4735 4ee2 a63f
00000550: 9fc1 82be 0807 9c3f 0789 512a 17d2 8a3f
00000560: 4a17 d167 8f8f ae3f 860f 5bb4 924a 8a3f
00000570: 57bc 14b0 b0af 69bf 5cd3 df6f 5193 a2bf
00000580: 4d63 ba8e 92c6 ad3f ce28 b348 356d aa3f
00000590: 3a2b 683e b33b a43f 9c3a 8ed1 19b6 a23f
000005a0: 598b 6d00 6aed a9bf 993f 76f7 8e8c 923f
000005b0: 0de1 74aa 87cb a8bf 0f91 88ac 0b16 92bf
000005c0: 724b a449 5e64 943f dba4 3f05 dcbc b5bf
000005d0: 3403 0acf 2eda a5bf e9a5 723f dee3 b23f
000005e0: 9519 09fc 5606 b23f c817 94bc dd8a 9e3f
000005f0: ae75 49d4 818b 92bf 2147 9ac3 31c4 963f
00000600: 4774 5c6e b185 b4bf 4e01 2046 4983 a1bf
00000610: 7184 7dfd b06c 8a3f 3854 de8a 0475 b3bf
00000620: 0599 f7cb 3656 afbf 1bc1 c9d2 b6e4 b3bf
00000630: ebf2 ed89 4c16 a53f c9e4 b4cc e545 a7bf
00000640: ced2 46ee f4ec aebf 9b3a 7507 c39e b0bf
00000650: 754c 8544 474b 96bf be09 6b08 3ed2 b6bf
00000660: 8c04 0acc 9e0b b0bf 930c 5fe1 95cc 51bf
00000670: ba74 ad15 9aa5 b0bf a0e6 cb86 0744 a33f
00000680: be62 0ed8 d2a6 a6bf 001b dfe9 39cc 903f
00000690: 25a2 61bb 9e94 a9bf 96a0 0b25 59e7 873f
000006a0: 2a73 3d43 d9a0 883f ea7a 3ca2 2d9e aebf
000006b0: da13 e1c4 d1c6 98bf 8d3f 2acf 6a36 b2bf
000006c0: 66bb fabc 11fe b2bf a492 6a37 6b86 a63f
000006d0: a079 c65e c947 b0bf 38a1 937c 5fd2 4b3f
000006e0: 9333 0fd1 c116 b03f 7921 c421 ba8f a2bf
000006f0: 7ea1 2f62 5daf b1bf f480 15b6 d847 a4bf
00000700: 3e25 7fb4 2d1a ac3f 2a8b 71f1 d079 95bf
00000710: de55 8976 3d98 a23f 7bb5 5923 6aef 8f3f
00000720: 0f23 5d26 a871 acbf 6bb4 2600 fa6f ad3f
00000730: fa92 7815 2994 afbf c00f f18d 966a b03f
00000740: f4f4 c317 078e a2bf 0061 b4eb 8fbd a53f
00000750: 100a 6f59 4c63 a13f 6e20 ebad 09f3 a23f
00000760: e24b 6d25 2730 93bf e905 754c f1fb 8f3f
00000770: 8530 ea09 82af b03f a45c 5249 8afd 81bf
00000780: c10a ec10 aa39 9fbf 4376 d64d 47ea b5bf
00000790: d949 d85a 07e3 953f 1f49 f8e2 fd2b b23f
000007a0: 3cf0 588c 5879 b53f 972d 609a ea3b 723f
000007b0: 8f73 6fed a917 97bf 211a 0fe5 1063 b6bf
000007c0: 4260 7fc7 2297 b0bf 9559 85c1 478b 90bf
000007d0: c1e0 ffc5 b75f a93f 766f 19e7 ba95 aa3f
000007e0: 6517 dae8 07eb 743f 6e9e 7165 e717 a43f
000007f0: 6818 5210 2fcb a6bf 8de8 5d8e 721b a3bf
-0.015116241780211403 0.008401997500342689 0.01530686314685106 0.017228454803784193 -0.06550791977296122 0.03260135329327515 0.0241847816830534 0.01734612508836513
-0.001658853030845073 -0.05188500307832032 0.014429678302692888 -0.01037040097165508 -0.0038509603207479205 -0.034218115076307266 0.03765861417363164 0.0659237872335895
0.058925298091793546 -0.08282387821865328 -0.03837363830609164 -0.05154515085463455 -0.07583320192885307 -0.011838232928888196 0.010258650379259318 -0.019681714995834876
-0.010005591695187617 -0.01846526305843264 -0.054001394298487125 -0.07024207235208947 0.060112007398840456 -0.040467568060828456 -0.045263809865907695 -0.004907793292210145
-0.037551000126400565 0.013265243685597776 -0.07577441706115605 -0.08704680919555227 0.01882229963973734 0.0025041107517311807 -0.032988908274298484 -0.03075514095028863
0.056256047994251365 0.06299358330807651 -0.022136125947775104 -0.0772135023968779 -0.047281057879341226 -0.036091014556567005 0.07341914523214516 0.0533895792513131
0.04545673431020968 0.022670940824046533 -0.04189663548004407 -0.04286385133735347 0.007927273688859336 0.07840586210299995 0.0015691696407632379 0.033715998887960036
-0.07494554747495275 -0.05572272074997047 0.05941807223181826 0.048924969012624296 -0.047330471108632345 0.05477353498241822 -0.056994599358312824 -0.00962459855619601
-0.010613924589740953 0.014784931688488392 -0.01347196712728478 0.023988348425998784 -0.07772765291975978 0.019613178348475938 0.033048859794550564 0.04543821072788012
0.0029998253687585326 0.007444900290609562 0.012066711504089445 -0.07032395408819021 0.0011259490750765205 0.046109401413552575 0.06450902844611511 -0.019562068267654813
0.030290446582242694 -0.050062244266256585 0.02176981898422744 0.026593402756659657 0.009754000219402566 -0.07252297727207516 0.04567022932239268 0.018078743504791647
-0.0512832276291134 -0.027317995485083308 0.06994363857605328 0.02051459520247738 0.0028654475357246276 0.045521537140337825 -0.06029623674415973 0.04909860988975191
-0.015463302423276605 -0.06095965550121573 0.005594324067755548 0.06487609207914825 -0.041637912435903555 -0.04852333306151348 -0.001906749715914207 0.06085875881106214
-0.023826760344772213 -0.0220069256037682 -0.029686533219491325 0.03991205751749528 -0.020718658248377677 0.029673401499700162 -0.01640327465269432 0.029686422759756113
0.015650688731169135 0.03452541526240012 0.02515723971374672 -0.039866292774621725 -0.06112343214389649 0.015260660781495215 -0.02829289190022339 -0.017639920327344703
-0.04057701580903063 -0.0030890441553174264 0.0010071711952572067 0.030318074971565672 -0.08441880837580348 -0.010206944493033972 -0.03473280102499108 -0.01634506054476117
0.019294080269627065 -0.019172382606757334 -0.06172732838787629 0.031383309362103894 -0.0671147936735148 -0.036808637287820294 0.007464164719448458 0.03518243838677984
0.055122710183760325 -0.06349569759505212 -0.03306795313541037 0.045117128762075284 -0.06863129912543509 0.04532455426206475 0.043067687994121126 -0.051469992710585735
0.04680398759080185 0.049824133384610864 0.01813511763547738 -0.015933091777787296 -0.06305969305966615 0.07005195726596687 -0.009064940062591991 0.03134887244735141
-0.036317794977074075 0.0032118911288232838 0.0585614024914155 0.05610328315134826 -0.06255365300589573 -9.744027893375846e-05 -0.014679929194344443 0.06452094361449265
0.03251443926846459 0.07154471201115273 -0.06459253485609137 -0.034245316649661406 -0.03486825092640314 -0.007036861748990277 -0.03675687095612053 -0.013000910471972481
0.02174337503503573 0.04469532394752498 0.027370583179335047 0.01309602830787472 0.059689027235931905 0.012837549332637154 -0.0031355334218896957 -0.036280198008091985
0.058155612871991204 0.05161444199036823 0.03951797615817161 0.03654556925822769 -0.05063945059989434 0.018114312986255852 -0.04842781024712126 -0.017662222295386217
0.01991412472223026 -0.08491301658763765 -0.042680228017167116 0.07378949212093001 0.07040923741542422 0.029826607355992768 -0.018110302526442794 0.022232797206533598
-0.08016499466289516 -0.03420475941675481 0.012902624832067585 -0.07600429907172745 -0.06120463600000118 -0.07770865102952877 0.041185752713294686 -0.04545515178546961
-0.06040158661509097 -0.0649225133140398 -0.021771539265796187 -0.08914554315109677 -0.06267731172012442 -0.0010863746333462973 -0.0650268843578087 0.03762839813675822
-0.044241513132140295 0.016404061221488853 -0.04996200597162596 0.01167173046401641 0.012025544514182213 -0.05980055432723026 -0.024195935861161512 -0.07114284093608898
-0.07418928970103664 0.04399428416698939 -0.0635953766236299 0.0008490530246066169 0.06284724573124682 -0.03625280058082842 -0.06908210417862468 -0.039610645510721826
0.054887226374896944 -0.020972504364532053 0.03631774970987654 0.01559336586361825 -0.05555463283832839 0.05749493839116656 -0.06167724978539542 0.06412640538570624
-0.03623983540635747 0.04246186973813515 0.03396071044655369 0.03701048133876915 -0.018738376292571142 0.015617261071954896 0.06517803899822823 -0.008784370768167023
-0.030493409426535893 -0.08560605669341563 0.021373858375293018 0.0709837607503556 0.08388284136248186 0.004451671999059845 -0.022551207653907886 -0.08744912712345655
-0.06480615015550575 -0.016156312166765458 0.049558394355643916 0.05192359992062638 0.005106955429828951 0.03924487222030569 -0.04451891969897376 -0.037318782690776243

encoder.1.0.bias f8 [64]
00000000: 6e6e 0cc0 2146 b13f 2126 4bff f105 8bbf
00000010: 56f6 f6ff 7474 a83f dc58 1c00 fc44 88bf
00000020: c600 b7ff bbca 7dbf 1050 f97f a504 a83f
00000030: 0fd0 0820 d26d b1bf 91c0 fc3f b36d 9ebf
00000040: b876 11c0 57d4 b03f 253b 0500 c064 893f
00000050: c5a5 f17f 4e72 a63f ecdd 0080 e1c2 9a3f
00000060: 5591 0700 aa63 a33f dada 01c0 9236 a9bf
00000070: bfff f27f 14cb ac3f abe2 1b40 18c6 9abf
00000080: f8f6 2b80 32ee a9bf 5e2e 34c0 c6d9 90bf
00000090: b97f 2200 9631 98bf 6ed8 0040 dca8 9bbf
000000a0: 9a3c 0f00 a6ab 88bf 9f5b fa1f 7798 b0bf
000000b0: 5b46 7300 ebf0 83bf bf05 0240 8826 9dbf
000000c0: d32c 1180 42d7 ac3f 273a dfdf f68e a2bf
000000d0: 3b86 f1ff 01a4 70bf 3e6c feff 2858 b2bf
000000e0: bbdb 0480 6193 a03f 2fc4 0900 6634 83bf
000000f0: 8c58 0640 0408 a23f 9254 44c0 5b07 9fbf
00000100: 3a55 1800 5c13 973f fc79 1140 9e6e 9bbf
00000110: d96a 0e40 1f48 aabf e34c 05a0 59c0 a0bf
00000120: a25f fbff a3dc ac3f 3820 0800 4c88 783f
00000130: 18fc 0f40 bf49 afbf 4818 f2bf 7cbd aa3f
00000140: ddbd 0580 d650 b13f ec52 2880 59c8 9cbf
00000150: 6b47 e87f b3b9 9a3f 71e2 fc3f 0cfc a63f
00000160: d97c f7ff f8a0 b1bf 26b4 d9ff de77 8fbf
00000170: 86f2 64ff 2b89 7a3f 26d0 fc9f edd1 a4bf
00000180: f54c fbbf d8fe a43f c4ba 0860 2706 a0bf
00000190: e51d 0600 22a8 a73f 6943 dcff 9f45 893f
000001a0: 5938 df3f fee5 93bf 5a2b 0680 5f3f aebf
000001b0: 83c1 0000 c917 b03f c9c7 fcff 2901 8b3f
000001c0: b82f f8ff 2dc2 afbf 1845 9a01 d07f 41bf
000001d0: d4a1 fdbf 7ca0 a73f 82fb f9bf 6f88 b0bf
000001e0: 87f7 1d00 0a4d abbf af7a e87f 7bd5 8dbf
000001f0: 3a06 0280 b9c2 afbf 91e2 ef7f 6bc2 a1bf
0.06747637690244243 -0.013194933513108133 0.04776349663323447 -0.011850327256564368 -0.0072734206873407755 0.04691044985943915 -0.06808198244181106 -0.02971534803435866
0.06574009360471222 0.012399196625350559 0.04384084045234319 0.02613403648157757 0.03786975145684105 -0.0492444857963414 0.05623687803154053 -0.02614629641809311
-0.05064542593571092 -0.016455750924292516 -0.023626655348038848 -0.027011338621570173 -0.012046143414322242 -0.0648264363356774 -0.009736858321420508 -0.028467301279766263
0.05632980168646786 -0.0362469814568736 -0.004062660037648376 -0.07165771722650136 0.03237442672473586 -0.00937728583923744 0.03521741181900592 -0.030301507577935434
0.022534787660409374 -0.026789162311951373 -0.05133149773538088 -0.03271751478555431 0.05637085437564272 0.0059893578295558345 -0.061109520502206915 0.052226923399800784
0.06763973832652632 -0.028108023116220446 0.026099018747181384 0.0448917224989075 -0.06886249779880717 -0.015365354712424017 0.006478473535307066 -0.04066412523243938
0.041006825862178 -0.03129694983760126 0.04620462656299277 0.01233983039449678 -0.019432041786608376 -0.05907724798006227 0.06286293268272485 0.013185814022651858
-0.06202834844233912 -0.0005340352683608522 0.04614629596364109 -0.06458185612608072 -0.0533221364157575 -0.014567341652818781 -0.06203250587078597 -0.034686431281390935

encoder.1.1.weight f8 [64]
00000000: bbef 188e 911a ef3f 27e5 6327 6856 f03f
00000010: c9a5 f04b 2ce3 ee3f c346 862c 98b8 ee3f
00000020: 083d 1aa6 6b96 f03f d7f1 28c0 90a4 ef3f
00000030: a23d dd82 f226 f03f 320f f896 6e1b f03f
00000040: ac83 92be f344 f03f e802 b153 8041 f03f
00000050: b344 6be6 d01d f03f ec73 9ed0 31a8 ef3f
00000060: 1562 dbe4 4989 ef3f b848 f989 9d4e f03f
00000070: 9d16 1048 d4ef ef3f abe1 287c b806 f03f
00000080: 8711 39a0 8022 f03f 0189 12e2 09e7 ef3f
00000090: 90d7 c7fd ae29 ef3f 694f d035 cc1c f03f
000000a0: df01 4c30 45e1 ef3f 505b f69d 2f60 f03f
000000b0: b386 a986 1163 f03f 6039 700f 059d ef3f
000000c0: 03d1 1ef0 9578 ef3f 1a57 6bf3 36c8 ef3f
000000d0: cfa3 a9fe 63f9 ef3f b49b 2d30 fe79 ef3f
000000e0: 8d86 8f0c 3649 ef3f 5098 ea96 fc39 f03f
000000f0: fbd7 0d40 a1a9 ef3f a3a2 d077 7c9a ef3f
00000100: ef29 66b4 7428 f03f 48af 5d7c 23fe ef3f
00000110: 647c 3b62 6b1e f03f 7f99 2a35 1011 f03f
00000120: 90b7 151b df8c ef3f 41a6 eaf6 26e1 ef3f
00000130: 7ca9 e0f2 0548 f03f 4807 8322 6500 f03f
00000140: 91ab c001 2490 ef3f ddc6 fe05 20f8 ef3f
00000150: 894b 88f6 8c95 ef3f 0787 0db3 0ac3 ef3f
00000160: 9f11 fb69 7459 f03f 74fa a32c 153e f03f
00000170: e798 b000 fa8b ef3f 7ce4 5ddc a049 f03f
00000180: 00fc 48d2 0e22 f03f 831e c662 8a73 f03f
00000190: f8f4 a558 1fd8 f03f 4fc5 50aa 72a2 ef3f
000001a0: 96bc 32d6 9d25 f03f 4215 2c37 17ce ef3f
000001b0: 7387 f18b 920d f03f f1fa 5b4f ffd5 ef3f
000001c0: 1bea feec b62d f03f 54aa 4617 1713 f03f
000001d0: ff00 577f 27d7 ef3f 366d 1c87 7b18 f03f
000001e0: 1677 3e5f 740b f03f 8c62 0001 46c7 ef3f
000001f0: 71fa 0a6e 2f8c f03f 4d22 0922 eb00 f03f
0.9719932341899872 1.0210954226188933 0.9652310832217889 0.9600334996814229 1.036723755681864 0.9888385537265617 1.0095086204417858 1.0066972634530882
1.0168340152961077 1.015991522712449 1.0072793007605412 0.989281566103839 0.9855088682043652 1.0191932096100071 0.9980260283925478 1.00164078235512
1.0084234484394032 0.9969529548145887 0.9738383251812923 1.007030687532245 0.9962488120364091 1.0234829111484096 1.0241866359942093 0.9879174520045062
0.9834699334956273 0.9931902651103173 0.9991931890373226 0.9836417141894942 0.9776869054150709 1.0141569037600853 0.9894567729049862 0.9876081791054115
1.0098769232596359 0.9997727803251815 1.0074266278459385 1.004165847474354 0.9859462288857106 0.9962344000425177 1.0175837981610973 1.000096449672542
0.9863452944022005 0.9990387074560335 0.9870056929670322 0.9925588128209889 1.0218395366547168 1.0151569122096165 0.9858369840119651 1.0179756744458066
1.0083149160634548 1.028208146892127 1.0527642691443457 0.988580067298395 1.0091837279431153 0.9939075543958682 1.0033135859052578 0.9948727178560529
1.0111607797285902 1.0046606930942703 0.9950139510256405 1.0059771802687698 1.0027965279072695 0.9930753726540202 1.034224920134559 1.0002242402571426

encoder.1.1.bias f8 [64]
00000000: cb6f af3e ac88 9ebf 5b9a 9e23 01c6 943f
00000010: e0a7 d348 b1a7 8fbf 4af6 7c8a a311 94bf
00000020: 343a 3346 8581 753f cbd3 b802 e6e5 93bf
00000030: 82cf 3dd2 caa7 77bf 35b4 8016 8cc9 663f
00000040: 4b1f c9e4 6bb2 8b3f 181a 2119 e681 963f
00000050: 7175 6c63 4c61 713f 1429 0884 da7e 87bf
00000060: d763 b194 48e0 8abf 27f2 a40b 4cb0 903f
00000070: 4d4d 6523 1542 92bf 5b46 6bbd a2ad 853f
00000080: 52fe 353d b490 85bf 568e ccee 451c 49bf
00000090: 4845 de50 d283 95bf d820 2d0a f097 5a3f
000000a0: c4a2 2568 d684 34bf 5919 061f d54f 923f
000000b0: 0606 63c1 0957 7b3f 5350 a569 74c3 803f
000000c0: ca7b 3fd2 824f a0bf 2667 900c 9883 97bf
000000d0: b9c7 4ec6 43be 863f 14fc 2cd2 8d1d 75bf
000000e0: b5f4 8f66 2438 86bf 3bc7 00ef c8c0 79bf
000000f0: 1ba8 600f 35e2 693f 6539 fd6c 0cf3 3dbf
00000100: a6d0 46f9 aa5b 8b3f e0bf 2cde d230 703f
00000110: aa22 43da 9dd7 813f 6642 ac91 6bc7 943f
00000120: 3bdb fab5 a9f1 95bf 4df6 0181 441d 7e3f
00000130: 13ad d389 f893 80bf 3af7 b9d2 5e88 7ebf
00000140: 8731 50b1 ab90 89bf 363a a327 8e4c 5abf
00000150: 1ea8 a8bf 0974 97bf c5cd 933f b308 863f
00000160: 7153 5c48 6f2b 8b3f 2064 b4e7 3c73 8b3f
00000170: 2a67 b98f 7bcc 81bf ff65 d5ea 5b2c 8f3f
00000180: fe20 c37b 2285 653f 1fe7 31ae 0793 943f
00000190: d24a 34ad 1084 983f fa86 9fcf db4a 7bbf
000001a0: 0cf8 c17b d099 7d3f c979 9fbb 0e69 593f
000001b0: ddc4 c656 8392 8d3f d39b 33a1 a333 8cbf
000001c0: 3318 7817 920b 80bf 93fb 8f0c e56d 923f
000001d0: ae4b ac15 7a2a 98bf 965f 7554 1e17 82bf
000001e0: b546 8dfc 1f71 4d3f 5f9d 1d3a df0c 813f
000001f0: 25db 41f3 694f 933f b24b 81c5 8e7c 983f
-0.029818240476615004 0.020286577033085212 -0.01545656684398361 -0.019598536803860513 0.005250473596972106 -0.019431680599342898 -0.0057752535538958556 0.0027816520778487738
0.013523905677302791 0.02197989967705824 0.004243181602558863 -0.011472422746937862 -0.013123099363086794 0.01629751988478936 -0.01783021000421785 0.010585090070352956
-0.010529907339104447 -0.000766309878234182 -0.021010671792798946 0.0016231388223833434 -0.0003130935148392517 0.017882661837142908 0.006674802882288505 0.008185300325443878
-0.03185662094596571 -0.022962928549623694 0.011105088700649067 -0.005155138004567145 -0.010849270229295585 -0.00628736962976167 0.0031596218423333273 -0.00045699170458570463
0.013358436329191935 0.003952811911219073 0.008712037299475856 0.020291977659385195 -0.021429683429882145 0.007352130502224674 -0.00809473200430103 -0.007454271700792431
-0.012482968662902006 -0.0016051662665180883 -0.022903587649274575 0.010758781793334013 0.013266438861629233 0.013403392621102184 -0.008690800975432806 0.015221326927234989
0.0026269601349647722 0.020092124945654818 0.023941288539456825 -0.006663187634303952 0.007226766956703667 0.001550926578140032 0.01443960770197566 -0.013770368916494668
-0.007834569302769356 0.017997340099096325 -0.023599536488358268 -0.008833157494038162 0.0008984953102333023 0.008325332604455836 0.01885762736534526 0.02391264992213466

encoder.1.1.running_mean f8 [64]
00000000: 8ec8 d8a1 73cb b5bf 7197 4d48 dc4e e6bf
00000010: 8074 c394 3c68 e53f 83f3 7e3c d84f e13f
00000020: a01b 2251 d006 c9bf 2d28 1c7e 41b3 ecbf
00000030: deda 9c82 a2d8 ddbf 5f22 8f71 b59a e33f
00000040: 99d5 5a1e d677 c6bf b349 5866 efd3 df3f
00000050: 50a3 1918 0c50 a8bf b291 6eba 8a35 edbf
00000060: 6c12 3ba4 9822 d3bf c369 fb58 22ea da3f
00000070: 6d0d aead 562e c03f 0802 7bfc 5b7f c8bf
00000080: 78ab eb7f 3328 e4bf 927b 0f31 6ce5 b5bf
00000090: 688b 557e 11a8 f2bf 6978 618b 3f10 e3bf
000000a0: 9d70 b3cf b70e dcbf be5f cbec b1a5 d9bf
000000b0: 3830 bf30 3854 dc3f 3026 585a 4e6f e4bf
000000c0: f34f 7688 de9d e53f 66c1 d227 ee47 c33f
000000d0: 7148 fb86 b318 d03f f86f d411 5bcd da3f
000000e0: 7d74 0a9c ca2c f03f 455c 0cec 1e36 e03f
000000f0: 3199 02c5 5357 c6bf ff2d 2560 5fd8 dcbf
00000100: ea5a 2ef0 0204 bcbf c671 9483 4868 ab3f
00000110: 6272 01cf 19b5 bb3f d031 b1b6 a3c8 a6bf
00000120: c250 81ed e7df c1bf 1fe9 9bc9 7d1e ea3f
00000130: 5319 cc7b 1c35 c63f 9900 60be c369 dcbf
00000140: 6e12 95a7 7a77 c33f aa24 b8ca 8229 e03f
00000150: 71e6 f750 1000 ddbf 1168 f9cd 5da1 84bf
00000160: d0e6 3490 9696 d0bf e713 0813 e7b4 ccbf
00000170: cfcd 5013 549d c73f 1088 01d0 3d50 e1bf
00000180: fe65 9a3c b6b1 df3f 994b 734b 72c7 e03f
00000190: 235c 2fa5 d243 d23f 0478 4160 ad3e b33f
000001a0: b2c0 a6a4 5afb e23f 3709 0891 5d42 e4bf
000001b0: 8367 3844 1436 e2bf 7135 7c60 589c e7bf
000001c0: d677 d411 0ad6 eabf 81b9 f9d6 c2af e5bf
000001d0: 9e63 5250 96e7 db3f acbb 732f 6886 db3f
000001e0: 8d23 9e18 f472 c33f ff28 516d 9b3d f23f
000001f0: d9bd 2efd 45f7 ccbf d0c6 dc87 0c40 c73f
-0.08513567639673367 -0.6971265232248084 0.6689741998230971 0.5409966641960725 -0.19552043878158276 -0.8968818152509407 -0.46634733920238414 0.6126353471709755
-0.17553211671990424 0.49731049532524735 -0.04748571199599516 -0.912785877346826 -0.2989865878883282 0.42054041566521166 0.12641414146865362 -0.19138669803761865
-0.6299073694657258 -0.08553196141973121 -1.1660323080947936 -0.5957334253578327 -0.43839831622404707 -0.40073822140174886 0.44264034996445245 -0.6385871662652729
0.6755211510921967 0.15063263840194024 0.2515076463870463 0.4187839197272747 1.0109354110093414 0.5066065416639353 -0.17454001540790778 -0.45070633305724067
-0.10943621028705378 0.053529993116373784 0.10823212913369099 -0.04449950795296653 -0.13964556786470977 0.8162220895458495 0.17349582714832454 -0.44395536032971844
0.15208371336679555 0.5050672492372048 -0.45312889010492713 -0.010073407028517807 -0.2591911705272709 -0.22427071027064402 0.18448878234049323 -0.5410450995079845
0.4952216712786991 0.5243464921608051 0.2853895772108805 0.07517512893670647 0.5931828704688284 -0.6331012566227291 -0.5691014606884298 -0.7378351101375938
-0.8386278484574585 -0.6777052115192391 0.4360099586861511 0.4300785506629221 0.15194560243642422 1.140040804881721 -0.22629618513518215 0.1816421187773387

encoder.1.1.running_var f8 [64]
00000000: 5417 f75a d8cb e03f 58fb 195a 4328 f43f
00000010: 2528 71fb 1ab4 e53f a6ad 3a1c 8d62 e23f
00000020: cc6a 6b28 d20d e23f be9a 462e a6c9 f33f
00000030: 2770 3b90 879e d33f f3af 980f 3f1a e33f
00000040: f20b eeae b339 ea3f a99b c708 35a2 f03f
00000050: cc19 0480 ea4b e03f 314d b097 dbbc f43f
00000060: 9df5 68eb 3f28 e73f e601 4c58 8495 de3f
00000070: 08e7 62db dfe4 dd3f ddfd f6d9 0c85 ef3f
00000080: d012 389d b453 f33f 4629 0c51 4d54 d33f
00000090: 3e87 995d 64bd f63f 7be3 2a60 8c39 f43f
000000a0: 84a3 3707 9548 e33f 5e80 1854 5570 e63f
000000b0: 1c6d a878 d417 e43f 799d 8137 53b1 f03f
000000c0: 892f a84c ace0 ed3f 1f09 e177 e878 dc3f
000000d0: eb8b 582a 9825 eb3f 4b37 8a18 11a5 e53f
000000e0: 17e4 36ce 46cb f93f 5bc7 1fbd 9ae8 ea3f
000000f0: 366a e183 d7e0 e33f 580a 993f 7216 de3f
00000100: 6792 a627 0d83 f03f 7413 5523 6cdc df3f
00000110: aa89 1f2a ffad ea3f ed33 6c73 5773 f03f
00000120: 063b 8e0e e546 c33f 0420 2a26 cca6 ec3f
00000130: 9b64 6f8a c634 d33f ec25 efd9 a7e0 f23f
00000140: 5ca0 f85f f468 d93f 26aa 3f07 809c d83f
00000150: 1fce 9994 5a09 d63f d6d4 d480 5659 e03f
00000160: 6b57 1f83 5ecb e33f 4b98 549a 7b89 e53f
00000170: 9c71 26ee 727b d33f 4c32 7166 7383 e93f
00000180: 7650 fb25 fe31 d83f d991 56e4 d202 ee3f
00000190: 046a f619 e805 e23f aad0 aa87 81b1 dc3f
000001a0: 42fe 6e13 7fd6 e03f 417b f2ed aa1b dd3f
000001b0: 21b3 015a 0bc7 f13f 9ca5 5f83 6811 ec3f
000001c0: bf0c 4c99 fd3a ee3f 9b4c 0f53 0604 f23f
000001d0: 4d43 ea9f 16de e43f 5c3f b9ef bb9e e43f
000001e0: cd6b b0a2 def6 d53f fc12 d47d 4496 f33f
000001f0: 12ee 66a8 ad73 e43f d8c6 f9af e955 ec3f
0.5248834396995599 1.2598298568334112 0.6782355223633699 0.5745301772453117 0.5641871251530914 1.2367307479523073 0.306550875522364 0.5969538979165904
0.8195436874960917 1.0396013586957713 0.5092670917809357 1.296107857259653 0.7236632917262572 0.47787579176659134 0.46709438728758856 0.9849914795994966
1.2079359189385066 0.30202038683696164 1.421238294242769 1.2640498882812767 0.6026101246799134 0.7012125627989112 0.6279089314079189 1.0432922523703765
0.9336759087759542 0.4448796435064128 0.8483391596859041 0.6763997535033267 1.6121280722857187 0.8408940976935172 0.6211965156356374 0.47012001238559753
1.0319949673513749 0.4978285164873377 0.8337398359984054 1.0281595715234702 0.15060103617403103 0.8953610177422893 0.30009616393142274 1.179847575478898
0.39703091976344296 0.38455200870399364 0.3443209124736501 0.5109055057752367 0.6185753403649249 0.6730325712458208 0.304409725731398 0.7972962380241113
0.37805131634855316 0.9378447017411943 0.5632210261422306 0.44833410500292337 0.5261836413919314 0.45481370198278986 1.1110948100933415 0.8771250310793905
0.9447010034640683 1.1259825939676265 0.6521103976575461 0.6443767244436276 0.34319272887813385 1.224186412350888 0.6391208924391683 0.8854874074006274
