models/matching_nets/DF_n=1_k=5_q=15_nv=3_kv=3_qv=1_dist=cosine_fce=None.pth (torch, 316367 bytes, 24 tensors)

encoder.0.0.weight f8 [64, 1, 3]
0	0xbfc2d69a387f1983	-0.14717414625756584
1	0xbfc72b801c55b092	-0.18101502784282225
2	0x3fd2f6e6ea6f8854	0.2963197030459288
3	0xbfdccd22e879d2f6	-0.45002052977297013
4	0xbfda7d1e58a88615	-0.4138866296580955
5	0x3fd85902897aec46	0.380432733781792
6	0xbfcadeb4d0cd0693	-0.20992145724635644
7	0xbfdb7bb0f02f37b6	-0.4294245095778665
8	0x3fd23736e55fedc5	0.28462002181887797
9	0x3fc05ba97a533239	0.1277973029413191
10	0xbfb0331e91f084f6	-0.06328002036072519
11	0xbfc1d32a372a5958	-0.13925674146293932
12	0xbfd0ac30a98925bc	-0.2605096488592513
13	0xbfdb1d7e82c3ada1	-0.4236751820560248
14	0xbfc422db26928edb	-0.15731372245237804
15	0xbfdbbc63d793f497	-0.4333734135869433
16	0xbfd7b47ff100b4ca	-0.37039183173585555
17	0xbfded92a50465ec2	-0.48200471724838334
18	0x3fc4b8b213e239b3	0.16188646288760608
19	0x3fcc1aad3fe7ea29	0.21956410999685375
20	0x3fc0bf5900af4f33	0.1308394673675309
21	0x3fc63d3bea42a1eb	0.17374371469965352
22	0x3fe0d33c393786c0	0.5257855527417732
23	0xbfcafb1a3c830478	-0.21078803972889992
24	0xbfe16c1493160ab4	-0.5444434044623763
25	0xbfe1ff7aca350daf	-0.5624364804611356
26	0x3fdf4a7e35992447	0.48892169222068954
27	0xbfdecd8600e43ed7	-0.4812941559512018
28	0x3fd0e9ddb5526876	0.2642740507814162
29	0x3fe062b87fe7a1ad	0.5120508669033846
30	0xbfda84fbe8b14be5	-0.4143667004001926
31	0x3fd7d2aaa2273c8c	0.37223306498794595
32	0x3fbe07d0b27e99bc	0.11730675084854786
33	0xbfd51b9299a744d8	-0.32980790143217353
34	0x3fcef448e4197d11	0.24182997834848455
35	0x3fd847ded144c072	0.379386619914846
36	0xbfda35e433a3622f	-0.4095392708091223
37	0xbfe0ff70f114beb3	-0.5311817844976389
38	0x3fc4f2052c805a2e	0.1636358706752658
39	0xbfe1a46cd53343a5	-0.5513214267794991
40	0xbfe20b4e4426ead8	-0.563880093678871
41	0xbfbaa096137bfe35	-0.10401285148326951
42	0xbfe13f68f625aae1	-0.5389904792367269
43	0x3fa130d745d9dd2f	0.03357575156854364
44	0x3fe12668675894e1	0.5359384554364192
45	0x3faabe72090ef135	0.052234233480222526
46	0x3fe2913370403df3	0.5802247230912471
47	0xbfa468e2804c3105	-0.03986270729191869
48	0x3fe257d2da2af012	0.5732206593597786
49	0xbfd89b2ebf38b495	-0.38447159456229346
50	0x3fd3f70ca44ab4b8	0.31195369762538006
51	0xbfdf7b0f3db42f43	-0.4918859579636214
52	0x3fcdec386c9dabca	0.23377137473593584
53	0x3fdadbee95f33d5a	0.4196735824925405
54	0xbfcaca40595d0aa8	-0.20929722178887755
55	0xbfba1c553a4a5184	-0.10199482606032545
56	0x3fe02afd44b9f923	0.5052477209390286
57	0x3faca65016c9be8a	0.05595636633085828
58	0xbfb38a0aeb1aab50	-0.0763251136765295
59	0xbfd83d0bddcff08c	-0.3787259737143891
60	0x3fc396064517b333	0.15301588414822617
61	0xbfdc9f6e22b3a943	-0.44723084820602227
62	0x3fe079865b4fa765	0.5148345740719661
63	0x3fafff2419fbf671	0.062493446514037106
64	0xbfd7b40ac6f9cd61	-0.3703638976214361
65	0x3fbf24afbef8572d	0.12165354168277238
66	0xbfdbec52dda387f6	-0.436299053615698
67	0xbfc75dd4f8a62e82	-0.18255102292129172
68	0xbf8151a938ec95d6	-0.008456537294089832
69	0xbfd33f7056def14a	-0.300746998629411
70	0xbfa323692a694a77	-0.03737953798976872
71	0xbfcc31cba1fbcbc6	-0.2202696362433853
72	0x3fdaaba509bd0ff0	0.4167263598540094
73	0x3fa795e6191bfdf2	0.04606551224241774
74	0xbfd8608acd5313b7	-0.3808924679872762
75	0x3fe2297ad8fa6536	0.567563461099019
76	0x3fb97dbbca56d1af	0.099574791812137
77	0x3f6177b3b825a39c	0.0021322736876538528
78	0xbfe0c64e8cdc9aad	-0.5242073775487676
79	0xbfdbb6e864cc1065	-0.4330388054224897
80	0xbfd97089b80702a2	-0.3974937722341939
81	0x3fd81916f3b28108	0.37653135107576974
82	0xbfcff472fe5bf45b	-0.24964749736674005
83	0x3fd6d9df7140e2b4	0.35704790172489287
84	0xbfdcb621118d5f41	-0.44861628259740277
85	0xbfa6ea8e4bc1f06a	-0.04475826906943399
86	0x3fbdecbadaa66d01	0.11689346159112192
87	0xbfd996bdadc3cdda	-0.3998254963800868
88	0x3fd1bbb65eb3fdfe	0.27708205459927615
89	0x3fd1de10caca80a8	0.27917880824862573
90	0x3fc2a142666151f1	0.14554624556571086
91	0xbfd065f3b161461d	-0.2562226516939477
92	0x3fa8b75b49952220	0.0482738997766925
93	0x3fddbf9765015720	0.46481881011765047
94	0xbfc644435caef002	-0.17395822549394785
95	0x3fa864d97d68b771	0.04764442115661794
96	0xbfd4fa6408cb943f	-0.32778263911160715
97	0x3fbe4eecb725fe34	0.1183917948856042
98	0x3f510ee86d4e2204	0.0010411519808447576
99	0xbfccd0d81e6ebd09	-0.2251234196278136
100	0xbfde7681911bf650	-0.47598303957770316
101	0xbfe0c051ed611440	-0.5234765659630582
102	0xbf9a0e3cce875522	-0.02544493685293959
103	0xbfd113ba128b7401	-0.2668290310955968
104	0xbfd0d1e743a0dd88	-0.2628114853318597
105	0xbfddda6700658f94	-0.4664552215456237
106	0x3fdfec9037b305f0	0.4988136810244148
107	0x3fd9ab05d66ab6d5	0.40106340350290043
108	0x3fc27492a40f2371	0.1441825200147622
109	0xbfcf79ac81e304eb	-0.24590069143417934
110	0xbfda31bd2eaf5376	-0.40928582724637097
111	0xbfab4bed87971741	-0.05331365852502624
112	0xbfca18e541f68d11	-0.20388475151876453
113	0xbfc452fd08027d7d	-0.15878260508632627
114	0x3fe18f10427a2665	0.5487138079053692
115	0xbfdca0f08b7938ad	-0.4473229753538231
116	0x3fda25680eea9d62	0.4085331102055162
117	0x3fce9b3ba503c822	0.2391123347984499
118	0x3fd4344b3fa8e92e	0.31569176880624894
119	0xbfcee2db6c3b2582	-0.24129812988966753
120	0xbfc082c91bc644f7	-0.1289912591569544
121	0xbfde9a2c2f07d6fc	-0.47815994828066244
122	0xbfc2927d39e0a6c9	-0.14509549451877593
123	0xbfd8875d781f9688	-0.3832620308952319
124	0xbfdaca77eea3d589	-0.4186076956242109
125	0xbfd90acd4fa5917b	-0.3912843015480331
126	0xbfdd8bd121aa0c58	-0.461658747554059
127	0x3fbc5abffb50f25d	0.11075973401688928
128	0xbfa8bf2efd37b833	-0.048333614740713314
129	0x3fc51289fb8980d3	0.16462826521001847
130	0x3fc79212cbbde9ee	0.1841453070481544
131	0xbfdf1335fb6b61a9	-0.4855475383060602
132	0xbfb7e585c3eb84ce	-0.09334598572924621
133	0x3fc58ccf213c7106	0.16835965273720194
134	0xbfa4af6dab42e3a3	-0.04040091243354673
135	0x3fb80f4c4813c1da	0.09398342857071587
136	0xbfda080c1610b1c1	-0.40674116282277956
137	0x3fd677ccd5831c49	0.3510620198325723
138	0x3fd5f86fcdd497ad	0.343288374906815
139	0x3fd25d9508a4b660	0.28696180194933696
140	0x3fa34baae0cdb4bc	0.037686672155226
141	0x3fa81b80ddf181b4	0.04708483418722001
142	0xbfd345ccccbe56f6	-0.3011352538536437
143	0x3fdba0911ab79659	0.43167522057624336
144	0xbfd199d1e066cd23	-0.27501341737952795
145	0x3fe26527c707fecd	0.5748480689362282
146	0x3fe2326a32616628	0.5686541542046983
147	0xbfbc8056eae63cda	-0.11133330569122127
148	0xbfc73a38519b3570	-0.18146423325235217
149	0x3fd586264bf6201d	0.3363128415880981
150	0xbfdb8a8f5def5a0c	-0.43033203290306754
151	0x3fa8ab8464c950a1	0.04818357210447855
152	0xbfc19592845a3b99	-0.13737708532832185
153	0xbfaf5909eefcacc8	-0.06122618715593259
154	0x3fc0ae0df4abdc17	0.13031172224847928
155	0x3fd813c97306fc3c	0.37620769723065783
156	0xbfe125c1338bfd5f	-0.5358587271474952
157	0xbfd46f177c3f6ddd	-0.3192805016858225
158	0x3fe126268808b087	0.5359070450699769
159	0x3fd45bec28718cfe	0.3181105036694162
160	0x3fe05bf945b01815	0.5112272606936609
161	0x3fe164285aa46cca	0.5434762735707406
162	0x3fc4f1f0b2faa069	0.16363342990121346
163	0x3fdb52ce7bd5b417	0.4269291123699203
164	0x3fc29b76f06f4a05	0.1453694032666847
165	0x3fdadf8d2e4b2f0b	0.4198944999777587
166	0x3fd8ea11f20d13b9	0.3892865051059818
167	0x3fd21779d16efc2f	0.2826828522920008
168	0x3fb8a2fa3af7e0b8	0.09623683871893973
169	0x3fd47d8433ab8947	0.3201609139051879
170	0xbfd61c413029e202	-0.3454745264384941
171	0xbfd8ba37d625f01b	-0.3863658515253989
172	0x3fc2b72ef1a8a21a	0.1462153129553066
173	0xbfe2c66e35fcc62c	-0.586722474521769
174	0xbfe1cf6a30ac3ee9	-0.5565691900864894
175	0xbfa18c6995a05b06	-0.034274386897029926
176	0xbfa5934844476a50	-0.04213929971202346
177	0xbfd3546125dce05c	-0.3020251149896518
178	0x3fc0ff08c03a89e8	0.13278302560963984
179	0x3fc1503de5a0995f	0.13526128494522546
180	0x3fd8709f9a9cd4c4	0.3818739900483019
181	0xbfe0b8e9c574b52a	-0.5225724083481158
182	0x3fc5ab990e52703f	0.16929925154988898
183	0xbfd8f5066df77d05	-0.38995514620724264
184	0x3fe2a6555625723d	0.5828043634933874
185	0x3f920e4c9ab45353	0.01763267225495053
186	0xbfd8b77eee3833fb	-0.38619969619395506
187	0x3fe1e19ea4c3d1e6	0.558791467482078
188	0x3fcd12d4c6a3122f	0.22713718127319413
189	0xbfafaf9b73af8d21	-0.061886651870532335
190	0xbfd500ac8411e419	-0.3281661309952724
191	0xbfc6ffa63e2b94b6	-0.17967680011421344

encoder.0.0.bias f8 [64]
0	0xbfe1a178c027c66d	-0.550960898688755
1	0x3fe1f59b400197f2	0.5612312555429055
2	0xbfb6e95f80283414	-0.08949849013170336
3	0x3fded76d80278fd6	0.4818986655720868
4	0xbfb37416ff636351	-0.07599014029564201
5	0xbfd8d5c50018b2c6	-0.388047456831185
6	0xbfca91d13fe68436	-0.2075749933256092
7	0x3fd20468bfff9195	0.28151911496959175
8	0x3fc899587fd4eba0	0.19217973939688893
9	0xbfc8ee2dbff2e7be	-0.19476863739492772
10	0x3faf16b1ff941c7a	0.06072002644401038
11	0x3fda02893ffafb19	0.40640479324422213
12	0x3fd76d25800cba98	0.3660367727742737
13	0xbfdc21b0ffeda213	-0.4395563601779326
14	0x3fe1a62dc005c2e7	0.551535487216907
15	0xbfd031a37ff9e675	-0.25302970407174225
16	0x3fdff698fff16188	0.49942612642691886
17	0x3fdf115c800ab604	0.4854346514137833
18	0xbfda187540039e27	-0.4077427983415611
19	0x3fe2151a7fe9113d	0.5650761125803353
20	0xbfc39e82ff8cab10	-0.15327489355089385
21	0x3fe215a87ff2c236	0.5651438235273136
22	0x3fde6f8700046a12	0.475557088867988
23	0x3fa4a71bfed70817	0.04033744321670001
24	0x3fd1332b7ff18c76	0.2687481641243673
25	0x3fc69a937ff99372	0.17659229038977348
26	0xbf9c0d0bfff41a12	-0.027393519875682122
27	0x3fdf24cc80165ba3	0.48662102230576404
28	0x3f942340026a5bef	0.019665718219211866
29	0x3fcf54e300082940	0.24477803708607304
30	0x3fd4ec833ffd2a22	0.3269355893031919
31	0x3fdaebc73ff37567	0.42064076657501065
32	0x3fc24c3b7fac5ea1	0.14295142873810554
33	0x3fd6e736000359c1	0.3578619957092109
34	0xbfda5bf41fd5e42d	-0.41186240300118265
35	0xbfbd06c48009eca7	-0.11338451505609957
36	0x3fcad30d006cdc65	0.209565758903156
37	0xbfcca13abfb9557d	-0.2236703334953453
38	0x3fd2d29740003d6f	0.29410344362346214
39	0x3fe24afc7ff9a09a	0.5716536044610792
40	0xbfd4dcc53ff892ea	-0.3259747624127117
41	0x3fcb0c25800ae07d	0.21130818130564313
42	0xbfca19d7ff9ce44e	-0.20391368847939123
43	0xbfb69db9ffca0133	-0.08834421629763227
44	0x3fe195f9bfe443be	0.5495575664409598
45	0x3fde7590ffd6066f	0.47592568382251604
46	0xbfd3595d7ffb4dda	-0.30232942102631244
47	0xbfbbebe50032db72	-0.10906821493959543
48	0x3fba98f9fff37a1b	0.10389673708730422
49	0xbfd57198a017b6da	-0.33505836137815737
50	0xbfbdbb32ffe66d82	-0.11613768336831323
51	0xbfd48a5c000ac77c	-0.320944786110992
52	0xbfc5fecbbffb779c	-0.1718382537282509
53	0x3fcb84fe8000e70f	0.21499615907833244
54	0x3fd7147cbffe6aac	0.36062544583698286
55	0xbfde9c9120004e6c	-0.47830608487240656
56	0xbfddecb5a00e103e	-0.46757259970059184
57	0x3fc23685ffe57128	0.14228892321524111
58	0x3fc4e63b7fc957d6	0.16327613582205797
59	0xbfb8b4087fce3c46	-0.09649708862546999
60	0x3fb5b93e00496945	0.08485782153130568
61	0xbfc2f400ffe8b5f7	-0.14807140822942674
62	0xbfcb68f080017034	-0.2141399979617532
63	0xbfb7eba6ffda82ab	-0.09343951937126842

encoder.0.1.weight f8 [64]
0	0x3fefc60704c21d73	0.9929232685980608
1	0x3fef7d91b9acca42	0.9840782762970053
2	0x3fef985aaec7df81	0.9873479283987622
3	0x3ff079616f2b9e47	1.029633936175644
4	0x3ff013e06d7eb3bb	1.0048527028222753
5	0x3ff022e730889d5b	1.0085212608190293
6	0x3fefb4ba1240f92b	0.9908113819617815
7	0x3feff60982b546a9	0.9987838318722498
8	0x3fef3b376f2d2864	0.9759785815633788
9	0x3fefe26469f229b5	0.9963857716805281
10	0x3fef3e8a8f6dce21	0.9763844300600263
11	0x3fef9a21c18698d7	0.9875649242210568
12	0x3ff004231befae31	1.0010100451717217
13	0x3ff03a81e5428b08	1.0142840342966242
14	0x3fef85c0612ff587	0.9850770853224028
15	0x3ff0133278b0cc65	1.0046868051984117
16	0x3ff048492495abfc	1.01764787951356
17	0x3ff01c068a693c53	1.0068421751673398
18	0x3fefc3311640c1ce	0.9925771174076148
19	0x3fefa1777c35e4fc	0.9884602952944586
20	0x3ff04b08e311df8b	1.0183190221705185
21	0x3fef7ea044d730a1	0.9842072815458957
22	0x3fefcb1a51b200a4	0.993542823373009
23	0x3feff6440597ae20	0.9988117322186021
24	0x3ff03c95e57ad943	1.0147913898523064
25	0x3ff0a9d50401a59c	1.0414629131795214
26	0x3ff0216bcea268aa	1.0081594535500167
27	0x3ff04c695113c57b	1.0186551253394487
28	0x3fef974eb5500112	0.9872201482067189
29	0x3fefd848d540471a	0.9951519169864895
30	0x3feff87d4a1f3c51	0.9990831802077854
31	0x3ff0c4efbaf8dfe3	1.048080187187218
32	0x3fef0e2569484219	0.9704768234533417
33	0x3ff029448c8a64b3	1.0100751390330458
34	0x3ff026b5e3ee833b	1.0094508079129827
35	0x3fef956a71fff661	0.9869892336425431
36	0x3ff05bd411924d58	1.0224190412889893
37	0x3ff06a68d1019a76	1.0259788669879106
38	0x3ff0333f64af0759	1.0125116284329663
39	0x3ff010ef76c6055d	1.0041346206274604
40	0x3fefb232e9987c30	0.9905027925887051
41	0x3ff0290244a6ea06	1.0100119287222937
42	0x3fefccd484d3ae14	0.9937536806368734
43	0x3fef74a2e3ebbae6	0.9829878284052398
44	0x3fefb6875763adcb	0.9910313326667447
45	0x3fef565362dd95d0	0.9792878085106
46	0x3fefe8ebe9e50011	0.9971828048946937
47	0x3ff00cb395c35633	1.0031009531134145
48	0x3fef7f43ba7d0741	0.9842852251387982
49	0x3ff009a9cd775870	1.0023592020056888
50	0x3ff00341c93f907e	1.0007951604139005
51	0x3ff09c2ee1b77cc3	1.0381306473789642
52	0x3ff01ae999a4fe76	1.0065704347361168
53	0x3ff0234f2a42e5dc	1.008620419581681
54	0x3fefae5a075fd685	0.9900331634550673
55	0x3fefc0c5d52ea0e7	0.99228183400285
56	0x3fef6b48ad65e5eb	0.9818461786919078
57	0x3fefdacb77ae3492	0.9954583489903988
58	0x3fef913069cc6626	0.986473280561033
59	0x3fefba33d3aaee02	0.9914797910818722
60	0x3ff003299534beb4	1.000772078357767
61	0x3fef235de5975dc1	0.9730672344402863
62	0x3ff0054b56ac844a	1.0012925515841453
63	0x3ff045c4f80577e7	1.0170335472425849

encoder.0.1.bias f8 [64]
0	0xbf919e48f098c7e4	-0.017205371556151663
1	0xbf5eae60b60c8885	-0.0018726295895210865
2	0xbf7fee652777daaf	-0.00779571069096245
3	0x3f85ad361b381038	0.010584280687005884
4	0x3f52ead1d2ba9aad	0.001154618173055215
5	0x3f82b397d340f0ef	0.009131609091234753
6	0xbf8143b70cfb2800	-0.0084299374424468
7	0x3f610f10a3b6057c	0.0020823788633498857
8	0xbf96628d4d35137d	-0.021860320889817587
9	0x3f8f48f354e30b8d	0.015275860813181353
10	0x3f67fcaee40810cf	0.0029281059107707295
11	0x3f47b6be53d7e014	0.0007236890157278375
12	0xbf2aeed09ad4792c	-0.00020548149533623197
13	0x3f8ed0debf8ab45c	0.015046825619118014
14	0xbf5a07cf1d386c3c	-0.0015887758826298578
15	0x3f8cab3815eac861	0.013998449486596511
16	0x3f94aa0d4178ff3c	0.020179946061261264
17	0x3f9879abc8770632	0.023901638136299926
18	0x3f8a7ea60370e933	0.012936875324261443
19	0xbf84c18c3c0cfaeb	-0.010134788115121881
20	0x3fa175f8ad3cd98b	0.03410317530363035
21	0xbf8f22afb0836a29	-0.015202877592334367
22	0xbf8c2813604095f1	-0.01374831330765411
23	0xbf7e62bf8e5dd609	-0.0074183924351607445
24	0x3f974c6e4a7097c8	0.02275249795288639
25	0x3f993601457d5c2d	0.024620075098337125
26	0x3f74bd9d25eed955	0.005063642368375494
27	0x3f94fe9c5765bfcd	0.020502512773816584
28	0xbf75933c6076351d	-0.005267368170632805
29	0x3f8931ea3516af9e	0.012302236313949607
30	0xbf7a5170a5a883c4	-0.006425323512787299
31	0x3f992fdbdb129667	0.024596629377489878
32	0xbf9de16bbecf594e	-0.02918022491561461
33	0x3f767817236c6b37	0.005485620865125543
34	0x3f90c9a7ff7a13b4	0.01639425751502062
35	0xbf80fce8a6e55e8f	-0.00829488524747937
36	0x3f8e958d645a61ae	0.014933685898811468
37	0x3f94c594f8d6e792	0.020284965217548363
38	0xbf8e2051a6bfa1d3	-0.014710081006300257
39	0x3f972547b5bf3386	0.022603149860333648
40	0x3f45db7a4dbc4e30	0.0006670329271138472
41	0x3f7070a9c62c6469	0.004013693981300561
42	0xbeed93d6d64db281	-1.410364957062896e-05
43	0xbf64aa1c73bdb534	-0.002522521563085656
44	0x3f6a2d7bb9143928	0.0031955162490994345
45	0xbf8e443a3b8f1c12	-0.014778571074101552
46	0x3f793b5d292feddb	0.006160129461018705
47	0x3f990315c67bddce	0.02442583106946277
48	0x3f7bea6b985e69b5	0.006815357488358866
49	0x3f9150393e2d1335	0.0169075912665619
50	0x3f6ac396a8bdbcc9	0.0032670919953755356
51	0x3fa2bacc852a5609	0.03658141255906961
52	0xbf82748c35a8af0b	-0.009011359584369957
53	0xbf8b2174ba164546	-0.013247405938076395
54	0x3f6b52e973537a0e	0.0033354339199001054
55	0xbf84a029d059fe03	-0.010071112318882141
56	0x3f908350b059b2c1	0.016125927699635726
57	0x3f5c1a5cc3aa8ce3	0.0017152696515630387
58	0xbf845933c59d5ab9	-0.009935764759274478
59	0xbf8f142d86cb715a	-0.015175204921825159
60	0xbf81364452f1ea23	-0.008404287129669069
61	0xbf8abaf08c61c982	-0.013051871570699761
62	0x3f707e084aaf46ef	0.004026443852994651
63	0x3f8d7b43eb0cf1a4	0.01439526616160764

encoder.0.1.running_mean f8 [64]
0	0xbfe2090b0053e614	-0.5636038786316839
1	0x3fd905063caa661d	0.3909316627919866
2	0xbfcb29147ca49101	-0.21219116293026022
3	0x3fdd3b0084bb4827	0.45672619783465723
4	0xbfd7c5c9b869f5dd	-0.37144701966448485
5	0xbfeadf21a118d26c	-0.8397377153801933
6	0xbf9c13f65f1ef104	-0.027419900470463623
7	0x3fdd063012d13346	0.45350267255416943
8	0xbf993f635407ddbf	-0.02465586853392465
9	0xbfb7d9e9575e7d58	-0.09316881545099898
10	0x3fb636afce8d8750	0.08677195351404277
11	0x3fe046e5176ced16	0.5086541612176088
12	0x3fb8463f268df1f7	0.0948218793036587
13	0xbfebc8c1c1f65060	-0.868256453354217
14	0x3fe1f6fc2217bfdc	0.5613995233416023
15	0xbfa6d46e6f2bae19	-0.044589472838051765
16	0x3fe594de32b61bfe	0.6744223585563984
17	0x3fe14d42743ed46b	0.5406811018389254
18	0xbfd5d19fc8d07989	-0.3409194432332688
19	0x3fdb2c5a9a3d7bc7	0.4245821481944713
20	0xbfb3627eb95a6901	-0.07572166466926335
21	0x3fdfea0dcec5e577	0.4986605185764214
22	0x3fd0654308e0c8fb	0.25618053309439376
23	0xbfc3f2dc186259b1	-0.15584899130472032
24	0x3fd2ebb1c2a9cdd8	0.2956356431015741
25	0x3fda551dbd9793cc	0.41144507899144567
26	0xbfe01909bc59da74	-0.5030564001779809
27	0x3fe4fc1f624e7302	0.6557766838119223
28	0xbfbc8c97d71c1cae	-0.11152028085426721
29	0x3fd3164e84f20b50	0.2982364939018014
30	0x3fd36c15450ef072	0.3034718679807674
31	0x3fe13c7a9b3de034	0.5386326820435046
32	0x3fb1d804bd036a10	0.06970243086417605
33	0xbfb280548305e471	-0.07227066229633451
34	0xbfe36e957b970e69	-0.6072490133160048
35	0x3fa355c1f2445120	0.037763653586951884
36	0x3fa097431cc94023	0.032404038680965884
37	0xbfd7a9139232d622	-0.3696946075172908
38	0x3fde35a193cbc3fb	0.47202338631819857
39	0x3fe5c982fbb6d10e	0.6808485904971648
40	0xbfe2e184ec954c72	-0.5900292034879284
41	0xbfca9406bb09929d	-0.20764240391431069
42	0xbfd607b58eac00db	-0.3442205327301175
43	0xbfc15741e02a7cf0	-0.13547538228610945
44	0x3fe1ea8d50f2a629	0.5598818379414229
45	0x3fdf3635f22d38ce	0.48768376016677173
46	0xbfb1435ceccbb504	-0.06743412762780926
47	0xbfa7d1bb17615aa0	-0.046521994213141626
48	0x3fda3494dcf246cb	0.40945931984707035
49	0xbfd48b2a4bde8377	-0.3209939709577649
50	0xbfd30f425ab1f73b	-0.297806347436438
51	0xbfc5067069d00dbc	-0.16425900618206224
52	0xbfd22e9dd2925129	-0.2840952450144579
53	0x3fe64d47c93af16f	0.6969336443212749
54	0x3fe3cf995994eb1a	0.6190916776316471
55	0xbfb850a6950e203b	-0.09498063220064605
56	0xbfdc63a1e26c9671	-0.4435810767339268
57	0xbfc2d3f3e4596301	-0.14709328317510287
58	0xbfae3f8b233179a7	-0.05907854847531562
59	0xbfbbe76eb8bb8268	-0.10900012979574003
60	0x3fb7fb8c79204d44	0.09368207890684227
61	0xbfb3aef09f3c479f	-0.07688812148651757
62	0xbfb30e2530e3d491	-0.07443458980181307
63	0xbfd2cb307ab225c9	-0.29365169507999817

encoder.0.1.running_var f8 [64]
0	0x3f76979099370fc3	0.00551563724315324
1	0x3f9ee740e26eff3a	0.03017903692284494
2	0x3f9132195e8ba2f5	0.016792675395580898
3	0x3f5d4f76067f3f29	0.0017889645186989855
4	0x3fa471f1352d84f3	0.03993181013243854
5	0x3fb6ec180294dd2f	0.08954000533127691
6	0x3f8d961ce8059e53	0.014446473913905999
7	0x3f97d1516481b6bd	0.023259422072831926
8	0x3fa92f24d207ce47	0.049187803877341944
9	0x3f9a81227d4e837a	0.02588323488055575
10	0x3f8911f4f4d05882	0.012241281243444261
11	0x3f903e7fe1a1aafe	0.015863416811423107
12	0x3fa62a277754972d	0.04329036075277624
13	0x3fb62ac511127e85	0.08659011523058709
14	0x3f97c993c2ac9173	0.023229893452609795
15	0x3f9c224ac67d1e7a	0.027474563946525234
16	0x3f9e52a8be6e7f20	0.029612194655441404
17	0x3f943b2eb2de6d10	0.019757013003624257
18	0x3f8ba9da61fb436f	0.013507562747152339
19	0x3f89c3979702f249	0.012580093666081942
20	0x3f934e4d3cbeaa51	0.0188533848119426
21	0x3f7cfa07c163d856	0.0070743849703288255
22	0x3f99691c12fa8b67	0.024815024050109182
23	0x3f925b196b461fc0	0.017925641224365796
24	0x3f8ace6a41921016	0.01308901798825705
25	0x3fa0008365bf7619	0.03125391594924682
26	0x3fb97d0d036cdc30	0.0995643742906942
27	0x3f952afcfe5c2e50	0.020671799683482484
28	0x3f8d13f094d1119e	0.01419818834450198
29	0x3f8b13978aee6e3d	0.013220962455128599
30	0x3f6b4483584d16f0	0.00332856801324765
31	0x3f8bba3454f723b8	0.013538750498712435
32	0x3f7979f2b5ea1877	0.006219814384740833
33	0x3fb55c9bf57c7546	0.08344435447039186
34	0x3f92d824caf8847c	0.018402647865631824
35	0x3fa0656c8eb2acff	0.03202380411070215
36	0x3f94ce7954e2c672	0.020318885618229428
37	0x3f843c9022c37622	0.009881139813326337
38	0x3fa0e3191d6b1d3d	0.03298262104140768
39	0x3f89498f1e068bbe	0.012347334007079765
40	0x3fa14a2b87b1b1f5	0.033768997492050014
41	0x3fb3be401799ef3d	0.07712174011424806
42	0x3f8e61817ba6b3e6	0.014834415041002868
43	0x3f88aaf7e877cc26	0.012044846326693625
44	0x3f569ef2c146a855	0.0013806696561951177
45	0x3f854e66616c6bc1	0.010403442237977846
46	0x3f9b09b413ffdf6b	0.026404203148529797
47	0x3f86d5ef16530052	0.011150234097272147
48	0x3faec878ff4b2c59	0.06012323490502842
49	0x3f78c364aef32cb1	0.006045716566585189
50	0x3f92ddec2d985241	0.01842469242372347
51	0x3f8dda69c6b89f9f	0.014576746346463497
52	0x3f9fceddf6eab7f3	0.031062572665795995
53	0x3fba7314b0b329ea	0.10331849397622475
54	0x3fa013780e2185a5	0.03139853641983884
55	0x3fb0a276f3611466	0.06497901384234836
56	0x3f81e835acc3bf88	0.008743686041696966
57	0x3fa76508954ab3fb	0.04569269964608932
58	0x3f9cdbb5658c97bc	0.028181871722288795
59	0x3f7459d770c9614f	0.004968492092835965
60	0x3f8faa150b333092	0.015461124805732394
61	0x3f93d5b6cdb8631f	0.019369942003410686
62	0x3f9a8b4fbe45c2e5	0.025922056186973647
63	0x3f93948a4be5f7a3	0.019121323473420337

encoder.1.0.weight f8 [64, 64, 3]
0	0xbfa41416d1472115	-0.03921576790486562
1	0x3fac42a832da4931	0.05519605274925466
2	0x3fb518d3de6a8589	0.08241008930283135
3	0xbfb5aa0e240edd6f	-0.08462608700107464
4	0x3f8a2256a373f753	0.012760807860555145
5	0xbfa5b7ef17376f36	-0.042418929657030466
6	0xbfaa796d39fa98db	-0.051707661941053217
7	0x3fae6f0cf3f9d6c0	0.05944099882337417
8	0x3fa862b8f38d0d9e	0.047628192644448605
9	0xbf9fa12e5c0c88f3	-0.030888294571135465
10	0xbfac4da0f94e842a	-0.05527976077360848
11	0x3faddf93c8cb93e1	0.058346384297500505
12	0xbfb68ad0110cf512	-0.08805561462664382
13	0xbf6c3a05f4017811	-0.003445636393776937
14	0x3f718e9208c409bf	0.004286356397872059
15	0x3fa2ef999e923463	0.03698425350840109
16	0xbfb3c58f9c805092	-0.07723329134779736
17	0x3f901b3595e193a1	0.015728795311946823
18	0x3fb81a6314948692	0.09415263416715394
19	0xbfa5d9d620145105	-0.04267758504480138
20	0xbfa7875d0d409c8d	-0.04595461642048191
21	0x3f8b45bfd40a0440	0.013316630037708888
22	0x3faac44ea64310b1	0.052278955264712386
23	0x3f91ab6cf2ac234e	0.01725549918322438
24	0x3f9a4f6e0426da09	0.025693625453380196
25	0x3fa2ecba9ba6bdd2	0.03696234846153924
26	0xbf92b1f44ff93b86	-0.01825696695442105
27	0x3faaed7a6b7c2d88	0.052593064900146536
28	0xbf930eb8651aa7aa	-0.0186108409604128
29	0x3fb3cf696fa2c058	0.07738360381586185
30	0xbf9055d6655e3599	-0.01595244401646809
31	0x3fb1227ba1dcc927	0.06693241788596947
32	0xbfa5617e7fbc5f5c	-0.041759446232559866
33	0xbfaaf79c3b7c81d8	-0.05267036653663454
34	0x3f96e5a19d2c365e	0.022360348909435827
35	0xbfa536a7d0c95607	-0.04143261359847022
36	0xbf988db82dffc403	-0.023978116805611915
37	0x3fa640d2c861d030	0.04346331306524609
38	0x3f937178fa4fafcf	0.018987551000392785
39	0xbfb25caf5a7ac6ad	-0.07172676047300781
40	0x3f673ab7284aa858	0.0028356148998982915
41	0xbfb273fa948ab509	-0.07208219648847004
42	0xbf9f4873c68d5dee	-0.030549820893922268
43	0xbfae603ecea32b99	-0.0593280436747456
44	0x3fb3f1dd0e7377c9	0.07790929415520433
45	0x3fb92363e5b8d176	0.09819626196332884
46	0xbfafa9bd3a7ef254	-0.06184188212452982
47	0x3f95fe65569b2ac5	0.021478255663889074
48	0x3fb688f8f93f5346	0.08802753529682858
49	0x3fa0c18d77b11aa9	0.03272668920594885
50	0xbf370d445df3a549	-0.000351742926751959
51	0x3f99fd37c37ddfa9	0.025380011851183024
52	0x3fab96b10217c41c	0.053884059434388315
53	0xbf7987862923a6f6	-0.0062327614452699544
54	0x3f8f0cb02f6f2939	0.015160919616296386
55	0xbf94e969d1babb08	-0.02042165129267473
56	0xbf990b4d202cad15	-0.02445717343213712
57	0x3f6fd992fb5c43e3	0.003887927125909561
58	0x3fada28aa0c6a70d	0.05788071835134021
59	0xbf89c3e23bae02ce	-0.012580649801522095
60	0x3fac7b68da449399	0.055629040378597235
61	0xbfa0e157e02c0518	-0.032969232668629
62	0xbf9873dcd9cd44a8	-0.023879481118744522
63	0xbfa6fac7212da039	-0.044882033157421515
64	0x3f8024357d53d96b	0.007881563079064255
65	0x3fa7f9e87e97a904	0.04682852311437283
66	0xbfb86759e63346d8	-0.09532701368450647
67	0x3f8bbc533a2e059d	0.013542795384412549
68	0x3f6e1a94a7229894	0.0036747840286635667
69	0xbfabd5d0167d0cd8	-0.054365637536216205
70	0xbfa7b53c5afc3802	-0.0463045941415743
71	0x3f5d085ef0818f63	0.0017720152991608999
72	0xbfa383ff219bb96b	-0.03811642918832344
73	0x3f9ca3b12d1bf3eb	0.02796818578552866
74	0x3f9218e8d72b6d8f	0.017673147328293445
75	0x3f9e9c7a5d75e3e1	0.02989379115522073
76	0x3fb28e1e8f660894	0.07248106957379924
77	0xbfb021138e5c4944	-0.06300470567319844
78	0xbfb31d7db206e9db	-0.07466874691355178
79	0xbfb157cc88585f5b	-0.06774595574131352
80	0xbf95134982f00d3a	-0.020581387154391374
81	0xbfa153ba0d5d03d8	-0.03384190953375538
82	0x3f721643d9012df9	0.00441576483724359
83	0x3f921d006ee2621e	0.01768875767501942
84	0xbfb53e15bec627c5	-0.08297859103745882
85	0xbf967560ba186c3b	-0.02193213592373076
86	0x3faaf5041a8b15fa	0.05265057395949309
87	0x3faaab2cc5f6406f	0.052087210812829514
88	0xbf7503c5d21a8580	-0.0051305510875477855
89	0xbfa541c19269bade	-0.04151730453746948
90	0x3f5b0e37b6a85c8e	0.00165133896610373
91	0x3f86d8af23510d41	0.011155479684140547
92	0x3fb11ac66b8c4fec	0.0668148052757826
93	0x3f83a28a0d94364e	0.009587362803837565
94	0x3f873e2cfcf9bca8	0.011349059553337718
95	0xbfae0e0413b0bc4e	-0.058700683024988196
96	0x3fa8866d4fcf183c	0.047900596611313934
97	0x3fac8330dd7536df	0.055688406976157394
98	0x3fa64219578e4256	0.04347304528994715
99	0xbfb666849a172098	-0.08750180017443865
100	0xbf97619f74b2bc3f	-0.022833339212123823
101	0x3fb21059b2352678	0.07056198693057947
102	0xbfa7bcbf3a58bebf	-0.046361900207896316
103	0xbfb324e56eb37e37	-0.07478174164452232
104	0x3f6892399ac5e29d	0.002999413021992871
105	0x3f8d64324690991e	0.01435126569601813
106	0xbf78ce6e1573635b	-0.006056242003261793
107	0xbf70be621ba39511	-0.004087813600766725
108	0x3fad9333bac05f5c	0.057763687655266266
109	0x3f9bb60c101ff94e	0.027061642154870662
110	0xbfaa1abe1d963a8e	-0.05098528014342661
111	0x3f7c28f82ee68a6c	0.006875009027143091
112	0xbf598376b494eb70	-0.0015572222931285705
113	0xbfa33ca708de05ce	-0.03757211669200054
114	0x3fb858b543ad75cc	0.09510357763561855
115	0x3fb1e569160d7d53	0.06990677631755675
116	0x3f9c3e5806a0d91d	0.027581572918472397
117	0x3fb5042eff9e68e6	0.08209508648579664
118	0xbf88cfdc22dfa559	-0.01211521130967934
119	0xbf93bf1bd5b0d867	-0.019283709447528354
120	0x3fa069826782d8e8	0.03205497277797226
121	0xbfa3ecbb6ed367fe	-0.03891549804548332
122	0x3faea2e191291162	0.059836434335496916
123	0xbfb77a8bd7a38dd6	-0.0917136575185887
124	0x3f85bd556d32f602	0.010615031619063412
125	0xbf92a36f5d402c24	-0.018201580111092977
126	0x3facbbfba4ddcfe4	0.056121696353244294
127	0xbfa873ff398c45b8	-0.04775998666276443
128	0xbfaa262e6d49bd36	-0.051072550621820076
129	0x3f93006a4d6f1956	0.01855627153033742
130	0x3fa2ef11a1c98a4f	0.03698020076696606
131	0xbf9584fd577d13b8	-0.021015127625350266
132	0x3fabcefb09f3cc79	0.05431351181496153
133	0xbf4c79ee1b83a4d2	-0.0008690273889701233
134	0x3f7d7d98101aa9f4	0.007199853893022457
135	0x3faf4b75167e028b	0.061122569080002874
136	0x3f73ffbefe074003	0.004882570327438887
137	0x3f475082e0887daa	0.0007115019844298649
138	0x3fad0addc8fc2940	0.05672352865629415
139	0x3fb2881875c87ee8	0.07238915324750972
140	0xbf8628782b3d8c62	-0.01081937677344608
141	0xbfab27542fa83a28	-0.053034430329820303
142	0xbf9f7e2d646b9dc7	-0.030754765752957682
143	0xbf9eb3432ff7a87f	-0.029980706980417878
144	0x3f96a92281bc32ce	0.02212957302895085
145	0xbf8854141deaa077	-0.011879117167453252
146	0xbf988574dce5ee4d	-0.023946596128992238
147	0x3f9752f9f1040c8d	0.02277746709388544
148	0xbf9f410617b7e05a	-0.030521483609817636
149	0xbf741e3cc659c5cc	-0.0049116491332922944
150	0xbf84ce0711196456	-0.0101585914700754
151	0x3fa32b26e5acd3d3	0.037438598190796
152	0xbfb27e8f63a0f5ec	-0.07224365408270444
153	0xbf9f1626ca04fce1	-0.030357938843050717
154	0xbf987d374105916c	-0.023915160506832775
155	0x3fa2d15997c918b2	0.036753463533885436
156	0x3f92a6a7ac458582	0.018213863267538162
157	0x3f576192be218eed	0.001427071860711611
158	0xbf9a7a9702525005	-0.025858268276877556
159	0x3fbac4e749af2f1c	0.10456700848515904
160	0xbf9c1a9e4c4bb447	-0.02744529095337025
161	0x3f921f5e5af80074	0.017697786619465153
162	0x3f95a82317d0dab1	0.021149204567530947
163	0xbfaa94d0e5266b90	-0.05191662595026181
164	0x3f9604c85db7bf51	0.02150261947639304
165	0x3fb0b5db7688c354	0.06527492183591949
166	0x3f9e2631a7be16fe	0.02944257341689304
167	0x3fb257aaeef68dc8	0.07165020307598191
168	0x3fb3e6533aefa3e4	0.07773323239202018
169	0x3fa287a1c76b9af8	0.03619103965120546
170	0xbfb07d50752bf5f2	-0.06441214428556188
171	0x3f99e54ae94195c0	0.025288744437053756
172	0x3f9dd3f05a5ff392	0.029128795162239714
173	0x3f7f0f3f32f82ba2	0.007582899924737515
174	0xbf9086c79bf96195	-0.016139143843561483
175	0xbf89a9c0a12a20d3	-0.01253080837092605
176	0x3f960962bb970fb3	0.02152017850836758
177	0xbfaf6755aad871ee	-0.06133525572315422
178	0x3fa6b2582fb6e80f	0.04432941038562898
179	0xbfa725698d5ebc52	-0.04520730829914811
180	0x3f8390ecc64c517f	0.009553766061380696
181	0x3fb060ff3ca2d1a5	0.06398005705233929
182	0x3fb2711825c75445	0.07203818247155976
183	0x3f7c7b2df75bab2e	0.006953410678515222
184	0x3fa142c85870291f	0.03371263579909311
185	0x3fa9d18b1a8e8265	0.05042681407144726
186	0x3fb4af99717c84a7	0.08080443401969949
187	0xbf9efa0bc35a6861	-0.0302507246002296
188	0xbf72ce2be4e97ec6	-0.004591151677771859
189	0xbf855037d05b3b45	-0.010406909986526389
190	0x3f5803868ab05409	0.0014656843075091539
191	0xbfb04e7c7620f2ca	-0.06369760402680949
192	0x3fb57028bee26748	0.08374266300452604
193	0x3fa61d9d24ce33d6	0.04319468569074274
194	0x3fb5ce75bcacce38	0.08518157821964045
195	0x3f6c05110836e211	0.003420384660526084
196	0xbfb196a7e237fbb1	-0.06870507500569435
197	0x3fb1d5aa2f4e3842	0.06966651587410502
198	0xbf8c4f4c4b8f3316	-0.013823123985184742
199	0x3fa676c829bfeea5	0.043874983879473896
200	0x3f8d2c142a94037c	0.014244229840643767
201	0xbf3c3cf9dae3def5	-0.0004308805463461984
202	0x3f906c76b98f0389	0.01603875644264322
203	0x3f87f3d6547a80d8	0.01169555135066995
204	0xbf83b938e6cbda97	-0.009630627196640247
205	0x3fa66e3a9aa99ff9	0.04380972993823202
206	0xbf98b477a9788da2	-0.0241259286104999
207	0x3fa2700f4a3da0d6	0.03601119786509492
208	0x3fa5e068661ba03b	0.04272772070345395
209	0xbfad8a15bc059e5d	-0.05769412918271819
210	0xbf9c1e37e6c76290	-0.027459023914931324
211	0xbfac6fb298d69432	-0.05553968539906186
212	0x3fa68de93985fd96	0.044051445266627784
213	0xbf7ffc0fb2141ef5	-0.007808743773473505
214	0x3fa12c955eebc15a	0.03354326995566011
215	0x3f8e9a224fe1acff	0.01494242483405239
216	0x3fa648f2cad97ad3	0.043525302183061186
217	0x3fa9135afbaf75cc	0.04897579500514446
218	0xbf9d90f265fdbb8f	-0.02887324092392479
219	0x3fb0c2c3ba72f425	0.06547187139490569
220	0x3f8abef9cc5852d5	0.013059569882025649
221	0xbfa5b685df1f680d	-0.04240816448846383
222	0xbfaa83932ec358f5	-0.0517850870689233
223	0x3fb068d13afe8add	0.06409938516894038
224	0x3fa8d07b6bc5dd89	0.048465592294571876
225	0xbf798dbfa01c58ac	-0.006238697563978029
226	0x3faa3ea443cd8a45	0.05125916793510447
227	0xbf8609297cf4a77f	-0.010759662748188735
228	0x3f960405e8235148	0.021499721807076072
229	0xbfa0e73b8c2d75f1	-0.03301416479255782
230	0xbfb0131ce6321d94	-0.06279163951886907
231	0x3faf613bdc619ba9	0.06128871026230993
232	0x3f74710179a863d8	0.0049905831933978115
233	0x3fa2593a9cd9b905	0.03583701290777878
234	0x3fac106d8c34a070	0.05481283508771717
235	0xbf6e5ce1ac9f138d	-0.0037063987446991965
236	0x3f8f7da7dba8ace7	0.015376387968976292
237	0x3f982386155f47ba	0.023573012403921935
238	0x3faa1db67507baac	0.05100794008818829
239	0x3f9d31f7ee940d33	0.02851092713991683
240	0xbf93cb786fa47bb1	-0.01933086568271464
241	0xbfa98f704f4eed84	-0.0499224755107788
242	0x3f8a278bb0b6790b	0.012770739870401579
243	0x3fb400cf18716348	0.07813734385252957
244	0xbf94d7dc1829ddf8	-0.020354689574075352
245	0x3fae028ff0d4b88a	0.058613298557575425
246	0x3f92e36039a625b2	0.018445495146385667
247	0x3fab501aac51cc36	0.05334552148351472
248	0x3faefbf3cf797665	0.06051599414489032
249	0xbfa823f50b580bb0	-0.047149331698185803
250	0xbf9337f4e715fca0	-0.018768145183909568
251	0x3fa4ec84c85b087b	0.040866994340391614
252	0xbfaadf62d58e89c7	-0.05248555046934516
253	0x3f7d7561039773e6	0.007192019425443319
254	0x3fb71d8217f7fcf2	0.09029400906728194
255	0x3f9cfc17394f991d	0.028305399773580143

encoder.1.0.bias f8 [64]
0	0xbf8824e18035760d	-0.011789094662783684
1	0xbfa26cc4dff9b696	-0.035986091938736184
2	0xbf95853180387830	-0.021015904856646894
3	0xbf8bddf9808f3f37	-0.013606976733995786
4	0xbf3d2880016f96df	-0.000444918872231843
5	0xbfaa87ed00051f9f	-0.05181828141445454
6	0xbf9e2c27005a5570	-0.029465302845513575
7	0x3fae15568034192b	0.058756545209734355
8	0x3f97d58afffa9aa5	0.02327553927775718
9	0xbfa82bbca0154d2a	-0.047208685437590894
10	0x3fb0a47c00017f75	0.06500983238356446
11	0x3faf8067fff8cde5	0.061526536938256084
12	0xbf92e89b401055f1	-0.018465448174614655
13	0x3fae39617ff49cc9	0.05903153120953559
14	0xbf80111bffed6e38	-0.007845133540903423
15	0x3f9476fc8037037a	0.019985146833053836
16	0x3fb23b8a3fff502f	0.07122100889620307
17	0x3f91079ffff79ec6	0.016630649564745047
18	0x3f8ff456006823e0	0.015602752578176948
19	0xbfa11d8c600a0885	-0.03342856094697403
20	0xbf74f41dff889458	-0.0051156207851238075
21	0xbfa3d487c019da4b	-0.03873085231764558
22	0x3fad7fc1800503cf	0.05761532485713127
23	0x3f969be000751152	0.0220789909628974
24	0x3fa110a17fe51700	0.03333000837532829
25	0x3f9e8fd7002c4e28	0.02984558046871491
26	0x3fb1bc0b7ff1061a	0.06927558778354417
27	0xbfb10200dffdba94	-0.06643681973012355
28	0xbfab0f2c1ff69ebb	-0.052850130941178596
29	0xbfaa0a041ff7167b	-0.050857666875839556
30	0x3f67167c00dc1514	0.0028183385792340896
31	0x3fa6f5b8fff14332	0.044843465083096126
32	0xbfa761d0fff571ce	-0.045668154950110215
33	0x3fa2ddebbff9dd23	0.036849372086118735
34	0xbfae1dbf7fba27f8	-0.05882070955438218
35	0x3faaf00800018418	0.052612543106768495
36	0x3fa3610280005478	0.037849500775487266
37	0xbfa1d591400146b0	-0.034832514823063376
38	0xbf9fcf2fffedac4c	-0.03106379508555461
39	0xbfa4ba3ea0074616	-0.04048343375655976
40	0x3fa0abf4800033e6	0.03256191313275973
41	0xbf733a0fffaeb5f4	-0.004694044585375579
42	0x3f9fb703ffe7bcf7	0.030971586698737643
43	0x3fa63137c006cc1a	0.043344251814595405
44	0x3f715c61ff55328f	0.004238493730849626
45	0xbfabc2642009e9a2	-0.05421746150109931
46	0x3fa6552e40059ce1	0.04361862689511909
47	0x3f469160093fae06	0.0006887167860418215
48	0x3fa4f9ddfff5186a	0.040968835348892466
49	0xbfa09c146005bac4	-0.03244079277179915
50	0xbfa1fe163ffa2243	-0.035141654309943
51	0x3faf89647ffed0fb	0.06159509718364294
52	0x3f8b9e5effe930bc	0.013485662636547928
53	0x3faaf5e8bffe50cb	0.05265738814992601
54	0xbfa1c2924012b411	-0.034687586137217015
55	0xbfb1e2e240004119	-0.0698682218792367
56	0x3fa4ad61c004a7c3	0.04038529843303664
57	0x3f842c14fff141eb	0.009849704800360256
58	0x3f98e0a17ffee25b	0.024294398724779103
59	0xbf948924bffba94b	-0.020054411142077993
60	0xbf9efb07ffd0746f	-0.030254483212150903
61	0xbf9938c10000fd54	-0.024630561471210413
62	0x3fa3ff49fffb94f3	0.03905707597531629
63	0xbf65c14bffe0ed31	-0.0026556476941813835

encoder.1.1.weight f8 [64]
0	0x3ff054527e782395	1.0205864849287754
1	0x3ff02204d07df2dd	1.0083053726404423
2	0x3fef635171e14a03	0.9808737968654103
3	0x3fef92d9d6000e90	0.9866761378948059
4	0x3ff0654d6631b0b9	1.024732016750063
5	0x3feff2ec288b62f0	0.998403624714312
6	0x3ff01ec370b94c2f	1.0075106051706475
7	0x3ff0056db0c46eb6	1.0013253121350494
8	0x3ff053dd8d723365	1.0204749608266976
9	0x3ff04114ae0f10e8	1.0158888625310798
10	0x3fef3e33fe5de941	0.9763431518652298
11	0x3ff01ea320285f41	1.007479787460355
12	0x3feff1f7aa66b7f9	0.998287041487628
13	0x3ff0220893abd768	1.008308960762827
14	0x3fefa4b6bbdd8c82	0.988856665539416
15	0x3ff0162bfaf9ba32	1.005413036702191
16	0x3fef9713cdf3a590	0.9871920607085247
17	0x3fefd06365ec9485	0.9941880217271694
18	0x3ff028d79bc93437	1.0099712453259266
19	0x3feffe4b29ca21ef	0.9997917000010242
20	0x3fef89cbb4b69b55	0.9855707673603812
21	0x3fef48edcef95dc9	0.9776524584257739
22	0x3ff0669790afe475	1.0250468875731518
23	0x3ff03b4bbb1d1e47	1.014476519501743
24	0x3feff277a6794d27	0.9983480693285046
25	0x3ff02916c55c20ef	1.010031481682798
26	0x3ff02a5e2b3e4d4d	1.0103437127298378
27	0x3fefd2aa341534bf	0.9944659249537365
28	0x3fef9a91cc944209	0.9876183505712685
29	0x3ff006aeb8ef646a	1.0016314720180852
30	0x3fefba850847e4c8	0.9915185128912976
31	0x3ff06ff9c74c58c3	1.0273378167235456
32	0x3fefcbe4bec0d96c	0.993639347615312
33	0x3fefae71f6f6b737	0.9900445769796765
34	0x3fef135acc975a7e	0.9711126323625903
35	0x3fef8620cafd6323	0.9851230587620176
36	0x3fef88c3c6e64978	0.9854449162251475
37	0x3fefda03ee2cb976	0.9953632022714334
38	0x3ff054aaae6d4934	1.0206705869246209
39	0x3ff0646cec46835c	1.0245179395207833
40	0x3ff057ba88616c15	1.0214181258550117
41	0x3fef7dbaab07028c	0.9840977993372504
42	0x3fef8ad65d5ba526	0.9856979201696603
43	0x3ff01dbb70d8c918	1.007258835609326
44	0x3fefe946001b6d2a	0.9972257616131277
45	0x3ff03c7003a82ddc	1.014755262646637
46	0x3fef7948fc0d35a7	0.9835553095705806
47	0x3feffa07ad89d2f2	0.9992712392255199
48	0x3ff054faea6c2125	1.0207471043705223
49	0x3ff098143fd3aed1	1.0371286862600082
50	0x3ff0070d1cb4a9e7	1.0017214890782442
51	0x3fef99beb9017e33	0.987517701472774
52	0x3ff017640c334bf6	1.0057106472565898
53	0x3ff0261815837a43	1.0093003120779407
54	0x3fefefd401bf5ef0	0.9980258974200904
55	0x3fefcea91c404b83	0.993977122476608
56	0x3fefc57e7d9ca3a7	0.9928581670147779
57	0x3ff02dae675aa2ca	1.0111526524798813
58	0x3ff00271f2cd1c5d	1.000596950952761
59	0x3fee8aea2d6eca41	0.954457367645155
60	0x3ff037e287074138	1.0136437677902688
61	0x3fefdf1434a6049e	0.995981314496152
62	0x3feff8f1aa8205d3	0.9991386728508423
63	0x3fef5c423028b8a3	0.9800120297056946

encoder.1.1.bias f8 [64]
0	0xbf8fb7693c844e3c	-0.015486547622038598
1	0xbf805e0c398a4748	-0.007991881853090313
2	0x3f7258b253b9cf34	0.004479118909887881
3	0x3f7130048a109461	0.004196183902455437
4	0xbf798af9f0e32977	-0.0062360537833206975
5	0xbf70e49eaab3da12	-0.004124278824056764
6	0xbf5d51a42495918f	-0.001789484306152198
7	0xbf68f388d84171d1	-0.0030458138226505467
8	0xbf71a32504f9da19	-0.0043059774467253615
9	0x3f7df3dd95ab7e10	0.007312646451026264
10	0x3f643e440148fe4f	0.002471096823029296
11	0xbf7497c78f5db455	-0.005027560740797095
12	0x3f7dcd3ce3ae188e	0.007275808190462153
13	0x3f9247451c979758	0.0178499983502641
14	0x3f6cc5512eb08bb6	0.0035120568841348855
15	0xbf95053c9edb5b61	-0.020527789302686176
16	0x3f9001f93e0b836f	0.015632528697895717
17	0x3f8deae501915fbf	0.014608182058665762
18	0x3f8af075a09d6a65	0.013153952564313795
19	0x3f811af73889c9ba	0.008352214253339752
20	0xbf9466acd7f75c1e	-0.019922924691709303
21	0xbf65a6e766a18abb	-0.002643062548530165
22	0x3f7f841d9fc2d388	0.007694354743013394
23	0xbf94db0d6489f854	-0.02036686826840424
24	0x3f8cb4cd7cc74627	0.01401672875445843
25	0x3f8002c3240af5fe	0.007817768609466032
26	0x3f86bf8b11fe6952	0.011107527243258506
27	0xbf72bf3492aadc97	-0.004576878893821099
28	0xbf6fb8887dd5f2b4	-0.0038721719599251418
29	0xbf84c481a29347d5	-0.010140431188492652
30	0x3f800687e275bf57	0.007824956511029475
31	0x3f778996c3ff3ef4	0.005746449402024945
32	0xbf8e9c82346e99c2	-0.014946953988169368
33	0xbf8755bee2c9cfa0	-0.01139401559451142
34	0xbf7d5ff7c1597c75	-0.007171600145368652
35	0xbf73afe9bdef7b02	-0.004806435636935504
36	0xbf9563a2592c5556	-0.020887886707972335
37	0xbf97072597bb17e8	-0.022488200555720456
38	0x3f9d43966a5f8e42	0.02857813858271486
39	0x3f922932735e5268	0.01773527936127764
40	0xbf635c60a9d438a2	-0.0023633850056575404
41	0xbf8e413a47be1b64	-0.01477284938279206
42	0xbf9ba41f4fe50457	-0.026993264438037148
43	0xbf5b7a5630525fb3	-0.0016771165549353928
44	0xbfa418276397336d	-0.03924677935319818
45	0x3f8d29b5bb231070	0.01423971154543599
46	0xbf81cdc321ce2926	-0.00869324156680713
47	0x3f89f54b7f7b1f98	0.012674894168767811
48	0x3f71f069338edf6d	0.004379664366687891
49	0xbf928fb311ab1cc8	-0.01812629504527477
50	0xbf1a51ad50c8e66d	-0.00010039921125661886
51	0xbf8ac8ad28e37cfa	-0.013078072367021399
52	0x3f84ada2dab02b46	0.010096809672196404
53	0xbf8fb29a8a003952	-0.01547737821240661
54	0x3f85f298c3dfa243	0.01071662280806252
55	0xbf787e69ba531cdd	-0.005979931830729171
56	0x3f6780d511eab6fe	0.002869049217529062
57	0x3f88345452b4e576	0.011818560384756021
58	0x3f9548c40fec8914	0.020785392257615845
59	0xbf8b7856e393515f	-0.01341312295918645
60	0x3f8545f1716767a1	0.010387312196076528
61	0xbf93ffea8582a20a	-0.019530929945775134
62	0xbf5480447a187cba	-0.0012512844772414725
63	0xbf8b1a1bdae7e307	-0.013233392351126761

encoder.1.1.running_mean f8 [64]
0	0x3fd0fd7127bf11d6	0.2654688728473763
1	0x3fd883c436ae5eb4	0.38304238643602706
2	0x3feaff23dae628ca	0.8436450267193092
3	0x3fdeed5f6ab0a54e	0.48323808115909095
4	0xbff18b2a66aec02a	-1.096475983718856
5	0xbfd3c5e48f50349a	-0.30895341868819914
6	0xbf89001e3f224666	-0.012207256604855842
7	0x3fdefe9f602f3e5d	0.48429092782041555
8	0x3fdda88f6699f0f4	0.46341309566174904
9	0x3fbb6d6c00ebeab6	0.10713839552401336
10	0xbff7a55afe0254a4	-1.4778699800711275
11	0xbff18dbe571c4178	-1.0971053507565482
12	0x3fdbf24ce094ec0e	0.43666383678254383
13	0x3fbd987329a20820	0.11560745016507257
14	0xbfebfe6ae3770203	-0.8748068278001145
15	0x3fdf413c598aa634	0.4883566736631082
16	0xbfcc2542842826e8	-0.2198870797440613
17	0xbfea1a64a446482c	-0.8157218178259931
18	0x3fb928c22cda354c	0.09827817530659394
19	0xbfe0964660fe651e	-0.5183441061409757
20	0x3fc91c5dd8a1e008	0.1961781795287154
21	0x3fe44e5686d8d5f5	0.6345627435427433
22	0xbfeb331e525f6994	-0.849990044483365
23	0x3fd19f12eda433f8	0.27533410269899106
24	0x3fdae3901ddf2f65	0.4201393405644381
25	0x3fe3781e3921ba8d	0.6084128490309283
26	0x3fb287716d144de0	0.07237919724530384
27	0xbfef0c6f90725ca9	-0.9702680417275548
28	0xbff14ca27f592ba6	-1.0812096571487273
29	0xbfc3a8e81cd7b14e	-0.15359212311103437
30	0xbfca38493a5d53ea	-0.20484271383125413
31	0x3fb4d8a20863e83a	0.08143055634346377
32	0x3f67833a62c8b74b	0.0028701916073918025
33	0xbfe35ae5d25831f5	-0.604845915631414
34	0x3f572aa772c6aa97	0.0014139781224950293
35	0xbfe5226ef5040dd2	-0.6604532990899605
36	0xbfe78ceaf82195e2	-0.7359518858253831
37	0x3fd702a0e55d33ae	0.3595354308970923
38	0x3fd17ee1dad5534e	0.27336927767219243
39	0xbfbdf69952321367	-0.11704405075768208
40	0xbff6a91ca8eeb81c	-1.4162870978284507
41	0x3feca06b23da8bf3	0.8945823383586443
42	0x3fd9e3cda1543d72	0.40452900652686374
43	0x3fe2ecb497093172	0.591394705764783
44	0x3fcf43b2a6d770bb	0.24425347467957245
45	0x3fc4bb962aa55a44	0.1619746883613563
46	0x3fc11e8a2966e0da	0.13374449750495537
47	0x3fe09e4e3adc6f82	0.5193244123106384
48	0xbfe2cfb3851cd40c	-0.5878541564803768
49	0x3fe1701f94b9f8df	0.5449369339765119
50	0xbfd0580d35ad2109	-0.25537424318146457
51	0x3fe9091b5154fc12	0.7823616589083733
52	0x3fc929bbc276348a	0.1965861033935748
53	0x3fecba70365485c8	0.8977585850845395
54	0xbfbc6900344326b7	-0.11097718501982966
55	0xbfe3e94b58ca60a7	-0.6222283109846288
56	0xbfe9c4dcdc5c55cc	-0.8052810958785641
57	0xbfe4c6ba876003b0	-0.6492588657421177
58	0x3fe215349d52a2bb	0.5650885651312686
59	0xbfce7251b32b3722	-0.23786374329068233
60	0x3fc4b2211b7abba5	0.16168607560890993
61	0xbff1e0767beb4f09	-1.1173004952042354
62	0xbfe52760366968fd	-0.661056619904485
63	0xbfe9f43a4cd3721d	-0.8110629559046775

encoder.1.1.running_var f8 [64]
0	0x3fe8a278f7c311c0	0.7698330725766525
1	0x3ff1e48058fdca55	1.118286464331182
2	0x3feded838013cefb	0.9352433682929296
3	0x3fe992df667e7bc2	0.7991787912213726
4	0x3ff348ed3200dea3	1.2053043320901586
5	0x3ff34c568a4ec0ab	1.2061372187272734
6	0x3fee9bbb3159ed82	0.9565101589100069
7	0x3fda2102a5d316e5	0.4082647914295719
8	0x3fd7a32e6b18c9c3	0.36933479746508285
9	0x3fde3e14a1ee82cc	0.47253909886971424
10	0x400563fa431a8371	2.673817180868746
11	0x3ff9fca2a03d05d2	1.6241785296737032
12	0x3fd896a3a1bebaa5	0.3841942863026964
13	0x3fea04952967b6d0	0.8130594071096429
14	0x3ff402d8a9a98baf	1.250694906943618
15	0x3fe53c7d34f58230	0.6636339220386329
16	0x3fe921ea8ba361da	0.7853901603039575
17	0x3fe41d41c31ca5ad	0.6285713969020229
18	0x3ff4ab4156ad6254	1.2918103586036027
19	0x3fe16a43901f7e21	0.5442216696646406
20	0x3fec8b30fe1a5317	0.8919911349244981
21	0x3fe3435d5a6e89b9	0.601973225235546
22	0x3ff1af55c3b1c52b	1.1053064007103994
23	0x3fdd8483f1a84fb0	0.46121309851991565
24	0x3ff2377c3c6918c0	1.1385462150370103
25	0x3fe9288425a982ee	0.7861958251561114
26	0x3fe3af7dd96f3ab8	0.615172314335573
27	0x3ff3461ff8babbbc	1.2046203342431303
28	0x3ff1099dab6993a2	1.0648476310536599
29	0x3fee84f75f9f482b	0.9537312381382937
30	0x3fd01d8943ad45d9	0.25180274590556234
31	0x3ff48c62e09c636b	1.2842739843237847
32	0x3fd67573d460bbe1	0.3509187292101484
33	0x3fec176b5e3272ef	0.8778588142191363
34	0x3fe1917379a5bc62	0.5490052581716436
35	0x3fde7de4c10dc913	0.4764339337626932
36	0x3fe8542b70c65dc9	0.7602746203073646
37	0x3fd8397457b284a7	0.3785067421359351
38	0x3fd2fbdc8f0af7b2	0.29662240952518026
39	0x3fea4670be36c028	0.8210986819376602
40	0x40053f98534a8bdd	2.656052256309961
41	0x3ff010ae84cceb36	1.004072684051335
42	0x3fdc466377916949	0.44179617573322055
43	0x3fea4b3028a2f2c9	0.8216782373125052
44	0x3fe2f4c9d6328df9	0.5923813994926937
45	0x3fe1b0deeae08015	0.5528406703415408
46	0x3feabbdee95368c7	0.8354334408898233
47	0x3fdbce3c586dc345	0.4344626296579473
48	0x3ffb1cfb64f4d6ac	1.6945756858453178
49	0x3ff26ae9a456a4a9	1.1511017245741562
50	0x3fe8dd3c6f7aebce	0.7770063569399726
51	0x3fe63a596c749d9d	0.6946227186462469
52	0x3fdf29ebaae51942	0.48693362893063263
53	0x3fe89f6c8f1e6630	0.7694609446800253
54	0x3ff24171d1544ff0	1.140977685635331
55	0x3ff198b2d89830e1	1.0997799359056943
56	0x3fed173be9fb7c9c	0.9090861864059607
57	0x3ff522c5c562e855	1.320989390411815
58	0x3ff1ed94f9800961	1.1205034013842907
59	0x3fdd0e8e94f129df	0.4540134863388214
60	0x3ff0e8ceb069b390	1.0568377390984303
61	0x3ffdd9e0bac954b8	1.8656928345056212
62	0x3ff14ab8cf1b0eb8	1.080742653853049
63	0x3fe0aacbe77a3986	0.5208491822284465
