models/matching_nets/DF_n=1_k=5_q=15_nv=1_kv=10_qv=1_dist=cosine_fce=None.pth (torch, 316367 bytes, 24 tensors)

encoder.0.0.weight f8 [64, 1, 3]
000000 31 cc ac 03 d2 9a cc bf dc 79 87 5c 2c f6 d7 3f
       -0.22347474269335657 0.3744002250295162
000010 ee 52 44 b9 36 9c c8 3f 54 e4 9e 44 9c 7a e1 bf
       0.19226726576075442 -0.5462170925376406
000020 f7 98 67 6f 6d 4f d3 bf 46 c6 55 06 08 53 cd 3f
       -0.30172286872256343 0.22909641560868205
000030 37 97 fc 44 d0 45 c9 3f 15 c7 3b 81 e2 2b d1 3f
       0.19744304054727888 0.26830351467570895
000040 10 96 0f 7d d1 e9 d8 bf 30 d7 e9 7e 50 1d df bf
       -0.38927113736130625 -0.4861642112149296
000050 53 12 d7 7a ba 0f df bf ee 2e 61 cd 70 d9 e1 bf
       -0.48533498760324284 -0.557793046123576
000060 d6 dd 11 98 98 fd cc 3f 48 c4 05 31 3f 6e b4 3f
       0.22648913789065145 0.0798072333034422
000070 83 77 6e eb a4 02 d2 3f 3a 30 34 e8 c9 9f c0 3f
       0.2814113902221537 0.12987636411742348
000080 c0 ff 25 f0 13 15 ab 3f 77 bc 72 a1 1f c7 b2 bf
       0.05289518648623881 -0.07335088435751112
000090 56 fa b4 0e de 7f d1 3f 83 8c a1 72 1f 9d dc bf
       0.27342940746522026 -0.44709001726568703
0000a0 f3 e9 71 66 05 96 de bf 31 8f f4 b7 81 a6 c8 3f
       -0.47790656093971434 0.19258138162796848
0000b0 26 15 5d 7d 98 2f d9 bf 1f 3d db 30 d4 29 c2 bf
       -0.39353000872172783 -0.14190151582304453
0000c0 ba 14 87 8a f6 4d da bf e1 ea 64 f3 46 40 c2 3f
       -0.41100848701564596 0.14258658298952923
0000d0 8b 3d 4e de 6b 06 db 3f da 9c 46 c4 c8 70 db bf
       0.42226692876371236 -0.42875880401193245
0000e0 33 98 b5 8e 05 96 dd bf 83 60 a8 76 9d 6a d1 3f
       -0.46228159843883815 0.2721322687880347
0000f0 27 89 75 17 9a af d3 bf 6a 56 ee 6b f7 ab d9 3f
       -0.30759289065294343 0.40112100162637054
000100 51 8c c2 d3 f3 48 d2 3f 6c 4d 16 5f 44 37 bb bf
       0.28570266418154683 -0.10631205865347731
000110 7c 4d 4f fd d5 c9 cf bf e2 7f 86 20 29 44 85 bf
       -0.24834704273835573 -0.010383912377449126
000120 5d 3d 97 36 da 17 d7 3f c0 04 67 73 fe ae c8 3f
       0.36083083468562 0.1928403914917336
000130 48 1c f3 74 4a d3 c9 3f a0 92 9f 8e 60 8f d3 3f
       0.20176058493072646 0.30562604835567164
000140 87 51 22 77 83 50 cd bf fc d1 81 93 c6 f9 de bf
       -0.22901957814304927 -0.4839950981616139
000150 8b 42 1c 71 76 7a d9 bf f5 8b 32 c0 ab c1 b7 3f
       -0.39809952779709395 0.09279893343277464
000160 68 45 1b dd dd 8f ca 3f 8b ee 60 d7 b1 c4 c7 bf
       0.2075154618856161 -0.1856901456502452
000170 63 a1 86 a8 8e 86 de bf 7d d1 7c 49 21 69 d3 3f
       -0.47696272332770756 0.3032916276599947
000180 2d d8 26 57 ac 2a d6 3f 71 03 39 54 ab 9c 99 3f
       0.3463545657244847 0.02501170827440852
000190 16 78 f9 72 87 15 d9 bf 8a 63 b1 56 f9 23 d5 3f
       -0.39193903186776546 0.3303206774340245
0001a0 d4 63 a7 74 b9 99 a3 bf 56 17 51 07 d0 a6 ad bf
       -0.038282199373220444 -0.05791330422702738
0001b0 be b8 9f 4b 84 16 e0 bf a4 16 84 8b a0 a5 b5 bf
       -0.502748630240397 -0.08455851942206977
0001c0 69 ee d4 05 ac 9e e0 bf a6 50 b6 2f 26 ba cd 3f
       -0.5193691362287157 0.23224332170196255
0001d0 61 c5 ac 6d 3e 80 df bf d5 75 a8 4c d4 e5 d0 bf
       -0.4922023840946022 -0.26402766691339014
0001e0 f8 2a 4b 10 45 71 db 3f 90 b6 b6 ad ca dc e1 bf
       0.42878843871282823 -0.5582021134229809
0001f0 79 cc 7a c0 8b 71 c7 bf 74 77 a3 78 5d 07 d4 3f
       -0.1831526460497093 0.3129495313750035
000200 d8 a5 c3 6e bc 0b e0 3f aa b0 9b ac b0 87 d7 3f
       0.5014326251377339 0.36765686851755197
000210 37 60 5f 05 bc e6 e0 3f 7e 7d d4 af 7e 92 ca bf
       0.5281658272679185 -0.2075956686539761
000220 1a f2 3a c2 ad e8 cd 3f 5d 70 a0 24 a6 56 d1 3f
       0.23366329177760364 0.27091363503291693
000230 64 5d 05 26 7e 5b e1 3f 8e 7c 16 c1 7e 81 e0 3f
       0.5424185507389834 0.5158075114485585
000240 0b 3f 52 dc f0 f3 c4 bf 20 7b da ee e1 de b4 bf
       -0.16369448430895547 -0.08152591782934993
000250 10 71 2a 26 74 ad e1 3f 60 7b d4 8c 07 9f df bf
       0.5524235482621709 -0.49408138993196893
000260 bc 2b b5 e0 65 04 c9 bf 75 3a 51 a4 99 29 c5 3f
       -0.19544671508842082 0.1653320362406309
000270 93 a0 5c 75 3c 5f df bf 26 22 1b e5 e3 9f d0 bf
       -0.49018775426021327 -0.25975892423278635
000280 4d 0f 5c e7 ad 05 d3 bf 9c d0 a8 87 c9 ef dd 3f
       -0.2972216376658608 0.46776045082084194
000290 33 8d e4 bd 64 7d d9 3f 09 86 2e e9 bd b5 b2 3f
       0.3982784132405925 0.07308566039002796
0002a0 42 86 78 a5 b2 aa dc 3f 06 fb ae 5e 25 5e e0 bf
       0.44791856917627026 -0.5114924287116487
0002b0 cd 89 23 f4 5a cc d4 bf f3 b4 4e 99 45 4c c7 bf
       -0.32497285691911487 -0.18201513276782286
0002c0 d0 d5 ad 27 86 32 b8 bf 05 e9 13 f2 91 86 de 3f
       -0.0945209357140222 0.4769635070839658
0002d0 28 4b 98 6e 69 9d e2 bf 0c 82 9f 5f aa ca a3 3f
       -0.5817153129631594 0.03865559022210982
0002e0 15 15 7c 65 69 7d dc bf 84 3f 85 fb c2 a8 d5 bf
       -0.44515452299704467 -0.3384253937010657
0002f0 00 ab 43 fe 87 f9 ca 3f 9b fe 3d 89 0e 96 cd 3f
       0.21074008860826865 0.2311418695571675
000300 84 ed 5d f1 d8 16 99 bf 5b 14 7e f6 76 86 dd 3f
       -0.02450121854006461 0.46133207389386194
000310 84 a3 3d eb a4 43 e2 3f 3b d4 a5 12 96 f6 c9 3f
       0.5707573504015362 0.20283771429572703
000320 a7 09 9b f2 57 71 bf bf a9 07 de f1 53 5e e2 3f
       -0.1228232352541797 0.5740146373720921
000330 e0 cb 2a 37 66 12 aa 3f 84 2e 30 36 fe aa d4 bf
       0.05092162536075029 -0.32293658534829484
000340 f0 a2 d7 1c 51 c7 cb bf 2a 4f 27 a9 f1 20 cc bf
       -0.21702016743008512 -0.21975537070704237
000350 65 1a 14 e4 82 c4 e0 bf 82 fe a1 0c 4f 2b dd bf
       -0.5239881949099298 -0.4557683585517013
000360 73 59 38 ce 68 fc b9 bf 6a a9 31 f2 d5 82 de bf
       -0.10150771174116872 -0.47673557903058017
000370 58 89 61 80 1e a9 dc bf 59 b3 4b c4 2a ac 8d 3f
       -0.4478222135277483 0.01448853885218575
000380 da b0 f5 91 e7 13 ce 3f 5b 33 32 5f f8 b7 df bf
       0.2349824392980569 -0.4956036500596405
000390 20 0f 38 84 2c 07 d8 3f 85 b7 02 6d 02 4d d1 3f
       0.37543785964975207 0.27032528539245276
0003a0 52 3f c1 67 4c 50 d2 3f 21 0a b5 80 5e e4 d8 3f
       0.28615102894126665 0.3889385468393432
0003b0 04 83 7a 7e ab 0f e1 3f c3 35 74 ec de 79 d2 3f
       0.533162829426232 0.2886884030457077
0003c0 fa 7f ef a9 80 bb aa bf 34 5f a0 71 b2 48 cf 3f
       -0.05221178125771071 0.24440603778998027
0003d0 0a e8 0e fa 09 ab d2 3f 66 45 0e 11 e2 2c d8 bf
       0.29168939037083474 -0.37773944535827864
0003e0 a0 5f c5 49 9a ef c0 3f 5e 9e 5b c7 fd 08 db bf
       0.13231209375476016 -0.42242378681701165
0003f0 9c a8 a9 9f 40 85 d4 bf f3 c0 9f f9 0e 4a db bf
       -0.32063308326781637 -0.4263951719031091
000400 3f 31 b0 dd 1a ff af 3f 28 9a c6 ab 86 42 c9 3f
       0.062493171273759966 0.19734271419038518
000410 f1 17 a6 01 f4 e4 bd 3f b9 e8 70 76 bc 75 e0 3f
       0.11677479782346702 0.5143720925618914
000420 7e 66 7c fd 9e 0f b0 3f ac e0 20 10 ce 27 c7 bf
       0.06273835838910632 -0.1809022501709071
000430 14 34 98 81 c2 38 ca bf 27 25 f1 9e 42 61 c8 bf
       -0.20485717132433534 -0.19046814690435918
000440 c1 5e 41 d7 c5 17 bb bf 5a bc 32 73 b6 5f c6 3f
       -0.10583149438150043 0.17479591965590907
000450 ce 6f 7c f0 3c 4f c2 3f d8 e9 4b 25 8b fc e0 3f
       0.1430431532143061 0.5308280685852038
000460 80 64 6c e2 17 71 b4 bf e5 85 04 25 e7 42 e0 3f
       -0.07985066678920028 0.5081668589593248
000470 cf ca 15 2d 1a 41 e1 3f de 8b d9 e7 bb 20 af 3f
       0.5391970520562043 0.06079661565015447
000480 fe 1d 6d fc a8 e2 c3 bf 2d 7b a9 4c 87 9c d9 3f
       -0.15535461736202189 0.40017874228026323
000490 73 96 a9 9b 9c 69 e0 3f 06 af ba df 4a 67 db bf
       0.5128920593530907 -0.42817947243268895
0004a0 be ad 17 0b d3 ff e1 bf 3f e3 52 99 7a 35 d4 3f
       -0.5624785629892626 0.31576409314179793
0004b0 6f b1 cb 9f 5b 54 dc 3f 94 d3 98 d2 3a 8f d5 3f
       0.4426487980370188 0.33686705175505804
0004c0 7b 7b 11 11 9b 14 e2 3f 13 23 ab 9f 3f 3a d1 bf
       0.5650153478016898 -0.2691802081358656
0004d0 fd 3b 7a df fa 3b cf 3f 9a fb 1d 70 ad bf a4 bf
       0.24401794349657271 -0.04052488320939247
0004e0 ef c0 e1 14 0f c0 b5 3f fd 2c 5f 40 33 04 c8 3f
       0.08496183643160625 0.18762817996171313
0004f0 0f bf e6 a7 2c dd c9 bf 08 13 8c 88 d7 53 c8 3f
       -0.20206220815952533 0.19005865256635723
000500 b4 0e 17 4f 32 be d7 bf 5a cd 22 83 5a ae bd 3f
       -0.37098367427482093 0.11594167424737148
000510 8f bc 74 9d ec ad a0 bf e7 01 3a 12 0c 96 de bf
       -0.03257693693228091 -0.47790815143528537
000520 cd 45 8e 4e a0 a7 d8 bf 49 6d a1 bf 3e c3 c2 bf
       -0.385231091227152 -0.14658340794526684
000530 be a9 85 21 cc 58 bd 3f ad 12 78 70 80 07 d4 bf
       0.11463619059001126 -0.3129578684168262
000540 26 21 e1 d9 26 28 a6 bf 54 9b ff 0d 56 ab e0 3f
       -0.043275083634002606 0.5209150575072763
000550 70 ce f1 43 62 d3 b8 3f e2 fd 1d a6 47 3b d6 bf
       0.09697546156695025 -0.3473681566465229
000560 b0 83 1f 5a fe b4 ca bf db 8d c0 2e 51 99 a5 3f
       -0.20864848518888612 0.042185341794062935
000570 e4 b0 47 80 58 6c e1 bf b4 86 d7 fb c7 57 ba bf
       -0.5444757943601215 -0.10290193460925928
000580 f9 d2 72 db 10 4d dc 3f 78 a1 0e ca 8f aa cd bf
       0.44220372610588715 -0.23176762929984895
000590 aa 1f 5e e7 d6 f2 cd bf 73 03 85 93 1d bc cd bf
       -0.23397337243318123 -0.2323033304510563
0005a0 38 7b d7 4e 0b b2 9c 3f 8c ad db 7b 76 da ba bf
       0.028022934615246714 -0.10489597820167357
0005b0 c2 6e 9e 2c ff 8e e0 3f 42 4b 1e 25 cc 68 d2 bf
       0.5174556609594776 -0.2876463282092808
0005c0 10 94 27 e6 32 31 d8 bf ac b4 ce d0 14 4e af 3f
       -0.3780028579333825 0.061142588128271086
0005d0 10 09 14 65 00 7c bc 3f 47 6d b5 3d 3f 1d ca bf
       0.1112671133778671 -0.20401754868621877
0005e0 19 50 a0 c6 36 9f d8 3f c5 0b d9 c1 f5 dc b5 3f
       0.3847176494321061 0.08540283186543636
0005f0 d8 98 77 52 3e 4d df 3f 35 ee dd e7 9b f4 cf bf
       0.48908956578669693 -0.24965237447382696

encoder.0.0.bias f8 [64]
000000 4e 1b 08 40 5b 07 d0 3f e3 d3 75 ff 3b c3 ab bf
       0.25044900181858487 -0.054223895010103516
000010 ac 67 f4 ff 29 9a dc 3f 1f 57 10 c0 9c c5 c7 bf
       0.4469094276006398 -0.18571814897648495
000020 b1 ae f0 7f 99 b3 cd 3f 77 9a 3e 80 37 a7 dd 3f
       0.23204344508245847 0.4633311035526399
000030 b0 61 01 80 39 46 de bf cf f7 9a ff 15 40 ad 3f
       -0.47303617001082454 0.057129561855148496
000040 3b 12 fd ff 62 3b b0 bf cc df ed bf 21 0a e0 3f
       -0.06340616941185655 0.5012367962472069
000050 99 d7 8b 00 aa 3e a1 3f fb b3 c0 bf 64 65 cb bf
       0.03368121391933627 -0.21403178561141076
000060 c1 c2 fc 3f d9 03 e0 bf ee 06 ab 7f 2d 8f b8 bf
       -0.500469803786551 -0.09593471876999235
000070 8a 4e fb 3f 4a 13 d5 3f d6 c3 f4 ff 4a 05 c6 bf
       0.3293023705311745 -0.17203652856690493
000080 c0 85 3a a0 2d 17 df bf 88 37 c8 ff e2 42 d8 3f
       -0.485789686654325 0.3790824411270184
000090 f6 d2 0f 80 7b a6 d3 3f aa ae 02 80 2e 19 e0 bf
       0.30703628068958666 -0.5030739307598726
0000a0 a7 05 f4 7f 2c d7 c4 bf b6 b7 06 00 cb ae bf bf
       -0.1628165840884723 -0.12376087904587404
0000b0 e0 2a 0f c0 04 f0 de bf 85 b2 15 00 c4 b1 ac 3f
       -0.4833995700434297 0.05604374409708605
0000c0 59 12 87 01 b0 fa 8b 3f 9f bb 2e 40 9d cc cf bf
       0.013661742254847885 -0.2484318316832885
0000d0 4a 5a ff ff 1d 88 c1 3f 83 38 08 00 d8 75 ba bf
       0.13696646690250908 -0.10336065293106071
0000e0 db 55 f6 7f 93 64 c9 3f 4d 83 f3 bf af 3a d2 3f
       0.19838184116512889 0.28483194108234927
0000f0 2f 40 f8 bf 56 78 e2 bf b7 0a ef 1f cf af d5 bf
       -0.5771898030670907 -0.33885553473025304
000100 dd 47 fd ff bb 14 c5 3f c6 23 02 00 b2 7f ab 3f
       0.1646952629039892 0.0537086129198268
000110 50 4e f1 bf 1e a2 c0 bf 28 1e f1 7f fb 1d d7 3f
       -0.1299475133151753 0.3612049817497529
000120 50 39 98 ff 47 a2 a3 bf 70 84 0c 40 07 33 d8 bf
       -0.0383474826340825 -0.3781145215489863
000130 32 19 01 40 e7 29 d5 3f 4c 8f 03 00 95 a5 d3 bf
       0.33068257570666326 -0.30698132516248644
000140 78 16 0f 00 1d b1 ce 3f 4e ce ec 7f fa f3 dc bf
       0.23978006842496646 -0.45239126675298713
000150 21 3e 0b c0 8c 3f e0 3f 0e 4b 12 c0 ed 35 d7 3f
       0.5077575445993184 0.3626665473649816
000160 03 c8 b6 00 31 03 bd bf ca 69 ea fd 1f a2 94 bf
       -0.11332994716102011 -0.02014970767286587
000170 6a 95 f0 ff f6 49 d1 bf 9e 2c 05 e0 3a e5 da bf
       -0.2701394557392037 -0.42024108769391855
000180 6e 28 18 c0 73 d5 c8 bf 27 65 ee ff 03 87 d7 3f
       -0.19401404265983352 0.36761569970402025
000190 8f 3c 07 00 9e 18 b9 3f cb 62 43 ff 67 f8 8b bf
       0.09803187847795612 -0.01365739104987664
0001a0 fb 06 ba bf e2 8d d9 3f 39 83 2b 00 4e 6e d8 3f
       0.39928501818950196 0.3817324639949678
0001b0 40 ed ec 3f b4 22 dc bf 38 7d 23 60 4c e2 d1 bf
       -0.439618170191995 -0.2794371546605876
0001c0 62 33 9d 00 68 6b 96 bf 33 ea ea ff 45 2a c0 bf
       -0.02189409736392934 -0.12629008289316487
0001d0 8c 02 f1 5f 36 d3 d0 bf 54 86 69 00 c0 8d c4 3f
       -0.26289138192445516 0.1605758668911671
0001e0 93 16 0e 80 69 39 c2 3f 5c d4 9e 02 88 31 96 3f
       0.14237707855879886 0.021673321876466964
0001f0 fa 65 58 00 c6 eb ae bf d2 d4 f8 5f 26 43 e2 bf
       -0.06039255861487543 -0.5706970095112871

encoder.0.1.weight f8 [64]
000000 d9 92 e0 96 c0 db ef 3f fd 58 0f 4d c9 d0 ee 3f
       0.9955752322026356 0.9629866128041439
000010 3b c0 02 da af 60 ef 3f 78 0b 1d 97 41 f4 ef 3f
       0.9805526025793435 0.9985664321360295
000020 41 1b 37 97 31 1b f0 3f 74 4e 7f 12 56 fd ef 3f
       1.0066390902372435 0.9996748315119945
000030 ab 65 bf 5b c5 0e f0 3f 90 84 dd 06 3a 13 f0 3f
       1.0036061843769442 1.004694010560602
000040 f7 a2 d3 a0 e2 11 f0 3f aa b0 a3 9f 95 67 ef 3f
       1.0043665201466732 0.9813945882756532
000050 94 e3 11 36 15 31 f0 3f 50 82 10 62 7b d1 ef 3f
       1.0119831192116395 0.9943215289423026
000060 b2 4d 19 fb 98 b6 ef 3f 29 54 aa 2f 5c 0f f0 3f
       0.9910397438310865 1.003750024979363
000070 6c 92 fe 58 dd 03 f0 3f 5b cf 7c b6 e4 6b ef 3f
       1.0009435154289816 0.9819205822190996
000080 da e0 1e 0b 4f 15 f0 3f 4d fb bf 9e 8e 74 f0 3f
       1.0052023348235282 1.0284563256424974
000090 13 b4 96 d7 e7 ba ef 3f 93 a1 24 b5 4c 7c ef 3f
       0.9915656290737637 0.9839232957793221
0000a0 be 45 d3 ae cc 87 ef 3f e1 fc d9 e7 06 76 ef 3f
       0.9853270926052387 0.9831575897550487
0000b0 c3 a3 a3 39 6a 57 f0 3f 91 33 5b 70 b4 f7 ef 3f
       1.021341538575357 0.998987407155811
0000c0 4b 57 1e 1b fd 77 f0 3f 0a 72 d8 15 54 ee ef 3f
       1.0292941150014083 0.9978428293866852
0000d0 db c5 98 25 ed 3d f0 3f 62 57 33 87 67 d0 ef 3f
       1.0151187389968672 0.9941899910579475
0000e0 19 95 ab cb 29 9b ef 3f 3c b1 ca 76 25 e0 ef 3f
       0.987690828126378 0.9961116142417619
0000f0 b2 29 b7 68 46 34 f0 3f 85 83 f3 4b 61 a3 ef 3f
       1.01276245979771 0.9886938556120276
000100 2c 65 25 e6 52 ef ef 3f dc 4f 7a 58 f1 a6 f0 3f
       0.9979643340149429 1.0407575088656733
000110 9f 27 eb bd 5f c2 ef 3f e1 5f 3e b8 ec 35 ef 3f
       0.9924772939059386 0.9753326033123778
000120 2e f9 49 8e f9 79 ef 3f ec e9 52 37 25 e8 ef 3f
       0.9836395052987308 0.9970880585236137
000130 15 b0 eb 21 e5 07 f0 3f ca cf 42 10 bb 80 ef 3f
       1.001927502157746 0.9844641988370253
000140 6a 5a 9e 57 da df ef 3f 91 8d 05 a6 21 66 ef 3f
       0.9960757933902873 0.9812172167407188
000150 16 40 fe df 40 10 f0 3f bc 09 3a 16 79 2e f0 3f
       1.0039681195958159 1.0113459461432361
000160 78 8d e1 ef b4 cb ef 3f be 80 85 6e 27 6a ef 3f
       0.9936165509392785 0.9817082556364978
000170 35 a8 20 57 f9 83 f0 3f 33 ea ee 5b a3 17 f0 3f
       1.0322202113552639 1.0057710257666599
000180 b5 36 43 7c cb 0e f0 3f 27 d7 63 88 b9 21 f0 3f
       1.0036120275503155 1.0082335784658853
000190 9c f3 0d 9d c5 2f f0 3f cb 3d bd 1c 82 c2 ef 3f
       1.0116630682889314 0.9924936829865428
0001a0 88 47 85 cd c7 71 ef 3f 10 5b 29 54 53 0d f0 3f
       0.9826392187189734 1.0032532966194516
0001b0 bf 04 39 2b 40 0f f0 3f 4c ca 53 07 a1 5f ef 3f
       1.0037233055484618 0.9804234641181409
0001c0 01 20 96 82 ee 29 f0 3f f5 99 5f 5d e8 46 ef 3f
       1.01023722658465 0.9774057220172937
0001d0 ed 0e 27 5b 05 c1 ef 3f 5e 21 69 a4 8c 4f f0 3f
       0.9923121242831862 1.0194212362567536
0001e0 f3 84 9f 21 57 a6 f0 3f 63 2d 11 9c 67 80 ef 3f
       1.040610438671419 0.9844244049249194
0001f0 00 eb 14 65 93 83 f0 3f de 7e 60 16 de 15 f0 3f
       1.0321229885582284 1.0053387521838242

encoder.0.1.bias f8 [64]
000000 0b 5d c9 96 5f 05 9b 3f ec a6 bc 9a e1 84 a1 bf
       0.026387685373575425 -0.03421692861441081
000010 5f fb e2 d5 36 79 70 3f ec 03 4a aa ea 44 87 bf
       0.004021848870421645 -0.011361916848956675
000020 30 af 0d 8c 5a 75 95 3f 2b df 77 ac 6f 3c 80 3f
       0.020955481336769555 0.007927772951901687
000030 18 c5 f9 71 93 4a 79 3f e8 ca 46 15 c7 af 74 bf
       0.006174636800652132 -0.005050447147754801
000040 7c 6a 93 5a 26 5d 93 3f 98 0e e6 16 88 7b 88 bf
       0.01891002586203648 -0.011954367827235843
000050 fa da 7a 42 8c 8c 9d 3f f7 7d 1a 3b 5e fb 82 bf
       0.028856460149394338 -0.009268509081549843
000060 d0 f8 fc a6 60 c5 85 3f e0 8e bf a3 53 8b 80 bf
       0.010630374046396801 -0.008078244623852482
000070 c2 fa 29 6b fb 3e 87 bf c4 82 fd 99 80 dd 47 bf
       -0.011350597579846581 -0.0007283094346171794
000080 4c 70 78 75 69 62 3c bf 88 42 b1 64 fc aa 9c 3f
       -0.0004331119029943361 0.027996009488847423
000090 30 2f 92 0a 38 05 87 bf 50 6f 37 d8 40 65 89 bf
       -0.011240423033335029 -0.012400156591801853
0000a0 14 57 05 d3 4f 60 75 3f e1 bb 3e d3 a4 4c 61 bf
       0.005218803228066244 -0.0021117419473379727
0000b0 9a a4 2c 6c 2a 8b a1 3f 2c 2e 87 d0 f6 a1 6e bf
       0.034264875130540065 -0.0037393398854186546
0000c0 ba 8c b8 89 07 7c a1 3f 4f 6e 3b 26 f4 ee 86 bf
       0.0341493945709543 -0.011197955528977092
0000d0 0e ca 55 28 a3 37 7a 3f 2e c4 11 0c 2d 56 65 3f
       0.006400716146674158 0.002604568464953625
0000e0 c3 3d 71 fb 4b 20 84 bf 36 89 f4 2c 11 ec 86 3f
       -0.009827226267730254 0.01119244974558296
0000f0 38 0a df 2b 29 32 82 3f 1d fd e7 73 bf 35 9f 3f
       0.008884736682266511 0.030478469323495284
000100 79 d4 ad 05 10 1d 8f 3f f4 92 b1 30 00 97 98 3f
       0.015192151234922445 0.02401352212145276
000110 0b 3a 51 b2 07 55 5b 3f 52 a7 2f 70 fe 9c 95 bf
       0.001668221965946184 -0.021106696698473933
000120 1c af 0b 80 9c 05 95 bf a2 8d af 50 cc 4d 8d bf
       -0.0205292180207116 -0.014308544361432866
000130 8f f9 c1 6c 5c 42 85 3f d4 f1 f5 36 ba 65 63 bf
       0.010380479878446617 -0.002367843342368151
000140 57 43 42 46 8a c1 a0 3f 25 b7 59 55 68 41 84 bf
       0.032726594044226225 -0.009890380005539942
000150 ed 27 5d 88 08 c8 80 3f bb 4e e4 ca 1f c8 85 3f
       0.008194033299918824 0.01063561284949032
000160 d0 25 4d f2 94 d1 8c bf cd b3 f6 85 1c 79 9b bf
       -0.014071620602083806 -0.026829190899366574
000170 74 ca 54 66 54 8b 9a 3f 1d 12 d9 99 4d 38 93 3f
       0.025922125573922775 0.01876946689141522
000180 16 1e 01 e0 32 d4 94 3f 54 65 22 64 c2 30 81 3f
       0.020340723917142332 0.0083937823113042
000190 38 e1 7f d6 7f 51 98 3f ba 3d 5a f1 77 2d 88 bf
       0.02374839541150317 -0.011805474331849964
0001a0 ab e2 d2 a1 2b 1f 91 3f 0c 35 82 23 a9 4e 4f 3f
       0.01672046828454891 0.000955422007807323
0001b0 52 ef 2d 42 80 bb 47 3f 8d 3c 89 a6 ad 1c 95 bf
       0.0007242561590454588 -0.02061721161799972
0001c0 f8 93 02 e8 88 88 91 3f ef 15 07 71 72 ee 93 bf
       0.017122401390810865 -0.01946429076067163
0001d0 06 72 84 08 0e 42 82 3f 6f 86 4e 68 5b ae 44 bf
       0.008915052065781925 -0.0006311365437918335
0001e0 7f 7c d1 50 0c c2 98 3f 34 b1 94 fe 71 ea 92 bf
       0.024177734787710122 -0.01847246280992572
0001f0 cd 3a 4e 85 d7 b2 a7 3f 94 8c 9e 50 ce c1 71 3f
       0.0462863302446884 0.0043352183510335825

encoder.0.1.running_mean f8 [64]
000000 0e 27 84 50 f2 4a d8 3f f6 ba 99 c0 13 86 d2 bf
       0.37957437384521675 -0.2894334202637049
000010 36 6c bf 75 b7 5b de 3f 4a 44 a0 58 2d 78 e8 bf
       0.47434793947985854 -0.7646700602509864
000020 ff 34 00 d8 e0 1f dd 3f 34 7a f1 c6 31 25 e0 3f
       0.455070696771898 0.5045403371439705
000030 6d c7 87 f8 ee 13 e7 bf 2b b3 f2 df 63 e4 b2 bf
       -0.7211832861050717 -0.07379745690805055
000040 55 e4 9a 66 74 ad 77 bf c1 fe fb b4 f5 21 d1 3f
       -0.0057806536585128425 0.26769774126294626
000050 b4 1d e3 c2 77 ab c6 3f 8b fc e5 4c ac 8d d6 bf
       0.17710778251624293 -0.35239703664405714
000060 e5 32 53 91 11 6e cb bf 80 12 c3 d1 25 0c d0 bf
       -0.21429652782389677 -0.2507414387185136
000070 1a 8f eb 02 de ad d2 3f fa 73 51 4e 67 be d3 bf
       0.2918620136754143 -0.3084963097406327
000080 e4 c2 a8 0f b6 c8 df bf 9e bc e0 cb 7d de dd 3f
       -0.4966254380151851 0.466704796885958
000090 b3 43 6b c5 ff d6 bc bf 33 8b 00 46 bc 6e e6 bf
       -0.11265562600898597 -0.7010175101498589
0000a0 e0 e3 c3 ec 95 fd d1 bf db a5 dc a2 76 cc d4 3f
       -0.2811026394043079 0.32497945694430336
0000b0 22 67 a7 d9 40 75 d1 bf b1 f6 2d 67 b6 e9 e1 3f
       -0.27278157477631926 0.5597793593621728
0000c0 97 90 f0 2d bd 83 c0 3f 56 62 9c 46 6e 8c dc bf
       0.12902035468244286 -0.4460712136802035
0000d0 da d9 2c 2d c4 a5 d0 bf a5 7d 78 0f ca 37 d0 3f
       -0.2601175728954367 0.2534051085549101
0000e0 1f 3a 1b ac 65 d7 a9 3f 9b 77 f1 22 74 fb d6 3f
       0.050471474894596684 0.3590975133173459
0000f0 2e a8 75 1a 6b 6a ee bf 3b b6 cb 69 fc 3d d3 bf
       -0.9504905239857686 -0.3006583245431533
000100 66 86 70 e4 a6 79 e1 3f ea 50 61 10 36 5c d3 3f
       0.5461000882825828 0.3025031242334665
000110 b2 22 e3 bf 17 2a d4 bf 8d be b2 f3 47 e6 b7 bf
       -0.3150691388987453 -0.09335756015456749
000120 02 bf ec 72 6c 54 db bf bf 3b 19 15 ec 36 de bf
       -0.42702780936359386 -0.47210218487174055
000130 04 95 51 3e ee e4 e5 3f ad fe 3a 05 ef 7b c3 3f
       0.6841956345712394 0.15221965556519504
000140 9e df dc 39 6f 18 db 3f b4 5b 6a 8c ae 8b e6 bf
       0.42336636210120016 -0.7045510046472061
000150 2b df d2 a2 5c d4 cf 3f 3b 8a 73 1a 44 ae e5 3f
       0.2486682696378407 0.6775227085711956
000160 81 cd 62 35 43 3d ce bf cd 6e e5 32 c4 f0 b0 bf
       -0.23624458414779428 -0.06617380373557609
000170 4a c8 f1 63 f6 0f a7 bf 9f fb bb 1f 99 69 e7 be
       -0.04504365892434288 -1.1163946502799382e-05
000180 c9 b6 8c 8d 39 db b7 3f 7d 62 cd 2f cb a1 bc 3f
       0.0931888552265391 0.11184377591178847
000190 b5 37 74 2b b3 73 e3 3f 43 26 2c fe 05 ba a3 bf
       0.6078735207281541 -0.03852862098399303
0001a0 69 77 46 23 03 39 db 3f 61 e8 46 c1 bd c6 d6 3f
       0.42535475201463285 0.3558802020521679
0001b0 c9 51 d8 29 70 ec e8 bf f9 35 ee 6f d7 47 da bf
       -0.7788620774541012 -0.41063486033166857
0001c0 68 4b c5 8a b0 0e c9 3f 15 d7 da be 34 77 d4 bf
       0.1957607915488453 -0.31977575910728834
0001d0 26 6e 0f 90 1c d1 d5 bf e0 80 05 c5 f2 a7 ba bf
       -0.3408881575430506 -0.10412518797011527
0001e0 c1 36 70 68 07 d0 d3 3f 5d a1 b8 38 13 77 ca bf
       0.3095720786958332 -0.20675888318624916
0001f0 34 52 ce 62 ba e2 a9 3f 64 17 f7 18 d9 b4 dc bf
       0.05055792289855213 -0.44853808820732

encoder.0.1.running_var f8 [64]
000000 d4 89 23 9f 86 53 8a 3f 9a 35 da c5 5d 2c a0 3f
       0.012854625445872715 0.031588488008405594
000010 b1 8c 4a 44 fd 18 85 3f 46 29 e0 7a 67 0b bd 3f
       0.010301569601614298 0.11345526456731134
000020 6a 89 55 2e 5c bd 91 3f b5 fd 8c fb 05 6c 57 3f
       0.01732391388703417 0.0014295633720421256
000030 5b d6 b9 b5 75 2a a2 3f fe a9 66 cc e4 49 89 3f
       0.03548019259771414 0.012347972381424373
000040 0f 9b 79 d8 7c 13 90 3f 1b b6 d7 a0 b7 88 a0 3f
       0.015699339592539604 0.032293070205792605
000050 9c bd 6c 97 85 b6 92 3f 22 92 4a 9f 95 3b 7f 3f
       0.018274390570864094 0.007625183545915822
000060 a3 c0 26 d1 22 ee 9c 3f 88 72 8a c3 bb da 95 3f
       0.028252166762911767 0.02134221440302267
000070 f0 35 71 62 13 c8 81 3f 4c ae 4c d9 c5 79 92 3f
       0.008682395402639792 0.018042651546393437
000080 d5 0e e5 f8 bb db 86 3f 47 ca 8e ef 65 99 79 3f
       0.011161297352948388 0.0062498075357547206
000090 56 b9 ad ba ed 0a b0 3f c8 21 63 1f 66 84 98 3f
       0.06266675765593752 0.02394256178448176
0000a0 28 ab 8a f6 60 d1 97 3f 86 b9 05 a1 1d b5 b1 3f
       0.023259654090604404 0.0691698568459512
0000b0 e8 c5 30 1d 17 64 98 3f 21 bf 90 3d 50 89 b6 3f
       0.023819314152381837 0.08803273680746006
0000c0 ce d8 fe b9 ad d2 90 3f 62 64 af 69 6c ab 96 3f
       0.01642867515303053 0.022138303709514758
0000d0 c8 4f 9b aa c1 c3 ab 3f 79 38 15 77 29 f9 a7 3f
       0.054227878643046845 0.04682282999657245
0000e0 86 6e 7a 3a 90 16 9c 3f 2b c8 cf e8 65 58 88 3f
       0.02742982251093775 0.011887355964038523
0000f0 7d 86 4b 5f bd 3b ab 3f b0 55 59 fc 06 e6 81 3f
       0.05319015301007555 0.008739523483351913
000100 44 ff 82 ef 23 86 ad 3f 0b b5 02 4c 5b 87 9d 3f
       0.057664034831303584 0.02883665706092579
000110 1c 15 5c ca 96 ee 8d 3f f8 aa 48 94 bf 85 b2 3f
       0.01461522870114123 0.07235333795749088
000120 2a b0 97 f6 67 27 ac 3f d3 4d c5 e8 36 d2 8a 3f
       0.05498814473307363 0.013096264818762393
000130 11 10 88 4b af b4 a5 3f c5 d3 fd cb 30 aa b2 3f
       0.04239414021506616 0.0729094026590494
000140 f0 46 71 91 43 3d 8d 3f 9d 08 9e 99 f1 cc 9b 3f
       0.014277007938435088 0.027148985863740028
000150 3c 40 ef bc 81 d5 9c 3f 05 ca ae 15 94 9a a2 3f
       0.028158213764811743 0.036335590025732535
000160 a6 6b 2b 20 2c 59 7c 3f a7 40 82 e1 1b 08 6e 3f
       0.006920978895062746 0.0036659760044771175
000170 1e d9 a9 53 e2 f9 98 3f df de 11 3c aa df b0 3f
       0.02439073215142528 0.06591285673664114
000180 42 d4 df b6 5a af a3 3f 0d b9 12 f9 20 70 a4 3f
       0.03844722254135792 0.03991797485774571
000190 43 2c 1c 68 f7 9e b6 3f f9 ba 7c f8 7e a2 73 3f
       0.08836313525914456 0.0047936401168004955
0001a0 9e 08 71 4d 53 10 6b 3f d6 3a 30 ed 13 09 7b 3f
       0.0033036829950399823 0.0066004541759087845
0001b0 79 46 85 dd 71 5b a6 3f 3b 43 31 a7 e3 f7 81 3f
       0.043666418353166266 0.008773592510040387
0001c0 3e 88 94 bd 1f 11 97 3f c3 ba 61 0e c4 47 90 3f
       0.022526260324532858 0.015898764970581746
0001d0 e6 61 71 f6 9d 70 96 3f ae 2c fd 86 c2 47 98 3f
       0.021913974920922195 0.023711242188522767
0001e0 d1 4a 7f 3d f9 93 91 3f 09 dd 26 97 a0 9d 96 3f
       0.017166036966794366 0.022085675454687457
0001f0 30 d5 63 e1 3d 75 84 3f e4 2d 73 41 d7 e0 8e 3f
       0.009989245835166999 0.015077287373421684

encoder.1.0.weight f8 [64, 64, 3]
000000 3a 03 23 39 7d ec b1 3f c1 52 24 c1 67 0d a2 3f
       0.07001478810253739 0.0352585242527872
000010 83 26 a8 67 44 12 90 3f 50 53 e1 ad 40 b2 a9 3f
       0.01569468386336449 0.050188084817512135
000020 05 ee fb d5 cf 09 89 3f c3 4b 6a be 85 18 92 3f
       0.012225745885635861 0.017671670672438255
000030 1f d1 0c 4d 05 4a af bf a5 70 67 26 8f 7d 08 bf
       -0.06111160817673266 -4.671185597590722e-05
000040 c4 54 c6 84 62 6b ab 3f a2 7e d7 31 ec ec af bf
       0.053553656299450775 -0.06235445125980489
000050 af c3 a2 83 05 d1 78 bf a6 3f a3 d5 c5 4c b0 3f
       -0.006058713474133378 0.06367145982517161
000060 3a 7d a8 35 aa 37 ba 3f a9 67 ab 52 96 a0 a6 3f
       0.10241187868131343 0.04419393309736048
000070 86 2e 8e 1a d2 bd 92 bf 46 ac 98 ed 6b 2c ad 3f
       -0.0183022335727814 0.05697953486772937
000080 9b f9 b1 8f 39 12 ae 3f 25 78 9f 4e 64 20 a8 3f
       0.05873279456226329 0.04712213001015212
000090 4a 8b 7d 9b d9 3b ae 3f 4a 92 4e 00 f1 d8 ac 3f
       0.05905036948276761 0.05634263161417559
0000a0 9c 60 7a f2 a5 16 a9 bf 33 45 10 cd 85 96 ac bf
       -0.04900091729104014 -0.05583589676110492
0000b0 9f 96 ad 98 58 dc b0 bf dc ab aa 78 9c 5e b3 bf
       -0.06586221435062577 -0.07566240259136187
0000c0 d0 a7 86 42 f9 dd af bf e1 5b 92 b6 ab dc ab bf
       -0.06224039971432627 -0.05441795924814819
0000d0 0b 28 df 36 da 94 b1 bf e4 61 f0 4b 00 5e b0 bf
       -0.06867755736962537 -0.06393434385279978
0000e0 40 c7 de 5c 7c 6a a2 3f cb 9c 45 7f 77 e4 b2 bf
       0.03596867211980603 -0.07379862649178219
0000f0 74 53 ef 37 44 52 a6 bf 5c b4 e3 41 48 ac a5 3f
       -0.04359639342116042 0.042330034297130864
000100 44 3d 0b d9 f7 01 96 bf b8 65 d6 ce 27 2e 69 bf
       -0.02149188291769845 -0.003073766469878971
000110 bd dc 56 16 59 81 90 3f e5 bc 1d 91 0f 53 a3 3f
       0.01611842345093061 0.03774307867467445
000120 10 74 0b 38 05 63 a3 3f 89 98 f5 5d cc ac a6 3f
       0.0378648405946721 0.04428709647145108
000130 c7 a0 c7 1a 32 bf 9a 3f 2e 8f ff ba ad 77 9d bf
       0.02611997879458341 -0.028776850260228297
000140 81 ec ea 96 4b 65 ae 3f cb a7 aa 38 08 75 97 bf
       0.0593665715909646 -0.022907379587799242
000150 d6 69 d8 51 91 2c 9c 3f 33 2c b1 b2 d7 8d 93 3f
       0.027513762112087857 0.019095773965357842
000160 b2 66 dc 2b 47 96 b3 bf 91 25 d4 32 fd 9e a4 bf
       -0.07651181050132541 -0.04027549024074085
000170 9c 66 cd 7f 04 62 a9 bf 14 cf 66 67 5e 41 99 bf
       -0.0495759397515034 -0.024663424550182958
000180 5e 28 53 84 75 86 8e bf b8 c2 47 74 25 a3 9a bf
       -0.01490489778588627 -0.02601297876566619
000190 92 27 b1 9e 29 2b 5e bf e6 11 b8 96 03 fc 8a 3f
       -0.0018413454479450958 0.013175991093711436
0001a0 16 9b 93 05 52 a9 a5 bf 77 c5 e1 75 a6 13 a2 bf
       -0.042307437115417 -0.03530616940487168
0001b0 23 20 12 7d 55 ea b2 bf 56 c2 6b 87 43 90 91 3f
       -0.07388815215574644 0.0171518851665858
0001c0 9e 81 bb 41 7e 44 64 3f 6a 08 d5 d3 c5 5e 63 bf
       0.0024740663483131106 -0.002364527112747307
0001d0 7d 3b ea 21 63 67 95 3f 80 f1 8d 48 d3 cc 97 bf
       0.020902203507428652 -0.02324228411042517
0001e0 4d a3 4d 88 80 eb a2 bf 37 8a ea cb a7 66 af 3f
       -0.03695298827989877 0.061330073968992975
0001f0 67 b2 bb 4a f7 3f b2 bf 07 7b f8 6a 66 e9 a3 3f
       -0.07128854345837397 0.03889007621568479
000200 be 8c 0f ab af 39 ac bf ea 97 17 4c 33 16 8d 3f
       -0.05512761080879035 0.014202500114105693
000210 20 fa a3 bc ef d5 9e bf 36 62 ca 18 48 3b 93 bf
       -0.03011297787542777 -0.018780828965278405
000220 4d bc 71 90 4f ff 9d 3f ca 24 9b 62 8f 1f ad 3f
       0.02929424590223233 0.05688140944182292
000230 f3 2a 3e 44 4b da 9c 3f c3 ce 18 27 c7 0e b2 bf
       0.028176475563252045 -0.07053799347414284
000240 8b 8a 9e 4c 1e e0 a7 bf ea 91 12 90 07 ae 7f bf
       -0.04663176236433227 -0.007734326879618151
000250 41 a4 ea 8e e1 42 aa bf 43 c4 cd ed 41 ce b1 3f
       -0.051291512199278085 0.06955349021679162
000260 cb 54 99 da d7 85 64 3f b4 00 aa e8 43 d7 ad 3f
       0.0025052276512647956 0.05828296866548169
000270 e9 ec 45 65 04 51 4b 3f f7 7a b9 0f 2d a8 b2 bf
       0.0008336326086885423 -0.07287866243266793
000280 5e 81 86 4b 6f 10 aa 3f 70 95 51 1c 83 c9 a3 3f
       0.05090663716260012 0.03864679070174304
000290 dd b2 c5 b2 1e 70 9e 3f 5c 98 98 ab 26 b7 9d bf
       0.029724578534500935 -0.02901897833194088
0002a0 32 66 85 ce 4a f4 9e bf 79 f7 90 07 e5 d4 a2 3f
       -0.03022877583985046 0.03678050725328225
0002b0 94 29 df ed d7 e9 81 bf d5 e3 35 da c9 25 a7 bf
       -0.008746802279252099 -0.045210178267502656
0002c0 b0 39 c9 5c ae 70 a5 3f 2d 4f 2f a5 59 ae a0 3f
       0.04187531359331176 0.032580186285171876
0002d0 cb 34 39 70 cb 82 a8 bf 91 4d fb 17 d3 13 b4 bf
       -0.047872884225037625 -0.07842749915589865
0002e0 a3 5c 49 5c 82 b3 91 3f 77 2f ec 3a 5c 89 a2 3f
       0.017286335833287435 0.03620422572393427
0002f0 c4 0e dd f2 be 43 a7 3f 6e 2d ec 3f 4f b3 a8 3f
       0.04543873514788069 0.04824302344612873
000300 1e fc da 93 c8 30 a6 3f 91 40 10 af 00 0b 9c 3f
       0.04334093861461262 0.02738572185995786
000310 ce 01 93 f9 69 5d a7 bf 01 75 47 ae 6b f8 b3 3f
       -0.04563456698952316 0.07800934796201277
000320 42 82 99 3e 04 2b b4 bf 9a a3 af a6 dc 0b a0 3f
       -0.07878138092338197 0.03134049925558387
000330 a1 4b 4e 32 47 56 b0 bf 11 48 f2 bb 5f 3f 44 bf
       -0.06381649950189551 -0.0006179063274365256
000340 c6 e9 c6 ac 44 0c 96 3f 20 bd e7 74 b0 76 a3 3f
       0.02153117470309398 0.03801490237298766
000350 e6 f3 cd 57 54 6f 88 3f 79 ef 5f b8 cc df a8 bf
       0.011931094102459693 -0.04858245611828144
000360 8c 29 64 76 28 b2 ad 3f 81 46 36 d5 8c 75 b1 3f
       0.05799986310201452 0.06819992261287135
000370 f3 f6 b8 1a 87 e3 a4 bf 0b 33 8b 2b 44 d6 82 3f
       -0.04079839898302664 0.009197743014192314
000380 e8 a6 7a e7 0d d8 ab bf a9 4a d0 18 fe 22 8b 3f
       -0.054382738596656044 0.013250336773159193
000390 18 dd 7f 69 60 10 aa 3f a4 32 c4 ed e4 29 a4 3f
       0.050906193617203666 0.039382127784937354
0003a0 b1 d6 68 37 47 41 ac 3f d4 2e 6d 48 db 59 b1 3f
       0.05518553305993857 0.06777735250687594
0003b0 1d d0 b5 8f a4 fb b2 3f 48 34 f8 e5 27 f0 9b 3f
       0.07415226467657061 0.027283309375026016
0003c0 9b 5e 52 80 9c 69 90 3f 29 e8 1f 0b 21 5e 8d bf
       0.01602787526334613 -0.0143396932144136
0003d0 07 93 ae 13 b0 d4 85 3f 6b 1f a2 7b 7a 11 a1 bf
       0.01065957603516089 -0.033336474983172014
0003e0 c9 1a 0c 04 1f 9e a8 bf 12 cb 16 91 e9 81 7a bf
       -0.048081368679097354 -0.006471550340779302
0003f0 4e 27 57 87 1f 4d 99 3f 06 df 84 ae 09 d2 94 3f
       0.024708264003300777 0.020332480694576403
000400 0f 50 b8 c2 c5 3e 7d bf f3 2a da e6 fd e7 9c 3f
       -0.0071399426483545044 0.028228728499509036
000410 2b 9c af c2 1c 15 a5 3f 24 6e 04 16 d1 a1 a5 3f
       0.041176699414613736 0.042250188768062
000420 0b ad 05 e8 29 0d 12 bf da bb e2 1f 72 cc 94 3f
       -6.886070514660143e-05 0.020311148830554383
000430 de 0f 70 5b 5b e0 84 bf 9d c4 dc 4d 1d 02 9a bf
       -0.010193551757772864 -0.025398691060392598
000440 12 e0 50 d6 1e b9 88 bf cd 4b 1f f1 af ee ae bf
       -0.012071839251902392 -0.060414789375179724
000450 de 41 4d 84 dc 38 ab 3f c5 7b cf d5 2e de b1 3f
       0.053168193006630324 0.06979649276716689
000460 34 ca a9 8e d3 65 6a bf c2 c7 dd 99 14 0e 9c 3f
       -0.0032223827341167025 0.02739746274114175
000470 1e 7c 34 89 94 45 a8 3f 82 fe 27 fc e8 4b 60 bf
       0.04740585493913606 -0.0019893217552178774
000480 77 1e db ca 48 54 b3 3f 9a a7 ea ff 4a 01 98 bf
       0.07550482704675142 -0.023442432279501803
000490 91 0a 65 e8 d8 05 ab bf 78 f8 95 05 80 30 9c bf
       -0.05277898632859491 -0.02752876314252048
0004a0 6f 01 f6 ab fc 89 59 bf 5c 6b 72 4a 7b ca b1 3f
       -0.001558777570466043 0.06949587409546382
0004b0 f0 6b 3d 9d 69 36 98 bf 08 7a 85 45 6e fe a8 3f
       -0.02364506742683753 0.04881615255975552
0004c0 35 2b 53 ca 7f cf 9b bf de fd 9d b4 d8 74 68 bf
       -0.02715873405831389 -0.0029854042558665602
0004d0 ca 76 d9 75 ad 68 ac bf 51 d9 5c 71 9b 34 a9 bf
       -0.05548612655250691 -0.04922948607274925
0004e0 03 3d e8 84 30 5c b3 bf ab e9 12 ef c3 de ab 3f
       -0.07562545056156371 0.05443393987066555
0004f0 a4 47 02 3b 00 f6 ac 3f 46 99 0e fd ce ed af bf
       0.05656433792422824 -0.06236121024203327
000500 b7 57 3a a7 bc b0 92 bf 5e 82 e4 60 d7 3a af bf
       -0.018252322870999396 -0.060995798661910725
000510 59 ad 38 01 58 c6 a7 bf 63 b1 67 dc 3b ee a1 3f
       -0.04643511786374672 0.035020704893983255
000520 7e e7 45 fc 81 99 a9 bf 54 0b 53 5e b2 26 9e bf
       -0.04999929623131914 -0.029444491393188457
000530 3c 68 ae c9 0f 2e ad 3f d4 dd d0 1b ec f1 a1 3f
       0.0569920476620642 0.03504884566830993
000540 18 04 12 b5 54 e7 99 bf 14 e6 ef 33 ce 7d a3 3f
       -0.025296519805582646 0.038069194641092846
000550 be c8 fe 56 23 31 30 bf 3f 6f 05 f3 ad f8 9d bf
       -0.0002470694807882415 -0.029268949468458812
000560 ad 5e 3d 55 94 6c a2 3f b6 53 62 09 e8 98 85 3f
       0.0359846452762985 0.010545552049998946
000570 4f 6a f6 81 1b 12 a9 bf 85 72 a3 bf 31 0e b4 bf
       -0.048966273893900174 -0.07834158829377642
000580 7b 79 8b 59 00 7a a0 3f 73 b8 ba a6 39 3f aa bf
       0.03218079655720182 -0.05126361999769893
000590 56 69 e8 46 f6 f3 95 bf 6a f3 7b 71 9a 4e 7d bf
       -0.021438453748581075 -0.007155040067797861
0005a0 d6 bd c8 61 0a cd 87 bf a4 b0 37 c6 bd 41 7c 3f
       -0.011621552571425758 0.006898633294877641
0005b0 06 14 3d ea 39 db 9c bf 91 48 fd 59 35 3f 75 bf
       -0.028180031701840157 -0.0051872333568373655
0005c0 3d b4 13 7b 5b 2e 94 3f 53 6c fa 39 10 8b 94 bf
       0.019708089243909866 -0.02006173471327728
0005d0 5b 15 a8 0d 36 1b a7 3f 6d 87 42 1a 5e 9d 5f 3f
       0.04512947956758736 0.0019296092005238422
0005e0 cf 36 31 c2 bf 85 a5 bf e4 fa 37 57 f1 da af bf
       -0.042036049323184714 -0.06221727552109771
0005f0 03 24 84 be db 1e b1 3f c9 78 5f 18 d5 61 b3 bf
       0.06687711144708434 -0.07571155400316622
000600 34 ed 69 0a 42 66 9e bf 2e 25 34 35 98 47 95 bf
       -0.029686958203894068 -0.02078092407922332
000610 55 af 46 18 1a 13 ae 3f 83 f8 64 35 f2 30 b0 3f
       0.05873948618258732 0.06324685863089212
000620 ab 26 dd 5c 97 f3 a7 3f 3f 68 3d 99 30 d8 87 3f
       0.04678032883255175 0.011642818142423404
000630 5d 9a c2 8c c6 f6 ae 3f d6 a2 c6 04 1c ef 9c 3f
       0.06047649830116051 0.02825588015699306
000640 08 0f 4d 50 3d 3b 96 bf b1 d5 e9 2f dc ae 8c 3f
       -0.021710355783638696 0.014005394184304661
000650 3a 18 4f fc 86 6b ae bf 91 23 84 ae 56 a0 a4 3f
       -0.05941411809867288 0.04028578644108117
000660 c5 11 46 86 9f fb a0 bf 5a 6c 50 10 3c 10 a9 3f
       -0.0331697322281204 0.04895198535106067
000670 be a0 17 83 ed f6 b7 3f 20 9b ec 97 23 99 a2 bf
       0.09361156893249054 -0.03632460813087435
000680 80 cd b4 20 c8 09 b6 3f 3e 84 f7 44 94 59 9c 3f
       0.0860867576455373 0.02768546744289701
000690 b4 13 b2 33 ae 79 8e 3f 8f af 07 43 45 1b 9f bf
       0.014880524590134538 -0.030377466407955075
0006a0 27 e4 9f e9 10 87 a3 3f 8e fa 0f df a5 9d 8d bf
       0.03813984729635705 -0.014460845823120818
0006b0 b0 bf c8 f1 ce 59 90 3f d4 d0 1f f8 0c ed 97 bf
       0.015967591769537826 -0.02336521400862142
0006c0 20 0b c5 dc 7f f4 ac 3f 3a 92 91 b4 86 5f a0 bf
       0.05655288286154403 -0.031978807012624746
0006d0 dd 65 4c c0 3d a2 a4 3f 05 ce ad 16 31 2b 95 bf
       0.040300302242211684 -0.02067257595940754
0006e0 4a d4 e3 74 16 ec a4 bf 28 4d 70 89 7c 26 b3 bf
       -0.04086370636824961 -0.07480600696026285
0006f0 35 00 fe 14 e2 5c a5 3f 52 32 8f 41 25 f7 9a 3f
       0.04172426706554725 0.026333410383630636
000700 65 d6 73 0f 85 f8 4a 3f bf e9 47 5a 8e 47 88 bf
       0.0008230828961177215 -0.011855232362894761
000710 0c c3 ed 6f 10 93 a4 3f cd ce cb a3 82 a1 a9 3f
       0.04018451086347427 0.05006035088982017
000720 38 d9 5f cd 3e 28 94 bf 8e 75 3e 88 9d ea b5 3f
       -0.019684773716982934 0.08561119629162858
000730 29 2d 83 7d c0 f9 90 3f 7c d7 67 01 fe 6b 57 bf
       0.01657772794787352 -0.0014295559427614781
000740 9d 93 63 9f 0e f1 a0 3f f7 95 cf 9a fa 96 67 bf
       0.03308911986986305 -0.0028796095489151924
000750 9a 23 07 43 3c 05 5b 3f 18 8a 3a 19 13 de b3 3f
       0.001649197434846017 0.07760733953413312
000760 f8 3f 59 db b9 7d b3 3f d1 fa 3d 00 f6 13 84 3f
       0.0761371765631792 0.009803697473896563
000770 06 ca 67 1f dc 79 b2 3f 15 b5 68 39 f6 01 7c bf
       0.07217193381055872 -0.00683780843114092
000780 69 f8 59 0f 22 ac b1 3f 75 8e 80 79 23 08 8b 3f
       0.06903279185095958 0.013199116845562056
000790 db 37 e5 46 48 ec 88 bf 06 1f 6b 4f b9 89 92 3f
       -0.012169422782473951 0.018103499862973237
0007a0 a9 ca 4c 8d 4d 35 a9 bf 4e f3 6b 54 58 6b ac bf
       -0.049234794138461276 -0.05550647764719106
0007b0 71 05 f5 c3 34 c9 b0 3f 64 90 1d 68 d7 72 f8 3e
       0.06557016166791187 2.331600126782885e-05
0007c0 31 b5 37 24 79 b8 ad bf 6f 6e 80 9b d4 96 a6 bf
       -0.05804804389104346 -0.044119495374812405
0007d0 04 06 c3 b6 cc b1 9c bf ea 6e cb 7e c7 81 a8 3f
       -0.028022001891036666 0.04786513731752769
0007e0 5d d3 b2 88 15 f4 b6 3f 77 fa a6 86 a0 95 a9 3f
       0.08966192805639879 0.04996968883232438
0007f0 79 61 3a c2 63 cb 90 3f ce e8 ab 9b 42 35 a8 bf
       0.01640087006544053 -0.04728134298598406

encoder.1.0.bias f8 [64]
000000 8e 30 c6 ff 1f c4 86 bf 8b 07 1e ff 77 73 6b 3f
       -0.011116266244038078 0.003350958221688798
000010 fc 5d 18 00 74 ee 72 3f 92 e8 f7 3f 4e 9d ab bf
       0.00462193787236442 -0.05393452196945349
000020 d5 00 e6 3f ba c4 96 bf f0 80 05 c0 ce 0e a6 3f
       -0.022234830999423878 0.04308172315609393
000030 8d e3 02 c0 4c b0 90 bf 4a 0b 02 80 3c 86 ae 3f
       -0.01629753038352848 0.059617891908621504
000040 91 da 3f ff 9f c0 4c bf 38 a3 15 00 b0 db ab 3f
       -0.0008774548755344382 0.054410457620923613
000050 8e c9 01 60 50 c6 a1 bf af 8e f9 7f 3a 62 ab 3f
       -0.03471614047966219 0.053483799096992406
000060 e2 5f f9 3f 56 ff a7 3f 36 f9 a3 ff f3 c5 72 3f
       0.04686994105276178 0.004583314055933754
000070 6b 39 08 20 6d 9c ad bf 22 2b 25 40 65 a0 96 bf
       -0.05783406272904553 -0.022096235313522013
000080 70 38 f6 ff e6 50 b0 3f e1 b6 06 c0 82 1e a2 bf
       0.06373447178904867 -0.03538902849264303
000090 bb 75 16 80 16 85 ac bf 75 25 f3 3f 50 d1 ad bf
       -0.055702880035123546 -0.058237560087557684
0000a0 33 b1 fd 7f e8 4b b0 3f 75 ee 05 40 6a 26 a8 3f
       0.06365826725749883 0.047168083491638514
0000b0 cb e4 0c c0 c3 75 a1 3f 70 6d f3 bf a1 ce 91 bf
       0.03410159797062703 -0.017389800396683197
0000c0 30 a1 b0 ff 21 c8 7a 3f d3 7a 01 80 b2 46 b2 3f
       0.006538517768639715 0.07139125466481326
0000d0 ce 63 09 e0 b9 84 ae bf bb 0c 04 40 43 50 a1 3f
       -0.05960636958906883 0.033815480770522176
0000e0 63 77 f6 7f 0b 00 a3 bf 92 cf 09 40 23 ff a6 3f
       -0.03710971772237206 0.04491529614179436
0000f0 25 51 f7 7f 1b 58 b0 bf c4 ae 17 00 e8 ee 6e bf
       -0.06384441255733415 -0.0037760287530000675
000100 9c 59 08 20 a5 82 ad bf 5d a2 d7 7f 7b 2d 9b 3f
       -0.057637367401343925 0.026540689161182452
000110 28 0f f7 9f 66 c1 a1 bf ee c2 3b 00 5b e3 87 3f
       -0.034678656603800484 0.011664114899276847
000120 df 40 04 00 83 91 b0 3f 2c 9c bb 09 00 32 3d bf
       0.06472033262639652 -0.0004454851239032466
000130 84 21 f2 ff db 60 93 bf bd c7 f9 ff aa 8e 94 3f
       -0.018924176689809183 0.020075485108868685
000140 36 d2 1d 80 56 de a2 3f 3f fe f4 ff f9 e3 b0 bf
       0.03685255350038512 -0.06597864626837067
000150 08 92 8a 01 ec 9f 68 3f 07 c1 db 3f 1f 98 9b bf
       0.0030059442036238816 -0.026947487137420924
000160 33 ef fe 7f c2 06 a9 3f cc 0f 03 80 93 cd ac 3f
       0.048879697918407315 0.05625592172285074
000170 a4 d4 fc 7f 5e 7b a4 3f 0e 88 f8 bf a9 7e b0 bf
       0.04000373184536812 -0.06443272530353303
000180 a3 e5 09 00 7a 0e 9f 3f ab 14 ee bf 10 5a a0 3f
       0.03032866120563472 0.031937144688563755
000190 02 f8 f5 ff 90 93 93 3f 72 d6 5b ff 77 11 66 bf
       0.019117608664139148 -0.002693876619441587
0001a0 8d 3d 03 20 69 82 af bf d2 e9 b1 03 60 0a 39 3f
       -0.061541829259677085 0.000382088128112604
0001b0 61 2b 11 e0 bb 2d a0 bf 82 4a 11 00 b3 06 91 bf
       -0.0315989218730326 -0.016627117995378977
0001c0 56 0d f5 bf 35 7e a5 bf 94 a8 f9 7f 18 d6 9f 3f
       -0.04197853058078731 0.03109014779185111
0001d0 a8 99 e5 bf 53 80 a0 3f 65 43 6f ff 74 1a 8e 3f
       0.03222905843249474 0.014698900265928303
0001e0 45 15 f5 3f 85 b0 b0 bf a8 80 2d 00 da cf 79 bf
       -0.06519348918398744 -0.00630173832436768
0001f0 22 17 f6 7f 79 e8 a6 3f e2 a9 08 c0 c0 c4 aa bf
       0.044742390508913724 -0.05228235572970498

encoder.1.1.weight f8 [64]
000000 85 fb f3 5d b7 b8 ef 3f 20 fc c1 37 ab 43 f0 3f
       0.9912983737011564 1.0165207078969232
000010 5d 6f f8 bd 86 88 ef 3f 0a 5e ce 6e ca e3 ef 3f
       0.985415812526735 0.9965564884359435
000020 c2 73 57 34 21 f1 ef 3f b2 fc 47 75 f1 43 ef 3f
       0.9981847784325668 0.9770438471458844
000030 1b b6 60 74 73 32 f0 3f 2b db bf b5 c1 37 f0 3f
       1.0123171373373967 1.0136124705874845
000040 5f c0 95 f4 65 ee ef 3f 44 a9 69 78 80 a3 ef 3f
       0.9978513505029801 0.9887087203799543
000050 e6 6d 27 07 60 53 f0 3f 72 90 2c fb 09 df ef 3f
       1.0203552512601788 0.9959764390701038
000060 60 0c ef ab 84 44 f0 3f c5 5a 78 a5 5f 37 ef 3f
       1.0167280880130178 0.9755094749296737
000070 be 5f e4 55 7a 6a ef 3f 9e fd a1 ac d7 72 ef 3f
       0.981747787244778 0.9827688571676167
000080 60 a1 c7 ad 91 00 f0 3f 43 54 d7 7e f9 13 f0 3f
       1.0001389301561048 1.0048766092998143
000090 a1 0d f8 28 69 ee ef 3f 5f 56 9d 58 ff c1 ef 3f
       0.9978528785872421 0.9924313288453951
0000a0 f9 e0 ec 5c 2c 2e f0 3f 28 14 eb 81 3a ba ef 3f
       1.0112727765936695 0.991482976671823
0000b0 da f8 4e d2 37 c8 ef 3f 0f b3 78 45 be 0a f0 3f
       0.99319068027378 1.002622863171556
0000c0 68 69 6a 00 f1 56 f0 3f c2 51 18 ba 2f bd ef 3f
       1.0212259308087486 0.99184404703788
0000d0 b3 33 94 0d 33 36 f0 3f 54 c1 f9 e7 0b 3e f0 3f
       1.0132322817255328 1.0151480733439557
0000e0 87 fc 14 c9 c9 d0 f0 3f 0b eb fd 8a 6b 80 ef 3f
       1.0509736876263405 0.9844262804684559
0000f0 7e ce 58 19 ed 44 f0 3f 7e 98 0d 8e 81 51 f0 3f
       1.016827677737552 1.0198989438008819
000100 f4 fa ff 05 32 3a f0 3f b6 de da c1 43 25 f0 3f
       1.0142078623172752 1.009097821470204
000110 2c 2a 09 d0 e2 34 ef 3f 2e e8 2f 2c 5c 0b f0 3f
       0.9752058089446272 1.0027734495220204
000120 cf 31 de 86 c1 c3 ef 3f 20 ef fd 4f bc d6 ef 3f
       0.9926459917201614 0.9949628412573226
000130 f9 ed 30 af e1 a3 ee 3f 36 5f 3c cb 8d 55 f0 3f
       0.9575050756170064 1.020887178316071
000140 4d 98 ae f2 3a cb ef 3f 92 1c 13 cd 40 3c ef 3f
       0.9935583820231472 0.9761051183094358
000150 e8 79 21 5f 20 06 f0 3f c3 2b 31 a9 4f e2 ef 3f
       1.0014957157178461 0.996375875905294
000160 66 da 35 a8 dc ec ef 3f a7 17 f9 49 0c 8d ef 3f
       0.9976638112410228 0.98596777389388
000170 77 61 92 93 bc 46 f0 3f 96 1d b8 4c 51 95 ef 3f
       1.017269684269278 0.9869772432729629
000180 f8 dc 56 5a 77 bb ef 3f e1 0a fb 75 e6 72 ef 3f
       0.9916340603294023 0.9827759079274437
000190 cd 74 5f 7f de 3a ef 3f fd 6a c4 1e 5c 9d ef 3f
       0.9759361732245907 0.9879589653895376
0001a0 ee d5 74 86 e5 03 f0 3f 52 e4 96 37 53 50 ef 3f
       1.0009513141825397 0.978555306027497
0001b0 77 5d 2d 2a 68 2f f0 3f 1c b2 73 88 ea 30 f0 3f
       1.0115739486262478 1.0119424181131143
0001c0 26 c0 64 48 5d 95 ef 3f dc 15 7a 87 d2 03 f0 3f
       0.9869829572617206 1.0009331981722118
0001d0 64 f5 31 c6 6a 9a f0 3f 5e 62 09 80 06 59 ef 3f
       1.0376994840620108 0.9796173573223077
0001e0 35 50 88 e2 35 59 f0 3f 63 0c fe 92 75 cf ef 3f
       1.0217799042629967 0.9940746184296468
0001f0 b7 60 ba 54 66 f8 ef 3f b9 a3 d8 60 a8 1f f0 3f
       0.9990722327084062 1.0077289374405451

encoder.1.1.bias f8 [64]
000000 54 78 8e ba 65 2d 49 bf ea 87 77 e2 e8 69 9a 3f
       -0.0007683512422891428 0.025794638464397147
000010 ce 4a b3 3c 91 36 91 bf 74 1f 06 94 52 47 93 3f
       -0.01680972035394284 0.018826761517203264
000020 0b f7 b0 63 ad c9 8c 3f 65 8a 68 2e 05 54 81 bf
       0.014056543927036388 -0.008461037138720326
000030 48 1f 2c aa 11 de 7c 3f 87 ea c9 12 3b b7 82 3f
       0.0070477190045109064 0.00913854743088406
000040 97 e4 96 7a 46 f1 7b 3f 63 f8 fc c0 8f 3b 8e bf
       0.006821894939485726 -0.014762042119056134
000050 72 9f 32 5d 65 1e a7 3f 1a 96 cb d9 c2 d7 89 bf
       0.045153777720144186 -0.012618562957366786
000060 e1 b8 af 25 61 07 89 3f 44 9c a9 b8 93 e2 8a bf
       0.012221106493566615 -0.013127473900750648
000070 36 b1 30 bd 13 48 9d 3f 92 e0 f3 8c 18 2a 2c bf
       0.028595264837506927 -0.00021487760248084916
000080 c3 06 a5 53 73 82 90 3f 6c 9a 1f 9a bf 6a a2 3f
       0.01612262914682706 0.03597067600621959
000090 37 93 d9 c7 2b d3 72 3f 08 1c 02 c2 3e b2 6a bf
       0.004595919626443393 -0.0032588220347551412
0000a0 eb 55 4e dc ec de 32 3f 95 8b f2 77 b9 ce 91 3f
       0.00028794558266417744 0.017390153833399664
0000b0 28 39 e5 81 4c 90 83 3f 90 e2 7e de 75 37 74 3f
       0.009552571977704163 0.004935703684105022
0000c0 57 1a 66 81 c5 95 8b 3f 23 b8 dd bc 68 c7 89 3f
       0.01346926022666854 0.012587373985038458
0000d0 b5 b6 1c ca 52 ab 57 3f fc 3c fd 49 48 89 88 3f
       0.001444655274507251 0.011980595357867767
0000e0 7f 42 82 ce fe 99 9a 3f 81 25 0a cf 06 e9 91 bf
       0.02597807059697965 -0.017490488421150644
0000f0 ed 5b 41 de 59 7f a6 3f 5e bf ba fe aa d2 91 3f
       0.04394036138608457 0.017405196950391548
000100 8b 1b 6b a2 62 42 62 bf a8 d2 4a a3 17 9f 8b 3f
       -0.002228920598415345 0.013487038298401657
000110 a8 f1 95 49 1c 5a 8d 3f 61 40 c4 08 f7 e4 71 bf
       0.014332028384836118 -0.004368748643415272
000120 15 0d 3d d6 f6 47 92 3f ae 38 73 db 16 b4 5d bf
       0.01785264666183391 -0.0018129561629396762
000130 1c 06 14 cf 4a 5c 8f bf 4d 54 d0 64 52 cd 82 3f
       -0.015312752193952277 0.009180682851402855
000140 5c db c3 17 5e 6f 91 bf fe b5 ee d5 77 71 82 bf
       -0.017026395988945495 -0.009005485740853022
000150 df 9c 14 34 b9 4b 92 3f bb 33 34 01 d1 65 76 3f
       0.017866987041227907 0.005468193459148669
000160 f5 eb 20 28 2f 8e 8c 3f da 16 9b a8 fd 25 53 bf
       0.013943069851043413 -0.0011687256941725261
000170 1a f9 57 f4 ed 93 97 3f 1a bc b8 69 6b 7c 8a 3f
       0.023025243795921836 0.01293262401949673
000180 7f d7 4b 35 7e 0d 63 bf fa 55 9f 5b 39 d9 7e 3f
       -0.0023257699016267504 0.007531379751488649
000190 80 e1 3c 11 18 7b 65 bf 7d 1d bd 82 c1 db 7c 3f
       -0.0026221723618641835 0.0070455130588195055
0001a0 d6 80 55 2c 7b fb 78 3f d0 dc 92 da 7e c8 93 bf
       0.0060992061092692475 -0.01931951722209818
0001b0 49 8a ba b9 d9 1f 8e 3f ad 34 25 40 dc e2 7c 3f
       0.014709187489022517 0.007052288392810952
0001c0 47 6a 6d d9 e6 f5 8b 3f 54 19 42 5b e3 ab e9 be
       0.013652614126546626 -1.2241095511689053e-05
0001d0 b8 37 61 47 84 f7 97 3f cd 98 26 d8 90 77 7d bf
       0.023405138832735622 -0.00719410495586299
0001e0 96 2f 73 9f 3e 89 9e 3f d4 19 95 de 6a 96 88 bf
       0.029820421678592966 -0.01200564853446632
0001f0 15 d2 9c a3 e5 31 71 3f 85 0c b1 01 aa e1 7a 3f
       0.004197976138858657 0.006562866295158125
