models/matching_nets/DF_n=1_k=5_q=15_nv=1_kv=5_qv=1_dist=cosine_fce=None.pth (torch, 316367 bytes, 24 tensors)

encoder.0.0.weight f8 [64, 1, 3]
00000000: 2fe3 7e13 46d9 d1bf e2e8 96d1 c7f3 b9bf
00000010: 1e00 8595 677d e13f 57a6 ff55 e0a4 cabf
00000020: 56d5 2480 cea1 d5bf 6c55 20ad 894e debf
00000030: 39b9 28e8 6b15 c1bf e6f4 4f72 bd69 e03f
00000040: 9da2 6d71 14e3 da3f b73d 301e 5742 e0bf
00000050: 3d7e 1934 abab b5bf ce4d f814 d8e3 c6bf
00000060: 59f5 8957 a0de e13f 3630 786e 1fdd d6bf
00000070: 7fdc e2af 0dad e13f 6548 fc07 2cfa af3f
00000080: 0e26 659c cbd6 d13f c262 3514 e13a e03f
00000090: c945 48a7 9d4f bb3f 61e4 ee31 b3eb c7bf
000000a0: 7e19 4055 3961 d43f c0c8 1af7 84a7 b83f
000000b0: fe08 2d67 c6f2 db3f 8f58 f339 be63 a63f
000000c0: 4b71 a26f ffa5 6f3f 9b17 5d19 3fc0 93bf
000000d0: e142 7cfe e714 d23f 3436 17eb 9e7f ddbf
000000e0: d64f 3bd3 dffb c93f 7726 cb85 b437 e1bf
000000f0: 91e7 43eb d149 d43f a8a7 1250 d35b b23f
00000100: b402 ca8e d34e b33f a098 d475 19a2 da3f
00000110: 89a1 56ca a522 df3f e80f 5291 614f 5a3f
00000120: 2e9a ba76 8e43 ddbf 3a4d ec09 b824 d13f
00000130: 2843 2dc3 26bf e23f 04a2 d1d6 a0c3 d83f
00000140: ff14 75c9 43bc c3bf ded6 15fb a8b2 903f
00000150: 4874 5296 822b d4bf 8e10 e9b9 9c8d e2bf
00000160: 92e9 a799 cfc7 ca3f 1f90 db2f e0e2 9abf
00000170: 1620 6e43 4692 c6bf 886e 16ea b9dc d13f
00000180: 7601 f50d f3ca c93f c4e4 ce29 9e50 df3f
00000190: 610a 587c 68a6 d33f 1dbc 5f8f a0b9 df3f
000001a0: 9c57 d159 c8b1 e1bf 567f d668 caa2 e0bf
000001b0: c998 dc37 05fa e1bf fd0e 5dcd ae3e be3f
000001c0: 9ac9 9879 ca8f e03f 5ade 2180 c7ac d03f
000001d0: 9c64 c36f a17b e23f 4177 e35b 4961 d83f
000001e0: 825b 33da b027 d53f d336 e1a3 22ae c9bf
000001f0: dda0 0657 1035 e0bf 03b0 e5ff 7fef d33f
00000200: 4965 ded4 2a23 da3f 7097 1f8b dd97 e0bf
00000210: 359b b049 93e5 e03f 016c 5388 3cca b53f
00000220: 0f58 059c 8af1 c23f fb72 1d45 7182 a4bf
00000230: aacb ca59 23d9 e13f 006c d42c 8d31 d8bf
00000240: a780 d0da aad9 cebf e322 4169 6341 dd3f
00000250: 9106 2766 030c b6bf 295a 10d0 2872 cb3f
00000260: 3c2f dd4e 4907 d73f 0d99 5524 36fd cb3f
00000270: 566d 8104 5353 cb3f 02d4 6dec 6355 e2bf
00000280: d016 20d2 1cd0 c6bf 2f9a 86d4 2604 e0bf
00000290: a340 d6d2 cf98 c1bf fbcd cd2b e06d d5bf
000002a0: 91fe 4cc5 513a de3f 8df9 dea2 d209 aa3f
000002b0: a74b 9503 28f8 dabf bb4e feac 36d4 dabf
000002c0: 13fd a511 02a9 c8bf 16a7 a427 22d7 da3f
000002d0: 34f6 fb71 c345 d03f 829d 8b7d 5aa6 cd3f
000002e0: af30 dfbc 2d2e e03f 9375 3379 2c68 c93f
000002f0: 6c5b 63de 34dc a13f 3a72 65d4 dac5 d13f
00000300: f08b a9cc 11af e13f ad12 f6a1 8776 b43f
00000310: 6c92 bff1 df14 be3f 631d 973b 32ca de3f
00000320: c13f 85c8 2b06 c4bf 4296 8123 0066 e03f
00000330: 5964 cfc7 2cc5 c63f 1883 d2c4 07b0 d83f
00000340: afeb cbe2 fff2 d53f 3a11 6ce1 5f30 d43f
00000350: f67d 5a21 e74e afbf 6170 ad34 6c07 b1bf
00000360: 5289 ce58 75d9 d8bf 8981 a03d 7d1b df3f
00000370: 5359 3587 e1f6 c53f 063b c30a 19fd 83bf
00000380: fa58 9bca f5e7 d23f 5f00 18ad 180a d6bf
00000390: b9e2 fa3b b76b c2bf 42b7 b3da 6295 d63f
000003a0: a41f 014e f477 9a3f a28a 9eae 734e debf
000003b0: d726 0742 d94f cfbf a753 5bda 4d52 ca3f
000003c0: afc9 13bc 3828 e2bf 4da8 0f3c 69b9 d2bf
000003d0: b3e8 f6a9 ac2a cb3f 579f 985b 2b59 cebf
000003e0: 4fb3 0bba 262b dabf 8804 6f4b 5837 d83f
000003f0: 2547 e730 012a d3bf 607c fae1 8871 cb3f
00000400: fbb0 b0f1 70bd e1bf deae fb9e f72b 84bf
00000410: 8d08 255a 69a2 c13f f2ba a626 41c0 d23f
00000420: 5121 bd8c 2aba e1bf 5313 5933 93c0 db3f
00000430: 67d8 b7b1 a0bc e1bf 8a4f 12e1 533a d13f
00000440: 778c 991a d199 b43f 2f1d 0811 4be0 e1bf
00000450: 33ef 56b4 6a2b bcbf b5f0 e51b a526 debf
00000460: 0d66 9822 eedd d4bf 0a58 eca7 34a0 d8bf
00000470: 1961 61cc ea11 c13f f07a 78e5 4229 e3bf
00000480: a67d b2f2 4ca5 d4bf 8e34 8b23 6f16 d73f
00000490: 85cb 4142 a26f d23f bae8 413e 7900 dcbf
000004a0: 27c7 3309 7bb3 d6bf dd8e 5325 175d e33f
000004b0: bd70 3702 5f55 d2bf b7c5 b498 4398 d0bf
000004c0: 67c2 8f0a 6180 d03f 588a 6a71 1412 e0bf
000004d0: b995 5b67 8181 e2bf 09d1 7828 9084 e03f
000004e0: 80a9 27b3 b048 dd3f 7e1a 8426 333f e13f
000004f0: 513d ec6b 1576 d73f b29d 45cc ad17 dc3f
00000500: 403a 370e d486 a1bf a864 18fb c4e7 d9bf
00000510: baa5 ba75 8952 e03f ac36 2a50 49ff debf
00000520: e7fa 8b01 e678 bfbf d018 3fe8 b84c d3bf
00000530: 2810 25b9 d0d9 d6bf 34ff 6fef 35be e1bf
00000540: 5cc6 3659 49f9 d1bf baf8 adcf 8b41 e13f
00000550: b0f2 4ca6 d673 cd3f 9103 3bb7 3597 da3f
00000560: 2b69 567e d2d0 debf e7d4 9619 168a d83f
00000570: 1aa2 dace 7509 d0bf 2634 8a0b 0095 b43f
00000580: 69c9 e058 77e3 dcbf a191 df75 e665 e03f
00000590: c497 b6ac 0d31 b9bf 4641 f0a8 2c97 d33f
000005a0: 2707 699d 140e a93f ad8a 8373 22cc d3bf
000005b0: 9bf7 e995 94c5 e03f dc1d 1172 d451 dd3f
000005c0: 422b d1b5 8eb5 b9bf f7ce 285c c804 dfbf
000005d0: f7bf 0ea3 f40d e0bf 79bb b0d2 373a a73f
000005e0: 4454 3a47 cd73 bc3f e08d 4f34 c97b c63f
000005f0: 4e87 9c31 3d4f d03f ee8f ce85 dfe2 adbf
-0.27888633636352983 -0.1013760458653539 0.5465581817916279 -0.208156625739593 -0.3380008937268334 -0.47354356676927156 -0.13346623264210125 0.5129077179587085
0.4201098544786335 -0.5080981816881182 -0.08465070745432342 -0.17882824920580592 0.5584260663742199 -0.35724626338992793 0.552374690559091 0.06245553586462974
0.2787350680633559 0.5071874041269313 0.10668359121361627 -0.18688049257414988 0.31843407941087054 0.0963061431200769 0.43669281078122413 0.043729729246181674
0.0038633336053647597 -0.019288049624513453 0.2825260148247662 -0.46091435392449687 0.2029990941433641 -0.538049947085894 0.3170056149971226 0.07171364502815314
0.07542154537260154 0.4161437655151392 0.48648972282037356 0.0016058399972118612 -0.4572483214819013 0.2678661438851183 0.5858339130446426 0.38694020250707717
-0.1541828855207896 0.016306534123450393 -0.3151556461323861 -0.5797866469443009 0.20922274592141982 -0.026256087227821575 -0.17633894245614162 0.2790970598232225
0.20150602513787036 0.4892955215723982 0.30703174727401544 0.49570478440631566 -0.5529519800427241 -0.5198719070067266 -0.5617700663613273 0.11814396394498412
0.5175526022851955 0.26054561150474387 0.5775916273952535 0.3809379002903946 0.33054753597883046 -0.20062668802204672 -0.506477518055387 0.31149291982615085
0.40839644229852873 -0.5185382573369974 0.5280243338828315 0.08511713341015083 0.14799625986296447 -0.040057696997541435 0.5577561143639873 -0.3780243814268829
-0.2410176819257732 0.4571159866214158 -0.0861208080669036 0.21442136916512425 0.3598197240978498 0.21866490148676868 0.21348035545347938 -0.5729236238245223
-0.1782260919573475 -0.5005067969221438 -0.13747594637653035 -0.3348312785885523 0.4723095347180584 0.050856191999162005 -0.4213962588302657 -0.41920248884091976
-0.19265771733987744 0.4193807017460228 0.2542580235602572 0.23163920526642917 0.5056370438483294 0.19849162977235987 0.03488316740702299 0.2777010988409391
0.552620792132414 0.07993362144595535 0.11750602390345372 0.4810910779892394 -0.15643832484283673 0.5124512380104493 0.17789230114320523 0.38574403973511684
0.3429565157709317 0.31545254720574045 -0.06114885599276569 -0.06651951109000855 -0.3882726065877665 0.48605280893573216 0.17159670927021384 -0.009760089531849935
0.2954077223379411 -0.3443662348145206 -0.14391222408973706 0.3528678069841257 0.0258482143983937 -0.4735383229509954 -0.24462428783436138 0.20563672220182846
-0.5674098657021228 -0.2925665937933715 0.2122398214249351 -0.2370962331053714 -0.40888374489332063 0.3783779846817841 -0.2994387605259468 0.21440230402092464
-0.5543751450072983 -0.009849485911636643 0.13776890660853205 0.29298428320446057 -0.5539753674320683 0.43362884535263396 -0.5542758437211547 0.26918503741875865
0.08047205829056901 -0.5586295445108699 -0.1100374880106159 -0.47110870098527907 -0.3260455453724667 -0.38477817915679735 0.13335928897391439 -0.5987867814872896
-0.3225891466226706 0.3607442710024963 0.2880635878602152 -0.4375289066298468 -0.3547046270242497 0.6051135758429741 -0.28646064011060074 -0.25929346001347703
0.2578356364383922 -0.5022070136222494 -0.5783087748247261 0.5161820211856433 0.45756165977095264 0.5389648201242634 0.366582255738611 0.4389452452510013
-0.034231783614462774 -0.40477108498596204 0.5100753116031946 -0.4843314440594024 -0.12293851411594013 -0.30155775718993727 -0.35704439240021424 -0.55446907773146
-0.28084024154950327 0.539251237510846 0.23009760971208015 0.41547911542516497 -0.48149549806261643 0.38342812060302695 -0.25057740402783824 0.08039856225714512
-0.4513834350538191 0.5124389936650467 -0.0984047457373825 0.3061019563474655 0.04893555089485196 -0.30933438568733146 0.5241187026983768 0.458119498628063
-0.10042659701245518 -0.4846669101709575 -0.5017035660475803 0.04536604353812996 0.11114199627839222 0.1756526475356699 0.25483636708132884 -0.058371529659126384

encoder.0.0.bias f8 [64]
00000000: 793c 0880 1604 cd3f db53 ff3f 2b1d e2bf
00000010: 556c 0480 1241 b6bf 14e0 14c0 c220 d83f
00000020: e184 e57f a9c4 c33f e8de e0ff 8b95 983f
00000030: 7415 ebbf 3cb5 c2bf 9780 0b80 7399 cd3f
00000040: f602 06e0 ca57 e2bf acc0 0600 6af1 b53f
00000050: f992 fcbf 84db e03f 93c6 0120 9eb5 e1bf
00000060: 065e fd7f bd01 d33f 4486 f77f 1665 c9bf
00000070: 950e 06c0 53e2 d8bf a9c6 f43f 2bba d73f
00000080: 755e febf de0f e1bf d078 02c0 f365 d6bf
00000090: b006 0e80 82b1 c43f 5dcf feff 113f e13f
000000a0: 7f1f a6ff 6f37 bdbf f66d faff abb5 c0bf
000000b0: 08fa 0000 d779 e03f 8d39 00c0 09e7 e0bf
000000c0: db58 0980 9c9b c3bf 314b 0200 9eec dcbf
000000d0: f904 0900 320a e2bf 188e fb3f ef9c d83f
000000e0: b2d4 de7f bffd db3f 18fd f61f e8e0 d2bf
000000f0: 8801 0140 7675 e03f 3850 feff 57be b93f
00000100: e7ea f13f 4578 cebf 4ae2 eaff 0b4b 913f
00000110: 5568 06c0 1523 d1bf fd33 fe7f 5368 d23f
00000120: b6f5 f87f cdd6 d83f 63e3 01e0 ec19 d9bf
00000130: 79c6 b800 6682 afbf 991f 1a20 134d d1bf
00000140: a1a6 e5ff f70c b4bf 3254 7a80 50e9 c63f
00000150: 5064 10a0 473b d9bf 557d 1600 7b96 c23f
00000160: 561b f2ff fefb e1bf 42ae 5f00 ce3f ab3f
00000170: 42d4 d63f cb86 dcbf 5573 f23f adef d1bf
00000180: 78b6 fa7f 6d75 c3bf 13f2 0120 9a07 e0bf
00000190: 8c82 8c00 9601 b0bf a095 08c0 cc02 d63f
000001a0: 09c5 baff 5fc0 74bf da53 f100 8c6a af3f
000001b0: 044c 0940 bd89 da3f e857 0080 a410 d73f
000001c0: 6ad0 0580 5e0e dfbf 88c8 dcff 8664 cbbf
000001d0: b138 f3bf fce0 d03f a40c 0ba0 3512 d2bf
000001e0: b2ed 0100 8311 e23f df1c fc7f 0425 d4bf
000001f0: 7622 c1bf 2495 c0bf fa30 f75f 2217 e1bf
0.2266872525364965 -0.5660606622646996 -0.0869304239790137 0.37699955709422395 0.1544391512389103 0.024007976048067287 -0.14615592356691887 0.23124545814699068
-0.5732168555697104 0.08571493626255017 0.5267966985453248 -0.5534201264510606 0.29698121546741196 -0.198397457584223 -0.38881391289053485 0.3707378506252135
-0.5331872701526225 -0.3499726653188988 0.16166716816592475 0.5389490127476894 -0.11412715903690972 -0.13054418562829512 0.51487302780862 -0.5282028913514282
-0.15318638088019196 -0.45194196701884254 -0.5637445450485351 0.38457852600387943 0.43736255156847925 -0.29497721787989084 0.514338612563777 0.10056066512908124
-0.23804536459268563 0.016887843604054965 -0.267766416096156 0.2876175641948178 0.3881105184298933 -0.392207354314044 -0.061541736209972116 -0.2703292668816118
-0.07832288739668992 0.1789951922734488 -0.39424315100911134 0.14521729950227305 -0.5620112418117553 0.05322116617739116 -0.44572716936392365 -0.2802537083132866
-0.1520211100482134 -0.5009279847286642 -0.06252419961357186 0.3439208865478012 -0.005066275592683364 0.06135976325518984 0.414656937156167 0.36039078235751143
-0.48525202276437673 -0.2140053510025306 0.26373213524937983 -0.2823614180490017 0.5646376609942563 -0.3147593736507143 -0.12955149996766452 -0.5340740084007216

encoder.0.1.weight f8 [64]
00000000: 9302 2a12 c505 f03f 0cf5 7fbe 6250 f03f
00000010: d4ad f5cd 9f60 f03f 46dd 7ac0 f919 f03f
00000020: 5dc1 aa0a 6b47 f03f 6a8b c748 02fc ef3f
00000030: ed31 1fd1 206c f03f 51ea be18 c97f f03f
00000040: 262a 8f13 bb4b f03f 42f5 88be e727 f03f
00000050: c4bb 9501 ab1e f03f aa02 01e5 0d65 ef3f
00000060: 1960 893b 142c f03f 46e0 0550 e307 f03f
00000070: f4ca bc90 42b8 ef3f 85bd 8618 f733 f03f
00000080: 6d3d 7234 872e f03f 7d75 12d5 0f19 ef3f
00000090: 326e fd2d 7683 ef3f 9ab8 2d49 af22 f03f
000000a0: 069a 0875 b1a1 ef3f 8af1 a990 b204 f03f
000000b0: 54d6 9aea af98 ef3f a124 5d7c 312a ef3f
000000c0: 75f3 2818 a5ac ef3f c627 1466 8ffc ef3f
000000d0: c200 4cd3 8100 f03f df42 26ba 10fc ef3f
000000e0: 0052 0ec2 97a0 ef3f 728a 52b6 3550 ef3f
000000f0: 6951 d8e8 5628 f03f 4b2c d9c3 2269 f03f
00000100: 633c 6459 0c54 f03f f3ab 8a9e 425e f03f
00000110: 0812 0efb bc45 f03f dc06 3b31 0d55 f03f
00000120: afb7 a506 9202 f03f 27f8 0821 c488 ef3f
00000130: 461d ffbe 40d1 ef3f e883 b252 a11f ef3f
00000140: a57a 9dde 9c92 ef3f e42c d1ba 9a93 ef3f
00000150: 2155 6686 dcb0 ef3f bd13 b958 f8e5 ef3f
00000160: 4766 4905 9d6b ef3f a520 db6f 590e ef3f
00000170: c379 63ca 372b f03f 6650 98d6 2f23 f03f
00000180: 8852 0cfc 52e9 ef3f 4a0b 4ddc 0591 ef3f
00000190: 1081 0f4c 8791 ef3f f900 96b5 666a ef3f
000001a0: 9868 d4a5 1028 f03f 16fa 6c78 f654 ef3f
000001b0: a79b f1e3 4431 f03f b488 c1cb ba97 ef3f
000001c0: b0ae d4b8 1cc4 ef3f 76e3 e992 c29f f03f
000001d0: 50ac 320b 7a03 f03f 1367 b47e 981b f03f
000001e0: 2f36 d1b3 4a52 f03f 8cd4 c3b2 b707 f03f
000001f0: 4e87 2f2d df56 ef3f 2853 acdc d1f5 ef3f
1.0014086446318842 1.019625419750187 1.02358990147592 1.006341697573434 1.0174360672645755 0.9995128079866451 1.0263984841177447 1.031197640097748
1.0184889568360034 1.0097424929402483 1.0074873029623044 0.9810857269986475 1.0107614827775306 1.0019257665535561 0.9912426783469912 1.012686820798849
1.0113594101602204 0.9718093072475963 0.9847975633851489 1.0084679468668925 0.9884879384815697 1.0011468554431269 0.9873885709882395 0.9739005497914556
0.9898248168825449 0.9995800966000778 1.000123811129058 0.999519694874916 0.9883536138682416 0.9785412369713653 1.0098485084064015 1.0256679201436494
1.0205195896012575 1.0230127518686885 1.017025929149101 1.0207645342892908 1.0006275424634443 0.9854450841155583 0.9942935686494045 0.9726111045057424
0.9866470668747139 0.986768116833812 0.9903395295138219 0.9968225224371207 0.9818863967186154 0.9705016312300542 1.0105512529186036 1.0085905439964562
0.9972319529357074 0.9864529898407934 0.9865147100026963 0.98173842874533 1.0097815015529132 0.9791214325012472 1.0120285896352728 0.9872716884240362
0.9926894769646051 1.0390039194882923 1.0008488118571854 1.0067372273828752 1.0200907730208078 1.0018841727262808 0.9793544657261266 0.9987572965643254

encoder.0.1.bias f8 [64]
00000000: d261 933e 36ee 7d3f cbf1 0784 1f0d 8a3f
00000010: 53d0 4bf3 8596 933f cf95 0af5 7840 67bf
00000020: 5474 ab54 d0f1 57bf 94c3 4ca4 55fe 833f
00000030: 5ca5 ae15 ff0b a23f 4b46 47b5 3f23 9d3f
00000040: 8b78 e45d a4ca 9e3f 6928 6b6c 151a 943f
00000050: f98a 11ec f303 853f afc2 a5ba c328 74bf
00000060: ff01 300e ed8e 9b3f f4c1 80c2 ba38 943f
00000070: f802 47c6 cf83 813f 1c9f 4f15 a32a 8a3f
00000080: 8cfe 10b2 c7d2 953f 05ca 19ff 6cec 76bf
00000090: cdde 7582 8e6d 7b3f 4d25 b71b 58b2 933f
000000a0: adf9 b5af 487e 82bf 03ec 214a f155 8d3f
000000b0: 48f1 2dc5 133f 843f b798 4128 36c2 8dbf
000000c0: fc76 2a14 8589 983f 48c8 7b0a 2f0e 8e3f
000000d0: 485f 27c2 cd3a 743f e442 65b6 15f4 82bf
000000e0: 5678 f2cd 6bdb 7b3f ac36 e2a3 ed6e 90bf
000000f0: 4927 fdfe 4d72 953f ee0c aa23 1e59 a03f
00000100: da37 cf89 53ab 963f b77a 83f0 2fc8 2dbf
00000110: 62b1 53d4 b602 913f 625f 7bad 005d 963f
00000120: 6b74 926c 6149 8f3f 9e85 3f0c 84cf 623f
00000130: 6c84 2c08 a6ba 973f c8c8 1f5b 4afd 96bf
00000140: 5975 4163 a785 6f3f f175 c656 ff70 713f
00000150: 5e13 4436 3956 62bf b1d5 2ee4 5b59 633f
00000160: b010 57a2 5a34 70bf d7e6 b4aa 3e86 86bf
00000170: 2d08 b721 01f4 703f cddd 10fb 8a18 873f
00000180: af6f 8b90 9212 793f d970 7b58 a234 9fbf
00000190: 64db abc1 8775 41bf 7aa8 dc42 a92f 753f
000001a0: 00e7 53d6 c07d 7abf 3b99 1a96 ca9d 9bbf
000001b0: d6d4 060e 2ae9 84bf fc6f 6975 fa79 57bf
000001c0: 6ea2 20c5 8c75 7d3f bf46 3a49 6b05 a13f
000001d0: cf2b 1293 c2b8 653f f8ac e7c8 95ac 793f
000001e0: 0353 110e 511b 993f 9adf 4ee7 99b9 89bf
000001f0: fbd1 e6a7 927b 85bf e8b8 e76e 6d56 8b3f
0.007307254688577252 0.012720342842833873 0.01912888810598219 -0.0028383600659533724 -0.00146146149443573 0.009762448383840362 0.03524777545619415 0.028454776229244676
0.030069893103352768 0.019630751364083574 0.01026144565748187 -0.004921688620343075 0.026912406912744654 0.01974765598441937 0.008552191961713515 0.012776636207447782
0.02131187462168653 -0.005596566932228435 0.006696278265159794 0.019235016528715666 -0.00902992998339588 0.01432407863125285 0.009885935263576187 -0.01453058538772854
0.023962096553638 0.014675490863258159 0.0049388921201723515 -0.009254617337008005 0.006801053153280353 -0.01604815781370543 0.02094385021999948 0.03192991433481916
0.022137933050366466 -0.0002272184867768334 0.016611916264922207 0.021839151943680142 0.015276681066376882 0.002296216875024639 0.023172945259947772 -0.022450601398255526
0.0038479108134611803 0.004258153360209503 -0.0022383801862155125 0.0023619456055381173 -0.003956178702939336 -0.010998239121011206 0.004138950749110787 0.011277280604288809
0.006121227758480715 -0.030474220896267255 -0.0005328095315623002 0.0051724063649009 -0.006467583914167241 -0.02696911374246123 -0.010210350564060649 -0.0014328904996068195
0.007192182429243672 0.03324446934597124 0.0026515770228505496 0.006268105599228628 0.02451826713907491 -0.01256103741785335 -0.010489602803183997 0.013348441073472064

encoder.0.1.running_mean f8 [64]
00000000: 3880 eced 756c d23f 09f3 e9db 1d06 eebf
00000010: d07f b58a ce50 ca3f 8f18 9a5e 566b b83f
00000020: 5760 da90 5f73 db3f da74 9892 7b5b d53f
00000030: 4d35 7b3b e100 aebf df4e 0fe5 174e dc3f
00000040: dca6 c9a2 5d76 debf fca5 74be e110 cabf
00000050: 7a4b 98a3 1c48 e63f 77c3 cdda 368d ccbf
00000060: 8419 a70d 3e2e dc3f d50a 966b 78a3 bbbf
00000070: df09 cf56 2c6a e4bf d37f 9069 9c91 d93f
00000080: 2a98 edea 6c94 c5bf a476 da4e e3ea e1bf
00000090: d478 c653 75f8 c73f 2903 ec52 0381 ef3f
000000a0: def9 701f 300c d0bf 04ab eeae 2085 adbf
000000b0: 9613 d7f3 ca5d e93f c347 241d 4178 debf
000000c0: b026 745b a832 bbbf ea0f 0527 b1b6 c4bf
000000d0: df5f 0a28 6f4a e8bf abf4 5dea 30f1 9d3f
000000e0: ca00 d07e 9050 de3f 458c 1daa 8396 d7bf
000000f0: b942 7e0a 6d0b ec3f 5586 6770 a65c d23f
00000100: 0bbc 37ec 3b60 a23f 41b8 ebaa 51a5 d43f
00000110: c75f e7ab 1e3c b03f c72b 00c9 4cc1 d63f
00000120: 2bc7 7298 5a40 df3f 30bb 4012 2b80 dabf
00000130: 1fa3 286b fc0e 983f 799a af12 a84c ddbf
00000140: ca93 0be2 2821 d4bf e46b b7ba f5a9 b43f
00000150: 8d38 2aa9 b312 e4bf 6365 11b4 f220 d33f
00000160: 7c55 f018 05dc e9bf c5ed cd63 6409 97bf
00000170: aac4 0c99 2bdd e8bf 3397 b61d b0e3 e2bf
00000180: e158 247f 7276 a0bf 6ec1 7ae6 1d43 e2bf
00000190: 5e27 7949 9e6f c5bf 0189 1f95 cd81 c13f
000001a0: 0337 753f 9c95 df3f 63e7 9812 64a8 af3f
000001b0: 16dc aabf c252 d83f c162 4c37 d71e b5bf
000001c0: a271 597f 7c96 d3bf 29e6 8a16 5037 b9bf
000001d0: 57bb d37e a88b a33f 83f3 4629 f39a 93bf
000001e0: 7b46 5fe2 462a e53f fe21 e01b f007 d7bf
000001f0: 6e3d 0438 a260 d0bf 1afa 68e6 c17e d9bf
0.28786991343259016 -0.9382466597740812 0.20559102795505035 0.09538783845536812 0.42891682763866384 0.3337086612317087 -0.058600462447069825 0.44226643914337943
-0.4759744729732185 -0.20364019202797567 0.6963027186596797 -0.22305951770570306 0.4403224118545028 -0.1079631102239021 -0.6379605956538476 0.3995123892691456
-0.1685920855626944 -0.5599228420357645 0.18726984587278273 0.9844986552780927 -0.25074389524880114 -0.05765630851177231 0.7926993143561158 -0.4760897430979833
-0.10624172432667467 -0.16182531743299872 -0.7590862066308509 0.029240383438708644 0.47366726287874583 -0.3685616647036947 0.8763947682328627 0.28690491654388
0.03589045771138196 0.32259027186853834 0.06341735550756687 0.35554809216472133 0.4883028496507104 -0.41407276899819845 0.023494667091799145 -0.4578037435989369
-0.3145239074204339 0.08071838196285303 -0.6272829345705461 0.29888598999749244 -0.808107899387934 -0.022496765700891225 -0.7769983281379116 -0.5902939396225747
-0.032153680820714355 -0.5706929685166366 -0.16746882045327544 0.13677377492337686 0.49350649067933733 0.061831595678497185 0.38005131452104146 -0.08250184154565955
-0.3060599559446705 -0.09850025701862165 0.038174882394619906 -0.01914577426372289 0.6614107533770971 -0.3598594925138342 -0.2558980509793035 -0.3983616590593627

encoder.0.1.running_var f8 [64]
00000000: 8ca5 a665 6ff4 8d3f f1f5 98e6 d251 ac3f
00000010: cea2 2efc 5f8b a53f 7de2 f8de 1b55 a13f
00000020: 1495 2f76 950d a73f a3f0 7553 38f5 a43f
00000030: 24ca e47a 3901 7c3f 5459 39c0 c2f4 943f
00000040: 3766 8e11 159d 763f 04aa e9e8 d265 a53f
00000050: 68ed f553 f782 893f 2263 0bf2 6361 a83f
00000060: b4b9 4d13 b40a 9d3f 2842 7a75 6f76 803f
00000070: e165 5bf0 821a a23f f94e 3f5a df08 6f3f
00000080: daec 75cc fb6c ab3f 80ea c291 bc82 a53f
00000090: d0d7 468f a5eb 953f 6c28 0324 d35c b43f
000000a0: 77bb d78f a990 943f 64cf da0d b34d 943f
000000b0: 6120 9e85 743c a13f 280c 6619 5804 8f3f
000000c0: 0f29 0e3c dbdd 823f de74 18b5 431b a13f
000000d0: aab0 1292 c2dd 993f fa6f 0be1 c20f aa3f
000000e0: 8e7e 9f76 a336 8e3f 6770 c07a 048f 8f3f
000000f0: 2db7 4e7e b0da aa3f 3588 496a df54 8d3f
00000100: 20cf 767e 5d36 a13f 9c2a 413a 1998 a63f
00000110: 1e8c 9e86 6669 a63f 9ed6 5098 56a3 743f
00000120: 2d47 e29c f14a 913f a0ab e762 b52e 7b3f
00000130: 6f3c e30d 045f 7c3f b91e c69c 52cc 963f
00000140: 289a ac90 51e2 a03f 04bc b47c 8c76 8f3f
00000150: fde6 ce16 c09a 9e3f 6e42 68bd c630 863f
00000160: 2540 2a32 6596 a53f 49bc d4a7 6677 8f3f
00000170: 9f73 5827 413a a73f dfa5 88b8 6e2b a73f
00000180: 80a8 43f8 a966 8f3f d9a7 e9bd a7d9 993f
00000190: 0483 9770 3754 863f 8abb eace 95d6 a53f
000001a0: 1bb0 c641 c000 b93f b8dc dcb6 f30c 8a3f
000001b0: 0878 3c18 cd68 913f e3da 2d16 dfdd b33f
000001c0: f5c1 67fe 4da9 983f dcbc 2cda 0de6 943f
000001d0: 15ea 2880 3870 983f 9a0f e5ed 4c92 a03f
000001e0: 8fe5 0dd3 01d4 8d3f 2645 4a43 cb2f 913f
000001f0: bd07 a5a2 1a8b 8c3f 2685 7681 3d92 823f
0.014626379289284917 0.05531176628981516 0.04207897141833926 0.03385245415524183 0.045025511433587934 0.04093338030631457 0.00683710530420226 0.02046493814699464
0.0055208991042490696 0.04179247944997047 0.012456829309249698 0.04761802987713383 0.02836114280528941 0.00803839757216547 0.03535851654096312 0.003788410411269424
0.05356585379464614 0.04201306609453059 0.021406733388822208 0.07954139355857287 0.020083093075239113 0.019827649803758077 0.033664361296417374 0.015145004534820997
0.009212219972841966 0.03341113649023851 0.02526000992354286 0.050901498767160505 0.014752652223193576 0.01540950297935968 0.052449717920678963 0.01432203810799502
0.03361789864302822 0.044129169808532626 0.0437728919344169 0.005038584005026129 0.016887450409348737 0.00663634161035534 0.006926551663311561 0.022263804262847773
0.03297667399447263 0.015362832599377547 0.029887200729468145 0.010835220961810079 0.04216305005422808 0.015364458081050485 0.0453663216141884 0.0452532387028659
0.015332534684109556 0.025244351354935055 0.010902817843942987 0.04265278006402358 0.09766770940649432 0.012720016496685069 0.01700134716440263 0.07760423938257648
0.02408334603564018 0.02040883678563153 0.023865588018660306 0.032366184272660095 0.014564527753224947 0.016783882124007075 0.013937194908638756 0.009067993653675343

encoder.1.0.weight f8 [64, 64, 3]
00000000: c7b1 89eb 9f20 ac3f 04c1 d0fc 8b40 a1bf
00000010: deab 728c d26b 79bf 1bcf 526e 7b82 ab3f
00000020: 5463 00db d181 8ebf 51f8 6e2c 1506 afbf
00000030: c159 c2f8 71d9 a33f e962 ca4d 1c19 af3f
00000040: 728b 0eda ff5d a83f 3398 a2be 9134 8bbf
00000050: 2cdb 29f3 76cf a93f d11a 090a edb3 aabf
00000060: e12c afff 858b b63f b37d ec18 501f 91bf
00000070: 8850 ac5a e149 763f eb55 a1b0 fab3 a0bf
00000080: 7938 dd2b 1420 af3f 2e58 7a30 dd1c 9abf
00000090: 6897 70d5 1542 a1bf 19cc 9351 e04f a33f
000000a0: 2772 23d2 0fa1 9f3f e91e 73a1 1080 aabf
000000b0: 2c97 9de6 81bc a7bf f445 6a31 4ed9 ad3f
000000c0: 049c a05e 50a7 853f ad9e 8d08 2f6b a13f
000000d0: 0d40 0ee1 ffb5 a3bf fdad a9ab 1734 a6bf
000000e0: 1e0d 3fbf 7592 7d3f ab54 308a c957 a5bf
000000f0: 663e 3f40 0104 9ebf ea07 b202 e6f1 973f
00000100: e9e2 a62a 8a50 a03f 56db 9ff1 e0c2 923f
00000110: ddca 90f1 aa03 a33f 14b5 ce74 4e1d a23f
00000120: 79d3 56ab 690b 983f 9139 9be6 c4eb 833f
00000130: 730b 4614 dd4e 38bf c00b 3866 04f9 a33f
00000140: 8c67 631b b8a0 adbf b86a 64a3 3f47 98bf
00000150: 9e90 022d b8c8 b1bf 46ce 3e8c ca47 ac3f
00000160: 6a7b 50be cf66 afbf 17df 94f3 f5ef a9bf
00000170: 1665 49e2 689b a5bf aaa3 8de9 37c2 a63f
00000180: db5d 5c64 81e4 8c3f 3d67 79d0 5654 b13f
00000190: a802 c4fa 56bd ab3f e638 fc06 45bf 99bf
000001a0: b70b 2076 32b5 a83f 5636 7ae2 f973 89bf
000001b0: a977 dc06 7828 aabf 9b1c 12f8 97fa 973f
000001c0: ef9f 769c d624 65bf bd61 75bd 149a ae3f
000001d0: 50ba 34e4 cedc 8d3f f83c 43b3 fefd 963f
000001e0: b2be ecd2 0760 a63f f763 8e43 4abf a13f
000001f0: 4c19 1e6b f927 85bf 9818 7a79 42d5 9bbf
00000200: 3a6c 678b e10e 6f3f cea7 407a 84ab a83f
00000210: d919 a2c1 68da 7cbf a36b ebe4 60a4 ad3f
00000220: 9881 98a6 26be ab3f 0000 e15e 8689 7cbf
00000230: 05e4 a5ff 9548 a63f 7f3c bcfe 932d a2bf
00000240: 9aa9 08cf 7242 aebf 5bdd 9558 8b3b b3bf
00000250: 7a42 a686 c3b4 883f d2f0 74d1 50d3 a4bf
00000260: 2ab3 9ed0 0411 a1bf 70fa 6920 8dee ad3f
00000270: 25de 361c bda7 683f 176e 13f8 98df 84bf
00000280: 2b94 e553 3f10 7a3f 0127 79f7 73d6 a3bf
00000290: 7fe1 d6ca 430d a9bf 887b b103 900f b7bf
000002a0: 429e 4f0e df4d a5bf 4a15 68f3 edb6 9fbf
000002b0: 2e0d 55d7 fc48 9a3f 304d c685 c68f a13f
000002c0: d904 39b1 e583 6abf 0743 2b9e 54b5 a2bf
000002d0: 3f16 7db2 772e 9cbf 07fd a48d e78c 89bf
000002e0: 2598 adb7 1871 a73f db0e 2af1 680a a43f
000002f0: d40f e60d 788a b43f 853a 7448 7bbd a3bf
00000300: a842 f286 edd8 983f fa9e de0d 9547 a23f
00000310: 0f85 de35 025d a53f cdba 3e9d 8e89 823f
00000320: 238b 1bca 21e3 933f 1869 45e2 1c46 7cbf
00000330: f84d edec 4d14 983f 0aac 1ab3 40e2 953f
00000340: c50a b0a6 844e aa3f 50d8 7222 89b4 a23f
00000350: 47a7 2e54 a285 a73f 14e9 0f91 6c89 8bbf
00000360: 89f4 fc1a f42e a13f aa0f 6913 15dd 92bf
00000370: c598 da2d e2e3 a1bf 7f96 55bc 33fa 953f
00000380: d9d0 9b72 0535 a33f d6a7 076a af24 a4bf
00000390: 5851 c819 9598 973f 78fe 791d b60b 823f
000003a0: 50d1 9a79 42fe a4bf 0e78 b418 4db3 a8bf
000003b0: 5729 a38d f55a b4bf 2e08 106e 7e69 8bbf
000003c0: 69f0 824d f615 b3bf a754 a9db 3bc6 b1bf
000003d0: c1ac 92b7 e90a 893f c200 5635 0c88 933f
000003e0: 2339 677f c554 b3bf 3560 6361 ba4e 96bf
000003f0: a06e 2cbf 8ce1 8a3f eaa7 f893 957a b0bf
00000400: bd42 8a5e 7a51 aabf a87c ed28 ec44 acbf
00000410: 328b fc65 5568 a3bf 6cf8 4afa a5e5 b53f
00000420: ad28 976d 480a a5bf dedc 5759 4b2c 97bf
00000430: cf3f 3b1f 83cd b5bf 0110 883b dc68 af3f
00000440: 5024 9983 3aa8 9b3f 390f 040f ee82 a33f
00000450: 800f b3dc 3d1e a83f 7984 dfe1 a975 acbf
00000460: d377 bc6c ecf9 91bf c8c2 345d 08f4 b1bf
00000470: 75cb ab19 1aa6 973f 1095 f4a3 7e81 a43f
00000480: fa7b f4ef 185f a53f 514d 6a30 502d 853f
00000490: 5268 85fa debc a5bf 3fac d4bf 3a87 abbf
000004a0: 86f6 4336 8836 af3f 0d97 ea99 2fe3 a13f
000004b0: 99ea e23e d18a b03f e1be feb7 afa5 80bf
000004c0: 0e5f 4700 aa96 973f 4f80 34aa 14e2 a63f
000004d0: fbef 4d0c 8d03 45bf b0e4 7708 38ef 813f
000004e0: 39b9 dda9 aa2d b53f a8da 41bb caaa 503f
000004f0: 848f 24da 8b93 b03f 56dd d399 4bea 6c3f
00000500: a445 9ac2 b733 78bf b256 a282 6c0b a13f
00000510: 2af0 7b11 a312 ad3f aaf8 f9a1 55b9 aabf
00000520: 16b2 cd9e 2952 a43f c5c3 f059 86f5 80bf
00000530: 6dee 3044 6b97 92bf 2280 063d 3f2f 85bf
00000540: f797 bc64 00c3 9e3f 0b47 44ca 5061 8bbf
00000550: 0cc4 3e13 c462 a83f f749 26b5 1e1f b43f
00000560: 2a3a 3168 f660 b03f 9857 d752 745a ad3f
00000570: 161d 6b24 7fa5 9cbf fd70 4568 248b b0bf
00000580: 4ed0 07ff 104d 9f3f 0d07 d818 14da a13f
00000590: 86f2 1b1b 46e1 b03f 720e 14aa 478c 993f
000005a0: 965f 628d f459 a2bf 35c9 1f00 b14b ad3f
000005b0: f30f 1a31 7cb1 9e3f 8c92 f6ab e8ae a23f
000005c0: 6722 248f 5509 acbf 3ab7 e176 8326 ac3f
000005d0: f17d 614d 76b9 a23f f21b 8b49 1b54 92bf
000005e0: d4db c0ac 6700 b2bf 7613 abd5 b96c 79bf
000005f0: 1a7a 7c09 a326 b13f 8d94 9371 5953 90bf
00000600: 7919 3994 da55 abbf e2ec f21e 7f32 b2bf
00000610: 366b 409a 5717 593f ebc2 11ce 594a a0bf
00000620: 6e27 202f 4c8b b13f 2439 e1ec d90e aa3f
00000630: a33b 6af2 a1fd b2bf 1786 8649 99bf b4bf
00000640: d9dc e153 e711 afbf 7a98 54f6 af5c b03f
00000650: 7ba8 976c c775 9fbf 4b57 fc0e c6d6 a83f
00000660: cdde 2e7c 450c b3bf 8dc4 93cd 0b3e 98bf
00000670: 57dc 938c d68c 923f 98c9 5922 fd8e a8bf
00000680: 2722 870d 32ee acbf 87ea e256 1de2 85bf
00000690: 4702 1227 5460 953f d38b 163d 9b73 b5bf
000006a0: 1e3d eb03 effb ae3f 1e16 39ce ba96 a1bf
000006b0: 9106 6ec3 adc4 abbf 57db 89df a244 803f
000006c0: ec97 7cba e378 933f bc53 098a 1d1e aebf
000006d0: 53fc 7ef4 c14c b0bf 01e6 a897 1411 b03f
000006e0: 8aa6 8f2e 492c b03f 302a 8741 e7d4 9b3f
000006f0: c357 6f80 c13e a63f 8595 c9fb be3e 9abf
00000700: a1c4 29f6 5c09 7f3f 8f57 e6a2 f928 afbf
00000710: dc45 d85f 4b40 62bf 9b31 6981 c5f2 79bf
00000720: 969e 98e9 6454 b5bf d3ab 3bf8 9006 9c3f
00000730: 4dee 9b5c fc37 9abf a418 8942 ac25 743f
00000740: 4ff4 7093 63af b3bf 0e9f 65f7 e1ae a33f
00000750: a256 c7df fed5 a9bf bd0d f567 5c3e a9bf
00000760: 4117 65dc 5771 943f 4009 d105 08fa a13f
00000770: 8080 563d 5646 a4bf 4c99 879f 9e22 ab3f
00000780: d769 e5d2 4e71 a6bf 4d2a 75e7 b8fe 85bf
00000790: cdf4 9ba9 f2b0 b4bf bde2 c870 4132 84bf
000007a0: d1e9 3838 2d1f ac3f 8319 915b 9a56 883f
000007b0: 760f 67e3 fdf8 b3bf 9fd7 0a00 719f 7fbf
000007c0: 9760 2d51 737e 9d3f 39f3 062b 2838 a83f
000007d0: dc4a 78af cef4 973f 424d b76a d155 ab3f
000007e0: 411f 3317 2b95 863f 90f3 ea50 32b4 723f
000007f0: 3b64 dfd0 74b3 aa3f fd73 45c7 7cb6 973f
0.054936406614476456 -0.033695578204403304 -0.00620634313160459 0.053729874818058763 -0.01489604901876055 -0.06059328238869511 0.038768350235091294 0.06073845338432255
0.04759215866876944 -0.013283861761305448 0.05041095464996767 -0.052153975939793214 0.08806645862857777 -0.016721011658885575 0.00544155148488213 -0.03262313276415426
0.06079161677790607 -0.025500732501846972 -0.033707315735496846 0.03771878238503507 0.03088783950885179 -0.05175830813237587 -0.0463600725186509 0.05829853394710574
0.010573032272146683 0.03402087191971979 -0.03849792120229276 -0.04336618395322132 0.007219753217160089 -0.04168538867831136 -0.029312152429893955 0.023383706964985075
0.03186446924832415 0.018321528194032176 0.037137357700336195 0.035379840620729436 0.023481036265099207 0.009727037704035964 -0.00037091157380347086 0.03900922534742035
-0.05786681494073695 -0.02370929178969547 -0.06946898554685041 0.05523522340754687 -0.061331264478431916 -0.050658880218575834 -0.042201306937110925 0.04445051885597391
0.014107714534062168 0.0676931628198902 0.05417892275909725 -0.025143698264451418 0.048257424277856335 -0.012428238128701679 -0.05109000285868543 0.02341687633136456
-0.0025810424446781536 0.05976929486013514 0.014581314410489515 0.022453288737605853 0.043701405046133415 0.0346625525919037 -0.01033015115878002 -0.02718070856510532
0.0037912755171709807 0.0481835746034701 -0.007044228748901615 0.057894733375824424 0.05418511184348346 -0.006967091450917451 0.04352253671363119 -0.03550398335038895
-0.05910071160572557 -0.07512732422570904 0.012063529535937468 -0.0406747108158655 -0.03333296820287608 0.0584606267993778 0.003009671550639375 -0.010192103453326813
0.00636315095321031 -0.03874552150644029 -0.04892932749811773 -0.09008121576469652 -0.041609735962819375 -0.030971258145674065 0.025669050829731414 0.034300044851216405
-0.0032367216279288566 -0.036539692218530866 -0.02752100970180593 -0.012475785265108742 0.045784733220714004 0.03914192146205916 0.08023786868403643 -0.03855500468681775
0.024265014039488136 0.03570237917239001 0.041725224567253354 0.009051431821572998 0.019421127281826444 -0.0069028023029551674 0.023514955125689213 0.021370898181583477
0.05138029608499076 0.0365336279441385 0.04594142224898561 -0.013445709397264007 0.03356135205692918 -0.0184214871499219 -0.03494173822154915 0.021462257738127818
0.037513895263971704 -0.03934238595304833 0.02304299325813139 0.008811400198509775 -0.041002347320871935 -0.04824295927595311 -0.07951292713111023 -0.013384807332844497
-0.07455386535997523 -0.06943105805233306 0.012227846064283178 0.019073668246620164 -0.07551226005964344 -0.021784698671439357 0.013125514587549347 -0.06437048780995239
-0.051402877846276486 -0.055213336940817925 -0.03790537710144405 0.08553540573754653 -0.0410940774705336 -0.02262990696723654 -0.08516711723791491 0.06134689547255335
0.027008928567998247 0.03810829098986663 0.04710572547040126 -0.05558520204773116 -0.017554945122462428 -0.07012989306964379 0.023094566170537918 0.0400504660740727
0.04174116067064655 0.010340334393993319 -0.04245659645194223 -0.053766094128456114 0.06096292173786559 0.03493641618596941 0.06461818490326222 -0.008128521730980722
0.02303567530347466 0.04469360902498975 -0.0006412924491168143 0.00875705505221655 0.08272806784745947 0.0010172824668452183 0.06475137782814328 0.0035296894626487925
-0.005908696950102241 0.03329028219847653 0.05678281391553271 -0.052195240042224825 0.039689350733940795 -0.008280801410451741 -0.01815574268060376 -0.010344022798392475
0.03004074683044419 -0.013369208500566573 0.04762852415968419 0.07859985277745084 0.06397953075177357 0.05733073722119214 -0.027975069616130353 -0.0646231417244429
0.030567422452762387 0.03486693194646593 0.06593740617604213 0.024949187999494922 -0.03584255433923926 0.057218104615360955 0.029973927018104928 0.036490698806379646
-0.05475871441200724 0.05498133493607189 0.03657121367063699 -0.017898966182453742 -0.07031867950068654 -0.00620720473915958 0.06699580175016032 -0.01594295268741468
-0.053389387696870245 -0.07108301644887008 0.0015314441197975099 -0.03181725159163825 0.0685317626049746 0.05089455620383124 -0.07418262642225541 -0.0810485653405738
-0.06068346880868498 0.06391429675986329 -0.030722728732066145 0.048513593034086165 -0.07440599710286762 -0.023674187109410872 0.018115379648375143 -0.047965918009953146
-0.05650478758940763 -0.010685185636579731 0.020875277409233808 -0.08379526368530259 0.06051585123861457 -0.034353101419167795 -0.0542349148809197 0.007943413206914647
0.019015844590420203 -0.058823512172842624 -0.06367122859136147 0.06276062681799745 0.06317574869867762 0.027179349302779154 0.04344753926095237 -0.02562998210705338
0.0075772887527005015 -0.0608594905235541 -0.002227923598874011 -0.0063350405749357476 -0.08331900313407412 0.027368798399873228 -0.025604193832789602 0.0049187401678577915
-0.07689497327460625 0.03844362397177124 -0.050460781876308106 -0.04930390137681282 0.019963620020710286 0.03511071272852684 -0.03959912775758401 0.05299850175269913
-0.04383322071472023 -0.01073975044586919 -0.08082501068925581 -0.009861480001846496 0.05492535888011541 0.011883932036778294 -0.07801806260891717 -0.007720414549728632
0.02880268271414418 0.04730344319566488 0.023394803485710422 0.053389114643915395 0.011026703496454739 0.004566380068976708 0.05215039300646437 0.02315707174544811

encoder.1.0.bias f8 [64]
00000000: a16e 0200 d294 8c3f bf3c 3b80 8969 963f
00000010: 53cf 0560 154d b2bf 12ee 0140 be07 b03f
00000020: 4a54 f89f 0384 afbf d484 faff 2fca b1bf
00000030: 1a77 e1ff e782 603f 9578 2500 66c5 9c3f
00000040: 8c61 fcff e4c9 b0bf 427f 0a80 ad65 943f
00000050: 8b8c a1ff 5b2b 643f 72d9 f9ff 44e0 9c3f
00000060: b5dc 0700 5d24 ac3f a840 ffff 67dc b1bf
00000070: 388a 04c0 e577 aabf dac4 dfff 7adc abbf
00000080: bb5f 1000 963b 7cbf c493 faff 41f4 9d3f
00000090: 541d f5ff 2328 753f 7ed7 cc7f 23bb 8fbf
000000a0: e4e9 cb1f 7724 aebf 23ab fc7f 39df 973f
000000b0: 00cb 0440 42a1 a63f a642 0440 55a3 a7bf
000000c0: a529 f8bf 827b a4bf fd48 f23f 4954 b13f
000000d0: 3db8 f3ff 7658 ad3f 31e7 c47f d3d3 913f
000000e0: e357 ea3f 74f3 a4bf 4385 e17f 88c4 9c3f
000000f0: 343e e1ff 0cfe a63f 717f feff 348a a2bf
00000100: b331 fb3f 1cd8 abbf ddbc e2ff cb56 ad3f
00000110: da2b 36c0 d8a4 a23f 3cde 2240 31e1 98bf
00000120: cfc6 f63f 8ec4 a2bf d0e1 f7ff 5f3c aabf
00000130: 04c5 fdbf 66dd a53f bfb7 da7f 5f9e 94bf
00000140: 6af0 b3ff 5978 8f3f b26f 0800 6a64 993f
00000150: 0db2 0100 8ed7 b13f 617a 4f00 24ba 693f
00000160: 7104 ffdf a054 a5bf 43f5 0e80 4adf a1bf
00000170: 9b3f 1fa0 fbf2 a1bf df65 0040 2642 a13f
00000180: 8ea5 0e00 fa8f 78bf 5d97 0980 4295 ab3f
00000190: 37a4 0d00 b8de af3f 214f fc3f 0f33 a23f
000001a0: 7b5b efdf 4c3e afbf bb27 f6ff 275d 993f
000001b0: 301b 0f00 347e 8cbf ef41 e87f 3a66 98bf
000001c0: 40c5 fe7f 2f37 b03f f6c1 fe1f c161 b1bf
000001d0: ca8e a300 fd2e 85bf edfb fb3f c2d9 94bf
000001e0: f8e3 0801 f0db 72bf 8eda febf 1e06 a13f
000001f0: c406 fd9f b334 b1bf aff6 14c0 1bac 99bf
0.013955727219858107 0.02188696713602378 -0.07148870081237861 0.06261815130886131 -0.061554063108055404 -0.06949138640858915 0.0020155459633731778 0.028096765288289822
-0.06558066606192464 0.019919119777682022 0.0024620816084720046 0.02819927036622389 0.05496492982268234 -0.06976938247612685 -0.05169599503485184 -0.0544165074678717
-0.006892763079143489 0.029252082108218294 0.005165234207488229 -0.01549365743413111 -0.0588719583810933 0.023312471806245526 0.044199056925569025 -0.04616800695851468
-0.04000481217743194 0.06769235430900618 0.05731555818952969 0.017409615205202292 -0.040919907381222996 0.028093464665635236 0.04490700362714187 -0.036210685967715935
-0.054383166132172 0.05730283259014766 0.036413930381136786 -0.02429654077488251 -0.03665585070429033 -0.051241874691132616 0.042704783379017314 -0.020135395220385762
0.015366271129544102 0.024797111751567243 0.06969535350953766 0.0031405165814100554 -0.04166128858879226 -0.03490670026028877 -0.03505693750014346 0.03370780497807479
-0.005996681750653278 0.05387313664395663 0.062246084219460256 0.035545803604831734 -0.06102218850690285 0.02476942538991243 -0.013912588359642791 -0.023827470833625183
0.06334206461794611 -0.06789786368495485 -0.010343529302594762 -0.020361933856289417 -0.004604280010021881 0.03324981778807966 -0.06721041351286333 -0.025070603941677202

encoder.1.1.weight f8 [64]
00000000: d339 3f36 1a7b ef3f 262a 40ee da46 f03f
00000010: f19c d80c 130b f03f 3243 4d88 53b1 ef3f
00000020: e5c3 fffa 5263 f03f 3f40 c719 76b6 ef3f
00000030: cedf 36a1 5734 f03f b41d 7679 27d7 ef3f
00000040: 0611 6c72 c221 f03f 3f10 1379 ad26 f03f
00000050: 7706 643c 3daf f03f 800e ef6c d194 ef3f
00000060: 693a 0723 ade1 ef3f 4388 d1df 5295 ef3f
00000070: 4cfa 0884 0fbf ef3f e35a 2842 4256 ef3f
00000080: 6698 3e31 0cea ef3f dbe9 91cc e5ce ef3f
00000090: e507 e58c 9173 ef3f f631 11a9 300e f03f
000000a0: e06f 136f 58dc ef3f 88d1 21c2 2238 f03f
000000b0: 03c9 eb85 c66e f03f ebde 92a4 ba4f ef3f
000000c0: 5e67 9f0d 05cf ef3f cf97 5fe2 c9df ef3f
000000d0: 87c4 12ac e1d3 ef3f 45c2 0957 4831 f03f
000000e0: 31b0 96fb c564 ef3f bf4c 46ed 431e f03f
000000f0: 34b4 4665 aef5 ef3f 5477 e206 b34e f03f
00000100: a1ae 6664 1313 f03f 0fcc b7f5 74e8 ef3f
00000110: cb69 b1c6 2255 f03f e647 1578 fce8 ef3f
00000120: 6815 0eb9 0a64 f03f f352 0990 e6b7 ef3f
00000130: 62f8 75d8 f0ac ef3f 8142 acdb 7e92 ef3f
00000140: 311a 1099 5f57 f03f 1fc7 bfc2 d79a ef3f
00000150: 8838 a4fe b39f ef3f b79c ab11 0ef1 ef3f
00000160: aea8 2a4a 0f0e f03f 8be8 84ff 7a31 f03f
00000170: 5ceb fb96 3477 f03f da2f 441e 0b6c f03f
00000180: 491f 3381 a90a f03f 7980 55a7 cd88 ef3f
00000190: d381 171d c84c f03f b54e 18d6 fd38 f03f
000001a0: 490b 5fdf 5b0d f03f 0c7c f1f2 ebee ef3f
000001b0: 5bbe a18e fe52 ef3f 63d2 2007 c05b f03f
000001c0: 0782 7a17 a5f4 ee3f 4af0 20a2 2f38 f03f
000001d0: 7e71 dedc d063 ef3f 1dab 13fc db68 f03f
000001e0: ec0a bdfe 06ef ef3f ea82 ee02 355d ef3f
000001f0: 030e 698d 3144 ef3f a4a2 89a5 cc2c f03f
0.9837771472464801 1.017298632303786 1.00270371454263 0.9903962766785297 1.0242490582133936 0.9910231116755382 1.0127788827357906 0.9950139400761402
1.0082420796980514 1.0094427804442743 1.0427830084812777 0.9869162681211066 0.9962983783860412 0.9869779941038889 0.9920728281793543 0.9792796413556427
0.9973202668959515 0.9940060611254994 0.982857489762179 1.0034643749414704 0.9956476373149563 1.0137050231251994 1.0270447951593844 0.9784825529413558
0.9940209642474931 0.9960679456096332 0.9946144448096143 1.0120318794180474 0.9810514367904998 1.0073889988459965 0.9987403848696261 1.0192137020998944
1.0046571657102634 0.9971260832957131 1.0207851182409395 0.9971906991361237 1.024424288626813 0.9911988080226294 0.9898609378576675 0.9866327562795761
1.0213314036387937 0.9876517108625399 0.98824500784555 0.9981756539463252 1.003432550156997 1.012080190774699 1.0291028878989072 1.0263777906684397
1.0026030585158472 0.9854496258012794 1.0187455307387736 1.0139139521678946 1.003261444610603 0.9979152436243353 0.9788811479356342 1.0223999288984025
0.9673638781133044 1.0137173016692196 0.9809345544668273 1.0256004187346612 0.9979281401977835 0.9801278168925738 0.9770744096680918 1.0109373537363036

encoder.1.1.bias f8 [64]
00000000: 98a5 35e5 2de6 71bf ab35 3698 c25f 973f
00000010: 4546 586a e31e 963f d762 6283 79f6 75bf
00000020: 1b0d 5cb5 661c a0bf 0ba2 541c 5c87 5ebf
00000030: 8588 a190 9617 943f 770b 99c3 4250 9abf
00000040: c725 3602 6982 823f 1063 b2af 7754 43bf
00000050: a648 c305 9484 873f 3bfe 8e78 f945 83bf
00000060: 8c5a 008c b2be 863f 74e2 c104 3649 75bf
00000070: 8d68 597b ca34 73bf dfb0 0085 2c21 723f
00000080: 776c 3f0c b9de 52bf 6b0c 9451 6cf7 6e3f
00000090: c1f3 ccba 8db1 9dbf e58e 733e d18d 63bf
000000a0: c00e 388a 6faf 94bf fc01 bbbc c011 943f
000000b0: 7ee0 4516 db50 a8bf 8adf 100e 2818 90bf
000000c0: 11dc 6450 44b4 573f de59 f0f1 2fdb 8b3f
000000d0: ce7b addf 066b 7d3f 6be5 6ba4 47db a4bf
000000e0: a8d9 b9a8 51d4 90bf dc6b 88ea 68c6 a1bf
000000f0: 74bf 2f79 1542 863f 9f98 bab5 0aad 903f
00000100: 6c85 ceed 4ed5 9ebf 3ca0 3b32 3b7d 763f
00000110: cd07 6bed 172b 9b3f 067a 769a 5e51 9abf
00000120: 62b5 ab22 bedb 7f3f f1c8 b9b2 8c40 73bf
00000130: 6fd1 e418 3ad1 54bf 9a40 faf1 9fb9 8ebf
00000140: cde4 324c f330 853f ee1a 537e 2dfe 89bf
00000150: 80d0 f01a 229b 6abf 6324 d445 4247 8dbf
00000160: e4cb c648 283e 903f 1662 4de7 f429 a53f
00000170: 280a 359b a119 72bf 2710 61d0 6adf 74bf
00000180: 60ee 0820 f4b0 953f 59e6 ce34 e29d 303f
00000190: 10c5 1469 d5e3 843f 1a8b a9ae 95b7 8e3f
000001a0: ed34 6c4e e52c 93bf 52e3 d385 b33d 883f
000001b0: 0fcd a1c4 a976 7a3f 74ea 4340 1e5d 92bf
000001c0: a154 fae7 b7ba 87bf d0ee 9b6b 0c6a 613f
000001d0: 1964 166a f48f 81bf 8bda 88b7 283d 9a3f
000001e0: 5ec8 dafc bb89 863f 99f4 9d1e af49 7ebf
000001f0: a994 4c7c 3ae2 99bf 934c 8551 313a 903f
-0.004369906691274926 0.022826233425396285 0.021602204671643106 -0.005362009678855548 -0.03146668399679183 -0.0018633269804216891 0.01962123162992004 -0.025696795643181027
0.009037800197591829 -0.0005899032979811165 0.011483341623179943 -0.009410809508948783 0.011105914018157102 -0.005196772585002497 -0.004689017243061267 0.004426168350658537
-0.0011517340762939013 0.0037800899123126472 -0.028997625852969614 -0.002386959724036563 -0.020200484095780125 0.019598971862025735 -0.04749188086401633 -0.015717149599566528
0.0014467875603949613 0.013601660319221883 0.007182146883535757 -0.04073547250841155 -0.016434932635513683 -0.034716871861938364 0.01086823249894995 0.016285102216578747
-0.03011058165032436 0.005490523562663493 0.026531576028680882 -0.0257010251785861 0.007777922359975294 -0.004700231172693346 -0.0012705867153047464 -0.015002488681858762
0.010347271693137117 -0.01269183675539184 -0.0032478014104758146 -0.014296071773531155 0.01586211151306917 0.04133572886957297 -0.004418975138210025 -0.005095879785645996
0.021182836966757157 0.00025355122198398233 0.01020018317157903 0.014998597519654978 -0.018725951110401807 0.011836435815426736 0.006460822254769085 -0.01793334262127151
-0.01158660580339649 0.002125763185970665 -0.008575353133709428 0.02562392826276975 0.011004894880304924 -0.007394489346436072 -0.025277055584542883 0.015846987343433993

encoder.1.1.running_mean f8 [64]
00000000: 3674 f039 952b d83f bace 2c5b d033 dcbf
00000010: ec09 5b99 7f76 bcbf ec46 2a64 59fc d33f
00000020: b002 050b 0fbf e63f 4278 7bd5 1d27 e73f
00000030: d106 5b2e d8ef e3bf b5e8 9778 8911 e83f
00000040: 5a4e 72f5 9c33 b13f 7a99 237d f8f9 e13f
00000050: a7f9 f558 c147 e13f f3d2 1d70 ee18 e5bf
00000060: af8e e6ea ab31 ac3f 8b5e 3cbb 6642 a0bf
00000070: b118 2014 64af a4bf 66d8 594c 5c4f c7bf
00000080: 98d7 ba42 6669 e4bf 57c8 4a26 56b5 f5bf
00000090: 317b fa29 ff5d e13f 8d9c ead6 036f dbbf
000000a0: aceb a57c e093 dd3f c3bd af28 9b5b e13f
000000b0: ae59 92a3 eaad e33f c4f5 64e6 a2b6 de3f
000000c0: cebb 7881 d8e0 ca3f 3827 0980 3a72 df3f
000000d0: a23d 8774 6ea2 ab3f 2174 6c19 888f e93f
000000e0: 1f15 6b52 0177 ed3f 6744 efe9 e284 e63f
000000f0: fd85 af1e b703 e23f 4d78 9046 ee03 e3bf
00000100: b4f9 c523 98a6 a13f 4c30 4d55 d91f df3f
00000110: c10b 9247 3210 c13f ea30 d2cb ddb1 ea3f
00000120: a7f1 ad77 8ee5 e03f 677f f4f5 5ddc e5bf
00000130: 2f29 e8a3 c9f2 d2bf b635 7c0c 8a37 e93f
00000140: b877 de3a cf9c c9bf 1a77 ce8a f940 e7bf
00000150: 3151 029a 6cb3 ed3f 5d4a 20d2 fa49 d43f
00000160: 6cb3 81cd 7f5d f4bf 5fd1 41ec 095e e03f
00000170: d26f 5160 cbdd c0bf 9a32 8145 6047 dd3f
00000180: 2ce9 f4f8 231f e8bf 5afe c69a 1a8c e7bf
00000190: cbe5 7f30 962e e73f e44f a9a2 4a3d debf
000001a0: 1912 8332 a14e e03f a925 dbeb 2197 b9bf
000001b0: e586 d3a7 39f6 e23f b621 1e0a 7dd0 e23f
000001c0: d89e f893 7a08 dcbf bf2f 309d a870 babf
000001d0: 3e87 a9df 930c a73f 3123 0a3e d0e2 e1bf
000001e0: 0bfe 4a4d 4ade e4bf 377c 8969 4fc4 d83f
000001f0: b440 0535 667b 943f 48e5 004c 9fc7 e4bf
0.37766009004718926 -0.44066246894656624 -0.11118314260514922 0.31227717191460047 0.7108226027704259 0.7235249681068654 -0.6230278878576546 0.7521407466258753
0.06719380371424091 0.5617639965173986 0.5400091874615115 -0.6592933835769074 0.0550664638751902 -0.03175660167306401 -0.04040062661810973 -0.18210939148019917
-0.6378661444966722 -1.356771611765472 0.5427242107287836 -0.42865081775603003 0.4621506898180836 0.5424323839815134 0.6149800486335175 0.47989723681879703
0.2099867469964622 0.4913469553326766 0.05397362873520285 0.7987709518962484 0.9207769975406882 0.7037214821849717 0.5629535292939064 -0.5942298296174698
0.034474138609755484 0.4863189061186446 0.1333067750420849 0.8342122059707695 0.5280220353593464 -0.6831502727327291 -0.2960685825970754 0.7880296939708191
-0.20009794592345798 -0.7266814909996555 0.9281523712147984 0.31701536674623815 -1.2728269603350908 0.511479340972567 -0.13176862910302006 0.45748144900861976
-0.7538013327059949 -0.735852529811335 0.7244368502862754 -0.47249093899631434 0.509598349243393 -0.09996234901622948 0.5925567891938185 0.5879502484904637
-0.4380175061255449 -0.1032815345535587 0.0450178347134753 -0.5589371883116653 -0.6521350392940247 0.38698182398178765 0.020001980768314012 -0.6493679508632022

encoder.1.1.running_var f8 [64]
00000000: 8176 ab2b 375f e93f fa15 83af 79b2 e73f
00000010: 416d 95d5 1804 e43f 7c18 4b88 2ac6 df3f
00000020: 99b9 68eb 31b7 e73f 502a 5dfd ab62 e93f
00000030: 56a8 e224 39b7 ed3f 3417 aa2c 00da e23f
00000040: c76b 7792 274b e13f cad8 0eb1 a9b5 e83f
00000050: 8681 758f f856 e33f 2c5e 7ab1 b1f3 ee3f
00000060: 3e08 8c6d c915 ee3f 5726 2ca5 f1ba e83f
00000070: 1d5c a100 f141 e53f e278 d9c4 a71f e53f
00000080: f9f1 6702 e234 ea3f d817 2e10 90ba fb3f
00000090: e716 b7c1 b55a e13f d702 1269 6d96 e23f
000000a0: 8ee1 5f67 3a1a dc3f f678 9ecd 8889 ef3f
000000b0: 449f e9d2 dc07 d83f cda9 183a 0520 e03f
000000c0: f00d 37e5 70b2 e73f 1c7b 94a0 21e5 e53f
000000d0: 2bcc b9a2 ded0 e93f ac21 fa80 73d2 ea3f
000000e0: 42e5 7b6c 61b8 e23f 689c bdf8 5d1f e73f
000000f0: 425e bac0 0683 d03f 7632 03a6 2d85 f63f
00000100: 7733 674e 69b3 d43f a817 8490 b76a f03f
00000110: b365 347e dd0a f43f 0a99 9baa 187b ed3f
00000120: 6e53 5ee3 e948 e93f e1df a86c 89cf e13f
00000130: 01a2 3dbf d67f e33f ea60 ad24 d56f ea3f
00000140: 3e78 f1d8 310f f03f 7f89 5f64 3ce2 f73f
00000150: 03ff 7e5a da63 ed3f 6143 924e b02a e03f
00000160: 1273 438f 12e0 f53f f11b c812 fe5c e23f
00000170: 0acb 423c e9a6 ca3f ae81 59f2 8912 d73f
00000180: 2f3d 398b ffd0 e03f d8a0 7ed8 37f1 f63f
00000190: 0843 3614 c440 e03f e207 7d31 aadf f53f
000001a0: cc8b da1d 613c e63f a825 f112 062f e73f
000001b0: c945 8cce 7292 dc3f 3388 783a f2f2 d43f
000001c0: 6192 3dbe 2bdc e23f fede 887b d885 d73f
000001d0: 1da1 c92f 4fcd d73f 4f42 6899 7f1d e93f
000001e0: f945 995c 13b0 ee3f ac92 761e 2ca8 df3f
000001f0: d74e 7f03 582a d53f 672b 2057 feb3 f93f
0.7928729870724994 0.7405365398378188 0.6255001231724365 0.49647010145088877 0.7411126706918366 0.7932949017061421 0.9286161156098938 0.5891114113189588
0.5404241429017639 0.7721756418384527 0.604366569703459 0.9672478166930367 0.9401595248784884 0.7728203035378084 0.6642994892416741 0.6601141781536877
0.8189554259293451 1.7330475456269507 0.5423229964732997 0.5808627178340328 0.4391008386151264 0.9855388656613104 0.3754798946088054 0.5039087423986587
0.7405323483330317 0.6842201362922853 0.8067467859494902 0.8381898421367189 0.5850073927714805 0.7225789888588112 0.2579972154721625 1.407514236913952
0.32345039993815966 1.0260539670139028 1.252652638422984 0.9212764103110953 0.7901505890646214 0.5565840837725738 0.6093553290530168 0.8261514393189178
1.003709647593055 1.492733375628262 0.9184390800000702 0.5052110228153702 1.3672051998357273 0.573851620371782 0.20821872179438855 0.36050652186352294
0.5255124777994861 1.433891149217791 0.5079059977307177 1.3671056683674512 0.6948705275611871 0.724490200992638 0.4464385048932767 0.32732825956384487
0.5893763270983748 0.36754428924494664 0.37190608660468333 0.7848508831248838 0.9589936073845698 0.49463942503852354 0.33070946065457235 1.6064437297197516
