models/matching_nets/DF_n=1_k=5_q=15_nv=5_kv=3_qv=1_dist=cosine_fce=None.pth (torch, 316367 bytes, 24 tensors)

encoder.0.0.weight f8 [64, 1, 3]
000000 3b 38 27 61 df ea e2 3f bd 97 92 d8 dd 84 9d bf
       0.5911709687732193 -0.028827158301872425
000010 4f e2 b6 43 9f 64 d7 bf e1 8d 4b 5b c7 74 df bf
       -0.36551648724301783 -0.49150260844746013
000020 bb a1 38 cb 52 aa d9 bf 32 78 8e f7 7e d5 d5 bf
       -0.4010207161504941 -0.3411557595771938
000030 db 09 af fa 35 1c d1 bf 71 e0 92 59 1c f8 d6 3f
       -0.2673468540271224 0.3588934778922584
000040 e1 fd 93 49 b5 e9 cb bf ae d5 b4 93 be 8c c4 3f
       -0.21806970684700303 0.16054517948366026
000050 40 dd 5e ea 35 bd e0 3f fc f4 04 0b 43 cf dd 3f
       0.523096997981078 0.4657752616511315
000060 01 58 b6 2d 4c da a9 bf d6 3d bb ef 2f 6d d6 bf
       -0.05049360330592379 -0.3504142609717439
000070 2d 2e 36 68 67 8d e1 bf 05 25 42 14 01 82 c0 bf
       -0.5485112223991045 -0.12896741379908164
000080 39 45 46 cf 39 83 dc bf b6 e1 7a e4 d6 8b c6 3f
       -0.44550938836717396 0.17614256054163285
000090 30 dd 78 74 45 5c a6 3f dd 26 47 a6 35 99 e0 3f
       0.04367272421625967 0.5187023398986771
0000a0 11 c5 3f 75 d0 03 d8 3f 5d 0c 7f 9e a3 9d 7a bf
       0.3752328057299375 -0.006497992646418896
0000b0 8b ed 3a 09 a6 1b a4 bf c4 3b 44 56 ce da ca 3f
       -0.03927344191239531 0.2098024293158841
0000c0 97 c3 7c 7c a1 77 bf bf 04 16 b0 53 66 83 d8 bf
       -0.12291917123071837 -0.3830200021041892
0000d0 35 51 4f 15 da 00 db bf 57 37 12 85 9b b5 c3 3f
       -0.42192699509657255 0.1539797210465916
0000e0 ea 56 59 13 58 86 d5 3f 45 36 74 44 02 d1 cb bf
       0.3363247097926051 -0.21731594412306002
0000f0 51 6b 7c db 27 d0 df bf 23 1b 47 4c c3 da db 3f
       -0.49707981523686323 0.4352272267246226
000100 34 fb 19 89 95 1f c4 bf 22 39 da 29 b8 fd b4 bf
       -0.15721387094887407 -0.08199645063198038
000110 75 6a 86 c2 71 6b db bf 6e bf 24 14 fa 7e e1 3f
       -0.42843288418376996 0.546750106184829
000120 03 a8 6f e1 d2 d4 c0 3f ba 31 15 5c b6 08 a3 bf
       0.13149486549019693 -0.037175844898772195
000130 3f be e0 c4 5d d1 e0 3f d5 ab 44 70 40 6c bf bf
       0.5255574078818838 -0.12274554005550382
000140 0a 0c 17 81 4b 8c c3 bf 64 a7 30 44 29 7a d4 3f
       -0.15271896174644467 0.31995612773118
000150 08 e1 62 b8 3e 48 d0 bf 11 80 91 fe 01 04 da 3f
       -0.25440948492497784 0.4064946161288399
000160 98 fa 14 42 83 95 c7 bf 8b fa 93 c2 15 5d e2 bf
       -0.18425026632936148 -0.5738629150726678
000170 26 0c c9 d5 da 63 d5 bf a5 66 cb 6f f1 fb c2 bf
       -0.3342196548221089 -0.1483136936065438
000180 d6 0e d2 42 0a c6 c8 bf 1e 5a 2a 56 17 6e cf bf
       -0.19354370367738366 -0.24554721553131825
000190 fa ba 4e 09 31 31 bc 3f c4 e5 ce 8f 1c 62 ba 3f
       0.11012560345873715 0.10305956374113295
0001a0 74 3a 66 96 37 a0 db bf 62 f8 38 92 3f 44 de 3f
       -0.4316538780921413 0.47291554717583584
0001b0 3e d7 9a b9 dc 2f 98 bf 6a 18 27 ea bb 90 de 3f
       -0.02362007983057101 0.47758386484600257
0001c0 1a 9a eb 17 cf d0 d6 bf b5 cd 7a da 7d 63 e1 3f
       -0.3564946874234082 0.5433949725324313
0001d0 42 ad 8b d0 44 0e b3 3f f0 a5 f6 bb 31 c6 cf bf
       0.0744364747185289 -0.24823590925124916
0001e0 ec 2e 2d 8f 4d 52 d3 bf 94 50 45 9f f5 cd d9 3f
       -0.30189837438659484 0.40319576791558487
0001f0 b2 c4 48 47 5a 55 d4 3f 9f e3 cc 02 7b 8e c1 3f
       0.3177095123420016 0.1371606601403785
000200 92 2b d0 e1 4a 6e ab 3f 87 14 2a 35 02 95 d7 bf
       0.053575840058406446 -0.3684697646315915
000210 d7 b6 a1 92 16 cd e0 bf 2c 93 8d b8 9d 19 db 3f
       -0.525035177602798 0.4234384825015691
000220 71 8b 30 88 ce b9 dd 3f ca c1 88 a2 66 85 cc 3f
       0.46446574497001963 0.22282107292404724
000230 d4 b6 06 a1 04 37 e1 3f 0c 73 95 93 c0 08 d6 bf
       0.5379660744708539 -0.3442841950652997
000240 9a 8b 7a 8d d7 b0 d8 3f 8c 47 b1 7d 30 97 d9 bf
       0.38579357925680713 -0.3998528697458077
000250 58 64 ee bd 6a 0c e1 bf d2 7d 5a 78 fe 6a d0 3f
       -0.5327657422632326 0.25653039696950686
000260 01 7f f6 d9 07 9a b6 3f 9b 63 1e d4 c8 bb a8 bf
       0.088287821496575 -0.04830768193568887
000270 1e 9b b1 1d 1f 25 99 bf f1 aa ef ae 40 0e df 3f
       -0.024555669963230213 0.48524491389859664
000280 19 94 ec 7b 01 97 b2 bf c8 ec e2 3e 54 3d e1 bf
       -0.07261666560641834 -0.5387364605188845
000290 90 b9 30 b6 15 5d b9 bf cb b8 3a 1f 69 e6 c1 3f
       -0.09907661149984492 0.13984407448646716
0002a0 79 50 21 bd 3d 99 e2 3f 89 dd f4 1c c2 1e e1 3f
       0.5812061971614774 0.5350046697193857
0002b0 51 3f 1f f2 31 8b d1 3f 22 98 f1 76 fc aa bc 3f
       0.27412079472286616 0.11198404220485306
0002c0 c0 30 71 b9 9f 3c be bf b9 9c 7d 16 97 8a cb bf
       -0.11811254765888446 -0.21516693685700775
0002d0 87 44 9f 49 9b 4c c9 3f 05 cc 8d 41 1e 80 de 3f
       0.19765034766036058 0.4765697136091947
0002e0 bd c4 f9 8f 4d 5f dd bf 76 31 78 ea 86 b0 d5 3f
       -0.45894183216212153 0.3388993539563424
0002f0 e9 14 f2 f8 95 14 cf bf 0c 13 0d 7e e2 2f a0 3f
       -0.24281572967098633 0.03161533154210447
000300 86 ce fe 95 21 a8 da bf 58 9b 4d 93 f0 d6 df bf
       -0.41651191375715546 -0.4974938810832348
000310 f5 55 41 31 bb ca d6 3f 73 d5 83 fe 10 4a d2 3f
       0.3561237317092883 0.2857706532953081
000320 97 62 d6 81 a9 4a e1 bf 72 f4 2d 05 81 0b b0 bf
       -0.5403640304458176 -0.06267553688481245
000330 2d c4 77 8d b7 2a dd 3f db a0 68 28 1c e7 c4 3f
       0.4557322389146659 0.16330291722375176
000340 36 66 8b 87 e8 1a b2 3f 9f 1e 4f 3f 66 54 c3 bf
       0.07072308835213267 -0.15101316539061302
000350 23 bb 22 f0 49 e0 dc 3f d9 de 3f 7a 98 75 da bf
       0.451189503200043 -0.41342746675898706
000360 cb 06 89 65 47 9d dd 3f c0 b6 24 fa 38 b6 c3 3f
       0.4627245418124459 0.1539984914210688
000370 e5 65 d1 1c f4 f5 d3 bf c3 3a 65 72 2d 40 d0 bf
       -0.31188681425336845 -0.253917085375104
000380 be 5e 6c 91 b7 de 9c 3f be e3 d9 7d 85 a3 e2 bf
       0.02819334817021856 -0.5824611146955403
000390 28 bc 51 c6 07 5e de bf 6c 6a 96 de 99 c0 d6 bf
       -0.47448915831677363 -0.35550543534342327
0003a0 32 1a 82 df 38 b1 d1 3f 37 ed 48 27 28 ca d0 3f
       0.27644178225492333 0.26233867489255
0003b0 af 0f 87 cb e6 de db bf 11 de 28 f7 de 70 e2 bf
       -0.435479830510526 -0.5762781932198228
0003c0 71 29 f8 b9 96 e9 d3 3f b3 dd b1 fa b8 59 e0 3f
       0.3111321273905992 0.5109524628050423
0003d0 b9 e9 f3 4d 10 0a c0 3f 84 ad d2 fd 54 52 b6 bf
       0.12530711942947706 -0.08719378659104932
0003e0 54 5d 2f 44 46 ef b2 3f 04 60 50 70 30 1f ca 3f
       0.07396353878663336 0.204076819268039
0003f0 6b 58 16 e7 84 c2 e2 bf fc ac a4 4e 8a 59 d0 3f
       -0.5862450135634963 0.2554651039124136
000400 18 4a 4e 04 bb 48 e1 bf 69 94 fb 5e 01 77 e0 3f
       -0.5401282390687951 0.5145270209437857
000410 7e 21 8b ba 2d 92 e2 3f 22 3c 66 95 f2 1e de bf
       0.5803440707614269 -0.4706388911226346
000420 22 63 0a 27 74 57 cf 3f f0 ba dc a5 87 fb d4 bf
       0.24485637575414737 -0.3278521651981654
000430 bb ff 3b 5d 4a e8 cd 3f 53 32 11 33 86 26 d7 bf
       0.23365144302806393 -0.3617263315871117
000440 d3 5f d2 af 7e 87 9b 3f 90 59 32 87 7a 7d 81 3f
       0.02688405941134404 0.008540112734675614
000450 27 ca de 60 28 4b d7 bf 1c 68 34 0e 56 59 d1 3f
       -0.3639622636793853 0.27107764613322316
000460 67 0d 54 2d 84 7c dd 3f 8c 14 59 42 15 69 9a bf
       0.46072487284273794 -0.025791484999235822
000470 8b 82 77 2b 7e 73 d1 3f ee b4 c2 68 f5 3c b0 3f
       0.2726741241913621 0.06343015487319167
000480 1a c2 fa 7f ca e6 dd 3f a9 bc 03 0d 5b 41 d1 bf
       0.46721136568069854 -0.26961399336773667
000490 26 22 75 2d 24 10 e1 3f 3c d8 77 92 7a 09 b4 3f
       0.5332203758089846 0.07826963497049716
0004a0 ee 50 2d 6c 05 d6 d6 3f 9b 3b 19 b9 52 27 59 bf
       0.3568128162780927 -0.0015352542726707389
0004b0 17 80 76 1c 26 ae d1 bf 23 f7 b7 99 c0 82 df bf
       -0.2762542036016397 -0.49235548984130356
0004c0 eb d2 b1 9f 0c e3 d5 3f cb c2 24 62 45 59 db 3f
       0.34198299021890816 0.42732367119155573
0004d0 dd 46 84 53 bb 7d cf 3f 85 9d 49 41 b7 be db 3f
       0.24602452829326796 0.4335153710912539
0004e0 12 27 51 8e 0c 8c 7e bf 4b 19 5c 75 63 5b b9 3f
       -0.007457779928765411 0.09905072798946894
0004f0 8e 79 e8 f1 84 4c c3 bf 27 40 cf ea d7 7d d8 3f
       -0.15077268421096018 0.38268087320921257
000500 75 68 b6 0c 46 7e d1 bf b7 d7 c3 e4 81 2a c6 3f
       -0.27333213082750457 0.17317222280661124
000510 62 56 cd 71 ac 6e dc bf 83 bf d4 e1 f0 34 d9 3f
       -0.44425498116956963 0.3938562589055367
000520 e8 58 7b 62 42 42 b6 bf ad c7 70 2e 27 ee da bf
       -0.08694853691426696 -0.4207857087632146
000530 cf bb 7b 97 11 d3 e0 bf 0d 9d 85 63 6b b5 bd 3f
       -0.5257652243288876 0.11604949168905794
000540 f9 e1 0a 1a 16 a9 c7 bf 02 d8 bd 4c 9d 72 d8 bf
       -0.1848476054344841 -0.38199551100058227
000550 a3 46 ac 27 04 47 d1 bf 29 9a 16 dc c9 38 c9 3f
       -0.269959486716383 0.19704554792879606
000560 b0 ec 45 99 9a a4 d3 3f 49 ca b1 3c 04 50 e2 3f
       0.3069216248329196 0.5722676454009356
000570 3a f4 0c a0 2c 14 c4 3f 62 5c 44 2b d1 29 b7 bf
       0.1568656713006094 -0.09048182779621208
000580 a8 0a d3 06 8a 4b e0 3f 47 68 a5 76 63 40 e1 bf
       0.5092210896767329 -0.5391099278742865
000590 67 ba 2f 67 69 7b d7 3f c6 79 02 ce 0a 16 bb 3f
       0.3669074542694148 0.10580508737118696
0005a0 9d dc 5d b3 6d d5 b8 bf 79 e9 4c fb b8 8d d8 bf
       -0.09700666073864501 -0.38365006009157515
0005b0 38 b2 2f 43 61 83 c0 bf f6 bf 4c e9 4b d6 c9 3f
       -0.1290093973215265 0.2018523110541534
0005c0 ff 5a 96 df ba 1f c1 3f dc ee b8 d4 26 25 cd bf
       0.1337808219656935 -0.2276962794002121
0005d0 af 59 03 86 49 8b b0 3f 71 ba a6 f1 c8 31 c7 3f
       0.06462535402110946 0.18120681571368238
0005e0 2d 2c 31 35 3d db b7 bf 27 b9 b4 6e a4 bf d2 bf
       -0.0931890730727651 -0.2929469185936732
0005f0 99 f3 96 de 84 f5 d3 bf e9 37 f5 d8 76 5d d9 bf
       -0.3118602918364615 -0.39632960498135944

encoder.0.0.bias f8 [64]
000000 06 ea ca ff 9f 39 74 bf 35 4b f0 5f e9 66 e2 bf
       -0.004937767979465329 -0.5750624536325178
000010 cd 15 c9 3f 97 fe c5 bf 3f 69 fc 7f 6a 13 d0 bf
       -0.17183199514890504 -0.25118505953436804
000020 33 2f ff 00 48 91 a3 bf 3c ff ed 3f a8 f4 d0 3f
       -0.03821778309028758 0.26493269198543934
000030 21 34 f8 ff 16 c8 cf 3f 0e e5 e3 ff 77 4a e1 3f
       0.24829375742447815 0.5403404233794917
000040 5e cc 12 80 1e 9d dc 3f 04 99 01 00 a7 1a d9 bf
       0.44708979136630045 -0.3922517299710224
000050 3e 86 ff 7f b3 93 e0 3f f0 10 ad ff ec 4d b7 3f
       0.5180299282039369 0.09103280298319638
000060 57 28 f4 9f 19 3b d2 bf 66 54 f6 3f 2b e7 c5 bf
       -0.284857183651757 -0.17111721633105786
000070 95 52 ea 7f a8 8c de 3f 38 41 e9 3f bd ab c0 bf
       0.47733509532671664 -0.13024106617604914
000080 de 8e cb ff cf 20 d4 3f 0e 69 0a c0 37 a1 df bf
       0.3145027158736705 -0.4942149520299076
000090 6a 3f 14 00 b4 41 c7 3f 25 97 10 80 77 c6 db 3f
       0.1816926002870745 0.4339884520180582
0000a0 53 63 04 00 2a 18 e2 bf 94 8a 27 80 ed e3 d9 bf
       -0.5654497146925713 -0.4045366050251371
0000b0 4c a5 11 a0 da e1 d1 bf 69 61 23 80 82 40 c7 3f
       -0.27941003448230073 0.18165618187664315
0000c0 c8 0c ef 3f 82 d2 e0 bf 8b 40 0c 80 aa 8f db 3f
       -0.5256968735415279 0.4306436777560598
0000d0 df b1 16 80 3d 15 cd 3f da 07 ee 7f c2 8a b6 bf
       0.227210700553214 -0.0880548059776908
0000e0 02 8a 06 c0 1f 6a c9 bf 42 3d 11 40 06 11 df bf
       -0.19855114818808778 -0.48541408783508555
0000f0 e5 63 54 fe 3f 91 8f bf 02 4d 2c 80 ba 47 e1 3f
       -0.015413761090302411 0.5400059226398357
000100 a2 d8 0b 00 72 5e d0 3f b4 73 ff 00 0a cc a8 bf
       0.2557644844486139 -0.04843169462376498
000110 8b 6c 01 00 6f 96 e0 bf 7f 7f 24 c0 26 5e d2 3f
       -0.5183634758099215 0.28699654354021925
000120 6f 21 ed 9f a3 e2 de bf ab f6 fa bf bc a1 d8 bf
       -0.482582956483859 -0.3848716616447329
000130 bf 02 fa 3f 60 fb d3 3f c0 a8 00 00 d7 a9 e0 3f
       0.3122177719851997 0.5207324028063098
000140 a4 62 01 c0 d3 24 e0 bf 6e 99 f4 df 51 f1 e1 bf
       -0.504495501528329 -0.5607079862718771
000150 67 69 f6 7f c5 74 cd 3f 3e 22 fe 3f 45 31 e2 3f
       0.23012608287974531 0.5685144662721269
000160 87 06 14 40 d2 9f d8 3f f9 43 0a c0 91 61 e1 3f
       0.38475471742285844 0.5431603194029996
000170 e6 0d 02 c0 df 56 cd bf 75 69 06 00 72 d8 dc bf
       -0.22921368480102372 -0.4507107734913441
000180 cd a6 01 40 09 8c d2 bf 8a bf f9 ff 89 0b e1 3f
       -0.28979712725286505 0.5326585769198442
000190 69 d7 ee bf eb 96 c9 bf af b6 0e e0 fa 35 db bf
       -0.19991824027755037 -0.4251696765958099
0001a0 c1 ed c2 7f 95 96 cb 3f f2 af ff 1f e6 ad d5 bf
       0.21553295839644984 -0.3387389481056281
0001b0 da 5c e4 7f 71 ed cf 3f b1 c1 0b 40 02 b4 d3 3f
       0.24943369621971706 0.30786186460957327
0001c0 7e 37 f2 3f 4f 20 d4 3f 2a c8 eb ff 4f ea 9c bf
       0.3144720196222507 -0.028237581248454692
0001d0 53 4f e9 bf bc b5 d8 3f 70 76 99 ff df 78 9e bf
       0.3860923647055092 -0.029757976508668127
0001e0 7a 3a b7 04 a0 c1 7b 3f 2c 3e 07 00 84 92 e1 3f
       0.006776452133137151 0.5491352081825815
0001f0 94 ef 2e c0 73 1c e1 bf 34 2d cc ff ac f1 bb bf
       -0.5347231629925653 -0.10915642972047551

encoder.0.1.weight f8 [64]
000000 1d fd 21 b6 4c 36 f0 3f 71 df 0e a8 af 5b f0 3f
       1.0132567514954822 1.0223843159455692
000010 c0 a8 d1 2e 22 37 ef 3f b7 57 6f d0 c5 62 ef 3f
       0.9754801668580271 0.9808072157854814
000020 8b cf b3 79 d0 2c f0 3f 81 ee 91 55 17 03 f0 3f
       1.010941005134529 1.0007546751575378
000030 34 1b 95 e5 21 d4 ef 3f c9 38 cd 58 c2 63 f0 3f
       0.9946450695068507 1.0243552655042996
000040 9e ed cc aa e8 0a f0 3f 8c 8a f2 10 61 e9 ef 3f
       1.0026632949728547 0.9972386675838876
000050 e2 27 37 f4 18 79 ef 3f 62 74 29 06 bb 17 f0 3f
       0.9835324067910245 1.0057935944271539
000060 8c e3 2b 57 3a b1 f0 3f 0d 4d e1 b2 23 2a f0 3f
       1.0432685284742744 1.010287951231308
000070 a1 a3 25 42 f1 51 ef 3f f9 f1 7c 16 90 1f f0 3f
       0.9787527362760678 1.007705772251141
000080 a7 3d 6a e1 6f 02 ef 3f 68 60 57 5c 2f 2d f0 3f
       0.9690474894177229 1.0110314948160752
000090 60 47 be e0 3b 61 ef 3f 97 0f 97 f0 a5 33 ef 3f
       0.980619372321808 0.975054712202552
0000a0 4e 05 25 93 80 b1 ef 3f 1e 0f 7c c6 dd 07 f0 3f
       0.9904177545469481 1.0019204858117017
0000b0 f0 cc 17 ca 19 ad ef 3f 8c 62 da 80 40 e6 ef 3f
       0.9898804614189469 0.9968569294606637
0000c0 4c 54 83 03 18 c3 ef 3f b5 ea 6b c5 84 ee ef 3f
       0.9925651615727786 0.9978660446061755
0000d0 4e c2 8b bb 5a 50 f0 3f 30 c3 35 cc 47 59 ef 3f
       1.0196177793515235 0.9796484936215162
0000e0 cc b8 32 35 ee de ef 3f 59 93 a9 25 2a d0 ef 3f
       0.9959631957078954 0.9941607223123398
0000f0 02 75 c5 80 ec e3 ef 3f 64 b8 7d bc d3 90 ef 3f
       0.9965727343621043 0.9864290887324043
000100 bb b5 20 b1 e8 62 ef 3f ce d4 d4 49 97 26 f0 3f
       0.9808238467718903 1.0094216236150717
000110 da c3 02 39 95 df ef 3f 93 d3 5a 56 17 24 ef 3f
       0.9960428346149641 0.973155659352971
000120 b2 da a0 9d 26 23 f0 3f 84 88 b2 d7 00 2e f0 3f
       1.0085817487103381 1.011231272285415
000130 8d 0a b8 0c 59 e1 ef 3f 72 7d 90 a2 c2 91 ef 3f
       0.9962582825103979 0.9865430045210088
000140 86 a5 19 d0 a4 cf ef 3f d8 1b be fa 9c 43 f0 3f
       0.9940971435982398 1.0165071291573806
000150 af 5d f3 6b 57 de ef 3f 70 0b 51 0d d7 32 f0 3f
       0.995891295281515 1.0124121208361565
000160 53 fb 88 5b 08 20 ef 3f d2 4b 44 ba 8b 18 f0 3f
       0.9726602351946475 1.005992629627816
000170 ca 24 af d5 d1 3d f0 3f ae d5 f4 f1 ea 24 f0 3f
       1.0150926920926389 1.0090131236478146
000180 cb 92 2a ba eb 8a f0 3f e5 98 7f 05 69 62 f0 3f
       1.0339162132378756 1.0240259375364584
000190 aa 8c e5 ab a2 8f ef 3f 35 90 a0 21 8a 18 f0 3f
       0.9862836224896416 1.0059911073267476
0001a0 9d 1d 29 93 97 84 ef 3f 62 f6 91 27 67 0c f0 3f
       0.9849355577688815 1.0030280633649444
0001b0 dd a2 94 37 83 44 ef 3f 4b 97 85 aa f4 f0 ef 3f
       0.9771133504446784 0.9981635408882793
0001c0 1b c7 71 73 44 9b f0 3f 47 2f 4f 83 c2 60 f0 3f
       1.0379070767925842 1.0236230019827006
0001d0 7b 3c 82 0e 45 00 f1 3f 27 8c af 9e 2f 96 ef 3f
       1.062565857577083 0.9870832537966451
0001e0 82 ef d8 84 9e a5 ef 3f 31 c4 a7 bd 50 54 ef 3f
       0.9889671892810699 0.9790424064832505
0001f0 ef ac 7d b7 f1 c8 ef 3f 62 ac bb ad 54 3d f0 3f
       0.993279322033599 1.0149733339738067

encoder.0.1.bias f8 [64]
000000 cc ea 69 7e 43 72 82 3f b6 c0 3a 4f 94 1b 6d 3f
       0.009007003112164645 0.0035531899137240764
000010 48 0b d8 fd ab c7 92 bf 01 cb 28 e7 e7 7e 8b bf
       -0.018339812630084468 -0.013425647489474725
000020 27 ea c4 64 99 3b 84 3f 26 f0 5f 03 fc 95 79 3f
       0.009879301440936917 0.006246551920408938
000030 4c 62 ea ba f3 a6 87 3f 65 57 94 88 71 74 8c 3f
       0.011548904554090765 0.013893973331999107
000040 3b 73 63 cd ae ff 80 bf 3b 89 dd 04 55 89 94 3f
       -0.008300176279982465 0.020055130407294213
000050 1b 4d 60 23 b4 e8 32 3f 83 87 d9 16 e0 56 76 bf
       0.00028852842240319345 -0.0054539445387450395
000060 41 6b 4f 71 09 9c 96 3f 9c f6 c5 e9 e9 2d 86 3f
       0.02207960847941171 0.010829760977453966
000070 60 70 82 b8 05 f3 72 3f 3d 48 44 59 13 51 7d bf
       0.00462629542030521 -0.007157397824146425
000080 b0 c8 b5 80 9a 8c 79 bf 7d c9 94 82 4b c9 7f 3f
       -0.006237605596981208 0.007760329209576586
000090 f7 98 5f a2 8c 33 67 3f fa 14 0e 80 db 5a 90 3f
       0.00283219783431143 0.015971593561990162
0000a0 83 09 8e ea 30 5f 6f bf 5e f5 28 91 2d f2 70 bf
       -0.0038295703311074804 -0.004137208934989671
0000b0 96 d6 6f 7e 6a ef 8f 3f f6 3b fb 66 a0 cd 9f 3f
       0.015593368514582633 0.031057840619549602
0000c0 b6 8b c3 e4 18 b7 8d bf 7b 9e 81 e8 6b 56 80 bf
       -0.014509386521643335 -0.007977335961370393
0000d0 c6 ce 47 e8 4e 45 59 3f 4d a0 ac 46 49 09 83 bf
       0.00154240327640036 -0.009295055836972344
0000e0 e3 b0 69 45 35 33 80 3f 19 4a d5 4e ca 9b 77 bf
       0.007910171681225047 -0.005763807549856747
0000f0 fa ba 91 47 d7 4f 98 3f 26 f6 fc 5b 77 21 7c bf
       0.02374206899952023 -0.0068678534005904065
000100 80 13 64 b9 80 8e 9f bf 40 f2 b5 4e 17 f3 84 bf
       -0.03081704265152352 -0.01022928437191084
000110 87 8e 9b 64 f9 d2 93 bf d2 6b bd 1c 21 9a 92 bf
       -0.01935949017105412 -0.01816608179010954
000120 c0 f1 f3 c0 09 ea 90 3f 3c 80 c8 f7 ab d6 6a bf
       0.01651778450194441 -0.0032761915920360967
000130 ba 36 b1 05 1e b8 82 bf 6e 0d 58 72 78 3c 79 bf
       -0.009140238331521434 -0.006161184782743729
000140 23 0f 1c f9 c5 ca 72 bf 68 d1 2e 21 aa 91 95 3f
       -0.004587910969124728 0.02106347873241657
000150 15 a0 ef 0e 12 77 67 3f 3b 9f 80 7b aa 4e 95 3f
       0.002864394445612826 0.020807899272909252
000160 02 2b f4 ba bd 8f 75 3f 28 a6 b1 97 1f 36 7d bf
       0.005264035352648079 -0.0071316942295225685
000170 fe 6e e9 eb 0d a4 9e 3f 4c 4f 91 15 6e 3a 99 3f
       0.029922692798534982 0.024636955324538065
000180 e3 cc 81 d8 bb 2c 8a 3f 71 c7 af b0 99 2f 75 3f
       0.012780635399599343 0.005172348358415722
000190 cc 79 bc 09 23 12 8c bf 81 a7 af ef e1 45 9d 3f
       -0.013706468329073206 0.028586893324166866
0001a0 6d a7 25 93 10 e6 81 bf bb be 86 d3 12 52 93 3f
       -0.008739594927380268 0.018867773209136667
0001b0 40 fb 6b 86 6a 87 75 bf f6 0a 1d 16 41 a9 85 bf
       -0.005256095994581156 -0.010576733100270169
0001c0 1c df 26 0a 7b 09 90 3f 68 ab bf d3 8c 62 94 3f
       0.015661165709132438 0.019907188819995453
0001d0 c2 8d 6d 9c 6a a2 a1 3f 47 0a 5c 37 07 f7 4c 3f
       0.034442264170845074 0.0008839402423464559
0001e0 2c e1 1a ac 8b bd 87 bf 26 28 30 be 52 1c 86 3f
       -0.011591998281219228 0.010796209744530282
0001f0 30 30 81 3d c0 2a 90 3f f8 29 50 c9 7c 73 5a 3f
       0.015788081888146788 0.0016144484154688703

encoder.0.1.running_mean f8 [64]
000000 ac 88 31 18 61 cc b0 3f 48 5b 03 35 fd 8d f0 bf
       0.06561858025227946 -1.034665305216281
000010 28 e2 91 90 6e 21 cc bf a9 57 3e 3b 60 a2 c6 3f
       -0.21977026042056136 0.17683031933546303
000020 6d df cf 35 1f 16 d9 bf 2d f2 fc 6c 97 0c be 3f
       -0.3919752145297853 0.11737963114587364
000030 66 5e 07 d9 77 22 e3 3f 62 33 9f 80 f1 3e e3 3f
       0.5979575384944382 0.6014335167070437
000040 27 49 ab 25 c1 02 ba 3f 33 01 7f 2c 3b 97 d2 bf
       0.10160453004508395 -0.2904804167301506
000050 9f 7b 68 e6 cf f1 db 3f d9 ec 2f fd 88 5f ba 3f
       0.43663403988642274 0.1030202501423675
000060 61 af a9 14 32 94 ab bf a1 f0 aa 66 28 de c3 bf
       -0.05386501791221466 -0.1552172185237213
000070 98 a7 f2 6e 15 d2 dd 3f c6 58 56 00 43 c3 e0 bf
       0.46594749293091686 -0.5238356596553551
000080 08 3c 7e d2 06 c1 c8 3f fa 7b 93 b0 ab 3e dc bf
       0.19339070585235185 -0.4413251137138442
000090 d9 c4 61 eb 61 05 cc 3f 65 56 90 eb db 45 e2 3f
       0.2189142607999546 0.5710277176719499
0000a0 67 5f 8c 15 8f 2a da bf b8 4e 16 c2 77 0c de bf
       -0.40884759048775837 -0.46951097444364676
0000b0 cf 78 cd b8 b6 89 c2 bf ba 89 a7 43 08 86 d5 3f
       -0.14482769034925133 0.336305681294245
0000c0 06 06 53 14 13 43 e7 bf 0b e1 45 84 1d 55 e1 3f
       -0.7269378087004845 0.5416400512176848
0000d0 47 5d 30 f0 17 b7 d7 3f bf c1 22 6e ea 6a d1 bf
       0.3705501409144358 -0.27215061908193755
0000e0 e0 98 86 1e 40 6f d4 3f 3d 03 f8 e9 47 23 e2 bf
       0.3192901895621514 -0.5668067521765817
0000f0 d5 8e 63 05 3d 68 b0 3f 66 84 e9 4d e6 c2 e2 3f
       0.06409055120053193 0.5862914582941243
000100 28 a3 3f 2d 31 95 a8 3f 9e 6b 8c 8f cf 70 c5 bf
       0.048013245366581636 -0.16750521191792428
000110 af 63 0c 72 fd b2 d0 bf 7c b3 fe f4 77 3c cf 3f
       -0.26092468392885854 0.24403285467760927
000120 bb 1b 0e 45 43 9e d7 bf ca c7 2e 3b 33 f5 e5 bf
       -0.36903459304488323 -0.6861816554940046
000130 a1 a8 ba c6 dd 5c bb 3f 06 79 1d f9 be f9 ce 3f
       0.10688577749047791 0.2419966427214108
000140 f9 03 c1 39 6b 5d c3 bf 95 42 0d 90 92 5b df bf
       -0.1512884170533935 -0.4899641424899895
000150 a2 20 a2 42 ec 4a b8 bf fe bd 47 57 94 a8 e9 3f
       -0.09489323260106855 0.8018285469715349
000160 b5 f4 43 0a 9e 30 dc 3f f0 1e a6 73 2b 01 db 3f
       0.44046736719594587 0.4219463948615916
000170 c8 8a 4f b6 fd b7 b7 bf 1d fe f6 31 40 73 d5 bf
       -0.09265123082108595 -0.3351593482911726
000180 58 f8 d1 77 a8 e7 91 bf 7e d0 1a 1f 9c 36 e6 3f
       -0.017485267937893262 0.6941662414087799
000190 28 d4 07 34 bb f9 d6 bf 1a 4f 18 9e 60 4d 8a bf
       -0.35899238663779665 -0.012842898201632692
0001a0 5a c4 05 49 50 f6 c8 3f cd b8 cf c6 34 03 ce bf
       0.19501689496567814 -0.23447284419621042
0001b0 53 44 4d 17 c4 7b c9 3f 65 28 28 eb af 0c 44 bf
       0.19908953798088422 -0.0006118639924477363
0001c0 eb ce f8 c6 18 e1 66 3f 8c 3c 11 21 5f e3 d7 3f
       0.0027928813867904487 0.3732526610301157
0001d0 f9 37 3f 77 29 39 e3 3f 18 52 92 8d f6 d9 ab bf
       0.6007277802507353 -0.05439730146568794
0001e0 fe 8f bd 89 c1 31 cc bf 4c ff b1 5b 92 d5 e2 3f
       -0.22026843286141679 0.5885707655834067
0001f0 41 c2 56 96 8d 8b de bf e6 51 a3 de 94 d8 de bf
       -0.4772676437524162 -0.481969087047473

encoder.0.1.running_var f8 [64]
000000 c3 0e 18 12 26 77 92 3f 24 7e 51 98 9b 39 b3 3f
       0.018032641271942717 0.07509777516087773
000010 de 3c d6 d6 b5 09 80 3f 8c 4b 86 74 20 57 b1 3f
       0.007831020945359087 0.06773569912756566
000020 74 41 72 8a ad f0 a8 3f 55 9c 64 09 d4 98 8c 3f
       0.04871122660654495 0.013963371788646631
000030 55 97 cc a7 0f 57 a8 3f 24 23 95 99 37 59 64 3f
       0.04753922389345059 0.002483948320023537
000040 f0 00 39 2c 1e a0 a6 3f 01 3b a5 2c 3b 45 82 3f
       0.044190352342868056 0.008921110439272352
000050 c1 4c bf 52 13 bb 8f 3f fb e8 b0 a5 3d ab 8f 3f
       0.015493536913629648 0.015463334673871723
000060 14 73 97 17 5a 51 98 3f a0 aa 4f 98 7f 53 73 3f
       0.023747832956234907 0.004718302171549255
000070 6e 66 6e 53 62 f5 7f 3f 19 51 5c d7 83 a8 ad 3f
       0.0078023758750532645 0.057926292456757796
000080 46 04 79 06 ac a6 7f 3f 50 27 f4 f2 c8 62 8b 3f
       0.007727310155645267 0.013372011103019027
000090 d6 34 d6 6d 73 23 87 3f c4 b8 63 ba 05 05 92 3f
       0.01129808596558705 0.017597283841433123
0000a0 5e 60 84 5d ef 2d 93 3f c0 66 a7 b2 bf 67 7a 3f
       0.018729915697889836 0.006446598834793427
0000b0 b3 f2 e5 a6 f5 6e 9c 3f 80 11 c6 bc 41 14 96 3f
       0.027767027198467086 0.021561648508865883
0000c0 e8 83 a7 5b 9a 16 a0 3f aa 59 9c b5 cf 62 78 3f
       0.03142244690730661 0.005953608860883733
0000d0 d9 87 b8 dc 44 2d 8b 3f 66 f2 42 cc 51 90 94 3f
       0.01326993750177856 0.020081785289891484
0000e0 97 05 6e c5 94 d5 b8 3f f2 c6 51 97 e5 ad 71 3f
       0.09700898952544033 0.00431623157520432
0000f0 73 55 e8 5f 50 9f 91 3f 30 a5 3c 15 c2 37 78 3f
       0.017209297040684256 0.005912550102757749
000100 8e c1 84 36 28 21 9f 3f fd 1c d4 f7 2c 40 90 3f
       0.030399921729612304 0.01586981070161374
000110 5e bc 53 01 4b b4 9a 3f 3c e3 ea fb e6 23 89 3f
       0.026078388172149018 0.012275509417450807
000120 3d 49 ab fc d4 0e 8f 3f f9 f2 37 b3 dc 14 a3 3f
       0.015165008507584172 0.03726854026533561
000130 3b 05 3b ea 3a e6 9a 3f a0 d3 a9 f2 6f 4e a5 3f
       0.02626888327245534 0.04161405408095864
000140 63 bd 28 2b c7 02 a8 3f 1f 19 7d 25 21 98 6a 3f
       0.0468961944756028 0.003246369113102734
000150 a9 a9 a7 db a5 43 a9 3f ae e5 4b f0 27 f6 a5 3f
       0.049344237387987384 0.0428936463194519
000160 ee f8 c9 9d 2e cf 7d 3f 07 6f cd d9 75 f5 80 3f
       0.0072776623679813145 0.00828067847185522
000170 15 ef 1b 93 99 fd 93 3f 42 9e a1 46 af bb 79 3f
       0.019522094348743375 0.006282505675791196
000180 3e 61 86 7b 57 ed a2 3f b4 fa d9 9d d4 ba 87 3f
       0.036967023686147446 0.011586819712872433
000190 6f fb 1b 70 46 ee 95 3f fb 34 0a 46 c0 f4 ae 3f
       0.02141676005612275 0.06046105246523755
0001a0 db 39 ac 6e cb 34 52 3f 90 a7 ab a1 e9 1f 85 3f
       0.0011112200397210756 0.010314774748127836
0001b0 78 b4 40 b3 39 94 87 3f 84 1d d8 87 28 7d a5 3f
       0.011513186247692028 0.04197050722364806
0001c0 ab 0b bf 9f 22 05 a2 3f 16 ab 40 4d c4 6a ae 3f
       0.03519542884853107 0.05940831606888801
0001d0 93 fc f2 9a 01 09 96 3f b3 bb 12 21 bc db 8c 3f
       0.02151873119578036 0.014090986022294283
0001e0 b3 2c a2 98 09 7d 94 3f c6 95 1a 82 14 45 71 3f
       0.020008230153092565 0.0042162705518981655
0001f0 34 92 74 f7 77 c1 63 3f ca a5 12 23 bc 40 a9 3f
       0.0024115889642806424 0.049322013169625104

encoder.1.0.weight f8 [64, 64, 3]
000000 88 4d ba f7 fc 9d 9d 3f c5 67 3a 17 2d be aa bf
       0.028922989482976585 -0.052232178769557026
000010 13 c7 0c 8b e5 91 93 bf f3 c4 09 88 5b 12 a2 bf
       -0.01911123906319918 -0.03529630694982613
000020 f6 7a bc b2 94 fb 7f 3f 52 4a 36 7f 66 cd a2 3f
       0.007808285572336917 0.03672333052522404
000030 a7 86 bf b0 d6 b0 a4 bf 9b 39 d4 70 ea e4 b8 bf
       -0.04041167171068354 -0.09724297766317706
000040 12 79 1e 34 c9 b7 b3 3f 2a fd d7 06 77 06 b4 bf
       0.07702310106694579 -0.07822364728052791
000050 b2 f9 e9 10 8e 1c b4 bf 36 58 f9 62 7e 4c b0 bf
       -0.07856071389139777 -0.06366720119817235
000060 a9 30 aa 8e 8e 4a 8e bf 7a a2 c7 73 fc 3f a9 bf
       -0.014790643433365185 -0.0493163005192558
000070 49 91 6d b4 7a 7b b2 bf de f4 f1 cf 92 34 55 bf
       -0.07219664483051703 -0.001294272776959197
000080 48 77 a2 87 17 67 a5 bf 3a 36 a7 30 f1 e8 a0 bf
       -0.04180215388008307 -0.033027207554920016
000090 48 04 c0 aa 80 da 90 3f d8 aa 41 ce c9 fe 8e bf
       0.016458521291500966 -0.015134407622288945
0000a0 b7 08 24 dc 6f dc a1 bf 20 39 7e 1d 0b 77 b0 bf
       -0.03488492548241722 -0.06431645841641798
0000b0 7e 8f 88 34 26 77 a9 3f 3c 6a cf ca 7b a9 ab 3f
       0.04973716155316675 0.05402743197165136
0000c0 86 a7 85 69 eb 9a b2 3f af 9e e5 fb 96 d2 b0 3f
       0.07267638517592276 0.06571334504917091
0000d0 64 0f 97 2c 0d 72 a8 3f 6d 77 d4 09 8b 66 aa 3f
       0.04774514359772189 0.05156359190935587
0000e0 73 28 3d 7a 47 b6 b4 bf c9 7c df c2 5b 5e a4 3f
       -0.08090636000011546 0.03978239778347754
0000f0 2d 7b 4e c6 d4 a8 8d bf 40 6c d2 96 06 87 ad bf
       -0.014482176114879753 -0.057670789633640585
000100 b0 b7 cd df b0 2d a5 bf 58 d1 b7 9c d2 41 9a 3f
       -0.04136421901681275 0.025641718688306753
000110 35 3a df 66 d5 1f 90 3f db c4 49 10 e0 64 b5 3f
       0.015746435550506106 0.08357048413906247
000120 dd 5e 8e 1f e9 ec 9d 3f b9 a0 51 62 41 3b 72 3f
       0.029224054862054472 0.004451041609265066
000130 f1 d7 cd f6 85 66 76 3f 2f c7 10 88 8f b2 b0 3f
       0.005468867585355129 0.06522461959755498
000140 1f ba 36 0e a3 07 9f bf eb 68 8b f5 8c 5a 9f bf
       -0.030302570097484712 -0.03061886070904844
000150 ab 5f 00 ad c7 56 ae 3f 2f 65 9c e8 fa a8 b8 bf
       0.05925582873186327 -0.09632843188264383
000160 3e 2a 67 ee 9c a5 99 3f e9 fe 88 f2 c2 41 b0 3f
       0.02504582600685467 0.06350344105976159
000170 20 ce 50 59 4a 02 a4 bf 75 5c b3 96 1f e8 a7 bf
       -0.03907997455862877 -0.046692835947106305
000180 f1 09 51 8f f0 8e ac 3f b1 48 53 d5 97 bf b4 3f
       0.05577804326505376 0.081048478680972
000190 40 e5 06 25 08 65 a7 3f 5f 30 f3 29 8a 8d b4 bf
       0.04569268657673797 -0.08028472446602695
0001a0 06 9a c5 52 86 8e 68 bf 54 62 4b d1 3f 67 60 bf
       -0.002997648573159542 -0.0020023580967570096
0001b0 31 7e 8a 97 2a e8 9d 3f 98 53 89 76 50 74 bb bf
       0.029205956935241587 -0.10724356550174574
0001c0 0f 69 91 37 76 48 80 bf b9 7d b9 dd 3e 25 a4 bf
       -0.007950709887314859 -0.039346661153782
0001d0 9c 1d d5 fb 7a 4c 80 3f e8 38 10 3b 25 93 b1 bf
       0.007958374796216465 -0.06865151111580625
0001e0 ca d6 35 2a d9 e2 a0 3f b5 4b ee 3a fc e6 a0 bf
       0.0329807151819473 -0.03301227778788222
0001f0 b1 9a bc 80 78 70 9a 3f 19 1f de 34 92 75 9d 3f
       0.025819666726557503 0.02876881072691537
000200 45 d5 d1 11 fa 03 a8 3f 0b 81 29 cc 6c 13 b0 bf
       0.046905340838672184 -0.06279640182902228
000210 93 ef 63 2d 73 91 5c bf 80 a4 b4 00 1d dd 8b 3f
       -0.0017436623361950273 0.013605333885225557
000220 89 ea 2c e1 0e ad 6a bf 7a a6 b2 0d cd 0c a5 bf
       -0.003256348668768287 -0.04111328880510441
000230 20 e9 c7 a1 50 f6 b1 bf c1 e4 5c 7f 9c 33 3e 3f
       -0.07016471814850833 0.0004608399461748063
000240 77 62 6e 88 d8 6c 73 bf c6 f8 bc 6b 30 03 ae 3f
       -0.0047424753492114535 0.05861808123744221
000250 a8 d4 65 61 89 6d 98 bf ff 46 60 2e f3 c1 a5 3f
       -0.02385534913033341 0.042495345507758124
000260 fe 6a ff 8a 0a cb a2 bf 71 0a 08 59 6c 19 98 bf
       -0.03670533129453267 -0.023534481939359645
000270 74 85 c2 6a b8 58 a2 bf e1 f9 20 e3 a8 37 95 bf
       -0.035833132774551496 -0.020720137465326863
000280 a3 dd 4b 52 9d 2e b4 3f 10 21 57 16 c9 46 a9 bf
       0.07883628138721703 -0.04936817548474626
000290 f4 10 ac 28 51 08 9f bf 8c 10 87 4d 08 57 a6 bf
       -0.030305164439611468 -0.04363275476819792
0002a0 58 f2 5c e7 7d fa a2 3f a3 26 57 17 97 65 73 3f
       0.03706735085731755 0.004735555839440106
0002b0 ab cf 36 ac fc 51 a7 bf 9a 3b 82 82 23 00 8b bf
       -0.04554738619063355 -0.013183858318624609
0002c0 3e 0f ee 2a 50 71 b3 3f 55 b8 54 1f 58 62 99 bf
       0.07594777153104545 -0.024789215957916905
0002d0 3d d8 5b 94 61 a0 9f bf d6 d5 c2 25 63 8d a9 bf
       -0.03088524311075268 -0.049906824454790374
0002e0 3f 8d 2c 0c 05 80 a7 3f 70 ed 6d 15 b2 33 a2 bf
       0.04589858792885559 -0.03555065642918975
0002f0 6d 4c e8 3b a4 8a a1 3f 38 24 63 9f 31 ce 88 bf
       0.034260876000325215 -0.012112033535588748
000300 8c d9 98 6a ff 9c 9a 3f 32 1c 7e 54 ae 3d 8d bf
       0.025989523774308007 -0.014277803376684248
000310 cd 85 ce 30 94 92 a7 bf a5 f4 5e 4d cd 77 a9 3f
       -0.04604018302712696 0.049742141432468835
000320 5a fa 4d c5 9c 63 9b 3f dc f5 8a ca 4d 11 88 bf
       0.026747178595082445 -0.011751754516235495
000330 48 05 4e 76 e4 7e 61 bf 4f 96 7d f6 b7 bd a4 3f
       -0.0021357023383080966 0.04050993808668279
000340 bd c9 60 71 2e 1a a2 bf 9d c4 0e 17 98 19 a7 bf
       -0.035355998363587805 -0.0451171425005523
000350 68 60 c9 5c e4 8c 76 3f 33 26 0e 35 74 1a 93 bf
       0.005505458870708059 -0.018655601251827924
000360 98 49 72 eb 7e 07 9e 3f a8 91 dc 0c 2d 19 a8 bf
       0.029325469131956078 -0.04706707746507571
000370 0d 54 de 68 2d 60 a9 3f ab 21 f1 98 00 c5 b2 3f
       0.04956190018780413 0.07331851705487817
000380 c2 7d 76 74 1f e3 af bf d2 77 31 39 6f 10 aa bf
       -0.06227968498864868 -0.05090663502845384
000390 55 0b 28 02 14 c4 a1 bf 22 4e 6f 0c 86 f3 ac bf
       -0.03469908262561342 -0.05654543782989331
0003a0 ba fe ea 05 0c 63 89 bf b8 83 e7 63 89 88 b4 3f
       -0.012395948343850594 0.08020838440962919
0003b0 3c 02 26 65 4e 23 91 bf c7 53 cb 7c d0 ce b1 bf
       -0.01673624508248593 -0.06956198736891316
0003c0 54 d4 42 0d 5a bc ab bf 75 95 e4 8b 39 71 b6 bf
       -0.05417138492467957 -0.08766517320016994
0003d0 00 29 c9 d6 a9 4e 94 bf c6 ef ee d7 70 41 b1 bf
       -0.01983132718513847 -0.06740479728517731
0003e0 4b dc 31 a5 c4 05 a1 3f 78 b1 46 c5 f5 30 b8 3f
       0.03324713245904628 0.0944970709449019
0003f0 fb 6b fa 22 61 f5 9e 3f 4d ca df f4 45 5a 86 3f
       0.030232923278713724 0.010914370093790949
000400 35 07 3d ba 4c bb ab 3f 51 6d 18 cf 4e c7 9c bf
       0.054163358434847465 -0.028104049100972365
000410 f5 58 3b 50 54 d1 86 bf 4a 7e 9f 3b ba fd 7b 3f
       -0.011141451548081419 0.006833770248675439
000420 af 4b 19 de c8 1f 78 3f 34 de 83 d0 65 78 8a 3f
       0.0058896871938313574 0.012924952913166178
000430 4a e8 68 3a 24 a4 a9 bf 60 dc 85 9f da 29 b1 3f
       -0.050080425386525976 0.0670448913059416
000440 f8 9f 76 58 d5 e5 b2 bf 01 07 5b ac 02 66 a0 3f
       -0.073819479081635 0.03202827791166208
000450 f7 79 b9 95 4e 8c 89 bf cb 41 45 6c 15 f6 9b 3f
       -0.012474645561437276 0.02730592225390342
000460 c7 b9 1f c4 54 b7 b4 3f 62 9a 68 da bb b5 80 3f
       0.08092241085225914 0.008159129717637718
000470 ad ab 63 bc c3 91 b4 bf cc e2 33 03 31 0d a5 bf
       -0.0803491911826046 -0.0411162678155442
000480 6b 15 a9 1d f1 ba a9 3f 6a 64 c7 d2 a8 51 aa bf
       0.050254378195442616 -0.05140426228508306
000490 a1 f6 52 59 ce f0 90 3f dc 84 d0 4d 03 6f 85 3f
       0.016543602182301446 0.010465646564684787
0004a0 5c 56 79 45 85 50 a0 3f fe 84 cb 43 9d 26 b8 3f
       0.031864323359212604 0.09433920769835777
0004b0 6e 87 75 0b 51 f3 7f bf 52 24 42 12 f6 e4 94 bf
       -0.007800404149152713 -0.020404667724993004
0004c0 05 f1 1b fd fd 15 af 3f c6 78 aa 7d 3b 88 aa bf
       0.060714661738503074 -0.05182062062270769
0004d0 1b 2f be d6 cd c0 90 bf 54 c4 6f d3 72 f2 ab 3f
       -0.01636048911272701 0.05458411055577331
0004e0 4e 0f 08 09 20 9d a7 3f e6 ad 01 66 5a 53 95 3f
       0.04612064466712572 0.02082577941511756
0004f0 ae e0 62 f0 35 78 b2 3f 3d 40 36 4e 5a dc af 3f
       0.07214676970295628 0.06222803311095546
000500 84 9c cf 7c c1 49 76 3f c8 88 59 fe 9d 34 aa 3f
       0.005441432772364089 0.0511826870904471
000510 5d 69 21 20 ea 67 a3 3f 2f 01 d7 35 11 67 7a 3f
       0.037902180120641595 0.006445948817998023
000520 68 b8 13 8d 1f c3 a1 3f 52 f6 2c cd a5 f4 6b bf
       0.03469179722911592 -0.0034125555334003988
000530 72 85 5b 74 ee bb a0 bf f6 40 15 78 6e e9 a6 bf
       -0.03268380327586841 -0.044749691160747604
000540 ef 79 b9 cd b3 62 a3 3f 6f 12 30 87 cc 33 a1 3f
       0.03786241422925573 0.033598319532789904
000550 91 8e ee 1e 05 1d 81 bf 4d 4d c6 b5 29 c5 98 bf
       -0.00835613251349024 -0.024189616889612343
000560 5d ef 2a 09 f0 02 aa bf bc 27 45 87 39 4b a4 3f
       -0.05080366241369803 0.039636419069736445
000570 09 4f f2 70 8e 22 8e 3f 2c 46 1f 34 e0 1f aa bf
       0.014714348623136713 -0.05102444301850215
000580 63 b2 37 62 31 ad 90 bf 71 e4 25 06 50 fd 95 3f
       -0.016285678500866384 0.02147412335896032
000590 77 d9 d7 d5 13 11 a2 3f f7 26 e9 c4 05 bd 76 3f
       0.03528654084577714 0.005551359687680827
0005a0 4e c2 f1 f5 13 8a aa bf bf e1 ef f3 72 71 9f bf
       -0.05183470132113098 -0.030706211222396137
0005b0 7a 1a f7 c6 96 81 a7 bf 71 4d e1 a5 55 ac b5 3f
       -0.045910560405492754 0.08466086673552355
0005c0 93 87 a1 d5 b9 e8 8c bf 3c 43 33 61 81 53 b0 bf
       -0.014115764457702606 -0.06377419112255905
0005d0 57 da 71 fe 17 31 8a 3f 06 fd 04 26 51 00 56 3f
       0.012788951351678053 0.0013428490129426276
0005e0 c6 90 2d b7 df b8 a7 3f 7b 27 86 f7 54 b6 b0 3f
       0.04633235083636715 0.06528216403071767
0005f0 80 a6 a4 85 2f c1 a9 bf 11 41 c4 03 88 84 8f bf
       -0.050302014411795604 -0.015389502158115438
000600 2f 2f 66 81 e6 64 ae bf 90 b7 45 28 50 16 ac bf
       -0.05936355905131873 -0.05485773555379503
000610 45 60 52 13 6d 0f b4 bf c9 53 ca 36 54 23 96 bf
       -0.07836038324092083 -0.021619144291054746
000620 e3 cf ae 72 ce 7f a5 3f 52 d3 af 80 10 7f 9a bf
       0.041990710734722624 -0.025875337461872157
000630 ec 4d 60 2d 14 03 a9 bf c3 e8 42 b1 5a 58 ab 3f
       -0.04885161451252515 0.05340846456370365
000640 87 74 61 b4 8a 13 aa 3f ae 23 79 78 f1 55 b2 bf
       0.05093034221565867 -0.07162388983955623
000650 ad 17 85 68 fa fd 92 bf 41 9f 52 d0 57 83 66 bf
       -0.01854697478236005 -0.002748176108600037
000660 21 6c 2b ed f8 4c 9a 3f 29 14 2f 52 80 a4 9a bf
       0.025684251285252317 -0.026018147483927976
000670 3b f1 74 7c 04 10 87 3f ad 5e 7b 33 c0 39 ad 3f
       0.011261019752617165 0.0570812285274632
000680 c0 16 fd 9d b8 75 b1 bf 90 dc 2a f4 2b 03 a0 bf
       -0.06820253235954521 -0.03127419810828613
000690 80 74 95 41 42 9e a3 3f 6e 76 44 dd 30 ac 97 bf
       0.03831679392417531 -0.023117793564884463
0006a0 cc 08 9a 6e 05 7f b5 bf 9c bf 61 06 ee 5a a5 3f
       -0.08396943998562562 0.04170936420348356
0006b0 41 b9 a6 5a 05 4f 8b bf 34 49 b6 ac b0 62 9b 3f
       -0.013334314183194198 0.02674366048956607
0006c0 3b 74 90 94 e6 03 a2 3f 57 ea 3e 68 78 6c a7 3f
       0.035186010012900636 0.0457494380238656
0006d0 a4 73 19 fe 43 2b b2 bf db 87 6e aa 0b 70 8f bf
       -0.07097268060301914 -0.015350428713478628
0006e0 26 0d 57 85 e7 c2 b1 bf 36 43 3a cb 3a ce b2 bf
       -0.06938025479671647 -0.07345931493388211
0006f0 b9 58 27 6f 7c 35 ae bf 16 88 d3 53 5a 16 b1 bf
       -0.0590018163381258 -0.06674732729473506
000700 a5 60 08 b3 c1 37 a8 bf cb f2 69 d7 b5 21 a6 3f
       -0.047300389389591836 0.043225939317357374
000710 0b 23 b8 c0 07 b0 81 bf ce b4 4c 34 3d 89 a3 bf
       -0.008636532372308567 -0.03815642608092561
000720 9f 40 0c 0b fa e9 b4 bf cb 50 45 6b f6 59 b2 bf
       -0.08169520158503694 -0.07168521994509829
000730 93 ae d2 3c a8 7c a1 bf 0e e7 06 d9 e1 ad 63 bf
       -0.03415418379276249 -0.0024022494401067023
000740 54 ee 42 04 f4 87 aa bf 7f 94 bc 5e 73 9d 9f 3f
       -0.051818490524479316 0.030874064118638685
000750 ac 12 d0 c9 ab 83 a4 3f 3d 4f 23 61 bc 5c a8 bf
       0.04006707037482235 -0.04758251844182702
000760 d0 0f 57 4b 60 2b ad bf 8f e6 20 e8 a0 0f a9 3f
       -0.056971558758533214 0.048947361312866915
000770 bc cc d9 e4 66 86 81 bf 63 69 b2 d9 38 8a 9b 3f
       -0.00855713258645207 0.02689446285931164
000780 79 89 2a dd 5b 17 b1 bf 5d 35 1e 24 87 f4 a1 3f
       -0.06676267766537149 0.03506872478383614
000790 f1 97 ed cf b9 98 a7 bf 6c 4b 56 29 e5 2a a5 bf
       -0.046087080604408366 -0.041342889114409725
0007a0 96 a7 5f e6 9b 6b 6b 3f cb ee 90 7b f4 68 90 3f
       0.0033472103996147846 0.01602537159145249
0007b0 55 5a 6d 20 76 f7 ae 3f 99 a7 c6 65 e9 cf a2 bf
       0.06048173089827872 -0.036742490457370276
0007c0 3f 3d b3 7f b7 58 a5 bf 09 40 01 f9 c3 0e b1 3f
       -0.04169248041000139 0.06663155392857346
0007d0 8c a6 1c df 10 f5 8e 3f c0 cb f5 67 bd 3c b1 bf
       0.015115863617739998 -0.06733306682671891
0007e0 74 a8 c1 3c e5 2c a3 bf a3 8b 75 98 90 35 94 bf
       -0.03745190016418656 -0.01973558359658124
0007f0 1f 81 50 6f 04 04 b3 bf a8 53 c5 aa 0d 97 a8 3f
       -0.07428004949224885 0.04802744588474833

encoder.1.0.bias f8 [64]
000000 a1 8b 01 00 ba 17 b2 3f 29 a4 5f 00 3e 30 77 3f
       0.07067453861377128 0.00566124171562258
000010 ec eb 28 00 24 ea 80 3f c9 a8 e7 ff 09 89 90 3f
       0.008259087805631858 0.016147762531468133
000020 c0 7c 16 80 10 f9 a9 bf 8a 12 1b c0 89 4c 9a bf
       -0.05072833598682669 -0.025682594633297508
000030 34 16 ee ff f2 20 92 bf 9f b2 0b e0 48 e0 a6 bf
       -0.0177038162905971 -0.04467990622456352
000040 7d 56 12 40 8d 22 a3 3f 25 7f e8 3f c0 cf aa bf
       0.03737298400043885 -0.0523662641537597
000050 66 34 af ff 07 ce 8f 3f 93 df 0a 40 09 65 a3 bf
       0.015529692163818786 -0.03788021952408296
000060 e9 78 fe 7f df d4 ae bf 2f cb f6 bf ea 01 a6 bf
       -0.060217842458983935 -0.042983375485525215
000070 c5 d3 00 40 11 af af bf 8c e4 f5 ff ac 58 af 3f
       -0.061882533133406116 0.06122341751592683
000080 cf 63 02 00 fb 58 a9 3f 59 af e9 3f 4c 12 9b bf
       0.0495069921027561 -0.026436988259248426
000090 3e 44 17 00 79 42 86 3f fc 9a 88 00 70 b0 54 bf
       0.010868974032662956 -0.0012627691049915115
0000a0 a3 2d f5 bf 1c 5c a1 3f f4 6d f8 ff f5 b8 b0 bf
       0.03390588610872249 -0.06532227992322942
0000b0 8b dc 94 00 16 74 75 3f 08 9d f9 ff 24 e3 a9 bf
       0.0052376613105514875 -0.05056110024161781
0000c0 47 9b f6 bf 1c 6c b0 bf 17 0a fa 3f ef c6 9e bf
       -0.064149662843744 -0.030055750160054098
0000d0 b8 2e cf bf 79 eb a5 bf 4a 80 0f c0 b8 c4 aa 3f
       -0.04281216112539482 0.052282117314235224
0000e0 52 b7 08 c0 fc 7c 90 bf 8c b8 e4 ff 7e 1f 9b bf
       -0.016101788731411056 -0.02648733555650344
0000f0 c9 e3 f3 ff 69 cc 9f 3f 65 16 2c 00 aa a3 7d 3f
       0.031053215262520504 0.00723616034043104
000100 b0 94 ee ff 44 5e af 3f 89 f8 f3 9f 13 4d aa bf
       0.06126609443826092 -0.05136929824401288
000110 63 b1 09 00 eb 5b b2 3f f1 7c 17 00 1f b7 aa 3f
       0.07171505690502537 0.0521783530818939
000120 eb ea 08 80 13 f2 ad 3f e4 f6 fd 7f 20 5e b0 bf
       0.05848751962590434 -0.06393626332097885
000130 34 7d 0e c0 6f 83 ae bf 2b 9d b8 01 f0 25 6a bf
       -0.05959653109970944 -0.0031919181472123324
000140 7c 6a 09 00 86 55 8d bf 4d 75 f0 7f 30 9e ad 3f
       -0.01432327926265952 0.057847514741505714
000150 8b 57 f9 bf ae a5 a9 3f 63 d1 0a 80 0d a1 ae bf
       0.050092183050465776 -0.0598224848558029
000160 45 96 38 c0 76 6b 93 bf b9 48 e1 ff 0a cd 8c 3f
       -0.018964629633180036 0.014062963422621132
000170 84 80 2c c0 6d 19 a0 3f 41 36 f5 ff ec fa a6 3f
       0.03144400568840047 0.04488316177831254
000180 83 8b ed 7f 60 e1 b1 3f 68 04 f2 ff 41 4b 91 3f
       0.06984522937049857 0.01688864826838135
000190 9e 72 fc ff 46 b8 b1 3f b7 93 21 20 2b 33 ac bf
       0.06921809911404828 -0.055077884361515776
0001a0 c2 4f ee ff 0f 42 92 3f 31 20 fe 1f 9e 26 b0 bf
       0.017830133434088465 -0.06308925896712549
0001b0 32 df ef ff 52 92 84 3f 25 a7 ed 7f 2c 95 ad 3f
       0.010044716296746612 0.05777873098015921
0001c0 d7 cc 1e 00 fe 3e aa 3f 85 5a f2 bf e6 57 a9 3f
       0.051261842264830264 0.04949875920390404
0001d0 85 dc ff 3f 2b 31 a5 bf 63 1c ee bf 19 9a a9 3f
       -0.04139075428241149 0.050003819159478956
0001e0 02 5d 85 ff 1a c0 83 bf 39 6c 6a ff 49 86 7f 3f
       -0.00964375583923394 0.007696427396378041
0001f0 ad 3d f6 bf df c6 aa bf 9f 16 05 80 b1 f7 a1 bf
       -0.05229853838238383 -0.035092875363756486

encoder.1.1.weight f8 [64]
000000 a6 cb 58 6f 77 a8 ef 3f 88 fb 0d 30 a5 7a ef 3f
       0.98931476352151 0.9837213457648071
000010 48 35 3d c6 aa 2e ef 3f ec 1c dc 48 d0 b4 ef 3f
       0.9744466659409818 0.9908219740908897
000020 e2 13 72 4c cb 2e f0 3f 4b 8e d3 7a c4 01 f0 3f
       1.0114243494183417 1.0004315183549746
000030 de 31 a2 7e 64 08 f0 3f 7e 9e 71 14 58 8c ef 3f
       1.0020489641784631 0.9858818434995127
000040 78 07 d5 83 81 5a f0 3f e7 c0 36 2f 9c c0 ef 3f
       1.022096171349828 0.992261974539386
000050 95 6c 15 e8 7d a3 ef 3f 33 b8 e3 f6 83 5d ef 3f
       0.9887074978718312 0.980165464597809
000060 9a 79 5d 9f 1d 01 f0 3f 0a 06 80 a5 66 40 f0 3f
       1.0002723908615736 1.0157228913161611
000070 04 33 05 3d 14 3f f0 3f e6 41 a6 c2 84 ab ef 3f
       1.0154001601796958 0.9896873285052237
000080 02 55 23 f6 79 08 f0 3f b4 c8 40 b2 5f c7 ef 3f
       1.0020694365278477 0.9930876237397315
000090 6e 83 9d fc b1 be ef 3f 3b c8 af 70 0c 0a f0 3f
       0.9920282300846404 1.0024532701322773
0000a0 8b c5 ab 6b 73 00 f0 3f d1 30 0e 0f 78 34 ef 3f
       1.0001100736520552 0.9751549047519125
0000b0 db ca 96 93 9e ee ef 3f ce c2 3f 2b f0 86 ef 3f
       0.9978783495519922 0.9852219433506322
0000c0 0a b7 63 ab 90 5f f0 3f 59 7c b9 0c 43 50 f0 3f
       1.0233313269522477 1.0195951935818555
0000d0 02 6e 9e 38 a7 47 ef 3f 7b e3 4e 31 81 f1 ef 3f
       0.9774967294537762 0.9982305491495106
0000e0 3b ec 5b 19 34 b8 ef 3f ee 84 b1 42 c0 92 f0 3f
       0.9912357802671815 1.0358278851711549
0000f0 cf ba 23 43 e7 db ef 3f e2 0c b1 5f 48 ae ef 3f
       0.9955936728782379 0.9900247448898905
000100 65 a2 5a aa 84 ad ef 3f e9 77 39 d8 ab 2f f0 3f
       0.9899314238765099 1.0116384931820852
000110 98 07 aa 38 89 4b f0 3f 46 45 c0 c8 65 a2 f0 3f
       1.0184414113468616 1.0396478502119222
000120 f8 52 95 2f 8e 1e f0 3f a0 ca d3 a3 af 2b f0 3f
       1.0074598177645253 1.0106655501846618
000130 ac f0 00 c9 ba 3b f0 3f 45 3d 1a 1d 98 e0 ef 3f
       1.0145824290948822 0.9961662834556725
000140 b3 8b 37 84 aa 30 f0 3f dd cb a8 10 b3 17 f0 3f
       1.0118813671804048 1.0057860041385915
000150 bc 9a d5 00 3c ab ef 3f 1d 1c 67 46 07 36 f0 3f
       0.989652635221169 1.013190531740981
000160 0b 4a e5 7d 55 75 ef 3f ba 76 b2 72 41 b0 ef 3f
       0.9830729922198896 0.9902655830553251
000170 0e 1f 64 c1 c8 bd ef 3f ea d1 67 72 d9 63 ef 3f
       0.9919170167131328 0.9809386476977668
000180 8f fc 45 f4 e7 1e f0 3f fb e1 18 f6 ea 68 ef 3f
       1.0075454275063611 0.981557350786772
000190 46 9f 37 7f ce 25 f0 3f 4f 9c 4f 34 5d d6 ef 3f
       1.0092301339554566 0.9949174901675039
0001a0 41 85 e8 20 5d f4 ef 3f 63 3f 17 5e d8 bc ef 3f
       0.9985795634021671 0.9918023908339645
0001b0 95 40 7d d6 5f ac ef 3f 19 86 27 5c 87 1e f0 3f
       0.9897917927974215 1.0074533080845696
0001c0 7f de ae 4a 66 41 ef 3f 56 d3 10 c0 bd 54 f0 3f
       0.9767333468107181 1.0206887724463818
0001d0 0a 82 09 2f 3d ed ef 3f 3b 6f 8d f5 8a 8b ef 3f
       0.997709838742652 0.985784034342465
0001e0 f2 61 de d0 69 80 f0 3f 58 b5 d5 44 be 6a f0 3f
       1.0313509138996975 1.0260603607997236
0001f0 87 aa 35 69 d8 4f f0 3f c0 3c 4f 4c 7f 40 f0 3f
       1.01949349496377 1.0157464009133008

encoder.1.1.bias f8 [64]
000000 55 72 09 6d b9 6f 91 bf c6 39 ad ea 46 9d 85 bf
       -0.017027756958088187 -0.010553888355983154
000010 76 ff 91 6a a8 f7 30 bf 52 ba b9 92 43 22 6f 3f
       -0.00025890218473278244 0.0038005180156724183
000020 1b 7c 87 1b 7e 34 72 bf be bf 19 af e2 a8 5a 3f
       -0.004444592101633861 0.001627179499703132
000030 dd 5a 4c 1f 7d b5 62 3f 49 b4 07 3d 73 ca 9b bf
       0.0022838062090032433 -0.0271394735336126
000040 96 b5 f1 71 62 84 55 3f 23 b8 b4 1e 36 13 7e 3f
       0.0013133012178302198 0.0073425401745179945
000050 2f c1 3c 27 86 30 8a bf 24 56 77 a0 be 99 85 3f
       -0.012787864754131377 0.010547150871313589
000060 da 98 13 c3 17 f6 91 bf c0 53 ab 2b 32 8f 7b 3f
       -0.017540332109000946 0.0067283592022321925
000070 80 5b c6 6a 29 40 7e 3f 4e d5 02 fa ba 27 51 bf
       0.007385408196930565 -0.0010470701163688037
000080 bd c0 8b a0 68 ad 70 3f 90 6e 24 f0 88 b0 85 3f
       0.0040716254231797895 0.010590619877397317
000090 92 c3 94 42 d3 ac 82 3f 5c 18 6c 78 3f 11 59 bf
       0.009118700475115014 -0.0015299911335105087
0000a0 bf de 35 e6 56 4d 6a bf 1a 1d cb 40 ba bf 93 bf
       -0.003210706448665806 -0.019286070065189433
0000b0 7e 47 e4 ea 56 bc 83 bf b7 6d cb 83 5f 05 a4 bf
       -0.00963657287914876 -0.039103493536198845
0000c0 2a a5 c7 b5 be 96 73 3f b1 c0 8b fd 9c bd 82 3f
       0.004782433472862816 0.00915072106133183
0000d0 26 b3 46 af 3e 9a 40 3f 7e ce bb c0 a3 a0 78 3f
       0.0005066686704161313 0.006012572917586943
0000e0 91 f2 34 66 10 27 56 bf 38 ed 72 e4 1d bd a3 3f
       -0.0013520870350724227 0.03855222142871145
0000f0 a4 b2 a7 2b 7b c0 51 bf 40 37 88 b3 b9 17 82 bf
       -0.0010834887349303957 -0.008834315101036716
000100 55 64 87 8a 83 1c 6f 3f 7d 04 9d 50 5a 60 6d 3f
       0.0037977761423744574 0.0035859836542902466
000110 05 ac 93 e4 67 2d 7f bf 76 eb b5 37 ac 60 9d 3f
       -0.0076116617503698735 0.02868908968001046
000120 45 fd ec 54 94 b5 47 bf aa 50 3e 8e 4a 4d a1 3f
       -0.0007235502506332333 0.03379281031007626
000130 4a 9f 95 4d 51 30 64 bf 09 b6 9e d5 87 ae 7f 3f
       -0.0024644458723520933 0.007734804728824604
000140 7f 38 6f c0 28 42 91 3f df 49 11 4b af 2a a6 3f
       0.016853939767138556 0.04329440871574141
000150 03 45 72 a9 b4 29 50 bf 32 bc fa ea 49 f9 a0 3f
       -0.0009865059162488816 0.033151922163022
000160 18 56 46 65 71 73 54 3f bd 6d 7b 59 f4 81 4c bf
       0.0012482268694830097 -0.0008699839699732242
000170 54 25 f4 e2 c4 1e 80 bf 7f 43 da 48 cd c6 85 3f
       -0.00787118737800322 0.010633090768608742
000180 51 2a ac 0c fd 12 8c 3f 47 78 ba 33 f3 69 68 bf
       0.01370809264110054 -0.002980208400756221
000190 94 b3 30 a6 52 67 3a bf f4 47 d8 da 09 b1 89 3f
       -0.00040288703729878775 0.012544705382456535
0001a0 d6 a0 75 a3 9b 23 7f 3f a0 92 1c a1 ea aa 63 3f
       0.007602317774719055 0.0024008352856007137
0001b0 5b d7 6a 7d 3d 66 98 3f c8 9d 65 74 ff 09 88 3f
       0.023827515392177073 0.0117378194233443
0001c0 30 1d be 82 84 88 9d bf cc 88 d3 3a 07 52 85 3f
       -0.02884108589162543 0.010410362704025643
0001d0 34 1f 19 14 9b f0 82 3f cc db 8d af 0a 07 70 bf
       0.00924798159680016 -0.00391296552776672
0001e0 c4 20 15 f4 3f 71 96 3f 58 78 04 51 67 78 84 3f
       0.02191638877164405 0.00999527660365744
0001f0 06 ff 5b ae 1e f5 93 3f a9 63 ff 72 b2 27 59 3f
       0.01948974551396445 0.0015353434246121267
