models/matching_nets/DF_n=1_k=5_q=15_nv=5_kv=10_qv=1_dist=cosine_fce=None.pth (torch, 316367 bytes, 24 tensors)

encoder.0.0.weight f8 [64, 1, 3]
0.45658907933823184 0.230293573524405 -0.28986265097560326 -0.08827242194769565 0.07777691532095307 0.43338603642802814 0.057149144743184666 -0.10211806275143658
-0.2510119836936623 0.28579147264172955 0.4141564950294233 0.4942874243870299 -0.06512877377457252 -0.05586016537910534 0.3948121169809732 0.3131663257060066
-0.004080838302860349 0.36357414604357885 0.16593067303801354 0.20615023888694098 -0.43405236181817947 0.3923410045584219 -0.120880032028783 0.3351126206720337
0.5976116658925967 -0.4404782512552274 -0.25388067022483785 -0.08284152362438531 0.5954996627079019 -0.31373866373087134 -0.28362483049096526 0.4955221745066248
0.40522032107070244 -0.4908860469338281 0.5266951806415149 0.4988791742725814 -0.34605338165712746 0.36918365973297845 0.14566287135063924 0.35948137642224465
-0.138255954698367 -0.5780406111096323 -0.5072781095514743 0.3268512586269103 0.3857563768361244 0.4171023175779457 -0.3453039057188285 -0.5469675971062833
0.2929990383364311 -0.24616334427857411 0.3172363213506794 0.17088493419788625 -0.07772909516765893 0.12557922983195394 0.48036836708350406 0.45625605455450735
-0.16752217651777285 0.2137082581569417 -0.13932740488939055 0.13909668211482978 -0.5226105235944123 0.5142943078226517 0.21945599664382276 -0.4602222625800708
0.44439152664572346 -0.20471392757378842 -0.4966387570479467 -0.4086415143471766 0.33603681717813094 0.300345691638764 0.2770305974029088 0.11996274236722247
-0.4250224862213958 0.30870662803252563 0.11256194226260943 -0.27995113597381643 0.5831988964408807 0.11625129946572102 0.41229313314496085 0.2749669836024742
0.0608944805805984 0.012690289428108705 0.2748699284362288 -0.4944363513419523 -0.07180915806654492 0.48947576547909033 0.43257429252423185 -0.44143091124347794
-0.26155101726160834 -0.46913139130429965 0.18656891604363382 -0.2932919163294889 0.4942380703746654 0.3973511674845428 0.5201363197467095 -0.17162549505291091
-0.31331446696933646 -0.35855408518900506 0.09520220937567649 -0.002638525279612882 0.36511480466955765 0.30443321297410053 0.25744827508230755 0.2962802436666858
0.5748692381845604 -0.10249847891144591 0.3704429906732893 -0.5198615760125909 0.5679822401709257 0.3630383439964043 -0.10901296319441249 -0.1879614486502257
0.19281232851208102 -0.3986873889420384 -0.11217930987094561 -0.3898195613436491 0.2050855919499631 0.35435140613292226 0.18421339242071533 0.11415826748340124
0.2522772154926842 -0.2027048740909041 0.15985160410541246 -0.4452137855456753 0.03583105406852471 -0.2776626277567195 -0.07077799648907317 0.08151211137254992
0.05254994855672694 0.37484697791155125 0.4650692251866157 -0.20706677180562708 -0.362412300589646 -0.09511855046818292 -0.0010340868716494805 0.06385831664563114
0.5497167004076507 0.052517864621627344 0.5438921291315545 0.5153673139408755 0.20593030033484042 0.22144324422413228 -0.48684152345979564 -0.041620330562482336
0.5583148553328611 -0.16136804693629855 0.3515376606056218 0.10698088336879995 0.16668094247081489 -0.19816275635071945 -0.2804666999044306 -0.38852505040962815
-0.5425225933825393 -0.40003549007418854 -0.287044313065977 0.5147567577169345 0.3640507749316086 0.3487474239682522 -0.11194568991976589 -0.2863679531759901
0.45844636648007825 0.020524950081105647 -0.38879190889855203 0.46260414061267974 0.025022394089939313 0.39346204629630555 0.024627886515774296 0.005702181089285147
0.0539328020689802 0.06690241743973671 -0.34271693016824845 -0.03858791868537459 -0.02010758387763195 0.19921055754730996 -0.4878126210922836 -0.1509485990312795
0.35836878184235227 -0.4387697143856287 -0.22494352376422241 0.44306649348993393 -0.1910917442103868 0.506526760279878 -0.31011730305017904 -0.4715842167750044
-0.5333282314628746 -0.33739039003105104 -0.4355724838790476 -0.2627032527609032 -0.5187692102979464 0.4429704382033014 -0.490755937389798 -0.007480709479624002
00000000: 2bfb dd66 c138 dd3f d215 6283 427a cd3f
00000010: bc69 9113 1c8d d2bf d570 677d 0599 b6bf
00000020: eeef af1b 30e9 b33f af17 40c9 98bc db3f
00000030: a02b 5517 a742 ad3f eb29 d9cb 6824 babf
00000040: 4a93 3791 9410 d0bf ba33 1e51 684a d23f
00000050: 76f3 643e 8a81 da3f 583f a4b8 67a2 df3f
00000060: 62ef 6381 47ac b0bf 23a2 e71e b499 acbf
00000070: 0edc 9f0a 9a44 d93f fb68 c7c5 ea0a d43f
00000080: 1d19 d1b0 11b7 70bf 4069 bb7e cc44 d73f
00000090: 2bff 0c5f 373d c53f f17e 0a8b 2163 ca3f
000000a0: 53ae b08e 83c7 dbbf 4c53 dd71 1d1c d93f
000000b0: 0c95 4d68 fef1 bebf e5d8 9034 7c72 d53f
000000c0: e0ef 1680 a21f e33f e763 efb0 cb30 dcbf
000000d0: 7ef1 ecb5 943f d0bf 1db1 b722 1a35 b5bf
000000e0: c680 034f 550e e33f d6bf 0d55 4b14 d4bf
000000f0: 0db4 d2c2 e826 d2bf 75b8 7ca3 a2b6 df3f
00000100: 2117 ab36 21ef d93f 502f 694f ad6a dfbf
00000110: a51d fad9 afda e03f 89ff 89ea a2ed df3f
00000120: edcd 3815 bd25 d6bf b753 3180 b4a0 d73f
00000130: 3ba2 58ba 14a5 c23f 784b d02c be01 d73f
00000140: 2e10 f401 5fb2 c1bf 2439 0f06 4f7f e2bf
00000150: 5b02 504d 9f3b e0bf 8b60 9d8a 21eb d43f
00000160: ca03 af83 3bb0 d83f 3a51 45eb cdb1 da3f
00000170: 7494 8f8d 7519 d6bf d261 b130 c280 e1bf
00000180: e385 da09 7fc0 d23f 6c42 93cc 4782 cfbf
00000190: 2b7d 5392 994d d43f 0228 e1b9 8edf c53f
000001a0: 2959 b1d1 0de6 b3bf adb1 97ee fa12 c03f
000001b0: 4a05 aaf6 5abe de3f 7078 3a98 4c33 dd3f
000001c0: 42d1 bfde 5d71 c5bf 03a8 d5cd ca5a cb3f
000001d0: acde b7fb 7ad5 c1bf 9e28 558a ebcd c13f
000001e0: 1e45 6cb4 39b9 e0bf 7bc0 1356 1975 e03f
000001f0: e886 3f54 2217 cc3f b60a ab13 4874 ddbf
00000200: 7806 6428 e970 dc3f 8289 fbe3 1034 cabf
00000210: fc9b dcec edc8 dfbf af2d fabc 2e27 dabf
00000220: 580c 0291 a081 d53f be4f c522 dd38 d33f
00000230: b88e f58a deba d13f 5fa8 34d7 e0b5 be3f
00000240: 20ac 9883 9133 dbbf 1352 dd71 d9c1 d33f
00000250: 32ca ca04 dcd0 bc3f eb13 5f2b b8ea d1bf
00000260: 26dc 68bb 90a9 e23f 52a1 5229 a5c2 bd3f
00000270: 5045 cebc 0263 da3f 705a 831e 0f99 d13f
00000280: db7e 33b5 8f2d af3f 0e63 90d0 5dfd 893f
00000290: cc65 520a 7897 d13f 70e7 bd5d d8a4 dfbf
000002a0: 8cf8 72c1 1562 b2bf 5eb4 3a29 9253 df3f
000002b0: aad7 de15 4caf db3f 67fd ce6f 6740 dcbf
000002c0: e6f1 577a 40bd d0bf d973 cbab 3f06 debf
000002d0: 15c5 6d80 7de1 c73f a43e 3475 4bc5 d2bf
000002e0: 20a1 2cb7 98a1 df3f eae7 5797 336e d93f
000002f0: ecc3 58ec f4a4 e03f 74be 3400 d3f7 c5bf
00000300: 65ce 3f1f 580d d4bf 71f9 6ed5 8cf2 d6bf
00000310: 8985 c607 2c5f b83f 6bb0 2379 639d 65bf
00000320: ddd5 557c 0a5e d73f c88e 6271 d57b d33f
00000330: c5f7 7854 087a d03f f8f4 3f69 41f6 d23f
00000340: f654 2f2c 5465 e23f e77c d01e 573d babf
00000350: 7759 7e84 56b5 d73f 9e79 6dbe b4a2 e0bf
00000360: 31c6 4717 e92c e23f c125 aa2d 053c d73f
00000370: db92 c207 46e8 bbbf b945 6ee9 1e0f c8bf
00000380: aecc 9c0a 13ae c83f 215b 351c 1884 d9bf
00000390: e1fd 2e83 c8b7 bcbf 71f8 d3be cdf2 d8bf
000003a0: 7b27 27a3 3e40 ca3f 207b 2885 b1ad d63f
000003b0: e451 f7ef 4d94 c73f 34c3 68e9 7939 bd3f
000003c0: 1c4a 8455 4f25 d03f d8e8 7aba 3bf2 c9bf
000003d0: fd45 ec71 0476 c43f fd68 29f6 617e dcbf
000003e0: 7fa0 cfaa 7258 a23f 8b56 6278 39c5 d1bf
000003f0: c36c 32bc 811e b2bf e3b0 924c fadd b43f
00000400: c64d eaac d3e7 aa3f 6b9c c82d 7efd d73f
00000410: 5f5d 23b6 b1c3 dd3f cd29 7ffa 2981 cabf
00000420: 78d7 ac5c c331 d7bf 25f7 8077 b059 b8bf
00000430: 4a95 e052 46f1 50bf b912 92c5 0459 b03f
00000440: c51b 4a7a 4797 e13f e2e3 021e 9fe3 aa3f
00000450: ad7f 6577 9067 e13f a9b5 d997 e37d e03f
00000460: cdc7 9890 ec5b ca3f df6f ee91 4058 cc3f
00000470: 910e 6659 6928 dfbf 0aa9 3a8d 424f a5bf
00000480: cbd1 901d b7dd e13f 57fb 1a4a b5a7 c4bf
00000490: 7943 e7d0 977f d63f 5fbe 5d63 1963 bb3f
000004a0: 68a9 6316 cd55 c53f 14e1 e7ae 655d c9bf
000004b0: 8a38 ed99 2af3 d1bf 22e9 4b2c 98dd d8bf
000004c0: 5e69 7d57 585c e1bf 05e9 c674 2e9a d9bf
000004d0: 08c1 471c ef5e d2bf 5e41 f929 e378 e03f
000004e0: b38a 1a9f 9b4c d73f 4481 20b7 e051 d63f
000004f0: 6c30 2205 79a8 bcbf 83da 6040 da53 d2bf
00000500: 3920 c06d 2f57 dd3f 5bca 6615 7e04 953f
00000510: dbcb 6a75 f7e1 d8bf c43d bb65 4e9b dd3f
00000520: 19ba 2271 789f 993f ead4 436f 7b2e d93f
00000530: ff90 9e7c 0d38 993f ada7 b594 2b5b 773f
00000540: 3ec5 228a 149d ab3f 7a50 ed4e 8420 b13f
00000550: d0eb b6fd 12ef d5bf 007d 8cb1 cbc1 a3bf
00000560: 10c0 9f1c 1597 94bf ef80 d746 bb7f c93f
00000570: a6b6 8a6d 5238 dfbf c6b1 1ba0 4852 c3bf
00000580: 91e5 7a9d 83ef d63f 01bd 7091 cd14 dcbf
00000590: b3d5 010b f3ca ccbf cb87 df90 335b dc3f
000005a0: a1a8 f5bb b175 c8bf d66d be9b 7735 e03f
000005b0: 268d a13e f6d8 d3bf 54f0 1691 6f2e debf
000005c0: 7f54 055e 0611 e1bf 4fc1 cadc cd97 d5bf
000005d0: 6112 5369 6be0 dbbf 344c ca4d 21d0 d0bf
000005e0: 7cd8 0ce3 c199 e0bf d663 4bae a059 dc3f
000005f0: 630c 5a97 8b68 dfbf 98c5 0da9 17a4 7ebf

encoder.0.0.bias f8 [64]
-0.1506052911729462 -0.4817606210205617 -0.46663057812971936 -0.5509341955457211 0.1478609441980209 0.2820928096433908 0.5509908202076238 -0.4982745647209435
-0.27057257292527764 -0.23931527146323914 0.4546234608477081 -0.43969696756880866 0.43355977535768614 0.4414561988923739 0.45221292963680587 0.0990451574345191
-0.396246314096837 0.22437727459345805 0.4732114076276403 0.07081675525167519 -0.006787180843452461 0.5291950701852182 -0.2842951415712102 -0.5583816766920472
0.3991413115906447 0.4083807468287653 0.3257253766220164 0.2018819451810029 -0.28459975118213976 0.1590380669190971 -0.5491530895369868 -0.5219233036037111
-0.2381810249393645 -0.3603237270953318 0.26423108575185955 -0.45565950869567884 0.09380376339388104 0.40824377550418794 -0.47014233453845394 -0.28319916130998574
-0.2811962067562183 0.4417787789101313 0.10952520399310707 -0.2999998926936366 -0.48978114146503676 0.5695132017141762 -0.5202367901501438 -0.48086452478872804
0.3549466729004032 0.21737742426744916 -0.4009097218185923 -0.07390785224789596 -0.13470783830977362 -0.1784726083254774 -0.2865584790458586 0.06471890217030003
-0.41227334750749767 -0.18928626184618325 0.43165099622950304 -0.2607573568714979 0.5195879939092987 0.10102719068382916 -0.35318994500337936 -0.11584284899332677
00000000: 4c9f 18c0 0847 c3bf 722c f27f 2ad5 debf
00000010: ad5d 1880 46dd ddbf fbbd 03c0 40a1 e1bf
00000020: c5d4 d77f 1bed c23f 3cba f6ff ce0d d23f
00000030: c503 2680 b7a1 e13f f5ec f9ff bae3 dfbf
00000040: 3327 fa9f 0f51 d1bf c719 2f00 e2a1 cebf
00000050: 9e74 1500 8d18 dd3f 1ff0 f6bf fe23 dcbf
00000060: 7d6e 0180 71bf db3f 6bfd 3680 d140 dc3f
00000070: 5d94 e77f 0ef1 dc3f 8528 0200 065b b93f
00000080: 9f36 0d80 195c d9bf 0919 2c00 65b8 cc3f
00000090: b3b5 f67f 1849 de3f 8095 d0ff 0b21 b23f
000000a0: ac1c 13fc dfcc 7bbf 48cc f47f 2aef e03f
000000b0: 4371 dd3f e431 d2bf e17e 0240 43de e1bf
000000c0: 5aeb f0ff 878b d93f c184 fcff e822 da3f
000000d0: ee67 0440 afd8 d43f 5c46 1a80 44d7 c93f
000000e0: d2ba f1df e136 d2bf 4e48 1e00 5c5b c43f
000000f0: 05e1 0180 a992 e1bf 67f1 ff7f 98b3 e0bf
00000100: e637 5240 b77c cebf d239 f63f 8b0f d7bf
00000110: 0103 f97f 29e9 d03f 4a66 fd7f 8629 ddbf
00000120: 8db8 0400 8603 b83f e581 2580 aa20 da3f
00000130: 31b2 d3df cf16 debf 632f 0560 ef1f d2bf
00000140: d7bd f15f 1eff d1bf d017 df7f 1a46 dc3f
00000150: a9f5 3c01 d809 bc3f 2a0d fbbf 3233 d3bf
00000160: 6f8d 3200 9358 dfbf 9c15 00c0 7339 e23f
00000170: 45de fb9f c7a5 e0bf f98b f1ff 7bc6 debf
00000180: 7599 fb3f 72b7 d63f 5207 0f00 06d3 cb3f
00000190: f6fe f63f 81a8 d9bf 1f83 5200 a0eb b2bf
000001a0: 2c15 0740 1b3e c1bf e4af febf 30d8 c6bf
000001b0: 842e f95f f956 d2bf 6d24 4100 6b91 b03f
000001c0: 46a8 23c0 af62 dabf c810 1b40 883a c8bf
000001d0: b5db 0580 2ba0 db3f 4616 fd9f 3fb0 d0bf
000001e0: 8a82 2700 77a0 e03f d169 feff eadc b93f
000001f0: 0532 c4ff a99a d6bf b1dc e67f e0a7 bdbf

encoder.0.1.weight f8 [64]
0.9996740131217082 1.0235268313678565 0.9853787025568999 1.0005717195209216 1.0134816957998232 0.9908533800439355 0.9851086498831366 0.989131902974197
1.0019708437264525 0.9761953747830148 1.0066075960168597 0.9794256205836583 0.9710794236684294 1.0006085810057614 1.0123435622567087 1.0040299609253165
1.002634278214527 1.0117911933607242 1.0019738482480764 0.9843960827749951 0.9962047612917783 0.9619373625844028 0.9977877166050942 0.9884417881290952
0.9978863068877974 0.9729036845547431 0.9913333409881092 0.9910457555056175 1.0117536952459265 1.0296966103019838 1.0044426033146965 0.9888705754886329
0.9956667270767677 0.9984635588286029 1.0123000662461596 0.967161787936994 0.9868765372926084 0.9992228050862719 0.980483216118856 0.9944992008409385
0.990183390754664 1.0197300658414414 0.9799534716325565 1.0083459788798161 0.9977500554378779 0.9960417242742762 1.0142017983493867 0.9791533287788989
1.0300500515078113 0.9937638330235572 1.0064263321988547 1.0027869451058657 1.0011249677615088 0.9978986873485388 0.9755138454707499 1.014544772869778
1.0132575792457974 1.0088168277698621 0.9999759599108363 0.9876724040802513 0.9914819711500995 1.0383467370356714 1.0357154339693497 1.0018457547601127
00000000: 1b9a 205b 54fd ef3f efda b4ab 5d60 f03f
00000010: 7a04 b5ea 3888 ef3f 4751 ca7d 5702 f03f
00000020: b6e0 2895 3837 f03f b16e cd25 12b5 ef3f
00000030: 3527 4893 0286 ef3f 9e8a d6f2 f7a6 ef3f
00000040: 399c 5594 1208 f03f 6662 2615 fe3c ef3f
00000050: f0c2 0c91 101b f03f a1ae 2866 7457 ef3f
00000060: 8d2e cf27 1513 ef3f 7444 b824 7e02 f03f
00000070: da56 c329 8f32 f03f e50d 66b8 8110 f03f
00000080: b67a ac3d ca0a f03f 8bd7 5df6 4b30 f03f
00000090: 9bc3 daba 1508 f03f 1888 ba36 2c80 ef3f
000000a0: fdc3 bbce e8e0 ef3f 5437 23dd 30c8 ee3f
000000b0: b16b 6581 e0ed ef3f 8874 40ac 50a1 ef3f
000000c0: aab2 a643 afee ef3f b741 6ae8 0622 ef3f
000000d0: 9b4e dfb2 00b9 ef3f 458f 9796 a5b6 ef3f
000000e0: b503 8ba4 2430 f03f 05c9 2027 a379 f03f
000000f0: ae21 3f68 3212 f03f 7e69 b6e7 d3a4 ef3f
00000100: 8952 d077 80dc ef3f f754 6dd9 69f3 ef3f
00000110: 1541 e48d 6132 f03f 3a2b 2447 fdf2 ee3f
00000120: 3991 9b1a 7e94 ef3f d869 a81a a2f9 ef3f
00000130: 833c 7056 1e60 ef3f a551 f0fc efd2 ef3f
00000140: 6ead 0a14 95af ef3f 3797 3879 d050 f03f
00000150: 8b6e 0862 c75b ef3f 7e78 a564 2f22 f03f
00000160: 0d03 3686 91ed ef3f f1b3 e6e4 92df ef3f
00000170: b147 37aa 2b3a f03f 3cff 9b5c 3955 ef3f
00000180: b381 47c3 157b f03f c014 59cf e9cc ef3f
00000190: 7909 6a7f 521a f03f f75d e152 6a0b f03f
000001a0: 6fea 3b9d 9b04 f03f 0544 5c3a c9ee ef3f
000001b0: 3af2 e2cf 6837 ef3f e9da bc4c 933b f03f
000001c0: a88e 5494 4d36 f03f fdd0 2e1d 1d24 f03f
000001d0: d14d 9395 cdff ef3f cbf6 5528 039b ef3f
000001e0: b239 1566 38ba ef3f d49f d777 119d f03f
000001f0: dbc5 cd58 4a92 f03f 454c 056a 8f07 f03f

encoder.0.1.bias f8 [64]
0.03318014931102126 0.030799042392110922 -0.009377108306816534 -0.015064500805573778 0.03621259879647872 -0.0004442680732143613 -0.014247988640448425 0.025120361266066697
-0.013204031041572917 -0.005295447388588149 0.012409815638430941 0.011983760593357519 -0.012847298048964796 0.006969980377200507 0.035747058238297644 0.006295892550311694
0.01817684828818713 0.02597480237932054 0.027579395119707396 0.02282033945848917 0.024251498324185237 0.0033028312768349525 0.010296452367244852 -0.0035148185430173566
-0.01811327700219648 0.008123109819425671 0.014681696126359353 -0.017532270950117963 -0.0031699262154626933 0.019554994712419133 0.02165231792183686 0.03599818959883197
-0.008066239455030126 0.032296554808561286 0.02459778781200245 -0.012545330010733229 0.0004078485025705885 0.0025129849983414085 -0.009943370517535112 0.02247320192336388
0.031290863077296116 0.016150363754051517 0.038837885970826644 0.008136931766317764 -0.0015240500790231904 0.0054977322990029335 0.006100388533874857 -0.009106835768711876
0.03563914454965571 0.02391698359732603 0.00577238783660604 0.004233175005497143 0.004525604314848903 0.019906413190679616 0.00031360451825630017 0.025970012424882005
0.015310868967545178 0.027849296044575287 0.004200639571015172 0.003654314322442962 -0.021282955778810918 0.02481978334695125 0.02366734999671294 0.006812743069242142
00000000: 999f 5510 fdfc a03f b7f7 49bf c889 9f3f
00000010: dd13 122c 4e34 83bf 4df4 5212 23da 8ebf
00000020: 5b6e 112f 758a a23f e44c 59d8 941d 3dbf
00000030: 4bbf f4a9 0c2e 8dbf 8ee5 67e8 26b9 993f
00000040: 20cc fd0b b70a 8bbf a775 a0d5 adb0 75bf
00000050: 1217 8842 516a 893f 140b a71e f18a 883f
00000060: c7b9 b227 af4f 8abf dfa3 61dc 8d8c 7c3f
00000070: 9696 1f3c 704d a23f 6dbc a4c9 b8c9 793f
00000080: 66ba c4a3 f39c 923f 90fc f47a 2399 9a3f
00000090: 7a96 54e0 c53d 9c3f 039e a10e 375e 973f
000000a0: 36ba b980 62d5 983f 06cb 2e0a 8a0e 6b3f
000000b0: fd04 7571 4e16 853f c13f 32d6 1bcb 6cbf
000000c0: a92b 6471 498c 92bf 8947 2158 d9a2 803f
000000d0: 6b3f b3e5 6f11 8e3f 75e5 6bc9 faf3 91bf
000000e0: 81fb a22d d1f7 69bf b59c 0d7b 3906 943f
000000f0: 0073 6d75 062c 963f 049a 15ce 5a6e a23f
00000100: 6fd9 4955 0885 80bf 6d3c 5a8d 2c89 a03f
00000110: 3174 d398 2930 993f 09b5 e8b0 5db1 89bf
00000120: 4688 f2fa 8fba 3a3f 074c 438c 1c96 643f
00000130: f484 7a99 305d 84bf df62 300d 3703 973f
00000140: 8044 2923 5b05 a03f 1891 9190 b889 903f
00000150: 1653 2e34 8fe2 a33f ebe3 9b7e 18aa 803f
00000160: 43bb cc4f 54f8 58bf 5a74 d246 ca84 763f
00000170: 0d26 ef93 b8fc 783f 8e8f 5fce 9aa6 82bf
00000180: 16ac 9840 4b3f a23f f259 7a99 b17d 983f
00000190: f218 a68f c9a4 773f 0847 4f43 ce56 713f
000001a0: d43b 6ea8 7089 723f f6dc 89c6 5862 943f
000001b0: 708c 5826 698d 343f 7094 2a08 e297 9a3f
000001c0: 7a5d e90b 4e5b 8f3f f98b e99e 8684 9c3f
000001d0: b0d5 4699 b034 713f 9561 2210 a7ef 6d3f
000001e0: e6fa 20fc 32cb 95bf 866a 1377 5b6a 993f
000001f0: e01e e0f8 403c 983f d7e9 daca ade7 7b3f

encoder.0.1.running_mean f8 [64]
-0.006536784461361597 -0.32960521361781087 -0.5750661205831444 -0.1150647124921801 0.25004722243421723 0.5273228584935808 0.530093525384421 -0.27779463839884866
-0.3058963416223646 -0.16543220915799597 0.680526067213328 -0.24382195424924244 0.49632055667519176 0.31234076135963024 0.5287977843755416 -0.07257222323680439
-0.262421091228377 0.3042283542342198 0.7548819764471244 0.14846022277262957 0.07184094466623824 0.45073038299430407 -0.49239713359377635 -0.3045873114650318
0.39862544570388486 0.5593329163044121 0.5991043423527422 0.12483063295164006 0.025111535449154336 -0.269185617809866 -0.4072910863595858 -0.25017194596865483
-0.4472562556146731 -0.11744085017216611 0.676520723220696 -0.5457228607697622 0.3937523437320145 0.26611953608126565 -0.5818051321156217 -0.044868073743399836
-0.20386643085427786 0.1913043888364188 0.13231853033115767 -0.07010306726179368 -0.6574396190316413 0.8124395012204029 -0.0585314091545214 -0.591847476450537
0.6275388762547937 0.24607253309095473 -0.8430372536979456 -0.1381864076474704 0.08439017275037415 -0.10916988633543154 -0.2514767922077311 0.22077307895755244
-0.49276940706603384 -0.13820116898235965 0.33060534070562286 -0.34173149667898306 0.5221554535950759 -0.3888406592946381 -0.7975420128720242 -0.13674884035138313
00000000: 5685 b8b7 50c6 7abf 0718 4577 4018 d5bf
00000010: 7c26 9e10 f166 e2bf b9da 1389 e174 bdbf
00000020: e1e0 b310 c600 d03f a738 f52f d4df e03f
00000030: 2e1e 6bb2 86f6 e03f 4257 bb29 63c7 d1bf
00000040: 7dfb ce3f ce93 d3bf a5f1 04f4 e12c c5bf
00000050: 3a37 589a dec6 e53f 130e c6cb 8e35 cfbf
00000060: 5b28 d04b b7c3 df3f 9fd4 cf1a 64fd d33f
00000070: 02e3 c254 e9eb e03f 0b6c 66dd 1794 b2bf
00000080: 16d1 26d5 81cb d0bf 8eeb fc33 7a78 d33f
00000090: 8ac4 253f fe27 e83f 5b5c c89c be00 c33f
000000a0: eff0 da0b 2b64 b23f b38a 913f c4d8 dc3f
000000b0: 7e7b 5b44 6f83 dfbf 4a35 61c7 5b7e d3bf
000000c0: f7b3 294d 1483 d93f f651 e324 0ee6 e13f
000000d0: e07d a9de dc2b e33f 55f7 107e e6f4 bf3f
000000e0: 1e9e 069e d6b6 993f e500 4350 563a d1bf
000000f0: 8c78 f7a1 0e11 dabf a7f8 9331 d102 d0bf
00000100: d4f8 b2b3 d89f dcbf 1932 b482 9a10 bebf
00000110: b292 a9c9 0ea6 e53f 2cf1 f5c9 8f76 e1bf
00000120: c059 c307 3d33 d93f 35ed 123c 1a08 d13f
00000130: 189c e2cb 259e e2bf ee8e b9ba f2f8 a6bf
00000140: 36bc a292 4b18 cabf a11c d186 a97c c83f
00000150: 6bab 3648 d0ef c03f ed1a 3d4d 46f2 b1bf
00000160: 39bd dacf be09 e5bf bc0b f71f 81ff e93f
00000170: 9405 3730 d4f7 adbf ee67 721e 6af0 e2bf
00000180: 2974 cf68 cc14 e43f 4ee6 0805 4e7f cf3f
00000190: 9427 3e43 29fa eabf 797e cc9a 17b0 c1bf
000001a0: cd0f 1128 989a b53f 8eca 84c3 8ef2 bbbf
000001b0: 660d 8f1d 3218 d0bf 72de fad0 4a42 cc3f
000001c0: e958 f4b1 8889 dfbf 8f2b 866e 93b0 c1bf
000001d0: 6cab 8d4d a328 d53f 98f5 8fc8 edde d5bf
000001e0: 00ce 935a 7fb5 e03f 99a2 c1ee c3e2 d8bf
000001f0: 5715 cfd3 7685 e9bf 649d 896a fc80 c1bf

encoder.0.1.running_var f8 [64]
0.017981322219820763 0.013575852560796433 0.006121070417174414 0.07339424725180896 0.008462624245496483 0.024951945751530216 0.008544275001489252 0.022769952680099553
0.020326422421076518 0.01557342693149595 0.03173649163003122 0.037223305737537814 0.01007064638361648 0.02147569377667304 0.018983247248035198 0.028935893221678527
0.012453959637142131 0.003389071085976349 0.03958699788938147 0.0042415340669641035 0.020691315427744404 0.015012300994889058 0.03083153856124883 0.025381530444727657
0.009173724581990108 0.020526584532907594 0.030724861552985427 0.011712237764371976 0.04334732379372606 0.07049837487927223 0.016740550585734277 0.03752747821814196
0.02103985633081007 0.025309388090741437 0.06671016881485509 0.014904282091637956 0.04276311961440371 0.012785639381362825 0.010402799574984436 0.0226833448371819
0.005555722615311076 0.027091930218416462 0.0006290720264303615 0.02922313039233853 0.013069710490150918 0.027825796710698056 0.08410356581536531 0.012688745847770374
0.03585671673922751 0.0028060180355569176 0.0759051901916778 0.018311835240376877 0.023419411792730837 0.010474899044769755 0.011631717885487626 0.012269459457993431
0.005967719509563847 0.002136005071252148 0.016362570896564097 0.016916576597195126 0.011457825814939454 0.09263395824474754 0.07608041330643613 0.01352572736678953
00000000: 67eb 7d1b b269 923f ce8b 1c16 a8cd 8b3f
00000010: 42e7 2154 6812 793f 0e3b a923 f7c9 b23f
00000020: 3e61 fb32 da54 813f 14c6 e5bb 008d 993f
00000030: 056d 982d a97f 813f 0bb7 5ea8 0151 973f
00000040: e03d 2c1e 73d0 943f 67ff dbfa f5e4 8f3f
00000050: ef11 48f3 c33f a03f 2b5e 95e1 ee0e a33f
00000060: 9b0d f046 eb9f 843f e508 b869 b9fd 953f
00000070: 54a5 6828 5870 933f f847 45ec 5ea1 9d3f
00000080: 4020 c72a 7681 893f 6a7e 4caf 65c3 6b3f
00000090: e03c 903a bf44 a43f cdc2 a321 925f 713f
000000a0: c624 4bac 1a30 953f 0b6e 7cee c4be 8e3f
000000b0: d444 3987 4d92 9f3f 18ea baac 9dfd 993f
000000c0: 1b4d 7f78 acc9 823f e8d5 11c5 eb04 953f
000000d0: d042 2d8e 5676 9f3f 24a2 49f1 95fc 873f
000000e0: 9d58 20d4 9e31 a63f 3f12 8776 2e0c b23f
000000f0: 758c 2155 6f24 913f 51ea 4b37 cd36 a33f
00000100: 40d9 69db 788b 953f 9aa9 8648 b4ea 993f
00000110: 44d5 5ee9 ea13 b13f ba46 3be1 2286 8e3f
00000120: 9006 7030 0ce5 a53f 94df 0278 5b2f 8a3f
00000130: eef2 b01f 104e 853f 3856 f580 4d3a 973f
00000140: cdb8 03ef 98c1 763f f72d 18a9 fcbd 9b3f
00000150: d567 e2e3 099d 443f ce8f 4915 abec 9d3f
00000160: f8b1 fcd8 4ac4 8a3f bc2c 6e9b 5d7e 9c3f
00000170: 136b a7b0 cf87 b53f cb24 8ca3 8efc 893f
00000180: 4e4d 79c3 cf5b a23f 0d02 3b76 a5fc 663f
00000190: 6c4c 78c5 856e b33f ced9 f275 56c0 923f
000001a0: b320 f71e 42fb 973f 5108 9c26 dd73 853f
000001b0: 67d4 50bf 5ed2 873f 50b8 e4f8 ba20 893f
000001c0: 6123 0182 9b71 783f 5491 9afd 867f 613f
000001d0: 5953 848b 59c1 903f 1b1e fb3c 9452 913f
000001e0: b076 4459 3377 873f 3204 29ed dbb6 b73f
000001f0: 316e 0487 017a b33f 204e 8f65 60b3 8b3f

encoder.1.0.weight f8 [64, 64, 3]
0.056241671201571274 0.07057452531638228 0.05863407480969731 -0.044284382822448266 -0.06449233638609345 0.004396308134439521 -0.07029495572104649 0.019803702537215324
0.013744477185519665 -0.018047618453852915 0.03762192953427289 0.020252989090137067 0.04930300151716889 0.05765486625104349 -0.05925793778023182 0.0247085215372488
-0.015344954065366973 0.08532187809719456 0.05747078991756249 -0.05684009030210386 -0.05210894179367632 0.06506383332092504 -0.007805937783724541 0.031722224876325394
-0.007100387785211632 -0.0034958843747727045 -0.02738280685325844 0.02280941866527132 0.02167989668391664 -0.056390398018507946 0.05119765791704904 0.05795365531378162
-0.043718992521278026 0.011655462092706483 -0.060956082198320584 0.005409461974633643 -0.06390868216328785 0.03781190919543358 0.02177563142064691 -0.02931851423208044
-0.0468398999484756 -0.048721284538292206 0.025044089585824863 -0.06569020836635223 0.03204967494125858 0.017372011165673655 0.06926972685884207 0.04803358995988452
-0.002103983253156199 -0.05028948677388755 0.06291190765247077 0.018040987216625545 0.06967780559386733 0.07759950352373925 -0.05816438612189541 0.04455250069802501
-0.023481065962403826 0.04519320707353835 0.04926270236458632 0.07518010635792197 0.006405736371541392 -0.01568514423031232 -0.056299419846893274 -0.018745724240491313
-0.06650197420450639 -0.04606771564469621 0.023423484290748184 -0.060341358291960995 0.0003456936137890697 0.07059971140737914 -0.0027220252103153167 -0.0205767162820861
0.0020664045018828803 -0.030003529976824216 -0.05626644345218858 -0.025010816789263493 -0.046673669564667904 0.051974191490400196 0.034059464640105744 -0.03151925523173546
0.03436997329660155 0.019021133748259814 -0.0070250582227763675 0.01011683175259819 0.023134228725660854 0.06733271687815935 0.04318055609189485 -0.08822798414340421
-0.06882385912154283 -0.052928139804757156 0.029219516848492277 -0.05429360992824463 0.028971816242078098 0.06649021767488449 -0.03749346873018542 -0.02370550014761912
0.0002970790928229598 0.04788946752180734 -0.07884914481844017 0.0046251602232822465 0.04548761771067135 -0.007160717598530692 0.030780518443378303 0.022836635997875894
0.08318976800551775 -0.006991364993227435 -0.04761261510342685 0.0746800689286814 -0.026441419966136203 0.0028985177070047557 -0.03370483195269449 0.021657664140098957
-0.003310894796926972 0.029866081487766066 -0.014971271170973079 0.0480133546543118 -0.06686973340640764 0.04216072832486909 0.03937457043293837 -0.0033257865500032503
-0.015626465380577704 -0.03977834289024649 -0.008037287845461438 0.02004476065865082 -0.0423212164153484 -0.008084684747500527 0.04784902785841519 -0.07522129240948114
0.009601978249222239 -0.020238634893352266 -0.07435245784115067 0.00759825801428728 -0.010273438258624305 -0.051715449636926925 0.019507822055741163 -0.061730255810343276
-0.02316616619399405 0.001461836119438855 0.06711129432114883 -0.010014190491489524 0.0005224866736765338 0.002270152238474126 -0.05862216884050613 0.003021194200280315
0.06776477988536853 -0.05638359712262501 0.03509767080509541 -0.01828865159597257 -0.011095681936737795 0.07505969210539216 0.002718578990596966 0.05437699026798015
-0.011487662332847686 -0.00033240570419179496 -0.02529153244030406 -0.02310274610191683 -0.06789966852148753 0.0015165544726075248 0.015814939557599432 0.027601606675731187
-0.07374431543022096 0.04612828445087992 -0.04972639432869095 0.0032752326688852205 -0.03809879855072661 -0.045948833541516416 0.02228737995909685 -0.027116166559841715
0.06155135950408295 0.014768271156131522 0.05382802173433482 0.016809407017202453 0.0630688690015538 -0.040893048608947144 0.05150366325571736 -0.00928726355962488
-0.07260815107611027 -0.03101145875407513 0.012251098651745023 0.004327953319287137 -0.051676878578928484 0.024482134278644114 0.002832196496330513 -0.04410056267147866
-0.04783543200722846 -0.06496980820527248 0.03335358035318389 -0.06922611380300094 0.048323985651461135 0.0025703914826555874 0.06808886176461339 0.03785391458380857
0.0038377741510004274 0.0418086399904151 -0.040749925674685 0.07477664589141492 0.02792480096790761 -0.017175058067442957 -0.06302299516580845 -0.030957480961168057
0.016714994928133282 0.053338280682333754 0.004322799554556611 0.026777107250723586 0.015983650033589772 -0.04806727658104837 0.014857690949111083 0.010955697883942092
0.03659518132214906 0.07083321595977216 -0.030553636201879657 -0.074465292807272 0.041282171271263116 0.04346448052331365 -0.024928402028496614 0.022524522752322418
-0.024474930729964775 0.02568095809910131 -0.08970565087349433 0.055217490513859775 -0.011998200895487055 0.008896919714915323 0.04288338280980095 0.0258976261145644
-0.02261948856518061 0.016012801933619678 -0.01966751405838228 0.04090429227162554 -0.014568094213016467 0.033641947427294705 0.029514927849286953 -0.009561901734447903
0.01197805539358924 -0.056058269689515126 0.040809267895232225 -0.05357118379225065 -0.08025137219158207 0.038083390682961404 0.022650638373687984 -0.0875173528889229
0.07590201116279947 -0.004684890170739898 -0.03836177031750755 -0.024164744095024684 -0.06042464986134245 0.031263820733720867 0.04265208419128682 0.05075517001791001
-0.028433854390706628 -0.0215832905801615 -0.06281692018528988 -0.0820843045309757 0.019142095602196766 -0.03373979839558912 -0.05677741426465981 -0.025186570859702752
00000000: 4b5d f754 b5cb ac3f 4e22 2a0e 2c11 b23f
00000010: d34c 7a13 4905 ae3f cd54 e44f 71ac a6bf
00000020: 72f3 9edb 9182 b0bf b5a3 91fa dc01 723f
00000030: 284a e5a7 d9fe b1bf c5bd f2fa 6b47 943f
00000040: 5372 1980 1026 8c3f 38b4 1e2c 137b 92bf
00000050: ce9a ec79 2e43 a33f 014e 2717 33bd 943f
00000060: 1ac5 3836 3e3e a93f e8c8 014a f084 ad3f
00000070: 82c8 9671 0e57 aebf 656f bdcf 304d 993f
00000080: 0a7a f4de 2c6d 8fbf 458d 0f94 a7d7 b53f
00000090: d0a9 57b6 cf6c ad3f 8900 e6f1 241a adbf
000000a0: f17f aaf1 05ae aabf 6109 44fc 05a8 b03f
000000b0: 1e6b ee77 1ef9 7fbf c4e3 cc3c e53d a03f
000000c0: 21f1 38d5 4b15 7dbf 6289 eda1 66a3 6cbf
000000d0: 3e35 a10f 3d0a 9cbf 631b d52c 5a5b 973f
000000e0: 75cb f33c 4133 963f 4b88 98c6 33df acbf
000000f0: 0663 c554 9436 aa3f 2240 83fc 19ac ad3f
00000100: 2798 2ff6 5562 a6bf ee43 10a4 d1de 873f
00000110: 3d72 11b7 a235 afbf f1f2 5164 3b28 763f
00000120: 2a60 d2c3 515c b0bf 3694 c922 155c a33f
00000130: aca9 34e3 594c 963f 8327 2d2f ac05 9ebf
00000140: 416d da3c 66fb a7bf 1612 6c07 fff1 a8bf
00000150: 8bb6 ea66 28a5 993f 22d5 99d0 12d1 b0bf
00000160: b5b5 70a3 d068 a03f fe0c 4aef f7c9 913f
00000170: 132a 762b a9bb b13f 646f f9d3 db97 a83f
00000180: 0bb8 6f68 5f3c 61bf af8d 0d2a 8bbf a9bf
00000190: 2776 e5a9 fe1a b03f acf3 5428 5679 923f
000001a0: 6c5f 4898 67d6 b13f f9fe d1a1 8fdd b33f
000001b0: 3af4 5ef0 b8c7 adbf 26f4 e7da 95cf a63f
000001c0: faf3 88a9 6b0b 98bf 1fb0 c364 9023 a73f
000001d0: d30f 23ff f538 a93f baf8 1de2 003f b33f
000001e0: 72a3 8fc3 e63c 7a3f c349 0236 c40f 90bf
000001f0: 7567 0d0e 47d3 acbf b002 3642 1432 93bf
00000200: 15ea 53fc 4506 b1bf fad7 3008 3096 a7bf
00000210: 0cd3 f26b 53fc 973f 249e eb00 10e5 aebf
00000220: 084d 02c4 c6a7 363f 140b 9a9b d212 b23f
00000230: 50ea 3a28 804c 66bf d867 f60d 1012 95bf
00000240: e948 3078 90ed 603f 4360 0fd0 3eb9 9ebf
00000250: 7290 fa8c f4ce acbf b4e1 9f80 6f9c 99bf
00000260: 81a7 ba78 9ce5 a7bf 24e7 5f79 5c9c aa3f
00000270: 5a3e 7ffd 3d70 a13f ec43 d4b4 4a23 a0bf
00000280: 94ed 8bee f098 a13f d1c6 86ad 467a 933f
00000290: b0ef 1bb5 4ec6 7cbf 9be1 212c 22b8 843f
000002a0: 83f9 2dcf 7fb0 973f 1949 f188 b73c b13f
000002b0: 8ebe 7908 c31b a63f d4e8 7cf2 1b96 b6bf
000002c0: bd8d 1cc0 709e b1bf bbc4 ffaa 6519 abbf
000002d0: f0a7 1395 b8eb 9d3f 3214 0c3e 5fcc abbf
000002e0: 5ad1 0fad c9aa 9d3f 8fe4 6abe 8005 b13f
000002f0: 4dfd 040c 5832 a3bf 2d36 7a2f 4146 98bf
00000300: bf90 edfc 2878 333f e074 a8e1 f784 a83f
00000310: 9711 5022 752f b4bf c436 5dfe d4f1 723f
00000320: e26c e12c 274a a73f 2de0 6c7e 8e54 7dbf
00000330: 4ddf 45a0 ed84 9f3f 62cf 0bb3 7c62 973f
00000340: fc0d f2b4 ec4b b53f 3546 0140 faa2 7cbf
00000350: 0015 7e41 ae60 a8bf c832 b6a5 3b1e b33f
00000360: 73b3 0ea8 7513 9bbf ce52 45d8 a1be 673f
00000370: 8372 e87d c241 a1bf 4106 c23c 6d2d 963f
00000380: 730e f21b 731f 6bbf 089e ffcc 3695 9e3f
00000390: 8194 7800 42a9 8ebf c3e5 05d8 3495 a83f
000003a0: 5ea0 12f6 5f1e b1bf a565 a94a 1796 a53f
000003b0: d366 9b58 e728 a43f e458 e70e ae3e 6bbf
000003c0: edef 0b57 6200 90bf 3df9 9ab3 d35d a4bf
000003d0: c6f0 8e83 da75 80bf a7b1 f01d 9d86 943f
000003e0: a699 dc60 20ab a5bf a73d b604 b48e 80bf
000003f0: e435 98f3 aa7f a83f 2690 dcde b341 b3bf
00000400: 7160 75b4 33aa 833f 3237 eecb 6fb9 94bf
00000410: eb11 ce3e c308 b3bf 14d1 d8da 591f 7f3f
00000420: 1cc5 b48a 3d0a 85bf 38ee c689 727a aabf
00000430: 767d fbc6 dbf9 933f 6c1e c2ab 1b9b afbf
00000440: a526 b518 dfb8 97bf 3d76 ce94 62f3 573f
00000450: 5933 4dae 342e b13f b140 41e5 5182 84bf
00000460: 805d 8896 ef1e 413f bec4 e0b3 da98 623f
00000470: 372b fb93 b903 aebf a948 1f49 e7bf 683f
00000480: d6a4 6d59 0859 b13f c553 5893 4fde acbf
00000490: 011d 8c68 52f8 a13f b976 f8a1 42ba 92bf
000004a0: f060 5c38 55b9 86bf 452a d7aa 1c37 b33f
000004b0: 830b 66fb 4545 663f 9036 b605 4dd7 ab3f
000004c0: 7671 37f0 d786 87bf ecdf e5a0 d7c8 35bf
000004d0: 8b8d c902 06e6 99bf f474 d20b 3fa8 97bf
000004e0: f782 b567 df61 b1bf 3b69 32f7 e3d8 583f
000004f0: ee9e c0a0 ca31 903f 7e10 f577 9843 9c3f
00000500: b7e8 094f e8e0 b2bf e233 4662 209e a73f
00000510: 5d8a c7ea bc75 a9bf 4f8e 6326 a9d4 6a3f
00000520: 7fa3 958b af81 a3bf 4948 b302 9b86 a7bf
00000530: 4fc1 26c0 80d2 963f dd06 4522 57c4 9bbf
00000540: ed51 30e8 a883 af3f 2f86 12cd d33e 8e3f
00000550: 2829 eab1 588f ab3f febb 9d35 7c36 913f
00000560: c5e3 c109 4825 b03f 3e7e d104 efef a4bf
00000570: 0771 9d2a b05e aa3f 1939 106a 3305 83bf
00000580: ee7f 4ba2 7296 b2bf 119b 99c4 77c1 9fbf
00000590: 09ff 64a0 1a17 893f 7472 701f 30ba 713f
000005a0: 9666 e94e 6475 aabf 0592 4038 d811 993f
000005b0: 3f94 7bea 8b33 673f 9082 d154 5994 a6bf
000005c0: 9945 1fc0 e27d a8bf dc12 7881 dca1 b0bf
000005d0: dc92 a471 b813 a13f e924 d076 cdb8 b1bf
000005e0: 3286 f8e3 ebbd a83f 00b8 636b 800e 653f
000005f0: a139 808a 456e b13f 5c79 539a 9661 a33f
00000600: 4bb3 f94e 6570 6f3f 95ec e52a f167 a53f
00000610: d9a5 2c9c 2cdd a4bf fcb2 9bf0 8f24 b33f
00000620: ff2d 9eab 5198 9c3f af86 d3a2 5696 91bf
00000630: b813 2267 4622 b0bf 6cd5 2d61 51b3 9fbf
00000640: 32cc 4652 bc1d 913f a79c 4fb6 274f ab3f
00000650: 807a 6cab c8b4 713f a380 b13f 756b 9b3f
00000660: d4ef a898 045e 903f 80c6 d829 469c a8bf
00000670: 5599 c385 b56d 8e3f ab5c eee0 f06f 863f
00000680: 488c f085 9abc a23f bc89 042a 2022 b23f
00000690: bb37 0bd1 7349 9fbf 1157 4b4d 2810 b3bf
000006a0: 3230 09cf ef22 a53f f140 c5f4 f940 a63f
000006b0: d1d3 d0bd d486 99bf 6022 5122 ab10 973f
000006c0: 046f 3acc f40f 99bf 7f8f a9ec 1b4c 9a3f
000006d0: 0e9f c414 f3f6 b6bf 1933 d987 7745 ac3f
000006e0: edd7 a743 8392 88bf ef82 af59 8c38 823f
000006f0: bd7d 6b8d cff4 a53f 2a09 d344 e884 9a3f
00000700: a60c 8f2e 9029 97bf c927 7df2 a865 903f
00000710: 9b8e b286 b823 94bf 5533 254b 68f1 a43f
00000720: 9ffb ad81 e0d5 8dbf c8ad f26f 8439 a13f
00000730: f30a 6d47 2939 9e3f 706a e5b9 3095 83bf
00000740: d52b 7b61 f387 883f e33f f965 abb3 acbf
00000750: d3aa f7cd f3e4 a43f 0c9c caa4 ae6d abbf
00000760: c09f 059b 5a8b b4bf c01a 028b aa7f a33f
00000770: 44ad 319c ba31 973f d68b 7d88 8967 b6bf
00000780: ef14 a56f 506e b33f e74f 19a1 7630 73bf
00000790: f257 dc69 27a4 a3bf 24d8 6a86 a4be 98bf
000007a0: d2ad 0dce faef aebf 69dc 32bf cf01 a03f
000007b0: cb66 6a75 7ed6 a53f 36e1 a8e6 94fc a93f
000007c0: 5449 d4aa c31d 9dbf 1e39 ba1c ee19 96bf
000007d0: 9bcd d409 c514 b0bf c8b6 791b 7a03 b5bf
000007e0: f175 5a4a fc99 933f 5a89 5dc5 5746 a1bf
000007f0: c718 d6e2 ed11 adbf 7a30 9028 82ca 99bf

encoder.1.0.bias f8 [64]
-0.019171055400851 -0.07061548531042883 -0.01819427310806191 -0.04833277687584402 0.006108470264055218 0.029193758968206102 -0.03736899420148307 -0.039726328129476254
-0.059609744697465085 -0.01926727221091005 -0.007911585280409894 -0.012305915350737759 -0.04829937964805652 0.007288031279015096 0.03966837376766566 -0.04078698903575415
0.003900885580485397 0.06937120855006387 -0.005793079728632658 -0.0370748750957462 -0.04640871658680683 -0.01961673425121088 0.038856253029104164 0.0016620159083140533
-0.016332156979567563 -0.02943553775507246 0.05258742720666118 -0.028099600228484293 0.06105493008669328 0.03494867683194744 -0.05192496999994209 -0.06463243067970517
-0.04492686688729992 0.011680036778981266 -0.048582192515264105 -0.02872589230718089 -0.02845712005774368 0.002959169454602755 -0.061821013685915006 0.031324915585042586
0.008818373090004867 -0.044256456194135506 -0.044754479084124756 -0.014043983064758502 -0.05908944085378956 0.03421594203265212 0.05070102960012839 -0.042487666011916884
0.006370738152090807 -0.012243535370321579 -0.05109187215689856 -0.0003986209640853886 0.06137417257904292 -0.005972012887244193 0.02442109585105534 -0.019098926336317743
-0.022261999544060617 -0.03247974067036196 0.010215036568509204 0.036615878345846925 0.03866536169997097 0.026825129980544943 0.03666736185299685 -0.032386042174909556
00000000: ede4 e7bf 93a1 93bf a0dc ff3f db13 b2bf
00000010: 2afc e4ff 84a1 92bf 0f63 03e0 12bf a8bf
00000020: d60a 3400 3205 793f 4521 1000 f8e4 9d3f
00000030: 2ca6 f55f 0722 a3bf 6a68 3660 0257 a4bf
00000040: 453e ff1f 2b85 aebf 1aaf 1dc0 ccba 93bf
00000050: f39d 4f00 f333 80bf b881 d4ff d733 89bf
00000060: afcf 0240 b2ba a8bf e8f4 edff 0dda 7d3f
00000070: 9406 09c0 694f a43f 5d91 0540 08e2 a4bf
00000080: f3c1 cbff bff4 6f3f 4aab 01c0 4fc2 b13f
00000090: 9d3d a4ff 7bba 77bf 493b 1460 7afb a2bf
000000a0: c6b5 fa1f e2c2 a7bf d7ca 40c0 6816 94bf
000000b0: e79c 0280 f7e4 a33f 075c 2ffe ff3a 5b3f
000000c0: 3bca 6680 60b9 90bf a02a fe7f 5924 9ebf
000000d0: 8c18 1140 bdec aa3f 714d 0c40 24c6 9cbf
000000e0: 71bd f67f 9742 af3f 4c39 1000 cbe4 a13f
000000f0: 6cb6 fddf e895 aabf 1ac3 0740 c08b b0bf
00000100: f942 fc7f a700 a7bf dcba daff b3eb 873f
00000110: 24c5 0ae0 c3df a8bf 37f2 0700 526a 9dbf
00000120: fa06 f2ff dc23 9dbf 3ea6 fc00 d43d 683f
00000130: 2520 f9ff 00a7 afbf 41b6 f9bf d109 a03f
00000140: f737 3400 5e0f 823f eb38 fb3f c8a8 a6bf
00000150: 1d1b 0820 0fea a6bf f9ed bf7f 17c3 8cbf
00000160: 340c 03a0 f840 aebf d36b 1080 c084 a13f
00000170: d71c 0340 7cf5 a93f df54 0280 f1c0 a5bf
00000180: 29d7 3b00 3418 7a3f e00a 0680 2313 89bf
00000190: acb5 02c0 b628 aabf 6250 1601 c01f 3abf
000001a0: c793 1780 6f6c af3f bf0c ac00 1c76 78bf
000001b0: 0012 0d00 d801 993f 4946 0340 ab8e 93bf
000001c0: 63f4 f07f d9cb 96bf 8f6c ec3f 2fa1 a0bf
000001d0: 05dd e9ff 9eeb 843f f4fa 0400 51bf a23f
000001e0: d790 fa3f f2cb a33f d5d8 e8ff 0b78 9b3f
000001f0: f87a fa7f 10c6 a23f fbe9 f93f e794 a0bf

encoder.1.1.weight f8 [64]
0.9877342465948917 0.9976802656546906 0.9898065394366852 1.0239414079603038 0.9855402674860052 0.9801216962086702 0.981135868503622 0.981094317604973
1.018186658627899 1.0131400535589337 1.028722470022569 0.9864858322640272 0.9984325086265246 1.0400908524989125 0.9794722902990967 1.00858405988897
1.0357938051958746 0.9908453020495924 1.0045058666720026 1.0063312782088116 1.006122867283922 1.0114115104641352 0.9902471157985786 0.9947201978182121
0.9906075621893741 0.9914476955210636 1.003826182381629 0.9925961918199703 0.971172549299315 1.0102323553971218 1.0116873292455661 1.0167466137571886
0.981294095727293 1.0248107268210214 1.0020267298926777 0.9900005036947246 1.0075263446419864 1.0006670989461124 1.0375606131897082 1.014101985776374
1.0182984880242887 0.9874945289900013 0.9818563131944301 0.9887882865890123 0.9897800051103179 0.9871665054525739 1.0161318292223782 1.009132986418179
1.0145845251581473 0.9994931674684965 0.9742285922196298 1.0011099000175583 1.0210917842503608 1.0276361590524838 0.9878136888588112 0.9924100914595332
0.9816318396713745 1.0081955349999525 0.9860727925012165 1.0084409234113512 0.9915642176794877 0.991379629685378 0.9739667321154508 0.9887532234444278
00000000: d074 c8d9 849b ef3f 643f 1b2a ffec ef3f
00000010: 7feb 87c3 7eac ef3f ed5a c362 1062 f03f
00000020: a0ca 37be 8b89 ef3f 031f ea2c 285d ef3f
00000030: c8fa 840c 7765 ef3f 17f4 0ce9 1f65 ef3f
00000040: 487c 0018 7e4a f03f 5ada 4458 d235 f03f
00000050: 3284 56b1 a575 f03f a552 71bc 4a91 ef3f
00000060: 9b0d 7abb 28f3 ef3f 1ca0 454e 36a4 f03f
00000070: e487 c545 d657 ef3f 2bd7 070a 2923 f03f
00000080: 6973 6b86 9c92 f03f fe57 f634 01b5 ef3f
00000090: 34f1 5fbe 7412 f03f 5f94 8dd3 ee19 f03f
000000a0: 06e0 ab4a 1419 f03f dedc 03d6 bd2e f03f
000000b0: e605 2ab8 1ab0 ef3f 8c98 c973 bfd4 ef3f
000000c0: b9c1 58a1 0eb3 ef3f 1ea4 7e84 f0b9 ef3f
000000d0: 7c29 030b ac0f f03f 7f07 c016 59c3 ef3f
000000e0: a36e 4074 d813 ef3f c0aa fc66 e929 f03f
000000f0: 5832 8e0d df2f f03f 707e e618 9844 f03f
00000100: 0103 1de0 c266 ef3f 9794 c4ee 9f65 f03f
00000110: c4b5 292e 4d08 f03f 4a8e 4c89 15ae ef3f
00000120: 3888 c1f1 d31e f03f 0b82 0281 bb02 f03f
00000130: b147 5428 d999 f03f ae7d fb00 c339 f03f
00000140: ce16 fa5a f34a f03f 1bb6 5f20 8e99 ef3f
00000150: 9951 51ee 5d6b ef3f 762a 3255 27a4 ef3f
00000160: 77df 051e 47ac ef3f 5d03 1436 de96 ef3f
00000170: d3f4 ee72 1342 f03f bbb1 5fa1 6825 f03f
00000180: 984f a9fb bc3b f03f db48 5b18 d9fb ef3f
00000190: 6f2a cd70 e12c ef3f 966f 84d0 8b04 f03f
000001a0: 081d b956 6456 f03f 5e14 f59c 3271 f03f
000001b0: 2212 0674 2b9c ef3f 0340 e1ce d2c1 ef3f
000001c0: 513a 032d 8769 ef3f b0c4 2ca4 9121 f03f
000001d0: 6e94 6887 e88d ef3f 28ff 1ff3 9222 f03f
000001e0: b426 dae1 e4ba ef3f d16a edc5 61b9 ef3f
000001f0: c87d ba47 bc2a ef3f cc44 d0cc dda3 ef3f

encoder.1.1.bias f8 [64]
-0.003167331417872306 -0.010495436626903809 -0.011180520100589498 0.019924927091715578 -0.00430137477956242 -0.019288217425815515 -0.0005677351580252119 -0.0022795624065467244
0.00921636300667306 0.017775572037586333 0.007284646301643097 0.016870955125904676 0.005557801879100014 0.023813119798373205 0.011980595183607189 0.005126512587319662
0.01872254869012175 -0.026296809876586245 -0.014601381607285975 -0.012216541388857886 -0.002486451335222038 0.013251986236499693 -0.0074751647644554975 0.004043288527522162
0.005002237502903244 0.008847397720579964 0.004980134075833375 -0.014703945766483395 -0.0027333964945965095 0.008609075695913765 0.03250747402089493 0.014302491234283055
-0.005322749017899748 -0.020406492431214947 -0.017104927746677767 0.017657127572662353 -0.008090811477042433 0.003103985897342946 0.01588541990654036 0.030744742138568645
0.02069970299003672 -0.0003807621210919678 0.016832281742703483 -0.0018668171454424038 -0.010675981003634193 0.010097767871867652 0.01310665912055164 0.008528324715557402
0.010088318254451526 0.02057751600926276 -0.004846777220976652 -0.022555651975635273 0.021207524917030516 0.02818683130864254 -0.028374388258858876 -0.023300834877368524
-0.0015657697986506288 -0.002661612703098885 -0.01987072959993226 0.01554455496910844 -0.005232601238522042 0.016946831196944897 -0.0256188209134814 -0.011882626701758233
00000000: 2a11 5f1b 60f2 69bf 53ef 8ea8 a17e 85bf
00000010: 9a73 7901 d0e5 86bf a5b8 ef38 3367 943f
00000020: 2ad2 1880 519e 71bf f705 2b5c 4ac0 93bf
00000030: cb7b dff7 819a 42bf 3da7 87bf 96ac 62bf
00000040: 0222 9d4d 07e0 823f cec8 4672 c233 923f
00000050: b745 0e5a 81d6 7d3f 2a7a 12a2 9e46 913f
00000060: de21 ef14 c7c3 763f a3bc ff6a 7762 983f
00000070: 0c6d 0044 4889 883f fd2a 7bbe 89ff 743f
00000080: 9290 49f9 002c 933f a6e2 a209 8ded 9abf
00000090: c471 d643 54e7 8dbf 4f0c e26d fc04 89bf
000000a0: af39 5f65 775e 64bf 7b45 f17b db23 8b3f
000000b0: d7f6 2043 479e 7ebf 366c e7ff b18f 703f
000000c0: c56d b5e7 397d 743f 40b1 ea9e 951e 823f
000000d0: 4c32 c48f 0c66 743f 4d7d 8331 1a1d 8ebf
000000e0: 5231 a411 5964 66bf d07c 8094 a2a1 813f
000000f0: 5033 97d3 d1a4 a03f 7a11 d2e0 9f4a 8d3f
00000100: fb9f 4e8f 4ecd 75bf 9ff9 7886 70e5 94bf
00000110: 50f6 1645 f483 91bf df10 ddc5 b514 923f
00000120: 9e36 8955 ea91 80bf ef99 52bd 876d 693f
00000130: c261 ed7b 4444 903f ef52 09b8 8c7b 9f3f
00000140: 5438 848d 4d32 953f 60a9 8edb 20f4 38bf
00000150: a76a 684e 7b3c 913f 0d1d 96a5 ff95 5ebf
00000160: b94a 1bea 49dd 85bf 769c 2d76 23ae 843f
00000170: 3dbe 4202 aad7 8a3f 74a3 f15d 4c77 813f
00000180: 6fcb cb27 2fa9 843f 8cb9 2bb9 4512 953f
00000190: 4242 7bda 36da 73bf 671e 4d2e d418 97bf
000001a0: 497f cae7 6cb7 953f 650d 983a 02dd 9c3f
000001b0: a795 76f6 2c0e 9dbf 9638 128f 2cdc 97bf
000001c0: cb5b 0285 50a7 59bf 6f31 7670 cecd 65bf
000001d0: b412 1e17 fe58 94bf 7b1a c9d9 d2d5 8f3f
000001e0: 4452 14b3 c76e 75bf effd 0b97 825a 913f
000001f0: 9322 f1f7 d13b 9abf 8bd6 9828 eb55 88bf

encoder.1.1.running_mean f8 [64]
0.08976258718908446 -0.031125578572490587 -0.3759201322656385 -0.4132187133767069 0.1097307270075182 0.6247405555124735 0.12665245832188757 0.5653820006769201
-0.5134836827866107 -0.12136566813484471 -0.49602177275240644 0.25193103254328064 -1.071934779814659 -0.31353948313658225 0.3647820750925519 0.4546738250806392
-0.45193550720968106 0.6401818766242332 0.3641962895004044 0.36884836080691924 0.7104803022226154 -0.15709303504118827 0.6220128877942366 -0.9380043100745401
0.044241146611728004 -1.3516451642850387 0.3953730922163805 0.4050019528205141 -0.03460730374148754 -0.37591158256454194 0.23856012318846712 -0.6253852579099137
0.2915356250934549 0.3191888731035201 -0.5913917248041913 -0.1116476866231383 -0.7102564720060182 0.12898827222558704 -0.6295347719027427 0.49977118068804666
-0.26882169236427605 0.13445982309286084 -0.48773737217539026 0.2723037412777288 -0.9473779262961805 0.5121344362046878 0.4700648366241503 -0.6319228259698226
-0.29305877635119 -0.30285974746773064 0.8726462115604383 0.41857986579887696 0.011286659539182524 -0.20571387149774847 0.7676963998431688 -0.12873238373542112
0.027593221471994205 -0.6250720916736408 -0.1259238969968196 0.06348516265599356 -0.24020587517044 -0.7440087595023971 0.9671493191959446 -0.6462618605192865
00000000: c7a7 6150 aefa b63f edd5 2638 62df 9fbf
00000010: 544a 7f50 130f d8bf f414 03e7 2c72 dabf
00000020: 8914 dd1b 5017 bc3f 7926 cde7 dffd e33f
00000030: 51aa 39d3 2536 c03f 06f1 54fe 9b17 e23f
00000040: e423 1355 756e e0bf 9f10 7f07 d211 bfbf
00000050: 7ad5 041b d2be dfbf dcbc 6756 a31f d03f
00000060: 95fb 6b15 a526 f1bf 27e3 84e8 0711 d4bf
00000070: 3421 acea 9658 d73f 7363 443e 6019 dd3f
00000080: df78 d7e7 82ec dcbf c3f9 f2b3 5e7c e43f
00000090: 6aa4 2ef4 fd4e d73f cf54 b627 369b d73f
000000a0: 50f2 cf2f 41bc e63f 5e34 f7e3 9f1b c4bf
000000b0: 5489 5892 87e7 e33f c4de 689d 2104 eebf
000000c0: b779 ab8b c6a6 a63f a169 06ae 56a0 f5bf
000000d0: 706a 32f1 ca4d d93f 1a89 8b4f 8deb d93f
000000e0: 9b7b 8b6b 0cb8 a1bf 1259 5374 ef0e d8bf
000000f0: 81b2 9c5b 2389 ce3f 92f4 c3f1 2703 e4bf
00000100: b04c d909 85a8 d23f 7782 ce2a 976d d43f
00000110: ce16 a556 aeec e2bf 796e b85a f194 bcbf
00000120: d538 e1c7 6bba e6bf 6f62 630d b082 c03f
00000130: 148c 201b 2625 e4bf 3f76 2243 40fc df3f
00000140: 6f3c 4ae6 5f34 d1bf f7a6 67bf fa35 c13f
00000150: 22f0 a1cf 1637 dfbf 4d71 d7ab 6c6d d13f
00000160: df9e 4c83 eb50 eebf eef1 d4c1 6763 e03f
00000170: 4138 13d3 8a15 de3f 785c e437 b638 e4bf
00000180: 23fc 0e99 79c1 d2bf a984 a9d9 0d62 d3bf
00000190: 122c 74bf b7ec eb3f 1ab2 9734 03ca da3f
000001a0: 09a4 d0cc 751d 873f d14b 3507 d554 cabf
000001b0: cdaa 520a f890 e83f 7235 0a81 4d7a c0bf
000001c0: 2b06 41bf 6541 9c3f e22d ec2f 9700 e4bf
000001d0: 6c6f b135 461e c0bf ff83 6349 9040 b03f
000001e0: 2c01 15ed 10bf cebf a902 4075 ebce e7bf
000001f0: aa72 0921 e3f2 ee3f 6ca3 725a 2dae e4bf

encoder.1.1.running_var f8 [64]
0.32383920219747303 0.757490837730004 0.37189771663911475 0.9741531624288469 1.1769614330104217 0.36573113585743067 0.758396114750236 0.577209572898026
1.1073358348724958 0.7407484627205 1.3174023244563158 0.7036361792759834 0.6009379267960034 0.825433158461136 0.6524879306495643 0.6815311292274461
1.4988141655536231 0.5029832412866357 0.42601924136250036 0.41741206965790567 0.683251076033533 0.49943218460950384 0.7843768029152303 1.014347394525756
0.5347557162352748 1.0588324016237842 0.5095527648320364 0.5651879060505474 0.599181129481226 0.8008003402144821 0.47177308228429393 0.7365523085056723
0.22807851372163745 0.3491552705565924 0.8076108823707485 0.5210843872232052 0.9004907585839631 0.3825664374400666 0.6622534551606716 0.5717469519506442
0.8806570460902511 0.4771063869405152 0.7413731492202226 0.6617240488927548 0.4564758908036347 0.9450931399126485 0.7187726263067536 0.7652895387809352
0.7524948348238427 0.8334745603976077 0.6453880373471134 0.4696804936024298 0.9141471945711106 0.8374398781028035 0.6619446865168254 0.20299799274943697
0.7113481561166396 1.0983262853936133 0.4838723135705742 0.3313365590694301 0.7034357255246924 0.9075998112687758 0.8353448034744311 0.9817126790123214
00000000: c974 a60f c8b9 d43f 863d e26c 5d3d e83f
00000010: 3e03 9b14 2ccd d73f f2a8 bd40 432c ef3f
00000020: cced f682 d5d4 f23f 04be e890 2368 d73f
00000030: d680 c8ed c744 e83f f21f d135 8078 e23f
00000040: a975 c7c7 a5b7 f13f 5f4c be1e 36b4 e73f
00000050: 996d b375 1414 f53f 4dba 4805 3084 e63f
00000060: df79 d02c e23a e33f 6ffc 93cc f269 ea3f
00000070: 4896 655e 2ee1 e43f 4f9c e75e 1acf e53f
00000080: 7659 fd8f 24fb f73f c263 784f 7018 e03f
00000090: 4898 4735 e643 db3f 6eba 081d e1b6 da3f
000000a0: abaa 505c 31dd e53f 09ee dd68 b2f6 df3f
000000b0: e861 8861 9d19 e93f bc55 6455 c43a f03f
000000c0: c58b 1205 b81c e13f 6ab5 8e3e faf0 f03f
000000d0: 7a47 9199 414e e03f 489e 92f2 0416 e23f
000000e0: 1512 70e7 7d2c e33f 9819 fb08 28a0 e93f
000000f0: 82d3 e2b9 8731 de3f c167 9a25 d691 e73f
00000100: 7867 ad3e ad31 cd3f e90f 1159 8f58 d63f
00000110: 59a2 f5c6 f2d7 e93f 448e 322a b9ac e03f
00000120: bffc cefe d1d0 ec3f 588c 56f0 f77b d83f
00000130: b07f 7228 2e31 e53f 04e7 8643 c04b e23f
00000140: 1163 7eaf 572e ec3f b0d2 273a e988 de3f
00000150: 7b11 c12e 54b9 e73f 2513 9fe9 d72c e53f
00000160: 4280 9aa7 e636 dd3f 3029 f3f7 333e ee3f
00000170: d1eb 6773 2f00 e73f 0d1f a17c 407d e83f
00000180: 4246 3f0c 7014 e83f 1c95 5ed7 d2ab ea3f
00000190: d755 34d0 04a7 e43f 56dc e5c5 3e0f de3f
000001a0: dc37 0d9e b140 ed3f 272b 1ab7 4ecc ea3f
000001b0: 3d39 8b9f a62e e53f d898 0196 d6fb c93f
000001c0: 67e8 5235 5dc3 e63f caa4 4195 be92 f13f
000001d0: 276e 8e94 c3f7 de3f 2f08 4b41 9e34 d53f
000001e0: 46ee 7ea3 8b82 e63f 4e2a 68c2 0e0b ed3f
000001f0: a0cc 7906 25bb ea3f 9ca5 4db5 306a ef3f
