models/matching_nets/omniglot_n=1_k=5_q=15_nv=1_kv=5_qv=1_dist=l2_fce=False.pth (torch, 909263 bytes, 24 tensors)

encoder.0.0.weight f8 [64, 1, 3, 3]
00000000: 7a48 c290 fdc4 b6bf e412 647f 055a b4bf
00000010: 41ad b4a5 5821 c33f cc4b 9038 d84f c8bf
00000020: 2d20 afb9 b2a4 d63f e1b0 e564 cac7 c03f
00000030: 8421 8de5 3d35 d23f e133 e5e0 73a3 bc3f
00000040: c06c 7732 f942 cbbf 4afd 722b 338c d13f
00000050: cc1d a81f 433a ccbf 4479 9001 e074 cb3f
00000060: 9713 399f 427d c4bf 4ec0 c782 5257 d0bf
00000070: ce02 4242 eab4 db3f d277 f0d9 2500 cbbf
00000080: c807 bbe2 e020 933f 2b08 7b7c 8c14 cabf
00000090: 16f6 bf25 56bc b7bf 4174 02b1 9e3b cd3f
000000a0: 59ba 510a 695f c9bf a6d8 c23b 12a9 c03f
000000b0: b921 a5c4 5753 bfbf 97b1 5ffb 1c94 9ebf
000000c0: 5d50 1104 ad6a ccbf 73ab 3f05 ee10 d33f
000000d0: b757 3738 38c6 c1bf 414a 05d3 c810 9e3f
000000e0: c706 eb2f 65e1 87bf 223e 3709 828a c13f
000000f0: 7ad6 2294 0e3b d13f 4336 8ea8 e09b d0bf
00000100: dbe8 9aa5 ba3e c1bf 2c40 edc2 46bb c6bf
00000110: 47d6 73c6 f07c b7bf bd24 15fb 4731 d63f
00000120: cb47 851c a4f1 cc3f 8fb1 a2a9 77d9 c7bf
00000130: bac6 dd8d c318 61bf c838 5f67 5e7b d73f
00000140: fed2 03c4 f880 d3bf 2294 e453 a941 a23f
00000150: 45c8 9894 7690 d93f 457e 0d98 c6b0 643f
00000160: ae3c 7638 661f d1bf 4f93 873f bbfd ce3f
00000170: 3273 06df 0ca8 a9bf 6a3a a741 8df3 d33f
00000180: cc0c 428f 63bc bebf 97cf 959a 6ade c5bf
00000190: f430 df79 768a d1bf 6c14 cd29 908c b6bf
000001a0: d58f fd0d fbe6 d03f 71b5 b557 6a9c b73f
000001b0: ae96 26d9 97b4 75bf 2f81 4f77 10fc d2bf
000001c0: 750b 5c8b f606 ab3f c3f9 c886 9f5b c1bf
000001d0: a58f 9cd2 d122 bb3f d7ec 7b48 03e5 c6bf
000001e0: bf9a 29ca a4bf d6bf 4b41 e240 a273 c23f
000001f0: 680a ca4a 0751 6f3f 62e7 2c6d d7af c13f
00000200: 774e 8fcc 5efa d43f 4e4c 351f 7b5b cd3f
00000210: cdd2 e182 c711 cdbf dedf 88d3 fb0f d1bf
00000220: cece aea0 9412 b5bf c1e8 b236 15f1 abbf
00000230: 2443 5226 e43f d13f e3fa e1f4 76b4 b1bf
00000240: 8f52 9ccc 82ed 4cbf 6324 a2e1 0095 b2bf
00000250: bbe2 8f1f eca0 713f 147d 0d9a 1871 c2bf
00000260: f347 9e37 0c77 cf3f a0fb 50c2 7e24 aebf
00000270: 1351 8c46 aa5a cbbf bf23 3a19 980d dd3f
00000280: 46f8 e2e8 f397 d1bf 3dc0 acae c675 d03f
00000290: cc27 f51f f1c5 9ebf f85b 1948 a348 c6bf
000002a0: cc96 b548 0bf9 c43f 4d6e 6cf6 19b4 d4bf
000002b0: 592d 7510 09db d53f de98 3898 1b9d cb3f
000002c0: 0753 adc9 6f86 d5bf ddbd 86e1 c707 c33f
000002d0: 13fe a546 e970 8abf cd57 756c 12a3 ac3f
000002e0: 02f3 be69 f859 b23f 786c 911f c7d3 cbbf
000002f0: cecd fe0a ee79 cebf 98cb 4c9c 3b40 d1bf
00000300: b812 6132 8dbd cc3f 5868 0ec4 f85f d03f
00000310: 5947 b064 02d9 c53f 0189 d9cb 673d c33f
00000320: fad5 541e 8f4a c33f f993 4371 f066 d3bf
00000330: 4dfd bf94 c5f8 c93f 145b d036 0e97 923f
00000340: 3053 b224 946f b43f 2195 2b3b 9b36 c83f
00000350: 4154 5e30 2ab6 c7bf dc96 4246 341d d0bf
00000360: 258a d599 9350 8ebf ecfb 3153 e69c d43f
00000370: bdcb 425b f996 a5bf eb8a 057d 2ee7 ce3f
00000380: 33f5 c069 8dcc da3f f197 f48c 36a8 b33f
00000390: 470f f870 2fad b23f 0eda 6c6f a109 ca3f
000003a0: d0ac 6837 fc5c c43f 5e91 ad7e 0142 ac3f
000003b0: ee9f d110 82e1 ab3f 0dc2 8b5a f362 a0bf
000003c0: 9313 0558 dd93 a03f 5b4e 93af ba32 ccbf
000003d0: 61a1 3460 7516 c83f b9e6 b818 0d1f cdbf
000003e0: 93d6 0440 3e06 52bf 36fb 73c3 a28d d33f
000003f0: 7cc8 8491 f0a6 c03f fbe1 5ed0 8425 d63f
00000400: f058 57a3 e0f8 80bf 679e b6ed f379 d3bf
00000410: cb10 f71c a017 c7bf 21ed 11d1 365d d13f
00000420: 69b2 6fc8 c3fc a33f 479d 4474 d055 b6bf
00000430: 839b d383 662a c2bf ac6a 663c 9663 cdbf
00000440: 23a4 9ea3 89d6 83bf 328a e291 368a bebf
00000450: e7a9 fe7c dda4 973f d309 176e 36d9 bcbf
00000460: 0899 0f70 a538 cc3f e947 f093 e587 d5bf
00000470: e272 db43 dc10 d03f e6d0 0a65 8e4d d0bf
00000480: 3d1d 22ed d102 a5bf dbf2 6ba7 3f8c 9a3f
00000490: 80a4 2ed5 a83b d4bf cd72 b69d 6525 d23f
000004a0: 7230 534b 06d2 d43f 499b 1f1c 4b03 d53f
000004b0: 684f 04cb 4391 ab3f eaba 0c62 9890 d1bf
000004c0: 6853 799f d8a5 cc3f 5972 5bc0 17f9 c63f
000004d0: f066 506f 57be d6bf 2342 1676 e073 9cbf
000004e0: ea65 3cca f520 d23f 02f8 fe60 84af d03f
000004f0: adbf e698 278d d63f 8bdd 4c31 609a c0bf
00000500: 7039 565c de7f 963f 4ebc 87c8 d33e babf
00000510: cf24 3d99 b701 b63f 6b59 f64b 7d11 d23f
00000520: 336e ecc5 5da3 d1bf ce58 a79d d3fe cdbf
00000530: 6f1d 7ca1 418a cc3f 5775 9c5f d8ef d13f
00000540: fcca 6cf3 773a bc3f 822f a5f0 8b07 aebf
00000550: de50 f2e0 848a 20bf 4956 139e 0375 b23f
00000560: 8f93 a25e 5420 c6bf f033 eb46 0028 d6bf
00000570: 3659 6bfb 2386 cdbf f323 96dd 7b3a a0bf
00000580: 3d26 f88a ad06 c4bf f987 0697 aced d6bf
00000590: 78e9 5573 a799 703f a0ff 708e 727d a8bf
000005a0: 873e 9bc9 4d9a db3f aea4 ac37 c4a8 cabf
000005b0: a107 7942 4ecd c1bf a88e 33da 0506 c2bf
000005c0: 3c93 858f a0f4 ba3f 3504 6820 79ea bd3f
000005d0: 624f cbe2 96e2 aebf a63f 51b6 56b3 a03f
000005e0: 41dd 9fd5 b611 d33f a786 4416 2f8d d1bf
000005f0: 0f1f 2588 fbd2 a93f 80e8 0a1d 5647 ca3f
00000600: 5df7 c4bc 5a7a d43f 027d f7f0 61f6 cf3f
00000610: 968e 64b3 ff9f a2bf 573a e451 b902 86bf
00000620: 34eb 438a d0d9 b6bf 1528 9921 6480 c0bf
00000630: bd00 e22a 20a9 a7bf 5d81 0958 08f8 bf3f
00000640: ceea e8aa 8f3f b7bf 316e 7053 7702 d5bf
00000650: 2061 c80e ef16 b4bf 1b43 dfa8 b8dd c73f
00000660: 4cdb e18d d944 d83f 7167 e643 ab55 c03f
00000670: 6b40 87b3 7052 c93f 7ef6 4cf7 9b83 ca3f
00000680: d753 252e 7d4b a5bf 372a 9a66 1854 babf
00000690: 13b1 939a 53a5 cf3f 761c be10 1835 b83f
000006a0: f36a 7c0f efa4 cfbf d8d6 9885 e736 c33f
000006b0: 04d4 bb25 7148 bb3f 85a6 1b45 ca27 c9bf
000006c0: a8d9 073b 3201 bebf 7661 efbc 82db c7bf
000006d0: 5e6b 2c29 9418 dabf 727f 41df 1c1b c1bf
000006e0: f513 aae3 2cbf c9bf 24c6 70f7 79cb d2bf
000006f0: bae6 46d1 efe7 d4bf f573 4aa5 233a d6bf
00000700: b8f2 8f73 f166 c23f 3466 bec4 3324 bb3f
00000710: f3f7 7529 59b4 cdbf 1195 2378 4509 b53f
00000720: 0574 7a4b 0376 c23f f82e 739c 4ea0 b8bf
00000730: b596 a5fa 98da 923f 29f9 d5db 31cf c23f
00000740: 0e78 6cae a309 893f 66c6 443d 8bc6 d33f
00000750: 8cd6 7e05 16ca 8abf 086f 8132 e75c b83f
00000760: 68df 5ad7 cdff cbbf 4205 a137 ceea d43f
00000770: d4b8 5fb6 4ce7 c9bf 953b ac41 c560 a7bf
00000780: 605a 33ab a320 d33f cc42 11f7 c49d d1bf
00000790: 5241 8200 943a b33f 45b4 e197 3193 db3f
000007a0: 7601 72ee da31 9dbf 2442 ecf0 2db4 b8bf
000007b0: 4c8c b65d 9f9b cc3f 322c 1ad2 b9b5 c2bf
000007c0: ede1 69fe b91b adbf adaf b5f9 07f5 c03f
000007d0: c638 d435 b80c bfbf 978b 047b e28b 853f
000007e0: cbdb 2819 a1a1 a1bf 7093 ea85 17e6 c5bf
000007f0: 84eb f05b 1d49 87bf 7a7d 7497 9899 b93f
-0.08894333633569032 -0.0794986186993572 0.149455147658367 -0.1899366642179231 0.3538023770638599 0.13109712530729836 0.2844996206008761 0.11186908951385945
-0.21298136676964496 0.2741821216877339 -0.22052802129495175 0.21450424267181678 -0.16007263922270162 -0.2553297307158616 0.43291717977994615 -0.21094201222962156
0.018680108870064577 -0.20375209882883047 -0.09271753713252226 0.2283819546036359 -0.19822419170255293 0.1301596442987762 -0.12236546088127555 -0.029861882059707048
-0.22200548838248127 0.29790831101006815 -0.1388616823666646 0.02936090267150804 -0.01166037609562255 0.13703942728032908 0.26922955004133764 -0.2595140119600254
-0.13472683988749776 -0.17759022252948975 -0.0917501911643167 0.3467578842142521 0.22612429993256308 -0.186324079351277 -0.0020870036523142595 0.36690483183782563
-0.30474681036075413 0.035657207003432015 0.3994423342838938 0.002525699499912356 -0.26754146112302635 0.24211826898604236 -0.05011024687266853 0.31174022113274324
-0.12006208655843692 -0.17085011051278506 -0.27407609845683045 -0.08808232327017301 0.2640979420305006 0.09223045960762534 -0.005299180180747305 -0.29663478518888814
0.052787498962081715 -0.13560861665059862 0.10600005523570973 -0.17886391677152488 -0.35544700376923893 0.14415386360316015 0.003822817079993702 0.13817875700788834
0.3277813909200868 0.22935427688443827 -0.2271050824234834 -0.2666005674141142 -0.08231476710244154 -0.05457369129858725 0.2695246099693114 -0.06915992239553818
-0.0008828056972754616 -0.07258611210467474 0.004303858143423762 -0.14407641908744806 0.24582054820763197 -0.05887218591714505 -0.21370438046199833 0.45395472014984856
-0.2748994612010204 0.2571884828385043 -0.030051963401355228 -0.17409173031293768 0.1638502221132313 -0.3234925180893001 0.34149386031341106 0.21573204929990814
-0.336330363226168 0.1486749507143789 -0.012910673588293375 0.05593164037661289 0.07168533879935171 -0.2174004463330197 -0.2380960038841366 -0.26954546226186826
0.224534654235091 0.25585765024300633 0.17068509975848192 0.15031144574738423 0.15071286183380989 -0.3031579118817827 0.2029044128721388 0.018154356093954396
0.07982755561745303 0.1891664542119225 -0.1852467285322366 -0.25178248273219395 -0.014802125103135453 0.32207639812980804 -0.04216746558213156 0.24143010239193727
0.4187348873855001 0.0767854780320645 0.072955098228758 0.2034189027851458 0.1590876837302404 0.055191084588644954 0.05445486502941309 -0.03200493316933626
0.03237811755619826 -0.22029813359277992 0.18818537900484514 -0.2275101061548435 -0.0011001212988736339 0.305519762870904 0.13009459596065998 0.3460399660939683
-0.008287196144845826 -0.30431841100878504 -0.18040849127112887 0.271314338846155 0.03903781720859884 -0.08724692190718485 -0.14191895901532456 -0.22960164975377972
-0.00968654184892343 -0.11929646550792297 0.02308984828384011 -0.11268940150970445 0.22047870609021225 -0.33641948172691954 0.2510290777843648 -0.25473365657241087
-0.04103714008038615 0.025925631135566767 -0.31614132708143217 0.28353252793912703 0.3253188834758084 0.3283260130541988 0.0538426575969016 -0.2744503934399477
0.223811223858003 0.17947670834009236 -0.35536752577318875 -0.027785784919219247 0.28326172589876697 0.2607127139307296 0.3523653977563253 -0.1297111740802673
0.021972154985229364 -0.10252116819150212 0.08596370211775482 0.2823174707240443 -0.27559608772728267 -0.23433919141706955 0.22296924958230188 0.2802639898016727
0.11026715939514625 -0.05865132629932558 -0.0001261985021058292 0.07209799393907547 -0.17286162014820802 -0.3461914722982433 -0.23065614487013314 -0.03169619636452827
-0.156453793388481 -0.3582564806803244 0.004052785972243782 -0.04783208836351993 0.4312929600537036 -0.20827534407115905 -0.13907793279400685 -0.14080880312314048
0.10529521469068198 0.11685902634782581 -0.06032248991473811 0.03261824584535526 0.2979561887909377 -0.2742421834428605 0.0504377940838464 0.2053020135697956
0.31996792253982226 0.249706499728724 -0.03637694420674824 -0.01074738293803283 -0.08926108718507636 -0.12891818657436774 -0.046212201342315386 0.12487842702239989
-0.09081361696818677 -0.3282755198322063 -0.07847494231134933 0.18645389791211006 0.3792022595948097 0.127614410547547 0.1978283764460714 0.20714139533258796
-0.0415915602522216 -0.10284569268166242 0.2472328667421456 0.09456015022998251 -0.24722088104393655 0.1501130487756004 0.10657412692292217 -0.196526798004289
-0.11720575276544898 -0.18638643479676958 -0.40775016804552944 -0.13363991643108936 -0.20114670864509746 -0.2936692158137666 -0.3266562980385107 -0.34729853765185165
0.14376657622041988 0.10602115205110679 -0.23206629299596634 0.08217271979409115 0.14422646699395628 -0.09619609183863165 0.018412008569973454 0.14694808229610004
0.012225416908730604 0.30899315818087414 -0.013080760996540229 0.09516758902594458 -0.21874402060870612 0.32683139259832583 -0.20237120537735243 -0.04566017557782868
0.29886714667137504 -0.2752544796722247 0.07511258137151813 0.43085899192994176 -0.028510494998501078 -0.0964993203344951 0.22349922252496623 -0.14617083319566998
-0.056852161699627014 0.13247775738579773 -0.12128783525642736 0.010520715121463726 -0.03443625862239904 -0.171084347142052 -0.011369923942870626 0.09999993989594272

encoder.0.0.bias f8 [64]
00000000: 9be1 1243 55c8 cc3f 6182 0eff eb54 b1bf
00000010: 3d11 2b5e d180 c5bf 81ab c03e c2aa ce3f
00000020: 3d3a f511 40e3 6d3f 1568 c987 bfc3 423f
00000030: b802 f3fe 9cd5 aabf bd81 2d06 e5ee a2bf
00000040: 5bbb cbfe d4b2 a0bf 44c1 e3c0 ef29 c0bf
00000050: 7c0e 79c0 aeac bebf ac88 ce3f 83ba d0bf
00000060: b518 52c0 3578 c7bf 4c60 fafb 5b9e a0bf
00000070: e7e3 c69f 7ccb d43f 5109 2240 bf1a cf3f
00000080: 7b6a e93e fa73 c83f eb0d 4bbd f7a7 743f
00000090: 019a 0948 068d cb3f cdca 6e7f 9487 bf3f
000000a0: 3214 4100 07f2 a1bf 7ce3 b600 b072 c03f
000000b0: 8eaf 3807 20fc 703f 3463 6abf 56e5 bfbf
000000c0: 6f17 22c0 4726 ce3f 267c 1d60 6bb5 d4bf
000000d0: e7f2 1a60 9138 d33f 4dee 0303 ab80 a03f
000000e0: 03d5 e583 b7e6 bf3f 73d3 f03d bde0 c93f
000000f0: 658f 68f9 ef29 8dbf c90f 5bda 37d9 94bf
00000100: 4552 1801 3388 abbf 7150 a180 4316 b53f
00000110: 2233 41bf 5746 c93f a9f2 47c2 a7e7 c53f
00000120: b62d 9960 683c cdbf 71db dcbf a6bd ca3f
00000130: 0214 f99f d567 d43f e81d cd41 def8 ce3f
00000140: cafb 2ac2 175a c63f 1fa6 6bc0 4c9d cc3f
00000150: b9c6 725f 3419 c7bf ba5f 59fb 885c adbf
00000160: ab6d b0bd de61 b8bf 4fa3 3d80 cf64 b2bf
00000170: c16c 33c1 63d2 cdbf a0c9 2aad 8735 76bf
00000180: 32ea 0801 1244 98bf 0ad7 bd12 9f09 5fbf
00000190: 9cdf ec7c 4afa b1bf 2f3e e8fe a730 b0bf
000001a0: 3332 e380 f720 d3bf 91e1 5400 8f16 c5bf
000001b0: 2805 0780 90ba d0bf afbc 5802 b26e b1bf
000001c0: c0c5 f1fd 15ec bebf 91b7 b540 df45 cc3f
000001d0: 9d5c a317 dcdb 873f b0f8 f0fc 6bf5 b6bf
000001e0: 883f 70ff 4559 b13f 3a01 6fff 633c b9bf
000001f0: 7469 ea1f c7cf d33f 7158 fe61 0cb6 d3bf
0.2248636796482629 -0.06770205475778247 -0.16799370859201615 0.23958614410488724 0.003648400437362724 0.0005726514060129274 -0.05241098987744891 -0.036978871349450305
-0.03261437998104696 -0.12627980154457863 -0.11982242774052482 -0.26138383132105036 -0.18335601702364604 -0.032458185681378454 0.32491984942640645 0.24300375586978842
0.19103935310234363 0.005042999012121889 0.21524122731644016 0.12316253768112091 -0.035049647122413666 0.12849998507388338 0.004146695242109545 -0.124593183262175
0.23554322129728741 -0.32357296358344667 0.3003276289489762 0.03223165904816181 0.12461420984421427 0.20217099689912352 -0.014240145491448872 -0.02035987158048139
-0.05377349270216717 0.08237096681961177 0.19745919073684443 0.17113205896739217 -0.22840599743572704 0.2089127003507332 0.31883755323752905 0.24196985447836927
0.17462441426138603 0.22355040927441025 -0.18045668278278074 -0.057346611673608064 -0.09524337893565497 -0.07185074692610026 -0.23298308309208518 -0.0054221439228733515
-0.023697167695198647 -0.001894383759432685 -0.07022538709577336 -0.06324243520088467 -0.2988871344248622 -0.16475093380155362 -0.2613869905727193 -0.06809532697001218
-0.1207898850423339 0.2208823266950586 0.011649817916277444 -0.08968233990978791 0.06776845442095525 -0.09857773767635516 0.30955675236477664 -0.3079863507240424

encoder.0.1.weight f8 [64]
00000000: d123 8318 0f10 f43f 0127 94ee f4f5 e53f
00000010: 1ad0 bbf3 3b59 ea3f deac 22a4 2850 ea3f
00000020: c0b8 30c0 2868 ed3f 7d2f 7963 414b ee3f
00000030: 27a2 2d70 f700 e63f 5c37 6b6b 988d ed3f
00000040: 4983 d46f a57b e93f 0267 4b59 2c6b ef3f
00000050: 658d 9a5f c443 ef3f feca 4abf 6c07 e33f
00000060: 8049 6846 64bf ec3f b6b6 4777 5170 ed3f
00000070: 8205 a9df dc75 ee3f 442d 8f91 fe8d e33f
00000080: 0226 9fb7 4dbb f03f f7e0 b58c 6b35 f73f
00000090: c6dd 3cb8 c877 f33f 9032 2df9 2c69 e83f
000000a0: 6b22 af64 00be ee3f 6e44 d500 9ada f13f
000000b0: 3c0a 5b1e 590d f43f de9b 2be9 0a87 ec3f
000000c0: 6923 027d a7e7 e93f 12ba 5a6e 0ab5 f23f
000000d0: de79 6f85 96c4 e53f 59ba 7be6 e02a ec3f
000000e0: d768 ea26 d74c ef3f 4746 97fd 8da3 f43f
000000f0: 3aa0 07c7 cd04 ec3f 8828 abea 72d3 f43f
00000100: c572 dda2 8c29 ec3f 4de7 f8d8 b02e e83f
00000110: db2f 2e11 9f8b ec3f 90cd f07e 81cc f03f
00000120: 6104 6571 779b ef3f 8db2 4566 989e ec3f
00000130: 186e f6df 5c47 eb3f 1893 7215 21c9 f23f
00000140: 8d76 ad0b 96e3 f23f 37bd 08be 0514 f23f
00000150: 68f5 3617 281d f33f 32c1 6d19 d94c f13f
00000160: 5466 627a 18ba ee3f 2f1e 5c4b d7bf f03f
00000170: 1549 0259 b334 f23f c3f8 ef32 9093 f43f
00000180: c85e 7501 82c6 eb3f 9fb1 bece 01a4 f33f
00000190: bb9e 03c5 701c ed3f 4153 b69e 98b0 f03f
000001a0: 850e 9750 6d38 ec3f 0adf 385f 9edd ee3f
000001b0: 5fb9 dff5 c220 e93f 58fe 8719 5ef1 f23f
000001c0: 811d af63 8231 f03f 5c09 8262 2432 e53f
000001d0: 8b80 9aba 0f30 f43f 237b 2344 b5da f33f
000001e0: 578c 1b7a 3918 f33f 94e9 92a1 0ae1 e83f
000001f0: 5788 28ad 397e eb3f 7e1d 9de7 ac22 f13f
1.25392064643005 0.6862740192165974 0.8233928451941239 0.8222850042124283 0.9189647439686937 0.9466864531363935 0.6876179877263596 0.9235345933936787
0.7963435348684494 0.9818326705965037 0.9770223490963131 0.5946563469099997 0.8983632445472693 0.9199607209863732 0.9518875473369663 0.6110833018259787
1.045728413841403 1.4505420204641817 1.2167441555774174 0.7628388277749583 0.9606935469137857 1.1158695251981743 1.2532588182226752 0.891484694872698
0.8095281068391219 1.1691994009703461 0.6802475553666303 0.8802341939570609 0.9781299362250832 1.2899303346533928 0.875586403589302 1.3016232649556816
0.8800719433744112 0.7556995618572074 0.892043622546676 1.0499281843775385 0.9877278532732242 0.8943597791199679 0.8524612783689376 1.1741038167758173
1.1805630165248744 1.1298882888039097 1.1946183115790863 1.0812617295560583 0.9602167501754573 1.0468361800902917 1.1378663517867313 1.2860261907331256
0.8679819134221924 1.2275407863590784 0.9097217414791524 1.043114299745142 0.8818880628609383 0.964553056698578 0.7852492143845601 1.183927631121966
1.0120872396381346 0.6623708652480604 1.2617337502670434 1.2408955251373264 1.1934141893223307 0.7774708896388796 0.8591583616255417 1.070965676060808

encoder.0.1.bias f8 [64]
00000000: ab83 01bd 791b a0bf 076c 6d52 b0ce c1bf
00000010: cf36 5597 1d37 c9bf a16a 24f4 1dae b03f
00000020: 271b 0586 dd3d a6bf bc0b f95f 4f8b b43f
00000030: b830 b65c 01a2 d7bf f573 7a6f 9d0a 9fbf
00000040: 5099 e2c8 be95 ccbf 5cde 5b74 1a8b 8bbf
00000050: f907 9d10 7a8b c8bf 50d0 53e9 7c7d d2bf
00000060: ed72 3ac7 3d0d 9a3f ff3c fd75 f016 9bbf
00000070: 33f5 735a c05e 8c3f 3c51 2eed 2d49 d6bf
00000080: e49b 0972 725c c23f d9e2 86fb eb96 91bf
00000090: 04f9 fd53 013d b0bf 7c22 7298 9e35 d2bf
000000a0: d2ea 496c cce1 c3bf d488 1919 22a9 93bf
000000b0: 7ae6 e686 9f01 cabf d694 2701 5881 9c3f
000000c0: 44cf 3c89 2127 d5bf 6783 6252 9c18 c5bf
000000d0: 0400 1e03 5317 c5bf 0c87 8bc2 1a8a 703f
000000e0: 191e 0a6a 7eb7 c8bf 52c2 2b66 a717 acbf
000000f0: 487b c87d de9e c4bf f55a 6ace a4a2 7abf
00000100: 9111 0a79 b592 b93f 6035 f35e 308c cdbf
00000110: 03d4 aa03 185f ab3f 3826 4025 2b80 bbbf
00000120: 7740 93aa f0d6 b7bf 0171 eaed c4cc a33f
00000130: 98ee 00e5 a576 d0bf f100 f5c2 df6e c2bf
00000140: 5c61 b8f7 a315 cbbf 473d f972 6352 b4bf
00000150: d644 c28a 1167 72bf 3e86 49ea 246b c3bf
00000160: a484 8f7d 8b2b c5bf 5765 e209 ce9a a23f
00000170: 0307 80aa 4aad acbf 8d78 c6ce 137c bbbf
00000180: a07f f3c7 e7b5 b5bf f02e fe52 5b10 afbf
00000190: aaf7 a7a6 212b a1bf 9f4a 4468 9eb4 b0bf
000001a0: 9b84 828c a43b cabf 5fee fe16 3d50 b63f
000001b0: 8620 7798 ef2b d0bf 531f 047c f7a3 bdbf
000001c0: 4e3e 069f 97a9 a8bf f8cb fbc0 8f47 c9bf
000001d0: 9a98 2197 269c b0bf fb68 44ef 881b a0bf
000001e0: 9987 c5d4 0755 8fbf 08f6 b990 68e9 d0bf
000001f0: b42c c106 d46c c2bf e6e7 7804 81f6 b73f
-0.03145962173653712 -0.13912014031197392 -0.1969944943361299 0.06515681467537117 -0.043440744981629024 0.08025070279204177 -0.36926302007556044 -0.030313930443856624
-0.22331986245007807 -0.01344891231154504 -0.19175649462891878 -0.288909175738131 0.02544113663190022 -0.026454693986406316 0.013852598915486602 -0.3482165161342612
0.14344626014937412 -0.017177283503516747 -0.06343086529338754 -0.284522675392999 -0.1553283241990671 -0.01919987943836861 -0.20317453467378127 0.02783715731665811
-0.3305133667192772 -0.1648135568875901 -0.16477430011946137 0.0040379567442145985 -0.1930997865458586 -0.05486796495631964 -0.16109830037836503 -0.006502765440606896
0.09989484982549458 -0.23084072719795312 0.05345988316313568 -0.1074244466728026 -0.09312347568925526 0.03867164043660588 -0.25724170077931197 -0.14400860804926865
-0.21159791560854557 -0.07938214833233302 -0.004492825053732127 -0.15170728149228013 -0.16539138441934143 0.03633731718691518 -0.056009610474587766 -0.10736202047562156
-0.08480690604801433 -0.060671666985482875 -0.033532191842808715 -0.0652560238416222 -0.2049451528628524 0.08716184436246398 -0.2526816357535683 -0.1157831838391961
-0.04816888633933712 -0.19749638484026355 -0.06488267125823413 -0.031460074622559696 -0.015298901730321822 -0.2642461217254497 -0.14394617395223508 0.09360510214983683

encoder.0.1.running_mean f8 [64]
00000000: b61e 720a f097 e43f c8c7 a4d5 f48b c6bf
00000010: 53fa b07e 21fd d1bf ccf1 f936 fb0e d43f
00000020: 361c deb9 a7c0 cb3f 9ef7 25bb fa34 c43f
00000030: 4452 5c0b b00e e4bf fb2e 1b9e 570c c73f
00000040: a09e e29b 6be3 afbf e924 d9f0 11db b43f
00000050: b258 0c81 e793 bbbf 94ff 59c6 99e5 cabf
00000060: 684f 9dd3 248f f13f 0517 6dfd 6aab b73f
00000070: 2ca4 be24 5fef d73f 1b72 fb18 10b9 cdbf
00000080: dc2c e985 b5db e73f 3ca8 c8de 8191 dc3f
00000090: 2091 f8d9 c1f9 e23f 7621 3902 ae3c efbf
000000a0: 5153 d6e0 8f8f d53f 8313 2f17 23c3 d93f
000000b0: 5df8 fe27 94eb d93f f744 941b 910b b13f
000000c0: 0b69 410c fc6d f6bf 56d9 e96f 3071 b63f
000000d0: 2872 2eae 039b d43f 8709 208f 156d d43f
000000e0: 3ccb 294b 8a42 b13f 3c13 b03b c624 e43f
000000f0: a39f 88c0 549e d53f 142d b24d 75e3 d13f
00000100: cdca 45e1 e9ad c63f cadd 64ff 2ec0 e83f
00000110: e370 6053 1e75 d03f 9557 af7e c470 d63f
00000120: dd43 cdd2 f82d bbbf 99d6 4327 9bc8 e23f
00000130: 3ee2 98af 2a26 e3bf 299e 9256 8b3f e83f
00000140: 8f9f c91a 3ebe e53f ec0e 4b4a 471e e53f
00000150: 45da 385e 8589 c33f e1a2 d987 3333 d23f
00000160: 2b5a 145e 0cf9 c1bf f431 923f 52d4 a6bf
00000170: 073e e0c2 f600 db3f acda cfe9 0ad6 db3f
00000180: ce7b e87f 8c64 91bf 5afa d273 a252 d43f
00000190: b64e 8d59 2a93 a8bf 6404 275d 1116 cc3f
000001a0: ef07 b992 cfa2 ccbf ca39 963f 6b15 c03f
000001b0: 1304 4804 8fa1 8ebf 4f1a 5525 1662 a73f
000001c0: 9835 219c 41a6 d43f 64e4 e177 0c8c ddbf
000001d0: 483f 3db6 3876 dd3f 4069 f14c a5c3 dc3f
000001e0: a8cf f033 ddf0 ce3f d000 ecdf 0351 a0bf
000001f0: 0183 dc27 5a7b ee3f 4396 2608 5064 c6bf
0.6435470775622523 -0.17614612991161338 -0.28107488033484634 0.3134143864515664 0.21681686950270923 0.15786680353261046 -0.6267929288756666 0.18006415576962084
-0.06228195455451879 0.08146774416049464 -0.10772559071151269 -0.2101318567765672 1.097447229975808 0.09245938002740324 0.37398508632992633 -0.23221017093500582
0.7455699553915127 0.4463810611365522 0.5929879433865928 -0.9761571925564982 0.3368873305965297 0.40253522171070005 0.4050035849176135 0.06658274577445754
-1.4018516997080634 0.08766463024389756 0.32196132669358457 0.31915797211709 0.0674215730194136 0.6294890561845032 0.33778876115911255 0.27950794780254395
0.17718242168083123 0.7734599102176898 0.2571483434892469 0.3506327855260392 -0.10617022654083948 0.5869880453962707 -0.5984090261109214 0.7577568713067581
0.6794729731745849 0.6599461031950944 0.15263430691421057 0.2843750788365878 -0.1404128512737811 -0.044588632831707914 0.4219338324628272 0.43493912537762003
-0.016985125834363228 0.3175436144919438 -0.04799778311885687 0.21942345665414387 -0.22371859230230437 0.12565365414452706 -0.014956586187510756 0.045670215661222195
0.32264747855227816 -0.46167289454712646 0.46034066960145426 0.449441266193066 0.24172558818974932 -0.031868096431937 0.9525576380293331 -0.17493629835114363

encoder.0.1.running_var f8 [64]
00000000: 361e fa6d 33e2 8a3f 3211 5a8b 50aa 9b3f
00000010: b6e5 d76c 3f0d 803f 1380 1d38 3da1 823f
00000020: e0ff c235 08cd ac3f 18a9 3f6b e87b 8f3f
00000030: 0289 81b9 4aca 963f ce71 6c9c 1d30 9b3f
00000040: ab30 03c8 15e4 8a3f 9c0c 827f 50f1 983f
00000050: 0243 0990 bf84 973f 4ed9 42a2 78be a03f
00000060: d5de 0b62 df45 b23f bf50 ea1e a241 8e3f
00000070: 9d69 8629 8ca2 923f e569 5b63 9931 983f
00000080: cc86 ef57 d6a2 9d3f e5c2 3759 b1b9 973f
00000090: 1b52 5280 2dcc 833f 5b28 2971 117f af3f
000000a0: 809b 631c 1332 8e3f 059c 28c7 836a 863f
000000b0: 958d 6bae e044 9f3f c9fd feb2 9b3f a43f
000000c0: 635e dcbe 0f4d bf3f cbbb 0ec3 7a15 993f
000000d0: d49b 61ec 7bb4 993f 313c 26e1 3d3d a33f
000000e0: d237 1a21 3130 7f3f 39d9 e5c9 c4b0 963f
000000f0: a08f 5263 30e1 a33f 674a 0784 8c94 813f
00000100: e14c 2512 fee0 913f 3441 417b fe57 a33f
00000110: df7a 59c8 b665 9e3f 87b7 055b ca95 903f
00000120: 61e6 c4c0 8b9a 973f 90ad 6aae 44bb 8d3f
00000130: 23a6 7ef4 ed4a a43f d6c5 c937 726e 983f
00000140: c5dc ab0a 04e5 a03f b2cb 3970 944b 8c3f
00000150: ecec 15e1 cea5 9f3f efed 8018 5b3a 8c3f
00000160: 3f7f 12a3 a936 883f 0f01 e1ee 7309 a43f
00000170: 690d 310d 4769 9f3f 76f9 df71 7ebe 8d3f
00000180: 8eed 5404 aaaf a03f b7a2 2d09 e441 823f
00000190: 2a20 bf91 247a 813f 6dcc 1d7c 493c ae3f
000001a0: 08e3 699d 97a6 873f 6c26 7927 d71b a83f
000001b0: 0486 a577 0ce5 933f 617b 351f 3f93 a03f
000001c0: 1a5a a320 95fc a03f 13f1 9395 52b4 a63f
000001d0: 5584 dd2b db90 923f e267 9ee6 7ceb a13f
000001e0: be85 028b 8dc3 a03f 75a7 60fc 964b 863f
000001f0: cb48 7cd0 62c7 a53f 5afa 1e2d 194c 853f
0.013126756471378714 0.027016886239395528 0.00783776808656254 0.009096601748467525 0.05625177055617292 0.015373054287881646 0.022256057331454755 0.02655073420747716
0.01313035027160255 0.024358041555853846 0.022967332044859574 0.032703180129305495 0.07137867110929659 0.014773623054943006 0.018198194536674362 0.023626705827021772
0.028941487424055265 0.02316929919283241 0.009666781881869693 0.061516327918597034 0.014743947318903272 0.010945348277415343 0.030536184926757654 0.03954779205332277
0.12226961526573059 0.024496000438087678 0.02510255460984097 0.03757661221890663 0.007614318763115651 0.022158694098345342 0.03882743084366713 0.008584115771474289
0.017459840638662242 0.03778071646286421 0.029684883097042977 0.0161964052253363 0.023050483360952948 0.01451734216001091 0.039634166808650194 0.02385881867889402
0.03299725179925298 0.013816032099588902 0.03090594528974304 0.013783179936686955 0.011823010720319991 0.039134619627022464 0.0306750394631882 0.014523494577585377
0.032590210942056705 0.008914739160631553 0.0085337502458885 0.059053703690460015 0.011548218242056332 0.047087405746947336 0.019428438952109786 0.032373402175599926
0.033177051767484936 0.04434450221921984 0.01813070731384799 0.03499975505037846 0.03274195024392722 0.010886363579704053 0.04253681941021766 0.010399052323802827

encoder.1.0.weight f8 [64, 64, 3, 3]
00000000: 5f56 bdcc 5f62 b03f 1a41 8962 eefb a6bf
00000010: 0231 dd2c fb1c acbf bf68 b65c 8b9d 97bf
00000020: a03b 2c92 6ba3 b33f 7c87 0a03 8901 a4bf
00000030: 1387 b7f6 96a0 b23f d690 d575 f35f cd3f
00000040: abb8 b347 6579 87bf 274c 3abf c193 873f
00000050: 05d8 8f06 9336 85bf 910d cf8f 0325 c3bf
00000060: 2f18 4861 eb52 743f 813f ef35 01f4 ad3f
00000070: bd3f 0b4d cea9 b2bf 019d 0875 765e b6bf
00000080: 8201 5e37 75b3 babf 1b4d b2f3 8b70 acbf
00000090: 4fc3 b7ad 54df 503f 7a6d b44d 0f21 a63f
000000a0: 2c8f a29c 8cb2 973f 8e88 2491 5fb1 a93f
000000b0: 7162 1c43 b16f 94bf 369c d831 6693 a43f
000000c0: e277 be83 5a87 bdbf 3f38 c293 f5e2 c2bf
000000d0: 99de fa52 bf02 afbf 818f 6a78 4e73 a03f
000000e0: 1538 5dd8 f9e1 93bf ba67 0c82 689b bebf
000000f0: 971a 8370 9d36 b03f b7e7 aefe f9f1 a83f
00000100: a8d8 5cf7 e92a bbbf 9761 3880 294b a2bf
00000110: c42b d138 d3ec b7bf 42d8 530b d53c 6bbf
00000120: fb26 ea10 a14d a83f f98c 4246 ec84 98bf
00000130: 94c4 7b54 7d5b a63f e0cf 81ac ff05 b9bf
00000140: 59a8 5d0e 12be 7fbf 2b80 b825 dba4 873f
00000150: 8a0e d775 6df9 b5bf 7ea7 e38d 403b b7bf
00000160: 825c 17cd 4536 ac3f b3b5 29c7 3cfa 8e3f
00000170: 7ce2 70c6 2fe6 bdbf d2b8 cc70 1af6 c2bf
00000180: 2c71 fddf 3312 923f 0c91 3fff eb1c b3bf
00000190: 4efd f4df b9c6 c8bf ba62 d236 df10 b43f
000001a0: 8a97 5a30 e91e 82bf 2877 de34 d5e2 b1bf
000001b0: 7519 5f45 17a7 a53f d52d 0b66 ddff 88bf
000001c0: ccaa bdd5 dc81 c9bf aaad 2fce 0fda aabf
000001d0: 6f54 b63a c91b 5d3f d79e 389b 401c c6bf
000001e0: 6aa8 c4c6 87d3 a53f bbb1 937a 2165 c2bf
000001f0: e1e4 5f21 725f c3bf cac2 f383 f117 a6bf
00000200: b97a 6428 061f a63f 5275 62ec 9002 a4bf
00000210: 2f35 cdd9 f6ff 993f 20a3 f05e 27c0 61bf
00000220: b143 d99f 65ee c1bf a5ee 2c25 4194 963f
00000230: b505 15af c0d9 733f e213 2a40 c1fb 9bbf
00000240: c0ea 5b54 4204 9ebf 4b21 5518 6ce4 98bf
00000250: 1d17 a432 97b1 b5bf 176a e085 6c6a aabf
00000260: 9faf d819 45c9 903f d607 e9ac 3bc1 b3bf
00000270: f709 a820 79bd b3bf 31ff 1f0b ae47 693f
00000280: 8ec9 768f b06a b4bf 6b50 349f c5b1 77bf
00000290: bb70 abc9 3b8e 7cbf a0c7 55f2 4a01 a1bf
000002a0: 571c d348 da5b 80bf cf01 3eff cd78 713f
000002b0: 818e fb7c fc12 a53f a976 c528 e508 843f
000002c0: 8be3 9872 e561 c0bf 1258 01db efd3 a13f
000002d0: 3651 41bc d117 ac3f 503d 12c1 3489 aa3f
000002e0: 181b a819 2612 c1bf 794e 16d9 ce0c aa3f
000002f0: d4c8 22e7 1923 7d3f 4c19 6f34 7c5e b8bf
00000300: 7768 738c c328 c33f cdec 2902 ff11 88bf
00000310: 7942 36a9 2395 a3bf b531 87dd 3479 79bf
00000320: 51fb fdaf 6443 9ebf f84a dcf7 ba7f b13f
00000330: a1e9 b73a 6fb9 a3bf 36e0 5356 1b3f a1bf
00000340: 1892 e58f 620f 9c3f 7b77 e890 c670 b6bf
00000350: 80d4 5a0d 2583 96bf d11e 61d9 d1a7 85bf
00000360: eaab 4846 c168 9ebf 2208 dd11 47e5 a33f
00000370: 6bc1 14d4 5a80 a83f d10f 7f6d f194 90bf
00000380: f7e3 0028 75d5 a0bf ca33 29a9 6ce8 bc3f
00000390: 18ee 2006 75ce a83f 3105 aa6b 9f96 b73f
000003a0: 0476 4174 80e3 8b3f 8fae 3373 c874 acbf
000003b0: d1f0 2327 dcbf a13f 9d4a c820 09eb aebf
000003c0: 5d3f 8be2 5953 873f 6eb5 88be bd91 b63f
000003d0: 5f35 d389 cd59 b5bf 54ad 3f3b ef82 9a3f
000003e0: f267 3c04 2c46 9ebf a0b4 e4c5 cbd7 b0bf
000003f0: 9fad d9a5 eca7 ac3f f0e5 e04f 8cc9 af3f
00000400: 911c 5957 07fc b0bf 24bb a384 027d b83f
00000410: 2baf 1154 a961 8d3f 7333 48ed 74a9 b6bf
00000420: b778 3723 6f91 a2bf ad43 d86d f457 abbf
00000430: 7ef0 a2fb 9c79 c3bf 4350 e6f6 25ec 87bf
00000440: 13a0 8cb5 4a91 a63f 5656 5e6b 9bba bcbf
00000450: 4479 1c52 35fc 903f 97ff c01a 467d 9f3f
00000460: bb6d e9ce 7105 99bf f534 786c 6328 903f
00000470: 488a 1581 14b2 b1bf 9b00 f6e0 b49b bdbf
00000480: 0570 1485 9e67 a23f 068a 15fd ec17 a5bf
00000490: cad6 3838 78d4 adbf a3fa baa8 bd65 ba3f
000004a0: 4b2d f716 e4cc 82bf c72a f547 cc0a a73f
000004b0: f498 408f 6019 c73f f887 23d0 16be c43f
000004c0: c2f9 8bd2 d0f7 abbf 878f e809 6295 73bf
000004d0: 89f2 dea8 ebd4 acbf 8ceb ed36 5bf4 9abf
000004e0: 9559 c32f 62de 9a3f 2268 31b2 8923 9b3f
000004f0: c839 02d9 730f 8b3f 8625 a771 4d8d ba3f
00000500: 538e 2cd1 edc7 b73f 2810 b7c8 3a78 c2bf
00000510: 15d5 94b6 7e15 c13f bfdb 02f6 a9f8 b93f
00000520: 1b12 42cc e850 823f 0c4c 1d31 74fa 8abf
00000530: bddd 1d59 a428 c83f 36e7 12d5 bded b93f
00000540: f4e2 a969 31c5 a23f 641d ffd6 ae5d b53f
00000550: 2050 dbf5 f1ee 94bf 05a9 5de3 d41c 493f
00000560: 1687 bddf 7ad5 aebf de1e a6b0 aeb0 b9bf
00000570: 073b ebba 04b6 78bf fda1 dc3c 2ed7 a2bf
00000580: f974 27cf 88ee b5bf 9595 bf81 2382 a6bf
00000590: d63c 2321 6bed c0bf 2d5a f99b 4fd1 b8bf
000005a0: f6a2 5ac2 b0f3 82bf 9313 050d fd03 a5bf
000005b0: a3fe f66e 8e43 5d3f e196 0e29 cb87 b23f
000005c0: 02b3 f064 4e73 b13f 8530 7407 ca0b 85bf
000005d0: 7c71 7821 8cd9 b03f 628f 25cc a99e ad3f
000005e0: 1e36 d9c7 fbd5 c0bf d11f 0a39 51f8 b43f
000005f0: 0cd5 518e 5b63 813f 5dd8 6b8a 99aa bebf
00000600: e85b 9f75 560f b03f b586 6d12 6fb9 a8bf
00000610: fb7d 6ec0 2fdc a2bf c523 4ca4 c838 a83f
00000620: 0c8f cd6c 3a8a b93f 8382 0b11 9a9b 9bbf
00000630: 4391 32d0 d3d7 ba3f a61b 654d b3e4 c13f
00000640: 7dcf 4cf6 322c 75bf c5cf 1341 9093 b53f
00000650: f0b6 a786 f8b6 c43f b624 e667 c61c a7bf
00000660: 001b cbdd 08ec c63f 7499 e5a2 249d cc3f
00000670: b684 81d5 ef17 2d3f 25c1 64e7 c846 a23f
00000680: 29c8 d663 c1fe 8abf edc9 cd65 dc4b ba3f
00000690: 7293 06e0 3d5a adbf a865 a39b bc77 9a3f
000006a0: 0964 940f 13e9 b43f ef9c 6e27 9f62 c1bf
000006b0: 5ecf ece3 0da2 3fbf 8aee 3976 b4e0 a83f
000006c0: 3c5c 1a8e fa33 84bf 4fab f689 8c67 bcbf
000006d0: cef7 a5ee 95f4 bdbf 304a 59fe 9913 92bf
000006e0: e821 39b3 fc3f b3bf 8c5a 89d6 64fd c0bf
000006f0: df56 3a3c f803 973f 93f3 3a2e 3f3d cbbf
00000700: 4391 f90c a603 b5bf 3c8f cfa8 ceba 913f
00000710: 29ea 34e3 118f a33f 52c8 1613 a0fd b83f
00000720: 3ff9 e216 80de 9b3f 6bcb 2130 c48e 9ebf
00000730: 8de0 0c45 1bcb b33f db24 5a4f aa92 b23f
00000740: ac64 2ef7 5201 b13f 75d4 1858 e10a b03f
00000750: 856c 334f 4d33 9f3f 4746 71a5 bff7 b5bf
00000760: cbaf 3500 1821 a93f 4295 497f 5a53 afbf
00000770: 1f0d b2c8 f119 afbf 6b74 fc42 07fe 923f
00000780: 8d3f 7e4a 4786 a7bf fe8e de28 c496 c2bf
00000790: dfb7 ff3d 84e6 6bbf 5686 e5a7 1384 a0bf
000007a0: fa7c 71a3 b692 b0bf 12b1 4cc8 2c49 b13f
000007b0: d9e9 95ce 697b b1bf fa9f da6a b01b 6b3f
000007c0: 8043 dbef 2e6e 3f3f 2979 175b 1060 aebf
000007d0: e572 5618 6dc0 b6bf cb36 8f63 e608 983f
000007e0: fe10 d51a d3f9 953f d4ad 451c 7ba8 a43f
000007f0: e0ae 7349 0967 b6bf 5178 80c4 63f4 bf3f
0.06400107143903132 -0.04489083245118959 -0.05490860865265469 -0.023061921628688916 0.07671234434768204 -0.03907421266673247 0.07276290438997206 0.22949069265008032
-0.011462012530014517 0.011512292526537916 -0.010357998502495755 -0.14956707498468494 0.004961890652799324 0.05850223334675687 -0.07290353184657668 -0.08737888676897755
-0.10430080987680948 -0.05554616308031709 0.001029808706217678 0.04322097610039584 0.02314204889320519 0.05018137594949322 -0.019957322808382864 0.04018706663583098
-0.1153465816155115 -0.14755124773768277 -0.06056783569277719 0.03212971897053674 -0.019416717367953213 -0.11955884146701026 0.0633333587348751 0.04872113450933518
-0.10612356461646988 -0.035729691411862045 -0.09345741402755353 -0.0033249054928275188 0.04746726352193594 -0.023944560802772383 0.04366676002781236 -0.09774778329466427
-0.007749624759393192 0.011544906700749 -0.08583721281962134 -0.09074786628812423 0.05510156754069674 0.015125727489443052 -0.11679361910581493 -0.14813547618672956
0.017647562547936577 -0.07466006261489982 -0.19356463847541722 0.0783824452249843 -0.008848020351546432 -0.06986744442698678 0.04229042741603709 -0.012206773449540723
-0.19927559315268295 -0.05244492904588623 0.0017766442423170733 -0.17273719386252281 0.042629473699279455 -0.14371126637651152 -0.15135027532213655 -0.043151423795170965
0.043205444746708684 -0.03908207784227592 0.02539048866610932 -0.0021668213808151565 -0.140087798167341 0.022049920934689955 0.004846337005177605 -0.02732755617263994
-0.029313122176044315 -0.02430886171831163 -0.08474106775619501 -0.051593200056420034 0.01639278383497322 -0.07716725322191506 -0.07710988089824143 0.0030859374319333267
-0.07975295546092395 -0.005784770927920939 -0.0069715819797375135 -0.03321298797790395 -0.007987695071632368 0.0042655989417430115 0.04116047883669883 0.009782591158621417
-0.12798755736892206 0.03482007549671108 0.05486922667538112 0.05182804924799689 -0.13336635830656784 0.05087896728505554 0.007113553221801367 -0.0951917293560644
0.14968151433896867 -0.01175307488778401 -0.038247217565303644 -0.0062191071560388405 -0.029553960077005673 0.06835526038438988 -0.038524127881788724 -0.033684591568033204
0.02740243914867521 -0.08765831983370546 -0.021984652462113008 -0.010573996969596962 -0.02969648353079527 0.03885862439211986 0.047854269398501646 -0.01619317274868576
-0.03287855256389343 0.1129215157499878 0.048450142858623646 0.0921420705654057 0.01361751894745123 -0.05557848364136674 0.03466690042293553 -0.06038692975211755
0.011389448381492856 0.08816133405408319 -0.08340153326863263 0.02589010047078706 -0.029564559706251665 -0.0657927854669702 0.055968661542318936 0.06208456492499781
-0.06634565241357594 0.0956574987246595 0.014346430662235917 -0.0885232047368854 -0.036265824364578085 -0.05340541687849707 -0.15214884077966312 -0.011680885884551745
0.04407723871401017 -0.11222239848424329 0.016587098251983137 0.030751319296768633 -0.024434831861396705 0.015779069419342446 -0.0691235366007642 -0.1156571435185491
0.03594680189618774 -0.04119816388517354 -0.05826163946441694 0.10311494225877964 -0.009179861021854882 0.04500425699605653 0.18046195025198808 0.16205105937029862
-0.054625058843146515 -0.00478113457078056 -0.056311954845544916 -0.026322770335791598 0.02623895088694324 0.026502753735577873 0.013213067112045077 0.10371860527734186
0.0928944240263772 -0.14429411697904126 0.13346847453218716 0.10145056015140506 0.008943384870016271 -0.01317301535497075 0.18874029494666714 0.10128389789579448
0.03666071333731749 0.08346073864878673 -0.02044275343980939 0.0007663764470014217 -0.060222472965291526 -0.10035220921246998 -0.006032961346774674 -0.03679794781630006
-0.08567099626039355 -0.04396162947504504 -0.1322454368405263 -0.09694383199653407 -0.00925386517640579 -0.04104605468686553 0.0017861262275430743 0.07238454582565225
0.06816568340645904 -0.01027639231917755 0.06581950966978484 0.057851129694227024 -0.13153025873400365 0.08191402094428148 0.008490290909529928 -0.11979064587998907
0.06273403522150967 -0.048289748191348826 -0.03683613990801501 0.04730822568496466 0.0997654452926861 -0.02696076134714299 0.1048557647032498 0.1397918823151631
-0.005169104643574116 0.08428289021304554 0.16183382582624217 -0.045141411002143014 0.1790782053924076 0.2235456271548163 0.00022196581517434027 0.03569629501942221
-0.013181219920486669 0.1027200459045969 -0.05732911452950064 0.025847384452253458 0.0816814339672335 -0.1358221952952827 -0.0004826816474860963 0.04858936255638209
-0.009864766561163411 -0.11095503204584854 -0.11701333118796173 -0.017652898930757555 -0.07519511581006777 -0.13273296809594048 0.022476080585497434 -0.212806603978518
-0.08208692375916819 0.017314175656692785 0.03820091150779021 0.09762001482047936 0.027215958973777928 -0.02984148544096447 0.07731790958212255 0.07255043446834313
0.06642645392129748 0.06266601944737878 0.030469139060056456 -0.08581159390566838 0.049080610299682435 -0.061182811773316206 -0.060744815587009386 0.018547166312704293
-0.0459463385042219 -0.1452260207707851 -0.0034058173041477814 -0.03225766586798488 -0.06473866930308594 0.06752281084181203 -0.06828938764184701 0.0033091016437829497
0.0004795899002206158 -0.0593266593166269 -0.0888736900728407 0.023471450640321117 0.021460817825997396 0.040347907258219046 -0.08750970881709064 0.12482284114273169

encoder.1.0.bias f8 [64]
00000000: ec79 3480 4ca4 813f 326c 6900 dd91 7dbf
00000010: ae20 e0bf e3fd 9bbf a96f f91f 8a96 a13f
00000020: 2935 fdff 2e18 98bf 81ab 1600 e2de 693f
00000030: 0996 f7bf 4021 99bf 5626 e6ff f455 7c3f
00000040: 8864 1400 8a41 65bf ded0 f03f 0db6 983f
00000050: fda2 e0ff 2926 60bf 8128 f4bf 2a78 913f
00000060: 54be f99f 5b3c a33f 64ee fb1f 4041 a33f
00000070: 1eee ff01 7481 5cbf 20a5 ecbf c9d1 913f
00000080: 468c ecff b5ca 90bf 142d 3000 4c3f 74bf
00000090: e605 1640 37c6 953f b210 dfff 3375 9dbf
000000a0: 2706 dd01 a6b0 66bf b5c8 a13f 7a90 a4bf
000000b0: b9fb fcbf 5887 8abf 22d8 ee7f 526d 813f
000000c0: d1f6 20e0 46e1 a2bf 6bc6 8000 b870 493f
000000d0: 9abb 00c0 f8f2 9dbf 7c50 07a0 9895 a43f
000000e0: f01b 2b00 9a7b 6fbf 8a55 f91f 0ee1 a23f
000000f0: 8fd9 2001 d67a 6c3f 3b59 0d60 4e39 92bf
00000100: 6519 04c0 3385 93bf 0b44 2d00 d509 79bf
00000110: 5ea5 f3bf 79f1 a2bf 25fd 0060 627a 9ebf
00000120: bbe6 2380 91e9 87bf c622 39c0 4159 9b3f
00000130: 0c51 fa1f c008 a43f 5d6a 4300 1af1 6d3f
00000140: 14d1 17c0 21ec 913f 8f23 0620 0583 a03f
00000150: e1af df5f cfec 92bf 1961 0560 f952 99bf
00000160: 1082 4180 7c98 84bf a8d8 4380 c809 823f
00000170: 8c62 e95f 381f a33f 415e f95f 9b5c 92bf
00000180: 21a0 1b00 7dcc a1bf 72a2 09e0 a022 a3bf
00000190: 98b9 f6bf 6cf5 933f 2155 1a00 d097 7d3f
000001a0: 52b8 67ff 289d 70bf 4c76 0640 c6ba 9b3f
000001b0: da5c efff f090 98bf 1443 3f00 040b 52bf
000001c0: bf65 fcdf 4150 a13f 8855 0e00 3836 88bf
000001d0: 22dc e73f 797b 933f 1bde f0df de8c a1bf
000001e0: 8ab2 3080 e760 843f bd22 3080 2664 863f
000001f0: ee12 0600 128c 943f 804a 0500 b644 8c3f
0.008614156401162774 -0.0072191841960274495 -0.02733569964041809 0.03435165062248242 -0.023529753088316206 0.0031580366200691383 -0.02454091235803982 0.006917912511548238
-0.0025947280233933924 0.0241319723392771 -0.001971323042216587 0.017059963193823528 0.03756986930681863 0.03760719671660409 -0.0017398484123977219 0.01740184053338567
-0.016398280854570645 -0.00494317710673477 0.02126394585275717 -0.028767406932971702 -0.002769779427496361 -0.040164776103567425 -0.012953465804114704 0.008509296921925428
-0.03687497602412083 0.000776376576146554 -0.029247175902294843 0.04020382836793687 -0.003843117506537201 0.03687328472430369 0.003476541497572323 -0.017796730625684303
-0.019062813372351956 -0.006112892183254291 -0.03699856250916399 -0.029763733968363532 -0.01167596504500367 0.026707675320980305 0.03912926092485422 0.0036550052483168964
0.017502333974293086 0.032249603423287636 -0.018481483675642955 -0.024730583654077074 -0.01005646959691922 0.008807722486818229 0.03734756632610922 -0.017931392414850093
-0.034763246787236086 -0.03737356886705791 0.01949090882924906 0.007224857808656255 -0.0040561295959219024 0.02707967534808224 -0.023990407582314834 -0.001101259143059423
0.03381543978884904 -0.011822164060314902 0.019025702023977804 -0.03427788242009574 0.009950455283694443 0.010933209216106627 0.020065575839470044 0.013802930713301409

encoder.1.1.weight f8 [64]
00000000: ac45 c9dd 37da ed3f f8d3 5f90 275c ed3f
00000010: ca15 95e6 d3f1 f13f 2918 8334 03cf f03f
00000020: c08a 7fb1 82f0 f03f 78f9 c1c1 828c ee3f
00000030: cb1e 11a1 7677 eb3f 9c94 10cf c0b2 eb3f
00000040: 2d38 9dc5 3837 ef3f ee46 0595 39d1 f03f
00000050: 9c41 3283 7425 ee3f 00e8 e25d 8464 f13f
00000060: 76b2 238e af62 f03f bee0 0602 2bd5 ef3f
00000070: 0011 fb02 901d f03f ac32 b1ec 2f24 ef3f
00000080: 7db6 3c78 0f1f f03f 7a56 8796 460b f03f
00000090: 6efa 06ea 4464 ec3f 0ccc a568 dbc7 ec3f
000000a0: bd9d e81f 832e ef3f 096c 415f 2c85 f43f
000000b0: b722 f31f 37f6 f03f 04fb 2a6c 4480 f23f
000000c0: 0dbc 222e f8f8 ec3f 6e45 4b55 e775 f03f
000000d0: 547d 014e 95ea f03f ae5e 9772 524e f03f
000000e0: 7273 14ae 5f3a f13f 5efa 1e5c a628 ec3f
000000f0: e8f4 186d 210e f33f 529b 925e 63b6 ef3f
00000100: 847c a3e4 5c60 ee3f 654e 72f1 4c08 ef3f
00000110: 13a1 ce2d 5786 f03f c83c 2bfe 6162 ed3f
00000120: e9e8 19cd 7263 ed3f d625 d75d 147d f13f
00000130: 312d 577c 3b17 f13f d54b e82b c94a f13f
00000140: 1f1c 4d6f 8049 f03f 722e 7994 c197 eb3f
00000150: 7930 7e52 b11f f13f 4499 4316 2805 ee3f
00000160: 3241 2e47 8b27 f23f 25bc 1169 c4d4 ed3f
00000170: 114c b0c7 b01f eb3f c4b4 12d3 0883 eb3f
00000180: 1ecf ac81 c001 ef3f 6377 10b0 65c6 eb3f
00000190: e37d 699d f6c3 ee3f b885 75c7 064b ef3f
000001a0: 8aab 3f2f 8677 ee3f 8392 708d a7fd f03f
000001b0: 3494 cf1d 7e61 f13f 4bdf 14de 807d ee3f
000001c0: b57c 0d5c f9b5 eb3f 5cf4 5312 b879 ee3f
000001d0: 5bd5 32b8 c49d f13f daad c1ed e090 f13f
000001e0: bfcd fdec 3552 f03f 9f68 1fa1 8904 ed3f
000001f0: c22d 9b44 2d22 ed3f 4c83 f752 c51d ee3f
0.9328879672777268 0.9174993343173119 1.1215399748920043 1.050540166020719 1.058718388893496 0.9546521934824304 0.8583329339826035 0.86557045404756
0.9754909381533757 1.051080305206081 0.9420721590450287 1.087040297263684 1.0240932037660548 0.9947714843356363 1.0072174183306402 0.9731673834699754
1.00758311240807 1.0027528648401174 0.8872398920864961 0.8993966144465744 0.9744277594772296 1.2825130196495158 1.0601111648594903 1.1563152528103169
0.9053917790496385 1.0287850696371055 1.0572712943174638 1.0191215969297605 1.0767514038081711 0.87996213905701 1.1909498464222512 0.9910141799090104
0.9492630448911688 0.9697632518531917 1.0327979840604413 0.9182596172558073 0.9183897024043094 1.0930370011941384 1.0681719643642504 1.0807582583554354
1.017944750566819 0.8622749233122262 1.070237467039105 0.9381294665188666 1.1346543102736857 0.9322225620397872 0.8476184749764589 0.859745418788997
0.9689638645854506 0.8679684103733333 0.9614213060812599 0.9779085059819215 0.952090351374282 1.0619273686399147 1.0863019146429567 0.9528202378778386
0.8659636304763781 0.9523582799880717 1.1010176844841542 1.0978707587590777 1.0200709588506098 0.906803908055071 0.9104219760860632 0.9411341305204615

encoder.1.1.bias f8 [64]
00000000: b8ab 9d8f 763f bdbf e7f8 7934 8828 b1bf
00000010: ccde fa9e e280 b2bf dcce 49f6 8e7a a4bf
00000020: d973 6c00 3152 c0bf 9c17 d33d 5ae9 c1bf
00000030: 2223 7a48 3553 b3bf ac04 a215 2908 9b3f
00000040: c6fe 9c14 8c12 bcbf 4d96 6373 d0e3 afbf
00000050: 8e1b a152 7a0a cabf 4874 cf0a f7ab a0bf
00000060: 1427 e84f 1a84 b8bf 1873 0f66 cb93 c0bf
00000070: 8f22 46c8 6cab b43f bf3c 389d 9fd5 c03f
00000080: 1fb4 489b 3f10 b2bf 9bd4 30c8 dbed c2bf
00000090: b344 4afc afb1 c2bf 7214 9728 9acc b7bf
000000a0: 944e 232b e6ce a2bf 3e1f f541 98d0 84bf
000000b0: 4e49 44c3 4515 923f 8940 15a9 6787 ad3f
000000c0: 5c2a 2930 ec10 b23f 35e0 86da b223 a5bf
000000d0: ff2f ea30 4a81 b9bf 0951 3504 07c4 b83f
000000e0: 0c01 5ee9 7da6 c0bf c358 fb67 4472 c6bf
000000f0: 4e19 e5ae 8d4f bcbf 31c8 c991 d8a3 b73f
00000100: a4fd 2d6d ff05 babf 80fb c7db 272c c0bf
00000110: 5341 8f3b e3ce c6bf c2d3 a2cc e15a c2bf
00000120: b042 a990 eb7b ae3f 5059 755d af7c b33f
00000130: dd4c b0a5 0148 c1bf 7adf 206a c672 9ebf
00000140: 179c 3f03 c83b b3bf 49c4 a767 5473 c1bf
00000150: e66b d6ad 88d5 9ebf d114 1a28 bcd2 b63f
00000160: 3ece 1ff4 29f6 b8bf 29c5 1ca1 e82b d0bf
00000170: 9006 df7f ca83 be3f 1ebf 7cd0 0140 c1bf
00000180: 7a93 70c7 207a b23f d521 0925 7a0d b2bf
00000190: 34d4 f069 6c0f c2bf 4839 a804 a26a ccbf
000001a0: 14df b97f 3016 a3bf ee5f 64f6 2417 b83f
000001b0: c988 49c5 b2de ccbf a69b 1eed dff1 c4bf
000001c0: 6de5 70c3 27f5 b93f 5745 77bc d868 bbbf
000001d0: a597 9c92 6244 93bf 0321 6320 890c b13f
000001e0: d39d 0345 7ca2 d0bf a12a 723f dc25 a2bf
000001f0: 380d 95b2 e76d c6bf 2a6c 6e56 2a00 c3bf
-0.11424962049720377 -0.06702472001231606 -0.07227913266512614 -0.039997546734324735 -0.127508282858712 -0.13993385332849761 -0.07548840541325011 0.026398317284933512
-0.10965800765279274 -0.062284959874699376 -0.20344475779185384 -0.03256198889696599 -0.09576572848177661 -0.12951033099570775 0.08074073686123938 0.13151927162878072
-0.07056043187249415 -0.14788386607111623 -0.14604759043553414 -0.09296573153467749 -0.03673476482950125 -0.010163487923491862 0.017659273188720896 0.0576736825847784
0.07057071853447766 -0.041287984061853335 -0.09962905592163905 0.09674114086857712 -0.13008092780001623 -0.17536215855824908 -0.11058888931174701 0.09234384116442197
-0.10165401855009876 -0.1263475249433803 -0.17818870933707362 -0.14339849941248245 0.059539185913881965 0.07612129241656374 -0.13500996198909024 -0.029734707095684133
-0.07513094023998722 -0.13633208333297578 -0.030111442194179626 0.08915306071328934 -0.0975061627394149 -0.2526799748767013 0.1191984712777645 -0.13476584129374997
0.07217602604994325 -0.07051814464751456 -0.1410956876076469 -0.2220041773547996 -0.03727866706043251 0.09410315528327803 -0.22554621346632178 -0.16363143041709555
0.10139702340611274 -0.1070685825464087 -0.01881555576178297 0.06659752884582208 -0.259917323490723 -0.03544510149466374 -0.17522903652034372 -0.14844254703788923

encoder.1.1.running_mean f8 [64]
00000000: f883 d828 74b4 a0bf 2d15 16d0 ec9d 02c0
00000010: 5e01 e6a1 cb1c 04c0 6763 1d61 2982 16c0
00000020: fb62 239b 4d06 16c0 487f 67e6 fe73 c3bf
00000030: 51be c9be 179a 04c0 18fb 0132 2c8a db3f
00000040: 2e74 663d af36 04c0 25f1 77a0 2138 e4bf
00000050: 2085 c63c 0c97 c63f 3639 97d4 08e4 ef3f
00000060: ea2c 9f66 4f1d 01c0 9368 75d7 8001 cd3f
00000070: e9a3 7b59 3927 e53f fad3 82be e99e dabf
00000080: f43f de8d 4ebc 0f40 d8ff 5758 ca59 0a40
00000090: 07ab 0074 2160 febf ccb9 d0e8 3ab3 efbf
000000a0: 2128 530e 2693 1740 f7a6 00c0 9b91 1140
000000b0: 2931 ab33 956b 0ac0 6de7 4a2b a41d 1240
000000c0: ff77 7f02 2b6d dbbf 8715 038c 593b 0140
000000d0: c99e b1f4 d391 de3f 8ec3 f420 2347 fcbf
000000e0: 8877 0810 a4b0 0840 88b8 a75e 9cef f7bf
000000f0: 6170 7701 a511 1240 61c9 6281 ed9e e3bf
00000100: 3a66 5f79 c065 febf 6148 9c4c 1346 f13f
00000110: 60b0 0ddc 6b5e b6bf 835e f6cb 644f 0fc0
00000120: 5a10 a631 9b6b 0b40 e991 b1be e18c 0740
00000130: 9c02 7418 b5d1 01c0 7313 7d49 6d8c 06c0
00000140: 1bde 7b93 589b fa3f 7825 9055 967e 14c0
00000150: e992 2e54 7df5 f63f bbc1 8ff0 6483 f4bf
00000160: afa6 7c2d 028f 1440 63be 1e9b 50e4 cc3f
00000170: 7072 7f6d dbb3 0940 dcd1 c1a1 e80d 02c0
00000180: 46b8 a6c3 8810 f23f ed21 cfee 0dcc e7bf
00000190: a023 693e ed62 d33f 3ea2 678a 5a33 16c0
000001a0: 72d0 63f6 69e5 fdbf 9b35 ec41 a3aa f8bf
000001b0: 77be 682c 42a8 ed3f 8d67 0027 8a32 10c0
000001c0: ecd3 6058 ea7e 0740 8f81 990c 495e 08c0
000001d0: f0ec 3974 49e1 0f40 4bb7 2b31 2217 1740
000001e0: a080 e311 4c95 05c0 8e9d ac11 47d2 06c0
000001f0: a912 ae73 3919 fabf b244 3bf2 69f4 d53f
-0.0326267528400947 -2.3271118408907996 -2.5140602730099735 -5.62711097471115 -5.506155418429212 -0.15197740793427728 -2.5752406030003745 0.43030838855331544
-2.5267014309779574 -0.6318519720221373 0.17648461310913266 0.9965862419283329 -2.1393116013838283 0.22660837669792908 0.6610380885805373 -0.41594928364366945
3.9669467051935445 3.29384297388604 -1.8984694033958378 -0.9906286761450303 5.893699859452711 4.3921957016370845 -3.3025306736582434 4.528946567961481
-0.42853808635652507 2.1539793909493627 0.47765063186532736 -1.767367485747147 3.0862504246314906 -1.4959987351863067 4.517231009402253 -0.6131503607814858
-1.899841760742119 1.0796082489582874 -0.08737825510405761 -3.9137664732514295 3.42754210269963 2.9437899492206623 -2.2273961935428144 -2.81856782353355
1.6629262696350284 -5.123620354578968 1.4349339760166748 -1.2820786854682484 5.139656744702434 0.22571761678908606 3.2128208689230675 -2.256791366317186
1.129036678564732 -0.7436589874496896 0.30291300864024073 -5.55015007264643 -1.8685092568021244 -1.5416596007447427 0.9267893664709409 -4.0493551343914875
2.936970415549231 -3.0460377678247776 3.9850033836533996 5.772591369908535 -2.6978989980271564 -2.8526746159365706 -1.6311583060025134 0.3430428376714857
