models/matching_nets/SETA_n=1_k=5_q=15_nv=5_kv=5_qv=1_dist=cosine_fce=None.pth (torch, 316367 bytes, 24 tensors)

encoder.0.0.weight f8 [64, 1, 3]
000000 c9 e0 3f bf 5c 97 df bf 40 63 77 f6 fa 4f dd bf
       -0.49361342121802615 -0.45800661152820865
000010 b4 b2 d2 92 b5 fd c1 bf ea fe ec 8d 95 f7 db bf
       -0.14055509251683918 -0.4369863401407047
000020 8e 6a 39 b5 b1 52 d4 bf 28 6f 4c 2f be ef bc bf
       -0.317547251679266 -0.11303318648100158
000030 97 3a 39 71 4f 8f e2 bf b3 9b 76 f2 55 e7 b3 3f
       -0.5799939357182947 0.0777486531211327
000040 79 6a 96 16 ea cb dc 3f d2 b2 fc 4c 7d f9 b2 3f
       0.4499459477025663 0.0741194069821163
000050 32 14 12 b2 66 fa a0 bf 9e 36 c2 a2 c2 fc b3 bf
       -0.033160409199844657 -0.07807556604003671
000060 0c d6 b0 73 67 fb a2 3f a6 4f 64 a5 1e 8f cc bf
       0.03707431113472745 -0.2231176669671388
000070 ab a2 83 49 f8 5a e2 3f 84 73 db 45 b3 a0 c9 3f
       0.573604720671104 0.20021668349263788
000080 d2 a6 57 e9 a5 f3 df 3f d4 af 9d ba 34 1f d2 bf
       0.49924609935133646 -0.2831546614095235
000090 c5 25 83 83 56 e6 da bf 56 bf 84 7e 32 26 bb 3f
       -0.42030871241567197 0.10605159367400793
0000a0 22 5f 75 b0 79 fa d9 bf 19 27 12 be 29 24 de 3f
       -0.40591280205033986 0.47095721780407157
0000b0 85 27 00 67 63 ac ce 3f 00 72 81 11 9f 87 dd 3f
       0.23963587312055892 0.4614026709512302
0000c0 29 d7 32 42 bb 2c d1 bf f2 8a a1 2f bc ed bc bf
       -0.26835519280153847 -0.1130025497709928
0000d0 cb 9c d8 aa b4 6a dc bf 94 7c 48 a2 91 b4 d9 bf
       -0.44401280101960755 -0.40164604995693165
0000e0 19 1e 89 4b 54 06 90 3f 32 ab 1a d6 54 8c bc bf
       0.015649144277885527 -0.11151628710892394
0000f0 ba c9 4d bc d8 75 de 3f 62 dc 27 eb 74 af a4 bf
       0.47594278706597104 -0.04040112848809298
000100 d7 1e 37 56 6b be d2 3f 80 6f 9c b6 dd 9a da 3f
       0.2928722707697324 0.41570227463829923
000110 ea ee 8e 5f d9 2c 7f bf 26 8f db 3d a8 e6 ca bf
       -0.007611130823473403 -0.21016409893410887
000120 6d 6d 25 18 c2 d1 cc bf 47 90 fb 1f ab 58 d5 bf
       -0.22515131167424887 -0.33353689311320917
000130 57 fb 96 04 f5 ee 9d bf aa a6 ad 86 10 ec ca 3f
       -0.029231861500871172 0.2103291185006147
000140 a8 a2 a1 a1 19 f6 cd 3f 10 5b c2 bb 69 3b e0 bf
       0.23407287971646906 -0.5072525660678782
000150 24 7f 99 b6 9f 4d dc bf 70 8a 35 d6 4d 3d dd bf
       -0.44223778564445326 -0.456866702259652
000160 e2 1d 1f 16 ba b9 dd 3f 84 6b c1 78 a4 bc e0 bf
       0.46446087036426154 -0.5230276449686788
000170 c7 01 2d 87 9f f4 ac 3f 38 f5 96 f2 de 09 e1 bf
       0.05655382657141988 -0.5324549425201104
000180 7e 37 93 fb 48 e2 dc 3f 86 e7 3f 95 02 cd c6 3f
       0.451311345747733 0.17813141143397732
000190 51 67 49 0e b9 15 bd bf 47 be aa ba bb 43 d3 3f
       -0.11361271475598513 0.30100911359020127
0001a0 5a 4c ae 91 12 c5 e0 bf e6 f7 d0 1e 45 41 b1 bf
       -0.524056705983081 -0.06740219118452692
0001b0 57 9a 13 e6 2c 08 d0 bf 44 8d 8d c4 6f 7f cc 3f
       -0.25049898594298753 0.2226390561801087
0001c0 7a 0b 8b 6b d0 64 db 3f 90 ca 8a ed 9d 5b e2 bf
       0.42802820684681075 -0.5736837043280776
0001d0 0e 01 9e bf 57 db e0 bf b8 67 82 16 67 c9 cd 3f
       -0.5267752401851185 0.23270882224170264
0001e0 58 92 8d b9 75 b9 dd 3f 3d 20 fa 9d f0 9a a9 3f
       0.46444457168971587 0.05001022270613518
0001f0 eb 92 5d cb 4f 19 de 3f 3d 2b 55 54 c4 d5 d0 bf
       0.47029490337290153 -0.2630472968636928
000200 40 8e a1 d6 09 2d d5 3f 38 f9 2b f4 d3 d3 d4 3f
       0.33087392768922896 0.32542895169162334
000210 fe 6d 48 cd 63 75 d3 bf 2b 09 a3 65 19 8a c8 3f
       -0.3040399079052064 0.1917144533418392
000220 ef 58 95 6b 6b ba 93 bf 3e 7b 4a 2f 73 50 de bf
       -0.019265821877831376 -0.4736602746797195
000230 ee 4f 5a a4 69 cc d3 3f 07 fc 85 f7 3e 57 e0 3f
       0.30935135889126186 0.5106501421395259
000240 5a ab 61 b5 68 32 dd bf ec ed c8 96 19 8e b2 3f
       -0.45620172226943156 0.07248077327033514
000250 ac a3 f7 08 c5 be df bf 3e 76 91 8b 9b fa c6 bf
       -0.4960186564990703 -0.17952293696264293
000260 13 11 a5 a4 a7 60 d0 bf b7 10 48 c0 35 7f e0 3f
       -0.25589934424012134 0.5155285602090974
000270 bf c4 84 cd 40 c0 b8 3f 56 8f 2e 93 5c d1 d6 3f
       0.09668355004829986 0.35652841923932976
000280 55 4c 6e 4f cf 7c e0 bf 5c e1 5b 79 1b 3c d3 3f
       -0.5152355719932397 0.3005436597009259
000290 56 dc 36 60 56 fb c1 bf 26 a8 83 1c 08 d1 d5 3f
       -0.14048270891155096 0.34088328156087966
0002a0 31 b8 4c 20 5d 55 87 3f 6f 85 fc b2 ed 06 e2 bf
       0.011393287227829148 -0.5633457656696644
0002b0 ec 3f 59 a6 2d fb c7 bf 83 45 0e 5a 23 ec c5 bf
       -0.18735285398952273 -0.1712688626981099
0002c0 57 2f dd 3d 48 8b c2 bf 5f f9 bd 0d fb 9d c8 bf
       -0.1448755552358942 -0.19232118769645987
0002d0 75 3c fa 3b f8 b6 a2 3f 47 ef 54 f1 1f b3 c7 bf
       0.03655219776293787 -0.1851539543512166
0002e0 4b cc 25 58 4e f6 c9 bf 55 56 99 e2 0f 51 dd 3f
       -0.20282916359028244 0.458072634971676
0002f0 c9 4b 14 bc c6 85 dd 3f bb 94 9e cd ef e0 5e bf
       0.4612900578223927 -0.0018846837833533098
000300 cc 18 70 5c a0 7b b0 bf 77 a7 df 5d 18 56 c8 3f
       -0.06438638932022228 0.19012741645502348
000310 a0 9f 5b 16 51 59 e1 bf fa 78 0f 64 f1 e1 e1 bf
       -0.5421529232671567 -0.5588309244447196
000320 f7 80 f4 e7 ff 0a b3 bf b3 d6 82 90 87 ec e0 3f
       -0.07438659108129629 0.5288732359392355
000330 f9 d4 9d 0f 28 82 ce bf 00 e5 99 b2 5c 5a e2 3f
       -0.23834706079984594 0.5735305298141213
000340 94 5c 80 46 f6 4c d0 3f a1 12 61 e4 9e 81 de 3f
       0.2546973885050161 0.47666141798644374
000350 bf 26 66 43 e5 0e d2 3f ac 84 14 05 ba 5c c4 bf
       0.2821591528123512 -0.15907979248098536
000360 09 dc c1 e4 c7 7a ad 3f 09 40 f0 80 cd 28 c9 3f
       0.05757736842581813 0.19655770107101514
000370 b4 af 74 fd fd 80 de bf c6 40 e7 3e bd 8c b6 bf
       -0.4766230559496265 -0.08808501039243585
000380 53 c5 99 f6 e8 58 d1 3f 03 27 5f 9b 55 8f e0 bf
       0.2710516365251198 -0.5174968752482701
000390 a7 c2 4e c6 ff 9d a2 3f 9f 5e 58 c2 5e b5 e1 bf
       0.0363616876196649 -0.5533899112515036
0003a0 e3 2a 44 37 94 a5 c0 3f 8b 6e 34 73 43 24 bd 3f
       0.13005306910084533 0.11383458674066042
0003b0 b3 b3 57 87 fb 41 c0 bf 2d 1d 73 e6 49 dd d4 bf
       -0.12701362713360495 -0.32600638871049875
0003c0 aa a3 f6 8d 6c 7e e2 bf 54 8a 0f db 1c 2b c7 bf
       -0.5779326222155892 -0.18100319572757206
0003d0 99 97 87 82 f0 9a b0 3f ab f4 d7 e3 88 38 d5 bf
       0.06486418902167514 -0.33157560587262463
0003e0 f1 4e dc 70 c3 cc da 3f 34 f9 cf 4e 89 4b d9 3f
       0.4187477686075303 0.39523537346385074
0003f0 c4 5e fa d3 bd 23 c8 bf b1 58 3e bd 52 65 d3 3f
       -0.18859074450005242 0.303059277351518
000400 b3 77 12 cc 93 8f c5 bf b0 97 af 05 da b9 85 bf
       -0.1684441324659339 -0.010608390139122154
000410 d2 5f fc cd aa 0c e0 bf 57 05 a6 18 83 5a cb bf
       -0.5015462897454148 -0.21369970992604223
000420 77 15 5e 92 fa 1e c6 bf 96 f0 e8 4a 6f 6d d0 bf
       -0.17282039782382316 -0.2566793662588308
000430 05 91 9f 5f 92 a6 b2 bf e7 f6 79 cd ab 93 b2 bf
       -0.07285418352654822 -0.07256578222765207
000440 5f f4 2a eb b6 cd cb 3f d8 5e 77 83 57 d0 d5 bf
       0.21721540911485968 -0.3408411773539064
000450 ff 02 16 9b 50 08 d4 3f e1 68 09 78 f0 be dd 3f
       0.3130074991714053 0.46477901193942556
000460 07 0b 28 85 bc 5a cd 3f 0e 61 78 d6 60 73 c7 3f
       0.2293315553834747 0.1832085654466557
000470 10 75 aa e1 f9 cd e0 bf 8e ac 50 64 cf 97 b9 3f
       -0.5251435668502911 0.09997268866634298
000480 f5 a9 a1 37 8c 6d b0 bf 77 8d a9 27 76 0c c1 3f
       -0.06417156561079891 0.13319279610287157
000490 43 19 19 92 84 84 aa 3f 2d be 91 9f 9d 57 d1 bf
       0.05179228099273072 -0.2709726389211678
0004a0 53 d2 12 6b 78 ff dc bf a1 d4 fb b9 e6 d2 d0 3f
       -0.4530926747932302 0.262872392296524
0004b0 94 2d fd c1 33 8c ca 3f 9c 8d 09 fa 01 5c c3 3f
       0.2074036309444237 0.15124535282948848
0004c0 75 79 e6 72 2b 5e cc bf 01 f2 b3 e5 b3 a5 e0 bf
       -0.221623831847818 -0.5202273832688321
0004d0 5f 63 c3 21 3a d5 95 bf b5 66 a3 5f ee b1 da 3f
       -0.021321209250206304 0.41711005534817086
0004e0 f0 20 a2 7b 4d 1e d2 bf 58 a0 ee 7b 5e f8 dd bf
       -0.28309952806058813 -0.4682842455172298
0004f0 1c 6e 6b ab 04 3c db 3f ca 36 23 fb 5a 9b d7 bf
       0.42553822269630515 -0.3688571407809432
000500 1c fd c9 d3 bb 72 e0 3f 89 1f 59 bb 3c d5 cb bf
       0.5140055786613718 -0.2174449839387729
000510 dd 55 47 a7 51 7b 94 3f 1d 8a 0b 60 9d 8b d1 bf
       0.020001674494627742 -0.2741464078846166
000520 14 33 ec 08 50 9e dc bf 62 6e bc d7 9f 34 9a bf
       -0.4471626364836976 -0.02559137109993371
000530 6d 5c e5 3a 50 b4 b0 bf 55 00 80 3c 69 98 db bf
       -0.06525136411561201 -0.43117743404582615
000540 e8 1f e9 53 95 1a d9 bf 9c c0 e3 80 32 8f d5 bf
       -0.3922475165786623 -0.33686506831055296
000550 4c 3d 61 81 30 ac df 3f e7 04 69 f1 73 e6 ba 3f
       0.494884611461164 0.10507893222622365
000560 43 ae 4a b0 62 24 cf bf 75 e8 f5 60 d9 87 de 3f
       -0.24329789741510596 0.4770415732269904
000570 ac f2 98 a5 42 67 c3 bf 19 3a 0f de 5a a7 e1 bf
       -0.15158875547230843 -0.551679071149752
000580 1f 6e 7d f1 15 d2 d4 3f ed 3e 07 a1 57 ec a4 3f
       0.3253226145077139 0.040865648657584554
000590 05 ff b9 ea e0 57 e2 bf 74 3c f8 88 93 76 b6 3f
       -0.5732273659232027 0.08774683088289398
0005a0 4a 85 81 b8 00 c4 da 3f ac 67 8d 59 91 97 cb bf
       0.41821306245954715 -0.21556298134492857
0005b0 80 cb e8 af a6 e2 dd bf 1c 07 eb b7 a6 00 bb 3f
       -0.4669586866249844 0.10547868719279702
0005c0 43 4b c7 36 48 06 dc 3f aa c0 c4 13 b7 19 cb 3f
       0.43788342809164166 0.21172226395856814
0005d0 52 15 ef f7 f7 53 e1 3f 80 ad cf d3 ec d5 e2 3f
       0.5415000765284879 0.5886139046610168
0005e0 d3 0c b5 78 cf 29 cb bf a1 4f 20 0d 61 00 e1 bf
       -0.2122134532347447 -0.5312962776538265
0005f0 b3 18 ea 18 91 28 e0 bf fe 92 a4 17 b9 7b c1 3f
       -0.5049520002946991 0.1365882268375102

encoder.0.0.bias f8 [64]
000000 f0 b7 9d 7f 67 0f dd 3f 00 07 c7 01 6a 2e d5 bf
       0.454065203309141 -0.3309578912122646
000010 08 14 34 40 cb 5c d1 3f 72 b2 5a bb e7 b0 87 bf
       0.27128869314066195 -0.011567888646220246
000020 90 c3 cf bf 38 b5 d8 3f e0 dc a3 bf fc 6e e0 bf
       0.38606089336013216 -0.5135482542963494
000030 8b 37 e8 c0 09 10 d1 3f a9 a7 04 80 d8 fd d6 bf
       0.26660388792594664 -0.35924351217056
000040 0b 22 3b 7e e4 83 ca 3f 4f ec ad 80 74 0f d6 3f
       0.20715004123327704 0.3446933037409438
000050 33 ac db 08 60 2f 7a 3f b3 9e 95 3f e9 25 d9 3f
       0.0063928366996420126 0.39293891152781696
000060 80 5d 75 00 c3 d7 e0 3f 21 b6 9e 7f f9 a3 ca 3f
       0.5263381012872941 0.20812910777515106
000070 eb c1 1f 80 c7 22 d9 3f 10 57 ac 40 44 ea d0 bf
       0.39274775993456384 -0.26429849925749327
000080 6c 97 e7 ff 68 21 c4 3f a7 d0 5f ff e4 ca db 3f
       0.15726959700912901 0.4342586988343648
000090 e2 c8 d0 00 cb 76 bb 3f 3d a1 5a 80 17 25 db 3f
       0.10728138704215298 0.4241389039475683
0000a0 8a aa 05 c0 ee cf de bf 57 83 a4 bf 39 d9 c3 bf
       -0.4814411998001239 -0.15506669862318276
0000b0 1e 1c 12 02 00 96 ce 3f 26 04 df 3f e4 1c d7 3f
       0.23895263768301417 0.3611384032956856
0000c0 e6 15 18 00 cd 3c d4 bf e5 a7 a3 1f d8 4d e0 bf
       -0.3162109852713385 -0.5095024698214244
0000d0 b0 27 a9 bf e9 6a d5 bf ae 77 6e bf c4 2a e1 3f
       -0.3346504565894248 0.5364707697769882
0000e0 1e 29 99 5f 6f 87 d0 bf ca 97 da 3f 31 aa e1 bf
       -0.25826629958886993 -0.5520254370828692
0000f0 ed 8c dd ff 3d 5c b0 3f f9 01 f3 7f 76 9e c7 3f
       0.06390750405039443 0.18452340362092892
000100 1c 2a 3b 80 fd a5 d9 bf 42 40 f9 bf a4 8e e0 3f
       -0.4007562401062914 0.5174125432477086
000110 9b a1 e4 3f cb 7e e1 3f ce e1 2f 00 d3 a5 b5 3f
       0.5467277763282711 0.08456152681890858
000120 cd 61 7f fd 9d 73 bd 3f 18 ae 93 00 13 4d d2 bf
       0.11504542769342337 -0.28595423752150984
000130 26 0d 85 ff 1a 8c b9 3f 0d b6 52 01 55 76 bd 3f
       0.0997940896823378 0.11508685381223689
000140 13 76 0f e7 27 62 81 3f 6c 55 e7 7f 48 e3 d9 bf
       0.008487998713401479 -0.4044972657259993
000150 60 13 b0 3e 10 85 e0 3f 1e b2 fc 7f b2 59 e0 3f
       0.5162430977221497 0.5109493732211978
000160 ec 77 df bf b4 0e e2 3f 2f 93 6c ff 40 dd e1 3f
       0.564295172454647 0.5582585324051247
000170 d7 f1 ca 04 a8 5c 84 bf e4 c9 94 fb fb c4 ba 3f
       -0.009942352911246495 0.10456824199790266
000180 75 a3 d4 fd 5b a0 b4 3f fa 03 09 20 4f ce d3 bf
       0.080571889372221 -0.30946710709036973
000190 b3 69 a2 f6 43 da 93 bf c5 7b eb fe 65 98 ad bf
       -0.019387304237719238 -0.05780333267988839
0001a0 83 1f 4c 80 47 1c c7 bf 90 82 22 7f a1 15 c4 bf
       -0.18055051579016998 -0.1569101210379995
0001b0 a2 4d 6d 40 8d df e1 3f 1e e3 cd e7 87 a3 85 3f
       0.558539033731382 0.01056581665192052
0001c0 39 f9 32 80 1f 2f df 3f eb 5e 34 7f d4 cb da 3f
       0.4872511627144323 0.41869079992601027
0001d0 23 85 03 60 77 53 e2 bf 2a 51 38 bf 6c 7a da bf
       -0.5726887583988723 -0.41372221635653494
0001e0 5a 73 0f 00 2e 31 c2 3f 21 e0 01 20 e8 1c e2 bf
       0.1421258449835488 -0.566028654588994
0001f0 aa b2 04 01 56 cf a1 bf 76 36 0f 60 cc a0 d4 bf
       -0.034784972786245774 -0.3223143518524475

encoder.0.1.weight f8 [64]
000000 8d a6 a0 6d 82 b1 f2 3f ab 56 c1 27 9e 64 f2 3f
       1.168337276680549 1.14956489114176
000010 ed 1a c3 ac be cd ef 3f 53 06 9e d4 c0 0b f0 3f
       0.9938653349171013 1.0028694444048554
000020 5c 04 be e1 8e 53 ef 3f 04 bb 2f 75 e0 f7 ee 3f
       0.9789499672916793 0.9677583969877053
000030 6b bf 93 f3 90 33 f1 3f 50 51 27 99 3d 5a ef 3f
       1.0750894083721174 0.9797657004624316
000040 57 0b d2 0e d4 d2 f2 3f 5c 03 5f b4 b7 d6 f1 3f
       1.176471765415689 1.114921288084779
000050 79 a7 7e 3d 58 08 f0 3f 2e 11 c4 04 82 5f ee 3f
       1.002037277425613 0.949158677395223
000060 57 61 49 0d 3c c4 f1 3f 53 76 f6 90 e7 1a f0 3f
       1.1104088324555812 1.00656849504539
000070 f2 da 3f 1f 25 23 f0 3f ed ef d7 a0 2f 03 f2 3f
       1.0085803242379225 1.1257778437566188
000080 9b b3 97 b2 23 9c ef 3f e7 88 2a de 22 25 ee 3f
       0.987809990705148 0.9420332278425833
000090 11 c5 76 99 99 ae ef 3f 9d 5c 60 ba 64 14 f0 3f
       0.9900634763090769 1.0049788742378845
0000a0 74 02 1a e2 cb 00 f0 3f 39 56 e1 c6 83 9e ef 3f
       1.0001944381803272 0.9880999454860052
0000b0 f0 18 b0 7a cd 2c f0 3f 26 72 a7 af 89 aa ee 3f
       1.0109381477828343 0.9583176069969042
0000c0 ba 93 b1 56 fb 56 f1 3f a1 ef 5a 88 2b 29 ef 3f
       1.08373578896247 0.9737756407916899
0000d0 c3 fe a9 db 35 89 ee 3f 69 47 9c 66 8f 1f f0 3f
       0.95424931433805 1.0077051170560145
0000e0 a2 b9 b3 9b e6 02 f1 3f df 9e 59 9f 1d 45 f2 3f
       1.0632082063781145 1.1418739533054845
0000f0 18 b4 35 e9 8d 80 ef 3f 80 3d a0 d8 d3 d0 ef 3f
       0.9844426684263707 0.9942416411376342
000100 27 01 c5 1d e1 78 ee 3f b9 1b e6 11 f3 06 ef 3f
       0.9522557813107014 0.9695983266436691
000110 c6 cb 08 56 30 b3 ee 3f b1 f5 7f cd 2f 9d ee 3f
       0.9593736343725758 0.9566878331822207
000120 84 bc dd c8 8c 16 ef 3f 12 72 8f d9 c5 8a ee 3f
       0.9715026782195229 0.9544400452828674
000130 09 70 41 c3 f9 71 f0 3f be 3b ac 84 3d 4c f0 3f
       1.0278260829136363 1.0186133558779455
000140 48 f4 6e 8f 7a 4a f1 3f e8 34 c8 bd 35 b2 ee 3f
       1.0806832888477107 0.9592541414910132
000150 e3 73 05 1f f4 e6 ee 3f a3 dd 4b 5e dd 99 f1 3f
       0.9656925779232747 1.100064628930206
000160 59 e3 b2 54 37 a2 f2 3f c2 24 cd 8c 45 b7 ef 3f
       1.1646035488649515 0.9911220312143529
000170 ff a4 fe cf de f0 ef 3f ff 22 12 9b 5a 7d f0 3f
       0.9981531202694497 1.0306039864973966
000180 48 50 a4 51 42 3b ef 3f 8c 55 89 6e 49 fe ef 3f
       0.9759837717597373 0.9997908743777528
000190 f4 48 29 17 3f 79 ef 3f 40 50 95 3d 4e 16 f0 3f
       0.9835505916946929 1.005445709762185
0001a0 e2 3b 0e c5 22 fa ef 3f 8d 71 a2 e4 9b fe ee 3f
       0.9992841576330387 0.968580194999548
0001b0 53 5d 63 da 4e 58 f1 3f 28 68 50 31 9c a9 f1 3f
       1.0840595751559092 1.1039087225276578
0001c0 8c 83 3f 1c 44 85 ef 3f fd 43 6b b7 6a 9f ef 3f
       0.9850178291054461 0.9882100660707916
0001d0 c1 39 2c 67 f2 bd ef 3f a8 2c b6 01 e6 52 f0 3f
       0.9919368758290191 1.0202388827190507
0001e0 c9 68 b5 62 ea 75 f0 3f ae 8f ff 7c 09 54 ef 3f
       1.0287879806333413 0.9790084306118751
0001f0 6a 6b 94 27 fb 09 f0 3f 53 2f 1d 54 3d 01 f1 3f
       1.0024367853245288 1.0628026281073815

encoder.0.1.bias f8 [64]
000000 07 df 65 60 69 ad c4 3f b1 b8 2e f1 ae 5f c1 3f
       0.16154210287981405 0.1357325246476129
000010 89 1b 6f 29 e7 26 c0 bf ca 9e ad cb 04 14 95 3f
       -0.12618722460885248 0.02058417790558912
000020 88 2b cd 9a cb 34 c7 bf 65 71 aa ed de 04 c0 bf
       -0.1812986856333192 -0.12514864544653928
000030 ab b4 8e 71 46 63 b3 3f fc 19 e5 9e 2e 94 9f bf
       0.07573356888197462 -0.030838707397629492
000040 4e 69 92 24 cd 42 c0 3f d6 80 4f 0b 4b d4 bd 3f
       0.12703861509073494 0.11652058626305303
000050 21 70 e2 75 a3 02 a1 3f 1d 2c 9c 9c 39 d9 bf bf
       0.03322325529117643 -0.124408341154933
000060 fa 0b a2 bf ae 19 b6 3f f6 18 2b 34 da cc ba bf
       0.08632938555278705 -0.10468829892770146
000070 3e ec ca 3b b1 78 a2 3f ab 44 1f d0 28 8b c1 3f
       0.036077059315595225 0.13705930864538138
000080 84 c2 45 b4 ee 7b bc bf 69 96 28 e7 e4 2d 56 3f
       -0.1112660589331061 0.0013537154560564707
000090 98 8a a0 ee 48 6d c2 bf 28 94 7e 26 c3 a8 a9 3f
       -0.1439601102038821 0.050115679215459175
0000a0 88 81 3f 8b 2a b1 b0 3f 73 b3 db 1d 7c 02 c5 bf
       0.06520334148036089 -0.16413833101196537
0000b0 c6 04 b7 d2 3d 88 9f 3f 40 b2 a5 22 21 b3 b9 bf
       0.03079315756418024 -0.10038954826240687
0000c0 e1 f6 0b bc aa 6f b8 3f 97 06 df 54 45 c3 97 3f
       0.09545390215859186 0.02320583658707295
0000d0 9c 05 67 14 ad 5b 88 bf 80 f7 62 d3 4f 7a b8 3f
       -0.01189360826981805 0.09561633024983784
0000e0 bc da 32 9d c1 cc ac 3f 2a 71 29 ff 48 b8 bf 3f
       0.05624966663292727 0.12390571813142928
0000f0 a7 eb 80 c2 3f 01 93 3f 1c 24 96 45 36 9a b1 bf
       0.018559452292020186 -0.06875933836830977
000100 72 14 36 d8 55 44 95 bf 8d 1f b8 e4 b0 be a7 3f
       -0.020768491097915072 0.04637673179610067
000110 71 c6 6f d1 1e c5 b0 bf cd 18 48 f5 51 47 ba bf
       -0.0655078183479192 -0.10265075910874373
000120 ed b8 22 89 61 41 ad 3f 13 b5 f1 bb b9 0c 92 3f
       0.05713944243449185 0.017626669021798835
000130 fe 70 10 d6 ca f0 b3 bf fc e1 1b 99 d7 ec aa 3f
       -0.07789294935395571 0.0525882124329122
000140 5d fc 99 ed 92 6d b4 3f 68 16 d6 0e e3 45 b6 bf
       0.07979696560686152 -0.087003890154017
000150 c8 77 82 5a 44 4f 96 bf ab 24 ff fa 60 86 b7 3f
       -0.021786754631300004 0.09189420821998577
000160 26 c2 82 d7 7c e1 c0 3f a5 35 c8 9f 2a 9e 8e 3f
       0.1318813373850542 0.014950116158639679
000170 8e f5 0a d8 7a db a6 3f 5a 05 7d ac ea 41 b2 bf
       0.04464324843636823 -0.0713183089365165
000180 e6 3d 52 75 db 76 c7 bf 73 2c 41 a3 b6 08 9a 3f
       -0.18331473568512918 0.025423864092129777
000190 9b fb c2 51 cc 6f c1 bf 1d 16 b9 76 37 b7 9e 3f
       -0.13622430794017934 0.029995791074062795
0001a0 52 93 10 59 fb f5 9f 3f cd 9b f9 13 d4 fc 9e bf
       0.031211783705788428 -0.030261338919810577
0001b0 18 f3 86 f1 cb d2 b9 3f 00 88 d8 9a 78 14 bd 3f
       0.10087275168093546 0.1135936143914762
0001c0 96 50 96 b1 47 a5 48 bf 3c 1a 36 c0 de c3 b7 3f
       -0.000752124792756453 0.09283249085101714
0001d0 d0 4d ca 75 af 2b 9b 3f c1 56 28 6f b7 05 b1 bf
       0.02653383404192572 -0.06649347747619584
0001e0 f6 99 19 cd 83 dd b3 3f c2 89 83 33 0a a9 c7 bf
       0.07759879834484437 -0.1848461867840126
0001f0 40 29 db 8e 7d ff b0 bf 32 92 c4 f5 f0 ec b0 3f
       -0.06639847505281171 0.06611543655578414

encoder.0.1.running_mean f8 [64]
000000 46 83 7b be 35 e4 db 3f ba 0d f5 42 ce 1b d6 bf
       0.43580382921031846 -0.3454471258048347
000010 ad f1 25 5e 71 4e d1 3f 3a 91 56 7d 4f e9 88 bf
       0.2704127711693001 -0.012163754475132838
000020 f2 ce 51 50 0f 1f d9 3f f3 b0 ba eb 3a 36 e0 bf
       0.39252074092585965 -0.5066198925101432
000030 31 75 1f 4f c7 4b d0 3f 5e 61 e2 99 f2 bd d5 bf
       0.25462515570491734 -0.3397184851433134
000040 9f 43 5a 4e 8e c0 c8 3f 6e 4f 45 67 e4 87 d5 3f
       0.19337633920488614 0.33641920170815964
000050 59 e1 2d 9a 35 f9 92 3f 9f b8 a2 82 97 5b d9 3f
       0.018528783355095644 0.3962153220881052
000060 91 e3 6d 71 73 87 e0 3f 5e 42 80 78 53 82 ca 3f
       0.5165345397391424 0.2071022356399394
000070 2e af a4 a9 31 ab d8 3f 1e 01 c6 d3 6c fa d1 bf
       0.38544885222175906 -0.2809097354984419
000080 3a 3a f9 c5 f9 3b c5 3f 96 70 d4 7e 52 7b db 3f
       0.16589281241108883 0.4294019926617322
000090 51 55 74 84 96 2d bd 3f 3d bd 2a 53 92 37 da 3f
       0.11397686704397826 0.40964182016155687
0000a0 b1 bc 2f dc 94 c3 dd bf 17 17 41 1f 53 01 c3 bf
       -0.4650623464830899 -0.148477926503056
0000b0 c3 68 6b 51 11 4e ce 3f 97 21 c9 ac ed 7b d7 3f
       0.23675743556561288 0.366938990341191
0000c0 d6 8e 8f 55 94 2c d5 bf 25 36 14 de 6e 42 e0 bf
       -0.33084591250938666 -0.5081095063666835
0000d0 ed 2a 8e bc 65 7b d5 bf 79 d4 c3 80 b8 6e e1 3f
       -0.3356565801010863 0.544765712255539
0000e0 50 d0 00 18 0c 52 d1 bf 42 33 49 4a be ef e1 bf
       -0.2706327661901513 -0.5605155421159014
0000f0 5b b5 6e 79 76 b0 ad 3f c8 41 0b 38 4d 94 c9 3f
       0.05798692924814005 0.1998383067753038
000100 9a d4 05 3e 9c 17 da bf 80 a5 6b d8 81 80 e0 3f
       -0.4076910596553006 0.5156869151079917
000110 59 43 7d 9f 8c cf e1 3f a3 39 66 84 5b 34 b8 3f
       0.556585608961636 0.09454891188054275
000120 db 9d f4 93 82 82 bc 3f f5 a3 08 d1 41 a8 d2 bf
       0.11136642563052794 -0.2915195981354935
000130 f6 09 90 be 44 e3 b7 3f 9d 43 f4 1c 92 02 bc 3f
       0.09331159260185715 0.10941422659767715
000140 51 f7 45 37 74 22 6a bf 4a 0a 29 bd 44 5f d9 bf
       -0.0031902570573824414 -0.39643972847639886
000150 c2 35 3d 34 8a 7d e0 3f 64 bd 68 7d dc ec df 3f
       0.5153246898932411 0.49883186575876537
000160 f5 37 bf f7 31 ca e1 3f 58 a9 d5 d2 df c1 e1 3f
       0.5559320296104021 0.5549162977088526
000170 f9 7b 82 0b 56 1b 7c 3f 7e e5 1f 22 b5 bb b9 3f
       0.006862007248996876 0.10052043994064339
000180 e2 59 18 ed 34 22 b5 3f aa 99 23 e5 cd 4c d4 bf
       0.08255320347266307 -0.31718776108609836
000190 f6 0d 3d 60 54 81 91 bf a0 44 8a 4a 2d a7 ae bf
       -0.01709491574662355 -0.05986920866883705
0001a0 83 d4 d8 df 95 ce c7 bf 7e 5e 3a 62 4b 3d c4 bf
       -0.18599198751477183 -0.15812055870332026
0001b0 6b c5 d0 ed 92 7f e1 3f 6e f8 d8 58 c2 5b 5e 3f
       0.5468229908785082 0.0018529317780031879
0001c0 ac fd 94 35 aa ef de 3f 64 cf 33 ab ae 27 db 3f
       0.4833779834043195 0.42429701537115805
0001d0 ea c3 9b 5f 32 87 e2 bf 70 72 de 48 a6 f3 da bf
       -0.579003512130041 -0.4211211883173638
0001e0 6d 46 84 cb c0 a0 c1 3f ba b8 c2 fd 8f b5 e1 bf
       0.13771829545344208 -0.5534133869421318
0001f0 6f 22 34 11 38 fb 93 bf 74 e9 e8 02 5c 98 d5 bf
       -0.01951301198008298 -0.33742428096925114

encoder.0.1.running_var f8 [64]
000000 96 93 5b 61 c1 cc 82 3f 34 c1 8d b1 40 9d 77 3f
       0.009179602416631554 0.0057652022450017
000010 48 7b 2c 62 cd 54 65 3f 97 98 e3 13 c3 bb 11 3f
       0.0026039134403527432 6.764772567499837e-05
000020 27 f6 8d dc 75 7d 5f 3f b5 d5 2c 23 92 a8 63 3f
       0.0019220019332516576 0.0023997167822027107
000030 20 60 90 6d d9 47 6e 3f 2c cd 18 c8 a5 ec 83 3f
       0.003696369804412583 0.009728713196727932
000040 e2 4f e6 95 ef 0b 74 3f 72 a4 8b 7e 1a c9 5f 3f
       0.004894195443188894 0.0019400366529061211
000050 eb 41 11 b8 cb 5b 6f 3f f2 c4 30 e6 c5 fe 53 3f
       0.0038279513251284667 0.0012204105958171754
000060 4d de c2 0e 88 b3 66 3f 4a 86 6f 5c 44 6a 57 3f
       0.0027711541534605534 0.0014291446293487491
000070 95 c8 68 48 8b 88 6f 3f 94 0a 3e 7b 22 c7 7c 3f
       0.003849288975538443 0.007025847142247205
000080 89 f9 3a 12 74 3b 66 3f 1e f7 b9 f8 40 c1 5a 3f
       0.0027138964668146953 0.001632989357772847
000090 c1 a3 69 05 68 50 63 3f 94 70 4c fd 3e c8 7e 3f
       0.002357676664634018 0.007515188267259405
0000a0 55 75 8f 8b 8a d3 7b 3f 1e 7b 40 ac 07 fe 61 3f
       0.006793538276693785 0.002196326242497006
0000b0 84 cc 3f ca aa 22 3c 3f 5e 64 23 b9 e3 11 6c 3f
       0.0004293124168263734 0.00342649914919639
0000c0 b4 24 0b a3 76 69 76 3f f2 f3 23 d1 97 fb 56 3f
       0.005471671510073484 0.0014027578914117514
0000d0 11 9d e9 f8 82 28 55 3f de 5e 29 b1 bf f7 5d 3f
       0.0012913970018873548 0.0018290874474099976
0000e0 68 03 2e 42 46 49 73 3f 62 f0 23 ef 2b 85 5e 3f
       0.004708551833460507 0.001862805275378875
0000f0 0d 01 ad f1 aa 08 52 3f 78 48 23 64 a1 46 7c 3f
       0.0011006993651819258 0.006903295931083624
000100 bb d8 0c 39 03 22 5f 3f fe 6b da 03 dd 2c 68 3f
       0.0019001990769545302 0.0029510800075747126
000110 b4 26 1f 8d 4e 7f 6f 3f 78 25 9a b6 83 17 6e 3f
       0.0038448843197088304 0.00367332196475861
000120 91 92 82 0c e7 eb 52 3f ad 9e 67 4c 72 f6 57 3f
       0.0011548763596148962 0.0014625660129414062
000130 a0 0e b7 f4 3a 77 5e 3f ab 07 78 4e ed 87 55 3f
       0.0018594814053906408 0.00131414579834697
000140 14 6b 5a a6 af 71 72 3f f7 ba 44 ca 28 5b 6b 3f
       0.004502950794313749 0.003339366596399325
000150 f7 78 86 39 a4 5f 32 3f c6 27 47 91 73 fe 71 3f
       0.0002803588809231617 0.004393054423823933
000160 d5 90 1b a8 8e b3 5f 3f a8 bc f5 fa 05 a8 43 3f
       0.0019348996287869475 0.0005998639298193846
000170 60 04 9a 94 21 33 7f 3f 27 3a 7b e9 1c d7 52 3f
       0.00761712186215488 0.0011499197334391505
000180 cb f3 9a 4f d5 fe 26 3f 92 55 cc 06 d4 18 66 3f
       0.00017544130223781507 0.0026973858970317866
000190 21 46 43 dc a8 bd 44 3f 1f cb 9d 07 32 4e 62 3f
       0.0006329607499770442 0.002234552111013768
0001a0 97 82 eb a0 b4 a1 64 3f 5a 25 27 11 d7 49 4b 3f
       0.002518513479444383 0.0008327770358899464
0001b0 d5 ae e0 14 50 01 71 3f b9 b5 0e 42 20 08 63 3f
       0.004151642626350334 0.002323210720041682
0001c0 43 a4 c3 dc ce 0a 65 3f ab 20 60 2f 48 ad 55 3f
       0.002568630245253918 0.001323051923011002
0001d0 0a 11 31 25 74 16 63 3f 2a 45 59 c2 ca 1d 62 3f
       0.0023300426924227667 0.0022114715709810233
0001e0 c0 87 c4 4c 0e 77 64 3f 28 2f ea c1 31 58 72 3f
       0.002498176507416766 0.0044786399508998445
0001f0 5d 8d ec 53 63 85 80 3f a4 ef 76 25 e3 65 7e 3f
       0.008066917418153957 0.00742138604203638

encoder.1.0.weight f8 [64, 64, 3]
000000 86 50 01 03 c5 35 54 bf 6d 43 0a ad 47 d4 a8 3f
       -0.0012335227911721993 0.04849456775003245
000010 41 8c 9e 37 85 2c 5f bf 16 67 14 86 19 8b ae 3f
       -0.0019027043294748277 0.05965499650683463
000020 c6 77 30 00 68 9c 91 3f f6 dc 70 3f 45 07 95 3f
       0.017198205005221977 0.020535547253726492
000030 0a 52 83 5e 25 39 b4 bf c3 76 bd fa 1c 5e 9f 3f
       -0.07899697835393496 0.030632450870476512
000040 10 f5 28 8b c4 56 ad 3f 61 2c d9 de 14 0f 85 bf
       0.057302610385230435 -0.01028267197684424
000050 2c 72 c1 96 de cf af 3f a7 a2 a8 b6 b2 ac a9 3f
       0.06213279333380614 0.050145706937035066
000060 45 0a 2c 99 93 88 aa 3f 1e 97 c9 1f 2e e8 74 3f
       0.051823246429212357 0.005104236767328433
000070 e8 5b ef 19 7d 70 ac bf 65 87 a3 23 23 f9 a4 bf
       -0.05554572049702938 -0.04096326646846541
000080 6c 34 d3 a4 f0 f5 a4 bf 14 4d c1 8c a8 17 8b bf
       -0.04093887340568689 -0.013228718562607024
000090 2a ef 03 49 8b a3 a8 3f 73 99 5e 23 01 6f b1 bf
       0.048122742331513216 -0.06810004342569247
0000a0 59 fa eb df bb 89 c5 bf c7 b5 43 06 ea 61 a2 3f
       -0.1682658046119794 0.035903275742252876
0000b0 bd 34 9a 2a c0 fb aa 3f c0 61 2e 6c 24 84 b5 3f
       0.05270195503281048 0.08404758111135546
0000c0 6a 69 53 e6 39 49 ad bf ad 30 1e 35 93 83 a3 bf
       -0.05719929634661265 -0.038113212808725684
0000d0 32 0a 6b 47 9f bf a4 3f 18 f1 73 9a 43 df b7 3f
       0.04052446123889232 0.093250489433505
0000e0 8b e8 2e 92 1a 47 b3 bf cd 68 b8 fd 11 72 bc bf
       -0.07530370778013855 -0.11111557430595838
0000f0 27 fc 84 bf 60 bc aa 3f 3f 4b 09 2b 9f 90 a6 3f
       0.05221845949062525 0.04407212639184487
000100 5c d6 02 ce ae c4 b1 3f ff 94 6d 36 cd 21 b5 3f
       0.06940739183013406 0.08254702166376048
000110 64 c5 39 4a 2c d1 b0 3f 1f 89 0b 82 5b 77 b1 3f
       0.06569172680044272 0.06822750019958733
000120 fc 26 a9 2b 6a 77 92 bf 77 ec 2d ae d3 82 98 3f
       -0.01803365603908612 0.02393656492811799
000130 ae 6b 45 69 e1 10 7a 3f 95 59 09 e4 d7 d3 a9 3f
       0.0063637547612768585 0.05044436129235234
000140 d5 a1 57 5a 3c 56 ac bf b0 b4 52 71 fe a9 b1 3f
       -0.05534542658626022 0.06900015131641868
000150 ea 4c bc c6 2c 3d b0 bf 92 04 59 a2 fb 50 9a bf
       -0.06343345500890832 -0.02569955042259104
000160 0e d9 a7 75 6e 68 90 bf 58 a8 eb 49 d1 9c b3 3f
       -0.016023374491816837 0.07661159567547438
000170 0b 90 c2 6d 34 9d c0 bf 8b 08 27 e7 e5 28 c4 bf
       -0.1297975097596694 -0.15749810969106579
000180 32 19 b4 7e 39 a5 92 3f 6d ac 6a 34 f3 fb ab 3f
       0.01820840679013109 0.054656601093790204
000190 e4 00 56 63 12 0e a2 bf 72 d0 3c d3 16 51 83 bf
       -0.035263609529467194 -0.00943200904985295
0001a0 4b ef 4d 32 92 13 94 bf 8b 6d 49 ad 56 7e ac 3f
       -0.01960590774568453 0.05565138688390466
0001b0 7f 87 68 61 05 fd a7 3f 18 bd 5d 4c 65 3f b3 3f
       0.04685227216783882 0.07518609156044354
0001c0 8c 3d 36 b2 32 d6 80 3f c7 b0 83 05 e7 de a1 3f
       0.008221050323099964 0.03490373556437159
0001d0 3f e3 5d a8 e7 42 88 3f f6 c3 55 d5 a1 5a 9d bf
       0.011846360994000825 -0.028666046758591045
0001e0 a8 a0 a4 74 e9 eb aa 3f 7c 3b 8d f9 b0 d7 97 bf
       0.05258111523500136 -0.02328373454229958
0001f0 b7 53 41 ce e0 51 b0 3f bb 39 ae 2e 19 38 94 bf
       0.06374936137701935 -0.019745248293071543
000200 d7 d8 c9 40 86 99 9d 3f 38 46 33 a9 73 2f 85 3f
       0.0289059617084256 0.010344413376887393
000210 5b 32 e8 fe 5c f0 a6 bf 0f d3 43 cb bd 9a 9e bf
       -0.04480257617624225 -0.029887166529948547
000220 a9 97 45 2b dc a1 a3 3f 34 2b 51 7c 0f c4 a2 bf
       0.03834426906796235 -0.036652072835372
000230 b8 6f 0c cf dd b1 31 3f bd c5 4a 7f 74 fc a6 3f
       0.0002700010800695779 0.0448948293100204
000240 16 17 57 1f 6e 19 af 3f e3 9a e1 7f 84 dc b2 bf
       0.0607408917672229 -0.07367733118153867
000250 2c d1 a0 33 53 ab bc bf 89 7c 35 2a e0 3a 65 bf
       -0.11198921213582896 -0.0025915506572996056
000260 a0 5f 87 66 37 95 96 3f 94 b6 3f 51 01 e2 a4 3f
       0.022053590424405578 0.04078678242499936
000270 46 d8 32 74 9e f2 85 bf 0e 2c 6a 06 c8 0d 92 3f
       -0.010716665192699659 0.017630696670078598
000280 b0 e8 94 d9 5e 11 70 bf 4b 0e 3a 61 c5 0f 7e bf
       -0.003922815806897059 -0.00733925916177076
000290 72 76 2a 7f 82 d5 82 3f 33 16 07 00 77 c2 9c 3f
       0.009196300035280578 0.02808557450932465
0002a0 e3 93 2a 8d 05 85 a6 bf ac ae 7c 5b f2 b6 a0 3f
       -0.043983624918190654 0.03264577261719856
0002b0 66 f6 b2 36 37 a3 b0 bf 5a 68 8e fc a4 03 a5 bf
       -0.06499047360827034 -0.04104343016588592
0002c0 1b 9a 0a 91 9e 2f a9 3f d6 0f 7c db 8a 42 b0 3f
       0.04919143219494889 0.06351535662184857
0002d0 76 41 2a 87 98 33 8d 3f ab c5 0b fd 2a 02 b6 3f
       0.0142585674523452 0.08597057989006511
0002e0 e3 07 83 72 ef 7c a5 3f 3e a5 dd f4 7b 14 89 3f
       0.04196880600785826 0.012246101770602476
0002f0 02 4c bf 77 1b b7 b2 3f e3 6f 09 62 64 5c ac 3f
       0.07310649560467655 0.055392395942106785
000300 e4 de 36 1e 79 c0 b2 3f 80 fa 96 b0 3d 2e 88 3f
       0.07324940669684171 0.011806947661964218
000310 86 eb ee f3 20 28 b1 bf 70 02 c2 93 fe 3f b1 bf
       -0.0670185657062757 -0.0673827276932657
000320 cd 6c 8d 36 64 91 a7 3f 26 a0 8c 37 62 d5 87 bf
       0.046031123790010044 -0.011637465782385514
000330 97 a3 90 15 53 51 ad bf 92 75 b7 16 a9 2c 89 bf
       -0.0572610820602854 -0.012292214399105803
000340 dd 69 5a 6b e7 77 9d 3f 14 02 38 f6 40 48 a9 bf
       0.028777709891622528 -0.049379377418521525
000350 d4 1a ea 48 dc 66 92 bf 59 e0 1d c3 ad bb b0 3f
       -0.01797050662073725 0.06536375058738154
000360 03 74 17 4a 27 51 ac 3f 29 be 09 4a b4 07 98 3f
       0.05530665187300345 0.023466889399456434
000370 db 8d 4b 15 92 a3 a6 bf 50 40 78 80 c3 24 b6 3f
       -0.04421669492674215 0.08649846922367144
000380 df 29 60 a8 1c b7 a0 bf a4 48 a9 31 2b c7 98 bf
       -0.032647033265749796 -0.024197268396456764
000390 15 94 c3 cc 3e 69 91 bf ce cc 8e ac cf 53 94 3f
       -0.01700304150371686 0.019850964457600644
0003a0 00 f0 ae 5f 50 e4 b3 3f ad 70 b0 b8 7f 88 a7 bf
       0.07770254455584791 -0.04596327905184814
0003b0 b6 a2 50 45 1a 16 8d bf a3 4e 47 76 12 0c 98 3f
       -0.014202313652348902 0.02348355147280635
0003c0 bf db 85 03 41 ea af 3f bf 94 81 cf 65 1a 85 3f
       0.06233409088138541 0.010304255862317977
0003d0 ad e3 e7 d7 7a 58 ba 3f 06 3f 1f dd 83 58 9d bf
       0.10291259547365313 -0.028657970782489016
0003e0 07 ff f3 a7 35 ee b9 3f 27 87 5d c0 f5 f3 a5 bf
       0.10129103994767884 -0.04287689183435211
0003f0 90 c4 0d 08 c2 60 8c bf a1 e1 66 8c cf d4 ac bf
       -0.013856426115781667 -0.056311117066289336
000400 5c 22 07 26 83 02 9b bf dc 81 c8 ec a0 6e b3 bf
       -0.026376771160160892 -0.07590680867043126
000410 9e 90 37 aa c4 e0 88 bf b7 95 4e d9 34 45 b4 bf
       -0.012147461361515174 -0.07918100648256297
000420 fd 55 c2 4a 18 b0 94 3f 2a 14 d5 9e 31 13 a6 3f
       0.020202998698172426 0.0431151873004086
000430 54 3f fe b7 fb db 96 3f 7a a7 c6 68 2e 7e ab 3f
       0.022323544602442638 0.05369706181529828
000440 0d 99 66 08 fa ba b6 bf 62 4a e9 e5 8c 11 6a bf
       -0.0887905378827762 -0.0031821967998351556
000450 88 68 5c 98 e0 19 ad bf 23 0c df 78 08 10 91 3f
       -0.05683805332064745 0.01666272390117397
000460 86 b5 6a 8a 59 a0 b6 3f 62 59 b7 92 9d 25 81 bf
       0.08838424329106517 -0.008372527160571411
000470 04 bf 55 2f 47 2d ab bf b4 21 92 ba 31 eb 93 bf
       -0.05307981922930874 -0.019451882374171794
000480 f4 8f 9b 12 b0 2f 9d bf 57 16 53 f4 10 f7 84 bf
       -0.028502226958963164 -0.010236866432374798
000490 4e d8 ec c2 e4 e1 a1 bf 67 9c 82 fa 1e 38 97 bf
       -0.03492655639131269 -0.022675022163323535
0004a0 83 dd d3 c9 bd 3b 62 3f 28 16 dd b4 73 92 40 3f
       0.002225752525756243 0.0005057396863114615
0004b0 b4 cd 6d 18 75 37 aa 3f 1e f8 cb 0f 20 b5 b2 3f
       0.0512043564148387 0.07307625184691388
0004c0 86 2d de 4d 97 24 61 bf 8d ee 8c fa 8e ea b1 bf
       -0.0020926432761762563 -0.06998532883602078
0004d0 e2 ec 2a 48 bc e4 9f bf d6 21 75 89 74 1a b3 3f
       -0.031145994095578618 0.07462242465874822
0004e0 3b 50 6a a8 29 97 7a 3f ca ee 16 1f 16 71 ac bf
       0.006491816259444556 -0.05555028085242737
0004f0 4f c6 59 ee 1f 90 a9 bf 45 51 a4 87 d9 b7 b1 3f
       -0.049927709432165394 0.06921157418793651
000500 57 e3 33 39 0b c5 93 3f 0a bb 9f 93 bc e2 90 3f
       0.019306350103735905 0.016489931593180386
000510 e3 c1 e2 37 95 56 45 bf 08 0f e8 b1 86 14 ad 3f
       -0.0006511906247138013 0.056797227112865
000520 39 4b b0 35 14 34 9e 3f 08 2a bb 5c a1 07 97 bf
       0.029495540406126983 -0.022490044865472597
000530 f2 33 bb 68 d2 e7 99 3f cb f1 cb 90 61 5f 68 bf
       0.025298392908371832 -0.00297516876014312
000540 b3 ec 2a 62 d9 83 93 3f 6a 8e bd 17 be 89 83 3f
       0.019057652107886635 0.009540066813946885
000550 f9 61 df c7 86 e4 76 3f 13 67 92 e3 63 b9 b0 3f
       0.005589033591569586 0.06532882982210379
000560 c4 25 4d 9f d5 0f 9e bf ed bc eb f0 66 bc 96 3f
       -0.029357278678878065 0.022203072027818505
000570 f0 97 2f bc c6 23 b4 bf 3f 54 47 53 57 60 9c 3f
       -0.07867090315230008 0.027711262185978077
000580 79 82 ff 31 15 93 b2 3f 87 07 2f 12 62 33 a8 3f
       0.072556805330814 0.047267021865550034
000590 c5 dd c3 7a c8 d4 a3 bf f1 71 92 f9 cf fa 6a bf
       -0.03873278139684148 -0.0032934247979723376
0005a0 da c2 39 9c a2 03 af 3f 81 77 73 0b 3b 27 9a 3f
       0.06057460934687749 0.025540278028408196
0005b0 10 fe 35 73 78 bb 73 3f be 09 92 f8 b7 9d a1 3f
       0.00481745768354315 0.03440642270381343
0005c0 21 ce aa c9 04 ba b1 3f ef 62 38 95 f1 e0 93 3f
       0.06924467013850989 0.01941277955310999
0005d0 a6 58 82 24 cd f1 a3 3f 2e c9 e1 7c cf 79 a4 3f
       0.03895417280834694 0.03999184035719093
0005e0 74 66 54 50 d9 3f 8e 3f 5d fa 0a b4 1a ea 73 bf
       0.01477021957775835 -0.00486193114255559
0005f0 38 18 1e 60 43 51 a4 bf 78 bd 07 15 44 b1 b8 3f
       -0.03968248890218756 0.09645486367639033
000600 ac 3f ca 50 a4 64 ba 3f 30 74 24 cb 6b 54 a2 3f
       0.1030981728783888 0.03580033163800811
000610 e6 aa ae 23 0b 14 53 3f 93 2b 0b e9 12 48 bc 3f
       0.0011644467146917858 0.11047475995580518
000620 a0 c2 cb fe 13 2a a4 3f 99 04 0d 2c 12 76 73 3f
       0.039383530476589046 0.004751273140585565
000630 eb dc 1a 40 8a 89 99 3f 82 93 0a 04 ec bd a0 3f
       0.024938736117033605 0.03269898938496053
000640 55 fa df 47 36 49 a7 3f 7d 6f 7d d6 0c 9f 92 bf
       0.045480438493531374 -0.018184853164128868
000650 27 23 f9 c8 18 3e 91 bf 46 15 af 7f d2 4b b5 bf
       -0.016838443056516852 -0.08318820588381923
000660 a6 b9 4a d4 35 f1 99 3f 37 76 b1 6c 0a 12 89 bf
       0.025334206659573553 -0.012241441194585352
000670 79 bc 65 ae 66 ac 81 bf e5 fb ec 7f 85 f1 84 3f
       -0.008629610249697205 0.010226290670855629
000680 93 33 5a bc 0b d4 a5 3f 9e e1 b5 bc 40 11 97 bf
       0.042633406393270644 -0.022526752012227307
000690 8c 22 0a 82 95 5a 76 bf 76 7e ad 14 f2 e2 b9 3f
       -0.005457481399056118 0.10111916546656538
0006a0 45 3c f1 4e 14 8c 99 bf 68 b5 1c 4f 95 f5 bb 3f
       -0.024948422735459514 0.10921605283211522
0006b0 94 a4 81 3b 89 67 a1 3f ab a5 0e c9 f4 ca b1 3f
       0.03399304248234461 0.06950311573623107
0006c0 ea a3 cf 48 5d 54 b2 3f 88 f2 8f 60 57 3e b7 3f
       0.0715997984658682 0.09079500300863164
0006d0 3d 0b a0 d7 c1 97 76 3f 6f fe 0d 41 e1 6a bd 3f
       0.005515820690564163 0.11491210783241866
0006e0 c7 d1 72 d8 4e 71 b9 3f 0d 5d b8 78 63 2e ac 3f
       0.09938519272220168 0.055041416632031305
0006f0 48 a0 39 79 88 25 9c bf 7f de 1e 4f c5 19 8d 3f
       -0.027486927412980117 0.014209310032909926
000700 60 6c ce c1 63 96 a6 3f b5 74 10 4a 0d 14 a2 bf
       0.04411613217163146 -0.035309233943033126
000710 aa 52 8b 8e 08 8e a6 3f 2b d0 35 a0 f5 fc 8d bf
       0.044052379036349024 -0.014642638160445717
000720 5c b7 a2 5b 6f 86 ba 3f 58 d6 93 d4 bf f9 aa 3f
       0.1036138151855232 0.05268668622913414
000730 3c 68 bb 71 97 8c 85 3f 85 d6 83 a9 be 92 9a 3f
       0.010522063406302455 0.02595041188847926
000740 56 67 64 1d 28 d7 a3 3f 21 76 37 c8 47 c8 91 bf
       0.03875089033881689 -0.017365571589712418
000750 78 ea 72 dc f3 30 aa bf 57 86 3c bd 98 f1 9b bf
       -0.05115472856546871 -0.02728880553252674
000760 92 9d 54 eb a2 4e 90 bf a4 56 1e 15 55 48 c1 3f
       -0.015924974072871807 0.13501990824868415
000770 05 b2 ea 0c 6e 95 be 3f 9b e0 b4 97 f1 1b bc 3f
       0.11946761908865973 0.10980138734601257
000780 e2 54 53 2c a8 4f a8 bf 70 5f 9a f9 11 9f a7 bf
       -0.047482734118298855 -0.0461354844275651
000790 74 f8 5a 2b 72 aa 61 3f 9f 59 2a b0 31 a8 a1 bf
       0.0021564702863932587 -0.034486344103402226
0007a0 b8 60 1c 86 2f c9 93 bf 19 11 f2 b0 a5 39 af bf
       -0.019322149811245665 -0.06098668847065109
0007b0 11 17 be 2b bc 99 a1 3f 85 c4 88 dc bc 21 9d bf
       0.034376030292191946 -0.028449011764852834
0007c0 c3 a8 99 22 e7 9b a9 bf f2 6b ea 97 f2 e0 89 bf
       -0.050017569516812375 -0.012636084805583512
0007d0 e5 66 43 44 84 66 b2 bf 1a 82 a6 a1 af 4b 8f bf
       -0.07187678019127082 -0.015281078453711894
0007e0 1b ad f0 b4 dc d7 96 3f 34 d7 7e 8b ac 5a b2 3f
       0.022307823699674417 0.07169607549334672
0007f0 07 59 82 e6 dd 51 68 bf 7f 24 c3 81 27 51 96 bf
       -0.0029687246315673907 -0.021793954176960725

encoder.1.0.bias f8 [64]
000000 95 cc 02 80 e4 2d a3 bf ea 14 00 40 bf e4 a2 bf
       -0.037459507585844744 -0.0369014516473188
000010 99 39 05 40 e0 73 a9 bf 30 46 0a 00 42 21 8b 3f
       -0.04971218854426524 0.013247027994370247
000020 9b c9 d3 1f f7 aa a9 bf 80 7a 15 c0 08 3a a6 3f
       -0.05013248694912705 0.04341151566290069
000030 48 c0 11 80 17 b1 ad 3f a5 4b ec ff e6 a4 ae 3f
       0.057991728194679626 0.05985185503063598
000040 1d 23 00 c0 34 cd b1 bf 05 98 df ff d6 48 95 bf
       -0.06953744590294915 -0.020785674445413366
000050 54 f0 fe 3f 62 be a7 3f a0 4d fb 7f c4 4a b2 3f
       0.046374388038629505 0.07145336269905167
000060 c9 06 f1 3f ad 1d a2 3f 01 ec 18 80 95 c5 af bf
       0.03538266568695076 -0.062054321181186374
000070 66 aa e0 fe 9d 8c 78 bf fe c7 0a 00 e1 24 af bf
       -0.005993477983830963 -0.06082823873056496
000080 41 33 53 00 24 df 7a 3f ab c2 36 40 d7 54 95 bf
       0.006560459737738723 -0.020831454557710554
000090 5a 41 ec 7f 97 5b a2 bf d0 b2 fd 5f 0a f2 a3 bf
       -0.035855039945206627 -0.038955997674610665
0000a0 15 4f fa ff 93 3d 9d bf 4f 27 11 40 1b 01 9e bf
       -0.02855521440376581 -0.029301095757808423
0000b0 79 f6 fb 7f 1a 6f 99 bf 44 43 09 c0 1d 6a a6 3f
       -0.024837888776338055 0.04377835244361575
0000c0 1d 04 f6 ff 1b af 97 bf c0 cd f3 bf 5c f0 99 bf
       -0.02312892675172772 -0.025330971923677614
0000d0 ba 61 02 40 1b 91 a4 3f 05 d0 08 c0 5c 19 b2 bf
       0.04016957432139941 -0.07069949806538041
0000e0 91 d9 ff df 30 d5 b1 bf fa 0d f9 ff 16 51 b1 bf
       -0.06965928524718935 -0.06764358281457553
0000f0 3d 61 f9 7f 24 7a ab 3f 62 0f f7 ff 99 2b 9f 3f
       0.05366624891456915 0.030439764259213027
000100 89 ef 0e 40 ed 56 a7 bf 0b b6 04 80 b0 f9 a5 bf
       -0.045585073537465944 -0.04292060435032504
000110 99 f2 f6 3f 0e 0a a8 bf 7e a0 6a 01 74 f3 6f 3f
       -0.04695171862428999 0.003900267194087147
000120 aa d2 fe df c0 cb b0 bf 74 ea 19 00 09 ec 8c bf
       -0.065609030424478 -0.014122076335515411
000130 e3 c2 ff 7f ef 73 84 bf c8 0c db 7f f9 ed 97 bf
       -0.009986754506799261 -0.023368738583269516
000140 b0 1d fe ff ba db a1 3f d8 f1 f5 ff a6 68 97 bf
       0.03487953543577349 -0.022860154507258063
000150 29 fb 12 00 8c 20 a1 3f 84 2f 52 00 47 19 90 bf
       0.03345143795876588 -0.015721425432772232
000160 4d 96 12 40 64 56 b0 bf ed 7c 19 c0 8b e1 ab bf
       -0.06381823124191861 -0.05445515365567553
000170 93 d6 02 00 90 1c 80 3f bf 7d 06 00 67 05 ab 3f
       0.00786697864564737 0.05277559161481404
000180 70 c6 fc bf be 42 b0 bf 30 44 1f 00 89 13 8b 3f
       -0.06351844966118292 0.01322085410711979
000190 10 c3 fb 3f f4 e4 a1 bf 76 fc 05 40 8f c8 b1 3f
       -0.03494990616844096 0.06946654618330847
0001a0 ea 80 08 00 1e 9e b1 3f 1f d5 07 00 af 11 ab bf
       0.06881892681895221 -0.05286929011701091
0001b0 7a 43 ff 7f 09 fe b1 3f 46 0d e1 ff c4 f7 84 3f
       0.0702825486653306 0.010238207873163884
0001c0 34 4e 3c ff b0 63 88 3f 53 47 02 c0 87 6c a3 3f
       0.011908896245166202 0.03793739527567532
0001d0 1e c1 00 60 6a 44 b2 bf a8 3b bb 7f d1 f3 a1 bf
       -0.07135643810102407 -0.035063311426362376
0001e0 6d 6f dc ff 8d cf 83 3f 2e 5f fe bf 9f fb a2 3f
       0.009673222895393708 0.03707598894760476
0001f0 74 62 7c 00 30 5d 68 3f 22 bd 0c 00 8f a2 93 3f
       0.002974122766215276 0.019174799325978438

encoder.1.1.weight f8 [64]
000000 46 51 70 a6 2b 51 ee 3f 12 42 0b 15 a9 84 f0 3f
       0.9474085093266147 1.0323878118543957
000010 f1 27 e3 c9 98 9f ef 3f c3 19 a3 6a 56 74 ef 3f
       0.9882320349799995 0.9829513628727046
000020 29 9d 50 17 a8 9f f1 3f b4 aa 16 d3 87 5d f0 3f
       1.1014786635149199 1.0228346105238133
000030 64 56 32 97 4d 12 ef 3f 77 3b ef de 60 c8 f1 3f
       0.9709842637118524 1.1114205082301092
000040 8d 05 66 47 b7 cb ed 3f 04 fd 99 a2 46 4a ef 3f
       0.9311176676275622 0.977816884595001
000050 70 7c e2 f2 6f 3a ef 3f 2a b8 a1 1b 6c 19 ef 3f
       0.9758834594575898 0.9718533076936684
000060 ea 8d 7d 85 7b bd ef 3f 04 77 95 0b b8 7a f1 3f
       0.991880188678292 1.0924606754774127
000070 b0 27 46 aa 76 c8 ef 3f 47 11 5a a3 f1 97 f0 3f
       0.9932206464447884 1.037095678418227
000080 cd 80 8e 9c 24 90 ee 3f 9d 75 35 6e 02 0d f1 3f
       0.9550955827471853 1.0656761460335027
000090 5e a3 b5 25 ee 46 ef 3f 62 27 cb 7a a6 2f ee 3f
       0.9774084793581144 0.9433166883766086
0000a0 6a b5 03 09 58 80 ee 3f d3 a7 c2 6b 02 46 ee 3f
       0.9531669784607122 0.946046076268653
0000b0 78 35 d9 c8 cd 49 ef 3f e2 6a c4 9e e3 78 ef 3f
       0.977759258539364 0.9835069752619712
0000c0 18 2c 63 c9 92 cd ef 3f 53 f7 33 d7 17 92 ef 3f
       0.9938444074008457 0.986583633726449
0000d0 14 2d 82 9b 4e 7b f0 3f fe 89 2f a9 72 51 f1 3f
       1.0301042627859873 1.0823847397629147
0000e0 01 0a 65 9b 7a a1 ee 3f c6 a7 44 ab 96 6c f0 3f
       0.957211783890955 1.026510876671169
0000f0 5e 00 0a 39 06 d1 f0 3f 28 d7 6e 8b c6 19 f1 3f
       1.0510313251579855 1.0687928625679408
000100 84 e7 a3 a2 28 8f ef 3f e8 35 af 61 b4 42 ef 3f
       0.9862254311149035 0.9768926532648807
000110 43 2a 85 27 87 2a ee 3f 49 e4 ce ef 3f 02 ef 3f
       0.9426913997534218 0.969024628043493
000120 15 b0 42 b9 08 0a f0 3f 1b a8 ba 49 bb c7 ef 3f
       1.002449725793672 0.9931312980672858
000130 c0 ea 35 3f 06 c5 ee 3f 21 67 f6 b6 36 4b f0 3f
       0.9615508303243914 1.0183627268765536
000140 69 b8 35 b3 d7 3a f0 3f 79 68 fd b4 6b 59 ef 3f
       1.0143658638367248 0.9796656165083412
000150 95 2a f3 1f ea 4f ef 3f 69 70 82 f8 62 2e f1 3f
       0.9785051940937871 1.0738248546031406
000160 cb 33 d9 fa f9 e4 f1 3f bb 92 74 39 f4 d0 f0 3f
       1.1184024618880695 1.051014160571113
000170 56 9a 5c e2 ce d9 ef 3f bb 90 e0 02 b4 74 ef 3f
       0.9953379078986682 0.9829959922976949
000180 16 d0 1d f7 35 c4 ef 3f 8e ff 54 45 84 29 ee 3f
       0.9927015139096536 0.9425679544583419
000190 20 4c b2 49 6a 0b ee 3f 40 2a 8e bf ab a7 f0 3f
       0.9388934554466495 1.040935276282326
0001a0 ed 90 54 bb 4f 25 f0 3f 7f 08 ed 9f 93 57 f1 3f
       1.0091092412558809 1.083881020269956
0001b0 f9 75 47 cc 45 8a ee 3f 98 91 9d 5d 33 59 f0 3f
       0.9543789853884724 1.0217775017600612
0001c0 6c c8 fb a2 d7 cc f0 3f 0d 84 d0 4a 11 33 f0 3f
       1.050010334638979 1.0124676630441656
0001d0 79 77 3a 55 f1 31 f0 3f ea 02 8d 75 b1 31 f0 3f
       1.0121930436357316 1.0121321288899545
0001e0 02 8a 5b 9d d1 37 ef 3f 9e 90 8b e5 95 fe ee 3f
       0.9755638192548874 0.9685773356727798
0001f0 3f 09 bf 84 57 22 f0 3f fe 10 ba 49 ac ef ee 3f
       1.0083842454337881 0.9667569580056179

encoder.1.1.bias f8 [64]
000000 30 3b 47 fb 61 5f c2 bf bb ea b5 3e d0 3e b0 bf
       -0.14353585023351334 -0.06345845728894066
000010 14 64 55 2b cd ad 76 3f 06 fb d5 56 de 7c c5 bf
       0.005536843721835733 -0.16787318458587935
000020 0e 81 87 3d a9 91 c0 3f 2c 86 2d fa 49 a2 97 3f
       0.12944522384987817 0.023080020804064613
000030 ca 60 90 67 78 29 a4 bf 4d 58 0d 54 3e 06 c2 3f
       -0.03937889351090147 0.14081553558452456
000040 35 97 d1 2c 6c 58 c0 bf e3 86 d9 03 0d af c5 bf
       -0.1276984423486113 -0.16940462768530215
000050 15 9e 6d 58 2f 01 b5 bf d1 ab c9 21 bb d1 7f 3f
       -0.08204933079616013 0.007768374428091599
000060 13 38 7a 03 ad 3e c3 bf e4 11 a7 5a 7e 0e bb 3f
       -0.15035021467014129 0.1056899043388238
000070 35 42 4f a4 72 94 c8 bf 19 3b c6 5d 6f 85 8c 3f
       -0.1920302679341305 0.013926382111802792
000080 ae e1 76 4d 04 65 c3 bf f3 46 89 de 19 91 b6 3f
       -0.15152028829994663 0.08815156634343761
000090 e8 be 83 da 48 ea bb 3f ad 09 21 98 a4 31 98 bf
       0.10904364905195119 -0.0236268728115278
0000a0 ad 69 f6 41 49 3b a4 bf 70 d9 28 3a b0 f4 3d bf
       -0.03951481752592954 -0.0004570894472267972
0000b0 d6 a5 d6 2d 75 e4 c7 bf df 23 7d 02 e1 cf c4 bf
       -0.18665947664457744 -0.16259396192097506
0000c0 f8 5f 86 c9 96 97 a5 bf 53 cb 40 a8 30 30 b8 bf
       -0.04217215738316321 -0.09448532207242737
0000d0 b9 6b 8a 6f e4 ff b5 bf 4c bd 94 e6 e0 ec ba 3f
       -0.08593585704004071 0.10517697934550546
0000e0 3b 19 63 b0 29 7a 92 bf 07 f0 77 e9 6a 80 90 bf
       -0.01804413928109592 -0.016114874362742195
0000f0 e1 46 21 08 60 0a b0 bf 75 17 b7 5b eb 65 40 bf
       -0.06265831182943372 -0.0005004309854761262
000100 0a 30 df 44 ea fb bf bf 72 31 bb 8f 57 f3 c6 bf
       -0.1249376695770367 -0.17930120962263235
000110 b5 b6 62 d3 8a af a9 bf 79 88 28 e8 4c 4b c3 bf
       -0.05016740637198095 -0.1507354863725288
000120 6c 48 af 56 35 e3 ae 3f e4 9b c1 ce f0 5c 9e 3f
       0.06032721217310741 0.02965141546192375
000130 71 e4 85 be 62 e6 c3 bf 90 6d 80 b6 24 ef a2 bf
       -0.15546831419831933 -0.03698076942256556
000140 8a 35 3f 28 90 5f aa bf b8 9e 1c 54 e3 3b 89 bf
       -0.05151033870024964 -0.012321258549106914
000150 6f 31 11 16 8a 2d b1 bf fb b8 c9 e8 c1 4c b4 3f
       -0.0671011260867027 0.0792962258653666
000160 a0 89 5c ae 25 7c c0 3f 30 fe ee fd 09 27 a4 3f
       0.12878867162460228 0.03936034416937806
000170 de f0 fe 52 da 90 c3 bf 3f ca 5d db ea f1 bd bf
       -0.1528580575230824 -0.11697261672615243
000180 94 9d 50 52 d2 a6 c3 bf dc e6 ce 2f 9e 3c b7 bf
       -0.15352849025042004 -0.09076870600884085
000190 2d d1 0d 2e ae 74 bd bf b5 54 c1 f5 ea 3a b2 3f
       -0.1150616514622171 0.07121151447184355
0001a0 af d8 d2 53 ef ee b0 3f 48 54 b3 9d 7e 20 b2 3f
       0.06614585682368344 0.07080832815275173
0001b0 26 ca f7 31 a9 71 c9 bf 47 b5 10 90 ed b4 b8 3f
       -0.1987811559661889 0.0965107418748704
0001c0 d2 b4 73 0a 4f 6f b2 bf b8 2a 7e b2 ca fe be 3f
       -0.07201093678641549 0.1210753141187223
0001d0 70 1b 6f bf 22 08 a6 bf 1e 5a 6b 88 f3 a2 b3 3f
       -0.043030820721063345 0.07670518951940905
0001e0 10 be fc 00 34 1a 93 3f 28 fa 5d b0 c2 e2 70 3f
       0.018654644546755306 0.004122505668304778
0001f0 2b 54 ce ee ee 9b c7 bf f0 80 a5 83 94 5b c3 bf
       -0.18444620762298433 -0.15123230388690656
