models/matching_nets/SETA_n=1_k=5_q=15_nv=5_kv=10_qv=1_dist=cosine_fce=None.pth (torch, 316367 bytes, 24 tensors)

encoder.0.0.weight f8 [64, 1, 3]
00000000: 748f 356a bfc4 de3f 089d 8962 48a2 99bf
00000010: 42a7 b6b4 6aa6 cebf 2b43 1720 5b4e d4bf
00000020: 97d0 f8c7 5c0f d7bf ec0a 6845 bb48 b7bf
00000030: abbc 71da 7eb5 ca3f f3f5 323c c555 a63f
00000040: d7d1 7c7f 18f9 b0bf a117 afbf 85b6 db3f
00000050: 31ed cd9b 5f3b a0bf c483 249a 27d4 e2bf
00000060: 430a 8fcb be66 e03f fae9 9070 3550 d7bf
00000070: bcce 660e e06c c93f 717f fa6d b539 e03f
00000080: c999 77e8 89c2 e0bf 0dc8 d74f 7b8a dabf
00000090: 99d7 c3ce 49ed 9a3f d48a a9e1 3016 c9bf
000000a0: d6be 522c 7234 d3bf 0943 89dc 840b ce3f
000000b0: 5ed8 3923 088d de3f 9a5d e24c 5e9b d13f
000000c0: 2c6d 0e24 0bb8 e23f ce9e fdda 1d81 d13f
000000d0: 1f45 3d13 d125 d9bf ce0a 38d8 3db6 b1bf
000000e0: 1bc1 6feb 90ca c8bf 38fa 5494 cc40 d1bf
000000f0: 60f7 c8ed 9a83 dbbf 9359 27d5 e79a ac3f
00000100: fbbf 4227 97c5 d6bf d078 ba8f 207b d5bf
00000110: a4b0 1a8b f86a c3bf f084 1376 a74c e03f
00000120: 1244 7988 84df c4bf ceb4 bf92 c6ac 8e3f
00000130: 387c 0929 c6d9 b3bf 4e5f 5cf2 6cfe cbbf
00000140: 2a31 67fd 319f a73f 9d3e aacd 688a dabf
00000150: f60a f3c5 3be1 df3f 6c42 8f88 e928 dc3f
00000160: 3d08 6563 4c3e a93f 01c3 da1d 6136 ce3f
00000170: 1344 11ec 0f5d e03f 708e 1cd5 8022 99bf
00000180: 7c5e 0d4a 799f d7bf 2861 d766 cd16 cabf
00000190: 2ffb c6ae d4c7 debf c6d4 a2a7 661e de3f
000001a0: 961e 3bdc 1eb1 e03f 73bb d591 9e71 bebf
000001b0: 6466 e0aa 4edd e4bf a543 a2db 157e d2bf
000001c0: 0749 e148 2971 bebf 52d1 b23d 4384 dabf
000001d0: e927 7b83 94ed dbbf fdb0 bce2 4dd4 e0bf
000001e0: 84e2 3ea8 ac07 d7bf cd51 8f29 ce57 c1bf
000001f0: 5941 9dc9 15ff ba3f ff46 db76 fe1a e0bf
00000200: 4dd0 b016 b619 c73f 7777 b3b9 21ad d53f
00000210: a51f cd49 052d c33f 85a4 a1cc 96e3 a43f
00000220: 55a1 bbbe 4899 c0bf 568b 2b16 d146 d73f
00000230: 9f85 c8ad 7d6c d5bf 2cb2 4b6a 881b df3f
00000240: 0d05 8937 d0e6 d33f 859c 4ec8 7e90 c9bf
00000250: 7948 7038 a5e7 cdbf d55a 211d 5978 d43f
00000260: e35f 4ded 88db dabf 22df ce79 684a bb3f
00000270: 2c34 cc49 b4f6 a33f d463 3129 01f2 d4bf
00000280: dfd5 cfe1 39d9 b9bf 7932 1ac8 ea99 c0bf
00000290: c379 1438 ab5c b83f 71e1 dedb 6ca3 d93f
000002a0: 8130 e3af 2368 d03f 06d7 1fb3 cd42 d43f
000002b0: 0dc5 8018 d558 d23f 5b67 4313 f920 9c3f
000002c0: 4c42 65de 3759 c8bf 40d9 f852 fda4 e23f
000002d0: a6a8 5906 24a5 e0bf c784 2f4c 385a c23f
000002e0: 5ba9 ab20 af45 c13f 841e f25c 0d6f d0bf
000002f0: c148 8a4b 85ca ba3f 37cd 8ca6 b47c abbf
00000300: c06f 975f f0f7 d6bf eb78 f262 2f2c 9a3f
00000310: cae6 6564 9f2c c2bf 10b6 db4f 51d5 a83f
00000320: 3618 6f32 d2e0 bc3f 737a b871 8d36 e0bf
00000330: f884 70f3 8209 debf e3d1 fe83 80c7 debf
00000340: 69d4 4de6 56c5 d83f dad8 a592 8ac4 d0bf
00000350: 1554 d080 78f8 e03f 5a73 efb3 d090 afbf
00000360: 6633 7c11 8294 d2bf e353 c455 dce1 c73f
00000370: cd4f de08 5d9a d8bf 151f bd49 0e3c c63f
00000380: f05a 22da 2171 b0bf 934a ecc2 6a03 dc3f
00000390: f143 410c 3f68 b13f 127e 38ca 61fd cfbf
000003a0: a48d cb3a 2aa9 c4bf 7b9c ea28 d3ca cb3f
000003b0: 2011 e500 1a8e e23f 16ed 0d7f 3fc6 d3bf
000003c0: 72dc 4d33 1ecb d7bf 8572 8b35 5a39 ca3f
000003d0: ffb3 2358 043a c4bf 58da ed1d dece 913f
000003e0: ef13 01b6 7d1c d33f 2a0b 7aa4 fc7e de3f
000003f0: c2c3 0702 9639 833f 5574 39c8 06af cfbf
00000400: f271 5059 954a b83f 680e 2a23 7a1e c63f
00000410: 4058 532a 4e66 d7bf ba28 2eb6 36f0 ccbf
00000420: 16a3 2d0d 8ac7 bdbf 6901 82cb 2d5f b43f
00000430: 0271 7343 8eaa e13f 0ae5 0915 f455 e0bf
00000440: 96ea 2713 1ffe b23f 987e 4f88 977b c13f
00000450: c3f5 3b84 6a96 c43f eb35 790b eb4e de3f
00000460: feda 820a 0ca4 ccbf 5aa8 c796 cb58 d4bf
00000470: b04e d17b 9fcc 91bf 43f9 f89d c439 ca3f
00000480: 30c4 3532 e0f1 c7bf 43d2 9eab 3f3a d7bf
00000490: 63d8 ab96 4d1d d6bf 95a2 bda9 7d39 d33f
000004a0: 879c 0c0c c5c9 dfbf 9eb2 ae0c ff02 d7bf
000004b0: a7ac d5ac 4ca6 d7bf c693 3cb7 f91c d13f
000004c0: 75ce 5f32 b53a ba3f fa4c 1afd ca0f da3f
000004d0: 8de8 ae5a 4233 dabf 3d5b 5fe6 f404 953f
000004e0: 0425 3aea f30a cf3f 25e6 1061 bce0 b1bf
000004f0: 0777 7ba5 1e77 d5bf ae7b 2ba6 76ea bbbf
00000500: 4210 b03c 9871 e0bf 32d3 59a4 c74b c23f
00000510: bd8a a67f d1d3 dbbf 9e22 061e fd92 dabf
00000520: 7429 99fe 1d09 e1bf e2ab 001a ce03 c13f
00000530: d102 8e1c 36f1 e03f 8a8a 58b4 d727 da3f
00000540: 5c2f fa0c 9ed2 813f 2e5e b4ec d3a0 bebf
00000550: 4a14 5d59 0b26 a0bf 6806 9223 b0aa d73f
00000560: bd2c 7b89 1ce9 c6bf 4293 de6d 3dfd 743f
00000570: 030d 8f8a 1909 dcbf 25ae 10f1 9d6d cd3f
00000580: 8799 c406 9cc7 813f b98e 3116 7fbe bd3f
00000590: e2a8 50c0 b8c4 d4bf e944 c3b0 f2fe de3f
000005a0: 621d a729 cc07 d3bf efdc 2d97 cc92 d4bf
000005b0: 23f5 ce5c 06a1 e03f dac6 9eb9 3fe2 d2bf
000005c0: 2955 d1e4 d1fe d03f 4cd9 0735 cbc9 dfbf
000005d0: 851c efd3 a8af e03f f564 8635 4fa7 9abf
000005e0: 55a6 f7ef 7c18 da3f b2a1 7398 c82f cd3f
000005f0: e9c7 ebb9 0b4b bebf 1e2f 337b 3f2f d83f
0.4807585274886528 -0.025033122076277642 -0.2394536383047186 -0.31728246816514866 -0.3603126480914027 -0.09095354504101366 0.2086638037321554 0.0436231266007602
-0.0663008986710517 0.43301528662811434 -0.03170298363599001 -0.5883977900122024 0.5125421500927775 -0.3642705535200147 0.19863510802462325 0.5070445201890675
-0.5237474003195582 -0.4147022514072212 0.02629580807202778 -0.19598971384683372 -0.30007604912223707 0.23472653168075677 0.4773578971866125 0.2751079321692146
0.5849662498689319 0.2735056532460306 -0.3929331481823101 -0.06918703583509542 -0.19368182655262775 -0.2695800255350238 -0.429907543384493 0.05586933590864187
-0.35580996355110955 -0.3356400874707903 -0.15170199196052636 0.509357195489569 -0.16307121909861216 0.014977980950755667 -0.07754171850091118 -0.21870195230507722
0.04613643854426848 -0.41469783863520054 0.4981221612071488 0.4399970849599757 0.04930342400849994 0.23603452642193903 0.5113601313297543 -0.02454568196038881
-0.36910850745832824 -0.20382087251233227 -0.48094670360653685 0.4706055295058146 0.5216211606393297 -0.11892119465276867 -0.6520150506432398 -0.2889456410276188
-0.11891420392320039 -0.4143226721310117 -0.43637574043225286 -0.5259160450418957 -0.35984341078032167 -0.13549210576333195 0.10545478985045999 -0.5032951661507638
0.18047214610999376 0.33869212279193256 0.1498114214284644 0.040798866729184126 -0.1296778613389146 0.36369731106804204 -0.33474676104568774 0.4860554731410811
0.3109627287231696 -0.19972214489573417 -0.23363175636092473 0.3198454651332388 -0.419649345150445 0.10660412763433816 0.038991579063896914 -0.32727078459498427
-0.10097085726723475 -0.1296971776067897 0.09516401404514511 0.4005996844457718 0.2563561647082296 0.3165773629437897 0.28667189972755197 0.02746953182290866
-0.19022272452504507 0.5826403255985397 -0.5201587795284197 0.14337829322815862 0.1349390897297081 -0.2567780883477797 0.10465272039644714 -0.05368580372887737
-0.3588829930793018 0.025559177793746207 -0.1419867744660251 0.048502484319993155 0.11280549746797494 -0.5066592427354649 -0.46933053754226206 -0.48092663660216156
0.3870446442663878 -0.26199592896536006 0.5303308978933524 -0.06165172764278877 -0.29031421382460676 0.18658022106015357 -0.3844215952497024 0.17370775795483753
-0.0642262609056663 0.437708559374337 0.0679969220084471 -0.24992010473305065 -0.16141250487190206 0.2171272229945521 0.5798463838077943 -0.3089750996366133
-0.37177233705683144 0.20487525572288603 -0.15802053741154506 0.01739069993660744 0.2986139562020175 0.4765006643503279 0.009387180268250254 -0.24752888466437875
0.09488805227778821 0.17280508725172017 -0.3656192220054244 -0.22608074088595292 -0.11632597753272153 0.07957731455281238 0.5520697896386368 -0.510492364016643
0.07419008462594898 0.1365842261866319 0.16084033447979892 0.47356678123909884 -0.22375631821861214 -0.317919633146294 -0.0173821372339506 0.20488794053557954
-0.18706896258984917 -0.3629302192669323 -0.34553851808539643 0.30038396431204123 -0.49669004608808404 -0.3595578788615884 -0.3695251167143376 0.26739352125360616
0.10245830993499701 0.40721392361702125 -0.4093786130503155 0.020526720581837344 0.24252175270911647 -0.06983544702315976 -0.33539549026851073 -0.10904637867814301
-0.5138665376002864 0.1429376175398374 -0.4348033663356253 -0.41522148067500975 -0.5323629353163555 0.13292862195643723 0.5294447477063732 0.40868179904843116
0.008702502032313646 -0.11964153794212315 -0.03154025522102495 0.36979297135994793 -0.17898899758288236 0.005124320943569684 -0.4380554059136587 0.22990774412879592
0.00868150611547659 0.11618799487910793 -0.3245069387509273 0.48431079160680085 -0.2973509222760723 -0.3214599109991942 0.5196563542046174 -0.2950591385552862
0.265552972273627 -0.4966915147664579 0.5214428080879691 -0.026028859750657458 0.4077446311408484 0.22802073902063352 -0.11833260811889058 0.37788378745311657

encoder.0.0.bias f8 [64]
00000000: 2411 ea3f 066d c3bf 9d65 f004 b3bf b93f
00000010: 0bfc 95fd 8378 953f b649 a07f 969c dc3f
00000020: bf9d 94ff bedd cebf 73fa d6fa 533f 973f
00000030: 27ba 23c0 c83e e23f 06ae ecff a44c de3f
00000040: cb7e 0380 4f13 c03f 614d ad40 03c1 e1bf
00000050: 7a76 7700 8505 d83f da1f b600 44a6 aebf
00000060: 7ef1 d6f2 13b0 ba3f 8824 b681 8251 c93f
00000070: 2dff 0440 760c dabf 3a67 0980 8c69 d83f
00000080: a491 b981 39ed c1bf 4d84 ee3f 2e5e d7bf
00000090: aa09 90fa c385 9ebf 03f0 e602 3b77 b3bf
000000a0: 02b0 7dfe 40ad d73f 9bd5 01e5 ef98 7f3f
000000b0: db3c 6f63 4fbc d5bf b237 f3ff bb37 dd3f
000000c0: dbbd 7380 1d92 dc3f 2a67 d4ff 51a5 b23f
000000d0: 1f0e 4680 f823 e23f 82fa 1880 681e cc3f
000000e0: 686b 1800 b224 dc3f c22c 9aff 7a75 d13f
000000f0: eb4d 3580 8340 e2bf 8d59 c39e 0533 d9bf
00000100: e6b3 5980 8482 d53f 3626 cc80 c36d cb3f
00000110: 2e0b bb13 88ce 88bf fb76 c33e d149 c6bf
00000120: 5c96 2bbf 1bb4 dbbf d980 3e80 5178 c23f
00000130: e30f b17f 6be6 dabf bc61 e07f 3e7c d3bf
00000140: 0cf3 653f 40f6 dcbf 7108 24a0 2532 e2bf
00000150: 5400 95fe 5b3d bb3f 1b23 73a0 0cd2 d9bf
00000160: bf07 98fe cf2c 89bf 86d6 db7f 168e c93f
00000170: c807 0a40 ac4b e1bf 6c22 7e3f 0fae d7bf
00000180: bef4 5600 4751 db3f 5610 5400 a269 c43f
00000190: a87a c202 e1fb b63f 19a2 4f7e c659 c23f
000001a0: 6bb5 6d81 deba db3f 55ae 2b00 c65c aebf
000001b0: 3727 d2c0 3e8b c9bf 1710 dfff b570 b3bf
000001c0: 0508 4482 9259 e03f 2074 f9c2 ad96 da3f
000001d0: 57ff 547f 9bcb cbbf 38c4 66ff c9d3 cbbf
000001e0: 763c 821f d007 d7bf f3c5 fbfb c6d1 be3f
000001f0: edba d63f faf5 d83f 50ff bdff a7a7 c5bf
-0.15176466103378872 0.1005813490923146 0.020967542984632142 0.4470573660229563 -0.2411421535445992 0.022702514824909103 0.5701640846944586 0.4734280108702652
0.12558931112925217 -0.5548111212942041 0.37533688588687364 -0.05986225613293046 0.10424923590375632 0.1977999814373883 -0.40701061489015694 0.3814421892508225
-0.14005202135298334 -0.36512333148317994 -0.029807150047426546 -0.07603806324817701 0.369949577833495 0.007714211547967943 -0.33961853704836437 0.45652675624011885
0.44641816658164907 0.07283508773653283 0.5668909554810319 0.21967798475994377 0.4397397042209179 0.2727954383960417 -0.570375204474144 -0.39373913292129076
0.3360911611005676 0.21428722180307752 -0.012112677671557739 -0.17412772717118927 -0.4328679434678173 0.14429682504579125 -0.42031371564757886 -0.3044582604211674
-0.45252996627077446 -0.5686214568852518 0.10640501942998642 -0.4034453932659276 -0.012292504269684089 0.19964867823698657 -0.5404874087109812 -0.3699987525983832
0.4268357756917104 0.1594736577609434 0.08978086774230098 0.1433647267106302 0.43328058852679047 -0.059301555176571576 -0.19956192412456072 -0.07593858239039296
0.5109341186764601 0.415446701435771 -0.21715110509284827 -0.2174007889821341 -0.3598518665029994 0.12038844730320601 0.39001327738053143 -0.16917896258746135

encoder.0.1.weight f8 [64]
00000000: 72bb 31dc 8320 ef3f 87d6 ca6d 0fd8 f23f
00000010: c191 d140 de0f ef3f 0062 98cc a437 f03f
00000020: 28b0 6f12 57ff ee3f 00ca 2ba6 a114 f03f
00000030: 6af7 2df2 24ec f03f 3d16 9e01 dc44 ef3f
00000040: 8753 466e dd85 ee3f 4fd0 14d2 8677 f13f
00000050: 6e3c ade7 381c f13f 0ae7 2984 fc3e ef3f
00000060: c772 a833 ce56 f13f 9923 445b 79b9 f03f
00000070: 5cf9 4027 b7a8 ef3f ef60 a8c7 a7dc ee3f
00000080: f581 2791 a3bc f23f 7b9d 70e7 dd35 ef3f
00000090: 2086 95f4 8bbc f23f 8e00 a34c a7e6 f23f
000000a0: 5b56 abfc 3703 f13f 1e78 a2fb 97a1 ef3f
000000b0: d193 a975 ce53 ef3f 186f 6439 ae2c ef3f
000000c0: 3c4d a753 544c ef3f 7170 d4ce 1366 ee3f
000000d0: 19a8 ece5 1ade ef3f ddbf 95b5 1d3a ef3f
000000e0: f990 5f2b 9dcd ef3f 81bf 662d c1e8 ee3f
000000f0: b0f2 a725 88a2 f03f f56d 7746 7644 f03f
00000100: 6933 c90f 1edd f13f 8d7c b630 d169 f03f
00000110: 1991 28fe 1c0e f03f 9841 c577 331f ee3f
00000120: 1ee0 0f98 b28f ef3f c1f0 b161 a6f6 ef3f
00000130: cd2f 03c7 7a31 f03f 385a e6e6 4b8f ef3f
00000140: 1062 742d 5274 ef3f 3103 5eb1 3ef6 ef3f
00000150: 2e09 d732 d519 ef3f c2bf 4b70 3e13 f03f
00000160: a553 1359 86fe ee3f 786d eb39 6880 f03f
00000170: f336 bf3f 4d3e ef3f b59d 4836 cd8a f03f
00000180: 62de f480 c1d5 f23f b9bb 24cf c802 f03f
00000190: 6015 65eb d001 f03f 8a75 1756 bff7 ed3f
000001a0: ae67 78da 622f f03f 7bae 5398 1da2 ef3f
000001b0: 5225 e20d 20c0 f23f ae4f 32b0 d4d9 ef3f
000001c0: e23d b532 676b f03f e74a df4f 56a4 ef3f
000001d0: 7523 dd46 2452 ef3f e3c3 a3d9 a544 ee3f
000001e0: 269a 6bc9 9f22 f03f 963f becb 400d ef3f
000001f0: e1df cee7 c1fb ef3f f72c b130 0493 ef3f
0.9727191258115069 1.17774908912307 0.9706870332707284 1.0135848991395733 0.9686694488605143 1.0050369731003457 1.057652421964543 0.9771556884376832
0.9538409379771203 1.0916813093472404 1.069390206324694 0.9764387685129077 1.083692743100231 1.045281750210256 0.9893451468158605 0.9644354724469205
1.1710544271555794 0.9753255386648755 1.1710319093766728 1.1813118928548962 1.0632858152288438 0.9884757914294402 0.9789802835554103 0.9742041703170541
0.9780675538881165 0.9499606170316054 0.9958624354087561 0.9758442446309307 0.9938493582854157 0.9659124266381555 1.0396806212367373 1.016714358577585
1.116483747161704 1.0258342650265917 1.0034456184449196 0.941308721472569 0.986291214939232 0.9988586338145283 1.0120799802707439 0.986242247558784
0.9829493415628026 0.9988091911510307 0.9719034188240465 1.0046982180174244 0.968569921470238 1.031349397896376 0.9763551945740957 1.033887111707242
1.177186492668533 1.0006797877829128 1.000443381796991 0.9364926034428873 1.0115688833234162 0.9885395026335141 1.1719055692977531 0.9953406754816478
1.026221464231519 0.9888106880192397 0.9787770637568501 0.9458798647666494 1.0084531658154758 0.9703678111418295 0.999482109785273 0.9866963339822225

encoder.0.1.bias f8 [64]
00000000: d5ce 9393 ccbe c2bf a794 5218 ff5c c33f
00000010: a324 ea8b e190 c3bf 933a 3481 671e ac3f
00000020: e340 5adf e273 b93f 2fbb bf9b 6bef a93f
00000030: 4570 26b2 0bf4 ac3f a7aa cd9f 0deb c2bf
00000040: 81be 64d1 2157 b5bf 4389 5a64 972c b43f
00000050: c6fa 5eaf 74ac b43f ed57 1729 5e45 bdbf
00000060: 4e74 93e1 62e6 bc3f d1e4 a3ac f1d9 bc3f
00000070: e109 bfec 1d32 b1bf 526c 20f5 8372 b4bf
00000080: 5c16 112b 07df c53f 2f44 faf2 0de4 b9bf
00000090: f927 0147 7c04 c53f c743 e28d 48c9 c43f
000000a0: 9154 a516 d729 b83f 1caf 144c 41ef c4bf
000000b0: a093 1b02 1237 c4bf f68d c975 29db 8cbf
000000c0: fc62 e791 7cf6 b1bf 9f78 20db 628b b7bf
000000d0: bd8b e17e 07ed ae3f 0da3 ad0e d815 c6bf
000000e0: 0f16 5fa8 16a6 a6bf fcbf dc91 bae8 b8bf
000000f0: 3cf7 c97a a423 b9bf 7b51 aa77 334c 6dbf
00000100: ecca 91ad 9cd8 c33f 8d25 1b19 34a1 b23f
00000110: 27f7 f6ae 7082 bb3f 23a3 fec3 2224 c0bf
00000120: f0bd ff17 a026 953f 834f dae8 8e62 bf3f
00000130: e702 4abd 74f7 ac3f ee4c 6ab2 6fb1 a8bf
00000140: 4efe 7c1e fa31 a9bf 5577 0ad5 3683 b53f
00000150: 48d3 9703 0ac8 bebf dae0 da79 59fb aa3f
00000160: 3f92 918c 3410 c3bf 780f c758 6c41 a8bf
00000170: e474 f195 dffd b93f 6678 5937 815f a23f
00000180: ab7f 4e26 0b4e c43f d48b c2ad 134b ac3f
00000190: bd13 c114 4e6c c6bf f949 b182 6015 c5bf
000001a0: bb31 6ade 484c a03f 9542 8043 cdb5 b53f
000001b0: 044d f7f2 e2cc c43f 2f4c 6585 a3f4 adbf
000001c0: 5e64 2b03 9c59 ad3f 6451 b4d7 82f8 a13f
000001d0: 4fa4 680f 12c1 713f 0706 2b25 d0a1 c03f
000001e0: 26e0 83d2 5fa7 c1bf a6e5 699a 6ea1 7a3f
000001f0: abe3 d65a 09c4 963f 0c9d 32e2 5fd8 b3bf
-0.14644772725988867 0.15127552688241971 -0.1528589184929717 0.05491946651647086 0.09942453339522532 0.050654757273028365 0.05654942083057838 -0.14779825499438923
-0.08336078035494589 0.07880541038551762 0.08075646668929001 -0.11433971884920853 0.11289041526056673 0.11270056214188463 -0.06717097310960397 -0.07987236723458693
0.1708687744414189 -0.10113608533926376 0.1641993853284587 0.16239268234178736 0.09438843062283044 -0.16355148520357765 -0.15793061354557114 -0.014089893252452673
-0.07016733705621542 -0.09197061395431881 0.06040213989105989 -0.1725416251822697 -0.04423590474429428 -0.09730115948764245 -0.09820011136795598 -0.003576374552105741
0.15504797434876794 0.07277227032604668 0.1074591090354856 -0.12610277719547822 0.020655156578809952 0.12259762940294476 0.05657543955476801 -0.04822873166008344
-0.049209419461928236 0.08403341962045137 -0.120239854695524 0.052698894619824535 -0.14893204559042947 -0.04737413963041964 0.10153005037996682 0.03588489342358585
0.15863170023385229 0.05526029106228916 -0.1751802064265159 -0.16471487409087596 0.03183200564407992 0.08480532548879645 0.16250264037680762 -0.05850707057347681
0.05732429064455212 0.035099114256953695 0.004334517047518706 0.12993814291807856 -0.13792035845813294 0.006501609843888733 0.022232195062062903 -0.0775203635445118

encoder.0.1.running_mean f8 [64]
00000000: 7f26 3b83 cbfa c2bf ae5c 75ab b793 b63f
00000010: 54de 38c2 5a83 983f 5856 8be4 d46b dc3f
00000020: bb96 c76a 0326 cebf 2bf0 fc77 6e11 903f
00000030: f0da 7af9 5200 e23f 2868 a82d b651 df3f
00000040: aa19 dc31 ff08 c13f 0595 c3f4 5807 e2bf
00000050: 2382 6c83 6644 d73f 8034 d604 6f74 aebf
00000060: c5fa 4539 11c1 b93f 77bb aed5 581b c83f
00000070: 14ec bdf7 8007 d9bf 0d24 a657 1029 d93f
00000080: 07a8 0c6c b81a c4bf 72ee e3ea 3377 d6bf
00000090: 851f 4bc4 deff a7bf c5a7 e7b2 c925 b9bf
000000a0: fb1b 98dc 5145 d73f 7932 e72b 2f4a 803f
000000b0: 86c8 2fd8 7eac d5bf e27b be12 c8c0 dd3f
000000c0: e4f7 7199 d471 dc3f 60f9 aa56 b5ad b23f
000000d0: 605b 8573 2cf0 e13f 6036 8032 a6e1 cc3f
000000e0: fb87 4fab fd07 dd3f 4da0 0e42 1fe5 d13f
000000f0: fae4 1af4 1461 e2bf 5b81 6162 0d69 d9bf
00000100: 4aa1 f40d 8504 d53f f83c 49a7 1eb6 ca3f
00000110: a456 18b9 0bc2 95bf 54b7 c725 4cde c5bf
00000120: c30b 5189 3a35 dcbf 08a1 1154 529a c33f
00000130: 6598 452a c041 dbbf 9833 12b1 f3fa d2bf
00000140: 4dc4 6709 d14b ddbf c3ba 94ee 53c9 e1bf
00000150: 231c 07ae 2baa ba3f b446 c759 b440 dabf
00000160: 3aa8 fc02 044d 70bf 62ef f965 95ee c83f
00000170: f20a f395 9915 e1bf 0ef9 1e67 54d1 d7bf
00000180: 9303 5d51 5064 da3f 0397 1e3e 6244 c33f
00000190: 071b 881d 53f8 b63f c993 f830 ce63 c23f
000001a0: f2e9 e68d 2c8f db3f f3e1 4f9e 6528 b1bf
000001b0: c841 e808 9965 ccbf 7d3f 38f5 2c08 aebf
000001c0: ec40 eb88 c646 e03f 7543 12e8 7eca da3f
000001d0: e8ae 3b18 f836 ccbf a570 aecb 0542 cbbf
000001e0: 3a3c 9c34 0422 d7bf 1bd7 a95d 11a6 bc3f
000001f0: ea80 ead6 e1e4 d93f fac1 60ee 05a6 c4bf
-0.14827865512625135 0.0881914895629616 0.02393857775152093 0.4440815193059726 -0.235535075319765 0.015691495965470075 0.5625395653395042 0.48936228235982293
0.13308706221159855 -0.5633969097658854 0.3635498317180767 -0.05948206838648051 0.10060222290301642 0.18833456453054584 -0.3910829943994838 0.3931313377329964
-0.15706544185496815 -0.35102556169997634 -0.04687400957260394 -0.09823284738345624 0.36360594313049405 0.007953995253864964 -0.3386532889554775 0.4648914511726031
0.4444476603019878 0.07296307912745226 0.5605680710094525 0.2256362673364718 0.4536127255397557 0.2796095032777018 -0.5743508117367633 -0.39703688247211283
0.32840086329317286 0.20868285339609094 -0.021248038456255572 -0.170846479842505 -0.44074881944487404 0.1531470213406083 -0.42588810089217183 -0.2965668896875342
-0.4577524749611868 -0.5558261546883262 0.10415909765934876 -0.41019924895690996 -0.003979697866990201 0.19478099326431236 -0.5338867119502011 -0.37215147085579836
0.4123726648868395 0.15052440674951847 0.08972663374889232 0.1436708201519237 0.4306136499177732 -0.06702265849151683 -0.2218505185596895 -0.058656125005767536
0.5086395906637597 0.41860935843674635 -0.22042752440699265 -0.21295235104924362 -0.36145119798397085 0.11190899407105485 0.40459485996144784 -0.1613166250185854

encoder.0.1.running_var f8 [64]
00000000: 8f0b 9a0e 2461 593f 0506 c593 b792 713f
00000010: 612b 4b7c c6cb 3a3f be22 00a8 d636 663f
00000020: edf6 0fe7 f7de 573f 9958 d4ad 1830 703f
00000030: a20a fc2a c5a5 5d3f c7d7 b2b0 706a 7c3f
00000040: 9780 fdf2 8dad 6f3f efb4 23ee bfbc 603f
00000050: 3e8e ab51 be62 6d3f 99fb 6b15 a5fb 5c3f
00000060: 1b56 28f2 c384 373f 3abe ce71 65a9 633f
00000070: 45bc adbf 7e05 7e3f 28e9 d5a3 2c53 713f
00000080: a712 b438 1489 7e3f 1479 5488 cf8b 7a3f
00000090: 1d28 5779 a0d2 803f 4af7 e2ea 3b6c 8a3f
000000a0: eb9f a34b f5c1 593f 2e8e ef70 8633 5d3f
000000b0: acbf e133 faf4 2b3f 8717 3433 5eff 613f
000000c0: 18b0 329d 0fae 4d3f fa24 b1fa b39b 433f
000000d0: 6e87 9e07 b78e 553f 3c40 520b 0304 5a3f
000000e0: eb4a f239 06de 743f c529 3658 cbc7 603f
000000f0: 9685 8893 8e86 583f 1695 9a53 bb35 3b3f
00000100: b871 dda5 cca2 5a3f 7def 5d6a f90a 5a3f
00000110: 4336 4046 4512 723f 59e8 3092 d317 523f
00000120: 7543 2a74 e281 5c3f 00ef a620 11f7 613f
00000130: 8425 de41 705b 513f f4e1 ab8a 5a29 693f
00000140: 03c3 12af 4216 4f3f 0c01 75f3 74d1 733f
00000150: 135e d928 08ba 333f b280 4a58 8664 5e3f
00000160: e621 add9 0237 673f b875 3df5 3aa6 5a3f
00000170: a05d d171 3a78 603f 1a65 29e9 7234 493f
00000180: 3c77 a0fd 441e 773f 5571 8d3f f2f8 6d3f
00000190: 3259 3346 54d6 473f bc93 4a9e 30ec 4a3f
000001a0: 8308 a980 3e27 503f c033 2110 e2e9 623f
000001b0: bae5 b6a9 fb8b 8a3f 9334 9b2c a323 813f
000001c0: 4ea6 183e d176 263f 3abd 1bf3 af1e 463f
000001d0: 1d77 2b88 c9e0 4d3f c723 8c1e 87ee 523f
000001e0: 0799 309b 3b91 5f3f 71b6 74f2 86e6 613f
000001f0: e0fd c25f 6069 763f 827b ecea f9bf 5b3f
0.0015490390891563543 0.00429031095365096 0.0004088744720262463 0.0027116959099696405 0.0014569683955864513 0.003952118303706475 0.0018095422237257926 0.006937446781355611
0.0038669369168218936 0.0020431278836584503 0.0035871236008107312 0.0017689811845113866 0.0003588655837643854 0.0024001103724556024 0.007329459297451162 0.004229711890156453
0.007454947462296835 0.006480990098934453 0.008214238837258187 0.012901752572698339 0.0015721221412210394 0.0017823040868670914 0.00021329454642992956 0.002196964249040204
0.0009057594528676409 0.000598395233631837 0.001315764179232261 0.0015878705719707528 0.005094551393215889 0.0020483943532713955 0.0014969246241281812 0.0004151899662282061
0.0016257284655330894 0.0015895305345727522 0.00441195545501 0.0011043134807225046 0.0017399512732121068 0.0021930059931188906 0.0010593982947021139 0.003071476783017108
0.0009486985783465355 0.004838425483569841 0.00030100535591290437 0.001855021663836037 0.002833848540294992 0.0016265464555183917 0.0020104543205367725 0.0007691918456870534
0.005644101614988458 0.003658745900265862 0.0007274543280811117 0.000821613063256003 0.0009859190346479813 0.002308789758024038 0.012962308995031136 0.008368754194999084
0.00017138771276963217 0.000675044930373326 0.0009118064920945222 0.0011555022740046149 0.0019267160503289597 0.0021851192174356317 0.00547158857460725 0.0016937199213271363

encoder.1.0.weight f8 [64, 64, 3]
00000000: 632e 024d 5d3b a8bf c8f0 4fb6 3239 923f
00000010: 1d94 2718 c534 aabf d54b 6bf8 653a 9b3f
00000020: 4236 798c 7682 a4bf 0994 8842 701f a23f
00000030: 008d a43d 4036 a0bf c87b d7c3 c47f 703f
00000040: a44c 729b c9bd 65bf 78bf 5ef8 ba0f 8cbf
00000050: 55e8 dd66 b5af 91bf e550 bf94 a7ff 983f
00000060: 590f 7eef d59e 99bf a2b7 daa4 7623 92bf
00000070: 8489 dffd 4247 9b3f 2e9f c206 3e44 41bf
00000080: 3092 1b9d 1865 b2bf e8d9 a3f1 c235 7bbf
00000090: 99c3 7d7d 4c3e 74bf 95da 4107 1584 b1bf
000000a0: 8423 519a c9e4 a93f af4b fedd df1f 9d3f
000000b0: ca12 6cb7 5209 afbf 13fa 3808 4d3a 9f3f
000000c0: a23b aea2 60f4 60bf 5900 6376 0f7d a0bf
000000d0: 263a 972f 6eb0 a4bf 80b0 2aca 7684 a8bf
000000e0: 0ca4 fb28 b1cf a23f 1842 cd6c ab2e 89bf
000000f0: 7fe7 57c6 66b3 b43f 7b75 e94d ca02 b43f
00000100: 680c 96d4 77ad b23f 2836 4717 b0c0 9e3f
00000110: 53e8 2927 bae8 a9bf 5484 8f1a c77d b6bf
00000120: 37d0 f756 b2f5 a5bf 771a baa0 b8ab 9a3f
00000130: a9ef e044 1438 a33f ffe7 ca4c 52f6 b33f
00000140: eeda c6ef 8428 acbf ad0b 2290 595b 5a3f
00000150: 9070 bef9 e585 9bbf 7f9a 9d55 9606 63bf
00000160: 5dab f950 15bf 913f 9758 dc6e d4e5 6a3f
00000170: 7870 bb2d 17a7 a23f 9528 ef5a 8a9f 823f
00000180: 1d9a 3f1d b951 b43f 3a0d 8585 af9b 6bbf
00000190: 084d 1e6f ff82 a13f 8f5d e0ff 7b9b 893f
000001a0: a08b b121 b697 abbf aa52 0425 2499 a7bf
000001b0: ab49 b731 9e10 b33f 42f7 e566 2963 abbf
000001c0: 3d0d bf17 094d a4bf edbf 5c53 977e b03f
000001d0: 02ea 8217 2b7b 843f c2b2 1f32 3f9a 9a3f
000001e0: 1b20 451c 4390 ab3f 9bf2 4335 9ce2 873f
000001f0: f5eb 0f68 bbb9 903f 8a2f 7b58 3eb8 9e3f
00000200: df32 b9b9 fd54 9ebf fc78 9a23 6bd0 b4bf
00000210: 11e3 7516 4a36 a2bf ad49 2c90 9afd b3bf
00000220: 63f7 5992 3893 9cbf e64d 99ef 09ff abbf
00000230: 37f8 b447 63ce a6bf 1e70 b72d 538b 7e3f
00000240: d718 fbfc 5796 a6bf 35ce 4592 232d 67bf
00000250: 5dd3 5115 f6c8 a63f 795f 90c6 d2b8 a0bf
00000260: a68c aedf f18f a63f 859e 5639 241a 993f
00000270: 1163 779d 9a65 773f 3881 2b67 b19b b5bf
00000280: 1c4b 78a6 7c25 abbf d9ab 0fe7 473a a2bf
00000290: 62da 441f c56d 98bf e51d 2962 ef9e a53f
000002a0: 82f3 7263 b6ed 8a3f f2b4 dea4 bc0f 80bf
000002b0: ee24 efd9 09ec 903f 8258 60c2 b384 903f
000002c0: 362f 1202 094d 84bf 01b8 7b21 b3ee aabf
000002d0: 0413 2094 e7d4 ae3f 098c ee33 f105 ae3f
000002e0: f196 63a0 6054 87bf 0ba5 5c8b 8e19 b73f
000002f0: 2313 f4da f417 873f ae83 690d fdb6 abbf
00000300: 00de 3481 db71 b23f 7fe4 7caf 9747 60bf
00000310: 4c81 e017 9241 abbf c867 f9d9 573c b1bf
00000320: 90d6 588e 998f 89bf 5663 257c 8026 61bf
00000330: fd0a 9917 7750 a83f 2d70 e17b 8f31 a4bf
00000340: a22c fac0 7ad2 8ebf 473a d9a6 3457 9abf
00000350: 466a d9d4 368c a6bf ad8d 9c7e 10c7 7abf
00000360: bc17 0021 035f acbf 6332 d0a6 2e27 b03f
00000370: 9a8c 371e 7046 96bf dcce be08 163e 963f
00000380: 1222 d528 e4f7 813f 3cfb 2756 d6fd 843f
00000390: 263c 1766 c141 b2bf 222d 4a72 b0c5 b5bf
000003a0: dafa 0bc4 c9a1 7dbf c989 f739 accb 8bbf
000003b0: f6d1 64a2 8a4e a83f ec97 d0c3 dd3a 94bf
000003c0: 7b2b 0688 b86c a0bf 7a65 b1cb 7320 74bf
000003d0: a938 75ca fda2 a4bf b67a e110 c7b6 67bf
000003e0: e1dd 4e26 d8b3 ae3f a311 e6ed 61f0 923f
000003f0: 18aa 5dfd 47b6 acbf 1ec7 a200 4c2f a93f
00000400: 86f2 65f1 e93b a3bf 815f 94ff f899 82bf
00000410: 7164 842e 6658 b7bf ea6d 7e8b 1ea0 9f3f
00000420: b549 e36f 4382 a1bf 901c 3cdf ec56 b4bf
00000430: 6c60 b13b b02b a7bf 9e44 47d7 213f 8abf
00000440: 14bd e4fe b070 883f 00e7 5cad bf84 a9bf
00000450: b8d1 a2e9 d687 98bf 1202 ca8c a1dd a7bf
00000460: 002e f2d2 5a97 a6bf 0081 f8bd 6b25 b53f
00000470: 2da3 5ad9 fd2c a5bf 2dd2 9c97 5c01 a23f
00000480: 208f 13ee 3c6c abbf 7e59 2f12 13ac a4bf
00000490: 7f19 a6e8 bd1d a5bf 8b9e 7765 ec90 ad3f
000004a0: 8937 a3fa 1619 8dbf f33b 2abe 30da 4cbf
000004b0: d7c4 819f 45b2 b63f 0ca6 3aff 5340 afbf
000004c0: c822 d1b3 9605 a4bf 4e87 b5e2 18e5 aebf
000004d0: 89fe e00f 21e7 6bbf feba faa7 82c8 ac3f
000004e0: 049b 3556 f9ff 9bbf 1e76 9973 5403 b7bf
000004f0: 4436 40eb edcc b03f 01de 589f bf31 84bf
00000500: a66a 47d7 08be a3bf fef3 a500 a134 9ebf
00000510: 21be acc2 3d02 a03f 88bb 64d5 9249 b8bf
00000520: 9c66 dc6e d0cb 96bf d00e b1ed 14b4 aebf
00000530: 5f48 826c 5cdb ab3f 3156 5a13 5550 a4bf
00000540: 11a5 fb95 4905 a43f 1b7c 8470 0385 9b3f
00000550: a431 da17 60d1 ae3f aaaa f8c8 76f3 adbf
00000560: b346 36f1 5bd3 71bf 2f3c 352f c99f ae3f
00000570: 571e 247d 6a15 a13f e030 7e38 85ef a33f
00000580: dca7 184a 78e0 b4bf 80d0 2f47 6191 a43f
00000590: f33e c67f 67e6 ad3f df51 147d c1ba 71bf
000005a0: 9207 06dd 9c6c 303f e7e2 bef7 89e1 b1bf
000005b0: 7d54 1207 6734 a93f fafd 61d7 892f acbf
000005c0: 81a3 3e36 892d a7bf 8c9a bee0 700e 97bf
000005d0: ab0a 4a55 ebc3 813f d0a7 2f2e ec6b aa3f
000005e0: 5c12 bd22 5ff4 8fbf b524 9dec 104c afbf
000005f0: 7aa8 8ac9 526c ae3f 6db8 7b78 c48d a63f
00000600: 1a5a 3a83 a663 7bbf 9229 d6c9 53c2 6abf
00000610: 84e1 ccd4 c5ab b43f 859e 2b83 ebb5 a53f
00000620: 52d3 9123 a8ea b23f 66c9 4687 8624 abbf
00000630: 7633 84cc 2b94 a63f 0687 2626 6352 b33f
00000640: ceca f717 65f8 753f b194 5aae a81b a2bf
00000650: 1a59 117a 1547 ad3f 6b77 b41e bb38 973f
00000660: f5ec 79c7 7de7 97bf a8c3 90eb 6170 80bf
00000670: 2f22 dd35 7beb 92bf 2a92 df0a 2e4b 80bf
00000680: 6f6b a976 1de7 b63f 2476 93e9 bdfe 78bf
00000690: bff2 f353 f925 6cbf 07f4 30dc 938b a63f
000006a0: b031 627a a4c5 953f 859f 7708 bc1e 903f
000006b0: 3766 4f4f e6de a1bf 8253 37ab 4a69 53bf
000006c0: a565 0fcb 9f70 a63f a302 724b f510 aa3f
000006d0: 517e 0988 b80e ac3f de30 9c42 bc07 573f
000006e0: f3bb 0418 0cd2 a13f 3819 b816 8fad 98bf
000006f0: 8157 bf87 3f24 b2bf fbb6 3f2e b5e8 85bf
00000700: f30a 8034 1096 babf a1da beb3 6e8a 9b3f
00000710: 72dd 3558 1fd5 af3f 11d8 e34e 5595 a63f
00000720: 1aba 92a5 7e57 b0bf 9170 fc64 1e19 553f
00000730: 505a cad7 4aa6 97bf 718c 3c70 c656 b13f
00000740: dab0 5e36 2c1d b0bf 76ab 3298 fbce b7bf
00000750: c08e 43ee 3680 76bf a1d5 aff9 f6d5 b13f
00000760: b5e0 d37e 8a30 ab3f 6a3e 9eff 73f1 97bf
00000770: 8038 8f49 4433 b33f acbd 8a48 8b28 a63f
00000780: 9c32 38d0 9c29 9d3f 40cd e071 f5fa a93f
00000790: ab89 d155 98bc a8bf 1df4 6fbc d598 b53f
000007a0: d48a 4b60 7451 b43f 5825 e311 bd41 aa3f
000007b0: e48d ad40 c97e b2bf 4d52 0ee2 f946 a53f
000007c0: 4f4a 1a27 c6e5 acbf ccf3 09d6 caa8 b5bf
000007d0: ee48 00fd baab 98bf 5136 d904 7756 8ebf
000007e0: f8b9 01e7 1c2f a93f 736e fabd 177b 9c3f
000007f0: d483 c4a4 f354 94bf a082 b215 b85b ae3f
-0.04732791485829748 0.01779631841417098 -0.05118385238510135 0.02658995941858307 -0.040057854316370115 0.035396106836096015 -0.031663901829483976 0.004028099644954382
-0.0026539743080974 -0.01370187826600476 -0.01727183761929781 0.024412744954887784 -0.025019972555596712 -0.0177134073371047 0.026639029259862848 -0.0005269339431110737
-0.07185510478627388 -0.006643067836412865 -0.004942225255818133 -0.0684216635434985 0.05057363518478211 0.0284419039958938 -0.060618004694367025 0.0304958378094345
-0.00206965326419302 -0.032204135133270646 -0.040408557233252915 -0.04788562028747467 0.036740814450077236 -0.012296046502940292 0.08086244909637051 0.07816757585665883
0.07295941295710551 0.03003192083433795 -0.050603692322468995 -0.0878567161412474 -0.042890141597951396 0.026045689401622298 0.03753722515872877 0.07797731756991765
-0.054996637601495965 0.0016086935652601484 -0.026877969139250057 -0.0023224769801573615 0.017330487315500565 0.0032834195216181017 0.03643104966406069 0.00909336175927348
0.0793719955832803 -0.0033701351314065183 0.03420255881715134 0.012503594156483526 -0.053891841519337236 -0.046090249556219945 0.0744723197342753 -0.05349091893275083
-0.0396502343642404 0.06443162713253488 0.010000549941072915 0.02597903006965186 0.053835007859163585 0.011662693381816516 0.016333511568500787 0.029999708319152364
-0.029621090374621125 -0.0813052141115555 -0.03557044529129006 -0.07808843631600011 -0.027905353481848204 -0.054680166719346876 -0.04454336405113717 0.007457089344338667
-0.04411578143258204 -0.002829141116473167 0.04450196275948912 -0.03266009019733835 0.04406696181765683 0.02451378440824083 0.005712131467100049 -0.08440693634793639
-0.05302037746527885 -0.03560089774676784 -0.023856239350801174 0.04222820351838744 0.013148713025992857 -0.007842515736991438 0.01652541535057577 0.0161312186611089
-0.009912557960226925 -0.0526023844121113 0.06021808322114988 0.05863908537801172 -0.011391405958828456 0.09023371603383994 0.011276162082603463 -0.05413046635363315
0.07204982666450377 -0.0019872629744921984 -0.05323463956324534 -0.06732701369892802 -0.012480926186167168 -0.0020935544463721962 0.0474889007860124 -0.03944061648573469
-0.015049895300100428 -0.025723288234355015 -0.04403849933870112 -0.00653749888604997 -0.055412385729183694 0.06309787342633792 -0.02175307449750772 0.02172121456506103
0.008773596283064431 0.01024978113582408 -0.07131584875536187 -0.0850477484729493 -0.00723437132614776 -0.013572068709383782 0.04747422439905684 -0.019755806995952627
-0.032079474071983825 -0.004913761450631932 -0.040306025470827685 -0.002894772339501496 0.05996585338237615 0.01849511160391305 -0.0560781952652471 0.04918897159349299
-0.037566481320912934 -0.00908274202315318 -0.09119261394188684 0.03088424421694739 -0.03419695607012178 -0.07945137453144668 -0.04525519112274953 -0.012815727598452672
0.011933691767437561 -0.04984091750379882 -0.023955686578760654 -0.04661278575531837 -0.0441234953405818 0.0826022471233081 -0.04135888365028104 0.03516663885821845
-0.0535601654644593 -0.040375324220508255 -0.04124253716422554 0.057746302972927564 -0.014208011173106676 -0.0008805025102719396 0.08865771431171098 -0.06103765955533555
-0.03910513825446099 -0.06034162299580591 -0.0034061094038689327 0.05621727276353815 -0.027343650709918968 -0.08989456007244498 0.06562697404316348 -0.009860512781513899
-0.0385592234412873 -0.029497638382498075 0.031267099393854865 -0.09487264356424252 -0.02226186443940624 -0.05996766473302062 0.05440796684810389 -0.03967538701287444
0.039102840002508306 0.026874593489193282 0.06019115725675597 -0.05849810794128037 -0.004351958417275692 0.05981281949299732 0.03336651589966937 0.03893677057848932
-0.0815501385592649 0.0401716613195342 0.0583984702562911 -0.004328494849023617 0.0002506144492359026 -0.06984770105817582 0.04922792397807372 -0.0550501895349917
-0.04526928698698552 -0.02251602527362677 0.008674467602081867 0.05160463393970327 -0.015602820632588159 -0.06112721336700969 0.05942019186234489 0.04405034991019439
-0.006686830940131583 -0.003266490601793134 0.08074604459114282 0.04240356422616024 0.07389307850264729 -0.05301304246258347 0.04409920569933139 0.07547588044556272
0.005363840958568301 -0.03536727073996227 0.057182952071047136 0.022677348851281403 -0.023344006824555803 -0.008026852609050852 -0.01847641483553469 -0.007955894190623775
0.08946403643623822 -0.00610231575521206 -0.0034360761343335817 0.044033642414866896 0.0212617587754253 0.01574224282913363 -0.034903714353003705 -0.0011847714603067942
0.04382800439607174 0.050910630664480004 0.054799810987557714 0.001405652854773946 0.03480565827555173 -0.02409957481543154 -0.07086560310503211 -0.010697761033920275
-0.1038522842573391 0.026895265312954057 0.062172870176193565 0.044108072166565766 -0.0638350633841828 0.0012877270527900423 -0.023095292492678887 0.06773033371114125
-0.06294514014615818 -0.09300205674905535 -0.005493368695372147 0.06967109294767805 0.0531047134226709 -0.023382008053486926 0.07500101848492768 0.04327807674905712
0.02847905178900821 0.050742788458956856 -0.04831386611546703 0.08436332560081934 0.07936789847330356 0.05128279536581698 -0.07224710301448273 0.04155712971183743
-0.056440536759641995 -0.08460681653555396 -0.024092599575006916 -0.014813356242622396 0.04918756790072004 0.027813311548568764 -0.019855315143221322 0.05929351105556191

encoder.1.0.bias f8 [64]
00000000: 7a09 eaff dbfc 893f aa01 0200 d948 9dbf
00000010: af8c bdff 23b5 983f 73e5 3e01 2926 85bf
00000020: 451b 0a80 eced ab3f 354b ff3f ad3f a23f
00000030: 47bf 0280 3946 953f f6e8 39ff 4527 753f
00000040: 5c19 0500 00ba 94bf 84c6 1500 3bbd 8fbf
00000050: d4e3 0d00 6a55 9d3f fdb5 0d40 eb10 a53f
00000060: 561f 1800 f1b0 8e3f 5717 f87f 830a 9d3f
00000070: c0e2 fb7f d148 a8bf 5c30 fdbf 340a b03f
00000080: c80f 0380 bd8b a5bf eb15 fbff 7ba1 8e3f
00000090: dc57 0080 6bad 9e3f f085 0000 2c26 a8bf
000000a0: 05b3 b87f bbb6 ad3f 6d44 8900 ea83 893f
000000b0: c6d1 fd7f 2d07 b23f fbfb 6100 8673 733f
000000c0: 74e4 773f faf1 93bf ae6d ff3f f577 b2bf
000000d0: 530f 897f 217d 92bf c196 12c0 8ff5 9dbf
000000e0: e171 4a00 6016 533f cbef f89f 267d b1bf
000000f0: 6f79 0620 63ac b1bf 80bc fcff 1ca0 a9bf
00000100: f077 0e00 3044 5cbf a906 fd3f ac19 acbf
00000110: 865e 0200 94ea b1bf 5f3f 0580 b789 a43f
00000120: e8cd ff3f e493 9cbf 8c01 d87f a74e af3f
00000130: 8789 f33f 62cc a63f baf1 f07f d8d9 ab3f
00000140: a710 06c0 a70c b1bf 65b7 8a7f 7b40 88bf
00000150: 9f06 3f00 44ea 793f b2bf f9ff b71f ad3f
00000160: fb3d 09ff 5647 983f 923d dd0a 109c 48bf
00000170: 769f 3000 59d0 83bf 6a41 0080 ea15 b0bf
00000180: 2ccf 07c0 d7fd b03f af3f fbbf d6e7 a23f
00000190: 2458 0d20 22bb acbf 3a55 ffff 9f1d ab3f
000001a0: a633 f8ff 05b3 a7bf e492 0940 57dc b13f
000001b0: fa45 7700 5059 ab3f 05fa fdbf 6c2c b03f
000001c0: 80f7 feff e28f b1bf 8e65 febf 4fdc a93f
000001d0: 37eb eb3f 6bf9 95bf 5a81 0140 687c a1bf
000001e0: b348 1300 c1e9 a63f f043 fd7f 2a9c a43f
000001f0: 0817 e57f 7e71 92bf 5cf3 9c80 4f86 913f
0.012689322230703171 -0.02859820425556029 0.02412849663177202 -0.01032669100810566 0.054549589757746854 0.035642065107501265 0.020775698125987032 0.0051644071824006235
-0.020240783692565642 -0.015497647228332363 0.028646141293822883 0.0411447063150767 0.014985926452041259 0.02836041897355498 -0.047430559990919274 0.06265573203308022
-0.04208175838132849 0.01495644450131813 0.0299584195018595 -0.04716622829461048 0.058034762707711386 0.012458637372363602 0.07042202353279156 0.004748843615856475
-0.0194777585256571 -0.07214291393704883 -0.018055461320059262 -0.029257055376226363 0.0011650025855153223 -0.06831590085579291 -0.06903667003505175 -0.0500496923908651
-0.0017252415420680976 -0.05488336831196012 -0.06998562813020656 0.0401131957793257 -0.02790791168804488 0.06114695964425029 0.04452807455688217 0.05439640580923162
-0.0665993541534272 -0.011841740445870117 0.0063269287383619635 0.056882619854945374 0.02370963985077699 -0.0007510259945124212 -0.00967473537282591 -0.06283441185974473
0.06637333334202528 0.036925040183290896 -0.056115213787663515 0.05296039581268493 -0.04628771543148184 0.06976838410771397 0.053415775353311504 0.06317786872202909
-0.06860178708936182 0.05050896853135632 -0.02145927026411273 -0.03415227681466844 0.044752150782771415 0.040253952144332916 -0.018011070781788013 0.0171139166115951

encoder.1.1.weight f8 [64]
00000000: 1926 c457 7e1f ef3f 870f c251 5fb5 ee3f
00000010: ea7c 7028 c526 f03f 7d78 da16 7d7b f03f
00000020: 8635 0230 3bbd ef3f d6d8 fa08 afa1 ee3f
00000030: ceaa c321 d748 f03f 2dd0 8090 9daa ef3f
00000040: cda7 ba61 068e ef3f 2069 d84e 1001 f13f
00000050: b73c 4052 d525 f13f 49d0 e579 04f0 f03f
00000060: 69d1 0879 e2b9 ef3f 6252 cc4b 486c ee3f
00000070: 9fa0 8bfa e9da ef3f ea5f caf1 63eb ee3f
00000080: 419c 5fd0 2e2c f03f 37a6 e5bb aca1 ef3f
00000090: d986 e15d f1be ee3f f1a6 e44f fc22 ee3f
000000a0: ce4a f129 2ac0 f03f c6c3 4196 56a8 ef3f
000000b0: 0884 ce1a 92ed ee3f b184 8ffa 227d f03f
000000c0: 9e06 cd7e 7190 f03f 2a9d 1afc e2bf f03f
000000d0: 71c6 8db8 d798 f03f 7889 e984 9927 ef3f
000000e0: 6c1e 10f6 3733 ef3f 0945 eb4f 98c3 ef3f
000000f0: 03f6 95a9 7c5c f13f e30a 432d 6b39 ef3f
00000100: beeb 841b acc6 ef3f dacb c4a5 1fc7 ee3f
00000110: 47f4 af02 1ea3 ef3f deab e0f9 33cc ef3f
00000120: 2d68 4fca 96da ee3f 9ea1 9d5e 989a ef3f
00000130: b61b 5300 8343 ef3f b311 f265 5942 f03f
00000140: 9ae9 ad85 aeaa ef3f 2b14 92fb 3c34 f13f
00000150: 7521 8ae4 5e3e ef3f 1a44 01a8 40d3 ee3f
00000160: 4765 ebc9 d1f9 f03f 5995 4cac a2d3 f03f
00000170: ff55 ea1b 7403 ef3f 30b6 1335 1a6c ee3f
00000180: b18a 6776 fe05 f03f ef8d 97f3 9e98 ee3f
00000190: d329 d267 fffc ee3f a685 6f9c 9192 ee3f
000001a0: 3fa8 4936 31dc ef3f 508a bc3d b490 f03f
000001b0: a583 6695 e593 f03f cf04 7f31 0208 f03f
000001c0: a3fe fcfb f442 ef3f e3a1 98d4 6be8 ef3f
000001d0: f550 23d9 a4d0 ee3f 07e1 a5ba 74c3 ef3f
000001e0: 703e 27c5 1eb4 ef3f 4fdb cfee e004 ef3f
000001f0: 62aa 732f 3f0b f03f 480f b266 2f73 f03f
0.9725944246467321 0.9596401783787635 1.009465368238859 1.0301485913001038 0.9918495118778743 0.957236783541499 1.0177832907599398 0.9895770857169787
0.986087027432626 1.0627596931358951 1.0717366421629728 1.05859801880162 0.9914409984544764 0.9507180672104136 0.9954728978600719 0.9662341806861126
1.0107868327702507 0.9884856862892722 0.9608084519970489 0.9417707024014971 1.046915210569455 0.9892991003708793 0.9665003322189714 1.030550936462799
1.0352644875678503 1.0468473289309466 1.0373151024945424 0.97358394584107 0.9750022703091878 0.9926263390463258 1.0850798248715143 0.975759113695258
0.9930019891247566 0.9618070829077354 0.9886617710577718 0.9936771278784098 0.9641832305308121 0.9876214836086097 0.9769911772099167 1.0161985380410499
0.9895851717877122 1.0752534701325753 0.9763636077559982 0.9632876664492216 1.060991085765936 1.0516688089786241 0.9691715760442888 0.9506960903797275
1.0014633774923534 0.956130481496471 0.968383505606932 0.9553916983970125 0.9956289348895168 1.0353281413632835 1.03610761985349 1.001955216736224
0.9769234582563125 0.997121730067246 0.9629692307449021 0.992609371706778 0.9907373285913774 0.9693455375953394 1.002745805128733 1.028121377138591

encoder.1.1.bias f8 [64]
00000000: 56ca 3055 efae b2bf a0af 60e0 dc31 a1bf
00000010: 27e3 f6fd f74c ba3f 09e6 b30e 83d1 adbf
00000020: 3034 57c4 91e4 c4bf d749 44f6 a717 c0bf
00000030: d5d5 6ee7 702b 753f e874 d09a f365 ae3f
00000040: 0317 0030 3bdc 903f 9248 25e0 8cdf c2bf
00000050: 5eba 8a02 05c6 bd3f c8c0 56a2 a755 a2bf
00000060: 6f35 d086 f0c9 a8bf 4c33 356a 5035 c5bf
00000070: 315a dc86 a1a5 babf bc4c 573b 59d9 b73f
00000080: d2f2 345a 2cf9 a53f 0272 6202 4b1b acbf
00000090: fe0a f6c0 cd0c c2bf 652b 3b8e ca33 c5bf
000000a0: ad07 38a6 2dc2 b1bf c055 73bb 3241 243f
000000b0: ccdb c4ea d844 b0bf 5be7 f6fd 7cc4 ba3f
000000c0: 79cb 6cc9 b498 aebf 4eb2 c850 8403 b73f
000000d0: e0fb 7b14 a926 8bbf 0db4 4540 a64e b53f
000000e0: fe83 094a 55e9 b4bf 4e2b 00ca 27a4 c5bf
000000f0: ab38 f4d7 b352 b73f 9576 a9f6 ab85 aebf
00000100: 95f8 ca93 19c4 a53f d3c9 ae77 17a3 b5bf
00000110: afde 1a00 724e 9f3f 389a ec4a b5b9 abbf
00000120: b885 eb6e 1e9c 98bf 59f2 4f5a 1c92 8b3f
00000130: d84c 0614 e64d bbbf 5558 6a53 9a16 bc3f
00000140: c05a dfc7 95a4 bd3f 83a6 620e a644 bf3f
00000150: d622 0c68 5494 bfbf 202d d191 3d27 c5bf
00000160: 16f5 ea23 6e1d ab3f f77c efa5 2016 9abf
00000170: 212c 15f5 efb7 a8bf 3d3b 724c 0220 b8bf
00000180: 2ba1 35dc d1ee 893f 090a ecb1 6839 b53f
00000190: c4ba 8396 f17c c4bf 9ee5 69c9 f8ad b3bf
000001a0: 3e79 9275 9850 9bbf 61fe cd84 7b0a 92bf
000001b0: 5e02 cf27 eb15 b6bf 7a52 1e64 8a60 7fbf
000001c0: 2395 69b3 062e c7bf 2bb5 d4e9 23bc 993f
000001d0: 79d9 ff17 b3c7 b5bf 75d9 fdcf 99bf a0bf
000001e0: febc 52a2 2758 c2bf 3f39 4b36 83fe babf
000001f0: 1591 3969 fe37 9fbf fdd2 aab2 22b8 9abf
-0.07298179464195562 -0.03358354796395635 0.10273694944670507 -0.058239074272886944 -0.16322538458772007 -0.1257219269251226 0.0051683817209115706 0.05937157883475114
0.0164651153609361 -0.14744721359835872 0.11630278884943254 -0.03580974442172785 -0.04841567655248979 -0.16568951784065644 -0.10408982794283685 0.09316022585635414
0.04291666604192347 -0.05489572910412123 -0.14101573869637457 -0.16564304299239577 -0.06936917598798571 0.0001545309475889222 -0.06355052692093394 0.10456067276291263
-0.059758805835733626 0.08989741298928175 -0.0132573327423397 0.08323134488246371 -0.08168538148449042 -0.16907212603868021 0.09110569021524621 -0.05961358438501666
0.042511748591537536 -0.08451983138983303 0.030572682625204347 -0.05415121593096156 -0.024033046264667596 0.013462277895080964 -0.10665739048845368 0.10971989189633409
0.11579261903475935 0.12214124537663378 -0.12335708179683577 -0.16526002521491368 0.0529589098782514 -0.025475034835719303 -0.04827833048565134 -0.09423841825831132
0.012662543804893808 0.08290724128531947 -0.1600629792150895 -0.07687334935498888 -0.026674635101352033 -0.01761811254573187 -0.08627195093050363 -0.007660427656351327
-0.1810921073949113 0.025131760737328406 -0.08507842384265087 -0.03271179832420305 -0.14331527162492103 -0.10544605327161082 -0.030487036869446166 -0.026093046336160153

encoder.1.1.running_mean f8 [64]
00000000: ebb5 d254 1a9d c9bf 8ffc b343 ef5b d93f
00000010: cdec c0f2 8566 b73f e9f2 b1df 3e10 d63f
00000020: a334 9344 95fe e13f 05a7 f0c8 f7d4 b43f
00000030: 9233 4055 7cc0 a6bf 92de a452 843b d9bf
00000040: 113c 1cd2 7b1c 89bf 3e39 9547 28f0 ec3f
00000050: 5c08 c6e1 58c4 d43f 4fdc 9271 7539 dd3f
00000060: e401 a00b cbce 883f eff1 9cec 2c3a d33f
00000070: 8a87 780a 6b25 b83f d695 50de e073 dcbf
00000080: ff7a 7978 1c76 c93f d649 644e 2f1e de3f
00000090: 6b0a cac2 bce9 d73f 9b9d c853 7d95 cf3f
000000a0: 8f2a e05d 1fa6 df3f 413e 83fb a9bf c5bf
000000b0: db9a 4d81 22dd dcbf f789 aa42 f533 d0bf
000000c0: 4aa2 82d4 a9ea cc3f 4969 86f6 ab1f e1bf
000000d0: 0875 9fd2 939f bf3f 207f 58d1 ceb8 c4bf
000000e0: c68b 9a36 b343 b33f f444 b805 89c7 d83f
000000f0: 6dc9 f077 9d35 cabf 1172 42da 7318 b63f
00000100: ba68 6f8a 101e a7bf 16e2 ddae 0cce dc3f
00000110: 26cc 50a4 9487 c03f 1010 f936 0297 cabf
00000120: 53ca 5530 35ca b3bf af7c 7b13 b373 dabf
00000130: 9542 cf71 af25 e43f 2107 f936 6217 d1bf
00000140: 88a0 a71d 034b dabf 0069 2888 0dc6 ebbf
00000150: 6b83 1551 40d4 a73f 5bc8 cd28 b788 e13f
00000160: 491a 915e 59b5 97bf 9e16 aeaa dd7e d53f
00000170: 1ca9 826f 58d4 c4bf 3273 68c7 c117 9a3f
00000180: 2661 f1d0 c32c cdbf 7007 a5b7 d6c1 d23f
00000190: 23a4 4583 eb9c d43f 9aec 4236 8315 c6bf
000001a0: fcaf 87a5 1ea3 c03f 0cb4 440a 43d2 db3f
000001b0: 8a04 ca0f 3537 e13f 3fb0 b454 5714 b53f
000001c0: e4b0 1713 2cca e13f 5e3a 69b3 0ed9 ddbf
000001d0: 85dc dd00 f5c9 d2bf c666 38ed 9f3a 96bf
000001e0: 02af 30bb 82fc eb3f d7ee ab94 50f7 acbf
000001f0: 1d96 f5b0 13e9 aa3f 0726 cf00 842f c13f
-0.20010689870598183 0.39623624431255505 0.09140813042261016 0.34474155278421265 0.5623270358425042 0.08137463241351035 -0.04443729916247387 -0.39425762243943396
-0.012261359548146474 0.9043160818198783 0.3244840817279788 0.4566320046537315 0.01211317662455342 0.30042574984307086 0.0943209553302308 -0.4445726557772479
0.19891696817918356 0.47059233336872575 0.37364119551072034 0.24674955931662343 0.49451431434196363 -0.16991162091152215 -0.4509969961858766 -0.2531712676083368
0.22591135860899875 -0.5351161780302301 0.12352870838318009 -0.16188988897283085 0.07525177081201581 0.38717866476606777 -0.20476120335076634 0.08631061628916138
-0.0451512497890731 0.4500762660677834 0.12913759253714935 -0.2077334183142061 -0.07730419569069484 -0.41331173803878135 0.629600260052103 -0.267052224811879
-0.4108283795926657 -0.8679263743718195 0.04654122342868202 0.5479388997030229 -0.023152729412937032 0.33586827915164885 -0.16273026890605358 0.025481250568293486
-0.2279286165455769 0.2930809777645811 0.3220776349976992 -0.17253151082500012 0.12997801859398794 0.43470836642046673 0.5379891689664345 0.08234163110745472
0.5559292195225933 -0.4663731338559155 -0.29357647976525697 -0.021708010534075915 0.8745740562494293 -0.05657436194266346 0.052559485770683013 0.1342625621748967

encoder.1.1.running_var f8 [64]
00000000: b987 90a2 cb66 dc3f d16e ac37 46c5 1140
00000010: 1a22 01c5 3a37 cf3f 0101 d756 5d8e b03f
00000020: 878f 9962 e63f d13f 06d5 5d64 7b7e dd3f
00000030: 26b5 f830 6cd7 f23f c594 450a 88c9 d63f
00000040: 68e9 2b37 8326 e23f 2d87 bdcf 64af e03f
00000050: 0bd4 9b5d f726 db3f 821f fa44 d85e d33f
00000060: 0c41 194d 4f53 f03f a8e6 cd12 836b f03f
00000070: 8d1d a9b3 2157 e33f 050d a57a c540 f43f
00000080: 4003 1a43 fbb3 f43f cad8 4643 733a e83f
00000090: a657 2a7e f1ce 0040 4016 9d9f c717 ec3f
000000a0: 515a 24bb 586c bd3f 63ed 5002 0f36 d43f
000000b0: 8e65 e30b 713c f53f b09c 9ffa 0cd9 0140
000000c0: 514a c9c3 d959 e03f da0a 5687 3e94 ec3f
000000d0: 7a2d 347a d09b d63f 5548 a4f0 f9d1 e93f
000000e0: 16ab 5e09 22b6 f03f bc50 49ff 66b3 ea3f
000000f0: 960e 2858 9eeb e83f 95ef 30c8 6b5f f73f
00000100: 44b9 9837 098d ea3f c1d8 dec2 fddf fe3f
00000110: 046d d8cf 3829 f73f 869f 09c4 b582 d83f
00000120: 5c14 d1ac 888d f53f 7db9 6dc7 7834 dc3f
00000130: 52fd 4320 f5a4 f33f 93b5 7330 4fae 1840
00000140: 58ef 63c8 c1d6 da3f 0dc0 975e 19be 1340
00000150: 9772 52e8 ba61 f23f 6e03 9d7b ebb0 d03f
00000160: dae2 7943 f451 d33f 5241 b937 1bf0 e23f
00000170: e8de e6d4 a66e f73f 1927 1010 2ae5 f33f
00000180: e67d 0e27 ec52 0240 d23f 3172 6284 0140
00000190: 5a62 b350 a5c1 da3f 1495 698f ad23 f83f
000001a0: a399 0649 71ba d13f b261 7c28 b62c e13f
000001b0: d0c5 0b0a a09a bd3f 2928 caed 5a9c e53f
000001c0: 9642 62e8 7c23 f23f ae2c 4ce3 80c0 0c40
000001d0: 1eeb baab 8036 d63f 24cf b574 d96a fb3f
000001e0: 052b c2ea cba2 f13f 33bf f1b8 369a f63f
000001f0: b408 09f9 2fed cf3f 2cf9 01ac 9120 cd3f
0.4437741363091124 4.442650670909374 0.24387297267300384 0.06467231149781939 0.2695251429452061 0.46084484864634623 1.1775934136342783 0.35605050089936824
0.5672012403077078 0.5214103753498641 0.42425331250643755 0.30266386734046347 1.0203392993608444 1.0262480482619285 0.6043861874576791 1.2658133307275545
1.2939407941014025 0.7571350397108969 2.1010465485259884 0.8779028050855189 0.11493448799988328 0.31579947687324345 1.3272562469850047 2.2309817867240653
0.5109680961562139 0.8930962222369445 0.3532601540943784 0.8068818759950412 1.0444660535819756 0.8343996988355893 0.7787620279127221 1.4607961482970258
0.8297163091536182 1.929685364926215 1.447563945671221 0.3829779066495508 1.3470541716244702 0.4407026240868602 1.227772832906187 6.170223958074888
0.4193577248513427 4.935643651973817 1.1488598895149715 0.26079833098997696 0.30187708463158247 0.5918098533966634 1.464514571807678 1.243448317285987
2.2904894877717537 2.189640895965547 0.4180691993802036 1.5087104417846762 0.2770045483724976 0.5367079535235943 0.11564064259780271 0.6753363270120235
1.1336640431874563 3.593995834123766 0.34707657595179053 1.713586288356006 1.1022452516796772 1.4126498436343808 0.24942588481832717 0.22755642794431574
