models/matching_nets/SETA_n=1_k=5_q=15_nv=1_kv=7_qv=1_dist=cosine_fce=None.pth (torch, 316367 bytes, 24 tensors)

encoder.0.0.weight f8 [64, 1, 3]
0	0x3fd26268e3e3d160	0.2872564530837476
1	0x3fddd139c907482a	0.46589512473758765
2	0x3fdd0e851ab7bd6c	0.4540112267413494
3	0x3fb13bce6e447b15	0.06731882278516495
4	0xbfe0683f8ba8344d	-0.5127256133724899
5	0x3fb245976818834c	0.07137438098335486
6	0xbfdd399090e76ef2	-0.4566384711340411
7	0x3fa385db744fbd1b	0.03813062472169745
8	0x3fdd588f23dd6cb4	0.4585302210086397
9	0x3fc492f03d45647a	0.1607342051673049
10	0x3fdf737acbc14d05	0.49142331979710746
11	0x3fd44de54def43e0	0.317254377468144
12	0xbfe0fde4d28dec00	-0.5309929001226692
13	0x3fd54570e81d86da	0.3323633448363644
14	0xbfd5ee0399ef0322	-0.3426522258051127
15	0x3fdb18bf7db816c6	0.42338549878364196
16	0x3fca19c0ad2afc9a	0.20391090827431385
17	0x3fd6b029d03a6158	0.3545021565892248
18	0xbfd991ec5113e793	-0.399531439950459
19	0x3f943f92ed81df63	0.019773765322013925
20	0x3fd626f399c6a3d1	0.34612741486722337
21	0x3fbe3f6bfce111ac	0.11815524028594976
22	0x3fd533ad3fb4f6a1	0.33127909871459776
23	0xbfe1d27660f67c52	-0.5569412130170213
24	0xbfdf5c75a2833e45	-0.4900182807004721
25	0xbfd004a5bb6c8371	-0.2502836542426428
26	0x3fda56b40ab01972	0.4115419487356099
27	0x3fcd32174175235a	0.2280911512009663
28	0xbfd80d031a32cf42	-0.3757941966862185
29	0x3fd1612f9941a16e	0.27155675856058437
30	0xbfe0817dc2725cab	-0.5158070371425273
31	0x3fd4a06f05c6ba82	0.3222920948418634
32	0x3fb800501e18dc0d	0.09375477537911099
33	0x3fdaba6a6401af03	0.41762790457026727
34	0xbf9be331ce47ba88	-0.027233865943282726
35	0x3fd6b90886f25abd	0.35504353693378815
36	0x3fd0d3efa31e067d	0.2629355519239665
37	0xbfc22c9abd50ad09	-0.14198621982482276
38	0xbfd50b090127e50f	-0.3287985335624208
39	0x3fc2c2b4c9c70c9a	0.14656696178835632
40	0xbfb5be140a6e2720	-0.08493161444326036
41	0x3fdef572ce97ce81	0.48373098540398735
42	0x3fab33f678efa899	0.05313081957122385
43	0xbfc5d630b0104db2	-0.1705990657506909
44	0xbfde6eaf84602a25	-0.4755057137232675
45	0x3fd07b466af0c644	0.25752411311541246
46	0xbfd7e844bb83af54	-0.37355154334976715
47	0xbfc46a8e8bc9e4ee	-0.15950185609452866
48	0x3fc42d38343e724b	0.15762999106381623
49	0x3fd4c49e384875f5	0.32450061317817297
50	0xbfd532637be54bea	-0.3312004766386837
51	0x3fc603d4fa423c39	0.1719919416395628
52	0xbfc6352bfcca3db8	-0.17349767535459448
53	0x3fe0721254294013	0.5139247554561756
54	0x3fd942d27ba0fe12	0.39470350335247517
55	0xbfd71df363189e36	-0.36120304753646637
56	0x3fd93f87e3f65058	0.3945026136582377
57	0x3f70524370937d4d	0.00398470252659362
58	0x3fd16172233f43b2	0.27157262270071236
59	0xbfddf1c0d0c761ea	-0.46788044346388225
60	0x3fc0b93f46d20eaa	0.13065329511674878
61	0x3fce434082205e7c	0.2364273677237526
62	0xbfde696a1d5bc166	-0.47518399111779386
63	0x3fc48752f24d7bc7	0.16037976103959137
64	0xbfd7b7c19c5660a6	-0.3705905939800779
65	0xbfd0b802b1a2821f	-0.2612311110224556
66	0xbfd0b86614574869	-0.261254806389053
67	0x3fe1033dc239ac42	0.5316456597769348
68	0xbfe0b412dbaa5031	-0.5219816484773273
69	0xbfaa3733f3ed6775	-0.051202415014542625
70	0xbfdaf972b7319ff9	-0.42147510423683304
71	0x3f814808aaed5ca5	0.008438174930843376
72	0xbfe0f3bbe851985f	-0.5297526872134418
73	0xbfc3701834711f39	-0.1518583541931038
74	0xbfdd4270130161c5	-0.45718004089351566
75	0x3fcc09c99256b745	0.21904868741460795
76	0x3fccf2aa5d445a07	0.22615556291630431
77	0xbfd4a6a837d25a24	-0.3226719422467872
78	0xbfcecbf453dbf829	-0.2405991944760342
79	0xbfc4109570caca7f	-0.15675609595708193
80	0x3fc6bf19242c94da	0.1777068544990133
81	0x3fbe23ff79536d41	0.11773678504998931
82	0x3fd493d001bdf77d	0.3215217606556207
83	0x3fde6f9fad081d90	0.4755629720461565
84	0xbfd13ed0b4960e02	-0.26945893893591244
85	0xbfd51e56f133e4b4	-0.3299767833228302
86	0x3fde06f3c808cfa0	0.46917433294879096
87	0x3fdfd9f8c628ec91	0.4976789412646179
88	0x3f9974f436521401	0.024860206428019897
89	0x3fc234bb5f817952	0.14223425067297996
90	0x3fdc573ad4b07a95	0.44282408495375
91	0xbf93d8786d1bd60e	-0.01938045659968251
92	0xbf9f7b8e51b5ed25	-0.030744765984747197
93	0xbfcca5a3e272bd08	-0.22380493695298065
94	0xbfce03b20e8b0642	-0.23448777876005705
95	0x3f9d01fc32f1b0f1	0.02832788525522373
96	0x3fa99ef721541840	0.050040934389514735
97	0x3fd10da843d12abd	0.2664585745120965
98	0x3fdb79aede032363	0.42930194550404205
99	0xbfd80b6247842efd	-0.3756948183442857
100	0x3fc9a6dda178e96e	0.20040483841314533
101	0x3fb6458901685efb	0.08699852260940226
102	0x3fde2ac8c28d6357	0.4713613414692665
103	0x3fc62f79c87a0753	0.17332384385013686
104	0xbfdc6e9ec249428f	-0.44425171826609583
105	0x3fd11f62be0c7c62	0.26754063186121446
106	0x3fd24cf13dcf1bfb	0.28594618831669977
107	0xbfb9910321fb714b	-0.09986896114009373
108	0xbfc6285b1f64d2e8	-0.17310656578924655
109	0xbfd19961d8b290ce	-0.274986707323717
110	0x3fcf192b09ae4d83	0.24295556996058218
111	0x3fa2b19fcdb6acc6	0.03651141534950279
112	0x3fd7f8acda1e9325	0.37455292988515715
113	0x3fe28ddaf5268b95	0.5798163211915034
114	0x3fde0477caa3a542	0.46902270115841216
115	0xbfe246fd62b7efae	-0.5711657455535624
116	0xbfc26c5fe3c67b7f	-0.14393232938615694
117	0x3fb5f16c01d64917	0.08571505589342042
118	0x3f52573e7b337f13	0.001119433419084663
119	0xbfc5341ed0563c8b	-0.16565308735559756
120	0xbfd45476ea4e4338	-0.317655304731534
121	0x3fceff620448d381	0.2421686669273662
122	0x3fcde31ef6c5eb90	0.23349368142575289
123	0xbfc740942e64553f	-0.18165828957777738
124	0x3fe1338f76369c9c	0.5375439938406035
125	0xbfda395924e827c2	-0.4097502575319788
126	0x3fe134cd1811411a	0.5376954526964568
127	0x3fe130a7a65a045b	0.5371893166594747
128	0x3fc7c0068b9d5833	0.18554765526886427
129	0x3fb8dab748064d98	0.09708734043515788
130	0xbfd9877d9bc6aaf5	-0.398894693493886
131	0xbfde24b5c56bb7f0	-0.4709906032502422
132	0x3fd3e45dfe7d3ed2	0.3108134255644305
133	0xbfd279313838224b	-0.2886469887749043
134	0xbfd02d1b0c632eec	-0.25275303086958334
135	0xbfe0c055884baf14	-0.5234782850288604
136	0x3faf3963461a04c9	0.06098470907910209
137	0x3fd26264a49d9432	0.28725544048058105
138	0xbfc14271e084b78d	-0.1348402353555084
139	0x3fc53830a777a6b5	0.16577728440397768
140	0x3fc50936afa62cad	0.1643436772977557
141	0xbfd1c4c295c8ff51	-0.27763428332763335
142	0xbfb7c4064e9a0ab1	-0.09283484858500902
143	0xbfd30625e4f0515d	-0.2972502456407449
144	0xbfd9d5643f5c227a	-0.40364938914766635
145	0xbfd7a0296ab5e734	-0.36915049954369583
146	0x3f96beeab60b5368	0.022212664948557587
147	0x3fd033705e51622e	0.2531395836900029
148	0x3fac6b2ea550e2f9	0.05550523536698466
149	0x3fcddf77a0ceab58	0.2333821807090668
150	0xbf7c245c3635c04c	-0.0068706132909569055
151	0xbfd31c9330a5fcd6	-0.29861907721347103
152	0x3fc7abe558ca44da	0.1849333461328005
153	0x3fb93a872f1f4808	0.09854931736416017
154	0xbfdc7ced22933e0d	-0.4451248967788793
155	0x3fb97700e836277d	0.09947209996439983
156	0x3fd315cd51ea6168	0.29820569037976563
157	0x3fcb46f8e2920166	0.21310339987759191
158	0x3fe199c73fafd92e	0.550021767033092
159	0x3fce026c1e25bb90	0.23444892379799542
160	0x3fdefc3eae5fb8f9	0.4841458037252689
161	0xbf61e52933bd7803	-0.0021844677666384995
162	0xbfc91ae02cefa016	-0.19613268083708196
163	0xbfd396815b970b11	-0.30606111473405045
164	0x3faaae1c91d2d9da	0.052109616089569946
165	0xbfd3285043631dbd	-0.29933554249552313
166	0xbfcb469e826298ee	-0.21309262625181397
167	0xbfd8e328ce2c33a1	-0.3888647092251692
168	0xbfb68efe687f867c	-0.0881194119570185
169	0xbfe02f09db1e8c17	-0.5057420043634718
170	0xbfd17659d5799921	-0.27284856650511996
171	0xbfc8cbe0f05beec1	-0.1937218831661678
172	0xbfba5e2892ea07b8	-0.10299924456378917
173	0x3fdde7596508e00c	0.4672454344431578
174	0xbfac1f58af1c3479	-0.05492665422034632
175	0x3fdf6117536f1c86	0.490300971487564
176	0xbfe236e27aed6d8c	-0.5691997910429776
177	0x3fddd302c3648a48	0.46600407677957323
178	0xbfc773c810a8baa2	-0.18322087109978208
179	0xbfdf4c8cf5d61e28	-0.489047279429061
180	0x3fb0e41de27ecfad	0.0659807851760081
181	0x3fde3dd775cb5c3c	0.4725245142303185
182	0xbfc73e18b9c78a28	-0.18158253737699792
183	0x3fd9521782385c5a	0.39563548771679324
184	0x3fb8a506ef1a3541	0.09626811349354104
185	0xbfd40540459f02eb	-0.31282049941005025
186	0x3fe02d615c32c2b9	0.5055395889995317
187	0x3fd4589e5664f056	0.3179088443464527
188	0xbfde732dd260d81f	-0.47577996773486747
189	0xbfad4ed1b6f07677	-0.0572419677557549
190	0x3fb2ed26eb58f3ff	0.0739311527804176
191	0xbfcd44e5319cf527	-0.22866501734271447

encoder.0.0.bias f8 [64]
0	0xbfc3c539c006c1a0	-0.15445634723938628
1	0x3f9d6e87e80b571e	0.028741954362735737
2	0x3fe174c93f4a8314	0.5455061184075896
3	0x3fab978a0017a750	0.05389052630546465
4	0xbfcee283809cf614	-0.24128764896333676
5	0x3fd19fbc40169e42	0.2753744722235504
6	0x3fd6d1a83fadcc05	0.3565464612831309
7	0x3fc63b23ffa02f3f	0.17367982846951155
8	0x3fe00f813ff61170	0.5018926858179338
9	0xbfe1131ac014cd9e	-0.5335820914828451
10	0xbfc51a9c0084ca67	-0.16487455392196468
11	0xbfcd626cbfe4f3fa	-0.2295661866172905
12	0xbfd39706df750ad1	-0.306092947215956
13	0x3fd1b42a3feac96d	0.27662140123279394
14	0xbfccb01e40503e50	-0.22412469997697082
15	0xbfdf42e420471859	-0.48845770980950004
16	0x3fd2274b803c6d76	0.28364837191630643
17	0x3fd2ea3c40709c2e	0.29554659169156394
18	0xbfd168db3e9ddba9	-0.2720249282351071
19	0x3fdfbcde812df8a6	0.4959026586074152
20	0xbfc98fb93f9617e1	-0.19969859700012108
21	0xbfda538380080ec9	-0.4113472700412158
22	0x3fc6a90f7fb0e6de	0.1770343183032343
23	0xbfd20d516020736b	-0.2820628584611799
24	0x3fe015f4bffee2c9	0.5026801824488639
25	0x3fe0f54dff4a0892	0.5299444185368591
26	0x3fd1314ac027b8fb	0.26863354458954775
27	0xbfdd5e4bc002e8d8	-0.4588803649054518
28	0xbfa4ba5600700609	-0.040484130433480266
29	0xbfe10b553fa42c4e	-0.5326334231371079
30	0xbfdb28a38066d8cf	-0.424355388061838
31	0xbfa5499bf7f0c1d0	-0.04157721902481948
32	0x3fdae4e03ffe9928	0.42021948098626405
33	0xbfdf1d0b0130fa9a	-0.48614764324512694
34	0xbfdce515c011bafc	-0.4514822364498483
35	0x3fdf7bf58005770f	0.49194085599980125
36	0xbfdf36dc7fda5bb8	-0.4877234695972521
37	0x3fde2fbaffde669e	0.471663236495809
38	0x3fc4b304ff7e08b1	0.1617132422944159
39	0x3faf7df7fcd49583	0.061507939923369136
40	0xbfe1cabe608eb816	-0.5559989820374109
41	0x3fd31157c09b99a1	0.2979335194526361
42	0x3fd31c47c020b6b3	0.29860109102706217
43	0xbfb6165580defe08	-0.08627828975931362
44	0x3fc794dc00401bed	0.18423032772281492
45	0xbfd8ad4a80d7c4ad	-0.38557684500035344
46	0xbfd2e1794062c9d8	-0.29501181876835636
47	0x3fe23a607fd79bf3	0.5696260926168847
48	0xbf95f233f9db9d34	-0.021431743741144163
49	0xbfe13bc57ffe7a46	-0.5385463237651684
50	0xbfe0ff21ffc2e423	-0.5311441417062536
51	0x3fdd1982ff94accd	0.45468211134966624
52	0x3fc706ff7fe37f68	0.1799010633903848
53	0xbfcd6b008006af42	-0.229827940476179
54	0x3fe03424fffe0443	0.5063652992104227
55	0xbfda20e6c0670ae3	-0.4082581404619942
56	0x3fc52302806043ca	0.16513091343270353
57	0xbfceefe8005f92de	-0.24169635790089833
58	0x3fe0f530fff41b93	0.5299305914967242
59	0x3fe039377fe8cfc6	0.5069844721060626
60	0xbfd4093620205c04	-0.3130622209295668
61	0xbfd9f512dfae25cc	-0.4055831131341534
62	0x3fabb053fec3ed37	0.054079651688847034
63	0x3fd305e58015cc2c	0.2972348929244528

encoder.0.1.weight f8 [64]
0	0x3fef8a6998a0da4e	0.9856460553190318
1	0x3ff0c77b39a0d033	1.0487015009976062
2	0x3fef7a8ee5120b9b	0.9837107156785011
3	0x3fef1aca80a2760d	0.9720203888315965
4	0x3feffbb63d8b26ce	0.9994765474341081
5	0x3feff49ceb313369	0.9986099809262728
6	0x3ff008273d9ddfb9	1.001990547838416
7	0x3fef1d643e159860	0.9723378384194454
8	0x3ff044bd20433b6c	1.0167819271334464
9	0x3fefbc62247017b6	0.9917460166623104
10	0x3fefd8e4856e65b7	0.9952261549071214
11	0x3ff029942ffcbc8a	1.010151088190272
12	0x3ff04d504c1e60f1	1.0188754056344431
13	0x3fefe60472f8ae86	0.9968282933745776
14	0x3ff03ea5ca456bb7	1.0152948285310524
15	0x3fef7d653e8fd01a	0.9840570661458543
16	0x3fef4b73b7960ae9	0.9779604516664594
17	0x3ff0251e4d56d8f6	1.0090621014656427
18	0x3ff078ee31b55fad	1.0295240346658645
19	0x3fefc34ecedb4221	0.9925912895360548
20	0x3fee80a380c547a3	0.9532029643107659
21	0x3fef8232d3ba36a1	0.9846433768559174
22	0x3feed3bbfa6b8f15	0.9633464709299654
23	0x3ff0c065a75e074b	1.0469719445977315
24	0x3ff1e3840a39e237	1.1180458449799866
25	0x3fefe44eeecf2d82	0.996619669365302
26	0x3ff08b6b7cf9aa18	1.034038055595948
27	0x3fefce94b2b26cc2	0.9939673891234622
28	0x3fef794dccf0147b	0.983557606000104
29	0x3fef86894de04abf	0.9851728936212892
30	0x3fef7f4a67754bf3	0.984288408343103
31	0x3ff0cd63e0177bfb	1.0501440766890926
32	0x3fefa0dd44c6cdb0	0.9883867591183186
33	0x3ff08422a37306e9	1.0322595963229395
34	0x3fee988cc65153d6	0.9561218140976233
35	0x3ff011f62fc7b4c5	1.0043851725015867
36	0x3ff0a1006dfb3bf7	1.0393070503375819
37	0x3ff0253b9db5e231	1.009090057426999
38	0x3fef228f25a8520f	0.9729686484811867
39	0x3ff06faca339b6e6	1.0272642494195963
40	0x3ff0a1671b89aef4	1.0394049716659852
41	0x3feef9a4085df63a	0.9679737246912687
42	0x3ff02a7f8e87ca63	1.0103755538554189
43	0x3ff032651b57f9bf	1.0123034542190081
44	0x3ff01506aa3c8c50	1.00513330935134
45	0x3ff05da7757eaa0d	1.0228647794380124
46	0x3fef4d2f1a6fff70	0.9781718746526007
47	0x3ff2432c1f2f461c	1.1413994997168464
48	0x3ff12754edc51bbf	1.0721024787796833
49	0x3fef854a5bc6e9bf	0.9850208084601987
50	0x3ff04fd5c8865ab0	1.0194909890175659
51	0x3fefa1d02ecba4ae	0.988502589604783
52	0x3feff54fb82e485e	0.9986952397614564
53	0x3fef72f68847b412	0.9827835714073692
54	0x3ff0931fc1360deb	1.0359189555464308
55	0x3ff230ce6797e2fa	1.1369155928243218
56	0x3ff133533101c7bf	1.0750305094083925
57	0x3ff009f7aac40708	1.0024334593330781
58	0x3feecf4013eaf05e	0.9627991093652886
59	0x3ff014d882077f4c	1.005089290549182
60	0x3fefc11abe9af2bb	0.9923223231085879
61	0x3feff1b8cac7da25	0.9982570610580451
62	0x3fef5fe1c5e914c0	0.980454336685078
63	0x3feffa476a07bcda	0.9993016310599174

encoder.0.1.bias f8 [64]
0	0xbfa33428ef859c33	-0.03750732349254129
1	0x3fb04989f35f7715	0.0636221141025682
2	0xbfc3ca1d443490f8	-0.15460553961123202
3	0xbfc030b2b04b4024	-0.12648614509680656
4	0x3fb4d3efdf47e686	0.08135890198891546
5	0x3fa5f5b6bfbe4dab	0.04289027300469724
6	0xbfc1095af64cdadd	-0.13309800173165956
7	0x3f8233cecf83d4df	0.008887878139356818
8	0x3fa845ddc9acac0b	0.04740803801390577
9	0x3fb857b5ce53eb05	0.09508835112857746
10	0xbfbaf8edacad17c3	-0.10536084619260948
11	0xbf6ef74557afadaa	-0.003780017313592861
12	0x3fa000225bb23d90	0.03125102395380985
13	0x3f974f8b039315cd	0.022764370053456596
14	0x3fa6173c2d7551d3	0.04314601950560228
15	0x3fb223275e7efc71	0.07084890419990743
16	0xbfc2ed1188bbae88	-0.14785975624487357
17	0x3f9fda4e6306e9e9	0.031106209558609797
18	0x3fb8444d8398a696	0.09479221785354705
19	0x3fb287ec25dbc188	0.07238651203420521
20	0x3fbeee6b1de40f73	0.12082547645337431
21	0x3fb0b69cdb7007c5	0.06528644902576193
22	0x3fb29a249b69c518	0.07266453546778384
23	0x3fb027ed468d4222	0.06310923550086803
24	0x3fbdaacb8c48d685	0.11588737654605026
25	0xbfc1f33d5570a371	-0.14023558303713515
26	0x3fa63519f958b610	0.04337388199597225
27	0xbfbdf85f39c1d0fb	-0.11707110557637528
28	0xbfbecef3dde580dd	-0.12034534613985977
29	0x3f7a3d050e94e8f5	0.00640584922194364
30	0x3fa7d0ee17f2a660	0.046515884803125074
31	0x3fa87413804c7acd	0.0477605909456905
32	0xbfc41904d0be7f21	-0.15701351349434226
33	0x3f601af5ed98e671	0.0019659808429224814
34	0xbf86080eeae21f04	-0.010757557433194183
35	0xbfc08cc360f402b2	-0.12929575189629855
36	0x3f9aaabd5c8e413e	0.0260419452420717
37	0xbfb439bd8732f6ca	-0.07900604773291345
38	0x3f762d0f0d2b559a	0.0054140651652309305
39	0xbfbbb29b5e329a0a	-0.10819407510516768
40	0xbfc337c975a6e34e	-0.15013998265001266
41	0xbfa75d0be6224ecd	-0.04563176330807792
42	0xbfc0e386adf3dfe5	-0.1319435452821828
43	0x3fa46b6109bbc3a3	0.03988173717323853
44	0x3f8664138363df8e	0.010933067748268657
45	0xbfc4480420b05385	-0.15844775768405497
46	0xbfc0de724634144b	-0.13178852489378054
47	0x3fc163f3878590ec	0.13586277119896495
48	0x3fb2c3f3836ade45	0.07330247839387834
49	0x3fa1feae85f1cf13	0.03514619240823271
50	0xbf9333c711f1ed9d	-0.018752203436162785
51	0xbfa1840066f59fa4	-0.034210217064184506
52	0x3fa9006519592be9	0.04883113798549472
53	0xbfc5391021749ebf	-0.16580392488071102
54	0x3fa2c8cb6cd17b07	0.036688191445810196
55	0x3fc27954e83ccfe3	0.1443277486774824
56	0x3faa335e5af8049d	0.051173161129562696
57	0xbfc3b7e8cfdea195	-0.154049970148901
58	0x3fa2c9c5f68ab55d	0.036695658059538096
59	0x3fa904d21e72a9dd	0.04886490461042901
60	0xbfb0fd22aaa8bf8b	-0.06636253992541989
61	0xbfc3b0f68a607b56	-0.15383798367198648
62	0xbfc3861321150652	-0.15252913585031763
63	0x3fb89cda84da4eec	0.09614339583850623

encoder.0.1.running_mean f8 [64]
0	0xbfc11e4b2005b844	-0.13373698295203174
1	0x3f96d1c07d6eac9d	0.022284515052586874
2	0x3fe17b1ed66b9539	0.5462793529410767
3	0x3fb20d4acf2b292d	0.07051532323672367
4	0xbfd009d810ece0e3	-0.25060083058225596
5	0x3fd2b3c0215d7dc7	0.2922211004097019
6	0x3fd6c93c00e00786	0.35603237233601026
7	0x3fc601788278bd64	0.17191988344846287
8	0x3fdfc34ee4ac2805	0.496295665085768
9	0xbfe1016d064b1947	-0.5314240572850303
10	0xbfc550a926931480	-0.1665240705826001
11	0xbfcbbef5e9ec7015	-0.21676515504884777
12	0xbfd3d04f83a97a40	-0.309589270187562
13	0x3fd24e07c57be0d8	0.2860125950387675
14	0xbfcdfea5beed6f6f	-0.23433372328406274
15	0xbfdf8ece874b0b15	-0.4930912324163484
16	0x3fd251ca8b08d9d2	0.28624213769526563
17	0x3fd37b088ce3db36	0.3043843627814796
18	0xbfd0f086730f9ad6	-0.2646804927484657
19	0x3fdf86eee25a6c86	0.49261066536718834
20	0xbfc9ca87c40b7235	-0.20149323532577204
21	0xbfdad7eed5984799	-0.4194295011412748
22	0x3fc61bc246993d3c	0.17272213408657844
23	0xbfd28ff16b2f2b8e	-0.2900355860444329
24	0x3fdeeb95f83321c9	0.4831290172410517
25	0x3fe106dc7ec4d8a1	0.5320875621753381
26	0x3fd0f4fab361cf3b	0.2649523498323451
27	0xbfdc5d2d22801ae0	-0.4431870304983203
28	0xbfa5ceafb8da1a21	-0.0425925171994559
29	0xbfe0adc28b1a1412	-0.5212109295686125
30	0xbfdaba85b644e0e7	-0.4176344184848077
31	0xbfa917997e84a095	-0.04900817555818652
32	0x3fdbb636abeb3fa9	0.43299643315276143
33	0xbfdf34acab2c57bb	-0.4875899955380835
34	0xbfdcac0c5eb4cfa1	-0.448000996100058
35	0x3fdffaf08a3d4304	0.49969113826686873
36	0xbfdf707f9d3888dd	-0.49124136308286187
37	0x3fdf465585d26e12	0.4886678511481658
38	0x3fc429e3f1c575bd	0.15752839379540076
39	0x3faed676164ba72e	0.06022995969926935
40	0xbfe1b44d47322fbd	-0.5532595053241419
41	0x3fd301c08fd6dc20	0.2969819454842213
42	0x3fd47e091a36fc96	0.32019259986913917
43	0xbfb97b3397289688	-0.09953615608591282
44	0x3fc7144630e49d1e	0.18030621898035631
45	0xbfd8dd47d7f9ee42	-0.3885058983939623
46	0xbfd2a983094e42d9	-0.2915961829067278
47	0x3fe1dc6b7122b42f	0.5581567010573333
48	0xbfa19ab6e0c31ea9	-0.03438350194624935
49	0xbfe0ef6454e1066a	-0.5292226465027856
50	0xbfe110c5d5220a33	-0.5332974589112552
51	0x3fdcd48c981c6dd6	0.45047297339052983
52	0x3fc95c155a47bd9e	0.19812266262259198
53	0xbfcbd933783c088a	-0.2175659501154466
54	0x3fdfe965156b325b	0.49862029163049265
55	0xbfdb1e4c1c0e204e	-0.4237242006279346
56	0x3fc33c19b6397e26	0.1502716197746718
57	0xbfce8d1736375294	-0.23868074557562535
58	0x3fe0e1ba008efd5d	0.5275545130643128
59	0x3fe01ca86558e428	0.5034982661665071
60	0xbfd3a48452f2baf1	-0.30691631412894
61	0xbfd9c320b52f4670	-0.40253465360465324
62	0x3faec238a399b806	0.060075540514716905
63	0x3fd2ca468b70484d	0.29359592072535606

encoder.0.1.running_var f8 [64]
0	0x3f8727300ed5ce98	0.011305213406309009
1	0x3f5c2f964b1eea7a	0.001720330019891718
2	0x3f60dc32466f95f0	0.002058122819550638
3	0x3f7ee07f07e665fe	0.007538315023702944
4	0x3f65b6d5f9562849	0.0026506594828719404
5	0x3f7d90116094cb16	0.007217471961939356
6	0x3f5650cee24ceca7	0.001362039599554868
7	0x3f58bd6d5a243e79	0.0015100067035439797
8	0x3f67ddbe6e94a6e3	0.002913352906621523
9	0x3f417cf77d7c2676	0.0005336960266230778
10	0x3f54e23ce069ab93	0.0012746424196403469
11	0x3f71048484c298d5	0.004154698992499391
12	0x3f53be4df3dd194e	0.001205040097788396
13	0x3f64d7fa52549a60	0.0025443924993340666
14	0x3f6b795158ff6b0a	0.0033537472554433555
15	0x3f558ac81e909970	0.0013148264208751835
16	0x3f50d8fa7412903c	0.001028294165998935
17	0x3f63725698eb742e	0.0023738566736555477
18	0x3f5d3aabf5466dfe	0.0017840079573038232
19	0x3f5111c496684336	0.001041833858497832
20	0x3f52af9aa754cd0f	0.0011405000962668198
21	0x3f63ad11942d6f71	0.002401861508969754
22	0x3f5832bf1a9fb8bb	0.0014769426584240592
23	0x3f60b38e04528b96	0.002038743378379458
24	0x3f83c926d727f55b	0.00966101020912429
25	0x3f4f837056ecced6	0.0009617136509860412
26	0x3f4af9a996de64d2	0.0008232191155343133
27	0x3f7b7927d15668a4	0.006707339799868848
28	0x3f5c4f40e25a937e	0.0017278798708641736
29	0x3f6d6f8a4191f381	0.003593225509176568
30	0x3f5bb22873ff67a2	0.0016904254007301463
31	0x3f5b4b6d0f9fa92a	0.0016659321831818488
32	0x3f72d60a33491668	0.0045986555529161435
33	0x3f46a3369eafa44a	0.0006908432673046274
34	0x3f63ceeea4d0209e	0.0024180089008077462
35	0x3f609cb242f3d1bf	0.002027843634659215
36	0x3f4e5230eee0b899	0.0009253252917511722
37	0x3f80f03500a94b60	0.008270658571893186
38	0x3f622747fa44f54f	0.002215996342924832
39	0x3f2995fb1c36d98a	0.00019520464239315374
40	0x3f519e87b384356d	0.001075394173372625
41	0x3f4fba629bc8379b	0.0009682637679035879
42	0x3f89deecca6b8619	0.012632226874703044
43	0x3f76bfe1e72e0355	0.0055540870988587026
44	0x3f566f32dd7f0401	0.0013692852717073214
45	0x3f5e021e7ffc8d56	0.0018315599299477312
46	0x3f42ccedcd1aef74	0.0005737458361276663
47	0x3f6b370c40fb4cb7	0.003322147305746616
48	0x3f744bce0bade8e7	0.004955105653488646
49	0x3f61f5a2f1bc2717	0.0021923239236273473
50	0x3f3d218be45149ec	0.00044450440720314346
51	0x3f4f7b85e6b070b7	0.0009607700170622045
52	0x3f8191dc1f6f7a0f	0.008578986844381324
53	0x3f7245ad6d269810	0.00446098084140624
54	0x3f5ebccb3750e67e	0.0018760666400922383
55	0x3f790ab4621cc6b1	0.006113724348141212
56	0x3f7972d1b510624c	0.006213015717570668
57	0x3f55bea3cb6645b6	0.001327190356822034
58	0x3f583d700a552cdd	0.0014794916290437534
59	0x3f65577293a05d31	0.0026051748109342733
60	0x3f5b4dd3213f132c	0.001666504079353713
61	0x3f5830a8c08e6a2a	0.001476445004505176
62	0x3f6c98fe3795017c	0.003490921514327448
63	0x3f3bfdaa453a0472	0.0004271069239863485

encoder.1.0.weight f8 [64, 64, 3]
0	0x3fa6adcc59cde230	0.04429472538226198
1	0xbfb140310e7e7108	-0.0673857365022209
2	0xbfaf250108306263	-0.060829193353303855
3	0xbf5da5a8a320b162	-0.0018095156524494328
4	0x3fa151f3a6f08493	0.03382836735568975
5	0xbfaa983462b15622	-0.05194247917885898
6	0xbfa2179a17f529f2	-0.03533631842090647
7	0xbf99440399d750b5	-0.024673515572275224
8	0x3fa1b4bb6d8427b3	0.03458200179927875
9	0x3faad80567296443	0.05242936023996283
10	0x3fa75255a920d1ec	0.045550038238079654
11	0xbf9c78fdd76fdc84	-0.027805296205738475
12	0xbfb5eca28a87ccd3	-0.0856420124253419
13	0xbfb0853ade3e8d5e	-0.06453292776000327
14	0xbf6f002b837952c9	-0.0037842607378400822
15	0xbfb758d93393ee1a	-0.09119946965432071
16	0xbfad0a83b59b238a	-0.05672084419126751
17	0xbfb712a5d9d8c741	-0.09012829369092136
18	0x3fb4f0443839debf	0.08179117558199332
19	0xbf9decc1c067025f	-0.029223468178090403
20	0xbf9222f389942ddc	-0.017711453697342935
21	0x3f94479ffe914e33	0.019804477608273707
22	0xbfa73283cb3ae1e1	-0.04530727248988221
23	0xbf9448d9c4488ebc	-0.019809153180303282
24	0x3fa32b65b474adc5	0.037440470007222205
25	0xbf8b9fabae07eb74	-0.013488141296866131
26	0x3f9a2a504d99fe45	0.025552038895055657
27	0x3f9f53cf02f7e9ae	0.03059314208619817
28	0xbf20d2a85b3b6172	-0.0001283483994629731
29	0x3f8d2d8d5dcdca80	0.014247040200392691
30	0xbf99eec188a22337	-0.02532484432643686
31	0xbf9293db1bcc2950	-0.018142150470376095
32	0xbfa4f4b36fe33a5d	-0.04092941990676444
33	0x3f9ad834731e244a	0.026215381170491527
34	0xbfad937cac3826e7	-0.057765861533040135
35	0x3f64b604d8d7addb	0.0025281996411103797
36	0x3f875d2b56ed3f9b	0.011408175077718677
37	0x3faa0b1512a2697b	0.050865801357946126
38	0xbf9f705dbe552a31	-0.030702080480560837
39	0xbfb625d5931f4feb	-0.08651480523923254
40	0xbfb0cea8b31b4fac	-0.06565336582872189
41	0x3f8047dad241b689	0.00794955209877492
42	0x3facf1e8b1bd1d04	0.05653311891233595
43	0x3f7a8add3dc885a9	0.006480087493885214
44	0x3fa9bc2951e10b5f	0.05026368259907232
45	0x3fa6cbd09c64c31c	0.044523734179511915
46	0xbfa602f34741a3cf	-0.04299125904874012
47	0x3fad4a5dcb9ba97f	0.05720799551439181
48	0x3f9f7fd66f1573e5	0.030761099367158002
49	0x3f7689d19c9b13d1	0.0055025279959339405
50	0xbf792af3c92ae980	-0.006144478119205821
51	0x3fa2f27d8b20d437	0.03700630496351958
52	0xbf934db712cf0159	-0.018851147196757043
53	0xbfb6cfa6dafa9b67	-0.0891060146919763
54	0xbfb7ac5afa6c11f6	-0.09247368444272994
55	0xbf92d4b55a1c9f4d	-0.01838954317568602
56	0xbf7aed4b5c0f52cf	-0.006573957799407905
57	0xbfa3d63dc23579f5	-0.03874390598024383
58	0xbfab87d3ab794b8b	-0.05377065151392121
59	0x3fa2f231463da812	0.037004031967470166
60	0xbf8885eb03392c31	-0.011974178348415606
61	0x3fb14f31c10e74dd	0.06761465991299383
62	0xbf9d04d802328302	-0.028338790067780735
63	0x3fb3220519d297a6	0.07473785286364762
64	0xbf98e1eef020c4d6	-0.024299367338419163
65	0xbf9d43de3d023a4d	-0.028579208825755754
66	0xbf7b4a32cfd0648d	-0.006662558063021196
67	0x3f927b6179c14bd8	0.01804878526338513
68	0x3f90b789d44c13e9	0.01632514341601513
69	0xbfb16ce4f7a9c1ec	-0.06806784674132133
70	0x3fc0ac17e6868c54	0.13025187259799742
71	0xbfa1f24962e0f57f	-0.035051625557097836
72	0x3fa1d5da7a2b30dd	0.034834697163746965
73	0xbf8926183460b411	-0.012279690836374287
74	0xbfa88c7f35359a1c	-0.04794690632370566
75	0xbfaecc830d1d8120	-0.06015405211542402
76	0x3fb413ed88ba6a3a	0.07842907512751021
77	0xbfa003bb82b3f904	-0.0312784764337142
78	0x3fa1795a96a3027c	0.03412898148372265
79	0x3fb40e5170a28f16	0.07834347724798038
80	0xbf91509f4e8fef9f	-0.016909112138804635
81	0xbfa86fecbc1dd884	-0.04772891804070503
82	0xbfa238c6b32265b9	-0.035589417807567476
83	0x3f6a0c9684d18f8e	0.0031798305340533023
84	0x3f9580319df2263e	0.020996833100559657
85	0x3f910b74a877b4b2	0.016645262510725352
86	0x3f9564d39d2c8fc6	0.020892435520309303
87	0xbfb45094a13c0218	-0.0793545621527375
88	0x3fa3275a85ff02e7	0.037409619194937176
89	0xbfa0938e93e98e9c	-0.03237577014513457
90	0xbf933b390f96a343	-0.018780604912225895
91	0x3fa501e1bc30bf7c	0.041029981825317
92	0xbf917138c777d53d	-0.017033469366613863
93	0xbfbc46037da667e6	-0.11044332330348502
94	0x3f89b3c7859dd917	0.012549933209566917
95	0x3fa3a9a50b51854d	0.038403661376615085
96	0x3fb0e593708731d8	0.06600305077808544
97	0xbfae7f06b5048915	-0.05956288299263882
98	0xbf7e29b0bce89e54	-0.0073639777970480776
99	0x3fb64533d35bbf7e	0.08699344549290619
100	0xbf7fa423d85a200d	-0.007724895496387785
101	0x3f795350d0fe218a	0.006182971657729639
102	0xbfa10119e4de82a9	-0.03321152609647033
103	0x3fb385027fab1a9e	0.07624831787971195
104	0x3fa0febbfd10ce66	0.033193468705943016
105	0xbfb8b567433b33a5	-0.09651799575222116
106	0x3fad9289be42baab	0.057758621668985675
107	0xbfaa13602f184128	-0.05092907500159277
108	0x3fabd23bb6002a12	0.05433832737624668
109	0x3f7d29f036ec1a66	0.007120073640868618
110	0xbf26b941e0b202e7	-0.00017336777850476064
111	0x3f7a2cada0b74db1	0.006390264733869542
112	0xbf79c649795da138	-0.0062926168519442036
113	0xbfb00d8baa9098fd	-0.06270668901615646
114	0x3f84a9fa7b5c4274	0.01008983315435439
115	0x3f613bfb1a560a8b	0.002103796420386777
116	0x3fa61f81b5289585	0.04320912681968551
117	0x3fad8dd497d8f7d1	0.057722705398631675
118	0x3f6531155e7bb420	0.002586881386255971
119	0xbf9ee56660572b27	-0.030171966200025182
120	0xbfa0159df94b95ad	-0.03141492527155818
121	0x3f8c9322c46b26e9	0.013952514285296274
122	0x3fa6672e21ef8ab8	0.043755952494185235
123	0x3f9658db3f7977a3	0.021823335408377564
124	0x3f7e451ebf837113	0.007390136823428389
125	0x3fa70ddb38063691	0.04502759035959259
126	0xbfb2247915ac2a5a	-0.07086903361429489
127	0x3f710f0282c36810	0.0041647050931832436
128	0xbfa68e8c05c30057	-0.044056297019324724
129	0xbf7bcb71ac960fe0	-0.006785816230493652
130	0xbf9229a4ae6f5a95	-0.017736981531778346
131	0x3fad0853205f6211	0.056704137517673676
132	0xbfa417488fd9bc02	-0.03924013858783583
133	0xbfaa1ae6fa2469a8	-0.050986497912350714
134	0x3faaf2caf606c372	0.05263361218692965
135	0x3f88d1f1d2537b41	0.01211918757547681
136	0x3fb6c7ca0b02a9d9	0.08898604172524162
137	0xbfab91a97b388786	-0.053845688144305945
138	0x3f9babde5ea5027c	0.027022814299245898
139	0x3f9574a408c92dff	0.02095276168465254
140	0x3f94a539983fecde	0.020161533277115555
141	0x3f7ad50c3aadc28f	0.006550834436766308
142	0x3fb96980f4d917f4	0.09926610925421625
143	0xbfa983568820d5a9	-0.04983015453073431
144	0xbfc029fb202e74e7	-0.1262811572204676
145	0x3fb2bd2259fda910	0.07319845864336494
146	0xbfb333987a221be7	-0.07500603658455383
147	0xbfb3c5bef064484f	-0.07723611229838066
148	0xbf9db2b4627228ef	-0.029002016552603867
149	0x3f76921e98efb71a	0.005510444184421615
150	0x3fac5f11b28b96a4	0.0554128199053541
151	0x3f98832997cd0873	0.02393784512538173
152	0x3fa9e14dfd0edcb6	0.05054706300819005
153	0x3fa156a1197e36bd	0.033864054071370366
154	0x3fb0d0fa35ca6067	0.06568874181027838
155	0xbfa0d87d8fefa4f8	-0.03290169126541714
156	0xbfa8de3e77da5eb7	-0.048570587282652004
157	0x3fa72fe24a628b0c	0.04528720052737442
158	0xbfb550d9931a2911	-0.08326492158281364
159	0x3fa69e468b8f173a	0.0441762967453045
160	0x3fa8c8a5f8f02db3	0.048405825269664325
161	0xbfb7f647e3837580	-0.09360169701127141
162	0xbf8b375a9e1735b3	-0.013289173078102267
163	0x3fbd7f296a0629ae	0.11522158468702656
164	0xbfa958b31bd98bb6	-0.04950484957659944
165	0x3fbd1d25c0bcfa30	0.11372600513002662
166	0xbf84ac840854466d	-0.010094672683894157
167	0x3f932e04ab352624	0.018730233144458222
168	0x3f9cbcd80082b40d	0.028064131766473866
169	0x3fb029f01558a1b7	0.06313992043636217
170	0xbfafaabc7cd94202	-0.06184948944121872
171	0x3fb3fbf83556889b	0.07806350042531777
172	0xbfaecd6cb913fb43	-0.06016101607564519
173	0x3f86701b4433dfcd	0.010956013697509004
174	0xbfa9dbe33996aded	-0.05050573423372016
175	0x3f7f451260460dcc	0.007634231359023368
176	0x3faa9928f60b2be3	0.05194976809942611
177	0xbf971e434c1447a9	-0.022576381224162088
178	0xbfa9bc6ff365db13	-0.050265787564901875
179	0xbfa76ab4776475f4	-0.045735969137449844
180	0x3f96b967aab894bb	0.022191638751014802
181	0xbfb06e07c3231a1b	-0.064178929463289
182	0x3f8ee355326e1d6e	0.01508204040670932
183	0x3fa03343645e66d9	0.03164110756115485
184	0x3fb0b994b2bcf391	0.06533173907969415
185	0x3f92962c4a1a0159	0.0181509895542161
186	0x3f6c3b23c7abd98a	0.0034461687877140367
187	0x3f8bfbb44fdff108	0.013663681686005194
188	0xbfa02ef48d9980f5	-0.031608240399465894
189	0x3fa0c7dac0ded1e7	0.03277476887106783
190	0xbfb4a55669d0edd6	-0.08064785083200063
191	0x3fab64ec0036a174	0.05350434782605165
192	0x3fa1eb3910ed1414	0.034997733417675786
193	0xbf62e9ef43ddcfcb	-0.002308814348845422
194	0xbfa7350cc70d81d0	-0.045326613710816255
195	0xbfa0ddca0a5af3b6	-0.03294211746604196
196	0x3f516502765f1802	0.0010616802260172702
197	0xbf88f6b540263552	-0.012189308185748846
198	0xbfa0b01118ba481a	-0.0325932829556594
199	0x3fa48bb0a8862715	0.04012825066736362
200	0xbf7be4290fd18ab7	-0.006809387586232666
201	0x3fa7768e7e48394f	0.04582639018564071
202	0xbfa7d25f603ecdce	-0.046526890276620145
203	0xbfa5d3bb9a34faf1	-0.042631018232432434
204	0xbfa586a64b00c6f6	-0.04204291978420642
205	0xbf9d577ff0ec4987	-0.028654097633145106
206	0x3fb054df0e5b6967	0.0637950334598024
207	0xbf97286a60ca5d5d	-0.0226151105476594
208	0x3fb56f1daeef0194	0.08372674485054282
209	0x3fa7b526cfc4e085	0.04630395208590791
210	0xbf8b88207725d41e	-0.013443235050298038
211	0x3faee7939e25eeae	0.06036053948898022
212	0x3f975c34661e5f12	0.022812670452906643
213	0xbf8211c3bd204eed	-0.008822945794271198
214	0xbfad7af5944f16eb	-0.05757872996723087
215	0x3faa27724dafcba0	0.051082202895393225
216	0xbf99b8ebfbf09313	-0.025119483234578754
217	0x3fa595f1afe86f84	0.04215960762323248
218	0xbf95e498899ef406	-0.021379836463655287
219	0x3f8357b72a5c0543	0.00944464777012633
220	0xbf5a72d2142411ce	-0.0016142894315304026
221	0xbf80cb79214f644e	-0.008200594262165375
222	0xbf9c125fcd7c69d2	-0.027413842121953476
223	0x3fa9f24ed6a6d3a1	0.0506767880464516
224	0x3fb7d2f0a78ce30b	0.09306243982872446
225	0x3f92722e68d9a3bf	0.018013692044778425
226	0xbfa254960bde8184	-0.03580159087073567
227	0x3fa03ead8fc9ee25	0.03172819500192884
228	0x3fb08330d05e4047	0.06450181090463146
229	0x3fac45b298ff2c0d	0.055219250847209
230	0xbfaf482d11bf02d7	-0.061097534576679706
231	0x3fa25a87b38a24c5	0.035846939722497896
232	0xbf9aaa5d77c51eed	-0.026040516314679008
233	0x3faeab3bd8aba7a8	0.05990016002563375
234	0xbfaac50e967523ec	-0.0522846754707372
235	0x3f89f4a2fe6afa8a	0.012673638714997954
236	0x3f77f13a3a764416	0.005845286802824942
237	0xbf9dc1a6349e6c74	-0.029059025727843538
238	0x3fa0b49e940e97db	0.0326280170186661
239	0xbfa7b705b065a716	-0.04631822374615362
240	0x3fa74dc8ececbce0	0.045515326425055624
241	0xbfb0eae85109341a	-0.06608440378586558
242	0x3f935c95bcc0988a	0.018907870908286863
243	0x3f72860813e5e004	0.004522353700274099
244	0x3fa80b507ff256c1	0.0469613224205836
245	0x3f9c8ff67f7a5186	0.027892924814822993
246	0x3fa2a81fbee8de9c	0.036438934378051985
247	0x3fa47f4bbba42346	0.04003369012395423
248	0xbf56f850486a3fe8	-0.001401976014367529
249	0xbf8df48b6d92e043	-0.014626588136124613
250	0xbf8819603212f9e2	-0.011767150428906473
251	0x3f86340545c18b00	0.010841408911976824
252	0x3f8532843e607eac	0.010350258973687097
253	0xbf633c020ed1aa31	-0.002347950000104925
254	0xbfa1e402d0a53d4c	-0.03494271084729891
255	0x3f9e18d44af0f8b9	0.029391591142705596

encoder.1.0.bias f8 [64]
0	0x3f8e7c03ffdc92e4	0.014884978528763644
1	0x3fa99982bffb4013	0.04999931901477352
2	0xbfb16939a003dbc3	-0.06801185757272692
3	0x3fb1183a800083ee	0.06677594780968807
4	0xbf9da59dbfe84bc3	-0.028952088201616776
5	0xbf8742affffe61a3	-0.01135766506176667
6	0xbfa12c2960161a67	-0.03354005144051513
7	0x3fa1d6be40051e7e	0.03484148532384966
8	0xbfab1ff72008e18c	-0.05297825113342744
9	0x3fa20db2c0004220	0.03526075929415051
10	0xbf5ed330004ad225	-0.0018814057122372798
11	0x3f9760e380051686	0.022830538452828474
12	0x3fa8aee2fffb9b16	0.04820927977362126
13	0x3fa423947ffda957	0.03933395445240489
14	0x3fa9c6877fed5c4a	0.05034278332339477
15	0x3f8bf411001ffaa5	0.013649113479911998
16	0x3f9c73d50000259c	0.02778561413291457
17	0xbfadb8734000c178	-0.05804786831174885
18	0x3fb05097000a72d6	0.06372970343586401
19	0x3f89748fffeffc73	0.01242935657319164
20	0x3fb0717c3ffb6e5f	0.06423164903702049
21	0x3f5ccef800dcd86f	0.001758329573431829
22	0x3f9da28480053037	0.028940267862069127
23	0xbfad466940003e54	-0.05717781931172952
24	0x3f9374af7ff12725	0.018999807533226182
25	0x3fa654780011fbc0	0.043613195427489426
26	0x3fa3d650400029f0	0.03874445706613361
27	0x3fa9fc197ffb7bf2	0.05075149237904232
28	0xbfb25d281fe10c2f	-0.07173395899103306
29	0xbfa8ce2a7ffedcf6	-0.04844792187162199
30	0xbf714489ff89752f	-0.004215754561838466
31	0x3fa0906540029101	0.03235165029880883
32	0x3faff265fffc4509	0.06239622831174969
33	0x3fb13042c002025d	0.06714265048686614
34	0xbfb2091fdffd0c9d	-0.07045172899693104
35	0x3f8f130affe6eade	0.015173040327558448
36	0xbf7afda60017f870	-0.006589554251602889
37	0x3f927e3b800b818c	0.018059663477175955
38	0xbfadfabd9ff9bcc3	-0.05855362489534734
39	0xbfa3ed69200367d2	-0.03892067447459592
40	0x3fb0dbf4c0042b3e	0.06585626304528788
41	0xbfa0b2f75ffcfe9e	-0.03261540457469646
42	0x3f9be304ffb6e3ce	0.027233198268479523
43	0x3fabd5357ff56f23	0.05436103045459919
44	0xbfb20cb4ffff64a4	-0.0705063939089024
45	0xbf45fe3ffe5b032c	-0.0006711780995019893
46	0x3faa6c323fff4a3e	0.051606722175752115
47	0xbf9832efbfff576a	-0.02363180741652774
48	0xbfa58de0dff2ab46	-0.04209807142009096
49	0xbf911bc2c057eeea	-0.016707461347308085
50	0x3fabdc5e7ff73541	0.05441565811234251
51	0x3f9984ba000a219a	0.024920374157348137
52	0xbfafbfd7a008ef3f	-0.06201051548529656
53	0xbf7db03400b82baf	-0.007248118530251909
54	0xbfaccf438006ce0c	-0.056268796327824416
55	0xbfa98112000b7136	-0.04981285334153755
56	0x3f50f73003fc9cf9	0.001035496607025453
57	0xbfb16b2f7fffd89f	-0.06804177165017443
58	0x3fb0ceba7fffa839	0.06565442681281376
59	0xbf44d74ff7586b15	-0.0006360187969137477
60	0x3f9dec1e00042b4a	0.02922102809047126
61	0x3fa639688004a0ce	0.0434067398330754
62	0x3f85d96100010234	0.01066852360975288
63	0xbf8b3dd4ffe5317a	-0.013301528987221135

encoder.1.1.weight f8 [64]
0	0x3feff8c8a1dd3257	0.999119106426927
1	0x3fee53369d61e3ae	0.9476578782915703
2	0x3ff0204e0ca33ed9	1.007886933675698
3	0x3fef45f403f1195a	0.9772892071712633
4	0x3feef8ce82b9f099	0.9678719094513496
5	0x3fef161ba9761143	0.9714487371243553
6	0x3ff1a536c351db05	1.102835429160849
7	0x3fef73aa7e1b685a	0.9828693831471
8	0x3ff15862cb24759a	1.0840785918474922
9	0x3feed18a7eeac607	0.9630787352418232
10	0x3ff03354f851d3b5	1.0125322055803114
11	0x3fef6fd023e1d809	0.982399053652217
12	0x3ff0532010ffa2ab	1.0202942527777548
13	0x3fef86ca01ba2ae4	0.9852037461981493
14	0x3ff0922b3c061899	1.035685762851733
15	0x3ff087e32bd7a38b	1.0331756317702652
16	0x3fef662e30145846	0.9812231959392725
17	0x3ff09da215806b22	1.038484653464089
18	0x3ff04f815eaa4a9f	1.0194104860171718
19	0x3fee831307bb738c	0.95350028524591
20	0x3fef1ed8e6fc896c	0.9725155364470033
21	0x3ff0c8e374e0d0de	1.0490450444750006
22	0x3feec69bd5c72973	0.9617442298270319
23	0x3fef10abcb61c478	0.9707850429823699
24	0x3ff0919a59f069dc	1.0355475915190402
25	0x3ff0e7d84662f17d	1.0566027402374794
26	0x3fef23fa366a9c01	0.9731417715855742
27	0x3fef5bf10436c7fc	0.9799733240417932
28	0x3ff0595ce5a9d30b	1.0218171092248578
29	0x3feef367391d1ba4	0.9672123065473568
30	0x3fefecfb5977479c	0.9976784465200015
31	0x3fef262634fc38e1	0.9734068903797174
32	0x3fef079198bf15df	0.9696739180878317
33	0x3ff0316676f2314c	1.0120606085138943
34	0x3feea8fde54e620c	0.9581288794170759
35	0x3feed0e696e0ca01	0.9630005785787149
36	0x3feef621adcf2459	0.9675453562459878
37	0x3ff0b112079ecc5c	1.0432300851505465
38	0x3ff00e4af13dc15b	1.0034894393430338
39	0x3ff0126c476f1a57	1.004497794188543
40	0x3fef24c7657305d8	0.9732396108085437
41	0x3fef36f28ff3259a	0.9754574595946679
42	0x3ff02b0e4ac197fb	1.0105116768040705
43	0x3ff071b35496fd96	1.0277589134492238
44	0x3fef5531af87a470	0.9791496685330809
45	0x3ff08d225e595c76	1.0344566045294221
46	0x3ff0700e3947ab71	1.027357314824908
47	0x3fef0596aea835ba	0.9694322024603743
48	0x3ff066485dd7886b	1.0249713578891952
49	0x3ff02bb6f4307114	1.0106725252763384
50	0x3fefcf56d212735a	0.9940599539728325
51	0x3fef19c487ba3f42	0.971895470707729
52	0x3fef7313b83481d9	0.9827974889522536
53	0x3ff05ad96a78de32	1.022180000216292
54	0x3ff096df95d6d554	1.0368343213170492
55	0x3fef4af6b2fc5975	0.9779008384528384
56	0x3ff04263593d57e0	1.0162080274508227
57	0x3fedde84565b646a	0.9334127127323317
58	0x3ff011c2c6ecd0eb	1.0043361444959895
59	0x3ff003a3556294fb	1.0008881888728058
60	0x3feface6242676d6	0.989855833631476
61	0x3feec7d1e3dbc662	0.9618920755730864
62	0x3feea99964beb914	0.9582030265499122
63	0x3ff133b53b52fa2b	1.0751240079258746

encoder.1.1.bias f8 [64]
0	0xbfacd62d34a1a031	-0.05632153766129056
1	0xbfc1ceda841f1918	-0.13912517024272897
2	0x3fa02e557aeac6bb	0.03160349965527361
3	0xbf9ba3db20969ec1	-0.02699224840549053
4	0xbf8fed49d15dff55	-0.01558931036174697
5	0xbfad173f35d4e504	-0.056817984887354483
6	0x3fc0510f115ec3f4	0.12747372005608748
7	0xbfb416d98109b999	-0.07847365761128912
8	0x3fa0dc26d46fec00	0.032929624016070136
9	0xbf97e65e807cd53c	-0.023339726059210295
10	0xbfc36c3e159ad53c	-0.15174079947397867
11	0xbfb56ea29bb18c59	-0.08371940899955756
12	0xbfb1d9b56d8db6d7	-0.06972822117469533
13	0xbf83006543801626	-0.009278098223158681
14	0x3f9af92eeb434d31	0.026341183766658453
15	0x3fa758d2e49d13ff	0.04559954682057565
16	0x3f968899a81c4bcb	0.022005463491108473
17	0x3fb1a9b0a7e48320	0.0689955148595911
18	0x3fc07fc115e4d8c5	0.12889875000991516
19	0x3f94020565b678fe	0.019538959820800443
20	0xbfa486f0c76bae00	-0.04009201464017664
21	0x3fc0568f52996f65	0.1276415971104782
22	0xbfc2b2df51a6240d	-0.1460837505985925
23	0xbfc1c0079f8ff5c1	-0.1386727837670332
24	0x3f8fad0a0b6179d1	0.015466764900506387
25	0x3fb7f59f7709f632	0.0935916581747385
26	0x3fa6a17223e28fd4	0.0442004841618481
27	0xbfc4da34f7600dfc	-0.16290914610736695
28	0xbfc397b48bc61a9c	-0.15306717705626205
29	0x3f94571f581245ab	0.01986359572453515
30	0xbf6f89fb1861a26e	-0.003849974079504207
31	0xbf9696ab2e85938c	-0.022059130396332047
32	0x3f96359a99cff681	0.021688857686959388
33	0x3fb77b352f9f0e09	0.09172375118856037
34	0xbfb85bfc4b1ddd19	-0.09515358766463002
35	0xbf95820c532bbcba	-0.021003906799646123
36	0xbfa4c10a07be1bd1	-0.04053527206911379
37	0x3fb27692cc9d5e61	0.07212178702808948
38	0x3fa443d55b5b1036	0.03958002796346742
39	0x3fb49c8608ca14b8	0.08051336016258659
40	0xbf6f2e8ff0a43fef	-0.0038063823059317696
41	0xbfb71e6e32b723ae	-0.09030808199089677
42	0x3f9a2bffee1eae72	0.025558470638925752
43	0xbfc44f4d785f004e	-0.15867012383933105
44	0xbfbc8a6b7471a302	-0.11148711769932265
45	0xbfb9717c1b2b2192	-0.09938789046566956
46	0x3fadcd645564295f	0.0582076410519956
47	0xbfb9afa9d3e0c718	-0.10033666060260449
48	0x3f7d4469da404dff	0.007145322309969781
49	0xbfaeb69bd2cf5400	-0.05998694370615709
50	0xbfb9959fe725253f	-0.0999393405264941
51	0xbfba5111a1d730d8	-0.1027995128744722
52	0xbfc3482abb30abfd	-0.1506398595823554
53	0x3faef588ebd2b7e8	0.06046703222942523
54	0xbfc69f4e16fc7a28	-0.17673660395026158
55	0xbf8e8fa2966aa12a	-0.014922399726245834
56	0x3fa4d6f26877d626	0.04070241475339413
57	0xbfbbabc8d0f23f79	-0.10808997250773968
58	0x3fb2700ba045f801	0.07202217734263174
59	0xbfc016edd77658e5	-0.1256997396528227
60	0x3f6b7043d5ce15ce	0.0033494305520800132
61	0xbfc44c5bcfaf4112	-0.1585802806935211
62	0x3fa50bfb86a45c6c	0.041107044397158926
63	0x3fb9b62049700ef1	0.10043527405656129

encoder.1.1.running_mean f8 [64]
0	0xbfa661360413172f	-0.043710411069282855
1	0x3fd30d54348866a0	0.2976885331168919
2	0xbfe410bbc6c95448	-0.6270426638171864
3	0xbfcca0d33b29df5a	-0.22365799321027674
4	0xbf86f6532d8adb5c	-0.011212014987319989
5	0x3fe0ca2357e7f770	0.5246750561634439
6	0xbff18787e977506d	-1.095588600136604
7	0xbf8edb25fe85ad33	-0.015066429929638225
8	0xbfb68f68fbfaf0aa	-0.08812576438771438
9	0xbfc0d36b9dd9cb9d	-0.1314520378833465
10	0x3fd9db3475a9e975	0.40400420656774055
11	0x3fe620e942939a58	0.6915174770663937
12	0x3fa2858d16c773f1	0.03617516425195067
13	0xbfad9211c8f5024a	-0.05775504663552462
14	0xbf52330250cd21df	-0.001110794316632739
15	0xbfe68e3266a643af	-0.704858017432448
16	0x3fd7e538d4179a2b	0.3733655997479299
17	0xbfd872f45596426d	-0.3820162616548604
18	0x3fc9a7b2a8474b7c	0.2004302331611959
19	0x3fc43816d9f9f945	0.157961708482569
20	0xbfa4421b8f4c651f	-0.039566861383898415
21	0xbfe7bfbad6811e9a	-0.742154520944456
22	0x3fdd11e6bfba3651	0.45421761248949105
23	0x3fd3b05c583b8e1a	0.30763920418232404
24	0xbfe109767103ff3f	-0.5324051101051522
25	0xbfc236a950f2547d	-0.14229313328238283
26	0x3fd71b3a5b27ab6a	0.3610368623910093
27	0x3fd5dbbe3cdfa127	0.34153705544169316
28	0x3fd35901346826b9	0.30230741613250306
29	0xbfcd868e368e2fdb	-0.23066880859221225
30	0xbfd09ed6bfc67f9f	-0.2596947548681729
31	0xbfd8726732f82c58	-0.3819826123951251
32	0xbfcfe0287141c012	-0.24902825861090655
33	0xbfc9424a964cc94a	-0.1973355516325433
34	0xbfb6c623d99c6dee	-0.08896087706346353
35	0xbfd399d4cb527209	-0.306264113003437
36	0xbfd4e027c6989929	-0.32618135828160405
37	0xbfcaeec79e6c4fc0	-0.2104119800138715
38	0xbfd184943e82b185	-0.2737169847921666
39	0xbfc48e86f3cc77c2	-0.1605995836661674
40	0x3fbfc9ea9c60303f	0.12417475049750325
41	0x3fb94bc614e68502	0.09881246576562222
42	0xbfd31a9be7df96c0	-0.29849908489118704
43	0x3fc24d40f48d46d8	0.14298259678849123
44	0x3fd1462fa875bf7f	0.26990882350127515
45	0x3fdbc0affa5b65c5	0.43363570641448873
46	0x3fa5298dc80b9bbb	0.041332655591581134
47	0xbfccd509cab6e75f	-0.22525141142051106
48	0xbfc6f07d4ae9576a	-0.17921415479457475
49	0x3fc4bc3dfdf22ed2	0.1619946947069964
50	0x3fd4e49edd8aa13d	0.32645389208711945
51	0x3fe4c953492de723	0.6495758466037141
52	0x3fd18a99ac7a3247	0.27408449023713327
53	0xbfa8e5c6c2cc238f	-0.04862805488489307
54	0x3fdc7504a52d2dda	0.44464222078815185
55	0xbfd52e553f909206	-0.3309529419659899
56	0xbfd1f16b4a51dd24	-0.28036005265990327
57	0x3fd6d778f18254de	0.35690139374612595
58	0xbfbf556e16164ace	-0.1223973087237866
59	0x3f97c740fc50938f	0.023221030616827284
60	0xbfd4ca27755ca3f5	-0.3248385091888502
61	0x3fee23ddc13ca11c	0.9418782018811132
62	0xbf8f6ce36695c9cb	-0.015344406669758911
63	0xbfd97f8099c0b036	-0.39840712561522496

encoder.1.1.running_var f8 [64]
0	0x3fe2b70c41bea46e	0.5848447116924385
1	0x3ff97f3e45bfd711	1.5935652470192887
2	0x3ff65e1ad7ab7aed	1.3979748177150058
3	0x3ff5b758baa23e01	1.357262352979774
4	0x3ffb7dde3dd83fff	1.7182295242128018
5	0x4005d0261b5e5330	2.7266351831589404
6	0x4004e1272bb28819	2.6099379934175997
7	0x3fe6acde50fce76f	0.7086021024508521
8	0x3fe0295e583ffb49	0.5050498698836715
9	0x3ff5e171d4b0505e	1.3675401981500026
10	0x3ff37b9045767d4e	1.2176668847458418
11	0x400985ff34b7228f	3.190428172911488
12	0x3fd4edef1c27ea97	0.32702234029390226
13	0x3fe87b53bef8d2f4	0.7650545816346423
14	0x3fe8f67ada5b2ef2	0.7800878777283897
15	0x40126e75a3a984ae	4.607870633336615
16	0x400d4faa641dbef7	3.663899213941359
17	0x3ffca2a2066667bd	1.7897053003311918
18	0x3fda365d39c7175d	0.409568125175033
19	0x3ff699fbdb2c3bdf	1.4125937043606809
20	0x3ff216a0bbd681f5	1.1305243813914079
21	0x40102c770296c7ee	4.04342273755354
22	0x4006f498bd22c0f2	2.869431951163386
23	0x4011474e160f641f	4.319633812608145
24	0x3fd6a647a3130a64	0.35389891553146513
25	0x3ffa29989023e2aa	1.6351552610850981
26	0x400878540e284146	3.0587540727648586
27	0x3fd8080ec1b55cf4	0.37549179951515943
28	0x3fd2939742f0ec2e	0.2902582315179555
29	0x3ff7909f27ed2d1b	1.472808032953998
30	0x3fecb151fe5d9afc	0.8966455429152513
31	0x40083a0c7a21a078	3.028344110633096
32	0x3ff8def20b411c0d	1.5544300498602326
33	0x40011b5b70c87bb1	2.138358002775441
34	0x3fe9f27a6d0c70bf	0.810849392877138
35	0x3fe227155c5b40c7	0.5672709277951292
36	0x3ffc1e8aa6de1a69	1.75745644743588
37	0x40014264a1bc9f0f	2.1574185023963603
38	0x3fee8d94cb02ef50	0.9547828641002329
39	0x400fa3552c37c540	3.9547522978324707
40	0x3fd85023fba593de	0.3798913915146026
41	0x3ff1e47f91b745e4	1.1182857219722502
42	0x3fd19caaff97acf7	0.27518725357249657
43	0x3fc4c22f0d59b665	0.16217601920964167
44	0x3ffdb48b2ee1956d	1.856578047876009
45	0x3feb3cdabd7f574d	0.8511785222169493
46	0x3ffaacda2c9dcffc	1.667200254710223
47	0x3fec2dbe347804c4	0.8805838608533567
48	0x3fe0887b617ff394	0.516660395078008
49	0x3fe3d4027ca5dcd9	0.6196300920991248
50	0x3ffcd8d3563e34ff	1.8029359215609586
51	0x3ff7163e426f5d76	1.4429304690473521
52	0x3fe177e51d7495c3	0.5458856177617054
53	0x3fecdcdb4e43f7f0	0.9019600418685041
54	0x3fc11e84aad9044c	0.13374384252714078
55	0x3ff30ad8d9524982	1.190148209487774
56	0x3febc1d1bf3a5c56	0.8674095854684178
57	0x40100a5e934c2361	4.010126401445491
58	0x4006c78b1fc4bfed	2.8474333269041296
59	0x3fceea6deb1eb5bc	0.24152921658007453
60	0x3ff3b8ad96f0d285	1.2325874229547094
61	0x400ac4b25210a22a	3.346043244488347
62	0x3ff2c0d3b418e609	1.1720768961953374
63	0x3ffe4653a71440ee	1.8921696211364707
