models/matching_nets/SETA_n=1_k=5_q=15_nv=1_kv=10_qv=1_dist=cosine_fce=None.pth (torch, 316367 bytes, 24 tensors)

encoder.0.0.weight f8 [64, 1, 3]
00000000: 1da6 a385 04ca d5bf 8ae6 b1cb d0e6 d5bf
00000010: 86bf f8d4 2c2b d63f 5b7e c30a d5d5 ce3f
00000020: 8e99 372a f869 d4bf c8df 8a69 4b91 acbf
00000030: 5e1b abda d42a cfbf 9501 4fc5 f7a3 debf
00000040: e4ee 7061 edb2 e0bf 5cb5 bdb8 a0fa d43f
00000050: b15a 2703 0a62 e0bf 5286 6655 f9a9 d4bf
00000060: aef3 a9a5 694b b1bf 4bd8 6550 1b39 d0bf
00000070: 0c81 6070 ae43 cdbf ce3a 9fdd b016 cc3f
00000080: da1d 568a 5ad9 bbbf a6bf d003 3645 cdbf
00000090: 58c2 2453 1a46 d1bf e4da d9bd 4e14 dcbf
000000a0: 84ce 5b51 c771 b63f a683 44ff 5f6f dabf
000000b0: d3f9 2b68 28cc e0bf 0bc9 9012 0539 d43f
000000c0: 8e97 ffde 1424 e3bf 6dc7 be53 dcd4 df3f
000000d0: 2c77 a6c7 1914 d1bf 9c04 4939 703e d63f
000000e0: 6d1f 068f 62cc c13f 93fc a08e ee8b e13f
000000f0: 4061 2da7 3600 c63f 1e63 5555 19f5 d7bf
00000100: 81f0 0907 61d5 a93f 5f49 5dd2 afbf 663f
00000110: 7e5f 0a9f ddb5 dcbf bb3e 86a0 21f6 cebf
00000120: b442 b46e acee e13f 2da7 3cce 7c0f dd3f
00000130: 4ef1 ea8e 06e1 a3bf c419 dc89 2f65 d23f
00000140: b1b0 f5db 57b1 c33f 9bca b673 a2de c53f
00000150: 0c53 5472 192b bebf a68a 5775 f599 d2bf
00000160: 494b e108 b9fc c73f d4a3 190f 043f d2bf
00000170: 27bd 9f93 9d98 da3f b444 e565 0495 e03f
00000180: 2b2d 9e52 09d6 c3bf 2d6e 6188 05c8 d9bf
00000190: 965f eefc 9907 d03f 16cf b202 3fce db3f
000001a0: a747 cc76 7c7e e1bf e557 12a9 3e85 d9bf
000001b0: 9dc9 aabc ea78 bd3f 686b 1fde 43c7 9fbf
000001c0: 586c 0f49 ade5 d9bf 8974 7d8c 04b5 d1bf
000001d0: f4a3 5548 ba45 d2bf 7373 8218 a3d4 da3f
000001e0: e3c6 8329 fac4 c93f 381a 021b c041 e1bf
000001f0: cfc8 eff9 ce47 b7bf 1317 879c b296 c9bf
00000200: 8305 da10 dc9d d3bf befb ffd5 b4aa d7bf
00000210: 81bd c38e 10f8 d33f 3ac0 c830 21d2 e0bf
00000220: d8dd 753c 5757 d5bf efb7 67f7 0b9d cabf
00000230: 7ca8 e3ae f11c ae3f 2b1e 4307 d6e5 cc3f
00000240: 5492 94b6 8a96 ddbf 234f 8c12 a51c b33f
00000250: a542 7ecc 0c19 d0bf bd62 2c84 95d0 d43f
00000260: 2efd 0a61 d240 b53f b5a2 4cb5 5156 c43f
00000270: edc4 c3a6 5c83 8cbf 12eb 9baf 2750 df3f
00000280: 21c8 4cce a55f bfbf 3191 fba6 daa2 b63f
00000290: 531a fdbd a36e de3f 5ac3 7e4f af18 c43f
000002a0: 10bb 2ca3 47c1 dbbf 2263 b4f3 36d6 e1bf
000002b0: fd63 7bcb 55b7 c1bf 7efc bbe0 9578 cb3f
000002c0: 8a7d 1f9c 6464 c2bf 45a1 1707 2520 c1bf
000002d0: e3fc 3777 008d d5bf bbf0 c17b 21c9 d23f
000002e0: fbd8 ee43 38d0 d7bf 2bfc b0bb 1dbc cebf
000002f0: 74e0 7637 410c dcbf f492 901c b695 a03f
00000300: 7b26 efbd 9741 dd3f 261a 58f0 3cfa babf
00000310: ee9d 022d da7f df3f 1c66 d9f4 c493 e03f
00000320: 8623 522c 71a4 d33f 59fd a967 03b3 dc3f
00000330: fbc2 7a67 785e c03f a5ba 3a50 fc44 cbbf
00000340: f1e5 4977 488d de3f 38e8 41e4 9d21 e03f
00000350: 2b33 7caa 1cd0 c83f a5c7 e19b 5de4 d63f
00000360: 3bf8 6280 682e d4bf 83c0 b785 63dd c83f
00000370: dbe8 db65 e7c0 b83f 02de 9b25 a439 e0bf
00000380: 48a7 59d5 808c c13f a23a 9f2c e820 d73f
00000390: 2054 3e9a cfcf cd3f c107 f1ba b8da c53f
000003a0: 26ee f753 6ec4 de3f 68ce 729a bb8b b43f
000003b0: 3c2f 67a6 969c c43f 87c4 682e d4ee c43f
000003c0: 6048 9427 1230 b03f eabf 4438 96e7 c23f
000003d0: 4d26 0e09 29b2 c23f db2d f084 7b02 e0bf
000003e0: 7c2c 72c5 ed34 cdbf 4a52 0e8e bd78 d23f
000003f0: b03c e243 d9ad cf3f 1667 5d37 f2e1 c5bf
00000400: 04a7 7def ec9c cdbf b18a 89a0 bca0 d03f
00000410: d008 6c9e 79dd afbf 9ec0 0bc3 4ea4 e1bf
00000420: 0a6b 3d5e b061 bdbf 5ffa f02c 8add c6bf
00000430: 0e6e 2255 bf6d d9bf ef1e 3b45 363c d33f
00000440: 9cb1 15c2 8645 d43f fb41 a0a0 c4b5 cebf
00000450: c437 7b85 fe1c c33f ce1c 5ff5 e852 dcbf
00000460: bc2d 0003 55e0 d6bf ea46 a896 a215 b93f
00000470: a073 93a7 b084 df3f 0558 3fd6 4474 b73f
00000480: 0645 65ea f0ca b9bf dcd3 8058 f78e d8bf
00000490: 4acb 07e8 8cec d7bf 767f 1a29 9a67 d1bf
000004a0: 6bea 8f62 7f41 c4bf 4e63 a006 0b8b d03f
000004b0: 5b83 1651 6f08 e1bf b14c 1105 e195 dc3f
000004c0: 1f04 557f 43f6 c9bf 9c0b fba2 c209 dabf
000004d0: 0bf1 abb6 d04f c53f 3ecb d508 2459 dabf
000004e0: 3577 7d60 b145 e2bf 9d54 e499 98fb e1bf
000004f0: 9fe3 f385 310f d83f 2933 e14b 2b94 dfbf
00000500: 749e 6661 dae4 d33f 1c21 a0cb 2681 d33f
00000510: 8a38 993e afb9 c5bf 8627 b8d9 96fb df3f
00000520: d933 aeda c495 cbbf b09a 856d 5caf b93f
00000530: 5c03 8e9b 8f1d c3bf f3e9 65cf 1a4c 983f
00000540: 73fe 921b 23db e13f 2795 92f2 8d60 c43f
00000550: 2550 307e 02c4 dc3f 252c 7929 b7df d6bf
00000560: 9cee eec2 211a bbbf 845e d69e ccd6 dabf
00000570: 2438 2f89 9ecd c5bf cc9c afef 3e7c c3bf
00000580: 1290 c156 f75c cebf 8eb0 c506 d748 b9bf
00000590: 7caa 0241 68fa e0bf b1cf a9e5 cfac cd3f
000005a0: c570 4d61 02a6 d7bf bad8 43e3 b418 e0bf
000005b0: eee1 830b 94bf bfbf 72c3 882f 000a 84bf
000005c0: f4af 2a0b 8ec9 d63f 28a9 dd00 ab4e 91bf
000005d0: 0ee4 e39d 32e3 c73f 3e31 fc3a 8ee5 ce3f
000005e0: 7c37 059f 7fa3 c5bf 8aff 05cf e0e5 ce3f
000005f0: 4aae f979 7444 d13f 25e4 170b eadf ddbf
-0.34045517969807 -0.3422128667076342 0.34638520048155674 0.24090064073151293 -0.3189678585316863 -0.05579600966797177 -0.24349461247603704 -0.4787578036157581
-0.5218417075297705 0.32779710808866525 -0.5119676648708574 -0.3228743871678478 -0.06755695623901545 -0.2534855160842013 -0.22862797248036093 0.21944247075449258
-0.10878530385354371 -0.22867465196895614 -0.26990373725405936 -0.43873947658668855 0.08767362343115265 -0.41304778984527457 -0.5249216112713903 0.3159802132896778
-0.5981544833600638 0.497366983206226 -0.2668518495282679 0.3475609359193841 0.1390498350485773 0.5483315263480953 0.17188151514961625 -0.3743346532187831
0.050456077679855056 0.002776950265720376 -0.4486002019052576 -0.24188633287530145 0.5603849565687455 0.4540702833206634 -0.0388261842212808 0.287425884846382
0.1538495849630457 0.17085676813220094 -0.11784514466519286 -0.2906469007413456 0.18739998754116474 -0.28509618258118263 0.41556491295246406 0.5181905737064398
-0.15496937307430278 -0.4028333503572153 0.25046395969683866 0.43446326507113164 -0.5466902084610766 -0.3987576151934021 0.11512629610186882 -0.031033573562904065
-0.40464336523809186 -0.27667344779713027 -0.2855058390037464 0.4192283381797132 0.20132376696670126 -0.5392761733535911 -0.09093946077317415 -0.19991142886117838
-0.30650998731297124 -0.36979409120970874 0.3120156664071701 -0.5256505921188428 -0.3334558573182824 -0.20791768627481086 0.05881457576636337 0.22576403956030452
-0.4623133452426249 0.07465583517869993 -0.25152893037833685 0.3252309599643402 0.08302035206996969 0.1588842520952959 -0.013922427977805596 0.4892672743732628
-0.12255321776027063 0.08842245651937188 0.4755029063566429 0.1570033205184938 -0.43367186484367526 -0.5573992500168041 -0.1384074443401743 0.2146174762092165
-0.14368875144189658 -0.13379347654632504 -0.33673106806231895 0.2935260494775879 -0.3720837272079646 -0.2401158491574916 -0.4382479707378544 0.03239220713320448
0.4571284632516847 -0.10538082950379443 0.49217848201303027 0.5180382520877092 0.30691174820145084 0.4484261047691312 0.1278830056449108 -0.21304277341319736
0.4773732342651718 0.5041036089089692 0.19385107349844452 0.35768833372923786 -0.3153325322890656 0.19425624875248468 0.09669347988884473 -0.5070362791583991
0.13710031907549536 0.3613834796678167 0.23290438682002534 0.17073735359195832 0.4807391948704399 0.08025715370859532 0.16102870106839784 0.1635384775741253
0.0632335039738634 0.14769246814239462 0.14606202070381116 -0.5003030392121518 -0.228177758607078 0.2886194121613569 0.24749294104228658 -0.17095782950746558
-0.23135148710144204 0.25981059720485705 -0.06223659571516438 -0.551307087849654 -0.11477186489848293 -0.1786358565750161 -0.3973234492675325 0.3005500484546095
0.3167435546263506 -0.23992212145869005 0.14932233350412905 -0.44256042444289967 -0.3574421433738413 0.09798637560040971 0.49247375836221785 0.09161787253046334
-0.1007528850798459 -0.38372596400159664 -0.3738128915712663 -0.271948375835556 -0.15824882805448523 0.2584865154945434 -0.532279642462622 0.4466478871810962
-0.20282787053477677 -0.40684572139815045 0.16649826926721575 -0.411690720203456 -0.571007431466319 -0.5619624143315779 0.37592733460729194 -0.4934185257923667
0.31084308158685947 0.30475778470328563 -0.1697291427285033 0.4997307897725637 -0.21550808599241014 0.10033204721330935 -0.14933962912985066 0.02372781649453688
0.5580001390989778 0.15919660896649043 0.4494634849845645 -0.3574045090687739 -0.1058674908553549 -0.4193603087564741 -0.1703375024648618 -0.15222918227593707
-0.2372121022809784 -0.09876769938790828 -0.5305672902807852 0.23183630670575675 -0.36950740339467486 -0.5030159415025743 -0.12401700287944781 -0.009784699869756362
0.3560519322443263 -0.01690165703568272 0.18662102422220567 0.2413804805768311 -0.16905207886378182 0.2413903246742815 0.26980316077854083 -0.4667916401227237

encoder.0.0.bias f8 [64]
00000000: 88f8 4881 2678 c93f d8a1 b23f 7c6f c1bf
00000010: b2c1 403f dcfd e1bf 5182 4680 fb07 d93f
00000020: a5cf 513f 797d d23f cab5 06fc 7124 a43f
00000030: efd2 eb02 88b3 a3bf 4a94 e79f 02ef dcbf
00000040: 8dbf 35e0 9fca 893f f0b9 b7bf ca6e cbbf
00000050: c476 f318 f2ce a73f bab8 2480 d460 ca3f
00000060: 1bbc 9ffc e756 9f3f fbe7 2500 d9de c63f
00000070: 2adc d640 849a c1bf 9af9 f43f 6bda d23f
00000080: 30d5 e840 6c21 e03f 65ee 2880 09e0 e03f
00000090: 1df3 8360 543a d8bf 0bd2 b07e 5f06 cf3f
000000a0: c1b7 defa 2f1e 993f abe1 d0ff ebaa e13f
000000b0: ea1e 9a7f 273e d6bf b0fb 0dc0 6d0c e13f
000000c0: b708 b682 95b5 c63f 1e3a 1100 1bc3 b1bf
000000d0: 5832 4a7f 472d c03f 056f 1380 3476 ce3f
000000e0: e01c 8680 f7e5 d33f beb3 f27e fc29 ccbf
000000f0: 3642 467e c733 d73f fe65 2ee0 6579 debf
00000100: 5551 8100 8458 bb3f 8a88 e6ff e827 e2bf
00000110: 110a c57f f86d c13f 78b8 d95f aa04 d2bf
00000120: 4421 e500 da45 c5bf 7573 a280 d22c ce3f
00000130: b28f e9bf 66b7 d6bf 6b24 4500 ff60 dbbf
00000140: 80ee 4600 348b e03f 28ea baff f346 e13f
00000150: bfc2 0ac0 132a dcbf ce89 b23f 3d50 d93f
00000160: 2725 0f09 d465 a6bf 40f0 62c0 affe d4bf
00000170: 1b3b 26e0 1b45 e1bf 9a92 1800 6fe4 d8bf
00000180: 227a 89ff 830f d33f dcb1 9f7e 6c8a de3f
00000190: 561d fe3d 702c d2bf 87b1 0cff 8861 dc3f
000001a0: 5e6f e5ff fe1e d13f 369a e83f 8742 d6bf
000001b0: 397e 181f 6754 ddbf 7e83 f43c 9d52 e23f
000001c0: af27 ffff 53f8 c53f cede 3b00 dc93 cd3f
000001d0: fe66 2c00 90e3 db3f fd64 c13f b69c d93f
000001e0: 03d0 2680 7299 dc3f af7b 3240 625e d4bf
000001f0: ae61 83dd c4c2 dbbf ffe1 d2ff f20d dc3f
0.19897919953104215 -0.13621476278537048 -0.5622388110551155 0.39111220862290447 0.2889083021502706 0.039340555205267316 -0.03847909007700944 -0.452088028103678
0.012593506841511526 -0.21431860314574136 0.04650074534013762 0.20608001954082572 0.030604958337729565 0.17867577082853345 -0.13752797285062118 0.29458123441499995
0.5040799396289568 0.5273482802508168 -0.37856015611014177 0.2423819893462141 0.02452921837510025 0.5521144863515038 -0.34754359685074 0.5327671767298536
0.1774165046918534 -0.06938332320826432 0.12638181414912952 0.23798233274180106 0.31091105986747714 -0.22003132055888658 0.36253535586823504 -0.4761595429677924
0.10681939136822412 -0.5673718450600671 0.13616853941682952 -0.2815347610511547 -0.166194200932532 0.2357428672884471 -0.3549439310211212 -0.42779517198920897
0.5169925694858222 0.5399112696389397 -0.44006818536858455 0.39552241535616595 -0.043745637994627544 -0.3280448321127132 -0.5396861436764512 -0.3889424801766751
0.29782199816500754 0.47719871869665353 -0.28396230749099993 0.4434530726164429 0.2675168513285281 -0.34781056634020346 -0.4582765391987525 0.5725847425966177
0.17164087295378525 0.23107481013697967 0.4357643129056753 0.4001899359332837 0.44686567797475635 -0.3182607294965533 -0.43376275665425623 0.43835139258183625

encoder.0.1.weight f8 [64]
00000000: 66eb 4faf 1a3d f03f 0bb3 3aef 7451 ee3f
00000010: fb05 e171 49f4 f13f 5df6 483e 2eb6 ef3f
00000020: 1dfe ba64 6b90 f13f 5c74 28f7 1d4c f03f
00000030: 8cac d23b f1a8 f03f ef67 b766 f4f7 ef3f
00000040: f554 6a22 c7a9 ee3f f8b2 9f28 f359 f03f
00000050: da10 1190 81ec ee3f 4dbc 7d4c 4690 f03f
00000060: 9558 3ff6 5135 ef3f f396 aebc d944 ee3f
00000070: 3488 327d 20fb ed3f 64aa 5747 480d f03f
00000080: b9e2 960d adfd ef3f 0d34 93bc 41ae ef3f
00000090: 1447 8040 f47a f03f 282d 2e9d 4e76 ef3f
000000a0: f0c6 18ac 0001 ef3f e422 c0f1 2b1c f23f
000000b0: ff77 0d98 dae8 ef3f ae71 acbb bc50 ef3f
000000c0: 1c7f f578 12fa f13f e039 2d11 d77e ef3f
000000d0: da93 43cc c6f9 ee3f 8eb9 cec3 b00a f03f
000000e0: 7a48 f6fd e4d5 f13f 5fea e26b 5fb4 ee3f
000000f0: fbf5 23c7 1c0b f03f 83fd 691e d5ee f03f
00000100: 86b9 6c49 6328 f03f 7062 ae40 3a37 f03f
00000110: 87fc 286e 2f10 f03f 7844 5178 0020 f03f
00000120: cc05 c99d 2043 f03f 264a dc73 dcc5 ef3f
00000130: 6519 8b5a a6cf ef3f 3957 aa46 d060 ef3f
00000140: a803 885c 0a10 ef3f 690f 6842 548b f03f
00000150: d121 5af6 e8eb ef3f e548 bd6c 9f82 f03f
00000160: 6938 47ad 2eec f13f 6036 f1d0 753d f03f
00000170: 0f3f 92d8 3add ee3f 9c15 5419 5fac ef3f
00000180: 0e5b 2867 edef f13f 059e 25c6 6780 f03f
00000190: a2b2 5aef 195e ef3f f3be bbb5 9922 f13f
000001a0: 9750 01d9 9315 f03f 30d9 1e36 a53c f03f
000001b0: efe7 9472 1703 ee3f 501e 567a 6afa ee3f
000001c0: 865f 84ae 6e9f ef3f 7ec0 c507 8ce3 f13f
000001d0: bc67 347f 3f4c f13f d9e7 8065 b3f6 ef3f
000001e0: 1cd2 10fd 1d15 f23f f6ab a65d 18bf ee3f
000001f0: 783c 80fe a5ad ee3f 6b0c ad59 410b f03f
1.014918026746011 0.9474434540221365 1.1221403549574223 0.9909888473991476 1.0977586684019862 1.0185832647905704 1.0412456833680919 0.999017906778361
0.9582248375105836 1.0219604098194264 0.9663703740884799 1.0352232921539042 0.9752588090439241 0.945904606360925 0.9369051404248752 1.0032427584470947
0.9997163072030936 0.9900215800386164 1.0300180930684677 0.9831917829446057 0.9688723908677428 1.1318778460865184 0.9971745462205489 0.9786056199550808
1.1235527729949757 0.9842334113580442 0.967990302041126 1.0026099823695378 1.114720336951477 0.9595181567340879 1.0027129916119282 1.058308714680465
1.0098603122856686 1.0134832884415594 1.003951483071235 1.007812948217433 1.0163885272489663 0.992902971544315 0.994097878305905 0.9805680637534585
0.9707080657245699 1.034015902901013 0.9975476085247071 1.0318903205521164 1.1201617020301688 1.015004936390504 0.9645055990131101 0.9897914404579526
1.1210760144801415 1.0313489666094722 0.980236976136059 1.0709473704300165 1.0052679516566394 1.0148059953767863 0.9378773916171194 0.9680683507330716
0.9882119568382997 1.1180534652339982 1.0811152428563977 0.9988648397913905 1.1301555524233953 0.9608270482179921 0.9586973162385126 1.0027478697745902

encoder.0.1.bias f8 [64]
00000000: 49a1 74ad b412 a63f b05f e84a 492b b2bf
00000010: e8dc 755b 493f c03f 7f9b 2ad8 6bd3 69bf
00000020: 81ac b614 ecd6 b93f c517 8876 3c00 71bf
00000030: 3f50 639e 8565 a43f 1029 db52 401e b03f
00000040: b444 7de0 69b6 aebf af2a 621a 2c23 98bf
00000050: e230 024d 5d72 b6bf 3569 db25 6805 a33f
00000060: 8517 2a0b b4a1 bdbf 6646 38a7 4bd4 86bf
00000070: a821 652a cfae 57bf 0ecf b644 4e7a a7bf
00000080: aeab 6ba5 53ab a4bf e741 44d4 9e3d 963f
00000090: 297e d81b dc0e a43f f174 984f 043a 803f
000000a0: 0d64 4820 0511 b5bf 5587 5762 c063 c23f
000000b0: 2e25 edb9 d500 b4bf ff0b c48b 0311 bebf
000000c0: adea 3137 95b5 b63f 158f 596e 47c4 9f3f
000000d0: 2f1d 9c67 3699 b9bf 64f6 ba83 0877 bfbf
000000e0: 80f4 d906 e35f bc3f e5a7 b641 930d a4bf
000000f0: 357e 301d ddb5 8b3f 3069 75a3 86c8 af3f
00000100: b34b 480f 9c31 b3bf aa3f 2a7e 4425 ae3f
00000110: 3a1f b21c d14c be3f 4373 d3a8 0bf3 b7bf
00000120: 4cba 63c7 c60f c1bf f405 4739 6da7 bfbf
00000130: 9d44 b971 1648 b13f ee4b b15b ca69 c4bf
00000140: 1ebe 15e6 8fc8 b8bf 9adf 2853 942b b23f
00000150: 1edb 6663 b176 b4bf b8d2 51a3 d6a7 b43f
00000160: 00f0 8881 0285 be3f a4c6 49d0 a55b c4bf
00000170: 5735 29b7 2f40 95bf a0ea 055f b44f b0bf
00000180: d05e 7d71 3821 bc3f 17a7 c0f0 2809 a73f
00000190: 0bd6 cbc7 7e38 a13f c2c9 1b91 21ed bd3f
000001a0: 37f3 0bd5 6bbc a03f 9831 49a1 48f7 c0bf
000001b0: 3220 bd0f 4ce6 bbbf 397a 00c6 9d30 93bf
000001c0: 7b4e 0622 72cc c2bf 51b2 a5af fc67 be3f
000001d0: d672 91de c154 b43f 9ab6 1b07 5b6f ab3f
000001e0: 1813 b9f2 c6b3 be3f bb93 4e40 84f1 a5bf
000001f0: 2ad6 a2c4 96b3 743f fd77 89ce 27c9 bdbf
0.043111463712480154 -0.07097299650956646 0.12693135228958075 -0.003152571328729647 0.10093570237829576 -0.0041506158672798875 0.039837050995317196 0.06296159766057863
-0.05998545518253576 -0.02357167159110912 -0.08768256311504133 0.03715062582132803 -0.11574864647454149 -0.011147109070438432 -0.0014454863645188918 -0.045854993713332445
-0.04036961931509296 0.02171943827221581 0.039175871276026016 0.00792315833956045 -0.08229095495370604 0.14366917421198858 -0.07813773907868857 -0.11744711076975987
0.08870823476346841 0.031022182569713303 -0.09999408750092152 -0.12291005340645139 0.11083811681051436 -0.03916607072035542 0.013530471280375081 0.0620767664465397
-0.07497573254685967 0.05887807884312164 0.11835963202076707 -0.09355233070114104 -0.1332939599592059 -0.12364847801565998 0.06750622059304807 -0.15947846867729204
-0.09681033484752574 0.07097746877923186 -0.07993611027528089 0.08068601119323204 0.11921706831429901 -0.1590468661338963 -0.020752664140947754 -0.06371619529628925
0.10988190432305633 0.0449917596709623 0.03363414944571382 0.11689958374680656 0.03268753982226829 -0.13254649997032852 -0.10898280510184646 -0.01874014397628285
-0.14686419164046413 0.11877421653998367 0.07941829379837925 0.05358395063181583 0.11993068147519315 -0.04285825047489974 0.005054081857613061 -0.11635063927084839

encoder.0.1.running_mean f8 [64]
00000000: ee31 2fd0 eac8 c83f 2b63 39b4 37b5 c1bf
00000010: 8f3d 4617 fa9f e2bf 5d56 f926 a684 d83f
00000020: f81e 3eb7 92ee d13f 43cb 1ae4 4f35 a33f
00000030: 4c83 7a9a 88be a8bf 3fcc 2acf b591 ddbf
00000040: 533e 5c51 e5ab 7b3f e70b a642 3853 c9bf
00000050: cc21 dd8d 9c93 a63f 803d b895 31fb c83f
00000060: ec32 dcbb 709c a73f 7f58 ebb7 241e c83f
00000070: 5743 77e1 2e0d c2bf 425b a27a d683 d33f
00000080: c2aa 9da4 28f2 df3f e047 a307 e49d e03f
00000090: ea9d 1a95 538e d8bf 2e28 251c a6be ce3f
000000a0: dc7b 6f0d ef26 923f 7ea0 bb73 ae38 e13f
000000b0: b395 638e 65cc d6bf 7d35 062c 6216 e13f
000000c0: e8bc 3ce1 f567 c53f 72e6 abc5 c6e9 aebf
000000d0: b06f 4fa5 6ce4 c03f 557c caf0 1dee cf3f
000000e0: 45e0 d531 abbf d23f 394a 67e5 e646 ccbf
000000f0: 1a57 7185 50c7 d63f 5981 aed2 5722 dfbf
00000100: 9bdc a51e 9fc9 be3f d6f1 fa95 0282 e1bf
00000110: 12af 6bed c339 c23f de68 115e bef1 d0bf
00000120: 796f 0515 5f51 c5bf a408 fe09 7529 ce3f
00000130: 41f6 8002 ebd0 d5bf 10f0 7e81 9bf7 dabf
00000140: 61dc e001 9fb9 e03f 21b9 393b 880d e13f
00000150: f7dd 9e3f a552 dcbf 3978 6103 e2f3 d83f
00000160: 2efd 4a9b dd05 acbf b672 90a0 f79b d4bf
00000170: de5e 86c9 b699 e1bf eaf1 a257 ad32 d8bf
00000180: 76e4 23a6 ee2f d23f 11a9 dd0c 5c5e de3f
00000190: 3326 823a cb77 d2bf 7f3d d296 b7b7 db3f
000001a0: de0e 17bf 5f59 d03f c859 4280 5822 d6bf
000001b0: 4d9d bc2e 3235 ddbf db06 c0ff 434f e23f
000001c0: 59d3 fa89 ba57 c83f 52da 9706 0ac9 cb3f
000001d0: cf70 5157 7b51 db3f 469a 90db 8435 d93f
000001e0: 2ece 9e63 c995 db3f 654a 9acc 3409 d4bf
000001f0: 2973 4fe5 df7e dbbf 5073 6cd8 7019 dc3f
0.19363150754214992 -0.13834282207496904 -0.5820284323289558 0.3830962544064727 0.28018634695807476 0.03751611384850275 -0.048328656060454195 -0.46201844435853795
0.006755729458532383 -0.19785216574027162 0.04409493667350581 0.19516582308322583 0.046115420276782476 0.18841990452228072 -0.1410273171336722 0.30492174125668126
0.4991551978661556 0.5192737721611103 -0.3836869197934606 0.24019314169191958 0.01772664565566716 0.538169122734885 -0.3562253847615821 0.5339823589180664
0.1672351217070862 -0.060377322797603564 0.13197095939437764 0.24945425279017522 0.29294853083365907 -0.22091375542966477 0.35591519385830994 -0.48647113394146896
0.12026400087585147 -0.5471203736593064 0.1423878583221883 -0.2647548597939372 -0.16654575849940637 0.23564017284303873 -0.3408763431978948 -0.4213627590759197
0.5226588284193775 0.5329018742320707 -0.4425442811293289 0.3898854287161871 -0.054732251364379855 -0.3220194881448991 -0.5500139175446426 -0.37809308584453893
0.28417555069569944 0.47450925117904413 -0.28856163705549703 0.43308820465696124 0.2554549566377612 -0.34584629559813296 -0.4563718277372189 0.5721759791487914
0.19017726647657687 0.2170727283662069 0.4268482544628229 0.39389153901939655 0.43101725319431494 -0.31306190472347445 -0.4296188105925461 0.4390527833473259

encoder.0.1.running_var f8 [64]
00000000: 7f9c e82d a98b 613f 91f1 ecbd 325b 433f
00000010: 10a6 e7bb f6df 853f 7a0f 5ea2 e5f1 6a3f
00000020: 60f4 10bc 1490 613f 4357 e875 b864 433f
00000030: 7876 86c2 e577 6a3f 9170 7e8b e734 723f
00000040: 3663 9233 affc 5e3f d427 7d38 70fc 7c3f
00000050: a975 ffc4 30fe 413f 2114 e826 20e5 6d3f
00000060: 79d3 8ff4 5389 7e3f 3fb9 dde6 628d 643f
00000070: 389f 16f6 8a70 483f c65e 2fcd 1e1a 733f
00000080: 1d5a c8ec c03d 573f 1c96 972d 6098 703f
00000090: a29f 3685 fa9d 553f ee9e 9001 8560 583f
000000a0: b0ff 0d78 2c49 613f 749d a31c a974 753f
000000b0: 4d0b 8b7d 7566 6d3f d085 987a b334 403f
000000c0: e176 e09a 0ffd 663f 1c67 1873 93ad 613f
000000d0: 9dcd a45e 0562 573f 5d42 709f eae9 6f3f
000000e0: e049 f0c7 5ab7 823f d463 86ab e0c2 373f
000000f0: 170f ac89 582c 573f cea5 d208 305d 6b3f
00000100: bf7d bb86 b456 733f 7efb 4277 87e2 853f
00000110: 6d00 a563 5ab0 573f 0437 52b7 be05 7e3f
00000120: 9981 fee8 19ce 403f 6172 af6d b454 5e3f
00000130: b87b a265 1494 753f 3327 e421 f47e 523f
00000140: c666 00ef a8f9 4c3f 6c73 3fbf 5162 673f
00000150: 059f e401 9669 493f cd99 b6af 1193 633f
00000160: f62a a948 4860 6b3f b439 36e2 407e 5e3f
00000170: 1a89 d2c3 bc0d 6f3f 5046 3dbe 5d46 6d3f
00000180: 97e4 bbea 8087 753f 5442 6307 4402 4e3f
00000190: e965 a9d9 aeff 563f b6d0 30ec 38a0 673f
000001a0: 167b 946b c203 7b3f 5d64 13ee c2aa 5e3f
000001b0: 47fa 2c5d 9f40 493f 5829 6f8c 0ea5 143f
000001c0: 05a2 1657 982d 823f 9855 75a2 c6b4 743f
000001d0: 49b8 3b88 0d21 613f 71b6 af6e fa34 603f
000001e0: 6baa 6483 012d 7d3f 12ba 19eb 1e66 503f
000001f0: b74b 89af 8ad2 4c3f 4bb8 e5b7 7505 573f
0.002141790798549758 0.0005907056582610694 0.010681083306695732 0.0032891736072446194 0.0021438984845461445 0.0005918408094795841 0.0032309997079227847 0.004444984886415552
0.0018912993385013627 0.0070766814822693265 0.000549100697749762 0.0036492946594557517 0.00745518488928531 0.0025088245083032808 0.0007458380243194679 0.004663582151770823
0.0014185318024196932 0.004051566787415275 0.001319403313440028 0.0014878558051893381 0.0021100872549481772 0.00523820933651763 0.003588895295565753 0.0004945637094275149
0.002806215742579763 0.0021579627871347717 0.001427178615426828 0.003895719764394108 0.00913878367103832 0.0003625677595891473 0.0014143814684652361 0.0033403337643746816
0.004721360379078942 0.01068597634036705 0.001445854445208307 0.007329697594412602 0.0005128504289935609 0.0018512498852409009 0.005268172908613637 0.0011289009194705546
0.0008842539664357322 0.0028544994947722804 0.0007755262811643687 0.002389463943205805 0.0033418094438152314 0.001861155856065372 0.003790730172640211 0.0035735922737465745
0.005256179410701687 0.0009157974407348426 0.0014037330171475743 0.0028840171594542675 0.006595382169762206 0.0018717673886412746 0.0007706430572865319 7.875348374778346e-05
0.008876028211333606 0.005055213848512173 0.0020909561443352193 0.001978386998863262 0.007122999106551657 0.0010009099900362179 0.0008795907188620032 0.0014051103204013756

encoder.1.0.weight f8 [64, 64, 3]
00000000: 86d0 9505 719c 99bf b33b d66d 8236 7ebf
00000010: 8c52 32c0 88e5 b0bf ea5d ae9d 6f29 a3bf
00000020: a17d 9571 2e95 a43f 241c 26a4 9373 a4bf
00000030: d627 379a 84bb af3f 5bfd f05f e314 07bf
00000040: d66f a4b1 db46 bb3f 3567 7c1d 58ac 97bf
00000050: 2b88 9960 4a56 b2bf 377e 0c06 284b 753f
00000060: 0901 e55b 0124 953f 2430 bac2 e144 b83f
00000070: f8b9 91d5 21bc b23f fe25 ac6a dd43 ac3f
00000080: e1af 14d1 aa91 a6bf 353c ded7 537e aebf
00000090: 1984 db6c 4f97 a03f 0408 aabd bd40 a13f
000000a0: 5693 2e23 31fa 813f 2a4c 23dc b76f b4bf
000000b0: 12c3 eab7 7cc0 b03f 014e e242 25cb 90bf
000000c0: 900b 1697 41e4 a0bf 9bbf c443 a67a 9dbf
000000d0: e29e 0434 c934 a43f b49f 527b 8cbc a5bf
000000e0: d1d6 411e f740 683f 801a f45a 9d06 abbf
000000f0: 88dd a97b dd96 b2bf b26d 9265 89e8 503f
00000100: 2db3 72e5 702c 9bbf 6867 617b 5ff0 833f
00000110: 72ab 4753 f359 b83f 0026 1e3f 5c30 b2bf
00000120: 86fe 115b dbf6 b2bf 49ba 8bb1 3e91 a0bf
00000130: f331 331b 948c b03f 5711 6166 9632 b8bf
00000140: 8776 eb92 6727 81bf e7c1 d03f 278f a83f
00000150: 3e53 5883 4bf3 b6bf afef 700a e8b2 903f
00000160: 000f 0b57 5f8f a3bf 6ff9 127b 67a3 b6bf
00000170: e152 e4da e780 b13f 4ee4 99b3 42c7 84bf
00000180: ad88 db1f a4bc b2bf b28e 0b8a eec4 913f
00000190: 3045 3faa dad3 a7bf b83d 54f9 b24c a1bf
000001a0: 32b0 73d6 dede aa3f 81f7 7eb9 e612 a9bf
000001b0: d989 1db4 2bb1 b33f 03e7 102d 8697 ad3f
000001c0: 6b23 b5f7 a3a6 71bf fc6a 2390 33ce b4bf
000001d0: dda2 d05f 434e 51bf 9522 1809 43bb 9f3f
000001e0: d356 25ce 2d9f a0bf 4c1e 4794 4a5d b0bf
000001f0: 073f a784 7a6a 6b3f c20f fe81 f190 b83f
00000200: ed44 b7b7 5194 bf3f 2ca5 aab1 7b11 99bf
00000210: 39db 8637 60a5 803f 3918 5c61 bc9a a4bf
00000220: 3e0d c0f2 cda7 a1bf 83dc 9aa0 387b 83bf
00000230: 84df dcce 3c8d a03f 95b3 8ddd 2a7e 8a3f
00000240: a732 bdae 6398 98bf dcb0 69ea c91a b0bf
00000250: ab2b 83bd 2584 b2bf b7fe ceb3 b837 9e3f
00000260: 5bd2 6837 d1b3 9ebf d54c 704e 2d83 99bf
00000270: 48b5 a90d 4682 b4bf 9d70 9be4 8386 843f
00000280: 5b9d 90bc 3235 b1bf 7dfa 0ada 1cb4 b1bf
00000290: 15c4 f16b fcad ab3f e397 ee03 c9e6 933f
000002a0: 76df 5a52 58d5 b53f 260e de76 8544 9e3f
000002b0: 45d9 bc86 c21f 923f b415 8d3c 6290 ac3f
000002c0: 69d7 4db1 d56c a7bf 145b 7349 e0c6 acbf
000002d0: 83f2 1e1c 20cc a1bf 3736 f1de df2c a93f
000002e0: 008f 3fa1 a824 a6bf f131 19cd fa02 b23f
000002f0: 7877 15c9 62d8 82bf 8c96 5f28 6440 9cbf
00000300: 3d34 e28e 947d 7bbf 19f9 5f73 b942 b0bf
00000310: 50e1 90e6 eb5b a93f ac6e 7fe1 bda5 b0bf
00000320: 8414 36bc b3d9 a53f cc5b 8801 08b3 92bf
00000330: 413f e1a2 6bfe a3bf 5ea4 3192 97c3 aebf
00000340: d4fe 35e7 4939 98bf b05a 810d 319b a13f
00000350: c3e7 ad52 9ebc a8bf 2c8e 6245 79ae 6a3f
00000360: 689a b3bf 4a0b b4bf 4262 79e8 a37d a03f
00000370: 1771 ec42 97a8 ab3f 0e5f beb8 fa46 b6bf
00000380: d936 3f6e ea64 95bf a802 cd7c ad48 acbf
00000390: b973 b757 ba5b 9a3f 3678 7ef4 4804 a53f
000003a0: 04ad 51b7 9215 91bf f8f9 c79d ebf1 a3bf
000003b0: c13b 3e85 8d5f ac3f 2ca0 611d a8af b23f
000003c0: ecd6 be3f f258 abbf 12e8 316d d703 afbf
000003d0: 29fd 82d5 aa81 973f 7f91 c554 e694 a23f
000003e0: d042 1827 91e2 b03f bb54 6aa6 c8e9 983f
000003f0: 2066 1b3f 2035 633f 6fa0 d291 90dc 57bf
00000400: c191 28f6 b921 b03f 5e09 a956 d0d6 a23f
00000410: 2da6 a046 6ed3 9dbf 4f6e 1e06 f2da b33f
00000420: 225a 6b20 e6a7 8d3f 4519 3167 22bc b93f
00000430: 8100 a937 b627 ae3f cdd1 be6c a8d3 b2bf
00000440: c4a3 b44b 46a7 5d3f 528a a276 75d7 9cbf
00000450: 3567 1bce a2ec abbf 8bf0 c133 59fb 933f
00000460: 9648 8610 6283 a83f 3fa1 84f6 6897 9bbf
00000470: 3178 c1ef c245 9c3f 7397 606c 18d9 a5bf
00000480: ac4e 4a0a 6bbd c23f 0edb 9b78 ff2f b43f
00000490: 9680 9af0 05c6 5d3f 623c dbe5 10f1 b8bf
000004a0: 1679 ca1c b580 ab3f 83ad 62d6 5e5e ac3f
000004b0: ff6b e35e 6ae4 5f3f ba46 f3b2 f336 aa3f
000004c0: c8f3 0217 32fd ac3f ebab b9a9 492b 71bf
000004d0: 88d2 cce3 5a42 b1bf 1e43 af7f b381 b8bf
000004e0: 0077 4e79 4c7d afbf 8ed8 32d4 7e23 9f3f
000004f0: 60ec c500 f996 a03f a5eb 6dc7 f36e a3bf
00000500: 9aa1 e8e8 ccec a73f 765c 3a08 9752 b0bf
00000510: b477 d4cf 6ea6 823f 9923 f371 8f09 83bf
00000520: 62ce 6b4d 1442 ae3f ccff 87a0 f5e0 9abf
00000530: e7f7 9b7d a93d aabf 3911 186b 3118 9f3f
00000540: 9057 4d0c ee03 883f b89b 9c63 72b5 96bf
00000550: 67da 83a1 7c6a b1bf e1e7 ec75 d2ed a93f
00000560: fcbf 2a0d 988b a53f f83b 6a95 81f5 b03f
00000570: 0d24 4dd1 dc12 923f dc78 803c 5dba 613f
00000580: 7c49 da44 5fc5 8a3f 27b2 7197 38d7 43bf
00000590: 6ce4 3f28 6d79 83bf ebf8 2dcc 31ba b2bf
000005a0: a2e2 4e67 2e75 b33f 8f33 5672 fd2a a73f
000005b0: c1e3 c2c4 a07d 953f 2c5e d0ac 51b1 3bbf
000005c0: 3d57 a3f9 b697 90bf 4d5b 71d9 24ac afbf
000005d0: c2c5 ad05 51ed a73f 00d7 8f44 250b 93bf
000005e0: cbec a427 2813 64bf d09a f6d3 45c2 a7bf
000005f0: 2895 3ad8 5be4 b0bf f248 2ca2 992b a03f
00000600: b5f5 f723 dcc8 b4bf fad1 3a99 91b2 b6bf
00000610: 691d df58 4bcd a43f 34f2 9e56 51a4 913f
00000620: 028f c982 5e10 babf 3efa a5ef 99ab b5bf
00000630: 74a5 e564 4ffd 8e3f 10f6 91ba 5f6b c03f
00000640: 0e30 8df9 2712 bb3f 73b6 16cd 1b89 aa3f
00000650: 0009 ebfc 0edd b8bf 3797 847c d172 86bf
00000660: e00c 3102 48a9 b13f 16be 7f64 cc13 a73f
00000670: dc6a cdd4 4d1b 623f 38c6 c886 64ff 8ebf
00000680: 1a75 3f4c 4cb8 aabf faa9 58e8 36a5 99bf
00000690: 2f43 ae98 e633 b03f 567c 6ee2 f645 90bf
000006a0: fb39 82d3 7d11 9bbf 9104 243f 46ae a4bf
000006b0: 687d 6f7e 4bd2 b4bf e101 0e49 d93d a0bf
000006c0: 6e4f 5f82 4945 b1bf 768f 5113 1b9c b2bf
000006d0: e303 fec3 a643 a7bf 9400 d03b 61e6 9dbf
000006e0: 7f6c 5ed9 272c b4bf 770b 4511 2e0a b0bf
000006f0: f105 d8a1 078e 8abf eff8 723b 3681 b3bf
00000700: b722 c180 ab3c b5bf f959 bf37 3163 c03f
00000710: 48cd 8689 92f8 61bf 845a da5a 4b0f 91bf
00000720: 492f 9fb3 d1c5 823f 3ce0 1ea6 2af3 b6bf
00000730: 081e 3002 ba29 983f e62a 2298 bca6 b8bf
00000740: 6901 7c8d 32a8 a43f 0515 6c0e 3a1d 613f
00000750: 88d5 b0ef ae82 b5bf c81a a7dd 6e45 91bf
00000760: 6a6f fddd f888 acbf df37 7912 553d b0bf
00000770: 69c1 bf30 f6ad b8bf 0fef 624b e83f 7a3f
00000780: 5f2d 9907 9b36 8abf 2108 d659 1c3d a2bf
00000790: 4074 aa82 1f58 a83f 70ae 2eed 8b9c a4bf
000007a0: ff34 0db6 4ff0 9d3f 938c 5c50 a0da 9bbf
000007b0: 16ba 2ca2 ee03 89bf 54a0 000d c3b3 9c3f
000007c0: b8d1 7122 ef7c 29bf e70e 64c9 9f10 9fbf
000007d0: df5c a611 ec2c aebf 9be0 544c baf4 63bf
000007e0: d3e4 515f 5d7a 913f aa0e 1ecf cf06 773f
000007f0: 1dc8 3f39 02be a6bf 7d5a b9cc 944d b03f
-0.025010839429754593 -0.007376203049161245 -0.06600241367625354 -0.037425506590064675 0.04020066391489797 -0.03994428042192791 0.061977523636940354 -4.402464764341015e-05
0.10654996001215919 -0.023118378448180727 -0.07162918909446662 0.005198627798364045 0.020645161851690328 0.09480105403980638 0.07318316902249211 0.055205268165149576
-0.04408010294204679 -0.05955755243405073 0.03240440563036646 0.03369706096874839 0.008777984510581465 -0.0798296844907759 0.06543712129747473 -0.0163999387810474
-0.03299145669281878 -0.02878818310381313 0.039465224838122884 -0.042454137853666835 0.002960665371626849 -0.05278484092018676 -0.07261451977853117 0.0010320035710610184
-0.0265367164653753 0.009735818817876399 0.09512253554536956 -0.07105042019806973 -0.07407923673053504 -0.03235813062007204 0.06464505828916582 -0.09452190398684955
-0.008375939532409461 0.047967173137639034 -0.08964988667169124 0.016307473790433565 -0.038203219771757446 -0.0884308505510256 0.06837319463768267 -0.01014568434333021
-0.07319093492290803 0.01735279767571169 -0.04653819397175096 -0.03378829282348356 0.05248161666699537 -0.04897233023028403 0.07692216060016878 0.0577966623317945
-0.004309311388461671 -0.08127138394358363 -0.0010562570526053063 0.030987784795828494 -0.032464438833512375 -0.0639235126501429 0.0033466713841575654 0.09596166061061154
0.123356921532167 -0.024480755537898677 0.008127929396193433 -0.04024304092858739 -0.034483371622651124 -0.009512369538567938 0.03232755685024727 0.012935957800175571
-0.024018819370484803 -0.06290876362772074 -0.07232890965239729 0.029509435629505556 -0.029982823378491435 -0.02491446295978224 -0.08011281808440629 0.010022192396199886
-0.06721798995623855 -0.06915455172836889 0.05406178300552981 0.019435063233366533 0.08528663645381393 0.029558263187494792 0.01769927928327177 0.05578906048917123
-0.045752218144953734 -0.05620480438817857 -0.034760478432393625 0.04917049023115932 -0.04324843376505605 0.07035796649251559 -0.009201785813896399 -0.027589383091160033
-0.006711559586745128 -0.06351813380021944 0.04952943028951273 -0.06502901797596888 0.04267656013966195 -0.01826107510904844 -0.039050449021145635 -0.060085999103485874
-0.023656038987154585 0.03438714303836343 -0.04831404456395163 0.003257023675432588 -0.07829730205740193 0.03220855915850908 0.054020621222863045 -0.08702055940954898
-0.020892775515497817 -0.0552419867367509 0.025740539172932595 0.041048316808187144 -0.01668385738268531 -0.03895508099593664 0.0554165101194637 0.07299280850713846
-0.05341298130171687 -0.060576183394872044 0.022955579072683783 0.036292264793504884 0.06595713810407777 0.02432931438177797 0.002344668370693595 -0.0014563953221032008
0.0630146242115819 0.03679514940133076 -0.029126856861841844 0.07755959176432124 0.014480398048744073 0.10052695292788368 0.05889672688908921 -0.07354214339176864
0.0018099009019556392 -0.02816566025343043 -0.054539764079619614 0.0195135057297056 0.04787737323489798 -0.02694477085711466 0.02760986889222056 -0.042671931485798086
0.14640558245138402 0.07885739035178238 0.0018172319418355057 -0.09742837535599017 0.05371633507205524 0.05540748946199427 0.0019465483451799324 0.05120050010158424
0.056619229611420574 -0.004191673036625136 -0.06741874753499577 -0.09572908274936906 -0.061502828414843336 0.030408841802192436 0.03240183004796715 -0.037955873579412804
0.0467285188972852 -0.06376022292021041 0.00910650798556021 -0.009295578637095224 0.05909789509851461 -0.02624877731614088 -0.0512516942817312 0.03036572662496548
0.011726245642119243 -0.022176539735621253 -0.0680311102222305 0.050642563719932594 0.042080642325686285 0.06624612710787392 0.01765007998918482 0.0021640606901335135
0.013071769989697606 -0.0006054903341357651 -0.009508946219272306 -0.0731536029324819 0.07600679418727421 0.045249862868423134 0.02098704529700846 -0.00042255634326824015
-0.016203745829293615 -0.06186022905665443 0.04673245615311884 -0.018597204503712383 -0.002450540950261625 -0.04640405857508301 -0.06598447827362419 0.031582642599589664
-0.08118987920894123 -0.08866224280320259 0.04062877139909455 0.0172283848876182 -0.10181227391290906 -0.08464967823781763 0.015131588236459527 0.1282767926203836
0.10574579088751099 0.05182730558895523 -0.09712308573492479 -0.010961186039434174 0.0689892773962586 0.0450729248694836 0.0022102852002893036 -0.015135560382165555
-0.05218733244667302 -0.025044305735869778 0.06329194285923444 -0.015891892977034715 -0.026433912310091384 -0.04039210816154893 -0.0813338454895437 -0.031721868675052674
-0.06746348793904897 -0.07269448491711991 -0.045438014435610595 -0.029199141765275785 -0.07879876191002387 -0.06265533372520148 -0.012966212870199252 -0.07619036628145513
-0.08295699971598479 0.12802710744900006 -0.0021937238745636557 -0.01665990583441125 0.009166372579691677 -0.0896479278152364 0.023596674331228612 -0.09629420007892583
0.04034574486832094 0.002089131728441831 -0.08402531959366943 -0.0168664286409477 -0.05573251447523726 -0.06343585682881735 -0.09640444460069876 0.006408603096300216
-0.012799464387305446 -0.03562248798972712 0.04754732580224941 -0.040256855681346404 0.029237027632281528 -0.027201180367353372 -0.012214531253985899 0.028029487293821667
-0.00019445819018283433 -0.03033685366337027 -0.058936478762172 -0.002436031211484458 0.01706834692274557 0.00562173056994523 -0.044418401230260175 0.06368379591126856

encoder.1.0.bias f8 [64]
00000000: 14f9 0400 b0fc 983f afa6 5dff efa1 8e3f
00000010: 2e73 f45f 1372 a4bf 0be5 0100 5cd8 a1bf
00000020: cfac 1040 5b03 a5bf 0698 c5ff f141 773f
00000030: 5e58 fcff 5f14 9b3f f81b 4700 d0c8 7cbf
00000040: 8f79 e77f 0c01 a6bf 20ac fbbf c96b 9fbf
00000050: 216e f4bf b9fc a7bf 27cf 0c00 87e6 913f
00000060: 1513 0040 0d6f a83f c2ba ef7f ed4a 88bf
00000070: 32b8 2e00 a4fb 9fbf b227 ecff 68ee ae3f
00000080: 1866 f3ff e2a0 853f de6f f81f 3e1c b1bf
00000090: e0a3 2d80 95b4 b13f 6a68 ecbf b445 a33f
000000a0: 22a6 ae00 6c8a 96bf e8b8 bcff 0d69 8a3f
000000b0: 5b4e 6e80 adb3 a0bf 8f96 fbbf 5bef aa3f
000000c0: 0bd8 3f40 b52a a8bf 450d fc1f a4fa b1bf
000000d0: 446e fe7f 2041 ad3f acdc 0780 ebfa a7bf
000000e0: 1570 fbff 5c80 a1bf aa33 7900 309c 833f
000000f0: e75a 0600 8bfb 833f 6ae5 fb7f 63e3 903f
00000100: ae03 0740 aafc 9fbf ed2c ec3f e8c0 a5bf
00000110: 1b70 fb3f 567e abbf 5357 febf 77d5 a73f
00000120: c522 cc7f a45d 8fbf 900e bcff 7752 54bf
00000130: af7f f004 8c8d 76bf 5e10 0780 77e1 b03f
00000140: 7616 f63f f436 abbf 6bfc f13f 714a a73f
00000150: 4602 1c40 6045 95bf 3b7d ecfe bf1e 7ebf
00000160: ae50 e89f d8c1 acbf ac84 0500 4ace aa3f
00000170: 20ba 0ac0 e0d3 92bf 402f f73f ba19 a13f
00000180: 2ae8 fd3f 3245 acbf b2d6 03a0 4dd5 aabf
00000190: c55c 3808 4078 213f da5f ea7f 5181 85bf
000001a0: 462c 0940 eec4 a83f 8aca 3600 3759 883f
000001b0: a734 0000 2df2 a0bf f4c7 87fd 5405 84bf
000001c0: 013d 6a7f 02ac 8abf 21c5 0240 9eda afbf
000001d0: 2257 b4ff bdb3 77bf 7d4b 1e40 da6f a53f
000001e0: 370d feff b12e a03f aab9 0b80 8dac a93f
000001f0: 125d e5ff b02e aabf 8908 ff7f 31ca 913f
0.024401426316438338 0.014957308750769142 -0.039932828391306394 -0.03485381603327128 -0.041041232653094555 0.005678124722498628 0.0264449119559561 -0.007027447227705423
-0.042976751912408344 -0.030684616415708743 -0.046850018197997174 0.017480954530767392 0.04772225767377428 -0.011861663309870155 -0.031233370314730453 0.060412675133263774
0.010560773311612912 -0.06683719902542815 0.06916174296715338 0.037641189983518356 -0.02201241258777576 0.01289568840692508 -0.03262083237418941 0.05260740965404153
-0.04720083627027812 -0.07023072987435793 0.057137504219295226 -0.046836242083310026 -0.03418245911390742 0.009575247778366453 0.0097571238882614 0.016492418943902555
-0.031237278135225637 -0.0424873903303594 -0.05369824915916884 0.0465505048625078 -0.015315327787463482 -0.0012403652062297522 -0.005506083441133499 0.06594035030053777
-0.05315364151742312 0.04548982530195008 -0.020772460854461515 -0.007353544219568515 -0.056166429061847864 0.0523551106478036 -0.01838637516146424 0.033399410541817165
-0.055215425788404396 -0.05240862444217721 0.00013328344003646887 -0.010500561443492918 0.04837746173560524 0.011888913816482178 -0.033097654581163476 -0.00977579497063983
-0.013023395074269308 -0.06221479922659002 -0.005786649878492674 0.04186899216360638 0.03160625696093649 0.050144597893324885 -0.05113747714738727 0.017372868954915553

encoder.1.1.weight f8 [64]
00000000: 7a0b 2a55 8231 ef3f d5d0 1738 c435 f03f
00000010: bd97 f5ed 29dc ef3f ac22 5d63 fce5 ed3f
00000020: 3228 32c5 ea58 ef3f a9d3 7797 630c ee3f
00000030: bf96 38d7 163a ee3f 8d12 1876 9bc1 ee3f
00000040: 8142 800a f3d6 f03f 119b de4c b349 ef3f
00000050: d0e7 78b3 5637 ef3f ff1f f9d9 9f39 f13f
00000060: c3ea cf93 7d62 ee3f 2d33 7569 7bd7 ee3f
00000070: 849d c62c ecaa ee3f a04e d6db 59f1 ef3f
00000080: 7392 d8ec 1895 ee3f 2e67 99a2 688c ef3f
00000090: 177d a263 92b4 f13f 55d4 322b 7239 f13f
000000a0: a085 87e7 fd32 f13f e14b 2a1f 4bdd ef3f
000000b0: 488a 5628 3d73 f03f fea1 257a 61d6 ee3f
000000c0: 0dd3 d4df 8232 f03f 1cff 558f c7dd ee3f
000000d0: edf0 7f2d 199f ee3f 3f61 220e 39c2 ef3f
000000e0: 9dc5 7471 c4a0 ef3f 8320 7067 d7bb f03f
000000f0: 3734 3033 ed72 ee3f b5ef 0933 4397 ee3f
00000100: 3182 fb4c 4c3b ee3f fab2 7117 a328 ef3f
00000110: a087 b586 1a2c ee3f d1ca 1e4e 2ac9 ee3f
00000120: b0be d879 1d82 f03f 81b6 1627 65b1 ee3f
00000130: d2ad 058a 3c1c f03f 67d8 963e 8129 ef3f
00000140: c3d6 fc25 2a5f ee3f a8a4 6f0c adfa ee3f
00000150: b69f c0b9 3cc0 f03f 5bfe f90d d0d2 f03f
00000160: 4052 a04e 1fa2 f03f c6a4 deff cab4 ee3f
00000170: 8926 e087 8096 ee3f c02b 96ec 27a7 f03f
00000180: 4ee2 795e 9d0f f03f 6ba9 b1d7 7742 f03f
00000190: 334d 7c93 8492 ef3f d949 bffc 558d ef3f
000001a0: 5508 ff7f ec2d f03f d13e 56be e30f ef3f
000001b0: 2c9c e59a 756a ef3f 7bff f2cd 596d f13f
000001c0: fd0a 25a5 034e f03f 1952 7b5e 7d06 f13f
000001d0: 175a 769b f3b0 ee3f 7293 5abe 468a f03f
000001e0: eb7a 6ca8 824b ee3f 598e 32f1 316e ef3f
000001f0: 705f a4de 7d14 f03f 1624 b019 f14c f03f
0.9747935927738205 1.0131265822538371 0.995625462307309 0.9343244496058865 0.9796041347010542 0.9390123327599343 0.9445909694229256 0.9611337000392993
1.0524778757282152 0.9777466298445195 0.9755052094762906 1.076568461854549 0.9495227705914079 0.9638039645884412 0.958364570095839 0.9982117932981573
0.9557003618143213 0.9858897376791214 1.1065849201184557 1.0765248954242186 1.074949173366214 0.9957633598991117 1.0281344962792378 0.9636695275958684
1.0123318427478722 0.9645726966409458 0.9569211853663809 0.9924588466701961 0.9883749214115373 1.0458597221895907 0.9515291213771268 0.9559646603442987
0.9447385314525204 0.9737105806248956 0.9428837424313663 0.9620563054835093 1.031766391719355 0.9591546786738975 1.0068936721316857 0.9738165113874516
0.9491167776056603 0.968100094117422 1.0469329124407358 1.0514679475744717 1.0395806380594337 0.9595694539504158 0.9558718351192549 1.0408095590271245
1.0038121881936095 1.0162275720163858 0.9866354828431326 0.9860029159993317 1.0112118720867518 0.9706896512525082 0.9817455315904957 1.0891969723597572
1.019046444984894 1.0640844050113911 0.959100536000565 1.0337588725753588 0.9467175759817484 0.9822015486610766 1.0050028511959361 1.0187846187056997

encoder.1.1.bias f8 [64]
00000000: 1f7c 4159 9e7b 973f 4e4b dac7 327b b93f
00000010: 8979 9e2a ae97 c1bf 05f4 767b aad2 aebf
00000020: 3215 d321 6b58 c4bf c59d 0d28 7053 c5bf
00000030: 446a 17ba cef4 b0bf 0a30 af5c ba1b a8bf
00000040: cbd2 ad22 33d1 b13f 3264 4bd9 e620 c7bf
00000050: ba6e 09bf 9dc6 a4bf ae85 4f80 368b ba3f
00000060: 8fb7 1d43 050e a9bf b6f8 088e a43b 913f
00000070: 1a07 eba0 a7ce a5bf 7c4c 0907 442f ad3f
00000080: 3eee e004 1a5c bdbf 87cc 14ac e235 c2bf
00000090: 9ba1 2c89 6f14 74bf a675 4022 7445 b83f
000000a0: 24aa 122d 5d9f 8d3f d3b1 16ad ea6b 82bf
000000b0: 17d9 748b 2a40 943f a7e4 c799 3646 a8bf
000000c0: 9a92 8597 afe1 c4bf 31c8 9fdc 46d4 a3bf
000000d0: 8359 e4a0 2cdb c2bf 2ff6 0dab f92e bc3f
000000e0: 10aa ffea 4c57 9c3f 5255 bc2c 74c5 b43f
000000f0: 9531 3f6c d87c bebf 7509 bd93 0268 b0bf
00000100: ed98 0e30 d6ad b3bf adca 16a8 18b0 abbf
00000110: 914f a143 17f6 c3bf c628 4d65 4e00 adbf
00000120: 8a84 488c a956 adbf 525a 1e58 8bf0 7ebf
00000130: 0e28 0a3a 0fb9 973f f266 6a3d 779c c3bf
00000140: 1394 b680 6173 96bf 13a8 9571 103d 90bf
00000150: 98a8 5ad9 0c44 b23f 0e69 9fb8 a932 c1bf
00000160: 2f4f bd54 5d4f b23f f55a e7c0 fca0 9bbf
00000170: 1ef2 cc4e ef2e a1bf 3370 9b61 c3dc a3bf
00000180: 8dfd 390e 674f b23f 3841 b37e 18bc 83bf
00000190: 2842 6144 401c b6bf c575 1b1d 974f 643f
000001a0: e89e fa43 a2f5 60bf 04bc 1955 ba69 8e3f
000001b0: d24d 8e33 a0af acbf 6b38 5fdd c5ed b83f
000001c0: 5929 69aa 26c5 c9bf 8445 e101 3be4 b33f
000001d0: d628 ca44 9540 bebf 2f03 994b 2d6b b33f
000001e0: 4c2b a3cb c50b a2bf 5a46 7f61 ef29 c4bf
000001f0: d855 1e87 893e aa3f 115f 512f ed5d 813f
0.022932504842511855 0.09953610781876174 -0.1374414165592948 -0.060201003619546646 -0.15894831801976178 -0.16660882907602406 -0.06623546641586936 -0.04708654767418359
0.0695983848252794 -0.18069158182223216 -0.04057782132141825 0.10368672020515277 -0.04893509334838974 0.016829081696635405 -0.04259227599460598 0.057001233920026956
-0.11468660945040995 -0.14226945307163794 -0.004902301489700635 0.09480977855897396 0.014464118898406993 -0.008994897277113367 0.01977602459120317 -0.047410684845041566
-0.16313738726161803 -0.03872891848722338 -0.1473136697392868 0.11009178568016219 0.027676774829084094 0.08113790599994289 -0.11909248965020532 -0.06408706766982226
-0.07687128709094156 -0.05407788326137584 -0.15594759752513856 -0.05664296137418172 -0.05730180585329332 -0.007553619683582884 0.023166883389912178 -0.15321245669183942
-0.0219245180902768 -0.015857941563275867 0.07135086351869047 -0.13435861124782672 0.0715235072978515 -0.02698130538359585 -0.03356120907708181 -0.03879366461271196
0.07152408692672037 -0.00963610779436462 -0.08636857671195541 0.0024793578566988128 -0.0020702523468861707 0.014850097391187596 -0.056027418416444555 0.09737812666500793
-0.20132907219733445 0.07770127101800567 -0.11817295960841831 0.07585414024016467 -0.035246068103865186 -0.15752975712398404 0.05125837110896797 0.008479931837583917

encoder.1.1.running_mean f8 [64]
00000000: dec5 8453 76c9 b83f 4db2 1755 3ddc c4bf
00000010: 688f 4db0 ab95 da3f d318 930d 5741 e4bf
00000020: 5072 3361 4d63 e93f 9f6f 4191 f2f4 c93f
00000030: 7375 021d 4954 d13f ab51 8a35 478b a3bf
00000040: a377 26f2 fc3f e2bf 5eac 90ba df28 df3f
00000050: 1bf5 c902 8d10 e5bf 52bb e096 6c3e ddbf
00000060: 4962 9ad4 f86b d83f afc2 c47a 2407 e0bf
00000070: 681a 65b6 90bf a63f c111 3410 75cf 67bf
00000080: 8127 d780 edaf d33f 37eb 4fbf 442d d83f
00000090: 0665 d43c 821e dfbf 4895 9e37 3012 c2bf
000000a0: 1f26 793d e3ba b1bf 7248 b2ff 5f14 a83f
000000b0: 15b1 ba33 b475 8ebf 7db5 d6fa 84ae c73f
000000c0: 62ac 945c bce0 d13f 7416 6b9f 3860 d4bf
000000d0: c7d1 489b 435a e23f 6d43 c8a4 b029 e3bf
000000e0: 773a 6c73 0233 c1bf 932e f761 6d3f c7bf
000000f0: 696f 9bb5 9e15 da3f e12a e753 afa0 d93f
00000100: 11ec 3034 0302 d1bf 7353 1f55 0b9d abbf
00000110: a818 c052 4c9c e33f bc6e f6e4 9001 d23f
00000120: 877c 854b 3cec e13f 53e3 a1a0 e728 cdbf
00000130: fce1 913e 74d8 b83f 36ac 5a7f e8aa e53f
00000140: 82ca 91c9 3731 dcbf 5ec8 5c36 8937 ac3f
00000150: 4e45 d2fe a5ca 9bbf cc43 a630 0493 e73f
00000160: 0743 73de 84d9 b3bf 54fb 2bb8 0b13 ce3f
00000170: 2589 5271 4034 cdbf caee f235 e7bb f03f
00000180: 3197 3137 97e0 c6bf d5aa 556b 3ba2 b0bf
00000190: 1e46 b0e8 f24c de3f 1a87 1624 997b e5bf
000001a0: de6c fb8e 4c17 d13f f2c4 7312 d58b c6bf
000001b0: b898 7c61 ea42 e33f f70f 7e6c 1b5c d03f
000001c0: 8d6b 8d29 88da e23f 9b60 758f ac98 b7bf
000001d0: b66b 35c5 9fc5 d5bf ad5e 305c 0b55 dcbf
000001e0: 1b98 de3f a7dc ddbf d5b7 cb5d 6171 e83f
000001f0: a29f 3109 10d6 e5bf 2c0f 22ef dfea cabf
0.09682406939534569 -0.16297117857847568 0.4153851720532118 -0.6329760804299219 0.7933718584495839 0.20278770535048538 0.2707693846985741 -0.03817198303764554
-0.57031104369138 0.48686974734545696 -0.6582703642340307 -0.4569350694099984 0.38159008752839846 -0.5008718869995245 0.04443027712345754 -0.0029065405266257287
0.30761277753901345 0.3777629726679836 -0.4862371057548248 -0.14118006435198027 -0.06925792933284257 0.047030448878232614 -0.014872939900066254 0.18501341102584581
0.27934178391541853 -0.31837287491030186 0.5735185654544289 -0.5988391130832561 -0.13436918865086842 -0.18162314685320222 0.407569577551604 0.4004324263920989
-0.2657478341749889 -0.05393252767650027 0.6128293625086103 0.28134558066970405 0.56008734464912 -0.22781081527116473 0.09705282714447344 0.6771128165613678
-0.4405040234043228 0.05511120594600592 -0.027140229871809134 0.7366963339028358 -0.07753782683290576 0.23495623104823926 -0.22815709622688832 1.0458747966176127
-0.17872896380429773 -0.06497546549295959 0.4734465858792606 -0.6713376717418413 0.2670470615682471 -0.17614234353053565 0.6019184021031583 0.255621772718086
0.5891762553759335 -0.0921733713379375 -0.3401870180002179 -0.4426906967432654 -0.466592609760825 0.7638403732250888 -0.6823806933943966 -0.21029280830782093

encoder.1.1.running_var f8 [64]
00000000: 29a6 5942 d0c2 f63f 147b ae66 77b0 0240
00000010: 7b50 9fd2 d4af f73f 15c0 70fe 90e1 f73f
00000020: a476 19d1 34ed ff3f 27c8 07d0 8aaf e93f
00000030: e51b 6ed8 cace fa3f ac74 377b 79b0 ed3f
00000040: 33c9 0cf6 7ce7 f03f 4052 6d8f 90e6 e53f
00000050: 5e31 7095 f2ea fa3f 5315 1a65 d985 e33f
00000060: 4182 e013 bee9 f33f 1700 e2b9 6929 0440
00000070: b179 bfe1 9788 eb3f 2586 682e 579b 0740
00000080: 5b28 c8a0 9379 0540 c920 fa4b b42e f73f
00000090: c37f 01d7 9e40 d63f 2655 b11e 689a 1240
000000a0: 27df e4d5 18f1 d33f d66a d539 5077 e73f
000000b0: f7c6 095b 1600 c73f 5ab1 81f1 3f72 ef3f
000000c0: fe6a bd5c 90bc be3f ecab cc46 9207 fa3f
000000d0: 3071 e334 700d 0240 7e24 2c72 f9cc fd3f
000000e0: 9cfa dced 1e82 0140 3724 b6f5 7d78 0340
000000f0: e9a3 5f86 9c91 f23f 866c e773 f931 0c40
00000100: 69df 8cb7 537b f33f 196d 0e0e cf0f f03f
00000110: 416c dec6 50e8 f23f 5a54 2270 6098 f63f
00000120: 0e51 b6a2 b19b e13f 88b6 de3b 0539 0140
00000130: 8529 1421 d670 e53f e4c3 54d2 8f01 e53f
00000140: ece1 98cb 3843 f33f 3544 746c 2780 ed3f
00000150: eeaf f6c2 0d77 f73f 45df 9117 8a0a da3f
00000160: 37af 33b4 3729 0a40 cbdf 3c27 b634 fd3f
00000170: 2004 d32c 7ae4 e73f e3dd 6be8 2b32 c83f
00000180: 39b3 cd9f fd76 0340 6ba4 afc2 0844 d03f
00000190: 6335 b1cf 1df9 e33f 38f3 9918 0a77 0140
000001a0: 0b8e 66bc 5ec6 e33f eac7 c676 3ab1 0940
000001b0: 06c1 3924 d02e da3f 2dab abc4 51df d03f
000001c0: 02b3 cc66 f6f1 c53f a175 b9ac d24a 0140
000001d0: 1157 5367 5b4c ed3f 9142 eb66 56f5 e43f
000001e0: f325 8727 c4a5 fa3f f385 1ecd a4e9 0040
000001f0: 5f7d 1fae 0bf5 f83f ab4d 91e5 2872 e43f
1.4225618926815378 2.3361652395245844 1.48042757295937 1.4925699175910314 1.9954116981456673 0.8026784957021434 1.6754864172269148 0.9277923018049896
1.0565156565977076 0.6843951035794547 1.6823602521354455 0.6100890135427711 1.244566037792666 2.5202211877913316 0.8604239853992138 2.950849878849811
2.684363609417273 1.448902413163568 0.34769412037530517 4.650787810872577 0.3115903939064872 0.7333146218837452 0.1796901649973319 0.9826965062070869
0.12006475700529148 1.6268484845738795 2.2565616733465035 1.8625425777302378 2.1885355551779195 2.433833999272362 1.1605496643990085 3.5244015746116615
1.2176091356213539 1.0038595723224886 1.1817176597894703 1.4122013454664484 0.5502556016895441 2.152842014059221 0.6700239797658446 0.6564406497983524
1.2039115860953826 0.9218937986607957 1.4665658584372028 0.406893275277515 3.270125778033527 1.8253690273977436 0.7466402888750316 0.1890311131353278
2.433100937333077 0.2541524792891951 0.6241597229469956 2.1831247255307993 0.6179650954913439 3.2115372924244996 0.40910724198967363 0.2636303349124088
0.17144660968315156 2.161534642610335 0.9155709283902259 0.6549484262596527 1.665470270544003 2.114083864683147 1.5598255922012283 0.6389355167142886
