models/matching_nets/SETA_n=1_k=5_q=15_nv=10_kv=3_qv=1_dist=cosine_fce=None.pth (torch, 316367 bytes, 24 tensors)

encoder.0.0.weight f8 [64, 1, 3]
-0.45865476528087457 0.15614797919802262 0.17807160750668216 0.3840194934721066 0.18549829211079927 0.12548715209668265 -0.3094973451682095 -0.25112688472658773
0.0035237122863978564 -0.5771227398184842 -0.3311361763010412 0.13676952719565755 -0.22823931473890965 -0.4202177556341172 0.04054547440702304 -0.08716119070892714
-0.36051903241954225 0.13088164163350846 -0.21046478229456256 -0.30458941585687965 -0.002141859055212447 -0.4080021575049059 0.37266013072391624 -0.5084075407986728
-0.28423128860600666 -0.13430736689709386 0.2545372447902556 -0.4148899299071868 0.42351145117688643 0.1883067543264314 0.5295736527092441 0.42741481378447044
0.4206459275695941 -0.00411716554769447 -0.013757333209036403 0.5376962664701336 0.10928398572697352 0.39870407145274955 0.5904404121704601 -0.2754254582930755
-0.2916429258161326 -0.37799961744181665 0.07187244515678108 0.2810869710465943 0.056621613514468344 0.2154582111378431 0.5422702185669556 0.5586737663197687
0.4430149186881262 -0.10880378934562532 0.236569374924272 0.4748117174971481 0.08123885263433278 -0.25746690447720305 0.11631735724880395 -0.5895009442962617
-0.2228442352920762 -0.35017191723903623 0.45560424602895777 0.28716575246546083 -0.02400283838802788 0.31267559311070514 -0.3298776629466864 0.17755733323152095
0.532647093069787 -0.0490957637330334 0.17520993045323377 -0.6329498471056093 0.33218835120125484 -0.5044673014658848 -0.33698270102815464 -0.2580332039416394
-0.0024334069871411994 -0.28678337140206356 -0.26120316997216164 0.25400131947161303 0.2486263443331608 -0.13625333243768967 0.26674533373373716 -0.33287507873070143
-0.2754827732273904 -0.33138459964017214 -0.029680558972062586 0.14790785256295025 0.17185450858109128 0.520394954329326 0.2843010189401651 0.5052288783115715
0.2422645942196011 -0.08333712421342666 -0.1934396992869798 0.08648420260262396 0.1617579771527537 -0.05593668515864112 0.1545742048967198 0.31615325022227136
0.15882936234534376 0.3589880969865058 -0.1545237404558333 0.2080295507686628 0.13780661724721666 0.22423106107701005 0.1673759753018468 0.5025788492568736
-0.17129427676347406 0.45333708202866496 0.4415568614751797 -0.4772240357317064 -0.5281585408306445 -0.534497086515994 0.3790052218187282 0.3755021945688533
0.13765982914897182 -0.08178290374484284 0.07257741030013314 -0.03522190868751987 0.17761982675055374 0.00683272366704184 0.361313538376429 -0.5824330733324609
-0.5624938467658274 0.05339617662412124 -0.13426386061644197 -0.24690032310703616 -0.4495286431275629 -0.4105977037963831 0.4602098864599614 0.4645876737596592
-0.3743247391242374 0.5933451910700158 -0.22938145176331587 0.11973170941951536 0.11263930832572301 -0.4060094008770362 -0.3030753939877097 -0.42760629479746065
0.4141002059978527 0.4104962921890285 0.4300183991367005 0.34273560891266913 0.17765788930628582 0.3235382963017437 0.4770383737273836 -0.156818492523506
-0.509396365598672 0.45078735105162315 -0.5179013491255627 0.47670900056398485 -0.2947995091677255 0.4270951888265659 0.5759482162126467 0.2924388567895616
0.1624034985981801 -0.15544252328157496 0.2878163435950663 0.0679893432900559 0.0490042437818775 0.5330471222881282 0.5434403911999457 0.514570734532779
-0.27050214464923233 0.3565478427805401 -0.4600719386627586 0.28690156599930605 -0.340908882271877 -0.32057790237926276 0.26525357650699727 -0.30686808988318776
-0.08143108351601074 -0.34486057531966374 0.14217592403328064 0.3714536586301813 -0.5229119535380324 0.5652935087520183 -0.10674279879311521 -0.5093473507327597
0.4847536150579498 -0.1603923988218487 0.4555667400028713 0.2453222704426569 0.037495380291579734 0.5168063497319263 0.460081569828248 0.21860281313724192
0.4959459031716307 -0.6175800794539619 0.05880579451249836 0.25493309150188426 0.2563488540898109 -0.19553116729171122 0.14108315685946002 -0.11187275229165006
00000000: 644c 4284 995a ddbf b5f9 fe2f a8fc c33f
00000010: 382e 4be9 0ccb c63f c84e 5f7f c693 d83f
00000020: d834 0a75 68be c73f 2666 2987 f60f c03f
00000030: e88f ecf3 cdce d3bf f802 437f 7612 d0bf
00000040: 739c faa0 c2dd 6c3f ba8b a91b ca77 e2bf
00000050: d011 efc9 5531 d5bf 9286 32f3 a981 c13f
00000060: 5787 3b24 f236 cdbf 5169 6903 d9e4 dabf
00000070: 9e6e 285d 60c2 a43f 5044 931f 3250 b6bf
00000080: b9f5 746b be12 d7bf 1c3a 3bc9 bac0 c03f
00000090: a41b 758e 82f0 cabf e108 f49a 647e d3bf
000000a0: cc6d 08d3 cd8b 61bf b395 cb14 b51c dabf
000000b0: 16de 7ee0 a9d9 d73f 8aa4 18e4 df44 e0bf
000000c0: de03 446e d830 d2bf 83aa 37da fb30 c1bf
000000d0: ef3c 7f95 564a d03f c707 197e 8e8d dabf
000000e0: 8f51 12c6 cf1a db3f c055 b98b 6f1a c83f
000000f0: f0b3 e671 44f2 e03f 4cef c1a9 c35a db3f
00000100: f3d8 86e5 dceb da3f 76b3 1236 29dd 70bf
00000110: 0c32 b401 ce2c 8cbf f174 f5cc ce34 e13f
00000120: 8983 ac08 09fa bb3f 9afb ea14 5e84 d93f
00000130: cc48 904a e3e4 e23f 4cb1 f619 92a0 d1bf
00000140: e05c 1f17 47aa d2bf 0e0a b44e 2531 d8bf
00000150: db92 6e89 3b66 b23f 3e84 fe34 54fd d13f
00000160: 7c31 9514 82fd ac3f ffef 3e79 2294 cb3f
00000170: 05e0 ca12 475a e13f ec3f 6fce a7e0 e13f
00000180: 5ff5 d93e 5b5a dc3f 029b ebac 90da bbbf
00000190: f477 44c0 e747 ce3f 161a 9aaf 5063 de3f
000001a0: 3ca1 3ac7 11cc b43f 5b0b a277 567a d0bf
000001b0: 253c 576d f9c6 bd3f 7fd5 9615 31dd e2bf
000001c0: 8c3e 57ef 2886 ccbf df3b 2179 3769 d6bf
000001d0: 383d 27b6 9e28 dd3f 66b4 d776 ec60 d23f
000001e0: 260f 8d37 3394 98bf 92be aa7d e002 d43f
000001f0: 0c5d 8233 b71c d5bf 467a b2dd 32ba c63f
00000200: 1d6a a1ea 710b e13f e406 3677 1423 a9bf
00000210: d193 9d6c 476d c63f 1575 aa09 2041 e4bf
00000220: 1b61 21ee 9242 d53f ad50 369c 9824 e0bf
00000230: 72f4 0ee4 1f91 d5bf 3a88 0db3 9d83 d0bf
00000240: bc23 af6d 39ef 63bf d057 4da4 a85a d2bf
00000250: ee15 2980 8db7 d0bf 0b5f 11c0 8e41 d03f
00000260: fddf eaf0 fcd2 cf3f fc3b 65cb bf70 c1bf
00000270: f5ce 2f05 5b12 d13f 7e50 3346 d34d d5bf
00000280: a9df 677f 82a1 d1bf e190 76c0 6735 d5bf
00000290: 46b2 7298 9464 9ebf c82b cafe a4ee c23f
000002a0: f351 031b 54ff c53f be21 bb51 13a7 e03f
000002b0: af51 a4e6 fc31 d23f 8ef9 aac0 d52a e03f
000002c0: 5f71 93b6 8602 cf3f 5113 0aef 9455 b5bf
000002d0: 78c3 17cf a1c2 c8bf 3c85 cc25 d423 b63f
000002e0: 167d de42 7cb4 c43f 9d57 ceb2 bba3 acbf
000002f0: 3016 6b69 16c9 c33f 02a4 8ed7 da3b d43f
00000300: fd79 7542 8554 c43f dc75 0d36 a9f9 d63f
00000310: 9150 db15 6fc7 c3bf cc94 935a b6a0 ca3f
00000320: 4ce5 1fb1 a5a3 c13f 8b5c 0979 9ab3 cc3f
00000330: 555d 0772 936c c53f d906 273d 2015 e03f
00000340: c375 588a f8ec c5bf ce23 5889 7903 dd3f
00000350: 240f d7b5 7742 dc3f d54c 95ae d68a debf
00000360: f70f 7fbd ace6 e0bf 5d97 4ca2 991a e1bf
00000370: e260 2e1e 9f41 d83f 0df7 4f5b 3a08 d83f
00000380: dd79 1558 d69e c13f 76bd f470 b9ef b4bf
00000390: b3dd aae3 6e94 b23f 04c9 d423 9b08 a2bf
000003a0: 6fe5 8119 3fbc c63f 33af 144b a1fc 7b3f
000003b0: 8471 bbd1 c21f d73f 474b 42af 4aa3 e2bf
000003c0: 52ef 8118 f3ff e1bf 3301 aa60 be56 ab3f
000003d0: e2ef 30e5 8e2f c1bf 39eb 8e06 6e9a cfbf
000003e0: e447 36c9 13c5 dcbf f18f 6797 3b47 dabf
000003f0: d20c e92a 1474 dd3f 7b09 3bf0 cdbb dd3f
00000400: 47d4 27c0 eff4 d7bf 8e4e dc0d affc e23f
00000410: e6f3 d014 5f5c cdbf 1e41 40c0 bca6 be3f
00000420: 49c7 8001 eed5 bc3f caaa a8da 0efc d9bf
00000430: df91 5956 9665 d3bf 4901 eeca e65d dbbf
00000440: dcc4 8126 9e80 da3f 5c31 853d 9245 da3f
00000450: 161b 3ee4 6b85 db3f 8317 dd55 61ef d53f
00000460: 8d33 3964 7ebd c63f a8a6 67f8 d9b4 d43f
00000470: 2127 86f5 cb87 de3f 04f3 65dc a012 c4bf
00000480: 6052 5e9b f94c e0bf 7ce6 8d30 b3d9 dc3f
00000490: e38d a1d9 a592 e0bf ef64 c877 6682 de3f
000004a0: 9724 b0c2 fedd d2bf b77f 120f 8755 db3f
000004b0: d354 1af4 2a6e e23f 2e69 7f77 51b7 d23f
000004c0: e619 9e49 a3c9 c43f 7577 f364 8ae5 c3bf
000004d0: ddaf bf3d 956b d23f 4845 e8e5 bf67 b13f
000004e0: 8f16 d190 1517 a93f a38a aed6 b80e e13f
000004f0: 50ef 701a dd63 e13f e480 890b 5d77 e03f
00000500: 4b0b 313a e84f d1bf cae9 0c0b aed1 d63f
00000510: 9549 9792 d171 ddbf 5ad8 c862 985c d23f
00000520: 1683 117d 73d1 d5bf 7c82 a22d 5984 d4bf
00000530: 51a7 0f23 eaf9 d03f 71fe 8e0e baa3 d3bf
00000540: 9b40 94e0 aad8 b4bf 725f 2b17 3212 d6bf
00000550: d531 0018 d232 c23f 90f4 f290 e5c5 d73f
00000560: 2a44 64d9 b1bb e0bf 6c64 9769 e216 e23f
00000570: 5862 e6fd 7e53 bbbf 3c72 b6d0 924c e0bf
00000580: aeaa d206 3406 df3f 0ec1 bbf5 bc87 c4bf
00000590: 6b4a 5d66 0128 dd3f 0d0e 445c b866 cf3f
000005a0: 31f3 3430 9832 a33f 23d7 4e78 ad89 e03f
000005b0: 0ae6 f9f7 f971 dd3f 8778 9e4e 2dfb cb3f
000005c0: 0045 ade2 93bd df3f a04e 7d4c 37c3 e3bf
000005d0: 3232 7e08 cb1b ae3f 1acd aae2 d250 d03f
000005e0: 38b3 2b06 0568 d03f e6ec 6e50 2a07 c9bf
000005f0: 2b29 5d4c 030f c23f 30f9 6754 b1a3 bcbf

encoder.0.0.bias f8 [64]
0.5258710381978517 0.4924327135531068 0.541130304011253 -0.24978581102229153 0.13946080167235425 0.13616651344250882 0.07445168578567414 -0.22440448382983189
0.3051673761095445 -0.5293961758421715 -0.09514996400574255 -0.5341450576496104 0.14950823780240455 -0.4293497803084417 -0.06551748482016594 0.14412516360878422
-0.1858396833046828 0.41283369012234294 -0.21386316409411696 0.06476384409330718 -0.2184695298202075 0.3301647902306686 -0.023456036803507743 0.35290235299779477
0.19469940689154897 0.5282282840134188 0.33287322520653706 0.27306514987611785 -0.21246278265241383 -0.2434715029815156 0.40763753569705635 -0.19975993050754134
0.49027323826231983 0.01308584193664322 0.23025769011484207 -0.10886710887533477 -0.17485308641200523 0.4627765413647415 0.22117507379366255 -0.5054575796238485
0.544544339292854 0.09348446130704173 -0.2842472494108551 0.09223449221957816 0.11350166780172322 -0.0942308009694639 -0.5586727261990787 0.38237231976236624
0.1965575219027271 -0.18325737110561474 0.23063331841157078 -0.11636275028981213 0.08753454686783772 0.1550316811236905 -0.1986683008411889 -0.2289354801899014
0.27562713602810684 -0.12226977952191305 -0.36856117795312904 -0.2090379595095428 -0.5211574435652755 0.427390933477438 0.15341085218386824 0.40274703570083553
00000000: 9a25 df7f efd3 e03f 783b 0c80 0484 df3f
00000010: b44a d37f f050 e13f ea3b ac40 fbf8 cfbf
00000020: aadb 20ff d9d9 c13f b3e0 0581 e76d c13f
00000030: b5df 9403 440f b33f 5bfc 8f3f 49b9 ccbf
00000040: 8295 0cbf dc87 d33f b2d3 bb3f d0f0 e0bf
00000050: 24c8 9e7f bf5b b8bf 839a 3d60 b717 e1bf
00000060: 8505 ecff 1523 c33f f90c 3e80 777a dbbf
00000070: f768 9efe c0c5 b0bf 037d 1d80 b172 c23f
00000080: a4da 0b41 98c9 c7bf 2acc 70ff dd6b da3f
00000090: 6339 cd3f de5f cbbf 3210 5800 5d94 b03f
000000a0: 7009 e03e cff6 cbbf 0436 1580 6b21 d53f
000000b0: 87fe dbfb db04 98bf 7fa5 33c0 f395 d63f
000000c0: a42c 9300 e9eb c83f 5b1d 9500 3fe7 e03f
000000d0: be78 fe7f cb4d d53f 044c 1940 e679 d13f
000000e0: adfc 8dff fa31 cbbf 4223 68ff 122a cfbf
000000f0: 8937 1cbf bb16 da3f 3b62 4ac0 bb91 c9bf
00000100: 1834 1c01 a360 df3f cf9f 44f9 bfcc 8a3f
00000110: 4f0e 5980 1579 cd3f 4ec9 3a00 b7de bbbf
00000120: bf42 dfff 9561 c6bf a31f a17f 219e dd3f
00000130: 652c 51fe 764f cc3f eafd bf5f b52c e0bf
00000140: f482 0f40 e86c e13f cb77 ffff 98ee b73f
00000150: 1ea5 0c60 1b31 d2bf f270 a5ff ad9c b73f
00000160: a8f6 3fff 710e bd3f 5092 7080 821f b8bf
00000170: 8c26 06a0 a5e0 e1bf e399 11c0 c978 d83f
00000180: 2f71 2d00 cc28 c93f 7a24 d33f fa74 c7bf
00000190: 190b f97f 6485 cd3f c0a4 f7fe f2c9 bdbf
000001a0: 734a 1100 aa68 b63f 5194 2200 14d8 c33f
000001b0: 9fb1 6e7f f66d c9bf aca3 2700 c24d cdbf
000001c0: 0c60 c8ff dfa3 d13f 85f3 5580 124d bfbf
000001d0: 3c92 789f 8196 d7bf cea7 db7f c1c1 cabf
000001e0: 1ec1 0560 52ad e0bf d91e 7980 5f5a db3f
000001f0: 1a98 7d80 f7a2 c33f 9b58 b980 9bc6 d93f

encoder.0.1.weight f8 [64]
1.042009362253761 0.9791661445121856 1.0459408607919083 1.0259841827939904 1.0307645700423969 0.9780829798238015 1.0293744614764544 0.950058218001059
1.0127744733050248 1.0088045083787724 1.003395383571698 1.0043845930131992 0.99169098186683 1.1387936798733351 0.9703183587387062 0.9686438269926905
1.0187078288477993 0.9820017301480065 1.0133842303693603 0.99060045220935 0.9455013198513302 0.9631920790428977 0.9786095306093001 1.145539147661954
1.0760205373942116 1.0147458837305592 1.0381521954741832 1.0340605336551418 1.002898756070196 0.9896982931745592 0.9940258804846653 1.0133339200414648
0.9854731874709256 0.9931043079954704 0.9779426230652198 1.0165520230380396 1.0276301606693308 0.9510272383690486 1.0196512762688414 0.965541301583398
1.0923160121855235 1.1118604765767999 0.9999332831809701 1.0058114442535218 1.0116835340647308 1.002975636431461 0.9719234161404968 0.9789602168988654
0.983056365492838 0.9910301813291607 0.9760749029497618 0.9567229672256208 1.0093327840606532 1.0075025138558222 0.987460874983333 0.9817931879253458
0.9870177600092657 1.0196312991021477 0.9527854122365477 0.986595640556319 1.0067977954550449 0.9955730513202642 0.9903956629203721 1.006083506577565
00000000: 6e17 5002 12ac f03f c9f7 003d 5455 ef3f
00000010: de6b ea7b 2cbc f03f fe03 f563 6e6a f03f
00000020: 5052 63fd 027e f03f 32c2 63ad 744c ef3f
00000030: 5110 f65a 5178 f03f ee89 f37d e066 ee3f
00000040: 6c19 9101 5334 f03f fcb4 3832 1024 f03f
00000050: 775d 5651 e80d f03f 3f91 3994 f511 f03f
00000060: b265 dbb9 eebb ef3f d428 bfb8 7f38 f23f
00000070: 69b7 2f16 d90c ef3f 08fd cc56 21ff ee3f
00000080: 9449 9194 a04c f03f 413c 73e4 8e6c ef3f
00000090: 1c7f fb61 d236 f03f 038b 34b8 ffb2 ef3f
000000a0: f6c2 e2fb 8b41 ee3f ff2c e831 78d2 ee3f
000000b0: d8aa 30ef c450 ef3f d4ee 77db 2054 f23f
000000c0: 74eb 9e4f 6137 f13f 53f9 052e 663c f03f
000000d0: c250 fd79 459c f03f 5921 e20e 838b f03f
000000e0: 4554 e890 df0b f03f a1ef 42c1 9bab ef3f
000000f0: 50e5 015d 0fcf ef3f d116 e8a0 9d36 f03f
00000100: 57b8 e810 ff88 ef3f a66e 8baf 82c7 ef3f
00000110: 13bf ed53 4e4b ef3f a718 da0d cc43 f03f
00000120: f953 c752 2c71 f03f eece ccac d06e ee3f
00000130: ad63 4edb 7d50 f03f 6e9d 27df b6e5 ee3f
00000140: 4ebe d35a 207a f13f 1acc 0936 2eca f13f
00000150: ab36 ae15 74ff ef3f b52e b0bd cd17 f03f
00000160: 045b cb12 db2f f03f ce86 522e 300c f03f
00000170: f247 d122 ff19 ef3f 5c4d 7560 a453 ef3f
00000180: d752 7d9f 3275 ef3f d60b 45ed 84b6 ef3f
00000190: 01b3 536f 013c ef3f aa1d f27b 799d ee3f
000001a0: 5f23 2522 3a26 f03f 6f60 baf4 ba1e f03f
000001b0: 3541 848c 4799 ef3f ed65 328c d96a ef3f
000001c0: 7df3 f944 a695 ef3f 8ff2 b9e8 6850 f03f
000001d0: e12d 35d5 377d ee3f 1419 5205 3192 ef3f
000001e0: 09a1 5201 d81b f03f 0362 0604 bcdb ef3f
000001f0: cefb ca3e 52b1 ef3f f4ba dc04 eb18 f03f

encoder.0.1.bias f8 [64]
-0.13705679136853313 0.05319913349988681 0.04130000481677907 0.020707465100078537 0.03215586796135096 0.04367708315592123 0.040928799505941596 -0.03881922628464803
-0.012359424519307681 -0.13041326680760768 0.05525655825774173 -0.14693616919119357 0.033261390931851424 0.1391219149771329 -0.1493743767062624 -0.06136999958861571
0.10292176288680409 -0.13761376944242792 0.03483264272953047 -0.13162792986075064 -0.0016633890545060376 0.023775915954975354 -0.05636454573764663 0.14715096547302142
0.08267000644750044 -0.13331687354702682 0.00887848372447296 0.07907893603720834 -0.1577349756939999 -0.14666555555563257 -0.10815395488546439 -0.01611228255513762
-0.1371112545065214 0.06216792072044461 -0.07554259505342203 -0.14335116068347678 0.04247015050874769 -0.07786146951737435 0.04808052789857763 -0.03904456373491549
0.09725630982400521 0.11804622357790803 -0.14862555288888332 -0.003042012578614986 0.053521308473610585 -0.1404926327593037 -0.009776775345490096 0.030259499516870906
-0.005876207893548146 0.0367197963509851 -0.07628721890224635 -0.12723423946071577 -0.09557511419379389 0.019967943155317743 0.03551959828750964 -0.012381431057226265
0.03259658575474207 0.1537187202302457 -0.06658783442047275 -0.13874319596541634 -0.10789355599428625 -0.13443711926082497 -0.13536403913082282 -0.07058554638254047
00000000: 8daf 4fb2 138b c1bf 7077 1db5 ea3c ab3f
00000010: bd81 0634 4625 a53f 5035 8d75 5634 953f
00000020: 6278 89e2 bb76 a03f a18c 7ab7 d75c a63f
00000030: 0a64 af9e 9ef4 a43f fb79 b216 1de0 a3bf
00000040: ecc9 dce0 e54f 89bf f89b f3c5 61b1 c0bf
00000050: b889 366d 964a ac3f 1c4a a3ec cdce c2bf
00000060: cf25 8b14 a307 a13f 2ce9 7d35 bfce c13f
00000070: fc29 6817 b31e c3bf 2795 607a e36b afbf
00000080: d73e a5a5 1459 ba3f 7e04 9ef7 539d c1bf
00000090: 6192 b68a 95d5 a13f 53fd fe1a 2fd9 c0bf
000000a0: 3676 bc65 c240 5bbf cf14 d6b5 b658 983f
000000b0: 95b5 3151 d0db acbf a006 24c4 d7d5 c23f
000000c0: f857 0d8e dc29 b53f 6cd9 f1fd 8610 c1bf
000000d0: b89f e0e9 e12e 823f ac10 1564 843e b43f
000000e0: 4242 05e1 a830 c4bf 8dd2 47da efc5 c2bf
000000f0: 6e87 2a43 faaf bbbf 7b8b 8dfa bc7f 90bf
00000100: f86f 0291 dc8c c1bf 1c92 b544 79d4 af3f
00000110: 7c9c 356f c256 b3bf 9155 7db1 5459 c2bf
00000120: 9f87 fbc6 a5be a53f 6614 32b1 baee b3bf
00000130: 5e30 cccd 029e a83f 1ff6 a728 a6fd a3bf
00000140: 3614 061e cae5 b83f 8ef4 aefd 4638 be3f
00000150: 67fb 8080 2906 c3bf a0e5 4011 90eb 68bf
00000160: c00a 111b 2567 ab3f e1db 839f a9fb c1bf
00000170: 2029 f492 d805 84bf 61ed 45a3 58fc 9e3f
00000180: fff6 a28b a611 78bf 20f3 e2e8 efcc a23f
00000190: 82b6 4926 8f87 b3bf 8025 b528 3649 c0bf
000001a0: 6c18 c655 9c77 b8bf 0f2b 48fb 7972 943f
000001b0: 4419 06f2 9f2f a23f d96a bf8b 6f5b 89bf
000001c0: da45 8eeb 7fb0 a03f 2000 1616 0ead c33f
000001d0: 96bb 257b e60b b1bf c663 9b48 56c2 c1bf
000001e0: 95d1 717e e99e bbbf 32fe 4b4b 3c35 c1bf
000001f0: 5788 8fdc 9b53 c1bf 8286 48f5 e411 b2bf

encoder.0.1.running_mean f8 [64]
0.5236842421399319 0.5043875636790546 0.5316878045563658 -0.26304526488542673 0.12911792090055396 0.13077732977129303 0.065655133458502 -0.23379963334009649
0.3023414021089009 -0.5259980974991749 -0.0714550260756723 -0.5251995687813567 0.1683958400424854 -0.44556919562983055 -0.05845732197754035 0.16676803347361766
-0.1760850613134135 0.4180891910676313 -0.2258098631803846 0.0715453235970864 -0.21906967877957054 0.34149685698021615 -0.025619116745909342 0.33399238569823886
0.1852426541851247 0.5345549631333613 0.3270991107888024 0.26943009211994107 -0.1956621063278519 -0.23203348783530042 0.40854506193246654 -0.192678293104417
0.4965692496358976 0.02288759609425238 0.23891593347369922 -0.10164946053361312 -0.18657898202195555 0.47024142083910814 0.22495678228362778 -0.5091394882956004
0.5336183154025985 0.07450747890315959 -0.27474793578950524 0.10049320042163243 0.10331080829718298 -0.08740734158111849 -0.5423363398094487 0.3934481768779165
0.1866908124220738 -0.1728075925513305 0.24837427582146304 -0.11291427356686962 0.10690511286360635 0.16528872396866665 -0.20753467120346306 -0.23516385194129524
0.2707690231705767 -0.11515425959517661 -0.37079705340803065 -0.19969564422333758 -0.5037215597087574 0.42908617265901605 0.1632347319918317 0.3997729556011799
00000000: 5c7d ad74 05c2 e03f 4d57 5063 f123 e03f
00000010: 5c0d 8824 9603 e13f 753c 83ce bbd5 d0bf
00000020: e035 cc9f ef86 c03f 3e84 36c1 4fbd c03f
00000030: ddce 045b c6ce b03f c999 8179 25ed cdbf
00000040: 7e35 92c0 8f59 d33f b48c 50f6 f9d4 e0bf
00000050: 2e3d 2168 e04a b2bf 5e41 7953 6fce e0bf
00000060: f7e8 e1b0 fe8d c53f 1273 d5a8 3484 dcbf
00000070: fae6 353c 1eee adbf 37ca e4a8 a758 c53f
00000080: c0df d38d f489 c6bf a294 9c2a f9c1 da3f
00000090: 96ab bc6c 56e7 ccbf 3efe 0759 cb50 b23f
000000a0: 41a5 f3a8 790a ccbf 24ad 1aa2 15db d53f
000000b0: a3e9 4dd2 e53b 9abf 0ef7 6b99 2160 d53f
000000c0: 0a51 c602 08b6 c73f 0e50 9202 131b e13f
000000d0: 9cde d81b 31ef d43f 94a8 8db6 573e d13f
000000e0: 014f dfb5 740b c9bf bc2a eaf8 45b3 cdbf
000000f0: a24d fc2f 9a25 da3f 5d2b c4ab aea9 c8bf
00000100: 0dab d863 cac7 df3f 5ce2 d592 d86f 973f
00000110: 10a5 611c cc94 ce3f 80dd a5f4 b205 babf
00000120: ecdf f3f0 d1e1 c7bf 70a0 ee78 6f18 de3f
00000130: 1ff6 7543 62cb cc3f ee9d 6ae5 de4a e0bf
00000140: bd6c a6b7 6613 e13f 8a4c 3211 ec12 b33f
00000150: f300 b75d 7895 d1bf 4602 4821 ecb9 b93f
00000160: a0b0 f5be 9372 ba3f ae6d 85d9 5360 b6bf
00000170: e03e 5dbd d15a e1bf 6722 1743 412e d93f
00000180: 5682 e80a 7ce5 c73f 2415 4127 8f1e c6bf
00000190: 2e12 e96f baca cf3f 44a7 3828 f3e7 bcbf
000001a0: a63d 862b 225e bb3f 3fe7 eb4f 2e28 c53f
000001b0: 3570 cd00 7f90 cabf 1e06 a55e d919 cebf
000001c0: 4a66 d298 4754 d13f 2cd5 f4e2 bf7a bdbf
000001d0: 53cd 7590 23bb d7bf b2e3 8b7a a08f c9bf
000001e0: baa7 27ad 7c1e e0bf 441f afd9 2576 db3f
000001f0: 80f5 bc2d e0e4 c43f 0f78 884e e195 d93f

encoder.0.1.running_var f8 [64]
0.0012032123392756247 0.00380194818733244 0.0026074582441854774 0.00588836901006334 0.003267168273065266 0.0011722240515773812 0.0022562546952356348 0.002712255240755423
0.0009620480679682928 0.0016707460829961465 0.014425903251077017 0.0027449868799620113 0.009815852378754542 0.0067548236585110106 0.001429701634184726 0.013729271942074257
0.002552790451455217 0.0020255210306631033 0.004702324040956461 0.0026855185628038482 0.0005248421110683023 0.004029169530648951 0.0012906255431329716 0.009312636342059165
0.002583268288941234 0.0015224604233993074 0.0018321085028741918 0.0008996812762871142 0.007694010680684595 0.00424518022095318 0.00035366538237814696 0.0016488170055814733
0.0015563945900628382 0.0024363485303216166 0.0027893517453437913 0.00392967823227561 0.006162774537599971 0.0019454235967256376 0.0003920642200318053 0.0015998584976851524
0.003479744122827875 0.009473641885670899 0.004500508872996075 0.0024437051566542673 0.0034112373436014057 0.003338830419417998 0.007070521289933114 0.004182556233664037
0.003124699007387819 0.0030652365196656285 0.00844796788326172 0.0006361985869990779 0.010603760440495364 0.002977395646433438 0.002298809898520922 0.0012113820337658562
0.0010173919035752076 0.0022249999402793254 0.0017037958762169808 0.003093384833540985 0.008638876367682713 0.0024821908206712133 0.0026470996034188674 0.0003030273098819718
00000000: 25e5 6d69 a3b6 533f 9e90 0564 4325 6f3f
00000010: b083 4d7c 3c5c 653f 3c35 3305 671e 783f
00000020: e15a 449c bfc3 6a3f 825a c4fd a934 533f
00000030: 4658 1484 b57b 623f 999f d6f1 0238 663f
00000040: 13f4 9a7e 3e86 4f3f a530 54f2 9d5f 5b3f
00000050: a4d8 6df5 538b 8d3f a18b 139c a77c 663f
00000060: 60c9 9767 551a 843f 99bf 412b f2aa 7b3f
00000070: 4955 c270 9a6c 573f eaac e9af 171e 8c3f
00000080: 5ad1 14f0 96e9 643f e99a b052 d397 603f
00000090: d8a2 897f be42 733f ec27 cdcc f0ff 653f
000000a0: 68dc eed9 b132 413f 2cab d3f5 e380 703f
000000b0: fbe1 f19f 4625 553f 4cbf 3ae4 8012 833f
000000c0: 8563 2b9a 8129 653f cbcd 966e a9f1 583f
000000d0: 1c7a 9086 6b04 5e3f e1f6 48d4 127b 4d3f
000000e0: c253 fa43 c183 7f3f 5715 6fe3 6463 713f
000000f0: 1141 4440 852d 373f 718b 6dc7 a303 5b3f
00000100: d1a1 4bf7 fd7f 593f 2dea 4ca8 64f5 633f
00000110: 15cf bed0 b1d9 663f 63e2 dcf7 9018 703f
00000120: 9c3f 7731 233e 793f 682d 63ae b2df 5f3f
00000130: ae88 c200 bfb1 393f 7f11 40fb 4a36 5a3f
00000140: 9580 9766 8d81 6c3f 7e72 95b0 ea66 833f
00000150: bc4a cc26 206f 723f 091f 5337 d204 643f
00000160: 3997 8c1a e2f1 6b3f 5850 aaee 085a 6b3f
00000170: ee81 4b9b faf5 7c3f 81d9 cb63 ba21 713f
00000180: 7b89 7d01 f898 693f 1f31 6853 441c 693f
00000190: b3cb 350e 2b4d 813f 7775 fd0f d2d8 443f
000001a0: 77ce 73a2 6cb7 853f 56c8 b71d 0d64 683f
000001b0: dd0c af2a f4d4 623f e57c f38d e7d8 533f
000001c0: 421c ff3c 40ab 503f b16a 44bf 293a 623f
000001d0: bb78 50e4 3cea 5b3f 7341 3556 4c57 693f
000001e0: d37d c95b 42b1 813f affa b50c 8855 643f
000001f0: 99e3 3ac7 5eaf 653f 83b8 bf62 f4db 333f

encoder.1.0.weight f8 [64, 64, 3]
-0.058571719409761046 -0.05520999999238901 -0.0032764308786222486 0.06959481609134212 0.05442395570914647 0.04267617729081558 -0.009166340751116152 0.030434518526295817
-0.07439265018839675 -0.06293569086973334 0.020459168320388015 -0.04011068815446581 -0.09938457213494656 -0.004443302675516238 0.006798987467005624 -0.1329208921642477
-0.054035046772217744 0.04087923709286786 -0.16252028439994606 0.02049536100582745 -0.037589431002974814 -0.060524472910638824 -0.060277959701720334 -0.08127177127293363
0.001687197465490128 -0.05523333082568911 -0.026532115773744147 0.07135974836084753 0.0768020733678524 0.048139749555353877 -0.037368262818613225 0.06229756567514867
0.08891994234138245 -0.018619899869682866 0.039149299734096255 0.08737648988308387 -0.0036549529849291833 0.024356463018363375 0.06588600675472629 -0.04534923032927309
-0.013771355707395098 -0.10840743723608505 -0.028151194568054407 -0.004250927057407862 0.054384393846505785 -0.01911660803634666 0.007151710641115765 0.10045870111644188
-0.0369914874643656 0.06422033123864182 0.10682564507072134 -0.03875371470323239 0.01427187016326081 -0.045878679555715604 -0.08229933364985133 -0.0461050768123456
0.046323108097671165 0.0020555425608711517 0.033440970550336235 -0.0003637681503869408 0.03144106561859177 -0.06570173572993922 0.045098064811294324 0.03492182017320979
0.043900745042357636 -0.003404320890082321 -0.07493579636351924 0.0064895030420440945 -0.009827967237247291 -0.07158587596943347 -0.017350523670639485 -0.008839834595304569
-0.007528273881373064 0.09551459925885618 0.04317027137465694 0.007153763362474607 0.029919645915441034 0.0902205363062035 -0.05958470477195782 -0.058686688759801306
0.0006984491848783262 0.0010627002947697973 0.03645568013637472 -0.03249779669968561 0.07209671718227677 0.02205413384585304 -0.016090455070740767 0.017606114380156596
0.045437903366758424 0.04963930601750692 -0.024590512273939637 0.01628941770576969 -0.0068694281911144866 0.032222634310637446 -0.03806343415379626 0.08458670946607758
-0.016101541289263655 0.03243368960826209 -0.027596710381938616 0.011092432276647789 -0.018282308372633897 0.13708391895734084 -0.019272294496377372 0.07710359678200064
-0.03980810059490928 0.05618839298290488 0.008414180847702282 0.024705713919542512 -0.06451879799691272 -0.08114039912819339 -0.038922449342061544 -0.05042465059570182
0.018414158235361668 0.0646228957603074 0.05201352296918687 0.0890707997873884 -0.010781983403448618 0.004549529560371832 0.01805328657689644 0.019982380049842204
-0.11191111247911989 0.06387458161441854 0.0986047384984036 0.0032394376427979576 0.005876446780529186 -0.12241976715758521 -0.020421096279108025 -0.0448178095181346
-0.056184693765589676 -0.059335688063533475 0.0514884908781037 0.009001651891891671 -0.07377224727969864 -0.013745117005044655 0.016728010852477913 -0.0007476616010395585
-0.0640774815226839 -0.050379033687770094 0.08045656432388167 0.019395926966769096 0.003731239689956922 0.07960972944267362 -0.03321179583403348 0.0250639347519522
-0.11914886775767901 -0.027249061697390272 0.02296320254739291 -0.03327766933802768 -0.035049296893197586 0.0611657908518594 -0.04410615527339553 0.025212006483701577
0.020130230786332016 0.07731967994725639 0.0007229047947576117 0.054812660752846215 0.061446758118931195 -0.009010688304705123 0.0955402495227231 -0.016821177207865023
0.02227162871978088 -0.036766354551567564 -0.061677489116562095 -0.05548588077768257 -0.096824868429725 -0.110901664123905 -0.01303705954480684 -0.02645839470755412
-0.12980193004457805 0.031910379717758904 -0.06640059227410554 0.031239062540469018 -0.0365938373878841 0.04030227714843433 0.05002210018318849 -0.0004682228808342724
0.06467995823584083 -0.0452093999442079 -0.04016899302539845 0.019921152482695867 0.011378042905288575 -0.05035160707830752 -0.0364343169406699 0.009048282650334742
-0.029446698653235334 -0.004294795647219506 0.02848550884375774 0.02185520367095818 0.07158392609062898 -0.034499364911468176 0.03517242626364004 -0.05771353779300473
-0.05483221411511187 0.03445758247433392 -0.05304877348414356 0.01012246076832273 -0.037106185943573816 -0.06738016307302518 -0.016930894587729194 0.010691568156426133
0.049058046438943494 0.0029349197634991444 -0.03297140728798927 0.08650709614691185 -0.03393781508533785 0.06715898974503355 0.08049003070628938 -0.0003466738237375386
-0.016611305582313288 0.028716913414161542 0.016235313821863172 0.007204248642796367 0.035069440478432086 0.037919103310332214 0.059527854475375626 0.009087288645260988
-0.04331020555641901 -0.05401405947235778 0.023303769338477096 -0.017361023235602475 -0.02030287291549325 -0.07619764525979628 0.06521844370434823 0.011358521711649095
0.014050775974686682 0.03972468183885327 -0.04014489419805183 -0.02778363519062881 0.029471663277770694 0.031963357391724324 0.0295439238296687 0.003458862189388018
0.05538947842888294 -0.009541404179199273 0.06241451277216064 -0.07080547148926897 -0.08786651744392496 0.014679526441133036 0.028538101590373684 -0.0644559930739522
-0.08085611748588875 -0.04842356419970669 0.02200730978922374 0.03305929735564987 0.04712376692654876 0.01580978527472395 -0.07971868415352353 0.03330872178267488
-0.043088000795856285 0.06241500043884738 0.04569875241263571 -0.052443654496683006 -0.04103467705955017 0.024500444504173918 -0.08731895888763655 0.03563984035327455
00000000: 23bb abc6 1cfd adbf 074a c230 7c44 acbf
00000010: b1c8 146f 2cd7 6abf e95c 1543 f7d0 b13f
00000020: 8d8b c7eb 74dd ab3f 4990 90e3 a6d9 a53f
00000030: d912 006e cdc5 82bf 93b4 f5f6 392a 9f3f
00000040: f436 9f8f 650b b3bf 3d63 09ae 8d1c b0bf
00000050: 6e92 5b8b 3ff3 943f 4cdd af5b 6389 a4bf
00000060: 98ea 0b6f 4471 b9bf 4255 d7fa 2333 72bf
00000070: 3337 114d 41d9 7b3f 9f79 6642 8d03 c1bf
00000080: 65f2 724d 7baa abbf bb70 cc94 1fee a43f
00000090: 019a 37f5 76cd c4bf 137f f564 bcfc 943f
000000a0: 4b82 aa01 ec3e a3bf 9685 844f 10fd aebf
000000b0: 2f4f 2db3 c0dc aebf c18a b40f 3ace b4bf
000000c0: 2547 ea7b 9ea4 5b3f 9a49 170b 8b47 acbf
000000d0: 40ec 2a26 3c2b 9bbf d5eb 75e9 a144 b23f
000000e0: 5942 61f9 4ca9 b33f 17ac f4f3 c5a5 a83f
000000f0: a9b5 6dd5 ee21 a3bf 12ee 636e 77e5 af3f
00000100: 8085 5114 75c3 b63f edf6 fa53 1811 93bf
00000110: 78da 0984 600b a43f e7b3 7c3e 4e5e b63f
00000120: 81ef 3cf1 fdf0 6dbf 24bf 7090 e6f0 983f
00000130: b58c 46c4 e7dd b03f a374 53aa 0338 a7bf
00000140: 8f29 1413 2834 8cbf f178 92fd 96c0 bbbf
00000150: 0a71 0db0 aad3 9cbf 3529 078b 6b69 71bf
00000160: b890 f771 45d8 ab3f a965 4ed9 4d93 93bf
00000170: 9256 06b5 1c4b 7d3f 3bcd e453 a9b7 b93f
00000180: a999 c759 8cf0 a2bf 5283 685e be70 b03f
00000190: 18ee f3eb ec58 bb3f 7d6f 7fe2 86d7 a3bf
000001a0: beea d4fc 913a 8d3f 6609 8d08 697d a7bf
000001b0: 693a 82b2 9111 b5bf f85b 2daa 159b a7bf
000001c0: 623a a894 a9b7 a73f 071f 6202 c9d6 603f
000001d0: 406b b8c5 2c1f a13f 193e 2a4f 04d7 37bf
000001e0: a79e 2a19 0b19 a03f 5122 4036 d4d1 b0bf
000001f0: 736d f4f2 1717 a73f e317 1fd7 45e1 a13f
00000200: 2034 7490 287a a63f ac70 6adc 60e3 6bbf
00000210: 0a58 ae0a fe2e b3bf 7c71 53b5 bc94 7a3f
00000220: 2c0a f66e af20 84bf 32ec 24b4 7353 b2bf
00000230: bd7b efee 55c4 91bf 3d3b e983 9e1a 82bf
00000240: c56e daa1 f7d5 7ebf 2f7a 1b10 a573 b83f
00000250: 865c 6def 691a a63f 5961 f6ba 434d 7d3f
00000260: 5bdf db72 41a3 9e3f 86db dc6c b118 b73f
00000270: 48bc acec e281 aebf 2e25 de81 2e0c aebf
00000280: 0d9a 1734 04e3 463f 1a2f bcc0 4969 513f
00000290: 66da e0a3 51aa a23f 48cf 081c 8da3 a0bf
000002a0: 1b64 7232 ee74 b23f b32c 70de 5b95 963f
000002b0: 75f2 3929 047a 90bf e5be e355 5607 923f
000002c0: bb06 eb09 a343 a73f c6f5 e1b7 526a a93f
000002d0: 0aa9 0858 412e 99bf afc6 4451 2cae 903f
000002e0: 95d7 c416 1e23 7cbf 523d 1c31 7c7f a03f
000002f0: c85e bae9 0c7d a3bf 3643 d57e 79a7 b53f
00000300: 9da4 0225 ec7c 90bf 6fec 4f08 269b a03f
00000310: 903b 45e2 4f42 9cbf b9ef e30e a1b7 863f
00000320: a130 39f2 98b8 92bf 7c59 5d42 f78b c13f
00000330: e6c2 52ca 1dbc 93bf 7129 95b2 0fbd b33f
00000340: 158f 5734 ba61 a4bf ad80 8d9c b9c4 ac3f
00000350: fb11 823c 743b 813f 6f2d 3c65 744c 993f
00000360: 87bc 5fcf 4d84 b0bf 91d5 a300 9ec5 b4bf
00000370: ec3c 02ae a4ed a3bf 4608 7182 42d1 a9bf
00000380: 0af3 9d3d 29db 923f ad03 dd47 208b b03f
00000390: 176e 3438 84a1 aa3f a78a 1d0c 58cd b63f
000003a0: 09a3 d450 dd14 86bf a4a1 c80a 87a2 723f
000003b0: e57a bb8d 8f7c 923f 3fc3 3dd3 4276 943f
000003c0: e023 28e8 34a6 bcbf 5b61 14a7 155a b03f
000003d0: 7ace 14ff 283e b93f aec5 76d7 9789 6a3f
000003e0: cb2d d3ab e611 783f 3a65 53e0 e656 bfbf
000003f0: fb3f ab92 44e9 94bf 1b47 5124 5cf2 a6bf
00000400: 6399 847c 3dc4 acbf abe3 6f4f 3f61 aebf
00000410: 203a e210 b35c aa3f 209d e243 756f 823f
00000420: ee31 6bed bce2 b2bf 7d81 2160 6626 8cbf
00000430: 4973 27ce 2521 913f df07 fe0f d77f 48bf
00000440: f1ca 8cbf 6167 b0bf e2a4 2fdc 47cb a9bf
00000450: fd03 8528 cd98 b43f aad3 fd9f 86dc 933f
00000460: ff0f 240e fa90 6e3f 2f52 66a0 4d61 b43f
00000470: 46af e5f1 2201 a1bf 975c 4630 5caa 993f
00000480: bbe9 5f4a 8a80 bebf 9f10 5993 2de7 9bbf
00000490: fc55 cf6f aa83 973f 81e4 fc4a c509 a1bf
000004a0: 51e3 ce3f fbf1 a1bf f677 af5e 1f51 af3f
000004b0: 2b2f e7fc 1495 a6bf 3d93 411d 2dd1 993f
000004c0: bd8b 8deb 049d 943f 5eed b5f8 38cb b33f
000004d0: cd35 ce39 2ab0 473f f430 aeb2 6710 ac3f
000004e0: f1ce 2111 f375 af3f d74e aa1c 3274 82bf
000004f0: bfda 2667 5375 b83f 80b6 f317 9239 91bf
00000500: cda2 ebb3 5fce 963f 67c4 c824 0ad3 a2bf
00000510: 1c60 4f1d 3194 afbf e0e8 a836 a568 acbf
00000520: 2d5d 58bb 83c9 b8bf 27f1 7b2c 0d64 bcbf
00000530: 872f 0c83 2cb3 8abf 8ff8 e4cf e817 9bbf
00000540: e7e3 3f82 599d c0bf c1d8 94aa 8e56 a03f
00000550: 9f97 4014 a1ff b0bf f944 e0ff 21fd 9f3f
00000560: 6bd8 a16d 6dbc a2bf ea1b 9d04 80a2 a43f
00000570: 2a62 ba28 7f9c a93f 1c39 def5 79af 3ebf
00000580: 805f 54a1 dd8e b03f 4ddd 76bc af25 a7bf
00000590: 10f5 b6be 0791 a4bf fcb0 a5e9 3566 943f
000005a0: 9297 5d11 5f4d 873f 6c9d 6793 afc7 a9bf
000005b0: 70af 6ccf 84a7 a2bf 3c93 8bf0 e787 823f
000005c0: 7c64 c37e 4627 9ebf 32a2 906d 6b97 71bf
000005d0: 954f 9323 4e2b 9d3f 6486 0ee4 3561 963f
000005e0: 1d81 7afd 5253 b23f db17 0e98 e6a9 a1bf
000005f0: b1ee 0bc9 1e02 a23f 24ff b6fa a08c adbf
00000600: a289 c8cc f712 acbf 4c29 a79b 6ca4 a13f
00000610: 5924 6a76 3529 abbf 5bd1 a3af 15bb 843f
00000620: 6cc1 36fe 94ff a2bf f73b cc8c d33f b1bf
00000630: 966e 2f1a 5556 91bf 7f33 99fc 75e5 853f
00000640: cd2f 1fe2 221e a93f 1ad2 d10c f90a 683f
00000650: ab90 02d8 a0e1 a0bf 7eaa d23c 5425 b63f
00000660: 0b48 c71b 4c60 a1bf 815a 96e0 5431 b13f
00000670: ca9c 89a1 fe9a b43f beb7 3ebc 38b8 36bf
00000680: e42c e1d8 8d02 91bf 2ed4 d26f f767 9d3f
00000690: 83ec 9e77 fd9f 903f 1f4e 02c5 3382 7d3f
000006a0: d144 e327 9ff4 a13f 7019 39f9 216a a33f
000006b0: 5977 5858 6f7a ae3f c35e 533c 5b9c 823f
000006c0: 884d e558 c12c a6bf ca7b ea15 bba7 abbf
000006d0: 5ca9 ba7c f1dc 973f 7589 168c 16c7 91bf
000006e0: 7c5f bfbc 46ca 94bf fc4b 6c5a b081 b3bf
000006f0: a662 ceea 27b2 b03f 476f 42fa 2243 873f
00000700: a18c 5b3a a7c6 8c3f e30a af22 cb56 a43f
00000710: c730 5d1f df8d a4bf 6dee 0732 5073 9cbf
00000720: 353b bfd7 d12d 9e3f f5eb 554d 805d a03f
00000730: 9265 932a c340 9e3f 8d6b 837f c255 6c3f
00000740: 6b02 ca7c 025c ac3f 92b8 4297 718a 83bf
00000750: b7ed 4d86 cbf4 af3f 009d 6cb0 4e20 b2bf
00000760: 3ac7 d58a 6b7e b6bf 0b2b e2af 4c10 8e3f
00000770: 1213 1594 1739 9d3f e6a8 481e 3080 b0bf
00000780: 9a8e 488c fcb2 b4bf cbde 2f31 f9ca a8bf
00000790: c747 458f 1589 963f 6648 f1f1 25ed a03f
000007a0: 63b1 a03b 9b20 a83f 96cd d8ba 7030 903f
000007b0: 2dcd 5195 7168 b4bf 44d0 743d d70d a13f
000007c0: c054 8964 a10f a6bf 4d50 54e3 dbf4 af3f
000007d0: 5819 29ae d365 a73f 1457 e409 e5d9 aabf
000007e0: 5904 f247 7f02 a5bf 4b14 88ff a416 993f
000007f0: 3a40 be08 895a b6bf e702 8199 623f a23f

encoder.1.0.bias f8 [64]
-0.05313191190321826 -0.005622468890593049 0.04745623467107471 -0.041525110602297195 -0.02781781181415037 -0.05519630760170354 0.02084754407456838 -0.03394143282794982
-0.016992039984155178 0.03850387782120664 0.04833327978521719 0.0016981214296423442 -0.01977432891858268 -0.04339484125414024 -0.012590356141872134 -0.047578450296295864
-0.057789541779297376 0.02084010839266034 0.0130431950073484 0.020881280301653062 0.05909769236805851 -0.028531264508850306 0.0345823168646824 0.004221670324908163
-0.019335072486319774 -0.0309674292800898 -0.05368848889725022 0.017245247951604536 -0.018934123217846453 -0.04607555270509539 0.022188276050998615 -0.07208048552340632
-0.05525702238100893 0.02740351856904745 -0.02590764313966527 -0.04618424177200187 0.06318008898737104 -0.06284967064151296 0.043182060120844946 0.00881946831895807
-0.05309113859840645 -0.007514245810975437 0.033138692380048254 0.03012387453755028 -0.06681334226798159 -0.06899172067714034 0.014127805829656968 0.027326740270147427
0.003035560257697671 -0.04851756617593496 0.006849862639780662 0.02299858629977977 -0.03192579749266882 -0.035419441760891276 -0.04357132314740551 -0.007686749103141408
0.02164813876304831 0.027897872033282523 -0.011327717463894807 -0.015169709924060566 0.02774816005712438 -0.01081062853883815 0.021102450780803212 0.06520022451837311
00000000: f91d ff1f 1b34 abbf 1041 2000 9607 77bf
00000010: 5ca0 ceff 2e4c a83f 09d2 ff7f c742 a5bf
00000020: 8cc5 f3bf 457c 9cbf 6bbf 04c0 b042 acbf
00000030: 093e 0200 0f59 953f f16a f37f c560 a1bf
00000040: 75da 1880 5c66 91bf 2bc4 05c0 c7b6 a33f
00000050: 42cb f8bf 23bf a83f 761c 5100 70d2 5b3f
00000060: a5cb 05c0 b83f 94bf 7ad7 0040 d937 a6bf
00000070: 97a2 fefe f8c8 89bf f7ad 08e0 335c a8bf
00000080: 6c5e fc3f 9796 adbf 775e f7ff 1b57 953f
00000090: 7c6f efff 63b6 8a3f e711 faff e661 953f
000000a0: 90d1 fa7f 0d42 ae3f d388 eabf 4c37 9dbf
000000b0: 024e e8ff c5b4 a13f 7cf9 adff bd4a 713f
000000c0: d166 fabf 92cc 93bf a728 ffff ecb5 9fbf
000000d0: a37f f8bf 0e7d abbf 80ad daff bca8 913f
000000e0: 1610 ff7f 7763 93bf a8ea 0600 3797 a7bf
000000f0: c481 f9ff 85b8 963f 92b9 00e0 dd73 b2bf
00000100: 5f65 0000 a64a acbf a492 3200 ab0f 9c3f
00000110: 1355 0180 8887 9abf 11ab 0000 76a5 a7bf
00000120: 7089 f5ff 912c b03f 433c f87f ea16 b0bf
00000130: f561 fc7f f51b a63f bbf8 fbff f00f 823f
00000140: 55a1 f9ff c22e abbf 4a27 3200 42c7 7ebf
00000150: 5a4f 0200 8ef7 a03f c1ce deff cad8 9e3f
00000160: 3539 fadf ad1a b1bf 29ca 0000 71a9 b1bf
00000170: ec5a 0500 0aef 8c3f 92f7 107f 8afb 9b3f
00000180: d6e7 0401 08de 683f 02aa 0360 4bd7 a8bf
00000190: 45b7 5100 9a0e 7c3f 1712 0c00 f18c 973f
000001a0: 276c 4200 9458 a0bf 9ede 0240 7f22 a2bf
000001b0: dd50 ecff fa4e a6bf 2436 2b00 247c 7fbf
000001c0: 4ab8 0600 ee2a 963f 3d34 0b80 4291 9c3f
000001d0: 75b5 5d80 fc32 87bf d7f2 1b00 4c11 8fbf
000001e0: 8fca e07f 036a 9c3f 2c28 3000 e223 86bf
000001f0: 6541 e07f e19b 953f 9d8e ff3f f6b0 b03f

encoder.1.1.weight f8 [64]
0.9713021410473542 0.9797504022866169 1.0228736537277723 0.9679840544016436 1.0602819791637021 1.0671911827820013 0.9694068019642372 1.0713890416236391
1.0143925923651116 0.9473533472843974 1.0274305530214707 0.9649949679937525 1.0069763245517125 0.9661085244646641 1.0105369694377655 0.9393952032424846
0.9604777594304396 1.000519270435628 0.9755984100544972 0.9337752068189257 0.9809388248024833 0.9860978592302844 1.0269430859926538 0.9687414604238597
0.9883611716152751 0.9738558475970064 1.0214481329312926 1.0194789210527448 0.9460328261841586 0.9918565119771571 0.9864909040767295 0.9632523892911815
0.9737194716435159 0.9856748467645152 0.9700187148842209 1.0834138524928945 1.0173712464185718 1.0764741721133624 1.0690961770436602 0.9771835651581113
0.9681890526581605 1.0626082660445535 0.9868026523447161 1.0283191181258124 0.9702303836703766 0.9676749986603616 1.0209124218847012 1.0971739725984153
1.0128614577511066 0.998870020508452 1.0586913645243765 0.963743191592237 1.0413157344684758 0.9376530028855262 1.029626059857414 1.0250015080204766
0.9516917498258919 0.9560777100063208 1.0857991655602708 0.9852509104985555 1.0372643678803541 0.9708450953353529 1.0431598336569117 0.9555944104405408
00000000: 4ba9 4a3a e814 ef3f 2b0b 0284 1d5a ef3f
00000010: 8536 abc3 b05d f03f a08b 16b2 b9f9 ee3f
00000020: 75bd 903c eaf6 f03f 540d ca0f 3713 f13f
00000030: 669a de69 6105 ef3f 9e0f f1d5 6824 f13f
00000040: 7c34 18ba f33a f03f b8f6 8af7 b750 ee3f
00000050: ee36 0205 5b70 f03f b7ce 8a20 3de1 ee3f
00000060: f4bb dc34 931c f03f 32cd 9e6c 5cea ee3f
00000070: 7f25 32d0 282b f03f 8a43 7e87 860f ee3f
00000080: 4140 a9da 3bbc ee3f ef9e 987e 2002 f03f
00000090: 54d6 2628 1a38 ef3f 234b e38a 7ce1 ed3f
000000a0: 28e8 7cd1 d963 ef3f 0197 0119 1d8e ef3f
000000b0: 7711 93df 5b6e f03f 9997 5917 eeff ee3f
000000c0: c829 979b a7a0 ef3f f151 0ebd d329 ef3f
000000d0: aa00 58ff d957 f03f 6120 0e21 c94f f03f
000000e0: c4e8 2ca2 e645 ee3f 5987 28de 49bd ef3f
000000f0: edf3 595f 5591 ef3f 6295 b9ac f6d2 ee3f
00000100: 5dfe c5bc b528 ef3f 2bfd eaf9 a58a ef3f
00000110: 11f1 1db0 640a ef3f 79d8 87c3 a955 f13f
00000120: e922 7412 2747 f03f f672 43fb 3c39 f13f
00000130: fae5 ca97 041b f13f 665e d177 1645 ef3f
00000140: 7a62 b09b 67fb ee3f 14ee 7186 7100 f13f
00000150: d1a6 ed27 e393 ef3f 163b 63bf fe73 f03f
00000160: c364 ee96 200c ef3f 2be6 0c8f 31f7 ee3f
00000170: fb32 8143 a855 f03f 4e52 a54b 068e f13f
00000180: ddb7 4637 ae34 f03f a03c e142 bef6 ef3f
00000190: 7809 335b 66f0 f03f c633 34f6 fbd6 ee3f
000001a0: 1ea3 05b0 3aa9 f03f 0577 ccde 4001 ee3f
000001b0: a226 e32c 5979 f03f 2fc7 34fb 6766 f03f
000001c0: cc01 ac41 4274 ee3f cf2c 1d48 3098 ee3f
000001d0: efaf 21f2 6e5f f13f b141 deea 2c87 ef3f
000001e0: c0a2 9585 a298 f03f a250 bebb 2911 ef3f
000001f0: 70ea a05d c8b0 f03f 09a4 a2ba 3a94 ee3f

encoder.1.1.bias f8 [64]
0.10144379880158451 -0.0003924365014813757 -0.03948255221423668 -0.029273873618259498 0.08930452241578841 0.09341611278935437 -0.11073418450314954 -0.08156870456156687
-0.053207424831618826 -0.1398771550146572 0.08307925899371008 -0.0422715767235217 -0.14364873646425558 -0.10114530712554297 -0.07686013949080882 -0.09476489856984802
-0.13151839872509868 -0.052338688349618655 0.023575855012737512 -0.02077245486700561 0.03329437622991819 -0.10945042320582289 -0.0038942882471029667 -0.12292116009112594
0.02539716550118136 -0.031290580784312925 -0.0492151364589993 0.09927562993529424 -0.08785081454012951 0.01692717775054434 0.0049648769344411495 0.013950679106974052
-0.07199057699841085 0.05619261423752444 -0.1087800830625713 -0.05729823555052465 0.04629604494677142 0.09220906342557217 0.08511328714137659 -0.22167679819228364
-0.1218375263563318 0.08920717715364267 -0.07231139160502141 0.04958260372965341 -0.004259657908407172 0.03335334078334735 -0.12239587941855666 -0.018882617359482642
-0.06523869039464113 0.05344625289735211 0.0011592707674567381 -0.14556443812606992 -0.05164888028713021 -0.13016270990442164 -0.12542906294583187 0.04646583072113006
-0.08847007359373842 -0.04169352928003749 0.11202085654519786 -0.14866365521833963 0.051725633200882554 0.10009863923525009 -0.02793281005555116 -0.03648013589466591
00000000: 791c 3c86 38f8 b93f ade1 8af0 fdb7 39bf
00000010: 0fa7 0b9d 0e37 a4bf 1e49 4567 f8f9 9dbf
00000020: 4d24 2943 a9dc b63f 8987 594d 1eea b73f
00000030: 8081 fd54 1359 bcbf 6a11 78c6 afe1 b4bf
00000040: c7c3 1ceb 003e abbf ba6b 1f9f 7ee7 c1bf
00000050: 1a99 5aac ae44 b53f f5df 27bf 9ea4 a5bf
00000060: c0e3 9cf0 1463 c2bf 5b82 3faa a8e4 b9bf
00000070: 2fa1 7a29 1bad b3bf a68f 2a2c 8342 b8bf
00000080: f65c ac4a 98d5 c0bf 63e6 8df5 22cc aabf
00000090: 6010 05d9 4424 983f 3ae6 3ed9 5f45 95bf
000000a0: 15b0 18e2 f50b a13f 71ce 3364 f104 bcbf
000000b0: 723c 3315 eae6 6fbf 7ee8 93da c277 bfbf
000000c0: cc66 f4ec b601 9a3f c36e 48aa 5105 a0bf
000000d0: 2c81 1ef3 b932 a9bf a6a4 dcaf 206a b93f
000000e0: 1d77 6017 647d b6bf 699e 68ab 5b55 913f
000000f0: 8851 fe00 0d56 743f daea 2b74 2c92 8c3f
00000100: 620e d475 f96d b2bf 2394 da40 47c5 ac3f
00000110: 7bbc 35f3 02d9 bbbf 37b3 9dbf 3156 adbf
00000120: f007 f67d 1db4 a73f 54c0 ce5f 039b b73f
00000130: 5a2e ba00 fcc9 b53f ea48 42c3 e75f ccbf
00000140: 6e40 207f be30 bfbf ef80 7114 48d6 b63f
00000150: 8762 12d6 ff82 b2bf c253 f01a e462 a93f
00000160: 5444 8a36 9372 71bf 89ee c067 b013 a13f
00000170: 7f92 441b 5655 bfbf 6c62 1600 f755 93bf
00000180: 4fc9 ad99 7bb3 b0bf 0864 93a8 4e5d ab3f
00000190: b3ce 2382 55fe 523f a125 9b02 dba1 c2bf
000001a0: df9e 6ad7 b871 aabf 7a5f 19f3 2ba9 c0bf
000001b0: b7fe a83d 0f0e c0bf bc4e a88e 5eca a73f
000001c0: 8b83 c288 f9a5 b6bf 37d7 6cb1 da58 a5bf
000001d0: 4edf 541b 66ad bc3f 921f a220 6907 c3bf
000001e0: b4e4 ec3d c87b aa3f 60b6 e37d 10a0 b93f
000001f0: c325 b226 6b9a 9cbf 4e11 3e3d 86ad a2bf

encoder.1.1.running_mean f8 [64]
-0.12067550529773029 -0.3313833127535287 0.18692381310762354 0.29038854970585204 -0.725031715185471 -0.8095328066163003 0.5980133132073411 0.16423188853908563
-0.17150919913511234 0.33016583866588944 -0.36492703960322115 0.32338252266522455 0.14335742919274294 0.19661661390882834 0.14908126983322276 0.2141732174481843
0.6146616385780616 -0.20482551961456372 -0.4203710798617341 -0.20680995826559126 0.3012378866096545 0.11811110637743209 -0.06861534993993781 -0.32404203598950904
-0.10060606061159534 0.011829606545824713 0.07662805850281991 -0.40558347709457676 0.290817692399645 0.20055871658533675 -0.1944741097701468 -0.5917161292059013
-0.10807836914914058 -0.03704226354062583 0.6715200943175035 0.12093084465088531 -0.11341421234515478 -0.6671945232075972 -0.28579717918041897 0.38494910484053496
0.23983339752598012 -0.5701777778492494 0.1816718615593632 -0.6093662582607754 -0.5270692216474662 0.031184847794149793 0.4776733938198759 0.21351030165214105
0.04967634626697826 -0.21514512359782723 -0.046689845665455136 0.3287393260791641 0.07830342269916091 -0.10434868119536168 0.3918103528867204 -0.43291283282420495
0.30366512998952594 -0.26450011527056433 -0.402509630410226 0.3459865834020083 0.0242556214155999 -0.27388482752124493 0.07119714619000594 -0.2631457375569053
00000000: 4799 ae04 97e4 bebf e2db ad5a 6235 d5bf
00000010: ad07 1298 1eed c73f f8a5 07db b995 d23f
00000020: ae19 29b6 7533 e7bf 6498 2e58 b1e7 e9bf
00000030: 528a d9d0 ec22 e33f 172b 1eef 8c05 c53f
00000040: 81cd 9f70 03f4 c5bf dce3 d4e5 6f21 d53f
00000050: 5467 21f1 f65a d7bf d17c bc9b 4cb2 d43f
00000060: 6bbf 0247 8959 c23f c059 4bb3 bb2a c93f
00000070: b39e 3055 1815 c33f f83c 4f2a 076a cb3f
00000080: b18d 79e2 4eab e33f abbc 10fe b837 cabf
00000090: bb2e 0c1a 5ce7 dabf 8571 9eab bf78 cabf
000000a0: ef7e d345 7b47 d33f 8379 2f8b 873c be3f
000000b0: 82e1 fe8b c690 b1bf 27ab c6ce 1abd d4bf
000000c0: a52f 1b9c 51c1 b9bf e131 e9e9 1e3a 883f
000000d0: 05c0 397d e59d b33f b8d3 7a66 14f5 d9bf
000000e0: 3319 7dcf c19c d23f 5cb4 5474 e8ab c93f
000000f0: d1d4 b012 87e4 c8bf d38f eea9 56ef e2bf
00000100: 078c e624 06ab bbbf 461f f41c 34f7 a2bf
00000110: 9a6a 76b5 177d e53f e76b dae6 52f5 be3f
00000120: d68d ecbc b608 bdbf f5e6 2754 a859 e5bf
00000130: e79c 7740 804a d2bf 5d88 fa91 01a3 d83f
00000140: 616b 6e5b dcb2 ce3f 6297 9877 e53e e2bf
00000150: a41d 0008 0641 c73f 6b82 d0aa ed7f e3bf
00000160: 8487 b645 c0dd e0bf a95e a0b5 ebee 9f3f
00000170: 650b 286d 3392 de3f c53e 7a39 4e54 cb3f
00000180: 61f0 3395 2d6f a93f d08e df1a e089 cbbf
00000190: 3778 6040 bbe7 a7bf 5ed2 9aab 100a d53f
000001a0: f862 a86f b10b b43f 1964 1d5d 98b6 babf
000001b0: e27d f8ba 6b13 d93f 4dea bf06 d8b4 dbbf
000001c0: 0966 8fde 3f6f d33f fb04 38e4 91ed d0bf
000001d0: 48f7 bbc0 b7c2 d9bf ee3f 24e9 a424 d63f
000001e0: e289 e532 77d6 983f 1dc2 443a 5487 d1bf
000001f0: 1861 74e6 f939 b23f 94e0 3838 61d7 d0bf

encoder.1.1.running_var f8 [64]
3.01867525262565 2.3386667536267662 0.5409876459891864 1.7984419819199302 4.7908063983583995 15.00611613560854 4.018585630517751 0.25121480934515117
0.5929763566947329 0.3851844890986064 3.345460532454211 3.7600918094869566 0.2957865920118024 2.5228600370320864 0.26662550637688137 1.8598841962687078
4.367582061936731 1.032116985008496 0.5751147302968749 3.7975837223602964 1.7841689816916926 0.744891219600563 1.1840535737451439 2.110410597721756
4.477595507547361 2.3719146972580876 0.3941120966022947 1.411316932072055 2.9949924439189033 1.3774794458653614 1.2954950495685755 3.098295576730782
1.7065940804116697 0.9360462459210572 4.7572065771372865 0.3302565301597631 1.5462430253202 5.538364748742739 3.2757391737325743 1.3459871400874304
1.8708097615089272 2.0354163993041907 2.951487030369078 7.500311595342257 1.4954718103160156 2.699896203986464 1.0643136280697263 0.1523855139254696
0.6654628343009541 3.1267738744693205 0.49271380365393336 0.9040890682774954 0.7658718073620789 1.2493657600468269 1.1848787302393793 3.671057732329357
1.9412743090866205 2.6016135720693403 2.4877384821034205 1.3978217034307208 0.7152408322372159 0.8069282332899435 0.8773204434060896 1.188686161980952
00000000: 742c fa35 3f26 0840 3c8e 38ea 96b5 0240
00000010: db08 e252 c54f e13f a697 8119 6bc6 fc3f
00000020: e1aa 0927 c929 1340 4ad5 74a7 2103 2e40
00000030: 43ff 8c1c 0813 1040 9421 9a47 e713 d03f
00000040: 73c3 698d a9f9 e23f 0bb8 e6d7 dca6 d83f
00000050: bf98 c7cf 80c3 0a40 aca1 bd03 ab14 0e40
00000060: 994d d2e2 2aee d23f 5a81 3b3e d12e 0440
00000070: e3c2 8a6d 6410 d13f 3b24 55ee 15c2 fd3f
00000080: 4175 9a6e 6778 1140 2e1f 8419 8d83 f03f
00000090: 8255 c201 5767 e23f 16e0 1a93 7361 0e40
000000a0: 8074 2ec6 f48b fc3f 1462 681c 26d6 e73f
000000b0: 3628 ff28 e2f1 f23f 27c6 92f3 1ee2 0040
000000c0: 9d87 f6cb 0ee9 1140 7700 ad69 aef9 0240
000000d0: ad59 77f1 2139 d93f 03a6 3810 c194 f63f
000000e0: c030 3399 bef5 0740 7f76 2ee3 270a f63f
000000f0: 4f6e 6004 59ba f43f 8b33 fb30 4fc9 0840
00000100: 22a5 2e98 354e fb3f d2c8 b841 17f4 ed3f
00000110: a57b 3429 6107 1340 58e7 1449 ec22 d53f
00000120: 99b1 9653 69bd f83f 63ad b416 4927 1640
00000130: 7f42 6bbd b634 0a40 7f31 b8cf 2989 f53f
00000140: 937e 6b37 d6ee fd3f 5307 a664 8848 0040
00000150: dc06 703b a59c 0740 e437 cfae 5100 1e40
00000160: f15a 56d9 73ed f73f 34bb 552e 6399 0540
00000170: 00f2 13ba 6d07 f13f 73d6 5857 5e81 c33f
00000180: 86d5 c0b6 784b e53f dda9 6605 a203 0940
00000190: 68cf 3e7a 9f88 df3f d688 9d32 4cee ec3f
000001a0: a68d b197 0582 e83f fa4a 82f3 66fd f33f
000001b0: 8faa 4166 43f5 f23f fba8 3084 535e 0d40
000001c0: f578 61a6 750f ff3f c1f0 c6c6 1ad0 0440
000001d0: 3814 ed6e e3e6 0340 bafb 5d4a 7a5d f63f
000001e0: 1220 e7bd 40e3 e63f 3461 8628 5bd2 e93f
000001f0: ef52 9152 0213 ec3f b8a7 eec7 db04 f33f
