models/matching_nets/SETA_n=1_k=5_q=15_nv=1_kv=3_qv=1_dist=cosine_fce=None.pth (torch, 316367 bytes, 24 tensors)

encoder.0.0.weight f8 [64, 1, 3]
00000000: acc5 23f4 ab7c cdbf 964c ca02 5325 e23f
00000010: b2ab 9c97 b01d c23f 751a 4851 7b0a 8abf
00000020: 54b0 9041 2ef8 d73f e5af d829 8e71 d93f
00000030: 2519 8bb3 ba41 bdbf a96d 9010 20fa d3bf
00000040: 61b2 ac18 2c11 ddbf ec94 de18 0c30 da3f
00000050: ffdc c27d f05a d23f cf5d 4a69 cd05 d63f
00000060: 8b23 f61f 2df3 b93f 7733 ce78 62d0 d2bf
00000070: 8237 104f 2dd1 c3bf 4daa 308e 8c23 d73f
00000080: 56c9 1605 a250 c1bf be79 0364 fa7e d2bf
00000090: ab32 2a23 9695 dc3f 21fa e04e a8d3 e13f
000000a0: ed42 bbf2 6f7a d3bf f5b4 0632 39cb dc3f
000000b0: b57b 16a3 eaf8 dc3f 5c1f 0272 f468 acbf
000000c0: 61d1 5487 3e0e 6fbf 160a 71f7 35fd c1bf
000000d0: 1dbb 3d1a 1bac dabf 7035 5f94 78bc e2bf
000000e0: 5fa4 3057 203f b4bf 2979 e15e 9b30 d33f
000000f0: 5ebc 20f3 ed1d d9bf 76bb 10c4 fe08 dfbf
00000100: 9c66 6cd5 6017 ddbf 77b4 7901 1c50 d33f
00000110: 4683 fecb 592d e23f 7c50 74bc be6a c0bf
00000120: fc9f adba dea2 d7bf f951 e97c 244a cfbf
00000130: dcc2 2c70 d807 da3f dba8 2181 5154 e0bf
00000140: 229c 4c65 a59e db3f 8bd3 40c9 09b2 b23f
00000150: 3447 c61d 559b d3bf 28a2 a9f3 802d b3bf
00000160: 1e18 e1ae 6d6e d0bf d4b8 f32c 1c0b a63f
00000170: 4c52 8070 e916 d3bf 3ce8 008a 70b5 873f
00000180: 47eb 57ee 1fe1 e13f c25c e0d0 adc7 d63f
00000190: 51ee 65ca 166b d13f 388c 5e06 561c dbbf
000001a0: 13e8 1b59 e857 d23f 40cb 0afd 820c cbbf
000001b0: 9449 57aa 05a1 cfbf 61a1 152f d424 9b3f
000001c0: 5b20 38ed 4d99 d9bf ae01 a716 f490 bdbf
000001d0: cd2c 7e87 dc69 cf3f fb72 c694 1cf9 a5bf
000001e0: 042f 161a a1b1 bfbf fc97 3914 4f92 b1bf
000001f0: 6846 d4c0 81c2 d7bf deff ad6f 1ddf d13f
00000200: 8fe5 8c28 7a80 e1bf 0eef 0d9f ea01 d4bf
00000210: e4b7 cfcb 1273 d2bf 99ad 4921 e067 b5bf
00000220: 8cfb 7224 ca08 d1bf bc63 5925 aec2 ce3f
00000230: 03a2 fb10 94f6 923f 68cf 3950 6544 5e3f
00000240: da7c 7a3f a38b d63f f407 81c3 82b0 d6bf
00000250: 7925 901a 0025 e1bf 2dca 23aa 6f52 d5bf
00000260: e7a4 db0a fd1e d03f d936 40f0 0ccc dcbf
00000270: 22ff 1773 b166 d9bf b480 fa45 c6c2 c03f
00000280: 9e43 d9e3 3c39 c3bf 05c5 3283 dcd2 e03f
00000290: 5e17 169f 5df4 8e3f 27b8 750f 363d b93f
000002a0: a2db 170a 3aae d5bf 5c5d 789b 7a05 8f3f
000002b0: 4e23 d363 4cde e0bf c1a1 29c7 f40c d5bf
000002c0: 331e 7d4b 3e39 d1bf 106a 3f34 58e3 d1bf
000002d0: 5494 b131 2377 d7bf fd63 d7c1 95c5 e03f
000002e0: 70b9 6486 27df d63f a45b 7b2c 1bf6 d8bf
000002f0: f4e8 9108 11ea e03f a795 ad59 ef73 e13f
00000300: 34b9 f98b 910f ddbf fc7f 7017 c51f c53f
00000310: b4f4 74a1 bb1a dbbf a5f2 4349 3878 ca3f
00000320: 4f25 96ca aabe d9bf 01d3 ce01 b641 d0bf
00000330: 8e38 e4b8 3c08 dbbf 506a fcaf d762 c23f
00000340: 652e 82ae e113 c13f 498b 2d92 ea26 e0bf
00000350: 61a0 3d02 527e e2bf 8d2f b9c2 2082 d03f
00000360: 89fe 887f aa81 b6bf e65a 773a 6caa e2bf
00000370: 10c6 9fd0 9650 cd3f 0169 b85a 6c47 c3bf
00000380: ae63 2207 ae29 c23f 0101 5141 5c62 c7bf
00000390: c556 5aee b1ef e1bf d639 22d0 f495 d9bf
000003a0: a16e f773 88c0 bdbf 54f2 4609 213a d7bf
000003b0: 2711 da69 c8b3 c7bf 71b6 d20c 60df c9bf
000003c0: 4f9a e8bc 9ed6 df3f 7644 ae49 86e2 c03f
000003d0: b4b5 49d0 bc3a d7bf 0e2d eb32 8d98 c33f
000003e0: ec6f e11d f0f7 db3f fc43 1189 d6c8 d93f
000003f0: 844f f3c4 788a dc3f 4543 df11 fb8b c43f
00000400: 5468 4556 e050 a63f f5cd 2957 f77e c7bf
00000410: beaf 62a6 830c e03f 109c c135 0f33 e03f
00000420: ce04 1056 eac3 c3bf 75a0 4b42 94c4 bd3f
00000430: ad52 150b 5d6b c4bf db2c bc84 7cf1 ca3f
00000440: 853f 69fa 921e cb3f 8d62 266e 48ec d43f
00000450: f48f 4a80 9ef5 d9bf 4158 db5b 6fb7 dbbf
00000460: f0c8 532f 307e dd3f 4f21 ce88 0c39 d8bf
00000470: cc81 a4e2 2ece d2bf 90d4 92ab d6c5 d63f
00000480: 7966 6797 11d0 db3f fca1 2317 f6fd dc3f
00000490: 73f9 d772 d203 9b3f bc07 7513 13fb d03f
000004a0: d45c 052c 1107 d73f 3c1c a946 923a e23f
000004b0: d198 9647 d585 b53f 1f99 e82a 62c8 d23f
000004c0: e811 af1c fe45 c7bf 363e 0ddf 6f3c a2bf
000004d0: c7cc c91b 0623 c33f fbe8 abf6 3078 da3f
000004e0: f653 25ad 996e a83f 1dd9 42be 443c d33f
000004f0: b698 86e6 5452 c3bf 8610 1958 b27e d83f
00000500: cc6f 3ee2 f46c dfbf 33fc 6a8f 8ef3 e03f
00000510: 7629 b34b 4885 c9bf 4be8 b4d6 cc06 c13f
00000520: 3486 7d98 be4e c8bf 76da 3ae4 2997 c8bf
00000530: 2444 8b6e 7c3f bc3f 5c17 f066 0e58 de3f
00000540: 2d63 7bd6 b94a cb3f e45b 5896 0287 ca3f
00000550: 8f28 1617 ebbc e1bf 0ff6 c454 6943 933f
00000560: f4e6 1b40 7356 c3bf 239a 0754 982b e23f
00000570: 83de ed39 ba54 d1bf 64ad 0e22 a114 c53f
00000580: e001 f00f 427c d03f 5e71 42be 5b06 703f
00000590: 5354 2811 f3b3 cdbf e19a 6355 41b4 de3f
000005a0: f43a ebe9 829a c63f bd58 4582 e20f dbbf
000005b0: c576 ae6b c729 cabf 60c3 f1bf 3608 cabf
000005c0: e0ab 4c73 6f15 d0bf 4822 0278 2764 b83f
000005d0: b0c2 0609 0aad d5bf 604b 3934 db45 e0bf
000005e0: 878e 6fb6 6123 d43f 29e2 8834 525b cf3f
000005f0: 7ac5 f92e 99c4 db3f 01d9 8309 df9e dbbf
-0.23036717816243646 0.5670561842438413 0.14153106120042264 -0.012715304773349015 0.37452274706698074 0.397555867067011 -0.11428419955618503 -0.31214143388361976
-0.45417311105373953 0.4091825716844386 0.28680050164571463 0.3441041496493797 0.10136682539281432 -0.2939687900296159 -0.15482107506289472 0.3615447414946729
-0.135273220524662 -0.28900012747717685 0.4466300338179205 0.5570870915033234 -0.30434797958609644 0.44990377316828695 0.45269266058488294 -0.055488242070224486
-0.0037909718763790433 -0.14053988058192662 -0.41675450861559843 -0.5855067155732012 -0.07908823136007602 0.2998417307443498 -0.3924517511649749 -0.48492402216918806
-0.454551895543412 0.3017644895942974 0.5680359825383696 -0.1282576008021613 -0.3693157980947033 -0.24445015048208044 0.4067288489778045 -0.5102927705859445
0.43155798809533696 0.07302914775284657 -0.30635574252765996 -0.07491308163447086 -0.256740017681638 0.04305351303797669 -0.2982734297413898 0.011576537333997654
0.5587310462136451 0.3559374370392555 0.27216119542547285 -0.4236044943047008 0.2866154546933341 -0.21131932597708136 -0.24710150544576648 0.02650767838841384
-0.3999819580644776 -0.11549306443249094 0.24541813484061095 -0.04291619602301996 -0.12380415808564399 -0.06863874667905628 -0.37124675589539047 0.27924285799235615
-0.5469332496642653 -0.31261697323474 -0.28827352431733133 -0.08361626446428828 -0.2661614757488955 0.24031616996469818 0.018518746887737702 0.001847361506318779
0.3522728080660734 -0.35452336399259754 -0.5357666510400768 -0.3331565057298203 0.2518913847002992 -0.4499542566489772 -0.3968928932153962 0.13094404618187172
-0.15018426061081142 0.5257399141757167 0.015114528100422294 0.09859025838315515 -0.3387589548651083 0.015147168988774488 -0.5271360349371237 -0.3289157814929489
-0.2691188561625239 -0.2795010099631847 -0.36664657452485483 0.5241192613567588 0.35737026333199307 -0.3900211271661027 0.5285725753194854 0.5454022170567229
-0.4540752284000462 0.1650320400667623 -0.4235066487052095 0.2067938192120852 -0.40226239951933435 -0.25401067902139124 -0.4223777585583627 0.14364143460336942
0.1334192373363862 -0.5047505240475881 -0.5779199641956546 0.25794238105731254 -0.08791604627276163 -0.583303560439927 0.229021884791607 -0.1506171648951025
0.14189696644168975 -0.18268922032621762 -0.5605096488313498 -0.3997776062541595 -0.1162190707322517 -0.36292291551561573 -0.1851740376333819 -0.20212936998489142
0.497474369507846 0.13191298101131438 -0.3629600557386212 0.15309300409567367 0.4370079318812248 0.4028831804799322 0.44595164521637565 0.16052187321340675
0.04358578732599541 -0.18356220012684302 0.5015276193348581 0.5062328386237613 -0.15441636278413856 0.1162808095792814 -0.1595264724843636 0.21049458008960795
0.21187054850679146 0.3269215655978222 -0.4056164028972937 -0.4330709836043561 0.4608269178562656 -0.37848199233896634 -0.2938344205195136 0.3558251071475036
0.43457450662172153 0.4530005670517594 0.026381767520427823 0.2653243722926353 0.35980634020729707 0.5696498279656974 0.08407338140259248 0.29348043623248715
-0.18182350540713732 -0.035617347696299026 0.14950634343003896 0.41358589257255546 0.04771881331058829 0.30055349903286005 -0.150950062333498 0.3827329502421509
-0.49102518171434606 0.5297310639506406 -0.1993799562099629 0.13302002414440248 -0.18990309186760757 -0.19211314815557373 0.1103437204249223 0.4741245274784569
0.21321795437577276 0.2072451814753712 -0.55431131848424 0.01881184177294953 -0.15107575064012446 0.5678216592030519 -0.2707963529314627 0.1646920601172993
0.2575841098442009 0.003912313815956329 -0.23205412233133646 0.4797519048574213 0.17659031316585294 -0.42284453126684324 -0.2043999934948514 -0.2033756673077063
-0.25130831012455523 0.09527823142901426 -0.33868647462353874 -0.5085273761745661 0.3146595269774725 0.24497439923449463 0.433874412417104 -0.43157173089220185

encoder.0.0.bias f8 [64]
00000000: e527 da7f c527 dabf 18bb 0340 11a0 d23f
00000010: ff96 5b40 5d0b e13f dd2e 9502 10b7 79bf
00000020: fe98 eaff d1b1 d7bf 7e64 7e3f d0a5 d83f
00000030: 0dfc e4ff 69e8 d8bf 291d e63f abe7 d23f
00000040: 31f1 c803 928a b63f f18a 9660 833a d0bf
00000050: 16f0 bf3e 6331 dabf d811 e3ff ff71 cf3f
00000060: a50b edcb 7fe4 57bf 822d faff e1e5 c73f
00000070: fea2 bf00 d76b dc3f 9eae 55fe b1f9 c3bf
00000080: bc79 efff e997 db3f 16af 1704 38ea 8fbf
00000090: eefa 727f 54e5 dabf fb5f 2c3f 2546 c3bf
000000a0: 10c3 a102 3ae3 a63f 794e f97f 3563 dabf
000000b0: 3c17 f501 6f4b b23f a7e5 4680 8a08 c33f
000000c0: 4839 cc06 e025 61bf c3a7 e602 1263 b43f
000000d0: e301 0100 543d e23f e080 b8ff ee4d d8bf
000000e0: 1059 2c20 5880 e1bf de48 7cfc 6882 bbbf
000000f0: a6db d57f 7620 c33f d527 5f00 fc48 a63f
00000100: 2ec2 4082 3183 bebf 1f54 c1ff dd05 bebf
00000110: c6ba 9740 0966 d93f e4cd efff e3b4 c6bf
00000120: 508c a07f 2923 d63f a3f1 22fe 51e8 d0bf
00000130: 9ccc a3c1 a029 cdbf 37fd 4980 6aca d83f
00000140: a224 98ff 4c1b d23f 69b4 3c80 a16c cebf
00000150: 936b 0f40 13e5 d0bf 976f 2040 816b e13f
00000160: 181f 5281 248f cc3f 7270 3000 6b96 c63f
00000170: 0198 647f 9ad7 c03f cb06 3b80 0d3b e23f
00000180: a222 f5ff 0138 d0bf b732 9aff 9fc0 bbbf
00000190: 2cff e00d 5047 7d3f 95da d5ff 9aff c2bf
000001a0: aa8d 7cdf f091 d1bf 5c22 1980 6a90 dd3f
000001b0: 826e b200 3791 d33f 409e 1d00 51d3 cb3f
000001c0: 5ed5 69ff 34a8 b73f 1b9a 78ff e3e6 d3bf
000001d0: cbdc 0280 1e1e c6bf c8fa bfbf 3731 e1bf
000001e0: ae42 8280 995d cc3f 18fa f5fb 9f7b 96bf
000001f0: 8253 0f00 8c4c d03f 5234 3400 c934 b73f
-0.4086774586254463 0.2910197377340622 0.5326372391689062 -0.006278097667131025 -0.37022829047999994 0.38512045097883874 -0.3891854285211032 0.2953899501812481
0.08805191605000996 -0.25357136185100076 -0.40926438453584646 0.2456665038536261 -0.0014582870496304492 0.1867029666794729 0.44408202241042705 -0.1560575954311973
0.4311470984811441 -0.015583455681699426 -0.420247196638157 -0.150578170629842 0.044702351399683704 -0.41230523583838125 0.07146352575099696 0.14869815124056382
-0.0020932555693270773 0.07963669367623454 0.5699863433911186 -0.3797566888115522 -0.5469170215972401 -0.10745865024754006 0.14942818872415592 0.04352557663476345
-0.1191893523216627 -0.11727702611945333 0.3968527918613457 -0.1773953437510577 0.3458961244925307 -0.2641797048379663 -0.22783288436003069 0.38735449341034517
0.2829163070715116 -0.2376901508481837 -0.2639816403949961 0.5443731548762 0.22311836542598296 0.1764653922008424 0.1315796968494283 0.5697085861686103
-0.2534184455476326 -0.10840797415057578 0.007148087226653204 -0.14842545978509195 -0.27453252625329105 0.46193945417011206 0.3057382113272312 0.21738636499070374
0.09241038547209743 -0.31096744488096 -0.1727941632322881 -0.5372580285182602 0.22160643362851346 -0.021955966714353264 0.2546720505318306 0.09064918761232946

encoder.0.1.weight f8 [64]
00000000: 8ec4 3b70 bda9 ef3f 5b96 69b6 76cb ef3f
00000010: 64fb bca2 ff0e f23f d705 4b68 8ba5 ef3f
00000020: 6d08 4245 7c33 ef3f 675d d94e fb2c ef3f
00000030: 469b b77c 3e5e ef3f 0fb9 06b8 b0cd ef3f
00000040: 3c1b 49d3 9718 f13f 9b57 e763 8bd6 f03f
00000050: 9635 4728 ccf9 f13f d8b4 aeab 51b4 ef3f
00000060: 1f73 f308 b7e5 ef3f d36f 6441 5ba1 ee3f
00000070: 014c fa02 5d49 f23f 1d95 f1cb c230 f03f
00000080: 8e3e 0b35 3850 ef3f 747e 69c1 4241 ef3f
00000090: c985 542f 33cf f13f 885f 87c8 06af ed3f
000000a0: 05d0 2167 e63d f23f cd42 2bef c380 ef3f
000000b0: 462b f769 8760 f23f 6011 071c f82c ef3f
000000c0: cb8e e2e4 7975 ef3f ba72 c808 1a68 f03f
000000d0: ca8c b774 1aae ef3f 885e 25a7 6af4 ee3f
000000e0: 1706 bed7 c921 f23f 528e be33 0ef9 f13f
000000f0: cfe2 ff7e 75a4 ef3f 1874 a62c c78b ef3f
00000100: c87d 5d1d 25df f03f 3c2f 063d 6333 f03f
00000110: cb16 26e2 67ad ef3f 74f9 5396 dc57 f03f
00000120: 8deb e2f6 15a7 ee3f 21ce 8147 573c ef3f
00000130: 7471 d8e1 950c f23f c75e d081 bc24 f23f
00000140: cad8 b264 7777 ef3f 31bb 0896 0dc5 ef3f
00000150: b5f1 6939 2d64 ef3f 532e ea46 3da9 ef3f
00000160: 69d3 8272 42da ef3f 870e c18d 6aae ef3f
00000170: 8a43 6879 6123 f03f 9a40 4941 e65a f03f
00000180: 68a6 41cc f707 f03f 75e1 0c05 19c1 ef3f
00000190: 01d7 1619 f14a ef3f f812 7b68 4025 ef3f
000001a0: 4335 a732 9391 ee3f 703c 47c1 1749 ef3f
000001b0: c5c5 16d1 0038 f03f 6f88 e450 31fb ee3f
000001c0: 5e0f 4933 8067 f03f 0bcf 1fb8 ba33 ef3f
000001d0: 08eb f3a8 3f19 f03f f7b1 3446 ca9f ef3f
000001e0: 91de 9294 eac9 ef3f abe5 4dda 4a35 f03f
000001f0: d007 aeba 7663 ef3f f6a3 0ac5 c62e ef3f
0.989470214086525 0.993586879991834 1.128661761947762 0.9889580761884486 0.9750348427480852 0.9742409267445681 0.9802544055827205 0.9938586801779666
1.0685041669218682 1.0523790266501922 1.1234857152333908 0.9907615998432915 0.996791379434942 0.9571968342966052 1.1429109684293055 1.011904522566801
0.9785424266828657 0.9767164018230248 1.1130859230837464 0.9276155392244485 1.140112307414712 0.984468428732805 1.148566640784979 0.9742394015707241
0.9830903501901614 1.0254154532514534 0.9900028495434523 0.9673360123224066 1.1332491328652219 1.1233045598281888 0.988825557752614 0.9858127471994775
1.0544787547186036 1.0125458129650289 0.9899176995247329 1.0214506027401429 0.9578962156295902 0.9761158367750263 1.1280726263131244 1.1339688368661187
0.9833332983751231 0.992804329905857 0.9809785958637379 0.9894091019682015 0.9953930126708715 0.9900410431514083 1.0086378805610559 1.0221922445526048
1.0019453028457068 0.9923215006484002 0.9778981676124375 0.9732973137512024 0.955270384723612 0.9776724600759632 1.0136726539170564 0.9681631641326599
1.0252687457404686 0.9750646206070724 1.0061642265051791 0.9882556315620253 0.9933979894476171 1.0130108382712517 0.9808915754404044 0.9744600151508382

encoder.0.1.bias f8 [64]
00000000: 9e9f 3618 7c83 bbbf d394 0952 553a b6bf
00000010: b427 7395 51c8 c03f 5390 1d54 8dd4 b7bf
00000020: f48e ee6b 4c73 ab3f b7aa e86e 91f4 8cbf
00000030: bfa5 b56c 64ba ab3f bef1 eefa c336 c1bf
00000040: 8fdd ef9c 5496 ab3f a85d b414 1ec6 b63f
00000050: 7391 4173 db78 bf3f ba33 1281 bca6 8fbf
00000060: 5bee 2860 4587 a43f 19b2 1626 e61e b8bf
00000070: 3bf9 0ae9 fa3e c23f e7ab 39bd 5e60 6f3f
00000080: 984d d21c 8a0b b3bf 9336 4d60 0bba 98bf
00000090: 99dc 8706 72bd b73f 85d4 4914 30eb b7bf
000000a0: 1435 d269 3121 bf3f acd1 eac1 e734 a53f
000000b0: b14d 4c2d d931 c13f 403a 0bd2 79d6 b3bf
000000c0: a2d7 68ce d195 983f 4533 e150 282e aa3f
000000d0: 1afe 5dd9 f606 863f a63b cd8d 2423 b7bf
000000e0: a7fb 8af1 d457 c13f 40ff d245 b10b be3f
000000f0: b98d 8a52 eb3f c4bf e3dd b1a9 cfb6 babf
00000100: 5091 246d 6fdb b23f fd1d 243d 1346 ad3f
00000110: 2e5c 36a2 9d99 b2bf 30e1 2b50 5c17 a33f
00000120: 3d22 5546 a5db bcbf 877d b09c 9863 b5bf
00000130: 3112 e538 9765 c13f f930 bb9d 8b4e c13f
00000140: f2ee c952 bc5e c1bf 08c9 ab28 bc9c c4bf
00000150: 3954 4e0b 985e c4bf bd81 474d 758e bebf
00000160: 3971 de5c 6a92 9ebf f367 bae2 adde b1bf
00000170: 7df4 ce7d 0992 963f 9e12 433e 9b77 a73f
00000180: e09a 9936 d33c b2bf 2540 5c90 b00a a4bf
00000190: e224 482a bcb2 bfbf eee3 ad7b 96a7 9b3f
000001a0: 456c 7423 1d4c c0bf f33c 2e48 b146 833f
000001b0: 768b 3075 ec3d 42bf e275 c5b9 879f babf
000001c0: 6fe3 b605 79d7 bfbf 47cb 2aa4 b5ae adbf
000001d0: b67d 6c42 0e63 c1bf 9edc ff50 5439 b13f
000001e0: 6988 f125 0e83 ab3f 29ba 0946 e306 a23f
000001f0: 96b8 7f3d 31fc 8c3f 01fd 406b c1e4 c0bf
-0.10747504798075488 -0.08682759526125787 0.1311132411704513 -0.09308703712082549 0.053614032912518456 -0.014138351628465313 0.05415643527050972 -0.1344838118801714
0.053881305844636455 0.08896053319437291 0.12293788493986373 -0.01545474308866256 0.040094535816447695 -0.09422148160837941 0.14254700068517842 0.0038301325201266392
-0.07439482883119408 -0.024147203209671075 0.09273445758286626 -0.09343243117639773 0.12160023530505654 0.041419260427037 0.13433375083751067 -0.07749139192603938
0.02400901624988417 0.05113340365696798 0.010755470760840647 -0.0903799864001785 0.13549291414343864 0.11736591295902787 -0.15820066004117253 -0.10435197728099115
0.07366081633205579 0.05717525597907167 -0.07265649042379671 0.037287602221058314 -0.11272652594664918 -0.0835509665052908 0.1359128024870571 0.13520951463431866
-0.13570360224172578 -0.16103317247286264 -0.1591367774205155 -0.11936123978330833 -0.02985540572955012 -0.06980406556468192 0.022041462234245735 0.04583439955743994
-0.07124061663635528 -0.03914405595980978 -0.12382102997084446 0.027006484316618833 -0.1273228095168141 0.009412179007794985 -0.0005566982821430938 -0.10399673734124051
-0.12438160314094458 -0.057973552980362934 -0.13583544009541776 0.06728102662588006 0.05373424733331051 0.03520879964786545 0.014152893723771858 -0.13198106514935407

encoder.0.1.running_mean f8 [64]
00000000: 6a52 1c0f 539f d9bf 3237 2cee 8a79 d33f
00000010: 4505 f978 e98c e03f a7e8 075f 9481 883f
00000020: 0c2b ab52 f414 d8bf 9a62 c75a 8593 d83f
00000030: d08c 7686 111f d8bf 4b0e a1ca e9da d33f
00000040: cc31 4a0b cb07 b43f af8f 107c 5ea4 d0bf
00000050: 4a6a b10b 8aaf dbbf 43d8 c527 c58d d03f
00000060: 9efb f885 e424 75bf f24b f121 2ee2 c73f
00000070: b732 2cff 9db4 db3f fc4b 6a97 ec86 c4bf
00000080: d9e8 a33c b0ec dc3f d04f 6165 4430 96bf
00000090: f5b6 01e4 2897 dbbf ae99 54a4 ec15 c3bf
000000a0: cfa1 7840 bed2 a13f ac06 e587 c408 dbbf
000000b0: 4b59 c53e 91d5 ae3f c123 3fad 6b9e c33f
000000c0: 900e 52c0 04c7 87bf 5307 33ac 0201 b23f
000000d0: b3c7 e7df 7e01 e23f fa2e eebf a696 d7bf
000000e0: 598e 11d8 6bfa e1bf 01c6 b78e 7873 bfbf
000000f0: f2d0 71e5 2e48 c43f b002 8627 a669 ac3f
00000100: 995d 8de0 6bda c0bf 5c99 5519 7304 c0bf
00000110: cd4b 5b81 193c d93f 893b 7890 828d c8bf
00000120: 5f22 3e32 eda3 d53f 3b99 7dcb 031f d1bf
00000130: 0ea7 b879 5b93 cfbf e6b7 bc1a 65f3 d73f
00000140: f2a3 6c31 e768 d23f 9788 2cef c532 ccbf
00000150: f88c edf6 682a d0bf a15f f53b 8fe1 e13f
00000160: 4dd5 3e22 8c1d cc3f e311 72fe cf44 c83f
00000170: 4ad8 b7b0 17fc bf3f 39f0 242c 2b0d e23f
00000180: 6992 1029 f861 cebf 1745 0f8a ea64 b6bf
00000190: e23a 3a35 6b96 853f 04f6 2263 05d1 c1bf
000001a0: 2010 09b2 7e59 d1bf eaaa 0d15 780a de3f
000001b0: b1d7 5f2c cd47 d33f 78a0 e23a 8cb5 cc3f
000001c0: 255c 8f2b 9d0b b73f b8af c2ba 9668 d3bf
000001d0: 756d de56 5bc6 c5bf eb35 6467 bc0c e1bf
000001e0: 50db c018 4c5b cb3f 2820 3e00 d2f8 9cbf
000001f0: f5cb 1137 a367 cf3f 8018 98e8 b751 b83f
-0.40034939265868863 0.3042933774857942 0.5172011721371425 0.011965903425324177 -0.376278954249458 0.3840039621841612 -0.3768962681881023 0.31023640430450844
0.0782439138949435 -0.2600322925156843 -0.43258906499764704 0.2586529625326685 -0.005162136716136438 0.1865899720893079 0.43289899748996724 -0.16036755936929115
0.45194631502057586 -0.021668499648811068 -0.43110105768469903 -0.14910657905529717 0.03481096779825387 -0.42241013785324344 0.06022313967939626 0.15327211341198502
-0.01161006652751631 0.07032791809163301 0.5626825688507239 -0.36857002967074914 -0.561819002160017 -0.12285569652865293 0.15845285609578458 0.05549353821243608
-0.13166569199050285 -0.1251357911780343 0.39429319031222293 -0.19181854299719373 0.33813028246416893 -0.26751799461489484 -0.24668448871062093 0.37423064814617957
0.28765277697181013 -0.22029947451034523 -0.2525885020642842 0.5587841197075144 0.21965171501293881 0.18959999012089587 0.12494037689597906 0.5641075002854513
-0.2373647881041905 -0.08747735853764414 0.010540807306168746 -0.13919131603863388 -0.27108733545560604 0.4693889813994888 0.30125741322933225 0.22429039836174858
0.09002096475102002 -0.3032585929711291 -0.17011586896556322 -0.5328046817173208 0.21372367104205603 -0.028292924179851436 0.2453502673048146 0.09499692371909596

encoder.0.1.running_var f8 [64]
00000000: 2490 a9d3 1f8c 673f 6600 0d84 caac 743f
00000010: 3f0b 4354 57e3 793f ba73 5da9 3108 813f
00000020: fa18 a837 c4da 543f bd19 4a23 e797 523f
00000030: fc06 92cf 0302 783f 1243 a7d8 4e9a 7a3f
00000040: 6a4d 2f1c c81e 673f 80a2 119d e875 683f
00000050: f32a 114d d94c 8c3f fd28 ace0 8c02 763f
00000060: a723 d065 1c4f 603f a37d 82eb 93d3 563f
00000070: b92c 6d5b 3c3d 693f a3ba 51b3 f49b 463f
00000080: fe7e 6dea e29d 863f 6cb2 eda2 0975 553f
00000090: f9c1 3395 ce4f 683f feb0 2f8e 458c 2e3f
000000a0: f3b1 e638 9df8 643f abe2 f784 f5e1 703f
000000b0: 3c18 e731 2c77 693f b9e4 1637 2177 453f
000000c0: f036 2598 ce57 723f 1b86 676d a9c3 633f
000000d0: cf0c 4c69 8735 593f 4b8c 16ad 30fd 6c3f
000000e0: 359a a841 29c5 763f 502f 27c1 8163 783f
000000f0: d00e 9bf0 4960 703f d4b4 4a8f 6f15 7a3f
00000100: cf7a 9e73 2b41 703f 5086 68e7 b105 643f
00000110: 10f7 de8c 4466 503f 4732 5f4a b111 7e3f
00000120: 9a78 9d8e 4b77 653f 3767 900e 2fd8 363f
00000130: fd5a f1f9 4f7d 833f 5499 1a6d ddc8 713f
00000140: e957 d7d5 bbf0 633f 745d 2c30 1453 803f
00000150: 6efa d135 8cbb 6d3f b826 d33d f717 7c3f
00000160: 8e39 2cda 22ac 363f a167 17f4 fdc8 713f
00000170: 5e72 60ce 3521 6c3f 3409 7751 8814 633f
00000180: 48b8 75f6 8162 7d3f e225 446e 4ff4 863f
00000190: 93a8 6a5d e880 463f 213a 0510 8690 653f
000001a0: d504 740a ed9f 443f 4ecf 29d9 af2d 623f
000001b0: ca75 6947 6d6a 423f 0809 b67e 98cf 623f
000001c0: f03f f28c 779e 5c3f 51c1 be67 2eec 623f
000001d0: 2c4e d859 9fcb 4e3f 5360 59ad 9f50 543f
000001e0: 73ea 52bb 8319 633f 0d8d a0a6 4c3a 563f
000001f0: 1c48 cd65 7779 6f3f 7c3c 43a1 254c 613f
0.002874433671694392 0.005047598912654027 0.00632032502125207 0.008316410046683365 0.0012728611169464097 0.0011348492818413624 0.00586129654505085 0.006494815820091275
0.002822295036347168 0.002985910724010943 0.013818452515029977 0.005373525908689778 0.001990848030349618 0.0013932175188883032 0.003080957303074419 0.0006899781061642972
0.011043331889311055 0.001309642229638498 0.0029677424259875154 0.00023306225838782413 0.00255995471453318 0.004121741352257994 0.0031085837538027666 0.000655070513111109
0.004478270539335347 0.002412634766401534 0.0015386412025584666 0.0035386992173740742 0.005559121282692693 0.005954272130519758 0.0039980781818404615 0.006368099003038103
0.0039684007005280205 0.002444121807699408 0.0010009450374889907 0.0073410916720147495 0.0026203609203739433 0.0003485789189326851 0.009516358199261438 0.0043419503651079445
0.0024341267260110555 0.00797096035016296 0.003629468772998571 0.0068587930556504514 0.00034595347294521454 0.0043420715387244855 0.0034338045980020623 0.00232912659314013
0.007174022356919059 0.011208172371442286 0.0006867537111550241 0.002632390824295131 0.0006294162202779239 0.002219050840091364 0.0005620034779202862 0.002296254960755143
0.0017467658506440352 0.0023098856308580236 0.0009398010331004895 0.0012399253222579356 0.0023315022359303105 0.00135667310178961 0.003842099379121512 0.0021115050277341046

encoder.1.0.weight f8 [64, 64, 3]
00000000: 4d2b 1be4 7533 8a3f 6d57 a656 38f4 7cbf
00000010: f7c0 dc49 d561 983f 666e 4564 ccf9 a2bf
00000020: 9385 3a81 b586 b0bf 47e0 e370 c55c b13f
00000030: 18eb 45d1 d19b 753f 8fbd 12ae 6b90 ac3f
00000040: b579 b455 a929 b83f c0c9 7c3d a253 ae3f
00000050: 836c 7e02 35ac b3bf a17a 80e9 e374 a63f
00000060: 174c 32f9 e9a4 a53f 1f15 3f3c e6aa a23f
00000070: 3917 46f6 da11 80bf c2ab 02b2 c364 74bf
00000080: 67f3 8eb8 1b58 a43f 4890 3c5a bdca b1bf
00000090: ada9 550e 2625 afbf d08f 6fce ef44 943f
000000a0: 959e ca4b 0c32 ab3f 483b 071f 1021 73bf
000000b0: c5f6 feaa e86d 963f 08c5 2d66 4a8f a1bf
000000c0: b05f 8346 4823 9c3f 6d1d 62b3 2bc3 ab3f
000000d0: 784f 09c4 d619 b43f 1818 fbaf 1d80 973f
000000e0: 50b5 99a1 3ba0 a1bf 93e1 2d93 b74a 963f
000000f0: 17ee 234c 262d b23f 9f1c 25fd 828d aa3f
00000100: 71a1 0d72 69cf 55bf e45e 470a 9ab2 9b3f
00000110: 3125 e98f c6bb acbf a78e fb58 378c 6e3f
00000120: 4f99 f1cf c28c a13f 6534 57eb da9a 90bf
00000130: 2ec9 627a e99c a83f bc5c 6a48 149d a63f
00000140: 2618 3465 235a a6bf 6d9a 50aa 99ee a83f
00000150: c7f4 7f1d afd1 b33f 81d2 e599 a438 913f
00000160: f812 7fb9 3596 b63f c0bf 3f27 a427 aabf
00000170: 0c6b ca1c 02eb 873f c59b e667 00b5 81bf
00000180: 351b aace c301 8e3f cff1 aa71 62f8 83bf
00000190: 3a1a 0b22 7a18 abbf 7ba8 7d8c 3d7c 913f
000001a0: 0a7c e6ec e9d6 98bf d5dd ee5f 506d 93bf
000001b0: 9508 da6b a4c6 84bf 6985 2f69 9699 a73f
000001c0: 4716 a741 3855 a9bf 8ba7 d2e9 b74b 973f
000001d0: fcbd 4550 4cfc 83bf ac7c b2e3 0746 aabf
000001e0: 95f0 8136 43e2 9d3f c61f 278b 9335 65bf
000001f0: 40f7 a849 d2c6 ba3f 8b5b 6608 2998 ab3f
00000200: 6465 a5ea 05e4 9c3f 764c 8152 e3a1 aabf
00000210: 046b ba35 ba34 b03f e047 3c20 28a9 aa3f
00000220: 4446 6b10 fd54 b03f 24b2 45ab e221 adbf
00000230: 304c f476 180c 9fbf ac0b 9502 784b b4bf
00000240: 311e 0891 87f8 923f 0ff3 3f79 ee3d 86bf
00000250: 116f a1bc 6bc2 a03f 2791 930c 91b2 aabf
00000260: 1b4b 75c2 1bab a83f 8f43 92dc 47a1 a0bf
00000270: f2d7 0753 2c5c abbf 791d babc 3be3 a53f
00000280: 5a3f 54e6 b332 a83f e3b5 4854 bf1e a93f
00000290: 2b51 96eb 82e8 8e3f 5fae 8f1c da1b 76bf
000002a0: 34dc faed ebbf b6bf 64dc 441b 8a0c a1bf
000002b0: f961 40b7 0c53 b7bf 407b ed37 3183 bd3f
000002c0: 40ac 5de7 179b 6fbf 8f91 0fb7 a29e ba3f
000002d0: c979 1815 bcb8 a63f f2c0 d2ff dbda a93f
000002e0: 9d8f 7de2 908e 94bf 71a2 bef4 9b77 a3bf
000002f0: b4c8 841e 5131 a73f f19d daf4 9913 8cbf
00000300: 1131 c1fe 0787 9c3f f8bb b5ad 3d09 a5bf
00000310: c303 f2d2 3e5b 8b3f 4c16 c3df d123 943f
00000320: 870e 7dfe 62a9 a93f 98ae 7c12 b877 a6bf
00000330: 839e 92bf 641a b13f fda4 aef8 bea6 b0bf
00000340: 75ff fb56 e3d1 8dbf c3b8 5067 1827 a7bf
00000350: d8d2 a881 8ff3 a63f 8a42 56aa 276d b0bf
00000360: 2b6b dd56 e3f2 a03f 3166 6a12 314d b33f
00000370: 8244 fd50 dc63 973f 1c31 c710 f6c7 b03f
00000380: 0c78 59c1 bef2 aabf 963f fc73 aa48 adbf
00000390: 68b5 7622 310f bd3f c44a d12d bedd b33f
000003a0: ea72 2983 ea00 8ebf 0b9e 6254 ced6 b23f
000003b0: f4b8 c8c1 f0ca 88bf b8b0 dc15 ec74 a73f
000003c0: d2a7 1f98 4b2c a03f 4ea7 5b4b ea48 963f
000003d0: 0ad1 d2ee 98be b03f c4e8 dfcf 3303 62bf
000003e0: 3802 3a9a f478 adbf fe63 d92e 0ff2 74bf
000003f0: 4297 7bc7 0abd ab3f 5a20 a058 30b9 abbf
00000400: 7321 d990 3bc0 9abf 14a1 d8fe 08d1 b0bf
00000410: e5d5 c511 1757 81bf 2f8b c665 51fc aa3f
00000420: 4953 1721 dd54 923f f576 1942 d8c9 9ebf
00000430: 635c 4466 2364 44bf 7120 238a ce19 a6bf
00000440: 16a1 4380 b714 b3bf 2d98 3001 c2aa 64bf
00000450: 7e4b c5bf 238a 953f 76e8 fb99 e612 a9bf
00000460: 9552 2d1b 34b4 72bf a565 d868 c3b3 603f
00000470: dd85 5ac9 712b a2bf 8099 a158 91d6 9d3f
00000480: 53e8 6a95 4d60 a23f 8b72 5a58 0f28 b3bf
00000490: 4765 830b 6ec9 9abf 8cea 2125 8052 aabf
000004a0: 5754 f709 d92a b4bf 41f7 3423 6e22 933f
000004b0: d677 36c5 7cd2 9ebf af98 d61e 255f b2bf
000004c0: 05a0 9044 cb9a aebf 83f1 d331 95c9 b4bf
000004d0: ceae 97ee 9d29 a63f 53ae 8a0f 1be1 a7bf
000004e0: ce43 1375 94f1 9c3f 1420 8381 aabc a8bf
000004f0: 34db 3c97 6b09 90bf ec77 ae8c 4bfc b6bf
00000500: 22cf 63d2 8320 b0bf 12a7 4638 3dad a6bf
00000510: 0e38 1f2a 9fa2 a63f 69c7 df0b 0ca6 a13f
00000520: 7194 dd38 780b 9fbf 17fa 8954 ae4a b1bf
00000530: d9c8 c33f 37c3 783f 6e31 ee02 8074 9d3f
00000540: acb5 7495 3924 95bf 5778 8fba 0627 aabf
00000550: b8b7 1af0 4e3a a23f 1816 a470 ebcf 9ebf
00000560: 9152 c905 7913 a1bf 07e0 c805 9fbc 573f
00000570: bd05 491b 74e9 973f ec72 cad1 a584 9f3f
00000580: 1900 88aa ebf4 8abf 9a25 11ef d2ad 9abf
00000590: 3261 181c 1247 a83f 5652 6630 53e7 a6bf
000005a0: a82d 5af9 b223 ac3f c9b3 9330 89ee ae3f
000005b0: 9697 4d6e 5858 acbf 7bd9 f9f5 08b6 963f
000005c0: 599e d7a5 db19 a53f baa5 dadc 42b0 acbf
000005d0: 9906 a04c 75ed 8cbf 77aa 36fd 42fd aabf
000005e0: c36d 32f8 18bb 9a3f ca44 bdb6 f696 a63f
000005f0: d1a4 9f48 0f0f b0bf 2c07 64cd 4189 ab3f
00000600: 363f d171 c64b 90bf bc56 2bab 2c26 acbf
00000610: 2125 abce a614 903f 1479 5cbd 39c0 9abf
00000620: 66cd ed56 fd74 9cbf 7d0e ba5c c67b 923f
00000630: 818b 1c4b 1fe4 b43f 0f32 a56a bba9 a43f
00000640: 6ff2 7489 a298 b53f 84f5 d04b bf8f b5bf
00000650: 7a32 3a45 72dc b2bf b732 385c 0424 a43f
00000660: c095 632b 64ea babf e268 5016 6cfa abbf
00000670: 9598 8699 d586 abbf 412a 06c6 6353 aabf
00000680: 4104 f40e 1448 b2bf b96a 415e bcfc 97bf
00000690: 6e19 b60f 05c1 a6bf f15e 4ed4 7e45 adbf
000006a0: fb5e 6183 b630 b4bf 4f7d 9238 eab0 b4bf
000006b0: 3b59 7074 7e2e adbf cd7e 7bf8 207a b1bf
000006c0: 23fd 2bb8 8a5d b63f 3c45 319c 3d92 89bf
000006d0: e743 2c94 316b ad3f 316d 7f36 3a46 a6bf
000006e0: 837e 52d9 7061 b1bf 0c56 a06c 0404 a73f
000006f0: 9f18 2ba6 2aea 9e3f c972 b85c 2f17 a83f
00000700: 0c21 f3df e480 9c3f faca c3a7 e41b b9bf
00000710: 0939 47a6 91d7 753f 6065 3b4a fd35 a33f
00000720: c4a8 e8b0 874c 9cbf 312c 699c 30f5 a4bf
00000730: c715 207f 7b02 b5bf ca26 5128 163b b0bf
00000740: d858 af67 b9d3 b2bf a739 1b2b 6518 a73f
00000750: f945 5d8f 7314 b63f 7e19 972d 5b19 ba3f
00000760: e64f 893a 5098 893f 46e7 c704 391d bcbf
00000770: 7558 98a6 99c6 a7bf c17b 8da6 c7b0 a53f
00000780: aac3 721a d94d a7bf a703 5239 2a56 b0bf
00000790: 7aca c62d fc45 8c3f 9535 e3e6 efed 91bf
000007a0: f37d 25a1 343c ab3f c6f1 01c4 1b70 8e3f
000007b0: 67bf 8f9f dd49 b63f e2e6 381d b0b9 a5bf
000007c0: cf87 4ac5 2d5e 8cbf aaf7 3990 2266 72bf
000007d0: 3e0c ae7e 4370 ae3f 732f e814 c15f 9b3f
000007e0: 7896 d15a c4bd 60bf eeca 387d 2250 b73f
000007f0: e82f b71d a701 903f 6955 887c 57ae b8bf
0.012793465636965396 -0.0070688439103799685 0.023810703881452757 -0.0370620605851542 -0.06455549626345762 0.06782182699305493 0.005275554275040027 0.05578934192578366
0.09438570349127569 0.05923182488040224 -0.07684642134556623 0.043860552076002486 0.042273818654529 0.03646010861806758 -0.007846556320838626 -0.0049789089536415605
0.03973471286688018 -0.06949981167832775 -0.06083029675467642 0.019794222807732187 0.05311621117772095 -0.004670203183606621 0.021903644024624542 -0.034296345685001894
0.027478341392310035 0.05422340931641654 0.07851927076381837 0.022949661127107474 -0.03442560527478611 0.021769398077113044 0.07100142821212106 0.051860898400769566
-0.001331189130917645 0.027048498990409522 -0.05612011439058973 0.003728969670065602 0.03427704609275627 -0.01621572553067487 0.0480721437355832 0.044167169418125124
-0.04365645037073333 0.04869537548102163 0.07741827459536231 0.016817638295338447 0.08822952059479039 -0.05108368853677758 0.011678711417791664 -0.008646014376450748
0.014651803726577131 -0.009751099676002987 -0.05292112031525105 0.017075502109414203 -0.024257330974816006 -0.01897168717888838 -0.010144505063412171 0.046093654956858306
-0.04947830010818826 0.022749780317702622 -0.009758564185829315 -0.05131554274088876 0.02918343563258981 -0.002589023753191785 0.10459627436008834 0.05389526584183731
0.028213589140567832 -0.05201635725156788 0.06330455600474855 0.05207181352137957 0.06379682207923404 -0.05689915028310491 -0.030319578419106985 -0.07927656233827801
0.018526190020592807 -0.010860312533617326 0.032733313347050104 -0.05214360502739828 0.048180453765459506 -0.0324804741623047 -0.0534376002650986 0.04274927786633049
0.04726183115610523 0.04906270889146549 0.015091917814779329 -0.005397655485448987 -0.08886599121147826 -0.033298793629392504 -0.09111098741448832 0.11528308501645501
-0.003858133971268468 0.10398308724649595 0.044378163886210915 0.050497889498162155 -0.020075095962411294 -0.03802192080121792 0.04529813287298748 -0.013709261689043269
0.027858853267660303 -0.041086127714940746 0.013357630550901228 0.019667891771652443 0.05012044292973621 -0.04388213372871269 0.06680898358410485 -0.06504434176772018
-0.014560485927631575 -0.045220148669942194 0.044826969697543795 -0.0641655722486211 0.03310308871615172 0.07539660167312758 0.02284187549895878 0.06555116567250646
-0.052633248426659035 -0.0571950213035272 0.11351306048773824 0.0776022779330488 -0.014650184753173662 0.07359017906366476 -0.012105828203030168 0.04581392065878859
0.03158794624307827 0.02176252446125853 0.06540828543331059 -0.0021987926438643297 -0.05756344206475145 -0.0051136582456701146 0.05417665181248178 -0.054147253817121224
-0.026123934474783405 -0.06568962308722731 -0.00846689246166483 0.05270628325822312 0.017901854653092717 -0.030066851648704113 -0.0006222889756227864 -0.04316564022298131
-0.07453486329507472 -0.0025228299287105766 0.021034773425820934 -0.04897232656181043 -0.004566386737526647 0.0020388428299724253 -0.0354877050679183 0.029138823542234515
0.035890984048322715 -0.07483001620352973 -0.026159018948282122 -0.051410679371618334 -0.07877880566896188 0.018686028384073742 -0.0300998206490631 -0.0717642975128878
-0.05977473461126696 -0.08120090929509698 0.04328626191622008 -0.04663929524153034 0.028265304227548964 -0.04831440764388631 -0.015660935502832277 -0.08978721794707639
-0.0629961384436766 -0.04429045974695901 0.0442094553869624 0.034469963502387575 -0.030317190619275573 -0.06754579128207926 0.006045547310565357 0.02876472490201947
-0.02064599966722873 -0.051078996919145574 0.03560110741578576 -0.030090025663431857 -0.033351690250730155 0.0014487793879549586 0.02335149208579933 0.03077944844209217
-0.013162461415959158 -0.02605371078633354 0.04741722672423733 -0.044733619363942864 0.05495986265040226 0.060413634471707285 -0.055361522164090335 0.02217878342931943
0.04121290587846422 -0.0560322661015777 -0.014124790573990341 -0.05271348324761942 0.026104345463506606 0.04412051182465289 -0.06272979281461068 0.0537815631123649
-0.01591405934988118 -0.0549787482211008 0.015703779567762702 -0.02612390726346188 -0.027790029936523374 0.018050288590997433 0.08160586913849778 0.0403574531252141
0.08436027389411448 -0.08422465897543502 -0.07367624464149883 0.0393372881481801 -0.10513902720739221 -0.05464494488133355 -0.053763079634607504 -0.051417463229047396
-0.07141232838695634 -0.023425048115636147 -0.044441373985182206 -0.05717083303096427 -0.07886830050972186 -0.0808245075336249 -0.05699534579632589 -0.06826978746857577
0.08736483570463753 -0.01248596318160599 0.05745844777823788 -0.04350454249626024 -0.06789307885855504 0.044952524433181734 0.03019014968119704 0.04705188757745799
0.027835441750341736 -0.09808186622448636 0.005332535689787096 0.037521281539464324 -0.027635688946397577 -0.040933150380248036 -0.08206912854810532 -0.06340158924390518
-0.07354315549250445 0.045107995521550585 0.08624956369501281 0.10194940436404029 0.012497545992268 -0.10982090346069837 -0.04643707426673497 0.04236434848893778
-0.045515808561851515 -0.0638147726003938 0.01380536093424677 -0.01750922056890188 0.05319370715255536 0.014862267417122942 0.08706460137886794 -0.0424323115989418
-0.013851506789538974 -0.0044919347889144454 0.05945025369057831 0.026732460881290842 -0.002043612962142668 0.09106650883840547 0.015631304920859096 -0.09641024389596499

encoder.1.0.bias f8 [64]
00000000: 17b3 9e7f c53d 8fbf 0802 0b80 635b 963f
00000010: b5a0 01c0 462e a63f 2a83 4de0 7191 a6bf
00000020: 3d82 0580 9699 9b3f 692b e2ff 4ea5 8c3f
00000030: ff34 debf 36fe a03f ff6e 03c0 5cd5 b0bf
00000040: d30d 1a80 d645 923f 6d7b 0040 77a8 a93f
00000050: 243f 0900 cf69 9e3f 99b6 fdbf ff6c acbf
00000060: 2a53 3200 34ad 893f 5d15 1980 44dd b13f
00000070: 0996 13c0 f68f a1bf 3dce 52c0 4d08 a03f
00000080: 1651 0f00 3852 853f 0c48 1120 e07b a0bf
00000090: 7d92 1000 90e2 82bf d94c 0940 3078 a53f
000000a0: 5c09 d5d3 1f34 38bf 2b50 f67f d9a5 9bbf
000000b0: 8a3a f1ff 305b 83bf 2ccc 2880 e41e 9a3f
000000c0: 7509 ff3f f011 aa3f 0acf 0880 48ef 9bbf
000000d0: 319f 2440 6ea7 92bf 0bf6 efff 57b6 a33f
000000e0: dfef fb81 ae45 93bf 8651 fe3f 240a acbf
000000f0: b9f7 0f00 9008 68bf 035f 2100 29d8 923f
00000100: c330 0640 965a b13f 498a 0300 0f38 9e3f
00000110: 5a2a 0340 b9e5 a03f ead0 fc7f 6538 af3f
00000120: 36a2 1000 63ff 923f 69b9 ffff 85eb ad3f
00000130: 9f5d fcbf 1b98 a53f e51d 0580 33ea a1bf
00000140: 9669 d205 307a 48bf 3f4c 2580 614e 84bf
00000150: 345c 0300 3de1 89bf 2115 7600 1619 973f
00000160: 2de7 3d00 0be6 84bf 114b ffbf 5104 a03f
00000170: c2eb 0060 392b b1bf d512 0180 8bc1 a93f
00000180: 045b e8ff c544 95bf 0d13 00a0 4456 b2bf
00000190: dad8 eebf 239b 9bbf c985 2f00 b4ac 833f
000001a0: 7aa7 feff 8c26 a93f 9166 d0ff c728 6cbf
000001b0: 2b79 0780 2bd1 ab3f 8d98 0200 c64e a83f
000001c0: d3cc c9ff 504d ad3f 888a dd00 609c 75bf
000001d0: 294f 01a0 ddf9 aabf 56f5 ea7f 50a1 95bf
000001e0: e327 5c00 436e 953f c1dc 0200 b33f ab3f
000001f0: ef28 e87f c81d 9d3f 71fc d3ff 30af 8e3f
-0.015254538495207677 0.021832995119213577 0.04332181066348665 -0.04407840598174169 0.026953078807652842 0.013987176116889892 0.033189497872720956 -0.06575565040423824
0.0178445354163282 0.05011341720841398 0.029700502755360195 -0.05551909655228577 0.012537389999388877 0.06978252532379288 -0.03430148214992463 0.03131335232447128
0.010410726072145365 -0.03219509498070758 -0.009221196176505625 0.04193259031003444 -0.00036931778943851356 -0.026999853549185254 -0.00945127755235588 0.025508470842577832
0.050918109714546946 -0.027279980482673806 -0.01821682230470784 0.03850054740176397 -0.018820501979447953 -0.054764874278734374 -0.0029337704186209426 0.018402710564571666
0.06778849661913271 0.02951072156509785 0.033002652229318044 0.06097714602802447 0.018552348021474617 0.05843752622591831 0.042176119981543574 -0.034989938142242306
-0.0007469877706570034 -0.009915124629207848 -0.012636639178181232 0.02255663278403575 -0.010204397148971001 0.03128295391765879 -0.06706579774701907 0.05030475556899253
-0.020770162338602752 -0.0716288462281904 -0.026958998288784432 0.00960674882475389 0.04912224411903217 -0.0034374147640051163 0.054330214861453584 0.04747599363445074
0.05723050234237239 -0.005276083958821183 -0.05268757417857579 -0.02112317829845741 0.020928427597972542 0.05322036147247778 0.02843392639810188 0.014982588584187636

encoder.1.1.weight f8 [64]
00000000: 639b fb54 479c ef3f 3156 75b9 d0b1 ef3f
00000010: 8ad9 75ec f3ce ee3f 8eec 9e83 05ef f03f
00000020: d397 01d2 59ee ef3f ab4f a7c9 5965 ef3f
00000030: c701 d4aa d443 f13f caf1 f35a c301 ef3f
00000040: d69b eacd 5b36 ef3f ca1f 7fc4 c593 ee3f
00000050: 27a0 1751 8210 ef3f 094f 3256 7f83 ef3f
00000060: 183e 6048 e55a ef3f 54d7 e620 301b ef3f
00000070: 643c 86fa 6d23 f03f e61f 5a22 c2ed f03f
00000080: cf11 932d 59df ee3f cc8b 4c74 d92f f13f
00000090: c2a5 ee9d 96aa ee3f 81bb 973d 1f60 ef3f
000000a0: a1da 65b6 eaf0 f03f dd6f a403 3448 f03f
000000b0: 55cb e535 f0d7 ee3f 2a1f e319 7f06 f03f
000000c0: 34bf 64e6 28c1 ee3f 7980 2e7f 518d f03f
000000d0: 8d90 451c 2162 f13f 6c47 05b8 ce90 f03f
000000e0: 54a2 9d99 bf3c f13f 1a11 f763 8f05 ef3f
000000f0: c115 db7d ce3d ef3f 3589 587e 8f69 f03f
00000100: ffe4 95ee 1450 f03f 72a8 7453 21b4 f03f
00000110: a6ab cd3e 2eb1 ee3f e136 8895 d633 f03f
00000120: c521 5aad a268 ef3f 3493 8f97 5407 ef3f
00000130: 8102 68ef fc02 f03f 4bac eaeb 0ef7 ed3f
00000140: 4dca a743 e397 ef3f de73 6977 1529 f13f
00000150: 02c4 7e22 5d2d ee3f 0109 8229 de0d f03f
00000160: fb55 ad38 40ac ef3f b335 32c4 fded ef3f
00000170: 3c1a db89 51af ef3f 2a8b 998e ca46 ef3f
00000180: 917b b499 0d7c ef3f 8d15 c798 fb37 ef3f
00000190: 84f9 1824 df98 ee3f ede5 fac7 9683 f03f
000001a0: b93e 8203 0e0a f03f 6c45 4dc7 e25b ef3f
000001b0: 22d6 2d1c 5151 f03f 383b f3eb 4fa6 f03f
000001c0: 24c5 f708 502d f13f c7ef aa0e b8b6 f03f
000001d0: a8e0 e7f2 2b2a ee3f 039d db3b 7520 ef3f
000001e0: c336 2db1 6880 f03f e75c fd83 d66b ef3f
000001f0: 22b4 f6d4 d358 ef3f 168a 270f c1f0 ef3f
0.9878269824811067 0.9904559728844956 0.9627627962461685 1.0583548680722603 0.9978455640491525 0.9811219156786043 1.079060237214536 0.9689652229713428
0.9753855726056553 0.9555386388610654 0.9707652648767223 0.9848019298101188 0.979845658644936 0.9720688479053288 1.0086498056514523 1.0580464689137385
0.9647642030836837 1.0741819899492269 0.9583237728704079 0.9804836466772572 1.0588175892750444 1.0176277296331968 0.963859658497635 1.0015860568254973
0.9610790729402425 1.0345015495331877 1.0864573578228687 1.035353392439414 1.0773311615577272 0.9694287254756404 0.9762947519417865 1.0257716117271916
1.0195512122866714 1.0439770946491334 0.9591284968022264 1.0126558152291454 0.9815228830130357 0.9696448288128523 1.0007294990356572 0.9364084823367959
0.9872909852404718 1.0725302376297274 0.9430375741704895 1.0033856984524052 0.9897767168974377 0.9978016693072987 0.9901511852738802 0.977391508593745
0.9838932039309488 0.9755838378847997 0.9561610894232193 1.032126218006279 1.002454770761615 0.9799665348638604 1.0198527432197655 1.0406035630036978
1.073562655478164 1.0446091244657383 0.9426479095700602 0.9727121514414708 1.031349842163238 0.9819138124393277 0.9795931968161578 0.9981389327988974

encoder.1.1.bias f8 [64]
00000000: 28f5 dac6 172f 9c3f 6a1c dcce 1a61 963f
00000010: 8ecd a5a8 9fff b0bf 398a 3ca1 e2a3 ba3f
00000020: d6f7 40d0 ac7a a13f 6857 fc7a e250 b9bf
00000030: 8204 4ac0 7677 b63f 51c2 c88e 67f9 bcbf
00000040: 153a fb48 6294 bebf b9c8 3806 dd1e 93bf
00000050: 16e7 8595 92bc 8c3f da43 31ff 6883 a73f
00000060: f292 16da 8550 b0bf 3514 0bed 4ec8 bbbf
00000070: 5eee 3ef1 1ad4 94bf fb51 23f3 30f6 8cbf
00000080: 0437 d0d7 a47b c1bf 4414 62ab 3f07 b93f
00000090: 0aa5 049a 8ac8 b4bf fe0b 9521 7b21 813f
000000a0: d833 dfa9 f549 7a3f a50c ba31 dab8 adbf
000000b0: fa24 1c22 133e c1bf 2e16 ee3b dedf 8f3f
000000c0: 7706 0474 ee72 c5bf a60b b6f9 4de8 9b3f
000000d0: 1f26 b151 5c7f bb3f 8902 3c13 a3c2 96bf
000000e0: d080 8c14 0706 9cbf 41b5 8c74 00f1 bdbf
000000f0: 323d 7aaa f955 c1bf f590 db08 dcac a8bf
00000100: 72f5 d9b4 e334 b33f bb3e 2cc8 8f9e bcbf
00000110: c89f c214 38c7 90bf 95f5 5737 1f57 993f
00000120: 6e86 41b7 04a4 c0bf 7a4b 0163 9635 a0bf
00000130: 21cf ca45 49e1 c3bf 0810 e60f 26c8 bbbf
00000140: 9767 d62f 1394 bfbf 9d00 f55f cc9a b93f
00000150: a98b bd61 7962 b0bf 1367 642d 07a3 bebf
00000160: 56eb 747b 22cd b33f 42ff 20f8 38e7 9fbf
00000170: 55ce e189 b04a bbbf eb80 c74a 98a2 9ebf
00000180: e849 a608 c6cd 7fbf 4876 e8c9 71cb afbf
00000190: 8523 14d2 9b0f c2bf 5f1b 28a2 c393 9e3f
000001a0: e16e a441 4604 b33f 1f00 628a f362 843f
000001b0: 194b 2e5a 8c25 a5bf a72b cd09 9989 aabf
000001c0: dfcf 892f 21dd b43f 44ac 3751 c394 b63f
000001d0: 487e 7314 bef6 ab3f f049 633e 107a 903f
000001e0: 9b3f 6d74 5cec ab3f 6f83 9565 0e4c c1bf
000001f0: 9598 5513 d621 bfbf 3de9 8b69 d810 88bf
0.027523395073093898 0.02185480010578226 -0.06640050761580182 0.10406319080770111 0.0341390613761942 -0.09889045240956096 0.0877603740173232 -0.11318061099951505
-0.11945165902873385 -0.01867242193674976 0.014031548679429611 0.045924454833432285 -0.06372868132036638 -0.10852521216573126 -0.0203403672928587 -0.014141447467786774
-0.1365858129287788 0.0977668565193009 -0.08118501911362244 0.008364641153667304 0.006418189643182047 -0.058050936288986756 -0.13470687070392967 0.015563713268203019
-0.1675699297411943 0.02725335919013685 0.10741211885865497 -0.022226856278396077 -0.027366743687822048 -0.11695864530039037 -0.1354362566384935 -0.04819381340147003
0.07502577939336222 -0.11179445874244724 -0.016384960429291856 0.024746406319527365 -0.13000544498486327 -0.031658839784220086 -0.15531268985579863 -0.10852277649070186
-0.12335319440754088 0.10001828520489871 -0.06400259624710593 -0.11967511041839556 0.0773488570602415 -0.03115548147638881 -0.106608422911273 -0.029917125286261486
-0.0077646003432101166 -0.06209903325746474 -0.14110133893725788 0.02986055066324 0.07428397276492717 0.009954359684570644 -0.04130209542122127 -0.05183103794714521
0.08149917040446962 0.08820744259689756 0.054616870876767865 0.016090635116435992 0.05453766747689245 -0.13513355217130704 -0.12161004993467579 -0.011750879975342183

encoder.1.1.running_mean f8 [64]
00000000: 0c0d ed21 abf0 c43f dd0e a5ca 264a cdbf
00000010: 4d46 b695 b053 c1bf 3f0a 41e7 85ab e9bf
00000020: f04b 8a5f 0233 cebf 2538 db89 fcc1 c53f
00000030: 3446 521b 06a4 c5bf f839 2158 1979 da3f
00000040: 57e5 ec4f 1a02 bf3f 41bd bb7b d7bd e03f
00000050: b35e fcfa dc30 db3f 7cc5 6b45 1e98 c83f
00000060: 5aff 89ca fe35 c6bf 1cc0 18f8 60d4 e13f
00000070: f875 c525 0409 b6bf 94ec d8c1 a2f4 dc3f
00000080: b77e 9cd2 ee1a e63f ca1e 45a7 cf65 d6bf
00000090: a3f0 5845 eab2 dd3f d59e ec04 e9bf c23f
000000a0: c52c e70e 2e00 dd3f 57f9 4ee4 fea2 d93f
000000b0: 5bf1 f746 05e9 e43f abe1 617c 101a d4bf
000000c0: 477b fa1d ac47 d73f 93ef 9dba a2d1 ecbf
000000d0: ae45 86db 18d9 e1bf bba3 8a00 a739 d73f
000000e0: 5b5e 8cd7 1208 c93f 75d3 815b bf00 dd3f
000000f0: 0072 284d 5fed e23f d261 1aaf 8165 913f
00000100: b8d7 bc42 fc47 babf 82e7 ae0f 6602 ea3f
00000110: adc4 dc0a 2f00 c63f 590d 3e57 93b4 e1bf
00000120: e376 ac35 db11 c23f 3ee5 ae0d 2a1b ae3f
00000130: 5219 d802 e85e da3f e5d3 82fe 289f c33f
00000140: 54f7 b077 a99a e13f 958e 2a05 57f8 e0bf
00000150: 1e8b 6a74 74bf e13f d552 26e1 ce7e da3f
00000160: dfcf 1ee2 4957 d2bf 2c56 5e07 3fd8 e33f
00000170: 5d91 07cf 9ce6 db3f ba4a c113 f640 e13f
00000180: 8d25 6dcb 491c a4bf 5e59 5d97 af49 b6bf
00000190: 064d 6963 089a c43f a689 939a 5277 bd3f
000001a0: 3bb9 ee40 ff35 d23f c972 eda1 5883 dcbf
000001b0: 7ed1 a44c 3dc4 ea3f 6271 ecc5 f5b3 e53f
000001c0: 2514 4571 9b93 a23f 3702 24d0 0d89 ddbf
000001d0: 882a 14a2 4770 d0bf 0f6c 52e4 7282 b3bf
000001e0: ba19 bfda c339 b03f 255f a9e3 41bd e13f
000001f0: 1ce5 caa1 9348 e43f b6cb 68f9 f1ca ebbf
0.16359461933652886 -0.22882542509807183 -0.13536650953442333 -0.8021878735237989 -0.2359316793923365 0.16998249751344577 -0.16906811079074802 0.4136412964479912
0.12112583590796554 0.52317403952285 0.4248573733361624 0.19214228048035042 -0.17352280511476686 0.5571751447332676 -0.08607507631446498 0.45243138246923675
0.6907877076627845 -0.34996405920945206 0.4640451123448292 0.14648163547939555 0.45313598113416403 0.4005734662604445 0.6534448991874727 -0.31409084459985576
0.3637495320089567 -0.9005902905332611 -0.5577511108005433 0.3628938203133278 0.19555888676471764 0.45317062317126694 0.5914761073104842 0.01698877936596139
-0.10266090993249477 0.8127928072274104 0.1718806078947969 -0.5532929138138726 0.14116993065629577 0.05880099694281647 0.41204262044665996 0.15329468180939823
0.5501296365471071 -0.5303149319556321 0.5546209596398943 0.4139897536017945 -0.28657767374101967 0.620147241965872 0.4359504720471444 0.5391798387375595
-0.0392783222983538 -0.08706185765672589 0.16095070699757502 0.11510196946941295 0.2845457204920369 -0.4455167371104776 0.8364550110768929 0.6782177797027027
0.03628240354240856 -0.46149010969387255 -0.2568530161667373 -0.07620924066797861 0.0633814248131789 0.5543527075305731 0.63385945892438 -0.8685235854412585

encoder.1.1.running_var f8 [64]
00000000: a972 b1fc 494b f33f 3be7 1377 10ca 0f40
00000010: 2d29 0480 4b08 eb3f 9a4a 6f2e f0c4 d13f
00000020: 497e a672 893b f73f fbb7 5597 9957 f03f
00000030: aa08 412a 95b1 ec3f 6ef0 3ce9 d6e4 0540
00000040: 93c6 58f7 f69d ee3f 0c18 9420 b92f 0a40
00000050: d56b 349a 6028 fc3f 81b2 fb9a 1d84 fc3f
00000060: 8b23 aad1 8603 f43f 2c28 42c9 3151 dc3f
00000070: 6cbd 1753 f4b1 e13f 7092 876c 6940 dd3f
00000080: 2746 adac be6b fc3f 8816 3b1c 02ad fe3f
00000090: b1cc 1d0c 864b f03f 5832 4f6d f6b9 0140
000000a0: ec97 a819 95a2 c03f 6eb7 ade6 2d10 e13f
000000b0: 9c86 c934 2e66 0040 a289 fd4c 955a e63f
000000c0: 2f00 685d 4035 fe3f 398a 5f07 bf54 0340
000000d0: bb72 997a ec4a 0640 1a73 abfa 50d7 d13f
000000e0: ca25 a39b 0721 c83f 1cdf 0d9d 6f64 0440
000000f0: 7a6c cc14 80ee e03f 8557 cbd3 0d52 d43f
00000100: f875 a3fa b425 0740 d5c5 e6cb ecca e83f
00000110: 2d06 c731 3f1c 0340 b4be 23b4 78f5 fc3f
00000120: 2c50 2098 4df2 f03f ad9c f2c5 49b4 f03f
00000130: 9566 5e2d d9f5 e23f f61e a6cd 2166 f33f
00000140: dc8d af32 6832 e23f ba21 73f9 5997 1040
00000150: 6df7 eeee b346 0a40 b21a e46b ada6 cb3f
00000160: 39be b5f9 3234 fa3f 45d7 5544 b1bc da3f
00000170: 259e 8141 4da5 f73f 995a c8d1 d5ac 0140
00000180: 73e0 e948 4958 e83f 57ad 9116 6931 f63f
00000190: 31b1 5d78 a456 f13f 2f2c 881a 562d cf3f
000001a0: 85b8 7870 4c65 de3f b47d 2347 c1ad 0040
000001b0: 9aee cb21 f372 d93f 17c9 0dbd ce1c de3f
000001c0: dcc5 8b92 45db e33f 4859 893b 9822 1140
000001d0: 5345 bb15 1785 f23f 9c7f 0c0b 03af f63f
000001e0: 7228 d610 c012 e43f 37b2 7770 7320 e23f
000001f0: 9909 5ab2 e50a f33f a275 f1a9 5368 f63f
1.2058811064554595 3.9736642172764767 0.8447625637357185 0.2776451543296986 1.452035377362238 1.021386710311616 0.896677572753352 2.7367380353662645
0.9567828017226979 3.27330232097575 1.75985775219191 1.7822547964125592 1.2508609952949168 0.44245571760314095 0.5529729483513797 0.45705638502685186
1.7763048882665176 1.917238340641605 1.018438384370523 2.215802053431883 0.12996162178859494 0.5332250123444575 2.0498928188324737 0.6985575202673326
1.8880008362466574 2.4163799835235094 2.786583860214106 0.27876686553445185 0.18850798701741517 2.5490410108431103 0.5291138082715314 0.317508179502845
2.8934115964063913 0.7747711164903942 2.388792408834681 1.8099295651153797 1.0591560308867072 1.044015668137756 0.5925107847317174 1.2124345811043304
0.568653201099035 4.147804162647327 3.284522883098296 0.2160240914165193 1.6377439264578142 0.4177668731057234 1.4778568800774192 2.2093922032611997
0.7607771324246769 1.3870631105044902 1.0836529447361267 0.24357105536941634 0.4749327753405697 2.08484130456028 0.39764097500276707 0.4705082746724129
0.6205165731645894 4.283783846147635 1.1574927185905224 1.4177275115580192 0.6272888497199018 0.5664612957603542 1.190160462080348 1.4004704130560204
