models/matching_nets/SETA_n=1_k=5_q=15_nv=3_kv=3_qv=1_dist=cosine_fce=None.pth (torch, 316367 bytes, 24 tensors)

encoder.0.0.weight f8 [64, 1, 3]
000000 d9 76 6e fb 56 fd bd 3f 45 63 d0 ab 60 86 df bf
       0.11714690817322139 -0.4925767591353643
000010 03 4a 2d 5f 7b 0d e0 3f 1f 94 da 02 8a 60 e0 bf
       0.5016457423137698 -0.5117845588434909
000020 e4 2e 0f 0d 00 45 d0 bf 53 59 80 4a 1d a4 e0 3f
       -0.2542114379436795 0.5200334982971903
000030 93 f8 75 9a 47 6d d3 3f 16 a4 e5 65 d7 46 b7 3f
       0.3035449036032187 0.09092470395775396
000040 7e f7 d8 d6 83 59 a2 bf d4 fd d7 29 37 9e d8 bf
       -0.03583919522905797 -0.3846567066793487
000050 1f 98 7b bb 05 70 bc 3f cf 72 cc 75 b3 a0 97 3f
       0.11108432604996253 0.023073963227136226
000060 7a 09 59 d1 a3 53 d8 3f d0 15 f6 84 8e 09 c0 3f
       0.38010497516747643 0.12529164783715752
000070 cf c9 98 98 14 28 d4 3f 66 5a 1c 58 65 b1 ca 3f
       0.314946316738454 0.20853869249613693
000080 28 e0 20 86 41 f2 d5 3f 93 69 9b 1a 26 e1 d5 bf
       0.3429111299369674 -0.3418669948420298
000090 47 94 b1 f1 1b 34 b0 3f 28 2a ca 5c 26 14 b0 3f
       0.0632951226303514 0.06280746236203838
0000a0 ae 32 bc 70 5f e0 c7 bf 07 d1 6c 4b 1d 2d d0 3f
       -0.1865348148789016 0.2527535664151092
0000b0 52 07 53 48 f7 ce a8 bf 94 ae ef f4 8e e4 e0 3f
       -0.048454024866727466 0.5279001983557969
0000c0 a2 00 d3 0f 40 16 c3 3f f7 74 29 3d 70 8d e0 3f
       0.14911652348201182 0.5172654337472115
0000d0 2b aa 98 71 f5 db e1 bf 22 0b a8 df 53 b0 d8 3f
       -0.5581004351309437 0.3857621845383382
0000e0 1f 40 b9 24 04 93 7a bf 4f d2 b1 0c d1 b4 d8 bf
       -0.006487861810072131 -0.38603616943081404
0000f0 0a 20 0f 60 d0 80 c8 bf 0e b3 a1 44 85 ed d4 3f
       -0.19143109026322264 0.3269971056204647
000100 80 f8 8c 03 f6 81 d5 3f e5 5f 18 02 56 9b e2 bf
       0.33605718943352514 -0.5814619103357442
000110 1a 02 0c dd 1f cb b1 bf 40 e0 36 78 f7 59 dc 3f
       -0.06950568339016919 0.4429911302536347
000120 75 82 1b bd d1 c7 cb bf 9b b1 4d 93 d7 e6 c6 3f
       -0.21703550084841408 0.1789197415595368
000130 48 b7 c1 92 07 86 e1 3f 30 5e c4 1b f7 8a 9f bf
       0.5476110330907682 -0.03080354792572687
000140 5c 55 21 50 32 ac 9c 3f 8c 81 9e 24 a9 6a c9 3f
       0.02800062765193921 0.19856752670331124
000150 7b 5d 0e 46 0b eb da bf 8f ee 31 e1 0e 77 c8 3f
       -0.4205959495679605 0.1911333655915439
000160 43 a1 f0 e8 ef ce d7 bf 55 9a df 29 8a 97 d8 bf
       -0.37200544117014916 -0.38424924935535404
000170 d9 69 6a 10 df 5a dc 3f 8e bb b8 ca ba cf e1 3f
       0.4430463466939308 0.5566076239973528
000180 d5 e0 45 a9 02 2d d3 bf 4e b1 37 1f 5e 1a cf 3f
       -0.2996222165161389 0.24299217724127192
000190 28 56 ae 56 47 14 c3 3f da 92 dd e5 43 f4 cf 3f
       0.14905635578604515 0.2496418831243748
0001a0 70 14 23 51 4f 4e ce bf ce f3 6f 7e ec d1 d0 bf
       -0.23676482640999863 -0.2628127321948427
0001b0 ba 72 da 87 ed a1 d6 3f 75 0a c5 5d 5a b8 de 3f
       0.3536332918827544 0.480002013751949
0001c0 62 0e fe 2f 62 39 dc 3f 2c 07 5e 7b f6 24 c4 3f
       0.44100241362341397 0.1573780157451038
0001d0 e3 1c 21 ee 21 0e e0 3f 54 43 e6 8e a7 3c cb 3f
       0.5017251635516938 0.21278852918160374
0001e0 f0 ba b0 b0 50 b7 da bf b3 99 d8 8c 83 d7 dc 3f
       -0.41743867163579207 0.45065392260076037
0001f0 fa 25 8c c2 68 d8 b9 3f ca 3a c8 de ac 9c db bf
       0.10095839261716569 -0.43143769985264824
000200 fd 8d 3f e9 e0 6f e0 bf f1 73 a7 77 87 d3 da 3f
       -0.5136570506696782 0.4191607159135052
000210 0a e5 59 4f 1e b0 de bf 25 3c bb bd b0 8e cb 3f
       -0.4794994139588914 0.2152920652792726
000220 fd d5 84 cd 93 ab db bf e0 06 15 b4 8c b1 e0 bf
       -0.4323472506542599 -0.5216735379437658
000230 4a 92 27 4a f8 80 e0 bf 86 b3 55 b2 6f 38 d2 bf
       -0.5157433937388956 -0.28469459929947794
000240 69 ba 1e 58 eb 54 e1 3f 48 2e 24 f3 32 0e c0 bf
       0.5416161271185277 -0.12543331977973282
000250 7d 75 78 d4 22 a5 cf 3f a9 8a d9 6e 4b b3 b0 bf
       0.24722705244577617 -0.06523581939976943
000260 7c 16 ae 86 bc a7 df 3f 0c 8d ac 6a e6 70 d7 bf
       0.4946128192171739 -0.366265873121123
000270 74 a0 5c a8 97 9d b9 3f 91 f0 01 04 1d 68 c0 3f
       0.10006091938396527 0.12817728706057044
000280 07 bc af de b9 55 dd bf 2a 0b fa cd 72 1a df bf
       -0.4583573031113137 -0.4859892856112987
000290 23 0e ef e3 38 a3 e1 bf ab 6e 2f c3 7f b7 8d bf
       -0.5511745883781639 -0.014510152954179864
0002a0 d7 36 4f 2d 7c d3 df 3f dd 6e a1 99 a0 20 93 bf
       0.4972830240702541 -0.018679150940768764
0002b0 b2 8b 72 8c f7 51 d2 3f 83 15 b1 52 99 97 db 3f
       0.2862528678471633 0.4311278636490316
0002c0 34 01 97 b4 7a 42 c0 3f 59 87 1b 7e 23 0d d9 bf
       0.12702878778328286 -0.3914269191283118
0002d0 9e bf 83 1b 78 b2 a0 3f 3d 61 54 00 44 c0 cd bf
       0.032611611708374996 -0.23242998138517548
0002e0 fd 2d fd c0 77 39 b7 3f c4 df bc 8e 92 5e d3 bf
       0.0907206388630399 -0.30264724673497434
0002f0 78 da 43 8b 5a e9 c1 3f 8e e4 58 88 9d 8a de 3f
       0.1399338893895281 0.4772104102626792
000300 37 fd f4 ab 91 e9 d6 bf 91 ca 9c 8d ff 49 d0 bf
       -0.3580059222476452 -0.25451649503080725
000310 8b 9f 3b eb 26 1a dc 3f be b0 b2 62 cc 3d cf 3f
       0.4390961930462189 0.24407343692053546
000320 7e dc fe 06 f1 8a cf 3f 80 67 90 18 d6 1d c2 3f
       0.24642765847758946 0.14153553199212965
000330 2b d2 58 85 28 4c b7 bf 9e cc ea 97 62 86 a7 3f
       -0.09100583320179882 0.04594715218026944
000340 e1 95 11 fc c1 2e 90 3f c7 c6 79 cc 48 4d ce bf
       0.015803366670658184 -0.23673353180088538
000350 9b 3d ac 5c 4f 5c ae bf 7b f0 c6 75 28 75 bf bf
       -0.059298019468879214 -0.12288143992822313
000360 0a 23 19 4e 26 1a d6 bf af 30 ad d3 21 ea b8 3f
       -0.3453460467031141 0.09732257287868394
000370 06 94 8d 14 b0 d1 d0 bf 5d 98 6c 26 49 8f 98 3f
       -0.2627983284676819 0.023984091730334323
000380 55 4e d1 bd 26 55 d8 bf 8f 0f b5 cd 0a e4 d6 bf
       -0.3801972249686732 -0.3576685913906141
000390 39 e1 68 c1 09 db d4 3f ad c8 64 8c 7b 3a e1 3f
       0.3258690251127692 0.5383889905990792
0003a0 23 e3 05 56 9a 36 cb bf 3d da 1a ab 28 d8 e1 bf
       -0.21260384750692038 -0.5576365796940262
0003b0 23 de 92 31 8b 46 93 3f 6f c0 a0 cd c9 24 d9 3f
       0.018823790455568933 0.39287037926533847
0003c0 6a 86 da 82 cc 65 e1 bf 8a 2a af 3d 86 75 d6 bf
       -0.5436766200766219 -0.35092311881877747
0003d0 1d 6b 2d 1a 23 6b db 3f 65 df f5 93 ad 72 d8 3f
       0.4284141307486367 0.3819993920255825
0003e0 26 15 68 08 7e 87 c5 3f 01 20 91 83 36 9b de bf
       0.16819739733197386 -0.4782234463532405
0003f0 64 4d 40 dc 3b 8f a4 3f 65 cf 01 c1 f9 29 d2 bf
       0.04015528739560173 -0.2838119873842884
000400 12 fc 32 fc 60 1f c3 3f 39 13 3e f1 d8 8b b0 3f
       0.14939510645305681 0.06463390245160107
000410 f0 7b 95 ef 64 2e 71 bf 46 fb c1 d2 f7 34 a2 3f
       -0.004194635658989462 0.035560364224684934
000420 e4 7b 45 d4 d2 ac ca 3f e9 b3 cc 24 d3 0c da bf
       0.20839915623488914 -0.40703276246750747
000430 7e be d7 5b 86 58 cf 3f 3d 30 ce 83 33 bb a6 3f
       0.2448890636874132 0.044396982039956324
000440 e8 30 68 3a ff a3 d8 3f 26 33 af 8b a7 23 d9 3f
       0.385009581602175 0.392801176462671
000450 03 08 cb 40 9f 84 db 3f b8 92 4a d7 7d 3c c0 bf
       0.4299696095223455 -0.12684605610151833
000460 cf ab a5 49 14 16 a8 bf 06 1a f2 24 4b b8 92 3f
       -0.047043451299792254 0.018281149034487874
000470 f4 2f 05 a0 1a 28 c7 bf 41 0a a1 98 ef 6b c1 bf
       -0.18091137708176996 -0.13610644295302346
000480 a7 f8 e2 69 42 25 b6 3f 5c bf 6f a8 99 b6 cd 3f
       0.08650603375551445 0.23213501667441505
000490 b0 73 9a e1 53 70 ab 3f 1d aa cd 1c 27 79 c0 3f
       0.053591367043942184 0.12869728952803508
0004a0 08 31 e1 42 fd 40 e2 bf 3b 2b 03 52 f9 68 b9 3f
       -0.5704332643740893 0.09925802471404392
0004b0 be eb 51 d4 26 fe da bf dc 43 fb 19 7b 9c da bf
       -0.42176218733191806 -0.4158008340573909
0004c0 f1 ac a1 2c c5 28 98 bf a6 df 8e 53 82 4d e0 bf
       -0.023593026017278033 -0.5094615585321562
0004d0 2d cf b1 85 13 52 dc 3f e1 49 6a 63 6c de e0 3f
       0.44250953727827175 0.527151292963307
0004e0 06 72 e6 43 c2 9c ca 3f 70 8f 6b 93 ab f0 c9 3f
       0.20790890040815685 0.20265717218637347
0004f0 32 f7 09 3c 42 de 93 3f 45 b3 80 da 9d 66 b7 3f
       0.019402537264333115 0.09140955528773727
000500 2f 44 ed 2f 5e d8 d0 bf 9d 8b a7 ef 6e 7b dd bf
       -0.2632060497317665 -0.460658773458073
000510 2b 26 1a 60 f3 17 9f bf f1 49 51 ac 79 b2 d1 3f
       -0.030364802113160543 0.2765182669437812
000520 47 d3 b1 26 21 9a e0 bf fd 2e 03 04 79 4c a9 3f
       -0.5188146358255857 0.04941156553249291
000530 a9 c9 eb f4 9f 84 d3 3f d3 48 1f bd 95 72 b2 3f
       0.30496977727957614 0.07206092707864124
000540 75 8f c8 fa 98 29 cd 3f 81 ff ac 4a 9f 66 e0 3f
       0.22783195729527575 0.5125271280776219
000550 9d 1e 06 96 d3 f0 d0 3f a5 8f 43 dc 3b 20 94 3f
       0.26469888354083954 0.019654212302057456
000560 0d 99 be 45 c3 c2 c6 bf 32 07 fa b0 a4 7f e1 bf
       -0.1778186884450367 -0.5468314606261855
000570 8c a9 c1 d8 38 3b cf 3f 06 4b b2 2e 5a cb d2 bf
       0.24399481376469756 -0.29366163788033395
000580 82 7e f9 94 ec 35 d1 bf 48 f4 28 60 53 78 92 3f
       -0.2689162688093135 0.01803713106550145
000590 64 57 a0 77 11 f7 75 3f c6 78 8b 61 22 8c d1 3f
       0.005362575751879681 0.27417811895237454
0005a0 7f 38 b7 b5 90 6e c3 3f 72 bb 99 54 df 8c b0 bf
       0.1518116843494148 -0.06464954200212761
0005b0 6c 37 cc bc 08 03 c9 bf 22 c3 b3 11 b4 ec c7 3f
       -0.19540509432448105 0.18691111435284663
0005c0 84 58 b7 d1 c6 4e e1 bf 28 08 ba 44 a9 8b e2 bf
       -0.5408662887591764 -0.5795484869306664
0005d0 27 21 d7 bd 16 d6 d3 bf 03 b5 9f f9 eb cc d8 bf
       -0.3099419454488434 -0.3875074327214209
0005e0 65 df ad 9e 74 23 e0 3f b1 1a db f4 71 22 d0 3f
       0.5043280696108751 0.25210236465174335
0005f0 85 a7 52 15 9a 9f dc 3f 1f c7 6e 30 36 6c dc 3f
       0.44724132616340057 0.4441047165847624

encoder.0.0.bias f8 [64]
000000 ac f2 d6 7f 19 6c e2 3f 2c 84 aa 7f 8f 17 ce 3f
       0.5756957527988411 0.23509401067443159
000010 0b 64 45 ff 34 81 c0 3f 0d 62 49 b3 af f7 71 bf
       0.12894308533103102 -0.004386602715918742
000020 af ec 19 00 80 14 c9 3f d7 5c 4a ff f0 c0 da bf
       0.19593811039871897 -0.41802620821677067
000030 24 a8 c6 07 3c b3 9d 3f a2 69 d1 7f 82 9a db bf
       0.02900403783284146 -0.4313055275175889
000040 3e 28 e6 7f f8 3a d4 bf 08 ad 2b 40 ff 4b d1 bf
       -0.31609928598539117 -0.2702634932199577
000050 6c f7 c0 7f 7a e0 c0 3f c6 d8 04 81 86 51 c5 bf
       0.1318505405233127 -0.1665504579520471
000060 54 71 18 00 22 93 d5 3f 6e 05 9a 01 ea c0 a9 3f
       0.33710527428936143 0.05029994267989478
000070 a6 a6 15 80 fb b2 c2 3f 24 da ec ff 62 db dd bf
       0.1460871100819549 -0.46651530258842144
000080 86 bb 80 40 82 ea ce bf ff f4 3a 80 d2 00 e0 3f
       -0.24153164052537707 0.5001003746507705
000090 64 a0 e8 5f 49 3c e1 bf 4d 2e 00 00 62 72 e2 bf
       -0.5386092065064187 -0.5764627456678199
0000a0 ba 70 d6 7f 8f cd c4 3f d7 bc 9c 00 91 c2 be bf
       0.16252320997307895 -0.1201563478941695
0000b0 98 5b e1 ff 16 a1 d3 bf ed 57 d4 5f 6f ac e0 bf
       -0.3067071436720936 -0.5210492011708517
0000c0 78 94 0d 20 ad 43 e2 bf 02 7d b3 9e 1f d2 e1 bf
       -0.5707612634693211 -0.5568998431807872
0000d0 8d b7 4c 80 7c 8c c1 bf df 29 08 80 48 27 e2 3f
       -0.13709980263359647 0.5672953129408674
0000e0 07 e4 0a c0 ee e4 d7 bf 03 70 13 c0 53 4b e1 3f
       -0.37334793810038075 0.5404452086909263
0000f0 01 a9 10 05 62 ca b1 bf ce e4 de 3f 00 00 c7 bf
       -0.06949436782511854 -0.1796875297421025
000100 63 23 7e 80 14 65 da 3f fd 56 af ff 64 44 bf 3f
       0.4124194388210098 0.12213736765201229
000110 3d 70 45 f8 1f 66 b0 3f ca c5 09 80 eb 4d d6 bf
       0.06405830203351655 -0.348505854642181
000120 f7 c7 fb 08 cc 9d aa bf dc 77 6c 01 b0 48 c9 3f
       -0.05198514566099271 0.19753074712292473
000130 2b 50 f7 ff 64 b0 d5 3f f2 c9 63 fe f4 8b be bf
       0.3388912677448867 -0.11932307444275361
000140 f8 18 94 ff 8e c9 b8 3f 6e f6 24 c0 07 4d e2 bf
       0.09682553996762866 -0.5719031098194145
000150 29 03 fe 3e 39 a7 c6 bf 35 66 a2 fd 29 90 ab bf
       -0.17697825980942497 -0.053834259234644945
000160 71 01 70 81 72 1c dd 3f 8c 6c 0b 40 7e bb d4 3f
       0.4548612846411038 0.3239436746059219
000170 d5 ea 62 df 11 22 da bf 70 fe 6d ff 95 72 a4 3f
       -0.40832945647313795 0.039936721258524766
000180 6a af 04 00 f4 60 b0 3f 8b 3f f0 00 68 72 ce bf
       0.06397938728758637 -0.23786640210937224
000190 60 82 4b 3f b7 94 d4 bf 03 70 c1 7f 05 2c dd 3f
       -0.32157689267299894 0.4558118579495842
0001a0 42 0c b4 bf 39 6e d2 3f 4e 6a 05 40 25 48 e1 3f
       0.2879776355841309 0.5400568247235442
0001b0 d5 aa ec 7f 28 4a c6 bf cf 4a 7e 3f 62 dc d2 bf
       -0.17413812872231085 -0.2947011585285226
0001c0 cf 41 eb ff d1 2e dc bf b9 70 c5 ff 07 bb da bf
       -0.44035768501364897 -0.41766548135434395
0001d0 da 55 c1 df 7f 13 da bf fe 1a 71 7e d9 f1 cd 3f
       -0.40744015551657997 0.23394316362301731
0001e0 1a d0 21 81 0f d5 da bf 82 68 91 ff bd 6e ad bf
       -0.41925418482355925 -0.05748552078939985
0001f0 88 a1 7f c0 3d d8 c5 bf a9 9a b2 7f dc 7e bd bf
       -0.17066165828078916 -0.11521700017565685

encoder.0.1.weight f8 [64]
000000 ca 3a db 92 4e 7d ee 3f 79 82 94 8c 33 08 f0 3f
       0.9527962559021372 1.0020022860918785
000010 57 7c 87 a2 e6 20 f0 3f c6 e1 e7 7f 19 89 f0 3f
       1.0080324505613782 1.0334715839691042
000020 30 a8 31 d3 c3 51 f0 3f a7 6f be c8 f1 90 ee 3f
       1.0199621438755564 0.9551934166697621
000030 67 c9 a3 c2 c1 6d f0 3f 90 f7 c9 28 9a 21 f0 3f
       1.0267961123577949 1.0082036584203458
000040 d8 a6 2e 5f 1a 41 ef 3f bf 70 10 6f ca 51 f0 3f
       0.9766971453693385 1.0199684465833767
000050 67 77 f5 e4 bb 89 ef 3f 71 46 ae 07 71 2b ef 3f
       0.9855632278301812 0.9740529203429117
000060 c0 70 ab 54 8b 21 f0 3f 1b cc 7c 83 ac 41 ef 3f
       1.0081895167741521 0.9767668312182453
000070 1d 10 0b c5 c9 75 f0 3f 90 dd 98 6d c4 72 ef 3f
       1.0287568757057735 0.9827596798485718
000080 13 1c 92 b0 fc a6 ef 3f 46 01 27 3b b7 70 f0 3f
       0.9891341637275012 1.027518492759627
000090 60 95 b5 cf c7 27 f0 3f 0a 65 2c 26 45 af ef 3f
       1.0097120393414443 0.9901452775549455
0000a0 46 45 b8 26 37 38 ef 3f 26 df dc dd 03 42 f0 3f
       0.9756122356649619 1.016116968776211
0000b0 5f 03 25 7d 11 cf f0 3f f7 cf e8 e5 dd e4 f1 3f
       1.0505537880382787 1.11837568100327
0000c0 43 94 68 4d 68 14 f0 3f 94 fc 61 e4 f0 77 ed 3f
       1.0049822829980861 0.9208912335015094
0000d0 09 62 57 10 8e ec ef 3f f5 7a 91 33 18 28 f1 3f
       0.9976263350645819 1.072288705290416
0000e0 f1 a4 c4 57 fc da ef 3f 36 19 b5 0c c0 d2 ee 3f
       0.9954816545697708 0.9632263420287817
0000f0 10 e4 64 49 7a 2b f0 3f 0c 34 50 e1 72 71 ef 3f
       1.0106146685559487 0.9825987244272496
000100 b8 f6 26 99 c0 71 f0 3f 83 b0 76 69 e3 6e ef 3f
       1.0277715666301628 0.9822861728512325
000110 61 e3 68 e3 c0 2d f0 3f c7 91 da 51 a2 70 f1 3f
       1.011170280760972 1.089998550168376
000120 a7 c6 04 1f 2b 5b f1 3f c2 f1 8e 37 4d a3 f0 3f
       1.0847579204241045 1.039868561768444
000130 6a 33 d0 3e c0 3f f0 3f 7c 62 50 2c 99 be f0 3f
       1.0155641988414694 1.0465327960029347
000140 f4 d6 ca ae 35 29 f0 3f 2b c1 dd d7 88 93 ef 3f
       1.010060961515987 0.9867595878731995
000150 15 06 7d a5 59 40 f0 3f e6 3a d0 c3 e6 e2 ef 3f
       1.0157104935063945 0.996447927902264
000160 b8 4e ef 59 c0 47 ef 3f 46 86 6b 51 28 a8 ef 3f
       0.9775087124384845 0.989277037642929
000170 05 be 55 52 1b 16 ef 3f 2b 7a 32 24 93 86 ef 3f
       0.9714485748390308 0.9851775843597513
000180 cc 7c d5 42 91 07 f0 3f 09 48 3b ca d5 f7 f0 3f
       1.0018475161266904 1.0605066203756925
000190 1a c8 d5 a9 3a 4e f1 3f fd 58 60 56 65 f6 ef 3f
       1.0815989145453444 0.9988276183164825
0001a0 c7 51 b1 a8 4e c8 ef 3f 34 48 46 0f 97 a0 ee 3f
       0.9932015700128937 0.9571032808619351
0001b0 97 16 72 0b 49 d8 ee 3f 64 30 fa f0 65 ad ef 3f
       0.9639020179317467 0.9899167734706791
0001c0 7b ee 27 15 b9 af ef 3f 42 05 d6 db b9 b1 f0 3f
       0.9902005589678561 1.0433901393265193
0001d0 93 ca c0 33 a5 64 f0 3f 8a 7e ea 56 f0 08 f0 3f
       1.024571611557495 1.0021823306232442
0001e0 e2 87 ff 40 d2 74 f0 3f f4 0b e9 0a 83 b7 ee 3f
       1.0285208262434868 0.959901353177314
0001f0 50 56 a6 8e e9 71 ef 3f 1b c2 2e 8e 2e 17 f0 3f
       0.9826553140762346 1.0056596330651988

encoder.0.1.bias f8 [64]
000000 12 79 20 6e 21 85 9f 3f 90 df 06 ee 55 99 9f 3f
       0.030781290384873712 0.030858366635328205
000010 12 75 ef a7 98 2b b8 bf e1 90 96 59 3a 42 83 bf
       -0.094415226936196 -0.009403663500798522
000020 68 47 b2 dc 8c e3 a1 3f 81 d5 02 4d 60 d6 c0 bf
       0.0349391955761707 -0.131542241671621
000030 0c 49 f1 00 28 b0 b0 bf 00 83 38 69 63 fc b0 3f
       -0.06518793128023875 0.06635114020219746
000040 a8 99 00 56 47 6c bd bf bb df 65 7a bf 84 91 bf
       -0.1149334511725103 -0.01710795578534861
000050 4c 61 e6 6d 3f 9d ab bf 09 98 7f 99 a0 71 97 bf
       -0.05393408028175148 -0.02289439141159025
000060 be fe 2d 62 03 09 a2 bf 1b 9c 14 d2 3c 60 b0 bf
       -0.035225015387366096 -0.06396846894186618
000070 97 2d ad b4 3b 6f a4 3f 76 57 72 59 53 66 a6 bf
       0.03991114216349983 -0.04374943224790588
000080 88 2e e4 58 9a a8 c0 bf 67 be e7 09 0b be 42 bf
       -0.1301453527488443 -0.0005719713115563519
000090 48 d4 48 2d b6 d2 c2 bf a8 3d 5b dd 6d c3 c0 bf
       -0.14705540858418176 -0.13096402462404666
0000a0 65 71 7d 8f a0 92 c1 bf 29 fb 7b 45 17 05 9c 3f
       -0.1372872067103216 0.027363170257554224
0000b0 6e 61 8f 0a 6d 0a 9c 3f a2 8a 15 13 1a de bd 3f
       0.02738352181390396 0.1166702553360133
0000c0 56 8c 40 d8 5f ed bb 3f 76 c0 4b d9 1b 91 90 bf
       0.10909079579919143 -0.016178546083154242
0000d0 ba b6 3e 96 56 5e b4 bf 06 7b 85 9c 27 f0 b0 3f
       -0.07956448715296008 0.06616447039912651
0000e0 e2 90 b0 cf 53 8d 22 3f 1a 3b 14 d8 5c 52 a6 3f
       0.00014154098593722244 0.043597127320131615
0000f0 54 24 2a cc 20 b3 7a bf 04 5d 57 2a ee 08 6f bf
       -0.006518486132912466 -0.0037884380023843773
000100 37 d9 57 e7 e7 c6 91 3f a9 65 ac c2 8c 05 c3 bf
       0.017360328192773635 -0.14860686784304036
000110 72 8e 22 1a c2 ec 99 bf ed 4e a7 a8 43 7c b8 3f
       -0.025317223401215512 0.0956461226226641
000120 c8 e2 53 be 80 bc b0 3f bc f4 47 66 e9 9f 96 3f
       0.0653763260523973 0.022094389789334853
000130 a6 4a eb dc 89 b8 94 bf a7 6d 00 82 5b 99 c1 bf
       -0.020235208615143073 -0.1374925980352206
000140 2e 3d a5 5e 0b 90 a5 3f b7 b9 68 e7 4c 9c b1 bf
       0.042114596656228506 -0.06879120492587885
000150 be 8c 71 95 db 2b 91 bf 55 18 40 45 b8 bb 87 bf
       -0.016768866535483033 -0.011588515866616836
000160 cd a5 15 d5 5c bf a2 3f 49 f2 0c 90 a7 75 b6 bf
       0.03661623097543618 -0.08773276583537738
000170 a3 82 3e fe 79 82 b2 bf 5e 42 fa 21 63 a7 92 3f
       -0.0723034139359791 0.01821665663607274
000180 15 6f 22 c1 b3 44 be bf 12 2f 70 ef 10 e1 95 bf
       -0.11823581185529648 -0.021366371740483343
000190 37 8a 32 04 9c 9c b5 3f 51 d5 a3 77 19 b2 c2 bf
       0.08442092039562331 -0.14606016485019294
0001a0 89 d9 98 63 5f f8 b4 bf 98 c2 2d 36 d3 71 96 bf
       -0.08191486531800342 -0.021918583089645866
0001b0 0d 3f a1 e5 74 32 9b 3f d8 0b ca 55 cf 43 82 bf
       0.026559664264197248 -0.00891839962537759
0001c0 1a cb e7 0d 29 5d 96 bf f3 b9 d4 94 7c 1b a4 3f
       -0.021839753602715374 0.039272206466524205
0001d0 c2 a0 8c c5 15 fe a4 3f 98 03 da 82 11 c9 c2 bf
       0.041001015057476234 -0.14676112069357994
0001e0 3a 10 42 ad 37 7d 6c bf 90 41 c2 27 56 6b a2 bf
       -0.0034776771008769 -0.03597516284310409
0001f0 48 d3 2e c6 4e c3 9d 3f b3 d4 db 52 12 6c c5 bf
       0.0290653522931337 -0.16736058278880747

encoder.0.1.running_mean f8 [64]
000000 f3 e0 bc 8b 18 7e e2 3f c4 ae a3 f9 42 88 cd 3f
       0.5778925637487461 0.23072087468550795
000010 31 3f 20 2b b3 52 c1 3f e4 79 3b e0 8c 20 82 bf
       0.1353362999511716 -0.008851147263553245
000020 f2 7c 89 ee 91 f4 ca 3f 76 34 d2 b8 80 83 da bf
       0.21058868548696058 -0.4142762951749498
000030 b6 db 0e ea 25 91 9c 3f b1 31 90 4e 0d c4 da bf
       0.027897446070450825 -0.41821606323426425
000040 4b 45 05 77 72 1b d4 bf 66 5e 59 23 7e 4d d1 bf
       -0.31417523978332856 -0.2703547806936285
000050 3d e0 1b c5 1c f5 c1 3f 93 c4 99 80 30 c8 c5 bf
       0.14029273628671204 -0.17017179755524534
000060 f9 9b 25 f2 41 27 d6 3f c8 25 18 e4 53 83 ab 3f
       0.3461460938182764 0.053736325830026355
000070 2a c8 34 b0 1f 54 c1 3f bc 1d 16 e7 4d 26 dd bf
       0.13537975410287234 -0.45546290938406364
000080 86 f9 36 4b 91 b3 ce bf 3a 3e d0 59 de b8 df 3f
       -0.2398549668559548 0.49565848131985357
000090 e9 14 78 8f ec 81 e0 bf c7 98 70 49 ed f2 e1 bf
       -0.5158598711138015 -0.5609041628238395
0000a0 48 86 f8 96 d0 1d c5 3f db 57 83 c0 4c 93 c0 bf
       0.16497237559910816 -0.12949523353625988
0000b0 d4 f5 da a8 8b 6c d4 bf 45 74 8f 8e c1 6d e1 bf
       -0.31912509431626046 -0.5446479591734109
0000c0 63 80 38 b3 b8 e2 e1 bf ac e5 d6 82 c7 c8 e1 bf
       -0.5589259624866937 -0.5557591968019344
0000d0 e3 bd f3 59 d6 12 c2 bf a4 e0 a9 bf 82 8d e1 3f
       -0.1411998690814321 0.5485242598943114
0000e0 bb 61 75 f5 0f 05 d7 bf 45 34 09 a8 4a 64 e1 3f
       -0.35968398066099966 0.5434926301910613
0000f0 2c 56 e4 14 76 4a b2 bf e7 9e c3 7b 75 48 c6 bf
       -0.0714486886029923 -0.17408627074404778
000100 b2 d4 60 ac 5a 32 da 3f 57 2d 20 ad a6 13 c1 3f
       0.4093233760243705 0.13341220334437295
000110 e9 cb 50 da f7 41 b0 3f 82 a6 34 e5 7e c8 d6 bf
       0.06350659446688635 -0.3559872854553775
000120 61 83 86 8f d1 46 af bf 81 b0 1c bd 9f a6 c7 3f
       -0.06108717801112707 0.18477246030795771
000130 c9 92 ac f0 75 6f d6 3f 70 b3 9c b1 4e 35 bf bf
       0.3505530214627411 -0.12190715633614757
000140 73 d1 3a 9c fe ab b6 3f 20 81 cb e1 04 42 e2 bf
       0.08856192888453567 -0.5705589685494807
000150 57 af 43 c3 08 dd c6 bf cb f7 82 98 47 af aa bf
       -0.17862042936701059 -0.05211852776254452
000160 0b 11 54 04 fb 28 dd 3f 01 c5 56 f6 ee ab d5 3f
       0.4556262533444772 0.3386189847615953
000170 e2 76 14 65 bf d8 d9 bf 30 f5 4f 7c f4 b5 a1 3f
       -0.40385422583663744 0.034591331648679335
000180 af ac 29 94 a8 13 b2 3f bb 58 0d e4 9b 39 cf bf
       0.0706124650693478 -0.2439455855880562
000190 1d 32 29 3f 75 90 d5 bf 93 bd fe 0f 5c b2 dd 3f
       -0.33694201629694637 0.4640112072183566
0001a0 ed c2 75 2c b3 eb d2 3f 99 90 9f 0c 43 eb e0 3f
       0.29563598005101605 0.5287184950398284
0001b0 c2 88 62 7b 88 e9 c6 bf c2 8e 8b 3e b7 5f d2 bf
       -0.17900186562207493 -0.287092028693433
0001c0 2e 8b 28 89 e9 08 db bf a0 19 63 78 77 89 db bf
       -0.4224189605176204 -0.4302653003363961
0001d0 be 78 84 5e 71 71 da bf b9 aa da cf 14 a0 ce 3f
       -0.41317400198193954 0.23926029347543024
0001e0 ac d6 80 77 9b f4 da bf c1 6b ff 6e e7 f9 b2 bf
       -0.4211796443008591 -0.07412573299318038
0001f0 bf 02 27 6d b4 47 c6 bf 3d bd ab e0 fb 44 b8 bf
       -0.17406325654703456 -0.0948026107323487

encoder.0.1.running_var f8 [64]
000000 da d7 39 60 41 eb 53 3f 59 7d 6e 2b 9e b7 6a 3f
       0.0012157572208741836 0.003261383938891232
000010 ca dd 54 6a 03 0e 55 3f 26 2f 6f 87 c9 ec 4e 3f
       0.0012850793221569228 0.0009437545803563138
000020 4f b6 54 23 64 52 75 3f e2 ea 14 45 bd f5 56 3f
       0.0052055274621075195 0.0014013622606642785
000030 ac f6 53 34 0a c9 29 3f 77 af d7 e4 1c d3 71 3f
       0.00019672631803040652 0.004351723543987044
000040 74 3d 30 8e ec 0a 61 3f 4b 65 f2 f4 26 32 58 3f
       0.0020804043028942957 0.0014768009603243922
000050 00 49 ce 28 b9 c3 65 3f 99 ed 02 60 27 f9 67 3f
       0.0026568046946034984 0.002926422981628551
000060 cb 97 cf 65 2a 91 6c 3f fb 38 69 d0 77 60 3b 3f
       0.003487189109807586 0.000417737246981256
000070 3c 93 01 37 80 09 68 3f bd eb b9 b4 3d ed 76 3f
       0.0029342178532253665 0.0055973444356096054
000080 72 ec ec 3b bd df 47 3f c0 ad ab 91 e8 bd 54 3f
       0.0007285760874319437 0.0012659808332341344
000090 7c f5 4b 23 b8 85 8a 3f 97 08 86 fb 50 43 7a 3f
       0.012950361802263492 0.0064118541125727435
0000a0 98 c0 66 ee 9a 83 56 3f 30 3d a2 99 4d a8 72 3f
       0.0013741505623379498 0.004555037618174482
0000b0 13 2b 6e 1d b5 1c 70 3f 6a a8 48 3b 8c dd 8c 3f
       0.003933627586671279 0.014094443854521372
0000c0 6f 01 09 9e 62 2f 6e 3f b4 26 79 ee d3 38 4f 3f
       0.003684704410517429 0.0009528193304017747
0000d0 fa b0 1d a6 cf 45 54 3f 6b 3f 99 d2 0c e2 83 3f
       0.0012373473950573742 0.009708500077209433
0000e0 12 11 5f 07 06 fb 72 3f 4d f4 30 05 48 bf 5f 3f
       0.004633925962427081 0.0019376948664693472
0000f0 21 2b 12 f0 24 2c 30 3f f4 2a 96 62 5a e2 62 3f
       0.00024677182961656453 0.0023051991781292084
000100 ce 15 05 8b cb 2f 60 3f e6 a4 9b c3 0c 53 6a 3f
       0.0019759154749034785 0.0032134293841080573
000110 e3 3e 07 08 46 43 06 3f 1a 33 d7 ac 0a b5 56 3f
       4.2462897002713285e-05 0.0013859371423336543
000120 56 ba cc 7c 3f f3 60 3f 5b d2 92 53 96 da 72 3f
       0.0020691146841252213 0.004602992260676143
000130 da 9a 8d 5a d0 40 73 3f 41 29 3b 10 35 b0 63 3f
       0.004700483209353757 0.002403358115633442
000140 7a 7b 2a 50 59 8a 71 3f ff 4b 39 91 e1 ff 5f 3f
       0.004282330398068685 0.0019530966573213513
000150 21 0c 02 1a 93 ba 34 3f 93 85 05 eb 6b 4d 13 3f
       0.00031629649493697577 7.363291911623706e-05
000160 be 9a 64 d0 12 a7 40 3f c5 0d 35 7c b1 c9 77 3f
       0.0005081979623227856 0.005807584096433731
000170 ae 22 ea 3a 72 34 52 3f d6 08 8d f0 d3 f1 4a 3f
       0.0011111369637168233 0.0008222851621229276
000180 af a9 9d a3 8e 78 53 3f 8c ce 84 76 c5 c1 5c 3f
       0.001188411041278852 0.0017551830624825985
000190 b4 cf e8 39 b7 6f 7a 3f 8f 66 2f c5 e7 91 73 3f
       0.006454196669938673 0.004777818062359564
0001a0 bd 12 32 30 95 0e 5a 3f 96 9d 11 06 e5 5e 70 3f
       0.0015903908650056052 0.003996748565533356
0001b0 94 57 b0 08 aa 33 57 3f b7 53 32 19 d1 84 5a 3f
       0.0014161262977316668 0.001618580053024161
0001c0 73 3b 2b e5 0e 11 81 3f fb 9e 22 4b ba 23 73 3f
       0.008333317154578279 0.004672744473431352
0001d0 69 3f 74 08 94 2d 5b 3f ca c7 66 f9 43 b0 4b 3f
       0.001658815921306423 0.0008449870973008475
0001e0 d8 09 f1 a4 db 0d 3a 3f 36 c6 9d 5e 62 00 82 3f
       0.00039755451593151197 0.008789795410595418
0001f0 d8 60 f5 f6 53 10 63 3f 7e 65 6d 12 d3 94 85 3f
       0.00232712172843828 0.010537766456468086

encoder.1.0.weight f8 [64, 64, 3]
000000 3b b5 3e 23 fb c1 9c bf 36 b7 f5 55 9c ec ab 3f
       -0.028083728815251546 0.054539571278708385
000010 bb ba bb 4c fc 23 a1 bf 08 ea a3 dd a4 9e a7 3f
       -0.03347767292676936 0.04613223271913475
000020 d7 93 c3 4e 6d 65 9a 3f 11 66 8a bd 58 0b b3 3f
       0.02577753823506498 0.07439188601929227
000030 ba e1 98 80 58 4e b0 3f 7f 77 19 c1 02 96 97 3f
       0.06369546069698276 0.02303318313203517
000040 22 1f 9c 2b e4 85 91 bf d9 d5 0f ce d0 31 ad 3f
       -0.017112317239507686 0.05702068820384527
000050 00 20 29 69 d4 fa b1 bf 19 cc 82 8e 8e 30 9e bf
       -0.07023360793493794 -0.02948210472886723
000060 f5 0a b4 92 0f 4e 87 3f a5 af a5 a9 80 0a aa 3f
       0.011379357971696072 0.050861378392112834
000070 cf 24 22 fa 59 b2 b7 3f 7a 54 e3 86 76 f7 a6 3f
       0.09256517750522451 0.04485674282629133
000080 c5 ec 2e 36 48 1b ad bf 1f 86 72 e6 4c a9 81 bf
       -0.05684877072732201 -0.008623696119971545
000090 41 61 c3 e1 2f 49 8c bf 57 5a 0a 5e 4a 2f 93 bf
       -0.013811468198057343 -0.01873508643128682
0000a0 df f8 bf 98 2c f3 97 3f 7b 08 1f fe 9d 82 63 bf
       0.023388573477853277 -0.002381619052330084
0000b0 ac 4a e9 02 0e e6 77 bf e9 03 f3 3c 77 cf b5 3f
       -0.0058346316642025435 0.0851969264795255
0000c0 f4 19 29 a8 c0 11 67 3f b5 27 67 20 19 8d 95 3f
       0.002816082270587156 0.021046059229582876
0000d0 6e b3 a4 bf c3 28 a1 3f 1d a1 ec 96 6c f9 b5 3f
       0.033514134544339366 0.08583716091800793
0000e0 39 a9 73 cf 42 9e a6 3f 41 cd ad b7 6b a4 62 bf
       0.04417618543978325 -0.002275667558416267
0000f0 8b d8 3c 57 d9 29 b1 3f ef e7 e1 16 28 f9 91 bf
       0.06704481487108375 -0.017552019497521994
000100 39 07 76 c3 7d a3 a5 3f ac 9a 6c 40 9b 07 b7 3f
       0.042262964353552986 0.08995981524331381
000110 53 04 63 04 23 53 b9 3f 4f 15 5d 18 de 7b a4 3f
       0.09892481667613255 0.0400075344792109
000120 59 20 7f a9 46 3d a1 bf ac 8b 48 ca 89 8a a2 bf
       -0.03367062396097315 -0.03621321291236454
000130 1e 30 41 ec 6f 40 b2 3f a1 e6 d5 51 47 e3 a6 bf
       0.07129573362289007 -0.04470274805039521
000140 1c e7 1a 49 02 36 92 bf 3a 8d 8d 41 3b 36 a7 3f
       -0.017784152709942366 0.04533562827307454
000150 ef 42 4f 56 ec 55 9f 3f d9 2c 9b 30 4c 2e 84 3f
       0.03060120846550068 0.00985393069585998
000160 55 1d 4b 65 30 74 a2 bf 5d e2 fa 61 98 8f b0 3f
       -0.03604270206920527 0.06469108955469367
000170 b4 a7 ed e8 a7 96 a3 bf c5 77 86 86 a6 11 88 3f
       -0.03825878828395393 0.011752415638337408
000180 1e da 08 4d c1 59 9b 3f b8 67 75 56 96 85 93 3f
       0.026709575964753644 0.01906428244306088
000190 ac 1b 04 cf ee 7f a5 bf 5e 15 40 ef c8 52 56 bf
       -0.041991675158036784 -0.001362510895888867
0001a0 10 f2 82 12 40 e9 a7 bf cb 94 80 35 52 f3 a3 bf
       -0.046701433429437 -0.03896576789001357
0001b0 dc 16 10 8d ce d5 a6 bf e6 db b2 cc 5f 66 a5 bf
       -0.04459996673544506 -0.04179667829287563
0001c0 5f 55 2b 9e c0 e4 95 3f 9e c8 ea fe 4d 73 7f 3f
       0.021380433706175036 0.007678322478272074
0001d0 09 d4 65 5f 10 0f 84 bf 9c 5d 2d b0 37 52 83 3f
       -0.009794357215222165 0.009434161247255095
0001e0 66 89 8c 39 dd bf b1 3f 7a 73 4f 28 aa 78 a5 bf
       0.06933386473659695 -0.04193622343129895
0001f0 11 4d 62 09 b1 34 a5 3f 48 73 0e d6 8e 1e b2 3f
       0.041417629619127656 0.07077877737033333
000200 2d 4d 54 f9 45 b4 b4 3f 0c e4 44 13 f5 e5 80 bf
       0.08087575280324151 -0.008251108789965066
000210 08 00 68 6b 89 3e b6 bf e1 8a 45 f4 d3 2f b0 bf
       -0.08689173576567566 -0.06322979653991069
000220 21 3e cb dd b2 69 a7 bf 64 db a3 5e 1e 89 b7 3f
       -0.04572829205937646 0.09193601427601333
000230 9f 38 85 33 ff 6e 9a bf eb 24 e1 74 d0 92 b3 3f
       -0.025814044494204876 0.07645895818236041
000240 02 97 2e c4 0b 5b 93 bf c9 5b 7e aa 4c 0e ad bf
       -0.018902000283239857 -0.056749721348004885
000250 df 1c 7e 1b 73 cf a0 bf aa 55 05 3d 8e b1 b2 bf
       -0.032832715135606476 -0.07302178373114168
000260 29 fd a0 b1 1d bb 4b 3f 63 e5 80 8d 5c 4a aa bf
       0.0008462805738033474 -0.05134858348214768
000270 7c 38 25 7d 3a 4b 96 bf 67 65 fc 6f 20 1c ae 3f
       -0.021771348846691727 0.05880833975806859
000280 4e 60 3b 72 51 93 9f bf 83 2b f7 b2 d5 5b b2 3f
       -0.030835411641277503 0.071713787262679
000290 41 be 18 cd 0b 94 87 3f d9 33 26 e6 5b 05 92 bf
       0.011512844273141034 -0.017598567888445025
0002a0 04 7f f7 65 0f 44 b0 3f c0 ba 84 4e 8c 42 85 3f
       0.06353851546691308 0.010380836626237566
0002b0 ba 85 7f 81 ab 2d 2d 3f 24 d8 88 d4 20 b1 90 3f
       0.0002226135118226622 0.016300690624312733
0002c0 d5 0f 45 04 33 92 87 3f 31 33 8b 8e e6 0e 71 bf
       0.011509321754267813 -0.004164600956482898
0002d0 a8 7c ab 5f bf aa 91 bf 81 98 13 f4 74 c8 a2 3f
       -0.017252912725663677 0.0366856143898966
0002e0 dd c3 db ac 3a 4d 9c bf e1 cd 89 80 b5 ac ad 3f
       -0.027638356018488842 0.05795829004355447
0002f0 ab b6 39 53 86 dd 98 3f 31 2c 94 5e b5 48 a6 3f
       0.024282549695661498 0.04352347163702353
000300 a0 b7 e7 ba 4b b2 b5 3f fc 06 82 48 d8 22 a9 3f
       0.08475182831872852 0.049093970156730976
000310 78 68 5a ac fb 2f ab bf 3b 4f ab c9 1a e5 a6 3f
       -0.05310045699043625 0.044716679685420556
000320 54 88 f8 57 84 ad a9 bf d4 da 99 b6 8d 73 99 3f
       -0.050151954401613935 0.024854864378052025
000330 a9 36 4e 7b 3f bb a3 3f 48 c1 d3 0f 23 bc 61 bf
       0.03853796367830615 -0.002164906005980214
000340 50 90 22 13 d2 5b 9c bf 18 98 95 3f ce 96 c1 3f
       -0.02769401780882702 0.13741472344116867
000350 6b 3f 1f 46 6a e6 a1 3f b4 50 bb 69 79 74 b2 3f
       0.034961052951642944 0.07208975631084763
000360 9a 52 52 6f 17 7f a2 bf da af b1 ff a6 0a c0 bf
       -0.0361258815184204 -0.12532508359015432
000370 b0 86 8c 3d c6 29 72 bf f1 2f e1 08 53 6e 86 3f
       -0.004434370400106566 0.010952614506230392
000380 92 48 36 06 f0 26 b9 bf e9 8d fb 4e bb a3 ae bf
       -0.09825039054547549 -0.05984292353766902
000390 3c 6e c6 ab f9 73 a7 3f c5 13 53 66 a4 13 af 3f
       0.04580669614662411 0.060696732989107306
0003a0 fa 0e 1f 20 5b 0d 8f 3f a2 58 69 6a 08 6c b3 3f
       0.0151621932199144 0.07586720083176826
0003b0 8e 41 e4 7f a5 cc 99 3f 4c b4 15 74 ca 79 af 3f
       0.025194726878056843 0.06147606532145086
0003c0 d9 c5 c5 eb ca 7d 77 3f 7b 19 ed 7b dd 45 a9 3f
       0.005735199604133234 0.0493611539628089
0003d0 e8 54 bb 41 aa 57 b0 3f c1 14 7a 6d 6a 02 71 bf
       0.06383766274241831 -0.004152694447502715
0003e0 db ff 88 ca ff 23 b3 bf 69 b3 5e 03 7b ab 8a 3f
       -0.0747680539579955 0.013022385635702087
0003f0 5d c2 8c f6 0a c0 95 3f c9 3c a7 b3 6e e7 93 bf
       0.021240397737701467 -0.019437532153287394
000400 a2 e1 bc 9b a0 4a 9d bf b1 14 97 a9 a3 6d 9d 3f
       -0.02860499334858136 0.02873855326267422
000410 3e 4c 8b 68 c2 12 ad bf 7f 42 28 ce 58 0b a6 3f
       -0.0567837479226445 0.04305531994407818
000420 5e c5 87 4f 3f ff 83 bf 21 80 f1 54 02 7e a9 bf
       -0.009764189352582772 -0.04978949820429102
000430 db 53 84 6a 75 c2 a3 3f 94 5e 10 ec 21 00 b9 3f
       0.03859297681098158 0.09765827191619741
000440 49 8f 64 a9 16 1f 9d bf 1b 9b 4a 65 08 29 91 3f
       -0.028438905800739964 0.01675809019311734
000450 5d 2e ce 3e b0 31 98 3f 15 45 69 1e 3e 33 b0 3f
       0.023627046426140875 0.06328190081082526
000460 41 b7 4e 89 20 c4 a3 bf 20 c4 03 35 c4 5e b7 bf
       -0.038605705987136314 -0.09128977102570035
000470 04 6d 61 86 81 f2 b1 bf bb d4 8c 23 08 0c 93 3f
       -0.07010659724021556 0.01860058514576644
000480 8c e6 0d f4 af 59 b7 3f ea ee 28 06 41 e9 9d 3f
       0.09121226986271774 0.029210105896921336
000490 d4 2a ac 7f 43 c7 b7 3f 97 96 ed 90 a5 e2 b8 bf
       0.09288427226071444 -0.09720835483821087
0004a0 57 ab 28 c4 e4 1b b1 bf dd 2a 9c ff 5a 90 a2 3f
       -0.06683187283549095 0.036257594778438686
0004b0 8e 72 e1 34 fe 81 a1 bf d8 d4 ea 9c 9a 71 8b bf
       -0.034194892840536104 -0.013400276101814532
0004c0 56 7f 12 5a ec 52 67 3f 7d 60 e1 ce c7 9a b8 3f
       0.002847158074089788 0.096111763008027
0004d0 4b b4 02 0c de 61 92 bf f4 52 e4 a7 a9 79 a2 3f
       -0.01795145939165747 0.036084462875953266
0004e0 5f 0d 83 df bd ca 9e bf b2 35 57 4e c4 b2 91 3f
       -0.0300702731772281 0.017283503800901996
0004f0 a1 08 63 1d 6f 3a a6 bf 7e 90 74 fc 4e 46 a7 3f
       -0.04341456636167718 0.0454582865880022
000500 c1 ae 10 47 9a 0c a8 3f 63 c9 85 e4 1e df 9a bf
       0.04697115056509694 -0.026241762826836445
000510 5a 32 e5 89 6f dd a6 3f ea c4 e7 03 d3 39 ad 3f
       0.04465817030231696 0.05708178923294745
000520 18 b8 52 7f c7 a7 49 bf a5 69 f6 6c 4f 49 8f 3f
       -0.0007829403026755636 0.015276546967290036
000530 5d 3e c3 61 0b 18 8f 3f f2 7b 11 8e 37 38 96 bf
       0.015182579918842249 -0.02169882588020395
000540 ad 54 75 4f 5a e6 b8 3f 53 c9 71 9c 07 09 b0 bf
       0.09726490440273734 -0.06263778275914449
000550 8b 9b a7 22 29 1d a7 3f c2 57 c5 86 19 a2 a3 3f
       0.045144353370964195 0.038346097661516435
000560 f5 0b 6f bc ba 99 b3 bf 16 8b fd b6 5b f8 96 bf
       -0.07656447506364812 -0.022431786578987
000570 1e 2e 24 7a 41 e7 a5 bf 25 d4 86 1a 3e f6 ae bf
       -0.04277996650679604 -0.060472431886786894
000580 f2 2b 4e 39 a8 f5 a9 3f 5a 58 8e d9 98 4c 91 bf
       0.05070234012153908 -0.016893757132116917
000590 ca 60 6a df 21 f5 a6 bf 1f 9f 32 cd f0 2d b8 3f
       -0.04483896114578696 0.09445099839888059
0005a0 4b ba 59 59 15 b2 af 3f 97 f1 fa e7 73 8b ab 3f
       0.06190554347709972 0.053798315112973664
0005b0 b1 ca 40 3a a0 36 b2 bf 84 c3 7d 6e c5 1f ae bf
       -0.07114602491564416 -0.05883614515085525
0005c0 1f 24 e5 62 c2 76 a5 3f 33 68 4a 4c 1c f4 af bf
       0.04192168671813356 -0.06240929061205271
0005d0 07 a9 b9 e7 f1 b7 9f bf c5 02 ce 15 92 e0 a5 bf
       -0.03097513176764102 -0.042728963052473236
0005e0 07 ce e6 5a ab 28 ad 3f d6 a5 f2 94 54 6e a1 bf
       0.05695090756071513 -0.03404487913332914
0005f0 85 5e 4e f5 79 b5 a1 bf 77 50 4b 56 2e 42 82 3f
       -0.0345876800485572 0.00891529274796475
000600 44 c6 25 f6 39 8f b2 bf 53 21 33 b5 fc ed 61 bf
       -0.07249796161138372 -0.002188676423973282
000610 d9 e1 f5 81 aa e7 ba bf 44 58 bc 0a dc 65 75 bf
       -0.10509744332183092 -0.005224093951048007
000620 f5 93 44 79 45 75 6b bf 90 ea e7 13 c5 ef 9d bf
       -0.0033518177898650366 -0.029234961833916773
000630 9a 87 90 15 d5 8b a8 bf c6 d2 14 4a cc 39 93 bf
       -0.04794183624495858 -0.018775169393125755
000640 db 4f 9c fe a5 0e 79 bf a6 0b 16 ba 70 ca c4 3f
       -0.0061174854434007065 0.16242798887477966
000650 cb 82 90 1b a0 98 c0 bf 95 73 ee 0c 01 95 b9 bf
       -0.1296577581970467 -0.09992987218579537
000660 b6 ff 3e 0f 20 9c b2 bf 80 b9 b9 5e 54 d9 aa 3f
       -0.0726947819921396 0.05243934303585984
000670 e0 f1 a4 b9 af 2a 9d bf 48 1d 95 39 7f 4b 6b bf
       -0.028483148294286553 -0.0033318981992668563
000680 22 1f 26 cc f7 a1 91 3f 56 b2 c0 c6 e8 47 a1 3f
       0.017219421229611183 0.0337517492883747
000690 4b a2 5b 83 2f 9e bf bf 22 12 d6 63 c5 c9 a1 3f
       -0.12350747067433436 0.03474251598075663
0006a0 36 fe 4b 44 2c 1e ac bf dc 43 6e c0 dc 57 a0 3f
       -0.054917701088922063 0.031920336237028585
0006b0 db ba 26 97 29 9f ab 3f ca 2d ef 15 30 1a 8a bf
       0.05394868822201256 -0.012745261830693706
0006c0 2a 74 ff ae c7 4d a3 3f 30 6f 3a a7 ba 03 92 3f
       0.03770278941349432 0.01759235044174473
0006d0 5c 66 0c ff 27 7f 83 3f 80 4f 65 a3 6f ea ad bf
       0.009519875021896933 -0.058429230399865695
0006e0 48 d5 ec 65 71 41 a2 3f 7f 13 1a 4d 42 74 96 bf
       0.0356555401726078 -0.021927867847370216
0006f0 cc c6 4f 8e 89 52 79 3f f3 a5 41 34 49 24 7d bf
       0.006182229354622936 -0.007114683107013675
000700 5c 0a b8 13 72 6f b6 bf 0b 1d 03 c8 73 b9 aa bf
       -0.08763802510660795 -0.05219613853983603
000710 8e 83 94 19 9f 30 ac bf a5 2e bc ba bc a8 bb bf
       -0.055058452484678985 -0.10804347571336821
000720 f1 8e fb 11 92 81 9e 3f c6 e8 4c 3d 6b 05 a9 bf
       0.029791147563527912 -0.04886946795746065
000730 91 cf 37 e9 26 e7 a8 bf 15 d6 84 8b c7 a4 9b 3f
       -0.048638549775119284 0.02699577130370841
000740 9d 35 68 44 1c 3b a2 3f 6a 64 06 d0 68 7d ac bf
       0.03560722670600145 -0.055644297975228366
000750 43 5b d3 04 f0 20 86 3f e9 03 b8 43 a8 a1 b5 bf
       0.010805010936037035 -0.08449794438639881
000760 27 29 2c d3 26 4b a1 3f 89 7e fa 3b 00 2b ae 3f
       0.03377648666180937 0.05892182094725935
000770 cc b6 83 05 09 a2 b7 bf e7 60 3f 89 1a c0 9b 3f
       -0.09231621155387443 0.027100004794051193
000780 e6 2f 8a 35 f1 87 a8 3f fb 63 9e 8d 06 c5 9b bf
       0.04791215685426646 -0.027118780511589318
000790 9c 09 d3 c3 62 f2 b4 bf 1c c5 b9 40 1c f9 6d 3f
       -0.08182351380222602 0.0036588241398979437
0007a0 67 74 75 fb dd a2 73 bf b8 b6 44 66 86 06 73 3f
       -0.004793994062621021 0.004644894597999709
0007b0 00 67 c0 9f fe 93 86 3f f0 59 be cb 34 90 6d 3f
       0.011024464845877713 0.0036088019532585155
0007c0 56 78 ff ee ce 36 b2 3f 75 0a e3 0d b2 04 86 bf
       0.07114880881224059 -0.010751143502038854
0007d0 d1 ba 3f d3 66 4c a6 3f b1 fb 55 16 b6 ee 95 bf
       0.043551648413872386 -0.02141842376067488
0007e0 fc e1 5c 43 ec 08 a5 3f 25 d5 32 51 41 10 b3 bf
       0.041083701346398244 -0.07446678383242451
0007f0 32 8f f5 b5 8a 7a 96 3f 19 26 ee fe ed 95 a8 3f
       0.02195183501807136 0.04801887261335142

encoder.1.0.bias f8 [64]
000000 42 24 0b 00 5d 5b aa 3f ae cd 84 bf 30 29 a5 bf
       0.05147829652339243 -0.04132988298297434
000010 f6 95 e9 bf cf 0e 95 bf fd 3f ff 1f 20 25 b0 bf
       -0.02056431397286037 -0.06306648999384375
000020 43 d9 c5 7f 17 a6 ab 3f ee ed ff 3f ba af b1 bf
       0.05400155482031945 -0.06908763945096272
000030 ff 42 fe ff 41 bd b0 bf 15 01 08 e0 79 95 b1 bf
       -0.0653878450377867 -0.0686870738936743
000040 6c 06 fb ff 00 bf b0 3f cb f9 a3 00 30 5e 60 3f
       0.06541448831105762 0.001998037104498728
000050 5d 37 fd 7f 12 4d ab 3f 43 e0 60 bf a3 cb 99 bf
       0.053322389720604525 -0.025190886073886764
000060 42 0b 00 00 c7 9c 90 bf c4 cd 0d 00 b2 d2 ae bf
       -0.016223058104525075 -0.06020122767122474
000070 2d 6c 0e 00 72 55 87 3f 55 2c 00 e0 d2 28 b1 bf
       0.011393442751616767 -0.06702917069212451
000080 ab 7d 0b 00 2f 16 ac bf e2 7c 68 01 1c 39 62 3f
       -0.054856747394065174 0.0022244975073274368
000090 5a 1b da ff 7d fb 7f 3f 21 e7 fe 7f cd e5 aa bf
       0.007808201012841598 -0.052534505724407994
0000a0 10 9b ca 1f 47 58 ac bf 44 10 f8 ff 86 4e 87 3f
       -0.055361006384648914 0.011380247770837688
0000b0 6d bc 77 02 2c c8 83 3f ea f3 28 00 5f 94 91 3f
       0.009659141373928837 0.017167553314937502
0000c0 0f 29 03 80 51 3b b1 3f 06 b3 0c 80 14 ad af 3f
       0.06731137633611105 0.061867371207290175
0000d0 6e 01 00 80 e3 da aa bf ae ee 0d 00 cd e7 81 3f
       -0.05245123803615824 0.00874290615478598
0000e0 29 5f cd 3f b3 b8 ae bf 9c b6 cb 7d 7c c6 92 3f
       -0.06000290063701492 0.018335290124858447
0000f0 46 b6 4e 80 45 40 84 bf 5a 6e 14 ff 98 23 8c 3f
       -0.009888213136800005 0.013739772114198679
000100 f2 91 f5 7f f3 3f 97 3f 50 78 78 01 3a 1e 73 3f
       0.022704891858113592 0.0046674981927293385
000110 0d d0 09 00 87 09 8a 3f 7c 2a fe ff e2 fa a4 bf
       0.012713484467191472 -0.04097661375916048
000120 e3 ac f9 7f 9e bb a4 bf 95 6c f8 7f e1 35 a8 bf
       -0.04049392044256608 -0.04728607833040958
000130 50 d0 03 00 95 cb 87 bf 2f 25 0f 00 60 ae a4 bf
       -0.011618770659403449 -0.04039287567827398
000140 c5 90 fe 7f 48 a4 98 3f be 08 02 40 87 72 a8 3f
       0.024064190685422888 0.04774878174159046
000150 1d 33 ee 7f e6 12 95 bf 4b 60 07 80 76 51 9f 3f
       -0.020579911764389103 0.030584193767794237
000160 0e 10 6a 00 a4 93 66 3f 2f 2b 44 00 6e 8e 77 3f
       0.002755947414074817 0.0057510659137374595
000170 7e 70 11 c0 14 7e 9f bf 2b 1a b0 fd b7 5c 7b 3f
       -0.030754398558528788 0.0066802203318787985
000180 6b 46 09 80 9f 42 91 3f d0 6a 21 40 d5 90 b0 3f
       0.016855709256850576 0.06470997634589115
000190 69 c3 fc bf 69 80 9c bf 4b 5c f8 bf 3e 92 b0 bf
       -0.027833607047060314 -0.06473152338763659
0001a0 f4 b8 fd ff 15 f2 88 3f 36 52 fb ff 12 18 a6 3f
       0.012180492281654832 0.043152421710747665
0001b0 57 bb fe 7f b6 bb 93 3f b1 ee f6 ff 9c 41 94 bf
       0.019270755350301396 -0.019781544802511323
0001c0 a8 75 ef 9f e1 94 a2 bf cc 40 09 40 16 62 a2 3f
       -0.03629212453209202 0.035904593769943455
0001d0 1d 4e 16 00 08 2f 9c 3f ab 60 05 60 32 c2 af bf
       0.027523159985845525 -0.062028478833498234
0001e0 af 3d e3 1f 33 94 b0 bf d8 4b 0a 80 74 b4 93 3f
       -0.06476134804255794 0.019243068995432683
0001f0 c8 1e 13 80 2e bf a1 3f 34 9f fe 7f ea 58 9b 3f
       0.034661725172154656 0.02670637518136161

encoder.1.1.weight f8 [64]
000000 03 5a d5 87 77 7f ef 3f e7 1e 67 51 9f 0f f1 3f
       0.9843099263187586 1.0663140468404266
000010 c0 3c 98 50 35 4f f0 3f 1a b9 d1 23 a4 f0 ee 3f
       1.0193379543523378 0.9668751430124616
000020 a2 ac bf e8 49 af f0 3f c2 86 dd fb 13 fb ee 3f
       1.0427950946566757 0.968149177479255
000030 63 a1 6c c9 42 8f ee 3f 31 55 76 5c 52 bc ef 3f
       0.9549879011220067 0.9917384916213107
000040 14 c6 d9 3b d3 89 ef 3f 39 d1 12 88 05 f9 ef 3f
       0.9855743569334572 0.999148145454945
000050 eb 66 41 3c 1f ca ef 3f a1 db b8 4d 25 78 f0 3f
       0.9934230973114756 1.0293324504870969
000060 b0 d4 7a 9f ef ec ee 3f 86 cd 19 07 fe 56 f0 3f
       0.966422854885101 1.0212383534788798
000070 a4 c1 ff 9b 67 b6 ee 3f eb c6 0c 1b e2 fa ee 3f
       0.9597662016731658 0.968125393707138
000080 e5 b6 1d 15 b5 dd ef 3f 30 a3 47 f0 89 42 f0 3f
       0.9958138859198838 1.0162448297434814
000090 a3 b8 62 90 a5 33 ee 3f f8 84 d3 18 98 34 ef 3f
       0.9438045330077965 0.9751701817405367
0000a0 12 ff 5a 2b 6d 06 f1 3f f7 68 b9 b6 41 65 ef 3f
       1.0640689557621426 0.9811104363282358
0000b0 e1 eb 80 30 7e ec f0 3f 46 0a ee 4b 98 9c f0 3f
       1.0577375311538548 1.038231178856806
0000c0 52 89 56 fc 16 e8 f0 3f f3 d2 63 ed a8 6b f0 3f
       1.0566625458673866 1.0262841485065877
0000d0 e6 45 dd c5 10 69 ee 3f 41 1f 53 f0 42 40 ef 3f
       0.9503253807580989 0.97659441889207
0000e0 a2 8f 13 4c 37 a7 ef 3f 6f f1 11 48 a6 33 f1 3f
       0.989162109934558 1.0751097502935314
0000f0 48 42 d6 a5 d9 00 f1 3f 41 37 d9 2e 4f 2b f1 3f
       1.062707565117437 1.0730735616702562
000100 27 3a 1c 9d 45 f8 ef 3f cd 14 2f 8f 1c f9 f0 3f
       0.999056631904584 1.0608182519074945
000110 63 06 72 ba dd 72 ef 3f 40 61 17 31 96 e7 ee 3f
       0.9827717439186013 0.9657698592009538
000120 c5 e8 1e a1 44 64 ef 3f e5 d7 da 53 11 6d ee 3f
       0.9809897562875213 0.9508139264860317
000130 3a 9b 01 70 60 cc f0 3f 4e 79 c6 0d 40 8e ef 3f
       1.049896657490264 0.9861145276115992
000140 cb 95 62 9d 59 86 f0 3f 60 19 31 73 51 e0 ef 3f
       1.0328003070693395 0.9961325883712497
000150 86 a7 3b 1f b1 ee ee 3f 80 c8 55 cc f6 27 ef 3f
       0.9666371927280444 0.9736284247321834
000160 c7 0a 16 71 1c d4 ee 3f 49 55 fb 10 af 76 f0 3f
       0.9633924683297089 1.0289755500173945
000170 9c d2 47 30 a4 7a ee 3f 16 02 7a 8f 5d d4 f0 3f
       0.9524708693484913 1.0518470387033907
000180 7d 30 83 34 c3 b9 ef 3f fd 1b f6 a1 3f 66 f0 3f
       0.9914260888704259 1.0249630285850337
000190 27 1e da 52 1e 15 f0 3f 4c a3 c0 74 8a 89 f0 3f
       1.0051558720023281 1.0335793076175888
0001a0 68 ba 85 98 62 cb ef 3f e4 33 f4 c0 46 df ef 3f
       0.9935772875740669 0.9960054176932513
0001b0 1a d7 7e 38 fc 91 ef 3f d9 be 20 ae 12 8f ee 3f
       0.9865704635073798 0.9549649620948585
0001c0 3c af 64 0b e0 4f f0 3f 14 78 55 df 7f ac ee 3f
       1.0195007748652207 0.9585570680608293
0001d0 80 f8 63 b1 7c 96 f0 3f 9a 6c ed bf 50 bc ee 3f
       1.0367400101963824 0.9604877232153683
0001e0 fa 3a 92 43 8e 26 f1 3f c6 65 b6 2b 63 ed ee 3f
       1.0719130172253117 0.9664779523620204
0001f0 8f 93 d0 d7 53 7d f0 3f b5 da 0c 45 7b 36 ef 3f
       1.030597537065862 0.9754005764615018

encoder.1.1.bias f8 [64]
000000 ff a4 c3 5d 5f 3b c1 bf 36 12 70 66 d2 b7 b3 3f
       -0.13462440565425735 0.07702364922449409
000010 42 ec b8 9b e8 8e 56 bf 61 e0 0b 8f c8 23 c5 bf
       -0.00137684550908436 -0.16515452370345243
000020 92 0d 3b 36 93 a6 b3 3f f8 4f 35 19 87 2c b7 bf
       0.07676048349372014 -0.0905231892150481
000030 ca 47 aa f3 77 8d c0 bf 73 e2 20 86 8c eb c2 bf
       -0.12931727788651265 -0.1478133826183413
000040 7c d7 b6 f3 31 2c bd bf fa 8e 44 f1 23 6a c2 bf
       -0.11395561409048399 -0.1438641479554617
000050 cf 7b f8 9c dc 21 c4 bf 47 a7 38 00 71 9f 61 bf
       -0.15728337921697608 -0.0021512229011663472
000060 6a f5 3a 0a 6c 1d b3 bf 11 c7 54 58 75 b3 b3 3f
       -0.07466769456637726 0.07695706755182764
000070 e6 96 1b 6b 54 77 62 3f 7b 32 f0 8d e6 af b6 3f
       0.0022541664883303112 0.08862153020181467
000080 b8 f7 2a 2b dd a3 b2 3f 90 2f 39 c4 e9 46 82 3f
       0.07281286529447939 0.008924318600428
000090 c7 c7 ee a1 23 88 b1 bf 78 5f 37 ba 3a 2b aa 3f
       -0.06848356917797026 0.05111106417797279
0000a0 ba f5 bc 63 80 34 b5 3f 15 b4 21 0a 0e 1f c1 bf
       0.08283235964787297 -0.1337602185698478
0000b0 39 47 2a f2 c4 ec 89 3f 59 38 43 da 21 77 b5 3f
       0.012658632889074194 0.08384906366993174
0000c0 7c 8b 98 0e 56 59 b9 3f 79 83 61 6d cf 9e 8c 3f
       0.09901941162438094 0.013974781537571467
0000d0 03 ee 4b 05 5f 3a ab bf 18 67 d3 c7 11 e1 ba bf
       -0.053179711720044785 -0.10499678734359141
0000e0 cb 3a 96 01 e0 38 c0 bf 38 6f b3 e5 44 e7 b6 3f
       -0.12673568799478682 0.0894663868706943
0000f0 1e a8 49 02 b6 57 b0 3f 5e 8c 26 8c 33 f2 b2 3f
       0.0638383632264383 0.07400819942135814
000100 42 32 6c 74 62 2a 99 bf a6 4e ca 7c 7e 5f b6 3f
       -0.024575746875642908 0.08739462420117636
000110 dc 50 33 73 4b dd b6 bf 0b 10 54 89 4c 9c bd bf
       -0.08931418955336617 -0.11566618302100566
000120 ab ca bd 42 0c a0 a4 3f 2c 1f 76 ab 6a 71 b6 3f
       0.04028356852258715 0.08766810117787988
000130 46 c7 ab 11 0b ec 93 3f d7 b3 0e a3 56 37 c3 bf
       0.019455120996048757 -0.1501262947253099
000140 8d c3 f0 35 96 81 b2 bf 7e 98 d1 70 b4 e6 6b 3f
       -0.07228983704477639 0.0034059070808779004
000150 5a b2 c8 0f 86 0b ac bf c1 f2 a0 cf 2a 72 8c 3f
       -0.054775418688539815 0.013889631711316299
000160 b0 72 d5 65 37 ac ab bf 66 60 28 69 f3 67 84 3f
       -0.05404828184211874 0.009963895460757221
000170 73 e8 41 a9 8b 29 ac bf 62 a5 f2 9b 92 c9 b1 bf
       -0.05500446740275402 -0.06948200518913475
000180 88 6a e7 6c 9d 7c a3 bf 2c 89 20 9d 00 13 a0 bf
       -0.0380601115645805 -0.03139497678809486
000190 d8 7a ef 4d a7 5e 69 bf 17 96 b6 83 aa bd b9 3f
       -0.0030968921341661786 0.1005503245892999
0001a0 8e 14 8d 94 7f a9 c1 bf 1e ba 72 2c 41 47 a4 3f
       -0.13798517945739203 0.03960612933711992
0001b0 36 51 31 ce aa d0 c2 bf ac 7c 6f a9 79 33 bc bf
       -0.14699301784515634 -0.11016044985398094
0001c0 77 d2 e5 c0 3b dc c3 bf ee 88 e6 80 55 1a bd bf
       -0.15515849036059468 -0.11368307492242355
0001d0 7e a9 aa 00 ba 10 b8 3f 00 37 ba bc d4 ac bc bf
       0.09400522724414448 -0.1120121918449648
0001e0 37 4c 9e f0 c0 2c b5 3f 07 55 8c 57 5f 1b c1 bf
       0.08271413683387228 -0.133647840259677
0001f0 81 de 6e 3c c6 7d b9 3f 76 52 6e 0d f6 9f b3 3f
       0.09957541442315156 0.07665956333068799
