models/matching_nets/SETA_n=1_k=5_q=15_nv=3_kv=5_qv=1_dist=cosine_fce=None.pth (torch, 316367 bytes, 24 tensors)

encoder.0.0.weight f8 [64, 1, 3]
00000000: 4bda a3f0 9795 cfbf 1902 42e3 57f3 d5bf
00000010: dd20 f1b4 29d3 de3f f110 ab20 c7e6 d73f
00000020: 2991 3613 849d dd3f 6e56 e7a4 f80c d73f
00000030: 5d77 52f4 f6f2 d93f 4091 c0a9 ea63 d8bf
00000040: db0d e4d3 e4e9 d9bf 9bdf 9394 47bf c23f
00000050: 9c01 40c6 e198 debf 7719 49e4 e037 e23f
00000060: 133b bed7 6344 c03f 3a93 563a faff d63f
00000070: b3e7 a4ca 8425 dabf 44eb 9544 31b7 b6bf
00000080: 11f2 b995 31b5 e1bf a212 ca98 2776 d03f
00000090: 1a25 69b3 b3df d63f 38d3 81ff 4181 dbbf
000000a0: 5ace 21a9 90a3 dc3f f4ef c486 4d78 c13f
000000b0: c235 3b13 d463 91bf f934 7742 b112 dd3f
000000c0: 11c9 a2b2 dde2 e0bf 3b68 5c45 4265 dd3f
000000d0: 84a3 e8f0 d6c0 d2bf 3ea5 fc9d 9690 d0bf
000000e0: ae6a 3ad4 7724 d43f 6ebc cf06 f748 d0bf
000000f0: b4b1 ef53 04a2 d13f f43b 72a0 1665 c8bf
00000100: 88a8 2bc4 3b43 d7bf 93b9 2abe cd4e c73f
00000110: 8a0e f327 ed74 b13f 0279 06e1 b369 ac3f
00000120: b76b 1dfe 2804 ca3f ed06 ce0c 2d2f ccbf
00000130: 4da6 46c0 44df d03f edf9 43f4 71fb ba3f
00000140: 927a 86a9 8613 debf 6b60 ca13 3072 d0bf
00000150: 10b1 2d25 d8b0 d2bf 0068 e5cc 29b0 d4bf
00000160: 1306 0874 2e9d d23f 8a7d 2056 98d0 8a3f
00000170: 0eec 639e 438f cfbf 4dc1 dfae 7eb4 bebf
00000180: 3253 062d de46 dcbf 4179 a635 ac48 c03f
00000190: 1778 f46f f2c2 ddbf 6ee5 d4b3 4331 d63f
000001a0: dbbd 61d5 f5d7 e13f 4aff b3c4 5583 e03f
000001b0: c376 8b63 72bf c1bf 93f3 131f 3c28 8e3f
000001c0: 18df 7450 eec8 cfbf 77da 4347 3827 bcbf
000001d0: 0da4 7f69 991f d53f b7a4 ef6f c689 c7bf
000001e0: 3993 02b2 3b00 d6bf d383 5be4 0302 d7bf
000001f0: 725f 801f a16c cfbf a1ad caf5 6c71 9c3f
00000200: 800f 66b8 4ed1 d23f dee1 bbc0 68b5 c63f
00000210: 8169 f1ac 8d49 d0bf b70a bdd7 470d be3f
00000220: cd4c ed5c 2b94 debf be7a e0bd 9c6e b0bf
00000230: d592 00d3 3496 c7bf 7326 1b23 9773 c1bf
00000240: 4ddd 3ae5 7564 c2bf 10b0 8d82 1788 d23f
00000250: a59b 9979 210c dc3f 514a e90b ee21 d1bf
00000260: 5948 def7 f12c d53f ff33 fc2b 0d49 d43f
00000270: ce3f 3797 dfcb ce3f 0300 18c4 42d4 c33f
00000280: 855e d9e7 52b1 d23f 3cd5 1c5d da72 ce3f
00000290: 739b 50b1 7d80 e33f 0257 7051 4474 d7bf
000002a0: 469f e802 523c dfbf 5207 a150 4cd5 d7bf
000002b0: 0073 1f11 3d2c c13f 8933 4625 0eaa bb3f
000002c0: 0035 d328 5de3 b5bf f6f8 03e0 2cdd 88bf
000002d0: fff8 535e 8658 cdbf 2fc0 8b42 e42c b5bf
000002e0: 5ebc 4827 6475 cebf def9 047b a65e d0bf
000002f0: 0ae4 3bd2 4a67 c43f 246c 449f c8d1 c33f
00000300: feb6 534b 5e5b dd3f d0b8 1bba 7875 cc3f
00000310: 9500 1816 5fb5 84bf 3dd5 de26 b666 c0bf
00000320: c9a5 e3fe 8661 d6bf 8189 0e19 c062 aebf
00000330: 8f0a d19f 4289 d9bf b7b3 5358 d566 cd3f
00000340: 8402 6f6c aa9f cc3f f0cb 5408 a7a4 d33f
00000350: 95ef 858d eb86 e1bf db6f a974 746a e2bf
00000360: ca16 f570 d00b cf3f 89f4 5e78 2fcb e2bf
00000370: 9973 fba4 d43b c7bf c72d af1a f91b de3f
00000380: ecf0 8b5f 1419 dfbf a169 75eb 0861 da3f
00000390: 1479 57eb 7858 e2bf 8297 74ac 20ce d03f
000003a0: 5e62 1bef 6b2f d03f 81b5 b8ed dad6 c13f
000003b0: 5332 ec00 bb8c d03f 238a 32e7 3cc8 debf
000003c0: 923d 65e4 e403 d13f d5a8 efe2 2343 d33f
000003d0: 41db a954 a58e e1bf 92b1 667e 4307 d3bf
000003e0: 281c 913a 8415 c9bf 5fd5 432a 93cc d93f
000003f0: 23c3 5b62 0cbe dfbf 3edc fc91 fcd1 c13f
00000400: 9ce0 d8aa 8c49 d6bf 4d29 0a0f 02c3 cc3f
00000410: 4829 ed2a 282e e23f 332b af2a a224 e23f
00000420: 3be4 051a f78d dd3f 5735 adef 812a c23f
00000430: 424f f6f6 61bc d3bf f3de b21a 9667 da3f
00000440: c7b3 da46 ff7c c63f 5f98 c66a 2630 c23f
00000450: a67a 5f38 7ad4 e03f 1c1e 9f68 10fc e03f
00000460: 8a4d ca05 3b58 cebf 9800 af3c 6a0e e2bf
00000470: eabe aedc b0eb b73f c911 51a2 d6c0 db3f
00000480: d8b4 98e7 ed1c d3bf e377 df9b adb5 ba3f
00000490: fe97 739f b313 d43f 8983 120b 3e20 e03f
000004a0: ee11 7689 d21f b5bf b26f a7bc 66e3 d53f
000004b0: 7bdc 9ad7 f636 dc3f 1234 03e6 e90b d03f
000004c0: fbfe 57fa 8b3d 963f 4327 c89d 86f0 c73f
000004d0: d5e0 b82c b56a c33f 97c3 6b10 35e4 c23f
000004e0: c645 8d57 7872 dcbf 4567 fbdd 8d67 d53f
000004f0: 1573 34b5 9d6f d8bf 8361 a96c 312d d9bf
00000500: f011 b91a 2806 d2bf 62a8 7659 2b9d b5bf
00000510: 0af1 06ea 5fc3 e2bf a9f4 21f2 c60e d03f
00000520: 29a4 9751 963d b7bf 695e 2258 87ca df3f
00000530: b173 1074 2610 d1bf 3048 f747 b040 e0bf
00000540: 44cb de40 1a20 d2bf fbfe b0aa 1eac d2bf
00000550: acaa 9035 7b39 cdbf 46c0 6d74 5802 d23f
00000560: 338a bcdc d827 b5bf 5a54 3827 9b84 d3bf
00000570: 630c 453e 2b17 d73f e30c c5af 5699 d9bf
00000580: fa6c 9af2 8eb7 dcbf 8673 ea5b 5c81 e03f
00000590: 87ec a5b1 1abf dfbf b425 b8eb 557a e3bf
000005a0: 4e7b 5dcf 21ad dcbf da35 ec89 90d4 dbbf
000005b0: c080 457d 0ca8 de3f 03e7 9e74 c7a1 dc3f
000005c0: b3e0 3462 871b d13f 8a70 d85e 0746 943f
000005d0: 8208 30c3 0daf d4bf 2912 d0ea 11d5 e0bf
000005e0: 0092 9c0a 02d0 d73f 30af f15d 4066 e3bf
000005f0: de0f 77ce ea67 cabf 3f6c 4196 cfdd debf
-0.24675273180010246 -0.3429774970354927 0.4816383616457765 0.3734605616593987 0.46273900867733403 0.36016670326112077 0.4054543863256777 -0.38109842851033093
-0.40490074818100447 0.14646239046828388 -0.47808117256502114 0.5693211039259002 0.12708709749537003 0.3593736238201931 -0.40853996076077265 -0.0887327949948658
-0.5533683704703113 0.2572115890582528 0.35740368385866506 -0.429764270323449 0.44748322026064147 0.1364838512471348 -0.01698237769487832 0.45426589480196317
-0.5276936043722192 0.4593053510049036 -0.2930199959396804 -0.25882497242362834 0.3147258350888177 -0.2544534269827129 0.27551372715859235 -0.19058497270859187
-0.3634786048629697 0.18209239755146864 0.06819040513351574 0.055493947237879496 0.20325195701556506 -0.22018969655260126 0.263627231378085 0.10539924825204823
-0.4699417739410957 -0.2569694703356677 -0.29204372053824645 -0.32325215348612346 0.2908435948484975 0.013093176010498881 -0.24655957445051552 -0.11994163293252776
-0.44182543179458655 0.12721779460566476 -0.46502362187482177 0.34675686418230256 0.5576123397458405 0.5160321084840487 -0.1386549936350346 0.014725179384635278
-0.24831942490140402 -0.10997344722623291 0.3300536661395775 -0.18389206376676778 -0.3437642324809534 -0.3594979982427137 -0.2455026058021264 0.02777643442338518
0.29402511604006776 0.17741116915546135 -0.25448934449163835 0.1173901464181125 -0.4777935416688706 -0.06418780933061449 -0.18427143385738157 -0.13634003843462814
-0.14369081204288606 0.28955638646471105 0.4382404029369645 -0.26769591487132965 0.3308682365978988 0.3169587068121586 0.24059672244629698 0.1549151856888785
0.29207298890603567 0.23788003489031861 0.6094349349194615 -0.36647136643419753 -0.488056662407406 -0.3723936831848863 0.13416255317761028 0.10806358728423339
-0.08550054785446903 -0.01214060839310747 -0.22926406484470616 -0.08271624207168381 -0.23795749586267595 -0.2557769967424103 0.15940222993211278 0.1548395898506395
0.45870168071893136 0.22233494841879642 -0.010111563550708783 -0.12813450715990796 -0.3497025956299607 -0.0593471556269547 -0.3990027008732477 0.22970072567787067
0.22362261099444336 0.3069245892867789 -0.5477197422146555 -0.5754949835350048 0.24254804149148007 -0.5873029089922436 -0.1815133863045986 0.47045734029663006
-0.4859057362625794 0.41217253679283244 -0.573299846317044 0.2625810321936727 0.2528943858174325 0.13936936004158088 0.25858950700857014 -0.4809715516841228
0.265862677614643 0.3009729114697966 -0.5486628202041645 -0.29731833785879147 -0.1959691320391539 0.40311125876845283 -0.49597463231389066 0.1392207825499287
-0.3482391041211572 0.22470117315635676 0.5681343878179996 0.5669718583752456 0.46178987065610827 0.1419222278877139 -0.3083729659785953 0.4125724087457307
0.17568961105044265 0.14209442342434195 0.525937185386131 0.5307695430173598 -0.23706758291937674 -0.5642596421457879 0.09344010722883991 0.43364492274511385
-0.29864070526930453 0.10433468871585165 0.31370249339522605 0.5039358345276109 -0.08251682144152259 0.34200447486159213 0.4408547502056945 0.2507271524635267
0.021719157366532276 0.18702776626769876 0.1516939609880469 0.1475893335514484 -0.44448669958100273 0.33444544485029254 -0.38181250282086526 -0.3933833657406682
-0.281625772568332 -0.08442946371238372 -0.5863494463770007 0.2509019245697553 -0.09078349582672786 0.4967363701520982 -0.26661073049927625 -0.5078965573868626
-0.2832093842982213 -0.2917553584011185 -0.22831668963893514 0.28139315958015165 -0.08263926877092657 -0.3049686320312667 0.36078911858584756 -0.39998404660236825
-0.44870351497384287 0.5157911105376207 -0.4960390791745301 -0.6086835483449051 -0.4480671429682176 -0.4348489138509116 0.47900688394112123 0.4473742140649934
0.2673052271889091 0.0197983886374549 -0.32318443356792426 -0.5260095201670697 0.37207079921998343 -0.6062318644376088 -0.20629630166342755 -0.4822882621135171

encoder.0.0.bias f8 [64]
00000000: 6a4e a33f f295 d43f fea6 0560 ee2c dabf
00000010: b3db b5ff ffb3 bbbf 4060 afbf 48dd d3bf
00000020: 92dd b6ff c2a4 d63f 9e27 6bff 5e41 c03f
00000030: 2db6 367f 7b59 dc3f c4d0 0be0 ae87 d8bf
00000040: 2e96 9bbf 493b d53f 9f76 35ff 6f7a de3f
00000050: 0ed5 1301 1cc5 b2bf 2092 f6df 69f2 e0bf
00000060: 076a 3480 1487 dc3f ec6b f7ff 9e2b d1bf
00000070: dba5 6a40 bdc7 dcbf 103c c0ff aa93 df3f
00000080: 3c67 8802 6181 bb3f 59b4 4e40 9952 cebf
00000090: a598 397f 87b6 dfbf 4ffa b8bf 3d20 e03f
000000a0: 84df 867f 96e8 c83f 6c02 2601 b8fa 8bbf
000000b0: 1be7 f7ff 7146 e13f 25cc 5bbf c771 c2bf
000000c0: 463c 0100 5f0b dc3f a026 b3fd 7fce 83bf
000000d0: 4dee f2ff 5897 dd3f 7f49 fbbf 5a2b d03f
000000e0: b642 3e00 7988 e03f 967a 9ef7 f339 bd3f
000000f0: 63c5 5600 81d4 bb3f 8c0a 77be 39e5 cfbf
00000100: c77e 0280 251d dcbf 6d58 4a80 3655 dabf
00000110: eb2c a200 ac12 e2bf 5d34 27ff 6b26 953f
00000120: 71f0 9260 5d8f ddbf a8f2 c7bf e702 e1bf
00000130: 5e2e 2e01 f50d bc3f e1dc c8fc 80d3 b43f
00000140: 3f63 0803 ecd5 91bf 6ac0 1002 f0e1 873f
00000150: 239f 8cbe ff8a c2bf a0fb 0780 d513 c5bf
00000160: 9231 c0bf 1b01 d6bf 6601 f73f b100 d03f
00000170: 3604 1240 4d86 d13f 1f99 f5ff 4cff dc3f
00000180: 8613 8b80 659c b6bf 5304 f55f 6031 d1bf
00000190: a964 0a00 5b6e e23f f1c9 43fb f352 9b3f
000001a0: 7051 35c0 cdf5 e13f f84a 2480 b502 de3f
000001b0: 03b9 3300 94eb c23f bac4 fcff 87c5 dabf
000001c0: 42c4 8ebe 82ad c2bf faf6 45a0 fea2 d8bf
000001d0: b3ca 0e80 1b76 d73f fadb fdff 57d3 b0bf
000001e0: 43fd 7a80 d8aa c33f f7cb 0340 65db dbbf
000001f0: 8771 5340 240b dcbf 2ad6 af02 703e bdbf
0.32165199484481966 -0.40899237992435633 -0.10821533196381843 -0.31038111418957115 0.3538062569818631 0.1269949671898844 0.4429615728684862 -0.3832814395857549
0.33174365722365706 0.4762229912065354 -0.07332015062623418 -0.5295915006905183 0.4457446338653032 -0.268287420241619 -0.44969111719782767 0.49338793731379926
0.10744291602932504 -0.23689571037303628 -0.4955157034331797 0.5039356941777643 0.19459801890274886 -0.013661801848457965 0.53984928125212 -0.14409729808503005
0.43819403648825916 -0.009671211175731387 0.4623625277997448 0.252646148187658 0.516659260249148 0.11416554255854758 0.10871130235934383 -0.24918290901230866
-0.4392789602370439 -0.4114509823642781 -0.5647792827961927 0.020654380272209106 -0.4618752902131354 -0.5316046472285807 0.1095879676706146 0.08135229274272461
-0.017417609868149993 0.011661410391838174 -0.1448669128815193 -0.16466778518221492 -0.34381765103969386 0.2500422596604238 0.27382212883827906 0.45308232303649904
-0.08832392109168383 -0.2686387002068546 0.575971126632017 0.02668362828348764 0.5612553361957406 0.46891534341663954 0.14781427392831156 -0.41830635069625155
-0.14592012695860218 -0.384948402897734 0.3665837050022375 -0.06572484969898076 0.15365129731615398 -0.4352658391136965 -0.438180029695808 -0.11423397126767357

encoder.0.1.weight f8 [64]
00000000: c270 aa6b 615f ef3f e008 9c9d e2ce ef3f
00000010: 083c fa32 e7ae ef3f 2d38 e81e f4e2 ef3f
00000020: e0b7 b927 cf7c ee3f 1236 3b41 906c f03f
00000030: e2c8 b956 80ed ef3f 1be9 e5b4 0100 f03f
00000040: c4cf 0ccf eea4 ef3f 49bd 638e 8de0 ed3f
00000050: 10e0 dfff 34d8 ef3f 356f 1151 15f4 ef3f
00000060: fd9e e6bc 5db9 ef3f a681 beac b508 f03f
00000070: e072 a8f3 2d91 f03f 769b 9ddc 490f f03f
00000080: 4580 6695 45f7 f03f f734 8b36 7f26 f03f
00000090: e4fe 3662 48ee f13f 278e de4b 479f ed3f
000000a0: 8814 2f00 7b71 f23f 1c18 e9b6 fbbf ef3f
000000b0: fe75 6ada ea9a f03f 41d5 3339 3713 f23f
000000c0: 71db 5862 b3af ef3f 2b29 848f 5228 ef3f
000000d0: ea56 ef2f b7c1 ee3f 7e7b c2b1 c143 ef3f
000000e0: ab38 d69b fa88 f03f 791b 0126 bd9f ee3f
000000f0: 09e5 a20f fd2e f23f 4ca1 4604 600f f03f
00000100: ecaf fdbe 96d3 ef3f 215f 598b b50a f23f
00000110: c8f1 4b42 6644 f03f 6a81 40e5 500d ef3f
00000120: 8df7 6b27 8239 ee3f cc01 0833 e42e ef3f
00000130: edb8 5d46 812e f03f f6fd 4899 597e ef3f
00000140: 269d 87de e256 ef3f 54f7 72d4 f096 ef3f
00000150: 474a 7647 1c15 f13f 52a6 5aa6 4601 f03f
00000160: 05d3 e881 a8d0 ee3f 64f1 97b8 cd66 ef3f
00000170: 480c ae22 6328 ef3f ffb5 a79b 9fdc ef3f
00000180: d8d4 13db ae8b ef3f b072 e71e b1b3 ef3f
00000190: 56bd 0646 688f ef3f 156f 792b fe32 f03f
000001a0: dcd2 ed78 254b ef3f 3388 a202 8543 f23f
000001b0: 1e7e ffa0 1bf9 ef3f b0bb 78ed bc1a f03f
000001c0: c129 bc89 5153 f23f 720f 7674 eca5 ef3f
000001d0: 6099 2611 f47b ef3f d6d2 f582 f9d8 ee3f
000001e0: 62c8 4982 155d f03f 97fe f275 4b38 f03f
000001f0: 420c dd55 ce5f f03f 12f6 f9b9 abf4 f13f
0.9803931334349942 0.994004543143344 0.990100478711498 0.9964542964605748 0.9527354980361871 1.0265047596070684 0.9977418607579944 1.0000016275722092
0.9888834041544148 0.9336612492606174 0.9951424596356464 0.9985453208314313 0.9913777055234899 1.0021263835734344 1.0354442136660325 1.003732549457451
1.0603690944626731 1.0093986635795866 1.1206744991795228 0.9256931764434214 1.152705193251025 0.9921854565116095 1.0378216297025342 1.1296913370582191
0.9901978417245642 0.9736721804668255 0.9611469207981973 0.9770210716122703 1.0334421241164289 0.9569993726989728 1.1364718066018347 1.003753678038339
0.9945787172596261 1.127614540417149 1.0166990842545705 0.9703754880502349 0.9445200700717905 0.9744740483002317 1.0113537548709772 0.9841735833978749
0.9793562265666977 0.987175383510229 1.0676539222228187 1.0003115175444646 0.9629709756178221 0.9812992673246694 0.9736800839749629 0.99568157578841
0.9858011511666076 0.9906850436778623 0.9862557761861506 1.012449426480946 0.9779231416601664 1.141484270374815 0.999158682297949 1.0065278316721837
1.1453414325975333 0.9890043520576752 0.9838810286499147 0.9639861638848639 1.0227255906470636 1.0137438399687306 1.023390136150525 1.122234083624225

encoder.0.1.bias f8 [64]
00000000: 96e0 5fc0 53f0 c0bf 620c 532f 6bf4 c9bf
00000010: 7b61 6ae8 961c 4f3f eb6b d169 afc2 bc3f
00000020: cce7 278e 0789 bdbf 084c bc52 297c a53f
00000030: b065 f9e7 d146 753f 3eeb 5c1d f8ae 7d3f
00000040: e3a4 c2f9 f00a b6bf 95a4 c8e6 999d bbbf
00000050: f325 0ec3 6f3d 803f 5a30 2bf5 999f c6bf
00000060: 71aa 9bd7 f277 b43f 319e e0e1 231f a03f
00000070: 6408 2d21 bea9 aa3f 20dc 280a 0e48 a63f
00000080: a94c 15b9 0b91 b53f 4a68 d9f5 97ef b03f
00000090: 4216 3e11 b858 c23f 2a88 3ab2 2159 c5bf
000000a0: 9a15 2a50 94dd c33f 1272 29fd 780a b5bf
000000b0: 6a80 41bd c57a b33f db4c da08 715a bf3f
000000c0: 154f 3faa ebd4 c6bf 6ccf 0933 22bf b4bf
000000d0: d299 fda7 a821 c8bf 4d62 176b 11cb 743f
000000e0: 6708 1ead 9b24 a53f 69ff 23c4 50c4 a33f
000000f0: 9abd fad6 1e62 c23f e965 990d 0009 c5bf
00000100: b477 20ee 3317 c1bf 1ec1 5104 1767 bd3f
00000110: 01e4 a408 75b0 c3bf 5cf5 da62 c031 603f
00000120: 4b2e a571 8841 99bf 5fa4 feac a0de a23f
00000130: 5ff9 181f e2e2 c0bf 6608 335b b4c0 7a3f
00000140: af38 322d 46c4 c5bf 29a8 53a1 7da3 bebf
00000150: 6c92 5d43 0434 b93f be59 0321 514f c6bf
00000160: 7198 5af7 eb30 c1bf 1196 3691 9e71 c8bf
00000170: 98eb 742b 18a4 b7bf b9d1 6501 3bd8 c4bf
00000180: 0b35 1522 da0b c1bf 57fe 094c 031c b0bf
00000190: 6540 1e2a 32ec a2bf f60d 3595 6cca c2bf
000001a0: 1636 b8ab 3157 b5bf eaeb a551 5cee bf3f
000001b0: acb1 aa2c 69e6 6cbf 7b1b f201 1446 a63f
000001c0: 8422 ff42 80e2 c23f 5172 7b30 298a a8bf
000001d0: fd2a 558f a288 79bf b6bf a06f 6bef 98bf
000001e0: bf8d 5405 cf86 8bbf 05d2 6d67 8aa8 c2bf
000001f0: 1764 de8b ec0c 90bf df1f 3ce6 129c c03f
-0.13233420270239965 -0.20277156649362654 0.0009494530539369406 0.11234566052864607 -0.11537215443232113 0.041962901448776846 0.005194492288489824 0.0072469417553360765
-0.08610445115722913 -0.10787355312699483 0.007929680957903229 -0.17674564810875176 0.07995527042263874 0.03148758060734414 0.05207628397921907 0.04351848482149756
0.08424447315819585 0.06615590812853714 0.14333248941345472 -0.1667825813538582 0.15519956506993254 -0.08219104939184543 0.07609210844521078 0.12247377840167266
-0.17837282002312152 -0.08104146715214505 -0.1885271854655018 0.005076473274549698 0.041294922716603115 0.03860714334768895 0.14361939904254656 -0.16433716453575123
-0.13352059485708667 0.11485427718594507 -0.15382254526210207 0.0019768483678876247 -0.024664050995211444 0.036854764096752694 -0.13192392843661602 0.006531433598128888
-0.17005231100887871 -0.11968217075960354 0.09844996113458543 -0.17429555999724572 -0.1343054731161746 -0.1909673890160524 -0.09234763203578067 -0.16284883087395288
-0.1331741968555565 -0.06292744261190229 -0.03695828212869471 -0.14680249486455893 -0.08336172525761074 0.12473084443438123 -0.003527837199120939 0.04350340389014825
0.147537262643045 -0.047929083984602834 -0.006233820914824714 -0.02435081356833254 -0.013440720892112233 -0.14576845216983272 -0.01567430118265997 0.12976299516617382

encoder.0.1.running_mean f8 [64]
00000000: 2f7d bb9d 0576 d43f bd11 f698 dfc9 d8bf
00000010: 93bb 006f ec72 bdbf 1204 6c4b 2c97 d3bf
00000020: a68b f39b febb d63f 7880 fc28 5dbc be3f
00000030: e0ea 87fd e6c7 dc3f c610 0ae4 c6dd d7bf
00000040: f1f5 7e15 6ad1 d43f f961 ffa9 8e3f de3f
00000050: 2fa6 8728 3811 b4bf 628e e562 29c5 e0bf
00000060: ab9a deeb 84d0 dc3f 007f fc7e f3e2 d1bf
00000070: 38be df9a 8928 ddbf c523 e09d af2b df3f
00000080: ed21 2824 abe4 b73f a8c3 96fe 8507 cbbf
00000090: fb04 36c6 6c12 e0bf 16d9 a73b 7f25 e03f
000000a0: ce89 ca06 aab5 c63f 5b09 f18e 45d6 72bf
000000b0: c46b b51d d0ea e03f 132d 4a05 ea55 c3bf
000000c0: 0564 3b35 edb7 dc3f 5dbd f7a5 0796 66bf
000000d0: 0189 dfa3 0263 de3f f5b2 19b7 12ba d03f
000000e0: 1402 1101 9a1c e03f 63f0 05ad ee45 bd3f
000000f0: e8ee 70eb 1147 b93f 4839 7824 63c2 cfbf
00000100: 82b7 26c7 4156 dbbf a725 29cf fef4 dabf
00000110: b717 3ef5 a60a e2bf 6997 3b6d 631d 783f
00000120: 2bcd 31d3 a62b debf 6e35 bf45 70c8 e0bf
00000130: 10a5 2f4c 1dc9 bb3f 2ec8 ba23 6d70 b43f
00000140: db92 7bb3 bd78 91bf f645 af66 3485 843f
00000150: 76d8 4c3d ba2d c4bf a862 5307 02ed c1bf
00000160: 1d10 ae09 c5a9 d5bf b197 deac 5cd9 d03f
00000170: db59 3353 2f79 d23f f27c 7e2e b0f4 dc3f
00000180: d5b5 ec6e 600f b6bf 1a26 f328 844e d0bf
00000190: 70d9 9cd5 11d8 e23f b731 fe5d 4e2c a23f
000001a0: a2c6 ffc1 7cac e13f 87cf caad 6c20 dd3f
000001b0: 1796 ce3d 8fec c13f 979a 55b1 fc17 dbbf
000001c0: fea0 6158 9a89 c4bf bed9 d83f b2c2 d8bf
000001d0: e097 0e0f cde5 d63f 0f15 067f 2a8f b3bf
000001e0: 30b2 24f9 0abc c23f 61a0 0c59 6d01 dbbf
000001f0: 5435 174b 1898 dcbf 206b ca9a 01a2 c1bf
0.3197034874301207 -0.38732137620561585 -0.11503484449415984 -0.3061018692533831 0.35522427777885424 0.12006170511858894 0.44970106848601965 -0.3729111887880773
0.3252816400452892 0.4726292286045744 -0.07838774671076786 -0.524067586095452 0.4502270034230757 -0.2794769992924415 -0.45559921383298585 0.48704138200315256
0.09333295471891008 -0.21116709643459086 -0.5022491332348687 0.5045772709989105 0.17741895038223138 -0.004598876678814835 0.5286636905906268 -0.1510593915776118
0.44872598837315564 -0.0027570866948207055 0.4747931099247041 0.2613570011224476 0.5034914036587588 0.1143483326358719 0.09874069212031211 -0.2481197288584076
-0.42713970611918495 -0.42120332937755695 -0.5638003148931067 0.00588740194846147 -0.4714142858931207 -0.5244675981754605 0.10853751287472257 0.07984048960023024
-0.017062152938609337 0.010019692786872075 -0.1576454924886012 -0.14004540784551023 -0.3384869188814735 0.26326672441279714 0.2886465370660553 0.4524345830959212
-0.08617212970849349 -0.2547922515774147 0.5888756916163356 0.03549427888274031 0.5523055829091457 0.45510403606316924 0.14003172414702256 -0.42333905523120435
-0.160449307589495 -0.3868833182818 0.3577759406128944 -0.0764032898060416 0.14636361279680576 -0.4219621057150161 -0.4467831357295229 -0.13775653894557482

encoder.0.1.running_var f8 [64]
00000000: d882 9985 12f3 5c3f 399f bd66 6309 883f
00000010: 2368 aacf d5d6 693f f295 e1e1 2f41 5a3f
00000020: d839 b656 05bc 523f 821c 18da bc9c 623f
00000030: 34ed 5d24 cc14 5c3f ee36 54bf d65d 673f
00000040: 59a8 f17c 9fdc 5d3f a361 50cc 9a61 443f
00000050: cc53 2cf1 9389 5c3f e23e 1bde 2db4 493f
00000060: 2946 22d2 b96b 453f 5102 5a13 9ace 6f3f
00000070: c69d e1e7 3924 603f 48ba 25db b6ff 523f
00000080: 9de0 87ed 5aff 733f fd88 6408 0d09 913f
00000090: 357b 0826 a86c 523f c04f aa88 14f7 353f
000000a0: c899 276b 4e41 7e3f 695b e0b0 0149 623f
000000b0: 4a4c b0de cd42 6a3f efbf d4d5 4785 543f
000000c0: f005 5fc4 a57d 6e3f 4fbc 4d98 8bca 623f
000000d0: 9598 e46b 5dcd 6e3f 3128 c127 e887 6e3f
000000e0: 58cc a983 6563 763f e403 e42e 3b2e 0f3f
000000f0: 6248 efae 49a8 633f b16c e583 bc3b 413f
00000100: 7c74 8156 063a 713f 0059 4000 0944 653f
00000110: bdda 94c2 01ff 523f fc45 085d 7242 803f
00000120: d0d1 28cb 17fc 6c3f e047 dcf3 0e5b 603f
00000130: 999f 0c6b 4c23 603f dfae ad5f 9834 543f
00000140: ea27 7d91 1ae1 5f3f 6a51 15e0 7e35 573f
00000150: a120 1ef8 e0b7 703f f44d 625e 15e0 8f3f
00000160: 31c6 f383 3b47 623f 3d56 88e2 d535 723f
00000170: 4283 4a1d 4672 7e3f 4547 b2a9 2804 653f
00000180: 9143 ebbd 5be5 513f 53de 2b5b 1760 733f
00000190: 61ed 4705 d8c0 723f 315c 9d5a c959 5f3f
000001a0: d4d7 e999 800a 633f b7af 911b 8981 743f
000001b0: 0e29 14d0 d8e0 623f 939b 9b93 9972 6b3f
000001c0: e2d7 e575 7785 753f 8ea0 f4ae 7c0a 503f
000001d0: 77a6 a6c4 6c14 703f e5fd a16b 4be5 7a3f
000001e0: 3bd5 2a25 a929 703f 0db2 130b 87ef 733f
000001f0: 4bcb 6d67 0d7f 6e3f cca2 669b 8671 8b3f
0.0017669373395607282 0.011736656735322636 0.003154199218738733 0.001602455864053606 0.0011434604774397308 0.002272003985811789 0.0017139428686892668 0.0028523630413762524
0.0018226201534852408 0.0006219869470696536 0.0017417855021382043 0.000784418484011309 0.0006537110641763921 0.003882695130244231 0.0019703989956274285 0.0011595998481329795
0.0048821975583381 0.01663608897900647 0.001124538619599225 0.0003351616984812421 0.007386499712515655 0.002232077887139129 0.0032056828399702796 0.001252479697836147
0.0037220227850134277 0.00229384674678771 0.0037600350034550736 0.0037269148142842425 0.0054658856775971695 5.947225678149657e-05 0.0023995818259914684 0.0005259199604482815
0.004205727345916729 0.002595918254893026 0.0011594311893767105 0.00793923708355048 0.0035381760328851777 0.0019965450327470297 0.001969956640454695 0.0012332428002207946
0.001945758767720291 0.0014165629402969845 0.0040816104755167235 0.015564124052878527 0.002231231919375153 0.004445872772085799 0.0074331988186323045 0.0025654596516425953
0.001092280952139844 0.004730311617769783 0.004578441458302635 0.0019134966227818513 0.002324343847528868 0.005006347252770319 0.00230448099376191 0.003350543932231395
0.0052542368342667085 0.0009790628062749415 0.003925728679328714 0.006566328631492512 0.00394598076188873 0.004867103112002014 0.0037226926610229075 0.013400127046069875

encoder.1.0.weight f8 [64, 64, 3]
00000000: 31ee 5444 2db0 abbf 5535 a2da 93c6 b0bf
00000010: c35a 8f3c 5e82 a73f 6802 5154 8678 95bf
00000020: 6d7a f847 d6d8 993f 8616 c7b5 3f4f 92bf
00000030: 42e4 9821 f0c2 8c3f 57cd 31b4 6907 a63f
00000040: fbd8 f42d f57d 9bbf b30e 3eab ff3c babf
00000050: 085e 4f70 b984 94bf 36e9 6733 4725 ad3f
00000060: 961e ee17 fe8b 95bf 1061 5f85 c705 a0bf
00000070: b818 7c1b 6800 703f e9fe 6b60 0c4d 873f
00000080: d211 25f7 3a84 a6bf 0fd9 917c 88aa aabf
00000090: 0444 b633 efc3 b6bf 0c23 d23a 0e1f 793f
000000a0: f86c a319 407f a23f 93d9 687e 8178 aabf
000000b0: c0b6 9622 3e92 9e3f eabd 7b59 533d a23f
000000c0: 3278 f6ed 91cf b2bf 4ece 8cef 602a b6bf
000000d0: bff7 e6f4 6d46 9b3f a4d7 0ea1 c7ad 94bf
000000e0: 8c60 d781 821a 633f 7be7 c243 3976 7abf
000000f0: d8be ca9a e887 903f a7bb a00c d5ed acbf
00000100: a7c8 82fe 8249 873f 972c d1ce 8513 ad3f
00000110: fc84 1b07 b735 b8bf e924 e20b d627 a03f
00000120: 532b a045 384f b6bf be47 0659 6d22 a63f
00000130: 378a ed9b 3f76 b2bf 31fd 2c68 75e6 523f
00000140: 933e 596b 89fb b43f cbc6 35f1 6cab ac3f
00000150: f896 c6a5 5a0d 75bf 70eb 23ba 6de0 a0bf
00000160: f5cd 7fdd 0cdd adbf cb2e 49f9 a282 85bf
00000170: d1d8 67b8 9a2a b93f 36cd 2e53 493b 723f
00000180: 6c4d 8f58 f741 433f e144 e4f2 a790 a73f
00000190: 8dc1 b768 166e 9e3f 3186 f033 1481 b0bf
000001a0: 4f08 24f7 e687 b0bf cca6 c056 653d 9abf
000001b0: 8c9b f9b8 f95c 7c3f 0387 8d4e 8dcb b33f
000001c0: 9763 1d05 65c5 b0bf d9cb d3a7 378d b5bf
000001d0: cfad fcbc 2559 bbbf 76c2 f75c 68cf 993f
000001e0: 3abc d029 6d5d ac3f 419e e43f 198f b53f
000001f0: 5f0f dc57 df29 ba3f cec9 07d0 5ddc b5bf
00000200: 4885 477a 4133 9c3f 7ccf a6ab fff2 adbf
00000210: 3ad4 fc4d 3e56 bbbf 1b3e 3bc2 a55e a73f
00000220: 6463 cfc5 50c5 b0bf 5e1e 9044 a340 b63f
00000230: e5d2 91b0 a90f c23f 5994 943b 589a 83bf
00000240: 4b0e d61b af10 82bf 9fbe 02df 7c90 b4bf
00000250: 5ef2 e96e c4af 98bf 7934 cdc6 9a40 943f
00000260: 1451 7bcd 050d 54bf 250b ec23 b3c3 923f
00000270: d37e 70c9 76b2 b4bf 689f 1e4a 6640 81bf
00000280: a323 abe7 860b ab3f b356 e0f2 b085 4d3f
00000290: 3f5e 8e60 c834 79bf 83df d62b e0d2 b0bf
000002a0: dc54 7bb2 0160 a1bf 94c8 b2dc d89d 88bf
000002b0: 8982 ef9a cb3a 8fbf 08e2 4f60 604f 89bf
000002c0: 80ca 3599 6271 b1bf ac94 f04f 3e48 82bf
000002d0: 5845 055a 4b0f c03f 52ac c44d e0b2 bb3f
000002e0: eee8 e5af 0e7d ad3f 65e1 df58 f7b2 b3bf
000002f0: ad05 c651 9045 98bf 8ae9 228f b2b4 a73f
00000300: 477f 375e de15 a63f 003b 2d59 8c52 b4bf
00000310: c37d cc8d 5c7d a23f b541 5693 534f 9e3f
00000320: 7ae9 7a19 dd95 9f3f 665c 5a23 6cf9 92bf
00000330: 0bc9 901d 6362 953f 236a e009 c448 95bf
00000340: 1d68 5e23 fb33 903f 18d5 bf01 efa5 8d3f
00000350: 7b70 00ff 30b7 80bf 84ee 55ca 365c a9bf
00000360: 3301 57e1 84e0 b03f 5012 74fd a193 b1bf
00000370: db22 8643 c169 a8bf 0a2e ec08 2515 b2bf
00000380: 3aac 0d36 9dd3 99bf 9d99 987b e108 b1bf
00000390: 5d5d f17b 19c1 a8bf e8ca 573f 37cd b4bf
000003a0: 19a5 bba5 ac93 953f a50a 60d0 620b aebf
000003b0: cff5 4b22 8da9 b6bf ad29 3c59 b446 b33f
000003c0: d8a9 4311 08bf a9bf 2318 ad77 d36c 733f
000003d0: 7ee8 1084 f614 ad3f 37f7 40b1 dee0 9abf
000003e0: c2a4 6bf8 4c74 933f b4df 5b46 4547 943f
000003f0: 5405 b31e 912f acbf 8a76 419f eb0b 9b3f
00000400: 9be7 282d 05cc b7bf 8086 29c8 3810 71bf
00000410: 2c12 8a77 5e6c b0bf 329b bb70 d32c aabf
00000420: 229c ad57 65ae a8bf 5479 47c7 0576 80bf
00000430: 3887 e3df f838 91bf 4567 5783 5953 b5bf
00000440: fb15 7916 7f6d b9bf ea34 cc1f 801c 6d3f
00000450: 766f 5344 e6a2 993f e886 aebc c606 93bf
00000460: 23d0 f7b3 a49c 6ebf 8afb ddea e397 a9bf
00000470: 6b4d 6285 e2f0 a73f 4528 e025 2d64 afbf
00000480: 6a17 12dd f718 abbf c556 5538 15ef acbf
00000490: bada 61e2 733c b13f 3b11 471a eab7 933f
000004a0: f748 b630 26b4 9dbf dd3c b4ed 87f5 b0bf
000004b0: 0731 5bef dc38 b3bf dec3 80d8 167e 7d3f
000004c0: 296a e748 cfaf a73f 5eaa b86f 11ad 59bf
000004d0: 4a62 a60f 4dea a23f 4f74 3d5f e60f 91bf
000004e0: 796a 798e c8e0 aebf 435c 7fcd 8cb7 96bf
000004f0: 1562 16c8 9035 98bf 539f 2213 47d3 92bf
00000500: ac1d a8cf 9a64 ba3f 1d22 feb9 c622 aa3f
00000510: febd 69d9 f2e1 bdbf fbe8 2c18 ffa4 8ebf
00000520: a099 3b5b 238a aabf f6d9 5850 8613 7b3f
00000530: dd0d b2d5 28cb afbf aa02 2ce8 27e1 a23f
00000540: cc53 6eb4 fb95 77bf 9f82 253a 3021 b63f
00000550: 1607 1db5 3b2d ad3f f7a6 7e21 70be abbf
00000560: 59e4 00c6 df21 823f 8e3b 2e93 53e3 86bf
00000570: a84c bbd9 9aaf 52bf ff45 8e89 75f6 8dbf
00000580: d875 82ef 2a30 a03f b65f f003 56de 95bf
00000590: eadc 8081 38c0 80bf effd 6a5d 91ca 9dbf
000005a0: 938d 10be fd3c b9bf eab4 7427 d16e 9e3f
000005b0: 68a5 d18a 9fb7 aabf d91b 0193 cf25 a53f
000005c0: caec 8a5e f771 b2bf f0b5 a84b dfcd a33f
000005d0: 019b 0774 e360 b0bf 64dc 773e 8509 aebf
000005e0: 5d1b 282e 637d a23f cdef e78b 4fea a83f
000005f0: 0105 2112 8138 b33f fb94 56d8 e856 a33f
00000600: 74a9 dafc 47a3 8cbf 30ed e64e f4fc a1bf
00000610: 705c 564c b78c 80bf 5037 450b 5102 b6bf
00000620: 56e7 5173 a961 af3f d3f9 9591 6cfc aa3f
00000630: bfb2 854f 9954 a4bf 22b1 fcbb 71fa a3bf
00000640: 048c 171b e09e a63f 7711 2e53 1b88 a43f
00000650: 22ba f4dd c0b7 b3bf 818a b9ba 1ab5 b5bf
00000660: 3387 560d 58f3 95bf 2d1b 707c 988a 703f
00000670: 6c3c 96cb 66b0 a9bf ca70 8602 835a b43f
00000680: 9caf 0ff1 19e2 9cbf 89a5 67da 749e a83f
00000690: 0e7c 6220 996c b0bf 9faa 9818 f293 a03f
000006a0: 6ef5 a5b0 9cea b8bf 2a10 101f ce05 abbf
000006b0: 1147 3d8c 073d 873f 011f 8c8e 6e50 79bf
000006c0: f658 77c4 34b4 773f 641d 9424 e528 a8bf
000006d0: 880b bb37 d49f 7fbf 28ab 6c26 fad0 a23f
000006e0: a5cb 5e71 774d 92bf b77f 85ed fdd4 afbf
000006f0: 3849 6422 8b1c a43f 2d7b 4708 bcf5 a43f
00000700: a396 0bd1 0278 9e3f ba79 19fe 620c a73f
00000710: 8c51 6bfc 44c8 853f abfc 65d5 57c2 a53f
00000720: 7913 df90 5e93 a3bf 9ab3 86ac 9670 633f
00000730: 15af d97c cb91 8a3f 3e4d 6f9d 6cdc a6bf
00000740: f545 2ce3 7515 a13f 9bdd 1379 1d54 af3f
00000750: e586 f79c bbbf 99bf c68e f13b 0a51 a03f
00000760: ac89 422b 7d8a ae3f 6f5d 30a8 7f06 61bf
00000770: 2dac ebe2 f838 b33f 4552 faad cccb a03f
00000780: 8780 5424 d91c bdbf 0ead 849b ae9f b6bf
00000790: 37f1 ccf8 c8db 8f3f a817 1a0a 25cd b2bf
000007a0: f3a7 4d36 b263 a0bf c4b5 2bb6 e323 a3bf
000007b0: fedb feb2 2756 adbf d1f2 2086 5677 aabf
000007c0: 2f78 779f 3a58 adbf f7e7 7a96 f651 a1bf
000007d0: 0219 71b3 fe47 ae3f 91a0 7c79 e38a 313f
000007e0: 92cc 7d32 0137 233f 0bff 0100 8cd9 c53f
000007f0: 5d35 20fd 23bf b63f 3989 5f55 a1af 71bf
-0.05407849749687122 -0.06553005302176491 0.04591650475747635 -0.020967577835337897 0.025241230147111816 -0.01788043543799358 0.014043689751917058 0.043025305982974764
-0.026847678117712253 -0.10249326639864868 -0.02003755329118742 0.05692503454698043 -0.021041841707783414 -0.03129409316142262 0.003906637830146824 0.011377426807939144
-0.043977587384265285 -0.05208231468798107 -0.08892722141742132 0.006133132538828755 0.036127093438801994 -0.05170063655934878 0.029854746686104106 0.03562412707639935
-0.0734797674144552 -0.08658414696110947 0.02663585479034913 -0.020194167332838867 0.0023319767922026 -0.006460403146940292 0.016143450210335114 -0.056502015868651605
0.011370681182914245 0.056789571281649014 -0.09456962512514971 0.031553925467116724 -0.0871462984070324 0.043231408231022325 -0.0721168285067869 0.0011535784294237179
0.08196314688506794 0.05599537319620892 -0.005139688579594674 -0.0329622544977245 -0.05832710460517979 -0.01050307582149603 0.09830634119120708 0.004451071191329084
0.0005876977676230583 0.04602551307665138 0.02971682562014304 -0.0644695879750763 -0.06457370313367615 -0.025624831600146433 0.006924605826134644 0.07732470672410945
-0.0655120027053172 -0.08418605658862023 -0.10682903160039035 0.025205259966187353 0.05540028701249651 0.08421476182831446 0.10220142264375685 -0.08539377526157141
0.027539275253621015 -0.05849455805164802 -0.10678471950525728 0.04564397808064432 -0.06551079587314984 0.08692379402065728 0.1411029922634476 -0.009571732824563183
-0.008820884739868215 -0.0803297085246819 -0.0241079991051144 0.019777696975598922 -0.0012238079706792847 0.01832466036558879 -0.08084814470248185 -0.008423613678885736
0.052822318820808144 0.0009009469993112778 -0.006153853152589372 -0.0657177073506983 -0.03393559745533434 -0.01201981948392853 -0.015248861947783314 -0.012358429850778854
-0.06813637009126161 -0.00892685586411298 0.12546674628769483 0.10819818400038742 0.05759473702615191 -0.07694955749309924 -0.023702864638385602 0.04630048749227729
0.043135594369003764 -0.07938458611645771 0.03611268263761815 0.029599481456502114 0.030845122032340445 -0.01852959600236339 0.02088312976793198 -0.020785391905613914
0.01582329181074026 0.014476649514089376 -0.008161909849200058 -0.04953166217725616 0.06592588902913547 -0.06865894735171563 -0.0476818461348267 -0.07063514201961865
-0.025221306251676824 -0.06654176013453257 -0.048348232631435485 -0.0812563447614526 0.02107114564470178 -0.05868061822549934 -0.0885246475918031 0.0752976148470796
-0.0502855797838781 0.0047424564789420335 0.0568005596364438 -0.026248435562812502 0.018998339331038457 0.019803125781407707 -0.05505040645358386 0.026412660212705087
-0.09295685150655546 -0.004165860943062705 -0.06415357988778031 -0.051123244773228285 -0.048205534890080295 -0.008037610191362766 -0.01681889406689338 -0.08330306488587975
-0.09932703303010008 0.0035536291528673785 0.02503547470119779 -0.018580537096233224 -0.0037368027549238444 -0.04998695604353205 0.046759680540300184 -0.061311159966934294
-0.05292486737839293 -0.05651155769980457 0.0673286845866227 0.019256265500886754 -0.029007527087352405 -0.066246505292145 -0.07508641093881262 0.007200326195786892
0.04626319661084139 -0.001567141559358241 0.03694382492102884 -0.016662215769759844 -0.0603087114256668 -0.022184562723705403 -0.023641836368911557 -0.01838408521930941
0.10309760637038917 0.051046571926296226 -0.11672895248351975 -0.014963143277431082 -0.05183516014749334 0.006610417045115549 -0.06209685906017246 0.03687405308847265
-0.005758269521625569 0.08644391460030441 0.056985727175300635 -0.0541873017203453 0.008853672247015764 -0.011175778321357101 -0.0011405002796223505 -0.014630239735001103
0.03161749051762869 -0.021355957022109094 -0.008179131939057577 -0.02909304745366897 -0.09858690157175536 0.02971960833854307 -0.05218218392912882 0.041304098791947026
-0.07205148752375404 0.038680055604668584 -0.06397840101963582 -0.058666385531915194 0.03611288011966594 0.04866264899098347 0.07508093540765871 0.037772442253563875
-0.013983309177395077 -0.03513301337394592 -0.00808089448655222 -0.08597284817844053 0.06129197628702225 0.05270709302111567 -0.039707938153559656 -0.039020113179818475
0.04418087321007394 0.04010091200237558 -0.0770226041683846 -0.08479468401632496 -0.021436096014105743 0.004038425110599414 -0.05017396197501331 0.07950609981202486
-0.028206258142673954 0.04808392683100766 -0.06415707626955244 0.03237873602150398 -0.09732989609434181 -0.05277866486724776 0.011346873252168462 -0.006180221426582256
0.00578709232600815 -0.047187004771383184 -0.007720784163839485 0.0367506191162959 -0.017873636526654874 -0.062171874279328625 0.03928026957341263 0.04093730546059358
0.02975468064223342 0.04501637794304565 0.010635889962409072 0.04249834518395209 -0.038233714279647786 0.002373022351284293 0.01297339415324176 -0.044650453775512564
0.03336685560328682 0.061188622503262034 -0.025145465331553835 0.03186828595860684 0.05965033677172768 -0.0020782941151186655 0.07508807697347271 0.032804867017294494
-0.11372143876042361 -0.0883740548785463 0.015555925457754511 -0.07344275948170653 -0.03201062119372002 -0.037383190143241346 -0.05729793605808452 -0.05169172656358046
-0.05731375881781308 -0.033828454846528126 0.059143027691378705 0.00026767781808923705 0.0001465977632012267 0.1707015037572933 0.0888540738089509 -0.004317884644452535

encoder.1.0.bias f8 [64]
00000000: 4bcc 15c0 0767 a03f 6296 2480 e774 933f
00000010: f7f6 0f40 a51f adbf 6916 5080 5eff 9dbf
00000020: a995 feff d04d 9dbf b3c2 f57f 2ec8 af3f
00000030: 6619 e0ff 508f 81bf 1d61 fbff 84a6 a03f
00000040: d4f2 dabf f542 a43f d046 0080 6f8d 94bf
00000050: 2e0a aae5 3f44 2d3f 8110 63ff 8093 81bf
00000060: e528 e6df 1154 aebf 11d4 0840 3e68 a8bf
00000070: ffdb ba7f 228a a33f 6400 fa7f 7a3d 9a3f
00000080: 9a4d faff 9a22 ab3f 2c04 ff3f 056c b1bf
00000090: 2edf 0f80 26c2 8ebf 95a2 10c0 57c5 a13f
000000a0: bfe6 ff3f 5a12 a6bf b181 0180 156c a13f
000000b0: a34e 4800 ea36 8d3f 81e6 fd7f 3ded b0bf
000000c0: a900 0580 0087 adbf b40a c83f ec75 9ebf
000000d0: c05b 0240 5030 b03f 1514 0300 5cde 8dbf
000000e0: d124 f57f 4573 983f 2d6c e43f 487d a73f
000000f0: 6b8c 1500 42e9 b03f 8d3f 01c0 1922 b1bf
00000100: 2d33 07e0 fb46 b1bf 38ff 0080 6435 b13f
00000110: 597d 0e80 b689 95bf 8226 f73f bd00 a5bf
00000120: a7ad 1dc0 3b71 97bf f012 ffff 1ebc b0bf
00000130: 890e 0160 de29 b2bf 62c2 f67f 0865 a2bf
00000140: 86c0 fabf 1243 92bf 9ac9 3400 74d7 87bf
00000150: 4a3a 0380 826c 95bf 30dc 0bc0 c1bd a8bf
00000160: bd2c 00c0 dd51 a43f 0606 feff edac 713f
00000170: 4359 1380 3d89 9cbf ffdc f07f 8958 a43f
00000180: c3b9 0380 eddd a63f 043b d1df d273 a1bf
00000190: f3ce 0080 147a a3bf 3b30 05c0 6fc2 a23f
000001a0: dfe2 edff 8f57 9c3f f99e ec7f bedb 8ebf
000001b0: 443c 0880 3b45 ab3f 9762 fd7f ef79 acbf
000001c0: d616 1b40 d5f9 a03f 617b 01c0 3498 a03f
000001d0: 4044 b6ff 93ea 69bf ad32 0200 394a a5bf
000001e0: ea57 ff7f dbd7 9b3f 6120 e8ff fdcd 7dbf
000001f0: e3e5 e8bf f79f a3bf 7236 efff 7e60 a53f
0.032036058614629846 0.019000642009947895 -0.056882061071503225 -0.029294468480676992 -0.028617158531820817 0.06207413970958466 -0.008574135597893839 0.032520443198963835
0.039573363942940226 -0.020070783793989133 0.00022328643793308303 -0.008582122606078936 -0.05923515184538689 -0.04767031222983332 0.03816325959399335 0.025625146924085476
0.05299839377144196 -0.0680545121422404 -0.01501874998392302 0.03470873088401053 -0.04310876876111313 0.03402774035999146 0.01426489652025193 -0.06611999869155662
-0.05767060816515485 -0.029746714966686752 0.06323720514988818 -0.01458427310024927 0.023877225813781437 0.045877702521657994 0.06605923177771593 -0.06692658364886324
-0.06748937816082608 0.06722095608801915 -0.021033145490603065 -0.04102126508548755 -0.022892888642145028 -0.06537050008689582 -0.07095136493540556 -0.035927072163194365
-0.017833989112376013 -0.011641412979405175 -0.02092174440695719 -0.04832272977176222 0.03968708962210019 0.00431530922640056 -0.027867279951203427 0.03973798453119492
0.04466192424466755 -0.03408678991455896 -0.03804077208078906 0.036639682950948736 0.02767777442520269 -0.015067566183986513 0.05326257646458335 -0.05561779439330399
0.03315607459584917 0.03241124004192986 -0.003163613376905988 -0.04158189892868811 0.027190618216842134 -0.007276527582242038 -0.038329832245334726 0.04175183176230925

encoder.1.1.weight f8 [64]
00000000: 336b e5e3 92d0 f03f fcee 0bce 9d9a f03f
00000010: 47fa a30c 4018 f03f 861f d95b cb83 f03f
00000020: dcab 1440 a13f ee3f f940 46eb db97 ee3f
00000030: 8874 ded1 8826 ef3f 20d7 cc95 8187 f03f
00000040: 0adb bf0f c276 f13f e4d4 13f4 d40c f13f
00000050: 7f46 cd6b c04b f03f a09b be51 2bcd ee3f
00000060: 4b96 ca10 90f6 ef3f ca7a eb68 f1cc ef3f
00000070: 3a09 22bd c9ea f03f 2997 7488 b661 ee3f
00000080: 201f ac9b 0ae0 ee3f 086a cb28 1e26 ef3f
00000090: eeb4 c23c 3f9f ee3f dfe2 0191 e773 f13f
000000a0: a31d 4305 8579 f03f c46f 79ff 4568 ee3f
000000b0: 3e9e d6a8 fd20 f03f 05fc a50d 80e0 ee3f
000000c0: 8043 7a38 80a4 ef3f 1add fb0a 0d06 f03f
000000d0: 2b6f 8a23 a8d6 ee3f fa03 3292 0028 f03f
000000e0: cbdf 4d85 b31a ef3f b542 61b2 a493 f03f
000000f0: 42dc 5359 552e f13f 57e8 92fe 46bf ee3f
00000100: 9633 dc3e aa22 f03f b977 733f 26bb ee3f
00000110: 062b 7e68 8b6e f03f 466a 28e5 832c ef3f
00000120: a9d9 6407 9127 f03f 3066 d09d 0bc5 ef3f
00000130: e1a9 a840 d565 ef3f 240e 7420 2180 ee3f
00000140: 2bac 2224 8a86 ed3f 80ff 5728 e312 f03f
00000150: 5e07 9c02 d9d7 ee3f b55d 49a9 5bed ee3f
00000160: bd65 47b7 606a ef3f 52c0 ef98 273a ef3f
00000170: 7f5f 8ca0 b634 ef3f 88e1 4309 6168 ef3f
00000180: 6a0f f15c 8f5f f03f e5c8 8b28 bc75 f03f
00000190: 7411 0501 0021 ef3f 7f24 4ef2 d460 ef3f
000001a0: b664 44b0 0765 ed3f a87b 5835 029a ef3f
000001b0: ae4e f630 e026 f13f b07f 3388 c61e ef3f
000001c0: 487f b7a7 ff79 f13f a395 75fd d024 ef3f
000001d0: f85c 487f c303 f03f 4500 1d50 97cf ef3f
000001e0: a166 9597 74c9 ee3f 85b8 bf53 b5f8 ee3f
000001f0: 4c74 5f87 276b f13f 792c 5a65 e678 ee3f
1.0509213354295752 1.037748150701133 1.0059204572459224 1.0321763599222051 0.9452673198296639 0.9560374827579202 0.9734539126399264 1.03308256641089
1.091493665238604 1.0656327757144988 1.0184940539369618 0.9625450703214149 0.9988479927021187 0.9937674569335624 1.0573212993627537 0.9494278588433406
0.9648488083339295 0.973403052975585 0.9569393336038539 1.0907970108366312 1.0296678739121965 0.9502286901219965 1.0080544085739258 0.9649048105783328
0.9888306716039637 1.0014772824341152 0.9637032217174001 1.0097661696202054 0.9720094302747325 1.0360457389798914 1.0738118638380603 0.9608492824693354
1.0084631400561412 0.960345386436294 1.0269884187461584 0.9741839862575226 1.009659794695475 0.9928033907228322 0.981180788313676 0.9531407960752785
0.9226732927103333 1.0046111656119763 0.9638485957113792 0.9664743715647349 0.9817355708757344 0.9758489596406525 0.9751847396573651 0.9814915829620512
1.0233300810368413 1.028743894942232 0.972778322212021 0.9805702908062272 0.9185827677457812 0.9875498811633081 1.071991149195053 0.9725067768267674
1.092284827369399 0.973244185483669 1.0009188625315897 0.994090706321011 0.9620917282693037 0.9678599010201344 1.0886607444765728 0.952258298829647

encoder.1.1.bias f8 [64]
00000000: a3c6 5ada 3ade c13f f311 811d 2aed a6bf
00000010: 9659 d180 ac32 c6bf 4236 4879 bc20 a9bf
00000020: 2ad4 3473 3a36 c4bf 5a8d 9185 edb1 b8bf
00000030: 3ccd c125 6d70 9fbf 71a4 b268 4e70 a13f
00000040: 3c3e bc72 69d8 aa3f e2c0 bc0e f1f2 bc3f
00000050: 436f 4416 b2f3 8e3f a492 8a3b 554c c5bf
00000060: 6959 a7d9 1046 83bf bec6 2a23 19b9 a83f
00000070: e313 adc6 e93e b43f 0370 6b8a 3b61 c4bf
00000080: a73b 31ea 3b88 c3bf 9277 2772 a7eb 89bf
00000090: 9ce7 6539 f6e4 b1bf 9f87 50fd 92e8 8b3f
000000a0: 39f4 578c 9051 80bf 8b6f faaf 4c46 c3bf
000000b0: 9ce4 169f a9fd ad3f ba71 30fe c662 c4bf
000000c0: 762a 42ab f028 c1bf bfcb b120 b823 a6bf
000000d0: a8b6 697a d324 593f 98e8 099f ab28 b8bf
000000e0: b8e9 2b5d 296f 8f3f 05ac aa68 2a79 a73f
000000f0: d005 a9f2 be9b a63f dce8 715e 0cfb c1bf
00000100: d227 98ce 3687 b4bf 7c63 dd36 949a babf
00000110: 2297 3c99 1059 7c3f e28a 9da2 d286 843f
00000120: e13c bb61 fa4e b23f 4802 aad7 591b a13f
00000130: 211f c109 e9ff b93f d289 5f94 fcd3 9ebf
00000140: b6bf 1376 e1fc c0bf 572f 78d1 ca89 a03f
00000150: b75f 352e 8aab 63bf fe09 0504 3f54 c2bf
00000160: 3f29 e419 606e c3bf 6034 602c 425b 903f
00000170: 3039 7087 2ef3 c0bf f684 0714 f664 8cbf
00000180: afb3 ae04 2290 b2bf 7906 4078 80d0 983f
00000190: 6f6c cf3c 2853 c0bf 2ca1 6c3f c46f c5bf
000001a0: b461 0c1c 4524 893f 9284 0330 010a c4bf
000001b0: 5b1f 2d19 0475 c4bf bd17 a6dd c1fe c2bf
000001c0: 4716 018f 8dcb ba3f ec6f cf15 9478 b9bf
000001d0: dff9 b52a fc93 bebf 43f7 630a fb02 a1bf
000001e0: 9f3e 69da 1539 babf 0d1c 91bf 40a7 c6bf
000001f0: 1ef7 9548 ac5f b83f a937 0f36 61dc c1bf
0.13959441816182502 -0.04477817163618516 -0.17342144288950284 -0.04907788258070102 -0.15790491700468695 -0.09646496306372879 -0.030702310018068987 0.034059953957076845
0.05243234181955045 0.11308199510381514 0.015113250069184075 -0.16639199645319025 -0.009410983698143043 0.04828718714032963 0.07908497906198834 -0.1592173028828939
-0.15259503302737906 -0.012656505747994182 -0.06989993001289324 0.013627193790003931 -0.007968072207399245 -0.15058287232102105 0.058575916929336475 -0.1592644444616676
-0.13406189310292732 -0.04324126624205559 0.0015346589294965938 -0.09437058098584072 0.01534874263369522 0.04584629562062762 0.04415699684296792 -0.14047388660021098
-0.08018820327575263 -0.10392118777725828 0.006920876348692125 0.010022779071453273 0.07151760946293308 0.03341179616564155 0.10156113136428903 -0.030105539852124448
-0.13271730676160381 0.0323012715053596 -0.0024011324727943556 -0.1431959886195528 -0.1518058897421017 0.01597312351082214 -0.13242131818010128 -0.013864443289039557
-0.07251179327313538 0.024232871379359786 -0.12753775567293554 -0.1674733457268841 0.012276210707157321 -0.15655531734868028 -0.1598210452013927 -0.1483995754498987
0.10466847173037151 -0.0994961312530333 -0.1194455723070642 -0.03322586538159424 -0.10243355352690252 -0.1769791541466649 0.09520985386003786 -0.13953795566197627

encoder.1.1.running_mean f8 [64]
00000000: 80e4 31b5 54f7 c8bf 9810 84fe 7e09 a4bf
00000010: da72 645d 1d30 dd3f 5458 fa5c f085 d53f
00000020: 2b58 eee4 fc7e be3f 38be b4e2 d3a6 df3f
00000030: a454 8515 bc58 d0bf da2a 8275 b437 d33f
00000040: f45b d495 8a75 debf 9387 756f b193 d7bf
00000050: 1146 f3d1 d5ea c83f aa91 c95c 195d e03f
00000060: c9d3 6136 c067 a23f 675c a794 e57c d0bf
00000070: 4a56 2ba8 6290 dabf cacc 1ccb 112e e13f
00000080: e3b7 e4a2 936a e13f baae c72e fbe3 dabf
00000090: 0e12 d8b7 0588 d13f d322 2afa dccb c9bf
000000a0: ff92 0eb4 2172 c43f d0e5 b10f 8ca7 e53f
000000b0: 29d9 2824 dcc3 c9bf 0438 fba9 7133 e43f
000000c0: 81f3 db1e af7a a9bf 29ef b13d 9403 9ebf
000000d0: 8eb1 4b38 557c d9bf ae15 2d38 55a1 da3f
000000e0: 3a17 dced c707 e2bf 0db3 94c2 f783 cabf
000000f0: b2d8 8dc3 372f d23f 8779 b90d 4ab0 dd3f
00000100: ae15 acaf 9c83 d53f d47f 26d4 557a adbf
00000110: fd55 37f9 6286 b6bf 68b6 f63f 2a0f c33f
00000120: 985e 396e c509 e7bf 0fca 3405 2ea0 e9bf
00000130: 3d7d a73b 2d5d d4bf 0151 8b2b 6117 d8bf
00000140: 148e 22ea 7a60 d5bf 4514 bcef f330 c4bf
00000150: ea0f 34a1 f252 c33f d739 319f 81fc e03f
00000160: a439 7818 f14d e23f e64f 61a1 ca02 8a3f
00000170: 5625 97e7 f0f1 e73f b544 b871 c83a bdbf
00000180: b59c edd9 0fe6 db3f 121b de50 63c1 dcbf
00000190: 731a d8cd 401a c43f 6024 22b0 4791 e43f
000001a0: 7913 c491 023f ab3f 4e83 acd5 ea82 d93f
000001b0: d2b1 5ed8 c8ad ed3f c744 0464 99b0 e13f
000001c0: 6266 898e e5e4 d3bf bb95 fdb5 e17c c13f
000001d0: 41ed 361f b7ff d23f 6659 54ea dbe8 ce3f
000001e0: 1457 aca8 e3b0 c63f f4c8 5ca1 1d61 e23f
000001f0: b968 a90a ca77 c8bf 02e9 8a01 e6cd da3f
-0.19504793975264434 -0.03913494927294997 0.4560616886172234 0.33629998283266116 0.11912518109451813 0.49455735339413165 -0.25541593648569916 0.3002749583762757
-0.4759241545847879 -0.3683894718616269 0.19466660262564564 0.5113646328214163 0.035947806013531265 -0.2576230956742109 -0.4150625841406038 0.536873718933202
0.5442598515999147 -0.4201648670993837 0.27392714456098666 -0.201533910895043 0.1597330216583472 0.6767025286237018 -0.2012896706161851 0.6312797851512646
-0.04976413013171222 -0.029310528054778438 -0.3982136773836594 0.41609697805355494 -0.5634498258302536 -0.20715233803766644 0.2841319474895371 0.4638848432568001
0.33615796237458084 -0.05757396902777115 -0.08798807701472096 0.1489003002474647 -0.7199427750410505 -0.8008031942065957 -0.3181870539246637 -0.37642697574962375
-0.3340136801218432 -0.15774392324252254 0.15096886512048907 0.5308235272621528 0.5720143773958637 0.012700636911326012 0.748283817601229 -0.11417820717203393
0.43591686517761313 -0.449303463909403 0.1570511822794348 0.6427343788246951 0.05321510342950026 0.39861555925931647 0.9274639345144868 0.5528075173807786
-0.3108457462272779 0.13662358652361015 0.29685762451454784 0.24148129407758318 0.1772732328033092 0.5743549491510564 -0.19115567703813044 0.41881704474111825

encoder.1.1.running_var f8 [64]
00000000: 3f54 994b 0632 0c40 92a6 bbb7 28b7 ed3f
00000010: 95a2 52ca b3c8 c53f 1c00 9a08 ce12 d43f
00000020: fbb7 809f 71bf f43f 689d 0afe 78ff 0040
00000030: 1645 ded2 7a47 0240 61ae 0372 93ec ea3f
00000040: 47db 71f2 8228 e43f 8959 0db4 7cf6 1740
00000050: d7e7 6a23 fdbc d53f 087e d750 b6e9 e83f
00000060: 2a97 d8fa 075c f63f 3aaf efdc 1020 0340
00000070: 822d a67f 1b53 e53f 2358 2f46 d8a8 f93f
00000080: 4ce9 768f 8558 0340 eb71 9a4f 4b62 eb3f
00000090: 1445 5443 1281 f33f 5b3a ce7a 52bf c43f
000000a0: 35d4 a8f2 83ac e33f 0a34 7c14 cd33 0f40
000000b0: 4b9c 8a7d 5974 ec3f b826 e560 8844 0240
000000c0: 650b 329d 8976 cf3f 3807 4686 68a0 ed3f
000000d0: 6b40 010a 3260 0240 695d be0a befe e23f
000000e0: dc26 2a66 b855 ec3f d70b a716 9343 f43f
000000f0: d4d6 ee06 d3cd d13f e134 76ee 2abf 0140
00000100: 6748 fc88 3c46 d03f 930a 5a97 5a8e fb3f
00000110: 6b8e 1088 ae48 dd3f 3bb1 af76 062e f03f
00000120: d45a dfeb cfd2 0240 f01f eace 04d0 0140
00000130: 2fbe 7d57 e23b fa3f 813d af90 4c02 f63f
00000140: 6e74 4cff f5ca e53f 1cb1 318f cc53 eb3f
00000150: 4b2a 8b8b 52a7 f23f b68b 7b81 6f80 0340
00000160: 7cf1 f509 ca2b e63f a62b 035c 7c09 f23f
00000170: 75ec 0fd8 2dad f13f 2e37 c314 064e d03f
00000180: 68b6 9f8b c9c1 e93f 3f21 6613 0270 f13f
00000190: 1cad ab09 4301 f63f f3b6 51d8 4cad 0240
000001a0: 11d7 5ad4 2ed8 f93f 6043 4c19 1163 f03f
000001b0: 17d1 a5f9 2208 f63f dbdf 927b e87a 0340
000001c0: 851a 7294 1b3c 0740 3dc8 31b4 a9c8 f63f
000001d0: 7586 0db7 806c f03f d871 b0c4 233c eb3f
000001e0: de15 c043 78d0 0440 7224 d436 5d4d fd3f
000001f0: 8e0c 880d abab 0e40 66b0 a063 4709 eb3f
3.5244260698478054 0.9286082829032287 0.17018744830172197 0.3136477550506258 1.2967392187670146 2.1247424933423424 2.284902236374033 0.8413789011805869
0.629945252919108 5.99071008044701 0.3396599622607232 0.7785293177548178 1.3974685476945958 2.3906571636815928 0.6663949483058078 1.6037218801116147
2.418223496261964 0.8557488016845672 1.2190115575834328 0.16208868976942167 0.6148090114062429 3.9002935028461296 0.889202828596248 2.283463246338979
0.245804979091271 0.9258310911684253 2.296970441973874 0.5935964784465969 0.8854639048961093 1.2664976963867411 0.2781875198082677 2.218343604071024
0.2542868936299158 1.722254363267585 0.45756114280286536 1.0112366329368132 2.3529356410539126 2.2265716710280614 1.6396201532005639 1.375561299489931
0.6810255037595547 0.8539793774375855 1.165850205509417 2.4377126804187936 0.6928453630967364 1.1273158640130787 1.1047800483636625 0.2547621920356161
0.8049056746510361 1.0898457296153337 1.3753080728300295 2.334619226449712 1.6152790351019954 1.0241862285804118 1.3769864799369935 2.4350137380788346
2.904349479419866 1.4239899672361525 1.0264899397374425 0.8510912744127905 2.601791886615259 1.8313877240891796 3.833822351183307 0.844882673821769
