models/matching_nets/SETA_n=1_k=5_q=15_nv=1_kv=5_qv=1_dist=cosine_fce=None.pth (torch, 316367 bytes, 24 tensors)

encoder.0.0.weight f8 [64, 1, 3]
000000 0d 4b ff ed e0 c9 d7 3f a5 af 40 d9 bf e8 d9 bf
       0.37169669382017007 -0.4048308965309338
000010 f9 70 d2 5c 6a 45 d9 3f 8c e6 c2 5a 6e 1f d2 3f
       0.3948617845978926 0.28316840041552704
000020 02 b4 52 06 84 2d cb bf 48 85 bc 38 21 dd e0 3f
       -0.2123265295862496 0.5269933803685172
000030 6a ea 7e 76 aa d1 e0 bf 86 7d 82 c9 d2 73 ba 3f
       -0.5255939783449552 0.10332982463522997
000040 d5 15 16 bf 77 5b bf 3f 8c 27 b3 1c ef c0 d1 3f
       0.12248943724815516 0.27740075876919756
000050 83 b2 42 a4 d6 8b c2 3f 77 24 20 6c ff f5 d7 3f
       0.1448925306371117 0.3743895107186925
000060 ef 95 54 4b 22 21 cd bf 8e c6 09 2e a3 21 de bf
       -0.22757366827242673 -0.47080306526104543
000070 ba 34 a8 8a d7 3a d2 bf e0 41 7e 4c 58 e9 d5 3f
       -0.28484142819145186 0.3423672434810481
000080 6f ed c1 07 2f c4 b1 3f bb 91 b0 2c 8b cc c5 3f
       0.06939977588074496 0.1703046768390218
000090 68 54 8e e2 ae c3 e2 3f f2 2c cf 66 3d ed d0 3f
       0.586387102596416 0.26447997131317813
0000a0 7c f1 85 b5 4e 45 c7 3f 99 9f d7 5a 8d 34 d7 3f
       0.1818025957435444 0.3625825297481185
0000b0 d9 15 b5 3c f2 ab d7 3f 84 73 48 7e d5 6e d7 3f
       0.3698697655530317 0.3661397679550691
0000c0 60 5e 19 29 b6 52 a1 3f 95 e3 e8 99 db 75 e0 3f
       0.03383416415880158 0.5143869405793448
0000d0 d4 08 5c 1c 05 b1 d1 3f 07 9e 7d 07 6a e5 d2 bf
       0.2764294411609971 -0.29525233012688584
0000e0 ad 1f a9 29 cc 73 84 3f 86 e1 62 cc 2c 98 b9 bf
       0.009986491223699401 -0.09997825612925312
0000f0 ec f3 9f f3 c0 7a d8 3f f9 a3 2d 97 d6 7a cd bf
       0.3824922923229781 -0.23031122571708787
000100 42 1f 39 0b c5 a5 c4 bf 2b b4 fa 5b a9 43 ac bf
       -0.16130888984684516 -0.05520371673387844
000110 10 ba eb 30 52 0d dd bf 84 48 ed 41 c8 02 ba 3f
       -0.45393805291578904 0.10160495385687979
000120 27 d0 1c 51 c9 e9 d4 3f a6 92 e4 0d dc 51 c0 bf
       0.3267691890825994 -0.1274981563411945
000130 5b fe 3a 1b 3d f0 d8 bf a5 c3 06 97 50 eb d9 3f
       -0.3896630063936521 0.40498747585939504
000140 dc ed 07 a4 2f 30 e1 bf 5e 01 b8 f4 d1 58 b7 bf
       -0.5371320918779321 -0.09119903778628699
000150 18 fd 4a ed f0 73 d8 bf 81 c1 92 ae 1d 4d c7 3f
       -0.38207648442399167 0.18204089187703335
000160 be 67 52 76 6e 31 dd 3f 34 2a 03 7f 1f b8 c1 bf
       0.4561420588958035 -0.1384314890077164
000170 d7 5b 82 a6 43 66 e1 bf 21 a9 00 47 8a 9d ce 3f
       -0.5437334301121791 0.23918274371073614
000180 63 54 28 e5 06 ef d5 3f 09 7d e7 46 d0 8a be bf
       0.34271404627481256 -0.11930562716542083
000190 7a 22 b0 d0 a1 84 c9 3f be c5 e4 83 f3 c0 df bf
       0.19936011018605254 -0.4961518085502482
0001a0 5c 31 39 ce 02 72 c7 3f 01 0a ec 8b 7d 84 e2 bf
       0.1831668383550874 -0.5786731465198615
0001b0 ba ae 09 8b 90 4d c0 bf 51 51 06 cf 25 dd e0 3f
       -0.12736708439785166 0.5269955676508663
0001c0 c7 1e 79 75 9f 99 b7 3f 06 bc 9c 0b 42 f6 de 3f
       0.0921878492164253 0.4837803948784657
0001d0 a7 42 51 46 e4 4e da bf ae 08 d4 e2 e9 ae db 3f
       -0.41106516711173885 0.4325508799667074
0001e0 ac d8 54 28 2f 76 d6 3f 63 32 80 3a 57 9a ba bf
       0.35096339167229007 -0.10391755274049212
0001f0 fd 6d 4d 27 b6 4c d4 3f 21 51 56 7b f0 86 d2 3f
       0.3171821006596643 0.28948604626318014
000200 9b c6 0a 2d 61 7a df 3f 8c 29 77 ed 06 cd d6 3f
       0.49184445761339085 0.3562638586996847
000210 66 b3 3b ff 74 ce c1 3f 73 17 a5 77 e1 c6 de 3f
       0.13911306822356123 0.48088871654578397
000220 0a 5d b5 de b1 2c c6 3f 3e f7 d3 03 50 74 cc bf
       0.17323897718845443 -0.22229957758821145
000230 d3 d5 73 df 4c 87 e0 bf 47 a4 df e9 b7 49 a6 bf
       -0.5165161480242041 -0.04353117685224866
000240 db 13 9c 9b ff c4 d4 3f 8c f4 62 92 25 e7 d0 3f
       0.3245238322854768 0.2641080789142698
000250 93 1d f4 94 76 83 da 3f 8a 3a 5f bf ae f4 dc 3f
       0.41427387758491213 0.4524342411868153
000260 1b 19 9a 52 37 34 cb 3f ff c7 86 47 31 de bf 3f
       0.2125310090379536 0.12448413845302751
000270 a8 c4 1f e9 28 c1 a8 3f 96 e1 cd 27 2e ee d3 3f
       0.04834869237664324 0.3114123715127105
000280 34 d1 81 04 e8 e1 d1 bf 9c 13 f0 ad f7 e0 e0 bf
       -0.2794132274641641 -0.5274618527624741
000290 29 e9 84 bd 45 9f dd bf 63 3b f8 27 51 7e e0 3f
       -0.4628462172292012 0.5154195576341006
0002a0 1b 88 1b a9 f5 b0 c6 bf 6f 07 ba a0 6c 67 d8 3f
       -0.1772753787727773 0.3813125199886746
0002b0 9d 0d 79 e7 86 a7 d0 3f 5b 77 de 00 56 0e 8b 3f
       0.26022503475925324 0.013210937406082193
0002c0 de 94 da f3 60 fa d2 bf ac 5c 8d 0d 4b b4 d2 bf
       -0.2965319043526743 -0.29225422213989805
0002d0 9a b1 99 07 d1 1a d1 bf 84 c3 0b c0 c1 d7 c5 3f
       -0.2672617506239249 0.17064687611812357
0002e0 0f 91 18 46 31 e5 bb bf 67 67 ee c8 d4 e5 da bf
       -0.10896594964339477 -0.42027778265184285
0002f0 0d 12 f2 fe 6b 2a d0 3f 36 d5 8c 54 1f 7f d4 3f
       0.2525892247870452 0.32025893456314536
000300 39 09 72 bf e3 64 d7 3f 78 38 0d 60 c9 ce d6 bf
       0.36553281493992845 -0.35637125377696277
000310 e2 a6 56 8b 7c 13 cf bf 43 24 e3 3b 7a d8 e0 3f
       -0.2427821808208171 0.5264254731820376
000320 44 05 ff a0 0d 1e e1 3f 12 04 fe 34 09 84 c5 3f
       0.5349186081367994 0.16809191787254513
000330 c7 2b b8 d4 0d 4b d6 bf 2e ef c5 56 73 79 af 3f
       -0.34833093427067435 0.06147346910708361
000340 0e 4a 93 c6 e2 0c d3 bf 35 dd d3 a3 d9 be d4 3f
       -0.297661489411582 0.32414856909550177
000350 ce 73 87 76 e5 49 e2 3f 18 12 30 22 40 d9 dc bf
       0.5715205492994018 -0.45075991953516015
000360 14 c7 c1 b3 de f6 c4 bf 60 4d a0 b4 eb 38 df 3f
       -0.1637838723868802 0.48784916533732847
000370 f1 54 9a 0a 7b 5b 9c 3f 2a 5b 89 50 80 a1 e0 3f
       0.027692720911166317 0.5197145054797592
000380 48 61 69 8b b8 d1 bb 3f c3 f9 bf c1 dd 46 d2 3f
       0.1086688366280032 0.2855753318871416
000390 82 70 97 12 2d 7e c1 bf 18 30 0e e7 39 54 a9 bf
       -0.13666308791914977 -0.049470719771392335
0003a0 f4 38 6a cf 53 56 c4 bf bd ee f2 3c d1 92 d5 3f
       -0.15888450267488674 0.33708601905867025
0003b0 c3 64 49 a8 bb 17 dc bf 8b 3c 42 c9 7e cc dc bf
       -0.4389485495972389 -0.44998140005277126
0003c0 c1 e7 8d e7 ce 14 ca bf 25 d1 a0 06 65 0d d8 3f
       -0.20376001650202905 0.37581754348072344
0003d0 ae 7d 9c f9 b3 49 d7 3f 60 91 fd c1 07 86 e1 3f
       0.36387347580054097 0.5476111210705703
0003e0 1b f9 2c 01 10 a1 da bf c8 95 f8 26 c9 da e0 3f
       -0.41608047594844927 0.526707244983009
0003f0 e6 c1 45 27 18 c1 bc 3f b5 7e ff 18 58 a2 8f bf
       0.11232138594437621 -0.015446365607146498
000400 1e a5 3d d0 7f 35 cb bf 1e d4 6b 1f d1 ac cd 3f
       -0.2125701681900773 0.23183645281065507
000410 38 b4 ea fd ad 5c e1 3f 47 81 2b 38 97 9b c5 3f
       0.5425634345352881 0.16881075136826437
000420 b1 65 af 44 06 2d e1 bf ce 75 2f 05 af 77 a4 bf
       -0.5367461530215022 -0.039975613959295594
000430 39 be b9 df 3f dc d1 3f c6 20 ad 74 2b b9 b8 3f
       0.27906796310614684 0.09657546614210152
000440 c9 4a e5 66 d5 7f d3 bf 27 1b 1c 69 97 97 ab 3f
       -0.30467734383016115 0.05389092596128924
000450 fe cf 2f e0 37 69 e1 bf 07 93 a4 30 33 41 c6 bf
       -0.5440940264365961 -0.17386474490299283
000460 b9 10 b5 c4 1c 80 a1 3f e5 a1 55 d5 3b 2e d5 3f
       0.03418054486476891 0.33094688256690424
000470 0f 48 a7 1d 2f 65 da bf 5f 45 b7 3b 8b e4 d6 3f
       -0.4124257840713889 0.35769921142226296
000480 74 ea ba 8f 31 a5 a5 bf 59 a3 6b 36 0d 75 d3 3f
       -0.04227595214384375 0.3040192634057824
000490 9a 58 45 0d 90 a9 d3 3f e4 da 17 15 92 af db 3f
       0.30722428604111374 0.43259098110085703
0004a0 b5 20 de ca 8d 42 b8 3f f6 ff 05 76 cf 7e d7 3f
       0.09476553156685237 0.36711489225126515
0004b0 42 b1 20 38 5b be c5 bf 76 8c 23 a2 f5 c9 cf 3f
       -0.16987171402559836 0.24835081498085615
0004c0 ca ff 6c a4 cd e1 d8 bf 3b e6 90 36 00 5c d9 3f
       -0.38878193909840475 0.39624028519355975
0004d0 2b 26 cb 48 f6 45 e2 bf f2 b2 16 51 68 e6 cb bf
       -0.5710402890919729 -0.2179689784947168
0004e0 22 5a b6 9f e5 e8 92 bf 0c 98 1e ba 70 98 c9 3f
       -0.01846655642801854 0.19996460998407917
0004f0 41 8f 77 3d b0 10 d0 3f 53 47 e4 e7 6c 6d d7 bf
       0.25101858141555417 -0.36605379720378045
000500 d5 a4 51 5d a7 d5 e0 bf 4c a8 b0 83 88 6e de bf
       -0.5260807821879562 -0.475496414760191
000510 67 ca 44 97 23 1a d0 3f d7 a7 75 8e c3 3d df bf
       0.2515953995927362 -0.48814476883000907
000520 b0 32 fc 68 e0 8c c5 bf 5a 43 95 f6 f4 50 ab 3f
       -0.16836171270587874 0.05335202703520876
000530 62 42 53 45 23 34 e0 bf dd ff ae 31 25 02 c6 3f
       -0.5063644746788436 0.17194046903568863
000540 5f 4f 07 c0 b1 58 df 3f 0d 79 fa 06 42 93 c4 3f
       0.4897884726790291 0.16074395504706054
000550 f9 fd 38 f5 ff a4 d7 3f e4 c7 4e d9 9f 20 e2 bf
       0.36944579074403766 -0.5664824718753576
000560 0d 5a c0 93 b8 74 d5 bf 04 91 36 d9 ac 7c d9 3f
       -0.3352490847477448 0.3982345696661158
000570 6d 74 39 b3 ee 94 d6 bf df 86 c9 b7 11 d6 d9 bf
       -0.35284011366258633 -0.40369074771852625
000580 5b 34 1c 67 c4 8d e1 3f a6 c8 3b 4c b3 de c4 3f
       0.548555566203173 0.1630462763055835
000590 0e 2c f1 53 ab 1c cb 3f c8 0f aa be 06 3a b1 3f
       0.2118124160645895 0.06729166178598611
0005a0 ca 24 3e a2 c1 8d ca bf 32 5b 68 1d 0e 00 68 bf
       -0.2074510614586756 -0.0029297137910008425
0005b0 3e cb 99 00 1a 4e dc 3f ee 96 96 46 97 37 df 3f
       0.44226694163005564 0.4877680005396162
0005c0 0c f8 c5 64 73 b7 c8 3f e0 19 93 78 9c cd de 3f
       0.19309847279140546 0.4812995126234494
0005d0 41 9c 1e 24 60 cf c5 bf 89 78 ff 4b 04 28 b7 bf
       -0.17039109958315815 -0.09045435767572675
0005e0 5a 59 72 15 0e b7 d8 bf 23 67 3c 01 85 59 db bf
       -0.38617279142763083 -0.42733883972833747
0005f0 90 3e 1b c3 db cd d4 bf 1e c9 a1 36 c7 6d d1 3f
       -0.3250646024070898 0.2723253282084829

encoder.0.0.bias f8 [64]
000000 66 49 a8 00 a8 d5 b0 bf d0 d9 48 80 df 34 b4 bf
       -0.06576013580369064 -0.07893177873561474
000010 c0 e1 d5 ff a0 e7 de 3f bb 78 fc 9f 3e 37 d2 bf
       0.48288750633176036 -0.28462186454443
000020 e2 fa 9b 7f 31 63 c2 bf 68 fd f1 7f 57 ab e1 3f
       -0.14365214091227246 0.5521657465869056
000030 07 5f a7 00 dd 1e b0 3f 46 b5 01 40 dc 7b d1 bf
       0.06297093645059358 -0.27318483591701115
000040 8e be f1 5f 99 fa de bf 9f 9c 66 d9 27 5b 86 bf
       -0.48404535646020797 -0.010916053125426038
000050 12 d8 02 00 d2 ee ca bf 66 21 d9 1f 47 57 e2 bf
       -0.21041321754972891 -0.5731540319475641
000060 8f b7 88 bf 01 75 d1 bf 8d 35 34 ff 5c 4a ca 3f
       -0.2727665300798145 0.20539438687448489
000070 77 e9 c4 ff 2f 54 b8 bf 25 ba 5f 01 45 e6 b0 bf
       -0.09503459925045897 -0.06601363452475846
000080 f2 6a 63 80 4e af d6 3f c5 b8 76 03 80 89 a9 3f
       0.35444986856388916 0.049877167151281245
000090 74 97 cf fe 3f 09 a9 3f 62 cd e7 7f 7f f7 d1 bf
       0.048898696760985155 -0.28073108187455464
0000a0 eb 0f 3f 00 35 dc bc bf fb 57 ee ff 24 67 ca 3f
       -0.11273509269727781 0.2062727212584717
0000b0 50 4a 0e 40 b5 3e e2 3f ce 80 c7 00 61 2f d6 bf
       0.5701547862138998 -0.34664177967171106
0000c0 ae c8 f3 ff 17 3b cb bf a7 85 03 40 64 70 c9 bf
       -0.21274089811010327 -0.1987424194876841
0000d0 e1 bd d3 7f bf 87 e0 bf ae 95 2c 00 4e 39 dc 3f
       -0.5165708061812745 0.44099760071761807
0000e0 4e e7 d0 ff a7 35 a9 bf 2b 51 ea 1f bd 4c d4 bf
       -0.04923748967890039 -0.3171837627098905
0000f0 8e 5a 6c 7d 35 bd cd bf 2e 65 dd bf d3 3b ce bf
       -0.2323366987627264 -0.23620077961349167
000100 28 9a 05 40 27 48 e0 bf 13 0b fd bf 85 a9 e0 bf
       -0.5088077783992206 -0.5206936597608965
000110 ed 29 f2 80 7c 97 da bf 07 d9 f8 9f 72 57 d7 bf
       -0.4154959925878348 -0.36471238729735983
000120 f2 57 c4 ff 05 38 b7 3f e7 7e f6 3f 5b 4b c1 bf
       0.09069859976111141 -0.1351121961897583
000130 75 15 f1 e2 31 81 dd bf 51 f9 6b df 7f 6c 44 bf
       -0.46101042902258565 -0.0006232857111568101
000140 69 57 d0 7f c1 54 db 3f c3 b9 21 01 4c 1f 96 bf
       0.42704808694667534 -0.02160376316936109
000150 30 39 30 00 50 ff be 3f cd 81 0b 80 bc 9e dc 3f
       0.12108325962637845 0.447188496631523
000160 d2 c2 7e 00 a2 9d af bf cc 5e 44 fb cf df b9 3f
       -0.06174951797527729 0.10107135662507999
000170 a3 cf 35 80 e9 ba db 3f d5 38 06 c1 bb e6 dc bf
       0.4332832099964838 -0.4515828499796844
000180 99 78 0f c0 ee d1 d8 3f 26 77 14 40 3e ec e0 bf
       0.387813270148294 -0.5288382770120037
000190 b8 0e ab bf 5f 33 c8 bf 0c 78 eb bf 89 9d c1 bf
       -0.18906781061933997 -0.13762018080791483
0001a0 64 1b c1 ff e5 49 ab 3f 40 6d 03 80 7f 33 e0 3f
       0.05329817530632999 0.5062863827001038
0001b0 24 b9 2c ff be a5 b1 bf e3 b1 12 41 20 d3 d9 3f
       -0.06893533449030947 0.40351110796726014
0001c0 0f 58 14 c0 2a 8a db bf 23 2e 17 00 48 4e d9 3f
       -0.43030804403076756 0.39540290840952447
0001d0 a8 59 c7 7f 1e 99 c9 bf 20 2b 30 00 e3 ef dc bf
       -0.19998532523341095 -0.4521415235364419
0001e0 af df 79 40 f8 1a db bf 3a 66 f8 7f df f2 c7 3f
       -0.42352110191813613 0.18709939716863905
0001f0 06 ed c2 06 3b 4a b3 3f ff 18 dc ff 70 e5 b7 3f
       0.07535141863893466 0.09334474798751911

encoder.0.1.weight f8 [64]
000000 5c 5a 04 c0 0e fc ef 3f fb 52 25 29 9d fd ef 3f
       0.9995187521297555 0.9997087291363579
000010 97 70 62 a1 fc 87 f0 3f ca 68 de 30 5d a6 ef 3f
       1.0331999115069601 0.9890581087559209
000020 07 c9 87 49 94 fb f1 3f 84 1c d8 84 b5 b7 ef 3f
       1.1239207145959556 0.9911754221547118
000030 65 94 fb 87 a5 55 ef 3f a9 72 ca 12 b8 e9 ef 3f
       0.9792049079811816 0.9972801558502243
000040 78 83 10 c6 e6 6d ef 3f 58 e9 dd ef 5c 8c f1 3f
       0.9821657055327782 1.096768319110728
000050 06 96 d8 bc 68 f8 ef 3f 06 07 fc 8f 05 6e f0 3f
       0.999073380317612 1.0268607735055766
000060 7c 8a 4e 3d 67 34 f0 3f 45 fc fe 8c 93 21 ef 3f
       1.0127937693402194 0.9728486780003399
000070 67 3c 9f ef 9e dd ef 3f 94 99 c0 2f 46 f3 ef 3f
       0.9958033256642808 0.998446553484245
000080 70 d0 bf ee a4 92 ef 3f 59 41 06 dc 42 79 f0 3f
       0.9866509116241229 1.0296047777847745
000090 fa c1 85 05 f0 ff ee 3f 44 78 36 4a 1f 8b ef 3f
       0.96874238089191 0.9857326936214652
0000a0 25 e0 5b 32 2f c9 ee 3f 95 fa cf 11 64 dc ef 3f
       0.9620586379596757 0.995653185644033
0000b0 f1 7e 7b d7 bb 46 ef 3f f2 1f 6d d0 d4 0d f1 3f
       0.9773844917908417 1.0658767835284348
0000c0 ee 4b 1a b8 60 e3 ef 3f 93 ca aa 6b 9c 48 ef 3f
       0.9965060802227279 0.977613649642381
0000d0 75 22 23 10 3a 50 ef 3f 60 11 fe 28 2c 32 f0 3f
       0.978543311613136 1.012249145628708
0000e0 8e d4 2a 35 06 1a f0 3f d4 54 52 ed be 43 f1 3f
       1.006353576359547 1.079039504086997
0000f0 4c da 8a 4a 00 7e f0 3f a8 54 85 50 07 7c ef 3f
       1.0307619964420551 0.9838902065918278
000100 d2 e3 fd 3c 7c 2c f0 3f 56 6d 9f ba bf da ef 3f
       1.010860670327237 0.9954527516341993
000110 b7 41 94 99 0a a5 f1 3f 65 77 a4 91 c7 17 ef 3f
       1.1027933119949986 0.9716527790621795
000120 e5 a6 15 ea 17 70 ee 3f 1c e8 e4 58 e4 f4 ef 3f
       0.9511832782711421 0.9986440407003587
000130 16 eb e0 c6 c9 7a f2 3f 4a 8f 77 8e f2 d2 ee 3f
       1.1549775856680689 0.9632504255828078
000140 c6 a5 c4 51 ad 0d f0 3f d8 e4 2b 21 51 f6 ef 3f
       1.003339118391851 0.9988179824714747
000150 7e 5d ef 68 03 f2 ef 3f 0e 40 32 c2 22 36 ef 3f
       0.9982926415931812 0.9753583710571563
000160 3e 53 9e 94 42 5e f0 3f 51 19 cc b0 91 2e f0 3f
       1.0230127149017814 1.0113694101470012
000170 ba aa 29 95 41 0d f1 3f d3 b8 89 66 93 d3 ef 3f
       1.065736372630154 0.9945771219916203
000180 d8 7a ef e7 60 71 ef 3f 00 8e 96 a4 79 cb ef 3f
       0.9825901536931623 0.9935882773028766
000190 01 2b 6e b5 6a 55 ef 3f a0 a8 d5 5a d5 0d f0 3f
       0.9791768592416191 1.0033772991396646
0001a0 0e d8 81 a5 2a 1b f0 3f 70 86 28 f6 17 28 f2 3f
       1.0066324677586667 1.1347884765204093
0001b0 e2 de e5 d2 fd 96 ef 3f a1 69 2f 0d e2 38 f0 3f
       0.9871815795040357 1.013887454514226
0001c0 2f 4c 79 0b a0 73 ef 3f f4 d7 0b 9d 8f b6 ef 3f
       0.9828644012544653 0.9910352771100848
0001d0 7a ee d2 5a 21 16 f0 3f 78 f6 6a 68 8c 81 ef 3f
       1.0054029033480263 0.9845640220080005
0001e0 73 0d d4 8e 38 4b ef 3f 23 1d 87 e0 c2 97 ef 3f
       0.9779322423568558 0.9872755418117872
0001f0 22 47 93 02 59 7d f2 3f 86 74 57 d7 87 45 f0 3f
       1.1556024647329157 1.0169752513677692

encoder.0.1.bias f8 [64]
000000 d2 32 98 ce a0 a5 a5 3f ea 65 63 e7 ab fb b1 bf
       0.04227926752000645 -0.07024645232322482
000010 77 d2 f7 8c 67 9e ac bf 5e c9 75 35 9a 2e b2 bf
       -0.055896030385984945 -0.0710235958593208
000020 51 5d 42 0c 3e 48 bf 3f 94 99 08 c9 90 ae 74 bf
       0.12219608115480197 -0.0050492911982814755
000030 61 53 f9 77 64 d3 c2 bf 84 09 70 c9 a3 13 ba bf
       -0.14707618578054407 -0.10186217945014248
000040 f1 fc 1e 72 ba f5 c6 bf 54 e6 30 e4 01 ec b8 3f
       -0.17937403271023514 0.09735118695325556
000050 40 e4 a0 30 71 78 b5 bf d2 0a 8f b0 ad a8 98 bf
       -0.08386905133456057 -0.024080957318583902
000060 4b c1 3d 76 1d 0d 9e 3f 73 97 8f 27 42 35 b5 bf
       0.029346905080673207 -0.08284390893785858
000070 d0 21 02 25 c3 65 c0 bf 9c fb 33 eb 88 3d 8b bf
       -0.12810553843543326 -0.013300962140872667
000080 e6 97 4c 3b 52 a0 59 3f be 73 8c 39 c2 74 a5 3f
       0.001564102463086575 0.041906423115711786
000090 c9 0e 20 f2 97 77 bb bf 8b 72 6e 4c ee fe 5a 3f
       -0.1072936025739707 0.0016476943144204971
0000a0 4c cf 53 3a 62 b7 b1 bf 3c 9f 80 29 35 12 b0 bf
       -0.06920446323402735 -0.06277782691233552
0000b0 bc 94 b8 a8 30 ac c3 bf 15 10 7f eb fe 13 b1 3f
       -0.15369232405024558 0.06671136140272467
0000c0 5e d6 17 a2 5b 01 c5 bf 6a 60 10 a0 7c 17 b3 bf
       -0.1641039411039626 -0.07457713039218708
0000d0 5e 91 28 0e 92 94 be bf b9 fd 3e 5b d8 ac a0 bf
       -0.11945450635591245 -0.032568703783450066
0000e0 b8 06 08 2c b5 4f c2 bf f3 d7 6a 14 c8 33 b9 3f
       -0.14305748605698 0.0984463739249291
0000f0 9a fa eb 0d d0 ea 9f bf 98 82 72 d0 20 80 ba bf
       -0.031169176912039555 -0.10351758088155305
000100 58 89 1d 4f dd 97 9a bf 6d b2 0b 76 ea e4 c1 bf
       -0.02596994204885425 -0.13979845775556346
000110 c4 4c fd f6 65 4e b9 3f 3c d2 98 76 9e c7 9f bf
       0.09885251312271054 -0.031034923542579515
000120 0e 78 81 44 3e 28 c3 bf fa db b2 93 9e 6d be bf
       -0.14966562600142236 -0.1188601599304632
000130 bc 0f 65 55 d1 2f c3 3f 88 2f d0 2d 8c 16 6d 3f
       0.14989678067843026 0.0035507905836364463
000140 50 b0 79 91 93 34 be bf 2e e9 55 d1 64 6a a4 3f
       -0.11798975278515056 0.039874220422421267
000150 43 30 bf a0 c3 d5 8f 3f 14 e9 20 35 42 fe b9 bf
       0.015544441550353954 -0.10153592869838618
000160 4f 78 7b c5 df d8 af 3f 8a ed 31 c8 9a 0d c0 bf
       0.06220149312660849 -0.12541517996929158
000170 bb aa 92 c7 b4 27 ac 3f 83 53 e4 52 28 cf 05 bf
       0.05499043403809397 -4.1597765049561905e-05
000180 49 44 d6 01 16 12 ba bf 3f 1e 8f c2 68 59 af 3f
       -0.10183846993301517 0.061229013204464604
000190 f7 83 77 bb 49 4a b2 bf 01 2e 04 25 e5 4d 94 3f
       -0.07144604517772267 0.019828396210000324
0001a0 e3 e4 a0 6d 11 6a c6 bf ed 8d d2 59 ff 13 c1 3f
       -0.17511194088891732 0.13342277418006124
0001b0 e9 b6 17 1c 84 7e a0 bf b0 b8 28 91 f8 69 a3 bf
       -0.03221524088790579 -0.03791786930047303
0001c0 32 c1 b0 fa 48 71 9e 3f bc ac 95 f5 d0 7d 8a 3f
       0.02972902326672617 0.012935287947320233
0001d0 22 7a ad 17 f9 62 b7 bf 8c 6d 87 92 12 d1 bf bf
       -0.09135395839755536 -0.1242839439141134
0001e0 f9 87 d7 99 ab 83 c2 bf 00 20 e7 50 6c 66 c1 bf
       -0.144643259161114 -0.1359382052453384
0001f0 b2 ac 4e 56 5f c2 c2 3f b7 d0 8b 8a 45 ef a7 3f
       0.14655677522873628 0.04674737278210855

encoder.0.1.running_mean f8 [64]
000000 74 c7 85 ba 33 77 ae bf e9 6c 68 1d d7 8e b1 bf
       -0.05950318958174608 -0.06858581989256475
000010 fd 43 60 24 09 92 de 3f af d7 d1 06 f2 54 d1 bf
       0.47766331245753674 -0.27080965677248064
000020 36 c6 5a cf e9 91 c4 bf 11 7e b5 c8 26 fe e1 3f
       -0.16070292114959422 0.5622743530365729
000030 d8 97 e9 49 f2 b3 b4 3f 95 27 82 1a a2 43 d0 bf
       0.08087076477531185 -0.25412800396645113
000040 5b 00 a9 2b 66 10 de bf 4e 49 5b 7b b9 00 92 bf
       -0.46975092185676254 -0.017580888895119266
000050 26 23 27 97 e5 f3 ca bf 83 c9 21 03 50 92 e2 bf
       -0.21056814079772684 -0.5803604184314256
000060 19 be f9 7d 74 a9 d1 bf 7e c0 da b4 55 ce c9 3f
       -0.2759677152853058 0.20160933810030096
000070 de 10 ca 0a bf 2e b7 bf 82 bb 89 56 06 dd b2 bf
       -0.09055704129611139 -0.07368507015938344
000080 72 1e fe 92 12 27 d7 3f f2 2d 34 82 54 9c a1 3f
       0.361759799525749 0.03439582909967588
000090 2c f2 7a 8a 8e 63 ad 3f b5 dd a6 05 b6 67 d1 bf
       0.057400183109596575 -0.2719550185388145
0000a0 b2 e2 14 77 be 5c ba bf af 1c 72 cb 41 ed cc 3f
       -0.1029776612020992 0.22599050935625573
0000b0 21 65 67 68 74 af e2 3f b1 af 82 ca d0 0d d7 bf
       0.583917812265245 -0.36021823669829717
0000c0 c6 e0 38 41 07 01 c9 bf 5a a3 ce 22 db af c7 bf
       -0.19534388241459605 -0.1850541992146429
0000d0 99 48 d8 90 a1 7c e0 bf a2 12 5c 1f 2c b1 db 3f
       -0.5152137593270424 0.4326887422796891
0000e0 c0 9f ec 2c 99 12 a5 bf 06 e8 e6 34 32 f1 d4 bf
       -0.041157519086766126 -0.32722144285401134
0000f0 c4 ee 54 85 a4 33 ce bf 0b d0 61 ee 3e e3 cd bf
       -0.23595100889530418 -0.23349749221563373
000100 69 c9 42 cd 79 68 e0 bf b1 76 49 3b 0e f6 df bf
       -0.5127533921243358 -0.4993930415128985
000110 48 26 c5 54 a9 3d db bf 8a d0 2f c0 eb d8 d6 bf
       -0.42563851621944027 -0.3569898011039717
000120 eb d8 88 08 ff c4 b8 3f fc 76 14 b0 1d 88 be bf
       0.0967559238277748 -0.11926446484400438
000130 12 81 e5 54 19 e3 dd bf 9b 80 43 b9 9c b9 84 bf
       -0.46698601999925515 -0.010119652179526198
000140 5d 0e f5 0b f6 ed db 3f d0 6a 25 11 58 dd 84 bf
       0.4363989941377662 -0.010187805197963057
000150 46 af b5 da a6 81 be 3f ca 92 cf fc ef aa dd 3f
       0.11916582908241677 0.4635581940513417
000160 d5 3e e3 49 b3 1e b1 bf 45 ad e3 7b de 2c b9 3f
       -0.0668747001066053 0.09834089779513018
000170 6c 0e a4 e9 f3 f9 da 3f 9e a1 91 47 a2 98 dc bf
       0.42150590721596504 -0.4468160342135209
000180 8d 17 40 e9 f1 73 d9 3f a5 a8 82 fa 0d 6d e0 bf
       0.3977017190776387 -0.5133123295575116
000190 8d 3d 37 4e 7a e4 c8 bf 67 86 4f da 8b 7a c2 bf
       -0.19447258776788737 -0.14436481628131334
0001a0 79 80 a8 a3 e2 1f af 3f ad eb a9 cc 7d e2 de 3f
       0.060790140607651595 0.4825739382428605
0001b0 bd 70 7a 67 3c 72 b3 bf 55 aa 36 0f e0 82 d9 3f
       -0.0759618523247267 0.3986129902429288
0001c0 ea 2f cc d6 3b 68 da bf 79 b9 09 94 ab be d8 3f
       -0.41261192299202654 0.38663758713564494
0001d0 c4 6b 98 2b a9 0f ca bf 3b 12 3b 2d 4c 72 dc bf
       -0.20360293034249655 -0.4444761697489274
0001e0 61 7a 7f 67 3a da da bf 4a e0 c5 2f e3 86 ca 3f
       -0.4195695887300755 0.2072414382234931
0001f0 2d 8a ad 98 7f 6a b0 3f 04 43 e0 81 71 c8 b5 3f
       0.06412503697860279 0.08508977337647755

encoder.0.1.running_var f8 [64]
000000 84 27 4c f7 62 7c 58 3f 29 b8 d3 d8 5d 64 68 3f
       0.00149449982308389 0.0029775460194434622
000010 1e 1e bd 04 a2 c0 5c 3f 22 66 7c 14 bb 87 73 3f
       0.0017549116336840263 0.004768114835110223
000020 72 02 65 92 b9 6a 7f 3f f3 9c 21 d3 7e 56 65 3f
       0.00767014016156563 0.0026047207875766697
000030 c2 c4 66 2d 39 4f 81 3f 1b 18 d6 d9 3b ed 82 3f
       0.008451887796442018 0.009241550050102678
000040 79 72 76 56 5b c8 77 3f 6e 6d f7 e6 70 ad 53 3f
       0.005806309497896061 0.0012010195313142086
000050 f7 24 16 6e 3e c0 4c 3f da 90 09 ec 2c 9d 5e 3f
       0.0008774094423397429 0.0018685282413111654
000060 42 73 d6 a4 3a 75 59 3f 2c 0e f8 4d 5a 62 5c 3f
       0.0015538284963902559 0.0017324334984331153
000070 5d de 50 04 67 da 62 3f 44 a0 7f f2 1b f8 64 3f
       0.0023014080093409065 0.002559713921062497
000080 8b 1c 48 de 36 89 57 3f 7e 4f 3a 08 55 0f 79 3f
       0.0014365230391620045 0.006118137509151354
000090 82 9f 5e 91 97 52 65 3f ef 54 ff 76 07 46 64 3f
       0.002602859526593394 0.0024747987554102273
0000a0 d3 90 8e 50 36 cf 63 3f 70 d6 eb 75 9a c1 84 3f
       0.002418142398214676 0.010134894107504538
0000b0 9a 47 bd da b5 5d 75 3f 42 5f 79 5f 6a 89 75 3f
       0.0052163222970466275 0.005258002776450445
0000c0 91 11 55 91 64 39 7f 3f b0 bc ac e4 ef 64 74 3f
       0.007623093454928302 0.0049790736036775946
0000d0 85 0f 5c c2 90 e0 42 3f e3 f3 b2 bd 1f 26 74 3f
       0.0005760866958728217 0.00491917036850695
0000e0 51 c4 82 04 81 f1 63 3f 40 61 e7 1e 2e dd 67 3f
       0.002434494006671652 0.0029130841059946955
0000f0 de 21 0f fd be 8e 3f 3f 0e 7f 06 48 29 e5 5b 3f
       0.00048153078847381996 0.0017025855196166092
000100 b3 59 4c a2 03 9f 5a 3f b8 93 65 84 41 db 88 3f
       0.0016248260009824433 0.012136947491578329
000110 65 00 a7 79 a9 28 65 3f 93 40 1d 8f b5 08 6f 3f
       0.0025828657209956856 0.0037883325648309734
000120 b8 d1 c5 a1 79 60 5a 3f 4e 46 52 d2 d1 09 7a 3f
       0.0016099155246510465 0.006357020965099004
000130 67 5e 42 de 88 13 4d 3f 2a 73 6e ff 99 43 71 3f
       0.0008873384763487647 0.004214860490631614
000140 c6 76 0f cc a7 e4 6a 3f ed b7 55 c0 4c 5f 6f 3f
       0.0032828595435450995 0.0038296221779807655
000150 a9 9f 3d 3b d4 01 37 3f ed 47 69 0c 7b e3 7d 3f
       0.0003510611670578487 0.007297020586138442
000160 a6 72 45 2e 2f c5 62 3f ab 01 e7 63 39 9d 3c 3f
       0.002291290426155906 0.0004366173851871001
000170 54 b7 79 8f 56 a5 71 3f cb 34 9a d8 26 ea 51 3f
       0.004308069350015337 0.0010934237820124256
000180 91 05 c5 a4 d0 ee 67 3f 47 c0 75 7a 35 81 78 3f
       0.0029214930602001273 0.005982598209229257
000190 c1 45 da 67 d2 22 51 3f 75 81 47 ea 8d b7 67 3f
       0.001045899843493778 0.002895142725023609
0001a0 17 16 c0 57 8c 12 5b 3f fc e1 05 f3 4e aa 8d 3f
       0.0016523714575681408 0.014484993735764277
0001b0 3f ed 8b 53 1e 85 62 3f e5 06 46 6c a2 61 55 3f
       0.0022607414542769317 0.001305016151576793
0001c0 96 ec 7c 3e 6f 00 80 3f 29 99 00 7c 5a 3d 72 3f
       0.00781332883308598 0.0044530424638991395
0001d0 1c cc d3 6e 6b 94 66 3f 66 4d ca 61 d8 c1 59 3f
       0.002756318883820009 0.001572095213451552
0001e0 95 5b 3c b8 57 5f 57 3f 84 1d 0d 81 aa a5 84 3f
       0.0014265400540744756 0.010081607879000705
0001f0 d6 14 e7 0a 30 8c 6a 3f de ec 36 5c 84 b1 69 3f
       0.003240674813442905 0.003136404529610822

encoder.1.0.weight f8 [64, 64, 3]
000000 f6 cd d4 7c 79 cf b2 bf ff cb 2a ca d1 50 a7 bf
       -0.07347831056249973 -0.045538478783235796
000010 31 c3 19 f5 c1 b8 b1 bf 06 4c c9 f6 fc a5 89 bf
       -0.06922542795088017 -0.012523628503151595
000020 98 36 5b 8c 97 14 b0 bf dc 5c d1 d1 ab 88 b2 3f
       -0.06281420876185917 0.07239793655877541
000030 1d d6 74 3e 97 04 92 bf f1 f3 24 76 db 43 af 3f
       -0.017595637499843265 0.06106458489600886
000040 91 ff b9 22 ba 5b aa bf 65 ff a5 3b 81 59 93 3f
       -0.05148107217701104 0.018896121278430118
000050 53 50 b6 2e bb 0d 96 3f 0c 5c f2 92 73 9c b6 3f
       0.021536755300602128 0.08832475984159788
000060 6a 69 19 7b f1 4e 5d 3f 85 27 a3 68 59 72 a9 3f
       0.0017888410769929205 0.049700540564642494
000070 64 ea e9 75 5d a1 8e 3f ad e4 32 4e 54 72 b0 bf
       0.014956216965619613 -0.06424452695036349
000080 fb ab d2 73 f9 24 ad 3f 69 6b db f4 63 eb 94 bf
       0.05692271746496399 -0.020429193324939563
000090 cb f1 fb 51 d2 4c ac bf 35 b5 20 d1 6b e3 87 3f
       -0.05527360201628858 0.011664240188191325
0000a0 8e eb 94 41 2d b8 9d bf 90 0b 4f 34 3a 5c b1 bf
       -0.0290228911664872 -0.0678135278422316
0000b0 49 3c 75 5b 61 e9 b2 3f fc 11 d4 c0 27 67 a7 3f
       0.07387360079631934 0.045708887375472046
0000c0 a4 9a b7 c6 09 af ab 3f 62 95 6b 1b ee 5a 86 bf
       0.05406981039759742 -0.010915622913169446
0000d0 9c 35 45 eb 90 75 a0 3f 3f 42 07 63 2c e6 9f bf
       0.032146958083653504 -0.031151479286395164
0000e0 33 ab a1 62 3c a7 a1 3f 84 9c aa d0 ec fc 92 3f
       0.034479033508281985 0.018542957530965257
0000f0 de c1 00 5b d0 44 a4 3f d0 f6 ae 24 d5 77 6f bf
       0.039587508305320304 -0.0038413203196502113
000100 9c cc 46 96 91 5f a1 bf f9 5c bf a9 ea 74 b2 bf
       -0.033932256311709014 -0.07209650654055001
000110 71 cc 21 48 15 93 92 3f c9 1c 5d 4c ec 6d 90 3f
       0.018139202621068443 0.01604432312094842
000120 b6 65 a7 ea 42 1f 79 bf 09 20 68 3e 84 2a b4 bf
       -0.006133328812631891 -0.07877375148393652
000130 ce 2e 9e c4 19 91 a4 bf 06 4e 45 04 8a 32 9f 3f
       -0.040169530154427244 0.030466228972114727
000140 e0 79 f0 ad 18 87 64 bf e8 9a 8c c9 3d 21 96 3f
       -0.0025058252354164118 0.021611180712308192
000150 58 ec bd 2d a1 40 af 3f 05 69 23 55 24 0b 98 3f
       0.06103995974896098 0.023480003067427386
000160 60 e3 67 ef 4f ec b0 bf c8 6f 0a c4 bb 5b 89 3f
       -0.06610583872669684 0.012381998939694841
000170 3f 44 95 01 ee 4c a7 bf 25 08 fd 27 91 dc 75 bf
       -0.04550880212139718 -0.005337302223610539
000180 eb 79 81 85 7f 33 9f bf b6 fa 06 51 45 5b a6 bf
       -0.030469887279076884 -0.043665090695403405
000190 f1 d2 a8 55 05 7e a8 3f 94 cb c4 88 b9 13 aa bf
       0.047836462694624056 -0.05093173784771135
0001a0 33 f7 86 06 1d 4c b5 3f da a5 02 5b a1 65 a6 3f
       0.08319264802318287 0.04374412761655906
0001b0 a8 fc 01 10 2e ab 98 bf 59 3c 3d e2 87 4a a0 3f
       -0.024090499617611144 0.03181862484654436
0001c0 ca 1c aa 01 fc 53 a8 bf cf 9d ae 44 00 a0 a4 3f
       -0.04751575012510896 0.04028321112064825
0001d0 9b db d1 47 5c 20 73 3f d5 f5 b6 82 4c 32 b5 bf
       0.0046695332249474765 -0.08279874984051301
0001e0 e1 b6 7b 0f 8f b5 a4 3f 87 ad 41 41 ee 98 7c 3f
       0.0404476839447463 0.006981783564792627
0001f0 de 2f 02 8e 89 79 a7 3f 99 98 56 b6 2d 05 a1 3f
       0.04584913118841859 0.03324263430413161
000200 8f 42 52 53 3a e1 3d bf 51 8a a2 4b 13 ec 9d 3f
       -0.00045592950784460127 0.029220868579282137
000210 77 5f 1d 52 3e 1e b2 bf 1c 26 1b f4 be 13 b0 3f
       -0.07077397827867836 0.06280129871006362
000220 0a ae 31 5f 10 e3 9e 3f 2b e0 29 53 ab 98 9e 3f
       0.03016305523889965 0.029879261923696426
000230 b1 ca 82 1e a4 cb b4 3f fe eb 69 b9 df ea a0 bf
       0.08123231644530439 -0.03304194582320717
000240 fc fd fe 08 bb 75 72 bf 24 a7 9b c2 80 22 b2 3f
       -0.00450680790521529 0.0708389735333666
000250 0a a9 ba e3 51 8e ae 3f da d9 e7 42 b3 3c 87 3f
       0.05967956452271224 0.011346245269106815
000260 bc 52 78 72 45 d9 aa 3f fe c5 0c c0 af 01 87 bf
       0.05243889829958934 -0.01123368553962489
000270 5e 8f 90 59 5b be 99 3f ff 53 67 d8 5c f7 99 3f
       0.025140216199488356 0.02535767622778806
000280 01 66 22 92 91 95 aa 3f 38 8a 67 90 db 72 a4 3f
       0.05192236813418206 0.03993879449605625
000290 09 10 28 38 7c 4b 9d bf 43 33 4b 3d 3d 5e 76 bf
       -0.028608265807648112 -0.005460967270391861
0002a0 a8 44 fe a9 06 40 a5 3f 2a 2d a6 d8 a7 b0 9d 3f
       0.0415041048537515 0.028994200323308274
0002b0 a3 88 c5 35 4a 64 85 3f 37 a7 b7 89 c2 e3 a2 bf
       0.010445194021205422 -0.03689392024155185
0002c0 0e 81 02 78 b2 82 a7 3f 0e 31 aa 43 65 68 b3 bf
       0.04591901507342487 -0.07581169988606382
0002d0 65 02 53 e2 52 2d ad 3f c9 d4 96 b7 a4 85 b0 bf
       0.05698641789195306 -0.06453923685224362
0002e0 1a 08 39 94 b7 e8 a7 3f 15 d7 7d b2 94 75 8d bf
       0.04669736561164957 -0.014384423920755599
0002f0 f9 0c 27 79 b0 08 a5 3f cb 50 a8 50 8c 0d af 3f
       0.041081919469002366 0.060650238843807346
000300 e9 f9 42 ed 16 3b 77 3f 98 8e bf 38 13 0f b3 bf
       0.005671586568665601 -0.07444877753692436
000310 16 7f ee 0b 20 67 a5 bf 22 27 78 d2 7c db 97 bf
       -0.041802407700059316 -0.023298216196088302
000320 a9 16 d6 b2 08 d5 95 3f df 8b 8b de 14 3b 86 bf
       0.02132047263650941 -0.010854876557862823
000330 63 56 d8 9f 2c df 53 bf e9 7d f6 13 e7 fc bb 3f
       -0.0012128768715959019 0.10932773816465836
000340 c5 68 03 06 cf 26 bf 3f b9 14 91 7c 17 e9 b0 bf
       0.12168592354592807 -0.0660566977613425
000350 d6 0e 23 d2 a1 d2 87 3f 92 de 84 76 06 09 70 bf
       0.011632217622156753 -0.003914857145268196
000360 b2 fc 64 e7 0d 20 ab bf 7d 56 08 2b a5 ca a9 3f
       -0.052978929993053994 0.05037418508815692
000370 1c 11 8a 2a 57 c2 a3 3f 6a ff ce e3 9a 46 ab bf
       0.03859207529333927 -0.05327304869524492
000380 4e b2 8d c8 89 9f a5 3f df e7 03 e8 b9 db 9c bf
       0.04223280499613634 -0.028181938921058133
000390 56 64 39 fd 70 c5 a9 bf 83 43 59 98 1a 40 c2 3f
       -0.050334483061938926 0.14258129538441375
0003a0 f4 d9 17 36 3d 22 ab bf b4 52 79 95 41 bb a7 3f
       -0.05299559865300188 0.04635052632935324
0003b0 88 2c be 21 15 82 ad bf 42 b6 44 05 68 39 88 3f
       -0.05763307606601936 0.011828243885783189
0003c0 3f 40 3c b2 ed a3 a7 3f b2 ed e0 31 77 92 9d 3f
       0.046172550208325884 0.028879034442281522
0003d0 3c 07 07 ea 24 87 af bf 15 3b da f9 af 08 b2 bf
       -0.0615779433897061 -0.07044505929864571
0003e0 d0 18 57 01 84 49 ac bf 0e bc 2b 3f 3d e5 ab 3f
       -0.05524837986335884 0.05448333164337536
0003f0 a5 d3 5f a1 9c 9b b1 bf 82 67 eb e2 ca c4 8a bf
       -0.06878069820216 -0.013070664453539885
000400 15 81 13 d6 fa 97 96 bf 06 bd f4 93 f7 06 b3 bf
       -0.02206413203828202 -0.07432505953032739
000410 4f 3b fb c1 0a e8 a9 3f cc c1 db 23 bf e1 93 3f
       0.05059846513687793 0.019415842593788743
000420 e7 cd f5 9e f7 6f a4 3f cf 21 2e c6 af fc af bf
       0.039916742471998216 -0.062474720899505
000430 d3 3b 04 8d 28 7b a4 bf 95 49 59 68 59 80 a7 3f
       -0.040002124036724894 0.0459011020544892
000440 19 62 bf 54 ab b6 84 bf b9 eb 6d fc 61 f5 7b 3f
       -0.010114038966933457 0.006825812109009393
000450 b3 9a d4 8a 6a 24 9d 3f 1c cf 82 7c b1 fd 93 bf
       0.028459229205646874 -0.019522450661226917
000460 a4 05 49 3c 8a 7e ab bf f0 9c 28 38 77 c7 a5 3f
       -0.05369979844955289 0.04253742752580958
000470 70 de 51 3e 8c 59 a4 bf c9 7c 74 12 62 04 af bf
       -0.039745695693395144 -0.06058031535416714
000480 86 59 d6 5e 09 89 ab bf 3b 41 ad fe dd e9 91 bf
       -0.05377988131219795 -0.01749369494365392
000490 2d 0e 42 be f7 ce 9d 3f d4 fb 53 3e c9 2a 7a bf
       0.029109831798008457 -0.006388460261631718
0004a0 26 fc 66 6d 3f a9 9c bf 88 a7 83 77 80 5c 9e 3f
       -0.027989378979096945 0.02964974145371671
0004b0 79 cc 9f c9 12 f9 91 3f 4f 87 74 9f 42 db af bf
       0.01755170207611598 -0.06221969791864856
0004c0 22 42 68 28 ce 5d 6f bf 80 7a 94 d1 ed a9 a8 bf
       -0.0038289095421151368 -0.04817145522450961
0004d0 0d 5d 22 af fc 16 ac bf 57 04 c2 ab 77 45 6c 3f
       -0.05486287725323722 0.0034510934183918196
0004e0 1e d4 dc a7 9a aa 90 3f b2 d1 df ae 03 9a 9e bf
       0.01627580308487008 -0.029884393261413407
0004f0 d1 4a 3a f2 7b c2 ad 3f b2 b5 52 2b 8a bb 83 bf
       0.058124421423732316 -0.009635047385326032
000500 05 9f ad 9c cf 14 c3 3f 6d 12 7a ad f4 a8 b7 bf
       0.1490726008444129 -0.09242181048655036
000510 47 f4 d0 88 53 8c 94 3f b2 4f d0 a8 fb a5 ad bf
       0.02006655237731916 -0.057906975133078645
000520 b1 5e 48 44 8e 52 7c bf 69 0e 91 95 65 58 a6 bf
       -0.0069146687788116815 -0.04364316416515807
000530 ec 95 26 58 45 5d ac bf 4a bc 05 0d f8 4d 99 bf
       -0.055399100313746036 -0.024711490435432894
000540 f1 6d 77 2a 64 a6 91 bf 1e ac 0f 2e 4c bf b5 3f
       -0.017236294834090008 0.08495021938840394
000550 d9 79 bd c5 dc 76 97 bf b9 bb a6 d6 8e cb 9d 3f
       -0.022914361542797444 0.029096824504161598
000560 8c b9 13 3b 16 fb 21 bf f8 44 74 6e 92 9b b4 bf
       -0.0001371826779527737 -0.08049884029994192
000570 ae 6b 23 0e 0a ae 90 bf 59 62 b6 79 96 9e a6 bf
       -0.01628890715879166 -0.044178678853488314
000580 9e e1 9c 48 d0 f6 ae bf f3 4d a1 ad a3 77 b2 bf
       -0.060476788390988676 -0.07213805188194282
000590 0c b7 b0 c1 f9 44 9a bf a6 47 a6 7e 37 65 b4 3f
       -0.02565374607745867 0.07966944543866691
0005a0 82 f2 7f 8e 98 1f 8f bf b9 85 ca 2d 63 eb 90 bf
       -0.015196983193157768 -0.01652293173777306
0005b0 6e 1d 69 78 4c 48 99 3f 4d 41 18 92 a3 fa 91 3f
       0.024689860200195417 0.017557674209514307
0005c0 0a 41 54 a4 dc 13 9e bf 91 5f b9 fd fc f9 53 bf
       -0.029372642068723066 -0.0012192698112780435
0005d0 bb e9 42 ca 41 cc ae bf 8d 52 29 79 a7 a1 b3 3f
       -0.06015210718165372 0.07668539722483043
0005e0 ab 21 cd 2b e9 ea 9f bf d8 93 4a 83 7d 92 a9 3f
       -0.031169551180285342 0.04994575717618205
0005f0 81 6c af 9a 62 c0 97 3f b8 c1 ce b8 44 21 ac bf
       0.023194828692663542 -0.0549413180918949
000600 23 1a e1 04 17 25 aa bf 39 54 96 15 1d 12 b7 3f
       -0.051064223619097036 0.09012014176399043
000610 a1 81 8d cf 70 9f b2 bf 26 72 1d 32 68 7e ab 3f
       -0.07274537150579487 0.05369878398662235
000620 8c ae 47 4f 67 fd b4 3f 86 cd 6b 51 1e 03 92 bf
       0.08199163137003945 -0.01759002086596475
000630 d3 da 20 0c b9 18 ab bf fc 03 c9 97 dd 84 ad bf
       -0.05292299531031621 -0.05765430906149757
000640 15 47 bf 9f e1 52 98 bf f8 a9 8f 51 9e 1c b5 3f
       -0.023753667235559456 0.08246793261756824
000650 1f f8 28 9b d9 78 a0 3f d0 eb a9 4f 8e cf a6 bf
       0.03217201251071366 -0.044552275871829417
000660 d0 12 70 37 42 49 b4 bf 35 fb da 56 bb d5 c0 3f
       -0.07924283841573332 0.13152257672296633
000670 b5 34 c4 1f bc 53 96 3f 12 3c 3a 41 2a f8 b2 3f
       0.02180379814040086 0.07409919826953651
000680 63 79 b8 31 45 e0 b3 3f 53 40 fc 05 70 91 a7 bf
       0.07764084304696932 -0.046031475763925876
000690 86 b2 ae 7e 5b aa b0 3f d6 97 12 ef 92 41 b0 3f
       0.06509944765884698 0.06350057923063387
0006a0 a5 a1 86 24 4e 8e 8a 3f 84 bb 1a 82 18 51 93 3f
       0.012966738214189652 0.01886404317945846
0006b0 7a 6d 16 48 ed 6b 88 bf ec 1f 9e be d5 0f 83 3f
       -0.011924604189337929 0.009307546500863816
0006c0 a3 00 33 bd 70 33 b4 3f f4 5d 42 12 95 3b b8 3f
       0.07890991801378049 0.09465915389807106
0006d0 04 34 13 b6 f7 fc a5 3f e3 06 92 25 95 1d 7c bf
       0.04294561479182593 -0.006864149670151784
0006e0 d6 71 d2 5d da 9d c4 bf 3d d5 1f 59 9b d8 b4 bf
       -0.16106729108004342 -0.08143015790831938
0006f0 c6 3b bd 23 a3 64 b5 3f c1 dc 1d 83 30 ec a9 3f
       0.08356685278452777 0.05063010788483658
000700 ef 81 66 47 ff a6 ad 3f 51 cc 4a 3f 63 a9 a7 bf
       0.05791471239649925 -0.04621420047387715
000710 a3 b3 af d0 46 f2 93 3f c3 4c a7 0d 2c d5 b0 bf
       0.019478899466708232 -0.06575274785363931
000720 37 67 ae a5 7d 37 ab bf 85 0c 14 bf 7b d5 90 bf
       -0.0531577362773547 -0.016439374482626796
000730 fb 86 56 18 92 a6 9d 3f 9d 56 67 ef d8 72 a5 3f
       0.028955729232285937 0.04189184114845299
000740 a1 c5 96 7f fc f0 b2 3f 21 29 da f9 05 be a2 3f
       0.07398965945210147 0.036606013059172555
000750 ec d5 6e 6f b8 fe ad bf 58 5c 7a d5 38 37 b7 3f
       -0.05858398781075977 0.09068637096275844
000760 75 8e 58 36 5d ee 84 3f 8f 3d c9 68 cf 87 8a 3f
       0.010220268460279439 0.01295434988529001
000770 6b c3 57 8d f3 30 9d bf 7e 97 09 e9 2c 76 81 3f
       -0.02850704717815537 0.008526182996501094
000780 d3 a3 1c 01 b7 4e 95 bf 5e 46 a7 62 f1 5f aa 3f
       -0.020808085863936853 0.05151323632493353
000790 fb fa f2 98 c1 6d a2 bf f6 df c5 73 98 0f 97 3f
       -0.03599362365775068 0.022520429674358376
0007a0 51 91 2b ba f9 da b0 bf 4f 8d 84 ff c1 88 b5 bf
       -0.06584130091829833 -0.08411800850131111
0007b0 f7 03 80 08 11 b3 9f bf 21 05 e3 55 04 1f b3 bf
       -0.03095652212505581 -0.07469203087659483
0007c0 2d 72 0f a8 b4 12 86 bf bc c0 57 fd 9e 58 ab bf
       -0.010777865771097595 -0.05341049997866906
0007d0 40 4b 4a 07 b0 37 a8 3f 70 94 83 a7 0a c1 77 3f
       0.04729986275665121 0.005799333208618682
0007e0 1c e4 a7 3c ae c9 a2 bf e9 4a c8 5e 0a d2 88 bf
       -0.03669495096614403 -0.012119370477227292
0007f0 31 22 28 eb 9f 5b 7a bf ef 92 36 ed e9 cc 9b bf
       -0.006435036355931832 -0.027148871520369985

encoder.1.0.bias f8 [64]
000000 c3 5a ff 3f 52 e4 a7 bf 95 51 2c 00 40 d0 76 3f
       -0.046663828193847866 0.005569696428910827
000010 01 e0 51 c0 e2 5f a2 bf c4 cb 0d 00 ae ad 95 3f
       -0.035887800194302606 0.021170347932137693
000020 70 ad e3 7f 2e 83 a8 3f b2 0d e7 df d1 ae b0 bf
       0.04787583647870519 -0.06516753879900852
000030 65 40 87 00 8f 74 89 3f 90 e4 f1 1f 72 91 b1 bf
       0.01242934913980793 -0.06862557678131709
000040 40 46 c9 ff 3f 36 39 3f 60 1c 0b 40 08 bc 9a bf
       0.0003847032783471406 -0.026107911023043662
000050 ff 96 0c 40 43 dd a6 bf d6 6f 00 40 55 fc b0 bf
       -0.044656850403312014 -0.06635029614011442
000060 78 94 fd 7f 1d 69 ab bf 21 5a e3 7f 71 87 8a bf
       -0.05353634059319118 -0.012953650203070545
000070 17 e0 f9 3f 05 a3 97 bf d5 f1 fc 7f 10 80 b0 3f
       -0.02308281138400056 0.06445410847385998
000080 69 b7 18 40 8c ce 97 bf e4 93 24 00 0a e4 8d 3f
       -0.023248855030196056 0.014595106248245622
000090 39 32 f9 3f d1 33 ab bf 5c f6 ff ff 90 23 92 3f
       -0.05312971025395936 0.01771380007266142
0000a0 35 17 04 40 c6 83 9b bf c7 60 09 60 71 3a b0 bf
       -0.026869866997933662 -0.06339176745075568
0000b0 2c c6 35 7f 8d fa 84 bf 4f 9e fc 1f 55 b9 af bf
       -0.010243516392367168 -0.061960849909436726
0000c0 9d e4 5e 00 58 9e 58 bf 3e a1 f4 ff 9f 46 b1 bf
       -0.001502595843233124 -0.06748390196719797
0000d0 e2 58 07 00 2d e6 86 3f 72 dd e4 7f 22 73 a5 3f
       0.011181212962509016 0.041894033538876566
0000e0 c5 dd ae ff 46 48 8b 3f 1d 99 1f 80 a7 96 af 3f
       0.013321451833561046 0.06169627608305659
0000f0 cb 8b 45 00 1f ca 94 3f 09 86 fb 7f be f1 9b 3f
       0.020302280799466204 0.02728936821120523
000100 2b a2 00 40 5c db b0 3f 26 d2 e1 ff 4b 45 9d 3f
       0.06584717333374417 0.028584659092716923
000110 ec 11 20 80 72 49 98 3f 83 91 25 80 26 1b 98 bf
       0.023717679090639196 -0.023541070529419904
000120 24 7a df 7f 3d 13 88 bf c2 78 fd 7f e6 bf a6 3f
       -0.011755447831032724 0.04443283378962938
000130 b9 bf 04 00 1e 80 aa bf 08 52 fd 5f 9a 56 b1 bf
       -0.05175870657183119 -0.06772770732397515
000140 c0 5c d3 7f 76 44 99 bf c1 05 f7 9f b1 54 a2 bf
       -0.024675227691514534 -0.03580241277405661
000150 e7 89 41 80 17 7f ad bf 3e bb 00 80 5a 57 a5 bf
       -0.0576102584898484 -0.041682079434727445
000160 96 0b fa 3f df a2 a5 bf 93 ba e7 3f 53 1e 94 bf
       -0.04225824027982765 -0.019646931434119507
000170 a6 31 f2 3f f9 4a a8 3f e9 e5 ef 7f 88 4f ab 3f
       0.047447003417889363 0.05334116517765237
000180 b3 35 02 c0 69 6f b0 bf 4f d9 e2 bf 17 59 a8 3f
       -0.06420002877913226 0.047554723905181555
000190 6e 27 eb bf 74 67 a5 3f a4 3f d1 7f b5 fe 94 bf
       0.04180493204837786 -0.020502887655595395
0001a0 bf 30 21 80 cf 35 9e 3f 3d 1a ae 00 9c 6f 69 3f
       0.029502145953572475 0.0031049773146521174
0001b0 c0 40 0f 40 41 67 ad bf be a6 fe 3f 30 f6 a7 3f
       -0.057428397245190776 0.046800144016129405
0001c0 ad 52 fc 3f 86 c7 a0 bf 78 5d 00 40 72 36 b0 bf
       -0.03277225047182717 -0.06333078444037266
0001d0 57 07 19 a0 09 03 a1 bf 14 e6 de ff 03 ce 77 bf
       -0.033226300042328454 -0.005811706183459293
0001e0 93 31 57 c0 4e ff a8 3f 47 8c 40 80 0d a4 90 3f
       0.04882284257800786 0.016250811531915123
0001f0 d9 55 b8 00 40 79 84 3f 4b 9e fc ff b6 0d b2 3f
       0.009996891042685018 0.07052177190473079

encoder.1.1.weight f8 [64]
000000 c0 a8 0f e7 23 3d ee 3f d5 50 dc 4c b9 07 ef 3f
       0.9449634087480021 0.969692850225807
000010 38 38 d7 c3 a3 76 ef 3f 37 04 c4 05 79 35 ef 3f
       0.9832323861135199 0.9752774345980758
000020 e8 44 33 a3 35 a4 f0 3f 88 ca 8d 79 6f d5 f1 3f
       1.0400902152071527 1.1146082637975798
000030 03 af 0b 2b 09 16 f0 3f 38 1a 2f 11 f1 ed ed 3f
       1.0053798371763498 0.9352956138253097
000040 2f e5 c2 00 2a f4 ee 3f 3a 11 64 e5 30 56 f0 3f
       0.9673051848286941 1.0210427246648366
000050 16 8d 48 f6 a1 3a f1 3f 48 f3 5c 8f 5c ef ee 3f
       1.0768146152921125 0.9667189407406136
000060 e2 70 da ce 39 93 ee 3f a2 2e 15 ec 3c b9 f0 3f
       0.9554719009497854 1.0452241155607358
000070 a4 6a 0d 6f 0e 47 ee 3f 0c fa d9 2e 4f c9 ef 3f
       0.9461738747589448 0.9933238902156645
000080 75 08 45 eb 4b 47 ee 3f e2 74 dd 18 b9 21 ef 3f
       0.9462031931982567 0.9728665815015598
000090 cc 7d 6a fb 0e c4 f0 3f c7 19 9d 88 89 78 ef 3f
       1.0478658505379483 0.9834640186534721
0000a0 9a db 83 eb c6 55 f0 3f 63 7b 2d 6a cd 38 f0 3f
       1.0209416580016524 1.0138677737774848
0000b0 ab ec 10 17 e4 72 f1 3f f3 fd 07 2c 0e ce ee 3f
       1.0905495549221011 0.9626532421097508
0000c0 e6 f6 d8 f9 6e 4e ee 3f 3b 8f ed c2 94 2c ef 3f
       0.9470744018396686 0.9741920287310458
0000d0 33 ef cd 8e a0 74 f0 3f 66 02 f2 51 0d 24 ef 3f
       1.028473432378587 0.9731508827681636
0000e0 e2 de 69 f3 60 f7 ef 3f 38 a3 33 55 2e 91 f1 3f
       0.998947596947769 1.0979445770446556
0000f0 04 b6 3c 5b f7 51 f0 3f fe 2a ea a1 1b 35 ef 3f
       1.0200112880660308 0.9752329027554365
000100 ab c2 c1 8c ba cf ef 3f 23 62 83 0c b7 c9 ef 3f
       0.9941075085790393 0.9933734173201326
000110 64 99 d2 3c fa b2 f0 3f f2 33 08 25 36 f7 ef 3f
       1.043695676411141 0.9989271853715975
000120 63 47 a2 09 8e 6c ef 3f 93 89 cd 5d eb 22 f0 3f
       0.9820013225710053 1.008525244157316
000130 77 01 21 65 13 2f f1 3f 43 d2 c9 bf 6f b5 ee 3f
       1.0739931059216283 0.9596480127207275
000140 45 b6 ca dc 02 cb ef 3f d0 4a a8 30 fb b7 ee 3f
       0.9935316383686731 0.9599586439456633
000150 a2 e3 c3 32 0e 98 f0 3f 23 7b 65 0d 74 2c f0 3f
       1.0371229155555075 1.01085286362622
000160 aa 79 a6 23 67 4e f0 3f 0b f0 0d bb 10 3c f0 3f
       1.019141330012284 1.014664393121168
000170 c4 b9 fe 5d 85 40 f0 3f 05 2f d0 b7 c1 19 f0 3f
       1.0157521888428258 1.0062882595256621
000180 7d 84 1e ea bd 3b ef 3f d5 4e 14 f2 52 df f0 3f
       0.9760427067414096 1.054522462484717
000190 b6 ce e9 0e 2c 49 f0 3f 0f 95 76 e4 02 28 f0 3f
       1.0178642828513325 1.0097683834404199
0001a0 17 7e 87 ff 0b 96 f0 3f c6 34 a0 46 3d 3a f1 3f
       1.0366325360881825 1.076718593484928
0001b0 2a 43 39 73 d9 fb ef 3f 90 58 35 f1 41 1e f0 3f
       0.9994933367216607 1.007387106151814
0001c0 f1 e4 0d 9b bf 09 f0 3f 0a 14 2a 26 17 f2 ee 3f
       1.0023799950416186 0.9670520539663141
0001d0 d4 ae 8a 7f aa 1c f0 3f 65 cd 93 0c 14 bd ee 3f
       1.006998537263759 0.9605808492328093
0001e0 ac 2b 4f eb 65 07 f0 3f 63 67 a9 e4 65 00 ef 3f
       1.001806182076261 0.9687985864686478
0001f0 58 32 9e 3f 3f 5d f0 3f 70 10 2b 79 5b fc ee 3f
       1.0227653966022867 0.9683053366247929

encoder.1.1.bias f8 [64]
000000 c9 50 e7 82 e9 df ae bf be 29 34 15 07 1b c1 bf
       -0.06030206416076706 -0.13363731894817293
000010 79 0c 40 27 7f 96 97 bf a9 fa 99 4e 41 4d be bf
       -0.023035036821977137 -0.11836631936055632
000020 5d ca 54 5b 0b e6 a7 3f 08 26 00 67 29 b7 b6 3f
       0.0466769742000863 0.0887323261705647
000030 57 81 e2 19 6e ef 90 bf d3 42 6e 6f 2d 5c b0 bf
       -0.01653835328090855 -0.06390651674724816
000040 de e8 d2 4c ec a9 ad bf 3b 56 e7 c1 66 43 9d 3f
       -0.057937034967339804 0.02857742842191711
000050 64 6f 1b 17 3a 28 c2 3f 70 e9 4f e8 fd 9e b9 bf
       0.14185262802390775 -0.10008227273639192
000060 ea 90 25 5a 89 2f bf bf 05 9f 1f e4 a5 ad b1 3f
       -0.1218190999111958 0.06905590838834648
000070 f6 85 87 20 13 15 c5 bf 6a 70 ff 16 f0 ba a8 3f
       -0.16470564926480308 0.04830122261748289
000080 b7 a6 1a ac bb 14 9e bf 05 6b d7 f0 82 0f 74 3f
       -0.029375965480233215 0.004897605407189647
000090 e7 38 65 67 56 05 b3 3f 06 eb f0 13 90 8b b2 bf
       0.0743001940183806 -0.07244205939143109
0000a0 1c 1b e0 43 46 31 bb bf d0 bf ba 2a 5c 3b ac 3f
       -0.10622061879267303 0.05514038106537067
0000b0 66 0a 69 dd 8d bd b8 3f ce dd 97 78 b0 70 af bf
       0.09664236693883196 -0.06140662643513971
0000c0 bc ea 13 43 d3 af a7 3f 11 f8 5b b9 cf 0c c2 bf
       0.04626331514187629 -0.14101597357506582
0000d0 a3 2a c6 a8 34 fc ab 3f c0 37 42 d1 67 f7 c0 bf
       0.05465855179052894 -0.1325502177973572
0000e0 7f 74 7a 5c 32 75 8e bf 3f 6d 46 33 bd e4 bb 3f
       -0.01487197251054284 0.10895903112252812
0000f0 dd 2f 61 28 a2 c0 a5 bf 1a 64 45 e5 13 32 a2 bf
       -0.042485301427035195 -0.03553831266135195
000100 91 09 e8 6d b0 48 8b bf e7 e7 66 2b cb 27 a2 3f
       -0.013322237352444673 0.03545985131081846
000110 fa 89 be 4e f3 cb a4 bf 75 f1 08 1d e4 22 af bf
       -0.040618518221226155 -0.06081307272367812
000120 4e aa 6f 3a b0 14 a9 bf a0 74 8d 02 c5 8b 8a 3f
       -0.04898596490223338 0.012961901798627828
000130 61 8c 80 8c ba 3d b9 3f 0a a9 09 82 2a b8 be bf
       0.09859815530994488 -0.11999765085935024
000140 ae 4e b5 f8 a1 9c c2 bf c4 48 c6 40 63 fd c2 bf
       -0.14540505069691306 -0.14835777914828985
000150 35 23 c3 00 8a ab c1 bf 9a 17 d4 0a 81 f2 a9 bf
       -0.1380474570962861 -0.050678284236752094
000160 4b 35 8b fd fc 6d b0 3f e0 8e d3 dd e3 e1 a1 bf
       0.06417828741105784 -0.03492652972070487
000170 60 69 5c ed 86 24 8f 3f ea 4d 4c 2f af 42 97 3f
       0.015206388586695041 0.022715317975849837
000180 29 00 11 ed 4d f6 b2 bf f1 60 0f ae ea 66 bb 3f
       -0.07407080686334723 0.10703913449777126
000190 2f a2 09 95 f1 df b0 3f 4c 3f 0c 12 ea 9c b3 3f
       0.06591710938085592 0.07661307278271784
0001a0 e7 89 59 f2 2b 3e bb bf 90 28 4e 26 8e dc b5 3f
       -0.10641741434805106 0.08539665637195726
0001b0 82 7b 5d 78 73 79 70 3f 80 5d e7 6e 3b 12 a5 3f
       0.004022074752213169 0.0411547253494815
0001c0 bb f1 b5 df 01 1e 84 3f 42 75 2b 54 44 ed b9 bf
       0.009822859420403831 -0.10127665572095615
0001d0 58 cd de 17 4e ab b0 3f 84 66 13 8e 81 04 c2 bf
       0.06511390764972214 -0.14076251447004406
0001e0 53 3c 43 ae 92 9a 96 bf 0f 92 69 c1 a9 dc c3 bf
       -0.022074024091861166 -0.15517160362209423
0001f0 4d 78 d7 70 64 05 93 bf 96 8b 3a 51 a1 84 64 3f
       -0.01857525767069772 0.0025046492317683617
